TuiGAN/models/facade2labels/a0.pth (torch, 131453 bytes, 25 tensors)

weight f4 [32, 3, 3, 3]
00000000: 7d6f 7bbd b1b7 503d 42fd 16bd 6f17 2d3d
00000010: a0b6 06bc 5e9f 133d 3c3a 0abc 7e0e 173d
00000020: 73ac 1ebd 74e4 93bd 2fa9 073d 75ce 49bd
00000030: 2b3e e23c 067d 8bbc ce9c ca3c 1514 4fbc
00000040: 942a 9e3c 8ffe 53bd 647a 9fbd c42d c63c
00000050: b37a 80bd bb93 123d 24d0 b6bc 2efd bd3c
00000060: 5699 18bc 5643 883c 1e0f 76bd 7337 57bd
00000070: e951 863b 52c3 213d 5337 d6bc 3bd6 61b7
00000080: 6b99 323c 9001 813d dc14 f6bb 08b4 84bd
00000090: 75bd 37bd 7ce9 ac3b 782a 2a3d 5056 35bc
000000a0: c293 6b3c b886 cc3c d4fe 6f3d f094 a0bc
000000b0: fd4e 8cbd 0543 45bd 9220 dc3a 66e5 353d
000000c0: f63b 76bc c2c1 853c 2bcd 233d f014 7f3d
000000d0: 110f d0bb 480c 55bd eb5a 893d 2063 c83c
000000e0: d129 8dbd 5bee 203d 9903 0c3d 5500 6fbc
000000f0: b43d 193c d2fd 143d 29d7 a9bc 8c58 3e3d
00000100: a17e b73c 86a0 80bd 4df0 ba3c 586f 963c
00000110: ad5a b8bc e46a 2c3c ac1a e03c 7798 1dbd
00000120: ff08 5c3d 3909 633c e715 9abd d948 1b3c
00000130: fddc 003b 35c6 0bbd c306 2cba cf9b e63c
00000140: 6a49 0ebd 99b8 fa3c efbf 3bbc 421a 123c
00000150: 8294 043c d25c f23a 8552 e93b 072f dd3a
00000160: e16d 913c 8cdf 9338 63cb ab3d 3449 0a3d
00000170: 4b37 893d 4344 993c e595 6e3d 1a00 0c3d
00000180: 2611 8f3c 1258 343d d3f7 df3c 8ded 7f3d
00000190: 8b99 723d 3921 e13d c8eb 23bc 08bf d63c
000001a0: 0b3c df3c 1d45 73bc d177 e13c 9320 b3bb
000001b0: 42d3 a7bc 1ec0 733d 4ee4 083d 227e 6dbd
000001c0: ac95 4e3d 0dfc 1d3d 0b57 fabc dfa7 453d
000001d0: 2ee1 483d c664 63bd d7e8 ee38 5c23 f2bb
000001e0: 4f0e 9abd d1e2 b13c 3160 263b 4ae8 4bbd
000001f0: 1364 833c c25d 533c d412 d7bc 0315 0e3d
00000200: a3c2 593c 1a6c 7dbd bf41 d63c 083c 103c
00000210: e41e 4bbd c5ab 0b3c 6d33 60bc 0994 9bbd
00000220: 7d65 92bc 337c 253d 21d5 4abc 9744 bbbb
00000230: ca03 d73c eb8d c93a 401e b23c 6911 0d3d
00000240: 5a8a 71bd 39e8 2dbb 2fbd 523d 3c2d b9b8
00000250: 61d3 32bb b2f8 133d f2f4 db3b b78b cb3c
00000260: 3a61 1c3d cc27 81bd 185e 74bc 907d 323d
00000270: f1b6 94bc b7f9 b6bc 154a 123c 7695 043b
00000280: c46d b03b 297e 933c 813a 193d 4f8a 50bd
00000290: dbd3 2f3d 4ab9 bb3c ad14 0fbd b2c8 e03c
000002a0: 5a49 9638 89a8 76bd c641 293c c282 553d
000002b0: 5a58 0abd 12b7 433d 9154 9b3c 8642 0abd
000002c0: 5ea7 bb3c bba4 18bc 5457 78bd 7d74 023c
000002d0: 35b6 0c3d 43ae 35bd 18fc 0d3d a30b c23b
000002e0: 5304 15bd 3d6d 683c 3d2b 8abc 7cad 7bbd
000002f0: a0fb a3bb 9638 543d d9f9 f63c 1a28 283d
00000300: 3a6d 28bd f019 18bd dcdc 21bd 7863 fbbb
00000310: de5a bdbb 0aee 2ebc 0ab3 843d 1fdd 1b3d
00000320: 1775 293d 7378 3abd 29fa 12bd 1e15 26bd
00000330: 7867 45bc 387a 59bb c92f 11bc e473 883d
00000340: 7ec9 2b3d 48e9 563d bb43 41bd 7aa4 28bd
00000350: 2c1f 3cbd 2594 04bc 003a ccbb 00fe 06bc
00000360: d3b3 c2bd 1ddd 8bbd 6129 b5bc c65d e7bc
00000370: 41ed 94bc a4d8 49bc 5adf 2fbd c641 38bd
00000380: 3f68 26bd 7f7d 95bd ff71 5abd 28a1 b43b
00000390: 845e 08bd 55ab 46bc 164c ee3a 370e 1bbd
000003a0: 073f a7bc 0892 c0bc 5934 1ebd c7f0 f3bc
000003b0: 7cf6 253d d9ad 4fbd 238e fdbb 9db4 0cbb
000003c0: 4bb6 07bd 3445 2ebc c7d0 72bc 1fc5 2b3c
000003d0: 029b 7f3c c1dd 8dbc b384 29bc 7456 083d
000003e0: 576e b5bc 591f 96bd 1624 413d fa91 6fbc
000003f0: 14c5 e3bb 5b6c d8bb 9cdb 1bbd b9ee 05bd
-0.06138562 0.05095643 -0.03686262 0.042258676 -0.008222252 0.036040656 -0.008436736 0.036879055
-0.03873868 -0.07221308 0.03312033 -0.04926916 0.027617535 -0.01702739 0.024732973 -0.012639065
0.019307412 -0.051756438 -0.07787016 0.024191745 -0.06273403 0.035785418 -0.022316046 0.023192015
-0.009313902 0.01663367 -0.06007301 -0.052543115 0.00409912 0.039492913 -0.026149428 -1.34609245e-05
0.0109008355 0.06299126 -0.007509811 -0.06479651 -0.044858415 0.005276857 0.041544408 -0.011067942
0.01437849 0.024966583 0.058592632 -0.019602269 -0.06851003 -0.048159618 0.0016794375 0.044408225
-0.015028944 0.016327742 0.039990585 0.062275827 -0.0063494523 -0.052013665 0.06706794 0.024461329
-0.068927415 0.039289813 0.03418312 -0.0145874815 0.00935309 0.036374874 -0.02073248 0.046471164
0.022399249 -0.062806174 0.022819662 0.01836364 -0.022504175 0.010523532 0.027356468 -0.03847548
0.053719517 0.013857179 -0.07523709 0.009477817 0.001966297 -0.03412457 -0.0006562287 0.028150467
-0.03473798 0.030605601 -0.011459335 0.008917393 0.008092048 0.0018490797 0.007120433 0.0016874977
0.01775259 7.051145e-05 0.08388402 0.03376122 0.066999994 0.018709308 0.05824842 0.034179784
0.017464232 0.044029303 0.027339851 0.062482405 0.05922846 0.10992665 -0.010004945 0.026214138
0.02725031 -0.014848021 0.027522953 -0.0054665296 -0.020486478 0.05950939 0.033420853 -0.057981618
0.050435707 0.038570452 -0.030559083 0.048255797 0.049042873 -0.055516027 0.00011392094 -0.007389469
-0.075222604 0.0217146 0.0025386924 -0.049782075 0.01603893 0.012900772 -0.026254095 0.034688007
0.013291034 -0.06187067 0.026154397 0.008803375 -0.049590006 0.00852484 -0.013684136 -0.07596595
-0.017870659 0.04040165 -0.012379915 -0.0057149637 0.026246924 0.0015377378 0.02174294 0.03444043
-0.058969833 -0.002653612 0.05144995 -8.829913e-05 -0.0027286636 0.036125846 0.0067125494 0.024846895
0.03817866 -0.06306419 -0.014915012 0.043576777 -0.01815364 -0.02233587 0.008928795 0.0020230687
0.005384179 0.018004494 0.03740931 -0.05091315 0.04292665 0.022915501 -0.034931827 0.027439449
7.16622e-05 -0.06021932 0.010330623 0.052126653 -0.033775665 0.04778201 0.018961223 -0.033754848
0.022906955 -0.009316619 -0.060630158 0.007962343 0.034353454 -0.044355642 0.034664243 0.0059217974
-0.036381077 0.014186201 -0.01686632 -0.061444744 -0.0050043613 0.051811777 0.030148434 0.04105387
-0.04111979 -0.03713411 -0.03951727 -0.0076717697 -0.0057786545 -0.01067687 0.064794615 0.038052674
0.04137143 -0.045525026 -0.035883103 -0.040547483 -0.012048595 -0.003318442 -0.0088614905 0.066627294
0.041940205 0.052468568 -0.047183733 -0.041172482 -0.045928165 -0.008091961 -0.0062325 -0.008239269
-0.09506955 -0.068292834 -0.022114458 -0.028242957 -0.018179538 -0.012319718 -0.042937614 -0.0449846
-0.04062676 -0.07299327 -0.05333137 0.0055123754 -0.033293262 -0.01212581 0.0018180634 -0.037855353
-0.020415796 -0.023507133 -0.03862414 -0.029777898 0.04051827 -0.050702903 -0.0077378913 -0.0021469959
-0.033132832 -0.0106366165 -0.014820284 0.010484009 0.015600922 -0.017317655 -0.010346579 0.033285573
-0.02214734 -0.07330198 0.047153555 -0.014622206 -0.006950984 -0.006604714 -0.038051233 -0.032698367

bias f4 [32]
00000000: da40 3d3c e078 40bf d840 0cbd f9a6 283e
00000010: 41dc 0ebf 046c 183e 2339 b73e f94a b43c
00000020: 3afc d03d 353c 803d f93c a83c 0a81 80be
00000030: a871 8f3e 0dce 5c3f ec9f 313e f600 49be
00000040: 3481 be3d 1463 89be d05e ed3e 613d 903d
00000050: 4750 703d e44f c8be 9cd6 14bf 82dd c4bd
00000060: c5aa 063d 3740 9f3e 4173 0abe 9153 9d3e
00000070: 5ae1 b43d d8e8 ae3e 8583 703d 19c6 41bf
0.011551106 -0.7518444 -0.034241527 0.16469945 -0.5580483 0.14884955 0.3578578 0.022008406
0.102043584 0.062614836 0.020536887 -0.2509845 0.280164 0.8625191 0.17346162 -0.19629273
0.09301987 -0.26833403 0.463614 0.07042957 0.05867031 -0.39123452 -0.5813997 -0.09612562
0.032877702 0.3110368 -0.13520528 0.3072782 0.08832045 0.3416202 0.058719177 -0.756929

weight f4 [32]
00000000: dd9b 6f3f e743 3f3f ecec 813f 0efa 6c3f
00000010: 6e2c 733f 6869 843f 6c5b 833f 296c 653f
00000020: 7419 893f d44f 753f ffbf 6a3f b5a3 7e3f
00000030: c00e 773f bb6b 3f3f f66a 803f b447 8d3f
00000040: 702c 823f ef01 7e3f f5a5 4d3f 2783 583f
00000050: 4082 733f 4d18 563f a8e9 783f edf8 683f
00000060: 86a9 853f 687d 783f b7b1 533f b5fe 803f
00000070: 638c 513f 01a9 7d3f c31d 903f 1f0a 2c3f
0.93597203 0.74712986 1.0150428 0.92569053 0.9498967 1.0344667 1.0262275 0.89618164
1.0710893 0.95824933 0.9169921 0.9946855 0.9650688 0.7477376 1.0032642 1.1037507
1.0169811 0.992217 0.80331355 0.8457512 0.9512062 0.8363083 0.9723153 0.9100483
1.044236 0.97066355 0.82693046 1.007773 0.8185484 0.99086004 1.1259083 0.67202944

bias f4 [32]
00000000: 9725 ff3e 94c4 623c 641c 843e b544 7b3e
00000010: 7d87 d13e 8e54 713e 1896 273f 58cb 663d
00000020: b0ba dc3e 6b2d fe3e a80e 293f 885b 983e
00000030: 6c6c d43e 0bfa 4d3e 270e 123e 56cf 043e
00000040: 8c37 fc3e 3a1f ea3d 16a9 353f 64ed 063f
00000050: 5539 e13e 15b1 90bc bd1b ce3e 5541 f53c
00000060: 07fa 103e d991 163f 6a26 223f b5b8 283f
00000070: 7115 c03e c67e 893e 107c 3d3c 6d67 d93d
0.49833366 0.013840813 0.2580291 0.24537928 0.40923682 0.23567411 0.654634 0.056346267
0.4311118 0.49644026 0.6603799 0.29757333 0.4148897 0.20114915 0.14263211 0.12969717
0.4926113 0.11431737 0.7096113 0.5270598 0.43989053 -0.017662564 0.40255538 0.02993838
0.14157878 0.58816296 0.63339865 0.6590684 0.37516358 0.26854533 0.011565223 0.1061543

running_mean f4 [32]
00000000: 250a 6c3c 7ec8 40bf d4fb 10bd 01bb 1a3e
00000010: 6657 0fbf 4a63 173e c688 ba3e 6fc0 d73c
00000020: fc5e ed3d 442b 913d ae55 0c3d 562a 7fbe
00000030: 0918 8f3e 1cab 5c3f 241c 303e a999 49be
00000040: bb00 c13d 8cd6 88be aa83 ee3e 339a 8e3d
00000050: 13ec 653d 8077 c8be 9676 15bf 0f7c bfbd
00000060: c85a d63c 835b a83e 4ee6 13be 091f a33e
00000070: 253e 9c3d 733b b03e 40b0 3c3d f8e7 40bf
0.0144067155 -0.75305927 -0.035396412 0.15110399 -0.55992734 0.1478397 0.36432475 0.026336877
0.115903825 0.070883304 0.034261398 -0.24918494 0.27948025 0.8619859 0.17198235 -0.19687523
0.094239675 -0.26726186 0.46584827 0.06963005 0.05613334 -0.3915367 -0.5838407 -0.09349834
0.026166335 0.32882318 -0.14443323 0.31859615 0.07629041 0.34420356 0.046066523 -0.75353956

running_var f4 [32]
00000000: 6707 183c 2f3a 473b 033f 7b3c 045f 8e3d
00000010: cafd 643c 21b9 243c d6f8 3d3c 6f26 fd3b
00000020: 12b6 9e3d 6039 c03c f27c 9c3d ab4d 5b3c
00000030: cc6f 713c 92f7 9d36 6c2d 463c c890 123c
00000040: e57b 4d3c 2099 033c fd6c 973c e112 db3b
00000050: 7d02 473c abd5 103b bc9a 573c 0dbe 883b
00000060: 543a 3d3d 69fc 3f3d 93ea 5b3c 7e37 213d
00000070: fa81 b23c 7d6a 363c b421 683d c624 d03a
0.009279109 0.003039967 0.015334847 0.069517165 0.013976524 0.010053904 0.011594972 0.007725529
0.07749571 0.023464859 0.07641019 0.013385217 0.014736127 4.7077856e-06 0.01209579 0.008945651
0.012541746 0.008032113 0.018484587 0.0066856 0.012146589 0.0022100012 0.01315945 0.0041730464
0.046198204 0.046871576 0.013422626 0.039359562 0.021790493 0.011133787 0.056672767 0.00158801

weight f4 [32, 32, 3, 3]
00000000: 3faf 35bd 04dc d4bc 148c 013d e398 3ebd
00000010: 588c bf3c bdf7 943d a62c debc 5315 1e3d
00000020: 45bc 173d 80bb 28bc dfe9 6abc a0fe 963b
00000030: b9af e7bc 0378 ef3b e9a4 ed3c 2290 1a3d
00000040: 6a09 ad3c ff7e 27bd 2e92 2f3d 7fc5 16bd
00000050: ef22 3a3d 9ba3 28bc 6f29 04bc 0e3f 553d
00000060: 13ed 29bd 37f2 853d 4f08 3e3c 5343 5dbd
00000070: 91bd 8bbb af67 05bc 56f3 3dbb e321 91ba
00000080: 3648 e93c 269b 153c 3fc5 0c3c a91c 823c
00000090: 6afc 30bd bb6b babd d25f c0bd 7f84 ee3b
000000a0: 6bc1 d8bc c63d b5bd 40e4 57bd 4461 f7bc
000000b0: 7de0 36bd 9409 113c 71d4 2abd c93f 6cbb
000000c0: 1442 393d 7ee2 f1bc 92d3 a1bc b5e2 bd3d
000000d0: 981e fe3c 90c8 40bd c95d 2fbd 6687 5f3b
000000e0: 4e8d e83c 2b79 82bd 9b2d 1a3c aa38 373d
000000f0: db72 30bd 0fa0 0bbd 636a 8939 528a 183d
00000100: f454 e3ba 05c2 0ebd 9f6a 563b 1bb2 91bd
00000110: 46fb 24bd 383a e03c c64c 42bd d943 49bd
00000120: b693 a0bd 8839 7ebb 1f5e 2bbc 3f57 33bc
00000130: 267f f2ba eeb0 ccbc 894c 1ebc 97c4 853b
00000140: b0e1 653c 8894 4bbb b47d 48bc c8b7 99ba
00000150: 5f97 56bd b37f 2fbd 50af 9a3c 03fa 89bd
00000160: 927a 82bc 8aac 333d 732f e1bc f6ec 2dbc
00000170: a617 01bc b621 a13b 6016 5ebc 035d cf3a
00000180: d0ed 39bc b460 1d3c 7aff 9e3c 01a8 a63b
00000190: 1c19 38bd 29c4 50bd ad1f 113b a493 233d
000001a0: 9c36 aebc 9a2c 0b3d f6ac af3d f82d fbbb
000001b0: 05aa a63c ad2f a4bc 3c6a 0b3c c5d1 1e3d
000001c0: 3cf5 6a39 982e eaba 221f ad3d 0176 b0bc
000001d0: 117c 10bd 01ea cfbc f116 0abc 25c9 d83c
000001e0: 9010 e3bc 6f85 20bc c827 f23b 485b 96bc
000001f0: f2f7 58bb 8ab8 6abb 06f6 e4bc 27e1 b8bd
00000200: b491 96bd cfc7 edbb b973 a1bc c509 4cbd
00000210: 10d3 48bb 7ea0 89bc 1e61 9f3d fb76 40bb
00000220: 2703 eb3c f6c7 babc c08e d4bc cb75 cbbc
00000230: b00d a43c 2a1c 9dbd ab4f 0f3d e631 8c3d
00000240: 7087 d9bc f626 ed3b e68a 003d 90dd cdbb
00000250: 2090 323d 4dba 8dbc e09a fcbb ff20 a53d
00000260: 79b1 38bd bfd1 0e3d d350 013c f295 e9bc
00000270: 09a6 713c 42db f2bc 4d7c 91bc 2cdd 293c
00000280: 7b59 9e3c 87f5 8e3c 83d6 843d 3213 293b
00000290: bff4 053d 607b b93d 08c9 823a 91f7 0e3d
000002a0: 1aa6 0e3d de74 bb3c 1c58 103c bb52 61bb
000002b0: 170d 43bd e451 30bd e027 0c3b 825f febc
000002c0: 1e34 49bd b668 afbc 3c75 3dbd 61cd a5bd
000002d0: a4c7 6abd 62d4 283c adcb 243c 7078 42bd
000002e0: b647 2ebd ddac 24bd 2e71 933d a3cb 05bc
000002f0: 60f0 81bc 8cc9 0dbd 1754 47bb d276 c5ba
00000300: 70c3 fc3b 88d3 a7bc 3d8c 6f3c c79c d4bc
00000310: 651b 2f3b 8184 32bd ebd4 39bc 1c43 8e3c
00000320: 5212 11bd 8f54 173d a5bd 493d c6f8 ce3c
00000330: 021d a33c f53d 083d 1ca0 afbc fc91 c43c
00000340: 2a41 213d da32 62bc e8e7 1fbd 8888 5bbc
00000350: 4873 9ebc 3f1c f23a c62a 25bb 3fad 5b3d
00000360: 7139 8fbd 63c2 8cbd 115f a9bd 9248 923d
00000370: aa9b e5bc 5e42 84bd 1820 56bd d8fe afbd
00000380: db25 b7bd 06c9 b2bb e9a7 393c 54cf 153c
00000390: 8dd2 55bd e047 26bd f429 16bd 9c57 88bd
000003a0: 0313 59bc f1ea 4dbc a68b fcbc 0b2a 3bbc
000003b0: 3f8e 3d3c 26a1 aebb 2eef 8d3c 86c2 603d
000003c0: 4363 54bb 1c01 85bc d6fd f53c 777c 673d
000003d0: c451 523d 102c 403d 6f79 f03c b08a 4e3d
000003e0: 00e6 ecbc e8b2 603d 504e 4f3d 1baa 85ba
000003f0: 9315 34bb d938 403a 01a1 a83d 9e18 8cba
-0.04435658 -0.025983818 0.03162773 -0.046532523 0.02338235 0.07273815 -0.0271209 0.038594555
0.037044782 -0.01029861 -0.014337986 0.0046079904 -0.028282033 0.0073080077 0.0290093 0.037735112
0.021122653 -0.040892597 0.042864017 -0.03680944 0.04544347 -0.010292913 -0.008066519 0.052062087
-0.041485857 0.065403394 0.011598661 -0.054019284 -0.0042645414 -0.008142396 -0.002898415 -0.0011072721
0.028476816 0.009131229 0.008591949 0.015882807 -0.04320947 -0.09102579 -0.09393276 0.0072789784
-0.026459416 -0.08849673 -0.05270791 -0.030197747 -0.044647682 0.008852381 -0.041706506 -0.003604876
0.045229033 -0.029526945 -0.019754205 0.092717566 0.031020448 -0.04706627 -0.04281405 0.0034107803
0.028387692 -0.06370767 0.009410287 0.044731773 -0.043078285 -0.03408819 0.0002620994 0.037241288
-0.0017344044 -0.034853 0.003271736 -0.07114049 -0.040278696 0.02737151 -0.047436498 -0.04913697
-0.078406736 -0.0038791616 -0.010459452 -0.010946094 -0.0018501028 -0.02498671 -0.009661802 0.004082273
0.014030859 -0.0031063873 -0.012237001 -0.0011727745 -0.052390452 -0.042846393 0.018882424 -0.06737139
-0.015927587 0.043865718 -0.027488446 -0.010615578 -0.007879173 0.0049173487 -0.013555139 0.0015820566
-0.011348203 0.009605575 0.01940893 0.0050859456 -0.04494582 -0.050968323 0.0022144124 0.039935723
-0.021266274 0.033978082 0.085779116 -0.007665392 0.020344744 -0.020042265 0.008509215 0.03877427
0.00022407336 -0.0017866669 0.08453204 -0.021540644 -0.03527457 -0.025380136 -0.008428321 0.0264631
-0.027717859 -0.009797438 0.007389996 -0.018354073 -0.0033106771 -0.003581556 -0.027949344 -0.090273194
-0.073520094 -0.007256485 -0.019708501 -0.049814004 -0.0030643381 -0.016800161 0.077821955 -0.0029367793
0.028688027 -0.022800427 -0.025946975 -0.024836442 0.020026058 -0.076713875 0.034988087 0.06845455
-0.02655384 0.0072373105 0.031382464 -0.006282516 0.04359448 -0.01730075 -0.007708892 0.08062934
-0.045091126 0.034868 0.007892805 -0.028513882 0.0147490585 -0.029645566 -0.017759467 0.010367673
0.019329777 0.017451061 0.06486227 0.0025798795 0.03270411 0.09056735 0.0009978125 0.034904066
0.034826376 0.022882875 0.008810069 -0.0034381587 -0.047619905 -0.043046847 0.0021386072 -0.031051401
-0.04912197 -0.021412235 -0.04625438 -0.080958135 -0.0573193 0.010304542 0.010058326 -0.04747814
-0.042548858 -0.040203918 0.07199322 -0.008166227 -0.01586169 -0.03461604 -0.0030415112 -0.0015065318
0.0077137277 -0.020486608 0.014620838 -0.025953664 0.002671921 -0.043583397 -0.0113422675 0.017365985
-0.035417862 0.036945876 0.049253125 0.025265109 0.019911293 0.03326221 -0.02143865 0.023995392
0.039368786 -0.013806069 -0.039039522 -0.013399251 -0.01934208 0.0018471553 -0.0025202497 0.053632017
-0.06993378 -0.06873014 -0.082700856 0.07142748 -0.028028328 -0.06457971 -0.0522767 -0.085935295
-0.08942767 -0.005456093 0.011331537 0.009143669 -0.05220275 -0.04059589 -0.036661103 -0.06657335
-0.013249162 -0.012568221 -0.030828308 -0.011423598 0.011569559 -0.005329269 0.017325964 0.054873012
-0.0032407797 -0.01623588 0.030028265 0.056515183 0.05134751 0.04691702 0.029354779 0.05042523
-0.028918266 0.05485812 0.050611794 -0.001019779 -0.002747868 0.000733269 0.08233834 -0.0010688489

bias f4 [32]
00000000: 101a 00bd b853 073d b462 d83c de6c 73bd
00000010: a9ce 19bd e8a0 67bd 0165 f93c 0218 ca3c
00000020: 7d3b 7cbc c6a6 f6bc fdd3 84bd e6d4 8b3b
00000030: 3aa6 1b3d 2426 b63d db42 16bc c69c 7cbd
00000040: 5a6d 1fbc 8126 5ebd f184 6f3d 983c 583d
00000050: ce3f 323d fb60 29bb ece2 b6bc 3076 66bd
00000060: feb5 2e3d 5948 ddbb d17d 523b 79ea 6c3a
00000070: 5e93 62bd 77b2 f8bc 0fd8 b43c 217b ef3c
-0.031274855 0.033038825 0.026414253 -0.059429996 -0.037550602 -0.056549937 0.03044367 0.024669651
-0.0153950425 -0.03010882 -0.06485746 0.004267323 0.038000323 0.088939935 -0.009171213 -0.06167295
-0.009730661 -0.05423594 0.058476392 0.05279216 0.04351788 -0.0025845158 -0.022325002 -0.056265056
0.04265403 -0.0067530093 0.003211845 0.00090376247 -0.05531632 -0.030358536 0.022075681 0.029233517

weight f4 [32]
00000000: 6b6c 6d3f bb23 723f 0ce0 793f 2cef 673f
00000010: 6766 713f fb6b 5f3f 79e8 6c3f d31e 763f
00000020: 3c14 863f 674f 713f dc73 653f 5860 7e3f
00000030: ca3b 6c3f 6962 503f ed08 693f aaa9 753f
00000040: c682 863f c269 623f cb2b 733f 23ac 6a3f
00000050: cd65 5a3f 0cb6 6c3f 0b80 783f de07 683f
00000060: ff94 733f 2975 7b3f 9db4 4c3f c60e 653f
00000070: 2abb 723f f5c5 7a3f 797a 7f3f 0e34 653f
0.9274356 0.9458577 0.97607493 0.9059932 0.9429688 0.8727414 0.92542225 0.96140784
1.0474925 0.94261783 0.8962991 0.9936576 0.9227873 0.8140016 0.91029245 0.9596201
1.0508659 0.88442624 0.949887 0.9166891 0.85311586 0.9246528 0.9707038 0.90637004
0.95149225 0.9822565 0.79963094 0.8947567 0.9481684 0.9795831 0.99796253 0.89532554

bias f4 [32]
00000000: f007 113f c1dd c13e 7872 213f 48e2 013f
00000010: c859 0c3e cb8d 053f e787 453f 0c46 fc3e
00000020: c8bb 0d3e 3eda 913e 36d5 b13e 743d af3e
00000030: 4db6 c33e b8ea 363f fd04 3f3f b2a1 e03e
00000040: c3f5 bf3e f0f8 bb3e 2cde 813e 875b 623e
00000050: 8d87 373f 0ae0 113f f6bc 6d3e 12d1 d83e
00000060: a2c7 8c3e 9186 9a3e c626 493f 695b 0b3f
00000070: bfcb f73e fab4 ec3d 14d2 563e cb27 e43e
0.56652737 0.37864497 0.6306529 0.507359 0.13706124 0.52169484 0.77160496 0.49272192
0.13841164 0.28486818 0.3473298 0.34226573 0.38225022 0.714519 0.74616987 0.43873364
0.3749219 0.36713362 0.25364816 0.22105227 0.7169121 0.5698248 0.23216614 0.42347008
0.27496058 0.3018079 0.7857479 0.54436356 0.48397633 0.11557956 0.20978576 0.4456161

running_mean f4 [32]
00000000: ccde 0fbf eb0f b23e ef89 4fbf f9ac 8bbc
00000010: 9091 bbbf 427f 0ebf a701 d23e d381 c83f
00000020: cf12 d9bf 658e 5a38 f38a 51bf c1fd 6dbf
00000030: 0a9c d8bf f2ca a9bf ede8 b6be 696f b3bd
00000040: 224b 3abf 26f6 813f 1a16 c7be a1b7 e23f
00000050: 49ca 72bf 89a1 0e3e 16c1 22bb 1e85 cebe
00000060: 6396 40bf 02d2 34bf 10a2 ac3f af71 443d
00000070: d420 7abe 5414 a1bf 8f28 e2bf 12b2 3f3d
-0.56199336 0.3477777 -0.81069845 -0.017050253 -1.4653797 -0.5566293 0.41016886 1.5664619
-1.6958865 5.2107865e-05 -0.81852645 -0.9296532 -1.6922619 -1.3265059 -0.35724583 -0.08761484
-0.72770894 1.0153244 -0.3888405 1.7712289 -0.9483991 0.13928808 -0.0024834326 -0.40335935
-0.7522947 -0.70632946 1.3486958 0.04795998 -0.24426585 -1.2584329 -1.7668628 0.04680068

running_var f4 [32]
00000000: 93c0 e93e 6e5c 883e f470 743e 6b2c c13e
00000010: 4233 bb3e 1584 083e 9eac b43e 4f7c c43e
00000020: 42ff e83e 89e0 923e d05b 403e 1ebf 3d3f
00000030: 6b48 883e 1758 9c3e afa3 ed3e 1ff7 783e
00000040: e40d 513e 6ab8 8b3e 5f55 b93e 803c 573e
00000050: bc23 ca3e 441f bb3e 7379 c33e abdf 403e
00000060: e4fa 913e 3025 bb3e 5b2f 313e 9f16 7e3e
00000070: 9aeb 163e ef90 573e f271 523e 821d c33e
0.45654735 0.26633018 0.23871213 0.377292 0.36562544 0.13331635 0.35287946 0.3837609
0.45507246 0.28686932 0.18785024 0.74119747 0.2661775 0.30535957 0.46413943 0.24313019
0.20415455 0.27289134 0.36197945 0.21019173 0.39480388 0.3654729 0.38178596 0.18835323
0.28511727 0.3655181 0.17303221 0.24813317 0.14738312 0.21051382 0.20551279 0.3810845

weight f4 [32, 32, 3, 3]
00000000: fa88 413d 1833 25bd 1fb3 38bd b410 993b
00000010: ab79 e7bc eb3a 90bd 1428 a93c 27be 2abd
00000020: 787d 1fbd ccbf 9cbc 2869 92bb 0657 debc
00000030: 4006 79bc 6c96 6abc 5e6c 80bb 43cd e23d
00000040: 672d 9f3c 0676 633d fbff e63c bb73 07bd
00000050: 5ab7 f8bc 5f4a e6bc 7f70 d4bc 78bf 74bd
00000060: 75be 1f3d f888 103d 2717 713d 1d31 02bd
00000070: 52b1 9bbc 5677 2cbd a2d3 26bd 2c06 8ebb
00000080: acd1 08ba abdb a4bc 4a18 17ba 2c78 cfbc
00000090: 6146 763d e51d 3d3c 52b4 d83d 05d6 263d
000000a0: 1147 42bd dd5d 6b3a e939 b03c 6440 cf3c
000000b0: 5043 463b 7e0b b33c 09f5 14bd 0823 09bd
000000c0: 71c1 da3c c424 1a3c 4548 063c 81d4 4d3d
000000d0: deda 623b cdd7 03bd 3384 b0bd 9934 d6bd
000000e0: 9dc4 46bc 6c04 f4bd 92de afbd f9a8 67bd
000000f0: 8771 053d d9e4 29bd e405 75bc 39c7 3b3b
00000100: a59f bebb 52f7 28bc ccca 893c 6a03 25bd
00000110: 7a15 1fbd 55bc 663c 629e 11bd 7eec e6bd
00000120: 7a78 7bbc 9612 183d 361a daba 44e0 943b
00000130: 2b34 d13c a9ec c73b beca 55bd 75c0 51bd
00000140: 80b8 95bd 9d12 393a 9745 5cbc 65f2 90bd
00000150: 7f60 16bd f7ab e1bc 27c7 07bd feb8 8bbc
00000160: 6e25 9cbc e5e3 dabc 1203 75bc 0dee acba
00000170: e378 71bc c533 81bb 0245 06bd 29b8 213b
00000180: fa76 3ebd 482b 83bd 2238 0f3c ae92 393d
00000190: 5d1f 523c 6406 91bd dd96 413c 54b9 113c
000001a0: 9a65 3fbd 7cc8 2a3c 235e 2a3d d44c 00bd
000001b0: 469f 1c3c a11f d73c 8367 26bd a18d 37bd
000001c0: ce61 80bc 4b14 45bd febb 5ebd 44c1 8bbc
000001d0: e4b4 d6bc cfb3 debc a07b 05bd 16e4 53bd
000001e0: 1eb3 abbc b83d 76bc 26a5 11bd 0e9d b0bc
000001f0: 6de4 c83c 348d 87bc ecef d2bb 2634 8abc
00000200: d69c 0ebc 9423 39bd 4006 b5bc dc49 c0ba
00000210: 7bdb be3c 0fd7 69bc 6595 c33a 4652 69bd
00000220: 57a7 9ebd 17d7 40bd e439 80bd 3103 a7bd
00000230: ea34 5ebd 0d83 6dbc 14ea 08bd 9009 8e3c
00000240: 4834 d73d cb4e cf3c b9fc 933d 672e d53c
00000250: 7348 dd3b 445d d33c 4bc0 343d 5619 413d
00000260: 2cdb 453d 9358 2d3c b791 3f3c c768 5bbc
00000270: ad64 4d3d bf14 293d 78e5 973c 8817 733c
00000280: bb7f 9bbc 729c 7fbc 3c02 b93d e1b2 1aba
00000290: 13a2 933c e0b4 fe3c 2ba9 05bc 2367 853b
000002a0: 333a fe3c c8e8 de3a 481e e93c cfc6 6fbd
000002b0: 59a2 c3bc 551a 8cbd 2e22 14bd 0397 793b
000002c0: 97fc ecbc 32e1 a7bc ec49 833c 4ec1 88bd
000002d0: e07f 06bd 4cdb 45bd 1c5a 8bbd 2813 5ebd
000002e0: 90b1 16bc 2086 8aba ecf6 8c3c f52d d7bc
000002f0: 48ba e3bc 38c0 81bc 3765 88bd d9b3 20bc
00000300: 12f4 da3b 02ff 383c 9eec 48bd 7e4a dc3a
00000310: d83f 56bd abbe e0bc 8966 3a3b f10b a93c
00000320: 9d3a 67bc c021 143d c547 9b3c 032f 0e3d
00000330: dc41 4cbd 4a6b 0f3c 508c cd3c a70e e8ba
00000340: 9553 1e3c 9aba 8d3c be12 dd3c 6741 eeba
00000350: 9ae3 d93c 0f9b 273d 843d 163d bc61 4d3d
00000360: a8fa 15bd 9f3f 153d 8d80 873c 8643 0c3c
00000370: 9144 a73c 4e05 953d aabc 223d 8e0d 2b3d
00000380: 5c4a a93c cf91 443d 7451 153c 7671 89bc
00000390: 1e71 553d f890 08bd 8c20 04bd fa15 4f3d
000003a0: 550c a73b b245 7abd 7e78 bbbc 5b43 af3b
000003b0: dc45 eb3c cca3 4dbd 4ee9 edbc 93d5 82bc
000003c0: c6e1 233d f397 a33d 2395 a43d 31c8 973d
000003d0: ec83 fe3c 608e d83b 46c6 d03b 5f84 243d
000003e0: 8c7e d93c bf81 51bd 57f2 a0bb d742 4d3c
000003f0: 552a 92bd ea3f 14bd 9161 1fbd 9871 66bd
0.04724977 -0.04033193 -0.0450927 0.0046711806 -0.028256258 -0.07042488 0.020648994 -0.04168525
-0.038938016 -0.019134425 -0.004468102 -0.027141105 -0.015199244 -0.01431809 -0.0039191684 0.11074307
0.01943083 0.055532478 0.028198233 -0.033069354 -0.030360866 -0.028111635 -0.025932549 -0.05975291
0.038999993 0.035286874 0.05885997 -0.03178512 -0.019005451 -0.042105995 -0.040729173 -0.004334232
-0.0005219232 -0.020124277 -0.0005763812 -0.025325857 0.060125712 0.011542772 0.10581268 0.04073145
-0.047431055 0.00089785253 0.021511989 0.025299259 0.0030252524 0.021856066 -0.036366496 -0.033480674
0.026703568 0.00940818 0.008195941 0.050251488 0.0034615318 -0.032188226 -0.08618965 -0.10459251
-0.012131837 -0.11914906 -0.08587374 -0.05655763 0.03257897 -0.04147801 -0.014955018 0.0028652682
-0.005817371 -0.010312872 0.016820334 -0.04028646 -0.03883884 0.014082988 -0.035551436 -0.11275576
-0.015348548 0.0371271 -0.0016639892 0.004543336 0.025537571 0.00610121 -0.052195303 -0.051208932
-0.07310581 0.00070599635 -0.013444326 -0.07077483 -0.03671312 -0.02754782 -0.03314891 -0.017055985
-0.019060817 -0.026719997 -0.014954345 -0.0013193503 -0.014738294 -0.003942939 -0.032780655 0.0024676418
-0.046500184 -0.064047396 0.00874141 0.0453059 0.01282486 -0.07081297 0.011815754 0.008894283
-0.046727754 0.010423776 0.041593682 -0.03132327 0.009559458 0.026260199 -0.04062606 -0.044812802
-0.015671637 -0.048115056 -0.054378502 -0.01705993 -0.026209302 -0.027185349 -0.0325886 -0.05173119
-0.020959433 -0.015029363 -0.03555789 -0.021559265 0.024522984 -0.016546823 -0.0064372923 -0.01687057
-0.008704385 -0.045199946 -0.022097707 -0.0014670449 0.023298016 -0.014272465 0.0014921842 -0.056963228
-0.07746761 -0.047080126 -0.06261042 -0.081549056 -0.05424968 -0.014496577 -0.03342636 0.017338544
0.10508019 0.025306126 0.072259374 0.026023103 0.0067530214 0.025801308 0.044128697 0.047143303
0.04830472 0.0105802 0.011692456 -0.01339168 0.05014484 0.04127955 0.018542036 0.014837153
-0.018981805 -0.015601264 0.09033629 -0.0005901289 0.018021619 0.031092107 -0.008158009 0.0040711327
0.03103361 0.001700663 0.028456822 -0.058539208 -0.023881124 -0.0684096 -0.03616541 0.0038084395
-0.028929038 -0.020493124 0.01602646 -0.06677495 -0.032836795 -0.04830484 -0.068042964 -0.054217488
-0.009197608 -0.0010568537 0.017207585 -0.026267031 -0.027798787 -0.015838727 -0.0665993 -0.009808504
0.0066819275 0.011291267 -0.04905378 0.0016806868 -0.05230698 -0.027434668 0.0028442463 0.020635577
-0.014113096 0.036165 0.01895512 0.034712803 -0.049867496 0.008753607 0.02509132 -0.0017704562
0.009663482 0.017300893 0.026986476 -0.001817745 0.026597787 0.04091936 0.03667976 0.050142035
-0.036615998 0.036437627 0.01654079 0.008561021 0.020418437 0.072764024 0.039730705 0.041760974
0.02066534 0.047990616 0.009113658 -0.016777735 0.05210983 -0.033341378 -0.0322576 0.050558068
0.0050979056 -0.061101623 -0.022884604 0.0053486056 0.028719835 -0.050205037 -0.029041912 -0.01597098
0.040010236 0.079879664 0.08036258 0.0741123 0.031068765 0.0066087693 0.0063712923 0.0401653
0.0265496 -0.051149126 -0.0049117017 0.012528143 -0.071369804 -0.036193766 -0.038911406 -0.056260675

bias f4 [32]
00000000: eae3 933d c935 1f3d b1d6 bb3c 1f52 5f3d
00000010: 1913 9f3d 12fc 8c3c 4da0 3abd dd09 b7bb
00000020: 294b 153d a2d7 873c 19f2 053c 31b3 643d
00000030: 0a1e 98bc b632 033c 7d5e 04bd 7d3d 343d
00000040: e88c adbc 8f8b 08bc da6c aa3c 070a 52bd
00000050: 05d4 f8bc 1221 063c a17b 4b3d f5d2 293c
00000060: 8817 ae3b a6f0 6e3d 478e b5ba 0db1 223d
00000070: fde4 a0bb 3593 533c a745 2a3d 958d 233d
0.072212055 0.038869653 0.022929521 0.054521676 0.077673145 0.01721004 -0.04556303 -0.0055858926
0.03644863 0.016582314 0.008175396 0.055834953 -0.018569011 0.008007696 -0.032316674 0.044003952
-0.021185353 -0.008334055 0.020803858 -0.051279094 -0.030374536 0.0081865955 0.04967845 0.0103652375
0.0053128637 0.05833497 -0.0013851606 0.03971963 -0.00491011 0.012913515 0.041570332 0.039929945

weight f4 [32]
00000000: 9a2e 813f de74 623f 0379 673f 6963 823f
00000010: fae9 7a3f 9ce6 603f c113 7c3f 126a 7c3f
00000020: eb3a 7f3f b9d3 613f 5d57 733f d998 6d3f
00000030: 7158 7d3f 1e38 6b3f b075 653f 9c69 623f
00000040: eae9 883f e663 6e3f 9e02 6d3f 5774 593f
00000050: 3607 7f3f da7f 773f 9f05 6d3f 0b6c 693f
00000060: bc70 6a3f 0f24 693f 9576 5d3f 5433 5b3f
00000070: d788 773f 2620 6a3f 9a20 663f c31b 6a3f
1.0092347 0.88459575 0.90419024 1.0186588 0.9801327 0.8785188 0.9846764 0.9859935
0.99699277 0.8821369 0.9505518 0.9281135 0.98963076 0.91882503 0.896327 0.884424
1.0696385 0.9312118 0.9258212 0.84943146 0.9962038 0.9667946 0.925867 0.91180485
0.9157827 0.91070646 0.86509067 0.85625196 0.96693176 0.91455305 0.89893496 0.9144861

bias f4 [32]
00000000: 8ad5 af3e 344a 373f 128f cc3e 55d0 973e
00000010: 237e eb3e 9055 0d3f b259 9a3e c366 813d
00000020: 5aba c23d 61af 133f ea1a 053f defd f33e
00000030: 183d 0d3e 5e22 ac3e b580 cd3e c570 e53e
00000040: 5366 cc3d 66bd 473e 7f12 ad3e 3f35 093f
00000050: 29aa ab3d d296 003f 453b b63e 4afc ec3e
00000060: b5fa e43e 53ad 353f c73d 1d3f c360 243f
00000070: cc6f e73e a8f0 f23e 480e 0c3f 21d5 e63e
0.34342605 0.715976 0.39952904 0.29651132 0.45994672 0.55208683 0.30146557 0.06318428
0.095082 0.5768948 0.5199419 0.47654623 0.13792837 0.3361997 0.40137258 0.448126
0.09980454 0.19505844 0.33803174 0.5359687 0.08382065 0.50230134 0.35592094 0.4628623
0.44722524 0.70967597 0.6142239 0.64210147 0.45202482 0.4744923 0.5470929 0.4508448

running_mean f4 [32]
00000000: f32f b6bf faaf 8abf 6886 a3bf ed25 bb3f
00000010: b337 983e e9ce a53e 03cf 9abf 6117 d2bf
00000020: 29cc 8ebf 7eda 63bf 72b9 bbbf 1bf5 3ebf
00000030: 5ad9 23bf e9c8 2f3f 5629 90bf 9ef5 35bf
00000040: d9a3 8cbd 1d1b bfbe 2453 2cbf 192f 66be
00000050: eeff d4bf 6e4b 1cbe 444e 2f3f c531 363e
00000060: b54e 423f b2c3 1c3e b297 b3bf 2082 db3e
00000070: 965a c1be 505a 3abf abc6 873f 9ec6 a63d
-1.4233383 -1.0834954 -1.2775393 1.4620949 0.29729995 0.32384422 -1.2094425 -1.6413385
-1.1156055 -0.8900527 -1.4665968 -0.7459275 -0.6400353 0.6866594 -1.1262615 -0.7107791
-0.06867189 -0.37325373 -0.6731436 -0.22478904 -1.6640604 -0.15263149 0.684788 0.17792423
0.7590135 0.15309027 -1.4030669 0.42872715 -0.37764424 -0.72794056 1.0607504 0.08143352

running_var f4 [32]
00000000: 0f09 803e 07bc 283e 255e 023e a23c 9e3e
00000010: 2b3d 9a3e 86be 583e 655c 363e f968 313e
00000020: 1922 573e 3941 4c3e 1128 433e 600b 863e
00000030: 72f4 0e3e 0f65 713e eb8b 173e e735 393e
00000040: db1b ae3e b15c 093e a2eb ff3d d365 913e
00000050: 6665 2b3e 1b2b b73e e08d 713e 9dfb 6d3e
00000060: 9079 1a3e 01eb 9e3e b246 593e b706 433e
00000070: b924 a03e e232 4b3e e91c 753e c4b4 463e
0.2500691 0.16477977 0.12731226 0.30905634 0.30124792 0.21166429 0.17808683 0.173252
0.21009101 0.19946755 0.19058253 0.26180553 0.13960436 0.23573707 0.14799468 0.18086968
0.34005627 0.13414265 0.12496115 0.28397998 0.16737899 0.35775074 0.23589277 0.23240514
0.15085435 0.3103867 0.21218374 0.1904553 0.31278017 0.19843629 0.2393681 0.19404894

weight f4 [32, 32, 3, 3]
00000000: 2841 09bc 90b7 96bd ad90 2bbd 38d7 8e3d
00000010: 85db 323d b355 2b3d 0a33 853a c60d a0bc
00000020: fa6f 943c ca88 b7bc 0958 48bd b38b 91bd
00000030: 3abb 6dbd 8819 33bd fd43 19bd 42ea 943d
00000040: b8fa be3d 534c 253d 0548 883b c151 5abd
00000050: 8e92 36bc 751c 733a 8a1e 07bd 3e1b 0ebb
00000060: 6883 9e3d bd57 2c3c 542c e23c ef0a 693c
00000070: 3f80 3ebc e8ae 353d 1e0c 6c3c 9df7 13bb
00000080: 0f5f 053d 78e6 da3b c9eb 8f3b 93c9 07bd
00000090: 7cab 443d 10d8 3c3d bc60 113d 6659 a7bb
000000a0: 2fa5 61bc 3ac4 143c 20d4 2abd 33f2 2abc
000000b0: 3d27 1dbc 2557 233d a7c1 0b3d b9af 083d
000000c0: db26 28bd 053c bebc c7a6 4cbc d568 b9ba
000000d0: 422d d63c 755f a43d 7995 443d 207f 083c
000000e0: cee3 033d 560f 223c 82a7 65bd bb5a dcbc
000000f0: 18c9 473d 30be fc3c 62f0 263b 0975 033d
00000100: cf6f beba d672 373c 1f0e 483d d0b7 a73c
00000110: 0737 313d ee19 b4bc 98f5 84bc 0714 77bd
00000120: 0d04 e93c 08a4 3dbc 0ec3 98bd 7d1d 9d3c
00000130: c162 9b3b 00d5 fdba 3828 c7bc 1c46 3bbd
00000140: 7c25 92bc 7cef 9f3c 0bf2 0f3d 4c5e 6a3d
00000150: f699 d5bd 6aab 99bd 02c2 dabc 27fd 94bc
00000160: 7e9b 8e3c 38e8 f43b 0cee 433d 7b30 cd3c
00000170: eb12 8a3d 4ea8 923b 2fdf a9bb 58be e93c
00000180: a32c b23c fb85 c83c eac0 6f3d 0dfc 2b3c
00000190: 8598 26bd 098c 25bd 41a0 143d bc5b 3e3d
000001a0: f72b 93bb 3cfd c53b af17 0abd 3f6c 7dbd
000001b0: dabd b73c 0e0e 4f3d 790d 303d 6a3f f5bc
000001c0: d257 ee3a 2670 33bc 6e91 9dbc d066 1f3d
000001d0: 9fff df3c 0bdf 373d 4579 33bc c7e2 933c
000001e0: 50c2 9abc b261 80bd 527b 4dbd 1ad9 d83c
000001f0: 2268 653c 2448 243c 6a63 81bd c156 12bd
00000200: 9cc2 22bc b526 3fbc 94c7 843a f196 473c
00000210: 5544 f1bc 1b3c a3bc 1e76 993c 9e53 7dbc
00000220: 1901 483c 2267 f03c 8f82 e1bc fc0b f9bb
00000230: 6fe5 aa3c ebec 8cbc de35 c23c 1081 73bb
00000240: a643 f2bc 6c8e dabb 2e4e 0d3d 3426 d73c
00000250: 7c69 a93c 87d9 233d c2fb 513c 11cf 9bbc
00000260: e0af 46bd 76f5 3fbc 05c9 1d3d 5a52 cd3b
00000270: ea1e 29bc 1f69 44bc 725f 16bc 7e42 0dbd
00000280: 9d61 9ebc c553 6fbd 4490 cf3b f075 58bc
00000290: 2ffa 07bd 90f0 2a3c abc6 74bb e730 03bd
000002a0: 287e 513d d802 7e3d f4eb f73c 8f22 39bd
000002b0: 166e 53bd 2505 f1bc 1fff 66bc 2cb2 98bc
000002c0: 3450 72bd 5523 533d 3ce0 833c ae70 59bd
000002d0: 7f53 603c f451 483d e10c 773c b65b c4bc
000002e0: 1c86 1a3b 055a 07bd e6e2 a93c 1a2c a43d
000002f0: f000 6f3d c8b5 523c cc7d 0b3d 6c1f 223d
00000300: 240a 6e3c 62da efbc e4ec e2bc 29df 193d
00000310: a640 a0bc 25ef d4bd 8dad 443d 0a9a 473d
00000320: f2bc 193d 0477 23bd 051f 0dbd ad07 42bc
00000330: e92b 13bd 17f1 fc3b 6b69 813c 7400 b83c
00000340: b139 213d 0e44 263d 2d5c cdbc 730a 753a
00000350: c2bc 4a3a 910a 233d 56e3 ac3c 65b4 03bd
00000360: da96 39bd 1ae8 debc e1aa ee3b 922d 863d
00000370: 6ede 923d dec9 f03c ddce bebc e246 16bd
00000380: ea0a f6bc 2dc7 28bc befd eabc 8850 91bd
00000390: 2a90 ff3d 3590 dd3d 8c57 b13d fff9 a4bc
000003a0: f548 dcbb 511b 26bd a39a babd 93a4 49bd
000003b0: 8fa9 f1bc 1e6e d73c 2544 863c c4b1 593d
000003c0: 951e b4bc 5f6b 83bd a345 4fbd ce02 64bc
000003d0: 4fa4 ed3c e57f e7bb b53e 123d fd1a 4b3d
000003e0: 90ac df3c 339b 4abd ecca a4bb 8e61 8eba
000003f0: 9886 cd3d 23c4 7d3d dc06 1c3b 5d98 a93c
-0.008377351 -0.073592305 -0.04188602 0.069746435 0.04366638 0.041829776 0.0010162306 -0.019537818
0.0181198 -0.022404093 -0.048912082 -0.07106724 -0.05803988 -0.04372552 -0.037418354 0.07271244
0.093251646 0.04035599 0.004158976 -0.053300623 -0.01114334 0.0009273955 -0.03298811 -0.0021683718
0.077399075 0.010518965 0.027609028 0.014223798 -0.011627256 0.044356257 0.014407186 -0.002257801
0.032561358 0.006680306 0.0043921215 -0.03315122 0.048015103 0.04610449 0.035492644 -0.0051070927
-0.013772293 0.009079987 -0.041706204 -0.010433721 -0.009591875 0.03987803 0.03412023 0.033370707
-0.04105268 -0.023221979 -0.012490935 -0.0014145622 0.026144627 0.080260195 0.04799411 0.00833109
0.032199673 0.009891352 -0.05606795 -0.026898732 0.048775762 0.030852407 0.002547287 0.032094035
-0.0014529171 0.011196813 0.048841592 0.02047339 0.04326537 -0.02198502 -0.01623039 -0.060321834
0.028444314 -0.011574753 -0.07459079 0.0191791 0.004741997 -0.0019365847 -0.02431117 -0.04572116
-0.01784014 0.019523375 0.03514294 0.057218835 -0.10429756 -0.07503398 -0.026703838 -0.018187119
0.017408129 0.0074739717 0.04783444 0.025047531 0.067418896 0.00447563 -0.0051840763 0.028533146
0.0217498 0.02447795 0.058533587 0.010497105 -0.040672798 -0.04041675 0.036285643 0.046474203
-0.004491325 0.006042151 -0.033713993 -0.06187081 0.022429395 0.050550513 0.0429816 -0.029937465
0.0018184131 -0.010952031 -0.019234385 0.03891641 0.02734357 0.044890445 -0.010954206 0.018052472
-0.018891484 -0.06268634 -0.050166436 0.02647071 0.014001878 0.010026965 -0.0631779 -0.035727266
-0.009934094 -0.011666943 0.001013028 0.012181983 -0.029451529 -0.019926121 0.01873308 -0.01546183
0.012207293 0.029346053 -0.027528076 -0.0076003056 0.020861356 -0.017202815 0.023707327 -0.0037155785
-0.029573273 -0.00666981 0.034498386 0.026263334 0.020680182 0.040002372 0.012816371 -0.019019635
-0.04850757 -0.011716237 0.038521785 0.0062659206 -0.010322312 -0.011987953 -0.009178029 -0.03448724
-0.019333655 -0.0584295 0.0063343365 -0.013211712 -0.033197578 0.010433331 -0.003734986 -0.03202906
0.051145703 0.06201443 0.030263878 -0.045198973 -0.051618658 -0.029421398 -0.014098912 -0.018639646
-0.05915852 0.051547367 0.016098134 -0.053085975 0.013691782 0.04890628 0.015078754 -0.023969512
0.002357847 -0.033044834 0.020738076 0.08016224 0.058350503 0.012860723 0.034055516 0.039580747
0.014528785 -0.029278938 -0.027700849 0.037566338 -0.019562077 -0.10397176 0.048017073 0.048730887
0.037533708 -0.039908424 -0.03445341 -0.01184265 -0.035930548 0.00771917 0.015797338 0.022461154
0.03936166 0.040592246 -0.025068367 0.00093475654 0.00077338156 0.039805 0.021104496 -0.03215446
-0.04530988 -0.027210284 0.007283554 0.065516606 0.07171331 0.029393133 -0.023292 -0.036688693
-0.030034501 -0.010301393 -0.028685447 -0.07095438 0.12478669 0.10818521 0.08659276 -0.020138739
-0.0067225643 -0.040553395 -0.09111526 -0.049229216 -0.029499797 0.026297625 0.016389916 0.053148046
-0.021987239 -0.06416964 -0.05060352 -0.013916684 0.029009013 -0.0070648068 0.035704333 0.049586285
0.027303964 -0.049464416 -0.005029073 -0.0010862814 0.10035437 0.06195463 0.00238078 0.020702535

bias f4 [32]
00000000: f800 323b 356f 523d 28e1 f5bc 03ad 4c3c
00000010: 00f3 883d 7107 843d 4487 b63d 5e1f 32bc
00000020: 1b5a 7f3d 067f ad3c 6ca9 403d 5fd2 263d
00000030: 69f4 2c3d c663 8bbd 182a edbc a1ef fe3c
00000040: 8db4 4b3d e7a1 89bc 05c0 863c 74a6 3abd
00000050: 507e 403c 287a 56bc 7cfe 9a3c 8bf3 70bc
00000060: 65f2 5b3b 368b 0cba 2e0b 3f3d dd46 3ebd
00000070: 5751 fd3c 8b76 693d a99a 643d 526a f5bc
0.0027161222 0.051375587 -0.03001459 0.012492421 0.066869736 0.06446732 0.089125186 -0.010871736
0.06234179 0.021178734 0.047036573 0.04072797 0.042225275 -0.0680614 -0.028950736 0.031120123
0.049732734 -0.016800834 0.016448984 -0.0455689 0.011748865 -0.013090648 0.018920176 -0.014706503
0.0033561226 -0.000536132 0.04664152 -0.0464543 0.030922575 0.056997817 0.055811558 -0.029957924

weight f4 [32]
00000000: 9a6c 903f 2ba0 8e3f 3cac 883f b5a6 d03f
00000010: e23f 873f 882f 7f3f 7abd 8c3f ef29 993f
00000020: 0675 763f cce5 893f a23e 903f 8958 943f
00000030: ecd2 d63f 3686 6d3f 0564 773f d2d4 753f
00000040: ec65 963f bec7 8e3f 72f9 883f 9d2b be3f
00000050: 49d4 823f 8ee7 a63f 1c13 8b3f 0b5e 8f3f
00000060: 78d7 a53f 7635 883f b8aa 923f ca74 c83f
00000070: b760 ae3f d3e3 8d3f 33f4 a13f df08 863f
1.1283143 1.1142629 1.0677562 1.6300875 1.056637 0.996819 1.0995324 1.1965922
0.96272314 1.0773253 1.1269114 1.1589519 1.6783118 0.92782915 0.9663699 0.96027863
1.1749854 1.1154706 1.0701125 1.485706 1.0221034 1.3039415 1.0865207 1.1200575
1.2956381 1.0641315 1.1458349 1.5660641 1.3623265 1.1085151 1.2652649 1.0471457

bias f4 [32]
00000000: b602 2c3e 85da df3e 4c4f 81be 3f39 0fbe
00000010: b508 333e 132a bd3e a4cd 77bd 0e29 cabd
00000020: 1cb6 d93e bcd6 c93c 434f 8d3e e282 1fbd
00000030: cd2e 113e 8e91 e93e b1a1 f13e fc86 aebe
00000040: a296 2dbd 68e3 fb3c a541 853e 526b 3b3f
00000050: 620e d9be f5fd ce3d 6e22 143e 5696 4abd
00000060: d4a0 da3d a4fd a8be cf8f d3bd 83be 3c3e
00000070: 13df 2d3e 9ada 1c3e 3255 4b3e 7fe2 c53e
0.16797909 0.43721405 -0.2525581 -0.13986681 0.1748379 0.36946163 -0.06049885 -0.09871112
0.4252175 0.024638526 0.27599534 -0.03894318 0.1417801 0.45618862 0.47193673 -0.3408736
-0.042379983 0.030748084 0.26026645 0.7321063 -0.42393786 0.10107032 0.14466259 -0.049459778
0.10675207 -0.33006012 -0.10330164 0.1843205 0.16979627 0.15317765 0.19856718 0.38649365

running_mean f4 [32]
00000000: aed2 d63e 71fb 283e 690d 3b3e e58c cebe
00000010: dc70 e13e 281c 64bf 0005 a53e 7157 4bbf
00000020: 31c1 c2be 42e3 e7be 6dcd 88bc 0bdf 933f
00000030: 64b4 94be 95f2 61be 7db3 4d3e 2ce5 22be
00000040: bd0a 16be a71d f53d 1881 e33e f1a1 53bf
00000050: 07a0 3abf f63f b23e 4ef3 4bbe 0d69 f0bc
00000060: 21b3 a23e e845 2bbf 6601 563f b298 8dba
00000070: 0dd1 773f 5b01 fb3e 95bf ebbb 6544 163d
0.4195761 0.16502167 0.18266834 -0.4034187 0.44031417 -0.89105463 0.32230377 -0.794303
-0.38038018 -0.4529057 -0.016699517 1.1552442 -0.29043877 -0.22065194 0.20088 -0.15907735
-0.14652534 0.11968546 0.44434428 -0.8266898 -0.7290043 0.34814423 -0.19917032 -0.029346967
0.3177729 -0.66903543 0.83595884 -0.0010802953 0.9680336 0.49024472 -0.007194469 0.03668632

running_var f4 [32]
00000000: 3626 2a3e ff41 163d d89d 193e dcb6 a03d
00000010: 41bb 953d 90d6 ef3d b0e6 033e 324a ea3e
00000020: 318c c03d 67c5 b13d 4452 cd3d 98a0 c63d
00000030: 62bf 4c3e 40a5 a63d 3755 8f3d 7d89 e13d
00000040: cead 863e 2901 1c3e 7b5a b63d 3907 b83d
00000050: 8992 9d3d 39d0 213e 1487 ab3d ccb7 873e
00000060: e427 ef3d 0132 023e 2f45 ed3d 8e76 a93d
00000070: bb80 c63d 74ce 1e3e 4bce de3d 0453 b13d
0.16616139 0.036684033 0.15001619 0.07847378 0.073111065 0.117108464 0.12880969 0.45759732
0.094017394 0.0868023 0.100254565 0.096985996 0.19994882 0.08136988 0.06998675 0.11012552
0.26304477 0.15234818 0.089039765 0.089857526 0.07693965 0.15802087 0.083753735 0.26507413
0.116775304 0.12714387 0.11585461 0.08274566 0.09692522 0.15508443 0.10879191 0.08658412

weight f4 [1, 32, 3, 3]
00000000: bca0 11be 7026 42be a9bf 30be 5e19 823c
00000010: 8368 1dbd 2106 f0ba f8c8 91bc ace4 a6bd
00000020: 005a 95bd 8ba9 493e 5fd2 ba3d 1146 0bbd
00000030: 7428 a33d 2086 883c 7158 53bd a7f3 d3bd
00000040: 27ad 1fbe 3c6e 2cbe fbf0 cb3c 1f53 03bc
00000050: 03e8 0e3b c608 e0bc 2163 e1bd 48ff c4bd
00000060: eebb 20bc 5ab5 c1bd ec4b c4bd 6a2e 46be
00000070: 506d 543e a921 733e 39c3 78be daf0 e93d
00000080: 9b86 413e a358 cfbe 715a d7bd 8756 f73b
00000090: 8f59 0abd 34f3 8abd d681 bbbc 91b9 31bd
000000a0: dea8 a1bc 5d60 3bbd 1bc7 e5bc 75aa 713c
000000b0: a95c 48bd 6871 86bd afd1 b8bc 1c0f f3bc
000000c0: aed5 5abd f155 0abd 26d8 abbb d800 26be
000000d0: 28b1 2ebd e626 68bd 3542 81bd c49b 37bd
000000e0: 8f8d ac3d 0c1e d8bd 8232 02be f599 9c3b
000000f0: 1f3d c6bd d20a 64bd bd3b e33c ba24 103e
00000100: a1b4 dd3d 44cf 613d 7cd1 173e ae85 a03d
00000110: 77d8 983d ae27 463e a153 1a3e 2a4a a33d
00000120: 521c 07be 54be babd 0d0c 13bd fc14 02bd
00000130: 8d46 30bc 5155 bd3c 7bb8 93bd d828 3dbc
00000140: ef7a 7ebc 0aac c13d eacc 4e3c 203c 583d
00000150: a4f3 8a3a 76e1 7abd d4f1 50bd cd5d 343d
00000160: 598c 03ba b5d7 4d3d ab17 73be 3bf1 b8bd
00000170: ea1e 2bbe 310b 3bbe 0beb 20be f07e 29be
00000180: fdf8 8cbd 8c4e ab3c 2770 9bbc ce07 04bd
00000190: 903a a1bd 2d61 c3bc 7077 043e cc40 833d
000001a0: ce26 7e3d 0605 023e 99cc 8e3d 5fdd a33d
000001b0: 9fab 65be 44d5 803d d4d0 653e 7b51 7ebe
000001c0: e58f a8ba c48a 023e 0cdb b3be d7b4 1fbe
000001d0: e698 583d fddb cebd 75ee 353c 0fb4 9e3b
000001e0: 2c86 b1bd 6ddb 1f3d 53ee 433d 37da ffbd
000001f0: d2ea 4fbd f246 67bd ee19 0bbe e9b6 103d
00000200: 8418 083d b7e0 93bd 170f 05bc 96b7 743c
00000210: 522e 2fbe 9a8d 4cbd 2bb2 4c3c 6a59 7fbd
00000220: 47e7 133b 8fcc b23a 9116 a4bd ba03 60bd
00000230: ae99 bbbc 4216 21bd b500 01bd cb74 303d
00000240: 7f7e 343e c825 133e c6d8 353e b3bd ea3d
00000250: 6de3 f83d 3deb 203e 0750 263e 2d36 053e
00000260: c44a 173e 9955 de3d f168 9f3c d7d0 0c3e
00000270: 8cad 8a3d 9907 ec3c 0aed 2a3e c339 d23d
00000280: 9f0c db3d 8887 0d3e 536b caba cb6f 17bd
00000290: e52f 1d3d 7752 0b3d 8f6c b8bc 348e 4a3c
000002a0: f8cf 12be 626b b6bd e8ab b4bd fc8c 4cbd
000002b0: 2fb3 083e c802 d73d 69c9 c9bd be18 f43d
000002c0: 6ae7 df3d 11f9 a7be ef72 55be b730 30be
000002d0: c7d7 d53d ed64 523d c868 b43c 0397 0c3d
000002e0: 80e0 37bd 4d81 a0bd b514 523d 6b8e 813c
000002f0: 47c4 e23b 8002 263e 6897 983d c513 57bd
00000300: ef88 543d cf73 983c cbba 32be e07f 9abc
00000310: 7b61 d5bd 83be 70be ec36 fcbd 7634 e9bd
00000320: 3c9a 25be 0af3 e33c 92c6 e83b 3384 543c
00000330: 9fea f5bc d7c1 e83b 81dc fabb cbf6 dd3d
00000340: 7b8f db3d f674 963d cc8f b53d 58ba 5d3d
00000350: 9c1c be3d 555b c83d f6c4 ac3d 81a8 ae3d
00000360: d0c7 2c3d 46c5 edbb f74d 5fbe a1bf 053d
00000370: 6363 ffbc 7013 46be 855a b83d 8e91 d73d
00000380: 1de0 00be d48a a2bd 019e fbbd 932c 10be
00000390: 009c f5bc 676c 45bc d795 1cbd 3fab 443c
000003a0: 899b f4bc 0d17 44bd 224f 083e b999 c33d
000003b0: 3966 4dbd 90a3 ad3d fb38 a43d 91c6 a8bd
000003c0: 8ea9 d53d 98d1 c63d 8f76 d8bd 4ac9 be3e
000003d0: 5a9b f53d f140 afbd 1821 6e3e f3cf 09bc
000003e0: 6781 3cbe 7b7c 0d3e 603c 11be c94c 9fbe
000003f0: 1ed9 503e 8d81 2a3e 7356 693e 356a 3e3d
-0.14221472 -0.18959975 -0.17260613 0.015881237 -0.03842975 -0.0018312373 -0.017796025 -0.081490844
-0.07292557 0.19693582 0.09122156 -0.034002367 0.079667 0.016665518 -0.051598016 -0.10349207
-0.15593396 -0.16838926 0.024895182 -0.008015423 0.002180577 -0.027347934 -0.110052355 -0.096190035
-0.009810431 -0.09458418 -0.095847934 -0.19353643 0.20744824 0.23743309 -0.24293222 0.11422892
0.18899004 -0.40497312 -0.10515297 0.0075481567 -0.033776816 -0.067846686 -0.022889059 -0.04338986
-0.019733842 -0.045746196 -0.028049042 0.014750113 -0.048916493 -0.06564599 -0.022560922 -0.02967029
-0.053426437 -0.033773366 -0.0052442728 -0.1621126 -0.042649418 -0.05667772 -0.06311456 -0.044826284
0.08425438 -0.10552606 -0.1271458 0.0047790953 -0.09679627 -0.05567438 0.027738446 0.1407651
0.10825468 0.055129305 0.14826006 0.078379974 0.074631624 0.19351074 0.15070964 0.0797313
-0.13194397 -0.091183335 -0.035900164 -0.031758294 -0.010759008 0.023111971 -0.07212921 -0.011545382
-0.015532239 0.09456642 0.0126220975 0.052791715 0.0010601175 -0.061250173 -0.051011875 0.044034768
-0.0005018167 0.050254542 -0.23739497 -0.09030386 -0.16711012 -0.18265988 -0.15714662 -0.16552329
-0.06883428 0.020911478 -0.018974377 -0.032234006 -0.07872498 -0.023850048 0.12936187 0.064088434
0.062048726 0.12697229 0.06972618 0.080012076 -0.2242875 0.06290677 0.22442943 -0.2483577
-0.0012860267 0.12748247 -0.35128057 -0.15596329 0.05288019 -0.10100553 0.011104216 0.004843242
-0.086681694 0.03902762 0.047834706 -0.12492793 -0.05076105 -0.056464143 -0.1358411 0.035330687
0.033226505 -0.07220595 -0.0081212735 0.014936348 -0.17107514 -0.04993973 0.01249365 -0.06234113
0.0022568272 0.0013641285 -0.08012117 -0.054691054 -0.022900429 -0.039327867 -0.031494815 0.043080132
0.1762638 0.14369881 0.17758474 0.114619635 0.12152753 0.15714736 0.16241466 0.13008948
0.14774615 0.1085617 0.01945922 0.13751541 0.06771383 0.028812217 0.16691986 0.102649234
0.10695767 0.13821232 -0.0015443362 -0.03697185 0.038375754 0.03401419 -0.022512702 0.012363005
-0.14337146 -0.089072004 -0.08821851 -0.04993914 0.13349603 0.10498577 -0.09852869 0.11918782
0.109328106 -0.3280721 -0.20844625 -0.17206083 0.10441547 0.05136578 0.02202262 0.034323703
-0.044891834 -0.07837162 0.05128928 0.01581498 0.0069203707 0.16211891 0.074507535 -0.052509088
0.051888403 0.01860991 -0.17454068 -0.018859804 -0.104189835 -0.23510174 -0.12315163 -0.11386959
-0.16172117 0.027825851 0.0071037496 0.012970972 -0.030019103 0.0071031856 -0.0076556806 0.10838088
0.10720726 0.07346527 0.08865318 0.05413279 0.092828006 0.09783045 0.08436005 0.08528233
0.042182744 -0.007256183 -0.21807085 0.032653455 -0.031175321 -0.19343352 0.0900164 0.10525809
-0.12585492 -0.079366356 -0.12285996 -0.14079504 -0.029981613 -0.012049771 -0.038228836 0.012003719
-0.029859321 -0.047873545 0.13311437 0.09550805 -0.050146315 0.08478463 0.08018681 -0.082409985
0.104327306 0.097079456 -0.10569488 0.37262946 0.119925216 -0.085573085 0.23254812 -0.008411395
-0.18408738 0.13817017 -0.14183187 -0.3111327 0.20395324 0.16650982 0.22786884 0.046488006
