TuiGAN/models/facade2labels/a1.pth (torch, 131453 bytes, 25 tensors)

weight f4 [32, 3, 3, 3]
00000000: 7562 6f3d 51f5 a83c e543 1f3d 6cc5 d2bb
00000010: b4b7 7ebc a47c 0cbd 08ae 18ba cacc 86bc
00000020: 9b85 22bc 4dbd a03d 7b31 403d 483a 9f3d
00000030: a986 15bb 856f 6b3c 358b d33b 5836 a93c
00000040: d98f bf3c 060e 6f3d 044b a13d 1ffb 2a3d
00000050: 8822 953d bde3 1bbc 7114 02bb 60ca 09ba
00000060: a4e5 c23c 9a3f 07bc b6dc c93c ef9a 6a3c
00000070: 9cb9 e2bc e800 20bd 9e5b afbb 041e 7abd
00000080: fc6b 81bd 0e38 cebc 5275 e7bd 6a51 eebd
00000090: 5e3d 433c a4a5 56bb c974 d8bc b11a d93c
000000a0: 9bb6 02bd ec19 59bb 6650 113c 7961 4dbd
000000b0: 1189 d0bc 8a16 f23c fb54 753c 15b4 a53b
000000c0: 873a 083d ab3a 76bc a1ea 65bb ae8e 043d
000000d0: db1b 02bd 449f 16bc bff5 77bd c9ad 11bd
000000e0: c61a 91bc a626 a9bc df02 87bc d3eb d33b
000000f0: 1254 9cbd 2e2f 87bd fed6 abbd 14c3 4c3b
00000100: d456 963b 8020 103d 4e21 063c 29b1 62bb
00000110: 7069 c03c 30b7 09bd bac3 0fbd 9e94 5cbd
00000120: 30f9 843c f3fd be3b 10af 0b3d baef 423d
00000130: 58bd db3c d3a8 323d b377 14bd c5a5 6ebd
00000140: 4591 6fbd 0d83 d0bb 5eff fb3c 5ba6 8a3d
00000150: c1ad 433a baba 923c ef70 fd3c 5bf8 3dbd
00000160: 58d0 eabc e592 fa3c f75a 4dbd b151 96bc
00000170: 1a03 803c 166c 12bd 8905 4fbc 28c3 833c
00000180: 9202 5bbc ed97 c83b 1d2d 673d 9dff a3bd
00000190: ffa9 0cbd ea46 2f3c 2b98 2ebc 4e7e 173c
000001a0: 845a 3d3d b713 e6bc 7496 c7bb ab6e 523d
000001b0: 3004 813d 79d4 cd3c 24fe 0dbd 81b0 893c
000001c0: fd7f 23bc 5849 a63c 5612 c6bd 0e2b aebb
000001d0: 8c66 7b3c ff99 253d 5135 683c ef69 55bd
000001e0: 2249 513c dab2 f1bb 5d6b 813c 4ce5 e3bd
000001f0: e1da 9dbc d0c4 823c a6b3 f13c 605e b13b
00000200: 8f98 96bd 5080 dd3b 53a3 d2bc 63ab df3b
00000210: e5e7 d9bd 69bc dcbc aefe b03b bb43 533c
00000220: 3f0f c33c a6d2 2d3d 762d debc adf6 ad3c
00000230: be66 f23c 9a31 963c dcff 173d ab08 603c
00000240: 472c a4bc 5d72 bf3c 3b69 323d 518a 85bc
00000250: 9b0e ab3c 05cf e93c 4b12 023d 25c9 503d
00000260: ef43 183d 0036 0f3d 3652 483d d98b 5a3d
00000270: 027d 9c3a bf27 a63c 2b5f 9c3c abe8 743d
00000280: 066c d23d 30eb 4c3d c9e7 ca3d d59c c53d
00000290: a16e 343d d626 173d 4f7e fe3c 1c84 2e3d
000002a0: 421d e73c d697 34bc f86c c6bb 41cf 503d
000002b0: 895e 863d b1cd f13c b10d e73b 9d8a 483c
000002c0: d3cc d73c 169c 9bbc e739 efbc 8ed2 e1bc
000002d0: f7b1 dc3c e383 643d 0365 883c 38bb 82bc
000002e0: 1687 693a c248 0ebb 302d 51bd 2f2b 51bd
000002f0: e4c7 39bd 9dbf 3bbc f83d e83c 6ba3 0dbd
00000300: 6754 1cbb 7efa d93c 8d3b 5dbb 8f13 14bd
00000310: d855 903d 3dc1 6dbd 58fa 35bc 2578 3c3d
00000320: 525d 75bc f086 0abc a334 b93c bf68 6dbb
00000330: dc22 c8bc d71a a13d 1a42 3bbd e253 c0bc
00000340: 9e15 0c3d fe76 94bc 7840 c1bc 3418 6f3c
00000350: 3e86 47bc 628a febc dcd0 973d 7b1d 30bd
00000360: 1a9c 37bd 6148 cfbc 42ae 3fbd 9a7d 28bd
00000370: 265b 59bd 9d15 44bd 6616 11bd 60c7 0fbd
00000380: f6dc 5ebd d261 f93c c02b 923c 59c6 2e3c
00000390: b44f e43c ad52 f83c 0f9b 163d 63aa e33c
000003a0: 9b89 893c 1a90 ef3b 6749 fa3c 8300 823c
000003b0: bf72 2b3d 1a30 b43c 1d8c cb3c 8634 f73c
000003c0: 40f1 d53c 988f d13c e5ab d43c 7fe5 81bb
000003d0: 2c5f 393b 6840 87bc f907 1bbd f677 29bc
000003e0: baa9 4cbc 96c8 60bd 2b92 22bd 86be 41bd
000003f0: b8a2 1e3c cbf1 053d 30d2 a03b a89c 90bc
0.058443505 0.020624788 0.03888311 -0.006432226 -0.015546728 -0.034298554 -0.00058242725 -0.016455073
-0.009919549 0.07848606 0.04692219 0.07774788 -0.002281586 0.01436985 0.0064558038 0.020655796
0.023384022 0.058362983 0.07875636 0.041743394 0.07281977 -0.009514746 -0.001984861 -0.00052562915
0.023791142 -0.00825491 0.024641376 0.014319166 -0.027676396 -0.039063364 -0.005351498 -0.06106378
-0.063194245 -0.025173213 -0.11301674 -0.11636622 0.011916487 -0.0032752538 -0.026422875 0.026501985
-0.031912427 -0.0033127023 0.008869266 -0.050141785 -0.025455983 0.029551763 0.014973874 0.005056868
0.03325894 -0.015028636 -0.0035082477 0.032362632 -0.031764846 -0.009193245 -0.060537096 -0.035566125
-0.017712962 -0.020648312 -0.016480861 0.0064673214 -0.07633223 -0.06600796 -0.08390616 0.0031244205
0.0045879874 0.035187244 0.008186651 -0.003459046 0.023487777 -0.033621967 -0.03509877 -0.05385267
0.016232103 0.005828613 0.0341025 0.047591902 0.026823685 0.043618035 -0.036246967 -0.05826356
-0.05848815 -0.0063632787 0.030761417 0.06770011 0.0007464551 0.017911304 0.03093764 -0.04637943
-0.0286638 0.030587623 -0.05013558 -0.0183495 0.015626479 -0.03574761 -0.012635597 0.016084269
-0.013367312 0.0061216266 0.056439508 -0.08007739 -0.03434181 0.01069806 -0.010656397 0.009246422
0.0462289 -0.028085573 -0.0060909335 0.051375072 0.06299627 0.025125729 -0.034666196 0.016807796
-0.009979245 0.020298645 -0.09671466 -0.005315191 0.015344273 0.040430065 0.014172868 -0.05210298
0.012773784 -0.007376057 0.015798265 -0.11127719 -0.019269409 0.015962988 0.029504608 0.0054128617
-0.07353317 0.006759681 -0.025712645 0.006825851 -0.106399335 -0.02694531 0.005401454 0.012894566
0.02381098 0.042437218 -0.027121287 0.021235788 0.029590007 0.018334199 0.03710924 0.013673942
-0.020040644 0.023369962 0.043557387 -0.016301306 0.020880988 0.028541097 0.031755727 0.050973076
0.03717416 0.034963608 0.048906527 0.053356025 0.0011939111 0.020282624 0.019088348 0.059792202
0.1027451 0.05002898 0.09907491 0.09649054 0.044050816 0.03690227 0.031066088 0.042606458
0.028212193 -0.011022529 -0.0060554706 0.050978903 0.06561 0.029517027 0.0070511927 0.012240079
0.026342785 -0.018995326 -0.029202415 -0.02756622 0.026940329 0.05578984 0.016649729 -0.015958413
0.0008908374 -0.0021710848 -0.051068485 -0.051066574 -0.045356646 -0.011459258 0.028349862 -0.034579676
-0.0023854019 0.026608702 -0.003375742 -0.036151465 0.070476234 -0.058045615 -0.01110705 0.046013016
-0.014975863 -0.008455023 0.022608107 -0.0036225764 -0.024430685 0.078664474 -0.045717336 -0.023477498
0.034200303 -0.018123146 -0.023590311 0.014593173 -0.012178002 -0.031071845 0.07412884 -0.042996865
-0.044826604 -0.025303068 -0.046797045 -0.041135408 -0.05306544 -0.047872175 -0.03542175 -0.03510225
-0.054409944 0.030442152 0.017843127 0.010667407 0.027870037 0.03031286 0.03676897 0.027791208
0.016789248 0.0073108794 0.03055258 0.015869385 0.041857477 0.021995593 0.024847085 0.030176412
0.026116014 0.025581166 0.025960872 -0.0039641256 0.0028285487 -0.016510203 -0.0378494 -0.010343542
-0.012491638 -0.054878794 -0.039690178 -0.047300838 0.00968235 0.032701295 0.004907869 -0.017652825

bias f4 [32]
00000000: ae5f 31be 359f b53d c9a0 643d 5712 f5bb
00000010: 6a96 0bbe d9a6 0cbe 986d fdbd dc9d 903c
00000020: 9431 313d eefc 0fbe b47b 8ebd 7985 acbd
00000030: a4fb 07be ff53 23bd 3670 14bd 0deb 3d3e
00000040: 8f93 0cbe adaa e13d 7918 6c3d d75d aa3d
00000050: 5253 f63d 0b91 453d 8d91 d73d f608 2dbe
00000060: 1e96 bfbd d7d2 3a3d de64 d0bc 2fff 53bc
00000070: a58e c8bd 05ca 4abe 51de d33d 1f20 97bd
-0.17321655 0.08868257 0.0558174 -0.007478993 -0.13631597 -0.13735522 -0.12374419 0.017653398
0.043260172 -0.14061329 -0.06957188 -0.084238954 -0.13279587 -0.039875027 -0.036239825 0.18546696
-0.13728164 0.11018882 0.057640526 0.0831868 0.12027611 0.048234027 0.105258085 -0.1689795
-0.093548045 0.04561123 -0.025438722 -0.0129392585 -0.09792832 -0.19803627 0.10345138 -0.073791735

weight f4 [32]
00000000: 09be 813f 2367 833f c029 7a3f 6d6b 813f
00000010: 03cf 733f 5df3 613f f61a 793f fc86 783f
00000020: 7aa2 323f 36e0 503f cc3f 7d3f 148b 633f
00000030: 4f7a 713f 89af 773f 5db4 823f 9ae8 6a3f
00000040: b9b4 6c3f 148c 763f 4b66 823f 2994 823f
00000050: f47d 873f 861c 833f d875 8d3f b04e 5d3f
00000060: 2799 123f 5895 823f d734 693f 4769 813f
00000070: beaa 013f eb62 5c3f 0772 853f bce2 863f
1.0136119 1.026585 0.97719955 1.0110909 0.9523775 0.8826197 0.97306764 0.9708097
0.6977917 0.8159212 0.9892547 0.8888409 0.94327253 0.9675222 1.0211293 0.9176117
0.9246326 0.9630749 1.0187467 1.0201465 1.0585313 1.024308 1.1051588 0.8644819
0.5726494 1.0201826 0.9109625 1.0110253 0.50651157 0.86088437 1.0425423 1.0537944

bias f4 [32]
00000000: 6ba2 423e 22e2 e13e 5eda ec3e 938f 443e
00000010: 3f66 c53e 370d f83e c775 c73e c5a4 2c3d
00000020: 4232 803e d8a0 143f d5ee 083f 92c4 123f
00000030: 301a 703d 1b25 083d 6fda 363e 0a67 123e
00000040: 3bf4 a03e feb1 113e dccf fa3c 026d c23e
00000050: f80b 273e f0fc 173e b0ea b23c 1ce4 233f
00000060: 82bc 1c3f 0cde 0c3e 6de6 013f 45ac 903e
00000070: cb9e 793f cb9f f83d ac1c fc3e 08fa ed3e
0.1900727 0.44117838 0.4626035 0.19195394 0.3855457 0.48447582 0.38957044 0.042149324
0.25038344 0.5805793 0.5348943 0.5733119 0.058618724 0.03323851 0.17856763 0.14297119
0.31436333 0.14228055 0.030616693 0.3797379 0.1631316 0.14842582 0.021840423 0.6401994
0.6122514 0.13756579 0.50742227 0.2825643 0.97507924 0.12139853 0.49240625 0.4647982

running_mean f4 [32]
00000000: 053c 36be 5e7f c13d f06f 783d be7c 09bc
00000010: a768 05be a6fc 1bbe 952e febd f00b 8c3c
00000020: 2cc1 263d 8e53 18be f89d 83bd cc24 96bd
00000030: 5a44 08be 6aa4 1bbd a35b 03bd 9ff2 383e
00000040: c0e3 0ebe b73c dc3d a48e 603d 178c b73d
00000050: 4b2c f53d 63f1 4b3d dc84 d73d 17cf 26be
00000060: 0ca4 c2bd 3914 153d 3deb 0dbd b0d2 b8bc
00000070: 5524 bfbd 4090 4cbe 315b d53d c22a 83bd
-0.17796333 0.094481215 0.060653627 -0.008391557 -0.13028203 -0.15233096 -0.124112286 0.017095536
0.040711567 -0.14875624 -0.064266145 -0.07331237 -0.13307324 -0.037998594 -0.032069813 0.18061303
-0.13954067 0.10753768 0.054823533 0.08962267 0.11971339 0.04979075 0.10523388 -0.16289936
-0.09503946 0.03639624 -0.03464817 -0.022561401 -0.09333102 -0.19976902 0.10417784 -0.0640464

running_var f4 [32]
00000000: 5160 2c3d a146 193d ef8e cc3c 5618 253c
00000010: 514f 573c 824a 943d 17b8 ed3c 2347 f83b
00000020: 0a41 1e3b 6f7b e73b f5da 2d3c 3ef8 8e3d
00000030: 7c1e 513b ff05 463c ab55 cf3b d596 073c
00000040: 5cfd 653c da61 0f3c ebc9 123c 6047 173d
00000050: 41c3 333c d996 033c e3da 973c 2584 0f3d
00000060: 0d5c 4f39 a216 983d b910 213d 2d90 793d
00000070: d725 8339 ac6b 533b 5f2e 0a3c 7b34 113d
0.042084042 0.037420873 0.0249705 0.010076603 0.013141469 0.07240774 0.029018445 0.0075768395
0.0024147653 0.007064275 0.010611285 0.06980942 0.003190904 0.0120863905 0.006327351 0.008275707
0.014037456 0.008751357 0.008959274 0.036933303 0.010971845 0.00803157 0.01853699 0.035038132
0.0001977535 0.07426192 0.03932259 0.060928512 0.0002501446 0.0032260222 0.008433907 0.03545044

weight f4 [32, 32, 3, 3]
00000000: 9f41 9fbc 610c c3bc c5d2 87bd a201 21bd
00000010: 441f f1bc 32be 64bd 3b8a dc3c 3cc7 a1bc
00000020: e0ea 81bd 629b 19bd 7ba9 d8bc 8aa3 26bd
00000030: de6d 093d d3e0 f2bc d521 d0bc f528 c43d
00000040: 7495 103d c21c 90bc 67b5 32bc 175e 393d
00000050: 2731 5c3d b155 e3bc 9740 4b3d 1f28 923c
00000060: 70b3 d23b 2b17 263d c82d 8f3c f7b0 02bc
00000070: 5db8 49bb e96e f03b 2027 903a 2183 483c
00000080: 4bbb b53c 3583 e43b 28e9 df3b 1986 b33d
00000090: 2490 b3bc 0f31 993d c0ed 0cbc aadf 6abb
000000a0: 3956 fb3c ca14 1fbc 5679 05be bf9f 863c
000000b0: a60a 7bbc b622 1c3d d21c 0cbd 8875 973b
000000c0: 67aa 8f3c f869 e2bc f49d 40bd 1ef7 a13d
000000d0: fef1 afbc a1ba 62bc 00d0 08bc b976 253c
000000e0: ab95 99bb cff4 e4bb 46fa af3c 7f74 5e3c
000000f0: d83f f33a 830f d9bc e7ef b4bc 8a14 9abc
00000100: d4b1 3cbd 65c2 87bd 74e8 6a3d 3ede 613b
00000110: a112 41bd e8fc 483d ad29 d7bc 23f3 993c
00000120: 5596 2e3d b93d 92bc 9120 7b3c d331 fa3b
00000130: 854d c939 78cc 08bd 8d18 18bc cc60 94bc
00000140: 58c2 c5bb ed98 cb3c 3b7a bfbb c6f4 673c
00000150: b4e8 883c 52ad a5bc 7ebe b1bc 3e0e db3c
00000160: 3646 70b8 9f89 0ebd e58d c4bc f65d 39bd
00000170: 5c53 25be 8bc2 523b e6b8 feba 74f4 87bd
00000180: a84b a0bc bcb5 22bd 30f7 b1bd 817a edbd
00000190: c154 31bc 2cfe 87bd 9a56 c1bd 67a8 dcbb
000001a0: 8baa c0bc 6795 b9bc d319 753d d3e2 603d
000001b0: d701 ebbc db47 7cbd ca2a 3cbd 58ed cb3c
000001c0: 574d 9f3d ef25 d63d 0d9d 4dbd ebd6 033d
000001d0: 65e5 2bbd ad94 91bd 6106 a93c f360 9dbc
000001e0: 1f36 143d 9735 eb3c f297 2dbc c16c c9bd
000001f0: 8508 15bb 7f3d 63bd 81ff 7abc 4541 69bd
00000200: a4f2 bbbc 8ce6 1bbc 4860 14b9 3d86 bbbc
00000210: f6d0 30bd dc79 553b 64cb 20bd e56e c3bd
00000220: 42d6 93bc d2bd b6bc 292a 1fbd 8096 873c
00000230: 4456 103c 57bc 73bc 30da 8a3d 7b4f 393c
00000240: 4a59 7fbc b842 90bc a980 9a3b 0dfa 16bd
00000250: 898a 1cbb 5edb 303c 5a15 403d 121c ae3c
00000260: 3998 f6bb 5a55 f53b 806d dabb 6bd9 9c3a
00000270: 7782 99bc 1c2c 9bbb d95a 703c 03bd b2bc
00000280: 4d61 16ba eed0 6abd 8842 63bd 991b 013d
00000290: 73dc 3bbd fad8 60bc f3f5 773d dfdb a5bc
000002a0: 8a25 943b a14f 86bc 96a0 453c 89c1 fdbd
000002b0: cb59 0f3c a412 28bd 2dee abbd f2d9 1bbd
000002c0: 855e c6bd eecc fd3c e9b4 683d ca1a e1bc
000002d0: 9622 5cbb 99b1 dcbc 0b69 13bd b3ef 203b
000002e0: 556e bfbc 8179 103b aa27 883c ead2 eb3b
000002f0: cb49 c43d 9264 22bd 4f10 50bd 5f24 b7bd
00000300: 4ef4 153d 54f2 d13c b476 25bc 502a 523b
00000310: f031 473c b1fc 44bd ee21 b5bc 5117 0dbd
00000320: 9d58 02be 2dda 86bc 0c2a 253c 26ed 93bc
00000330: 8d2c 28bc e9c9 943b 28d4 c63b 7223 29be
00000340: 739e 7ebd ef52 b0bd c02a a3bd 944c 12bd
00000350: 48e6 55bd e05b 82bd 64aa 14bc 7714 863c
00000360: 2c54 6c3c 550f 7a3c 96e3 bf3b 0691 ac3b
00000370: 7a5d 8abc 9225 b33b 87ec aebb 6bb2 d93b
00000380: 5ee3 d6bc 526c 613d 1cec 40bd 30a0 f1bc
00000390: 0a8a 503c 4e6e 3fbc 6633 0ebd b585 fd3c
000003a0: 9647 f1bc 7142 dabd 08d5 b63c ea65 3f3c
000003b0: 6ad9 31bd 10dd 6d3b 26fe 07bc 67b9 41bd
000003c0: 2293 5f3d 2553 233c 42c2 2abc e38f 073d
000003d0: 0645 adbc 9770 02bd b595 223c 1e5e 07bc
000003e0: ad43 74bd e5fb 1bbc d2d5 2fbd e9d2 b9bc
000003f0: 4d57 89bc 4a65 1fbc 51c5 313c 0b7e c3bb
-0.01944047 -0.023809614 -0.06631998 -0.039308198 -0.029433854 -0.055845447 0.026921382 -0.019748323
-0.06343627 -0.0375017 -0.026448002 -0.040683307 0.033552043 -0.02964822 -0.025406757 0.095781244
0.03529878 -0.017591838 -0.0109075075 0.045255747 0.053757813 -0.027750822 0.049622145 0.017841397
0.006430082 0.04054944 0.017477885 -0.007976762 -0.0030780055 0.0073374403 0.0010997988 0.012238295
0.022184035 0.006973649 0.0068332143 0.087658115 -0.021919318 0.0748006 -0.008601606 -0.003583888
0.030680763 -0.009709546 -0.13034567 0.016433595 -0.015322363 0.03811904 -0.034207173 0.004622165
0.017537309 -0.02763842 -0.047025636 0.07908462 -0.021477696 -0.013838441 -0.008350372 0.0100991065
-0.0046870313 -0.0069871913 0.021481644 0.0135775795 0.0018558456 -0.026496654 -0.02208705 -0.018808622
-0.046068028 -0.06628875 0.05735059 0.0034464742 -0.047136907 0.049069315 -0.02626499 0.018792694
0.042623837 -0.017851697 0.015327589 0.007635334 0.00038395464 -0.03339812 -0.009283197 -0.018112563
-0.0060351305 0.024853194 -0.0058434284 0.01415748 0.016712524 -0.020224247 -0.021697279 0.02674019
-5.7285848e-05 -0.034799214 -0.023993442 -0.045255624 -0.1614508 0.0032159414 -0.0019433766 -0.066384226
-0.019567326 -0.039724097 -0.086897254 -0.115956314 -0.01082343 -0.06640276 -0.09440346 -0.0067339423
-0.023518821 -0.022654248 0.05983908 0.054903816 -0.0286874 -0.061591964 -0.045939244 0.024893448
0.07778423 0.10456454 -0.050198603 0.032187384 -0.041966815 -0.07108436 0.020632925 -0.019211268
0.036184426 0.028712077 -0.010595309 -0.09835196 -0.0022740674 -0.05547857 -0.015319706 -0.05694701
-0.022942849 -0.009515416 -0.00014150247 -0.022891158 -0.04316803 0.0032573855 -0.03925647 -0.09542636
-0.018046502 -0.02230731 -0.038858566 0.016551256 0.00880963 -0.014876447 0.06779897 0.0113104535
-0.015585253 -0.017609939 0.0047150445 -0.03685956 -0.0023886284 0.010794489 0.046895362 0.02125362
-0.0075254706 0.0074869813 -0.0066658854 0.0011966651 -0.018738968 -0.004735483 0.014670097 -0.021818643
-0.0005736545 -0.057328157 -0.05548337 0.03152046 -0.045864534 -0.013723606 0.06053729 -0.020246444
0.0045210766 -0.016395392 0.012062212 -0.123904295 0.008749436 -0.041033402 -0.08395038 -0.038049646
-0.09685997 0.030981507 0.056813154 -0.027478594 -0.003358995 -0.026940154 -0.03598885 0.0024556934
-0.02336804 0.0022045078 0.016620476 0.007196774 0.095843874 -0.039646693 -0.050796803 -0.08942484
0.03660994 0.025628246 -0.010099102 0.0032068677 0.012157902 -0.048092548 -0.022110905 -0.034446064
-0.12729116 -0.016461456 0.010080826 -0.018057417 -0.010264528 0.004540671 0.0060677715 -0.16517428
-0.062162828 -0.08609568 -0.07967138 -0.03571756 -0.052221566 -0.0636518 -0.009073827 0.01636718
0.014424365 0.0152624445 0.005855988 0.0052663116 -0.016890276 0.005467125 -0.005338255 0.0066435835
-0.026231464 0.055034943 -0.04710017 -0.029495329 0.012728224 -0.0116840135 -0.034716986 0.030947546
-0.02945308 -0.10657204 0.022318378 0.011682013 -0.043420233 0.0036295094 -0.00830034 -0.047295954
0.054583676 0.009968554 -0.010422291 0.033096205 -0.021151077 -0.031845655 0.009923388 -0.008262185
-0.059634853 -0.009520506 -0.042928524 -0.022683578 -0.016765261 -0.009728739 0.010850267 -0.005965953

bias f4 [32]
00000000: 1503 38bd 2030 efbc dc1c ba3c d571 2cbc
00000010: 9bd8 39bd b521 eb3b ea36 3ebd 1b25 173d
00000020: cad7 dabc 1c03 8b3b 1fa3 1fbd 1278 46bc
00000030: cea7 adbc f773 bb3c 4fc7 033c 0a0e 2ebc
00000040: 62eb 45bc d241 debc 6306 febb ba7c 76bc
00000050: 27ed 40bd 62c1 9dbc b0d9 15bd d5b7 c33d
00000060: 9dba b33c 53bc 86bd 8f1d 7fbc ec66 c93b
00000070: af1a 64bc 02e4 883d 4934 193d 3cb8 bdb8
-0.044924814 -0.029197752 0.02271884 -0.010525187 -0.045372587 0.007175649 -0.04643909 0.03690062
-0.026714224 0.004242314 -0.038973924 -0.012113588 -0.02119818 0.022882445 0.008043124 -0.010623464
-0.012080045 -0.027130995 -0.007752226 -0.015044386 -0.047101166 -0.019257251 -0.036584556 0.095565476
0.02193957 -0.06578889 -0.015571012 0.0061463024 -0.0139223775 0.06684114 0.03740338 -9.0465386e-05

weight f4 [32]
00000000: 0bd4 743f cfcf 713f 8bf2 643f d716 6d3f
00000010: b510 6f3f 012e 683f f5ae 7a3f 2379 5b3f
00000020: 41a6 5f3f b7ed 7e3f 56fb 7d3f 537e 743f
00000030: bf62 803f e910 653f 0b54 773f 74aa 503f
00000040: c9c9 653f 67c8 8b3f 45a8 783f ac97 6b3f
00000050: fec6 753f 4469 643f d354 7c3f dc58 7b3f
00000060: d033 743f 7a15 603f b939 773f ddb6 813f
00000070: 41e3 773f 01d2 683f d804 623f d312 803f
0.9563605 0.94457716 0.8943259 0.92612976 0.9338487 0.90695196 0.97923213 0.85731715
0.8736306 0.99581474 0.99211633 0.95505255 1.0030135 0.8947893 0.96612614 0.8151009
0.89761025 1.0920533 0.9713176 0.9202831 0.96006763 0.8922312 0.9856693 0.98182464
0.9539156 0.8753277 0.9657245 1.013393 0.96831137 0.9094544 0.8828864 1.0005745

bias f4 [32]
00000000: 473a e13e 15bd 753e 86cc a63e 28a6 e33e
00000010: c4f7 873e f3d3 033f fc9d 2d3d e730 0b3f
00000020: a199 2c3f fc71 c63e d3d9 e73e d2e2 853e
00000030: 9137 5b3e 4336 a03e b0ff 603e 35d5 313f
00000040: 5974 e43e 8941 a73e 2a9b d33e 289b d63e
00000050: 2619 823e aeee 383f de3d a33e 71c9 f43e
00000060: 5843 863e 45bc 883e e371 e33e cfd7 193e
00000070: 27db cd3e 35ee 563e 6804 033f 8965 a03e
0.43989775 0.2399791 0.32577914 0.44462705 0.26556218 0.51495284 0.042386994 0.54371494
0.6742192 0.38758838 0.45283374 0.26149613 0.21407916 0.31291398 0.21972537 0.69465953
0.44620016 0.32667187 0.41329318 0.4191525 0.25409812 0.72239196 0.31883138 0.47809938
0.26223254 0.26706138 0.44422826 0.1502373 0.40206262 0.20989306 0.511786 0.31327465

running_mean f4 [32]
00000000: 7c19 f7bf 64cd 86bf d118 9dbf ab5a 15bf
00000010: c891 9ebf 3393 83bc f012 103e af43 e8bf
00000020: 0017 cbbf c8a2 a8bf 40ea 7bbf 1a2d 80bf
00000030: a982 c83e 3701 bbbe 1da2 91be 4321 c8bf
00000040: c6b9 92be 3c1d 0a40 0770 02bf c75e a2bf
00000050: f398 3f3e 27f2 a13f aa1d dabd 979a d7bf
00000060: f7af 53bf b404 b1bf 1a8a 20bd 77c9 82bf
00000070: 86ad 0d3e 3646 5a3f cd38 213f 9553 37bf
-1.9304652 -1.053143 -1.2273198 -0.58341473 -1.2388239 -0.016061401 0.14069724 -1.8145655
-1.5866394 -1.3174677 -0.9840431 -1.0013764 0.39162186 -0.36524364 -0.28443995 -1.5635151
-0.2865736 2.1580343 -0.5095219 -1.2685174 0.18710689 1.2652024 -0.10650189 -1.6844052
-0.82690376 -1.382956 -0.039194204 -1.0217732 0.13835725 0.85263383 0.62977296 -0.7161191

running_var f4 [32]
00000000: db42 483f 2bd8 5c3e 409c 053f 9719 4a3e
00000010: 4347 fa3e 403b 3f3e 773e 5a3e fcaf c13e
00000020: 5923 9d3e 6975 9d3e 0484 1e3f 5118 a13e
00000030: 9b36 a53e e152 843e e26e 3b3e 7fab 833e
00000040: 3f40 803e ff78 c53e fec0 523f 6080 913e
00000050: 70b5 f93e b4cf b93e 249a ca3e f6c2 353e
00000060: c677 4a3f edec ee3d 7f02 5c3e ad79 ce3e
00000070: 224b ee3e a47b a53e b612 433e 52db 603e
0.78227013 0.21566837 0.52191544 0.19736324 0.48882493 0.18674946 0.21312891 0.37829578
0.3069103 0.3075364 0.6192019 0.31463864 0.32268223 0.25844482 0.18304017 0.2571678
0.25049016 0.38568875 0.8232573 0.28418255 0.48771238 0.36291277 0.39570725 0.17750153
0.7908901 0.11666284 0.21485327 0.40327206 0.46541697 0.32320893 0.19050106 0.21958664

weight f4 [32, 32, 3, 3]
00000000: 47fa 543d 6fc6 863d b72e f13b 74ad c1ba
00000010: e52d de3c 39b3 463c dda6 1fbc ddb7 353d
00000020: 7f49 0e3d ee78 623c f66f 843c 5a60 a53c
00000030: cc40 b33b 0412 013d 696b ae3c 4133 e13c
00000040: 5f57 88bc 9cd5 463c 56af aabb 1408 e7bc
00000050: 13a0 afbc 6ebc 1c3d ed90 c33c 37af 6e3c
00000060: 00ce e73c 6aa7 1c3d 724d 033b 8f36 96bc
00000070: de56 debc b52c 1bbd 19b7 1aba 8298 e73c
00000080: 07ed efbb c59a 10bd 6992 43bc 301c a5bc
00000090: a4c6 6abc 32eb 2dbc 311e 013b 0f5b fbbc
000000a0: 471e d83b 7c8d 5abc 3a64 9cbd 0f86 60bd
000000b0: 4d2b 80bd 3c40 1b3d 7f15 243d 8784 aebb
000000c0: 0360 5abc 34ad f93c a355 0bbd 8362 b6bd
000000d0: 6eed 6f3c 76cf 4cbb 2220 8b3c 6d45 7d3a
000000e0: c1aa ec39 0931 a0bc 8096 86bc 3ecc c1ba
000000f0: c2d2 43bd 7b17 2739 afcb 023d 6569 c43c
00000100: 0439 953c 7b4b fe3d 138b d23c 0eed c43b
00000110: 922c ba3c c511 aa3b 98fd 22bc d795 6fbb
00000120: e93b 1f3c 9ff1 713c 43ab fa3c 0933 babb
00000130: 46d2 4bbc 56cb ae3c 567f 72bd f5ae 34bd
00000140: b250 10bd ddd0 1ebc 8c32 63bc 05c3 65bd
00000150: 5737 8bbc 3805 c43c a15e 08bd 1ebc acbc
00000160: 550b 03bc 880a 0cbd 3c60 5439 3967 e9bb
00000170: b7ef 133d f366 673d 8108 043d 9921 ca3d
00000180: cc30 653c 633b 86bd c617 f6ba a633 58bc
00000190: 6203 a03c 0b17 8c3d 3f4e 20bd 230b 10bc
000001a0: 26e0 05bd 8727 53bd 006d 5cbc 5de2 4abd
000001b0: 6291 d9bb 6e04 163b 9ace 443d e732 f03b
000001c0: 52e8 43bc 5767 ce3c e762 e23b 2be4 f43c
000001d0: 79ed 163d 0c88 babc d42c cebc d0e6 38bc
000001e0: 231e 683c 57e9 f73c 5e1c aa39 2887 483c
000001f0: efa8 6fbc 2412 343d 7b80 82bd 7afb e5bc
00000200: cf76 10bd 4db4 12bc d8a0 963c 6fb9 9d3c
00000210: 506c 0dbd cdbd 30bd 9abb 55bd 118a 153d
00000220: d239 183c c5f8 bb3c 6940 f73b 095d 29bd
00000230: 28a0 2ebc 6fe9 b03c 1a32 8c3a b04b 7e3d
00000240: 49f8 32bd 3a6e c6bb a545 553d 2f55 14bd
00000250: f595 593c e90c afbc 9db3 b93c 78eb 0a3d
00000260: 7c9b 483d 7acc 9d3d 181f 2dbd d9b8 dfbd
00000270: 1d3a 3d3d 35d9 bfbb 0bf5 19bd d92a 813a
00000280: cb72 35bd a471 8fbd 0629 10bd 0d2c da3c
00000290: ea28 ce3c ae3a 353c 636b 5b3b 1ae9 1a3d
000002a0: f0c5 07bd e5a9 99bd d397 b3bc cc69 263c
000002b0: fa2f 2ebd 6466 67bd b606 b8bc 85ad 0cbd
000002c0: 8af9 16bd a60a 18bc 7d20 d6bc 54e6 0a3c
000002d0: 0598 5bbd 966e 81bd ae56 34bd b169 b53c
000002e0: cc68 b43b 8554 13bc dd07 653d 9689 a6ba
000002f0: f509 3ebd 9ede f4bb 49f0 f23c 4e7a 853c
00000300: e977 24bd c90d dbbc c400 d1bc f545 b4bd
00000310: f2d4 b9bd 8934 25bd 1b9d 753d 00b8 74bd
00000320: 80bc ef3c d232 97bc e58e 4dbd da0f e83c
00000330: e6ea 0abd 0a83 40bd fa5c 6d3c 8174 55bc
00000340: 8b58 eabc 42d8 00bd cc9e cc3c 2fb1 003d
00000350: beb5 a5bb aed2 f6bc ece5 a9bb d121 1bbd
00000360: b816 dabc da3a f2bc 5c97 1abb b9d8 1b3d
00000370: 8a22 1c3c a534 943c 0041 fdbc b904 3b3d
00000380: 4084 363d 0be2 85bd 9e7a a6bc f282 9ebc
00000390: c65a 02bc 9526 f0bc d4be b13c 22f4 16bd
000003a0: 6d1d 80bd 5ff8 19bc ff16 a1bd 79fa 1d3d
000003b0: 1489 683d de31 4abd 7e56 e6bc 8578 843c
000003c0: dbbe b6bd 3832 6d3b 98ab e7bc 0f4c 06bc
000003d0: 5f71 febc 476c 483b 9589 d23c 81aa 8abc
000003e0: cae4 04bd 7ea4 943d 3e7a aa3a 0c3f 4d3c
000003f0: 7ecd c0bc bb84 b7bc b78d 573b 59e1 fdbc
0.051996496 0.06580817 0.007360305 -0.0014776425 0.027121494 0.012127691 -0.009744373 0.0443648
0.03473806 0.013822777 0.016166668 0.020187546 0.005470371 0.03151132 0.021291452 0.02749026
-0.016643224 0.012135889 -0.00520889 -0.028202094 -0.021438634 0.038265638 0.023872817 0.014568142
0.02829647 0.038245596 0.0020035175 -0.018336562 -0.02714103 -0.037884433 -0.00059019175 0.028270964
-0.007321957 -0.03530385 -0.011936762 -0.020155042 -0.014329586 -0.010615157 0.0019701833 -0.030683069
0.006595406 -0.013339397 -0.07636304 -0.05481535 -0.06258259 0.037903056 0.040059563 -0.005325857
-0.013328555 0.030478097 -0.034017216 -0.08905508 0.01464401 -0.0031251586 0.016983096 0.00096615293
0.0004514065 -0.019554632 -0.016429186 -0.00147856 -0.047808416 0.00015935108 0.03193253 0.023976037
0.018215664 0.124167405 0.025701081 0.0060097044 0.02272633 0.0051901066 -0.009948157 -0.0036557817
0.009718874 0.01476708 0.030599242 -0.0056823534 -0.01244027 0.021337193 -0.05920347 -0.044112165
-0.035233207 -0.009693352 -0.013867032 -0.05609419 -0.016994162 0.02392827 -0.03329337 -0.021085795
-0.007998307 -0.03418973 0.00020253746 -0.007122901 0.03611728 0.056494664 0.032234672 0.098696895
0.013988685 -0.06554296 -0.0018775396 -0.013195908 0.019532863 0.068403326 -0.03913712 -0.008791718
-0.032684468 -0.051551368 -0.013453722 -0.049532283 -0.0066396454 0.0022890824 0.048048593 0.007330287
-0.011957245 0.02519576 0.0069087627 0.029893955 0.036847565 -0.02276995 -0.02516786 -0.011285499
0.014167341 0.030262632 0.00032446062 0.012239255 -0.014627679 0.043962613 -0.06372162 -0.028074015
-0.035269555 -0.00895412 0.018387243 0.01925346 -0.034527123 -0.043149758 -0.052180864 0.036508624
0.009291129 0.022945771 0.00754552 -0.04134849 -0.010658301 0.021595685 0.0010696084 0.0620839
-0.043693814 -0.0060556205 0.05206837 -0.03621405 0.013280381 -0.02136846 0.022668654 0.033915967
0.048976406 0.077050164 -0.04226598 -0.10923929 0.046198 -0.0058547505 -0.037587207 0.0009854689
-0.04429893 -0.07004097 -0.035195373 0.026632333 0.025165994 0.011061354 0.0033480756 0.03781996
-0.033147752 -0.07503108 -0.021922981 0.01015706 -0.042526223 -0.05649413 -0.022464138 -0.03434517
-0.036859073 -0.009279883 -0.026138538 0.008477766 -0.053611774 -0.06319921 -0.044027977 0.022145124
0.005505657 -0.008992319 0.055915702 -0.0012705799 -0.046396215 -0.007472827 0.029655593 0.016293671
-0.040153418 -0.026739972 -0.02551306 -0.08802406 -0.09073819 -0.040333305 0.05996428 -0.05974579
0.029264688 -0.01845685 -0.050185103 0.028327871 -0.033915423 -0.04699997 0.014487499 -0.013028265
-0.028606674 -0.03145624 0.024978064 0.031418975 -0.0050570657 -0.030129757 -0.0051848795 -0.037874047
-0.026622161 -0.029569078 -0.0023588752 0.03804848 0.009529719 0.01809151 -0.030914783 0.0456588
0.044559717 -0.06537255 -0.02032214 -0.019349549 -0.007956212 -0.029315272 0.02169744 -0.036853917
-0.062556125 -0.009397595 -0.07865714 0.038568947 0.056771353 -0.049363963 -0.028117415 0.01617075
-0.089231215 0.0036193263 -0.028280064 -0.008196845 -0.031059919 0.0030582116 0.02570037 -0.016927006
-0.032444753 0.07257937 0.0013006402 0.012527239 -0.023535486 -0.022402158 0.0032890865 -0.030991243

bias f4 [32]
00000000: 64ac 253d 3596 6d3d cb57 a3bc f225 bcbb
00000010: d824 3f3c 4235 6abc 20ff 2cbd 9b0e 983c
00000020: 3b17 e3bc cf10 2b3c 12de de3c a814 3c3d
00000030: ccbe bc3c d932 973c b1b1 993c 121b 4bbd
00000040: a5b3 47bd 4f82 293d cbb9 0d3d f2d6 303d
00000050: 3d7d 753d 79a9 2e3d 7695 44bd a67d ddbc
00000060: 28e5 93bd d03c 60ba c9a5 3cbd fb20 de3c
00000070: 3873 4a3d a491 7c3d 030e 033d d305 9d3c
0.040447608 0.058004577 -0.019939324 -0.005741828 0.011666499 -0.014294924 -0.042235494 0.018561652
-0.027721038 0.010441019 0.0272055 0.045918137 0.023040198 0.018456863 0.018761488 -0.049586363
-0.048755307 0.041384038 0.034601014 0.043173738 0.05993389 0.04264209 -0.0479941 -0.027037453
-0.072214425 -0.00085539836 -0.046056543 0.027115336 0.049426287 0.06166233 0.031995784 0.019167816

weight f4 [32]
00000000: 4067 623f 618f 6d3f 8989 543f 4e4c 6c3f
00000010: 2252 733f 15db 723f 62f3 7f3f 8698 723f
00000020: 8bfe 783f dd3a 793f 5814 643f b9bc 6d3f
00000030: 7a70 733f e7e5 763f fba5 753f e537 803f
00000040: cdea 663f ffae 7d3f ad0e 7e3f 9fcb 6e3f
00000050: c230 823f 41a2 753f 04b1 793f 2bc7 803f
00000060: 332f 7a3f f30b 5b3f e860 753f 6e64 813f
00000070: 5e4b 823f a69c 7b3f 4201 863f ab30 673f
0.88438797 0.92796904 0.8302236 0.9230393 0.950472 0.9486554 0.9998075 0.9476398
0.972634 0.97355443 0.8909354 0.9286609 0.950935 0.96444553 0.9595639 1.0017058
0.9020203 0.9909515 0.99241143 0.9327945 1.017113 0.95950705 0.9753573 1.0060781
0.9772827 0.8556511 0.9585099 1.0108774 1.017925 0.982859 1.0469134 0.90308636

bias f4 [32]
00000000: e259 213f 65d0 1e3e d75b 153f 049c 143f
00000010: 2646 c63e cb10 ce3e 6f9d 663e 8fac bb3e
00000020: deeb ef3e 7741 743e de59 d53e 76ed 953e
00000030: aca9 cb3e cc18 053f 58d1 743e 893c 9d3e
00000040: 334f 0c3f c7dc 5b3d 5330 8b3e 19c7 a83e
00000050: 2246 c63e 22a9 9e3e ae08 b83e 44d3 f83d
00000060: b50e 8e3e e6d2 083f d0f8 aa3e d57d 9e3e
00000070: 4804 323e f42c d53e d45e 843e 64d8 b33e
0.63027775 0.15509184 0.5834326 0.5805056 0.38725394 0.40247187 0.22520994 0.3665509
0.4685964 0.23853098 0.41670126 0.2928273 0.39777887 0.5199096 0.23907983 0.30710247
0.5480835 0.053677347 0.27185306 0.329644 0.38725382 0.30988413 0.35944122 0.12149671
0.27745596 0.53446805 0.33392954 0.30955377 0.17384446 0.4163586 0.25853598 0.3512603

running_mean f4 [32]
00000000: 582a 27bf a740 66bf fb6e 66bf 04df 273e
00000010: 0d1f 47bf c34b 89bd 5e50 1abf d4b8 f9be
00000020: 4124 8bbe 3763 603f 1ec5 2fbf 564c 7dbf
00000030: 3fd2 40be 93ea 5fbf 1290 13bf 9579 95bf
00000040: 1ce6 7d3e 1f95 febe 8ad6 76bd 7c4c 17be
00000050: 3e47 febe d9cc 203f 5853 45bf b6cc e73e
00000060: 7ce9 4ebf b505 90bf e41d 9c3e 52ca 6dbf
00000070: ef3d 3e3f 858f e9be 90e1 39bf de7b a5bc
-0.65298986 -0.899424 -0.9001309 0.16393667 -0.77781755 -0.067039035 -0.6027888 -0.48773825
-0.27176097 0.8765139 -0.6866015 -0.98944604 -0.18830203 -0.87467307 -0.5764171 -1.1677729
0.24794811 -0.49723145 -0.060263194 -0.1477527 -0.49663728 0.6281257 -0.770803 0.4527337
-0.8082502 -1.1251742 0.30491555 -0.9288684 0.74313253 -0.4561731 -0.72609806 -0.020200666

running_var f4 [32]
00000000: b373 2f3e 3c3b 403e 5b67 213e 24b4 8e3e
00000010: 9137 443e 152b 253e 017b f03e 80e8 823e
00000020: 53ed 433e 3830 2d3e 76ee 433e 2393 333e
00000030: b79a 683e d402 c33e cb2b 553e 4c50 673e
00000040: dbe5 5a3e e399 353e 41e9 843e 7b1d 1f3e
00000050: c613 8a3e 520c 323e 1719 7a3e 78ed a03e
00000060: d985 ad3e 75f5 0f3e 4045 9e3e c181 963e
00000070: 6a37 853e d8a9 913e 5ba8 953e 6909 3e3e
0.1713398 0.18772596 0.15762083 0.2787181 0.19161822 0.16129716 0.46968845 0.25568008
0.19133501 0.16912925 0.19133934 0.17536597 0.22715269 0.38088095 0.20817487 0.22589225
0.21376745 0.17734484 0.2595921 0.1553859 0.2696821 0.17387512 0.24423634 0.31431174
0.3389118 0.14058478 0.3091221 0.2939587 0.2601884 0.28449893 0.29230008 0.18558277

weight f4 [32, 32, 3, 3]
00000000: 9a64 1e3d 17a6 94bc 8c4a 603d b130 d23c
00000010: f2d6 f3bc b56c aabc 3791 9b3c bd78 d2bc
00000020: 98a2 66bc 7b4c 563b a483 b1bb 260c ef3c
00000030: 845d bc3c 1981 113b e525 053d 6141 fe3c
00000040: 456d ef3b 32e0 423c 4945 de3c c06d e6bc
00000050: 88a8 d5bc d4af 333d fcb2 95bc 85db eebc
00000060: 16d4 c53c 1bd7 eabc 7354 85bc 9202 653c
00000070: 2f88 71bd b62e a3bb 84ad 753c 4d10 a0bd
00000080: 0a4b f9bc 708d a73d e98c 85bc 2ea2 2dbc
00000090: e4e0 ef3b e2a1 623d 9ba9 44bc 7955 37bd
000000a0: 8147 a03c f6c9 8c3c 0e17 13bc 9ae3 88bc
000000b0: 50a8 12bc ede4 88bc edfe 873d 6823 7e3d
000000c0: 5c10 7dbd 31a0 353d 0a0e d8bc 46bf b3bd
000000d0: 12c9 033d 0d28 2cbd 3c89 513c 2d08 d83c
000000e0: 5899 9bba d94e b93c 4f3e 42bc bce8 963a
000000f0: 28f1 6c3d b470 8ebc 5343 d3bc bee4 803d
00000100: 456c 073d 4f88 ee3d 65f1 acba df72 923b
00000110: ccff 823d 1944 67bc 83f5 8ebc 804e c33d
00000120: 796d c93c ac37 a33b 3a27 aebc b487 1e3d
00000130: addd 153d ea6e 1cbd 7167 5a3d de70 08bc
00000140: 3ccf aabd a39a ecbc b006 00bc aeca 1e3d
00000150: ebb3 07bd 7633 9abb 7559 b83c 0993 45bd
00000160: 378c 863c 4247 d2bb a459 a93d d5a5 b2bb
00000170: ecfa afbc f0e7 233d a5d2 763c e6ce a23d
00000180: 5bce 1b3d bb3d 23bd e5c1 4e3c 6def 1b3d
00000190: 5955 34bb 3032 96bb 4031 58bd 5a16 20bd
000001a0: 595d 2b3b 75dc 09bd fe96 043c 8c2c aabc
000001b0: 6af2 48bd 4b3f fdbc 6442 88bb d8d3 7bbd
000001c0: 38d4 3dbd 2e36 403c 5d2b 1d3c 2dc8 08bc
000001d0: ff5c f63c cf59 63bd b0f5 48bb 9201 be3b
000001e0: 9bd6 d33c 9569 0b3d 540b febb 2a21 693d
000001f0: 50df 723d 2241 2cba f899 7d3d 8f83 04bc
00000200: c8b6 1fbc bcb5 c03d 8ff8 87bb b5a7 debb
00000210: 5abb 523d 90c2 923c 57aa 3a3d d3d5 383d
00000220: 6b7f f0bc 4d51 ad3c d330 4dbd c2d2 51bd
00000230: f87f b5bc 0a9e 1cbc 9168 9cbc 9b18 eabc
00000240: f692 5e3d e455 31bd c794 74bd 0f74 bbbc
00000250: 15dc 2abc 39a8 46bd b96c 783d d9e5 2dbd
00000260: dadd 01bd e145 8bbb 1353 0dbc c5f5 073d
00000270: f176 0f3d fa52 463c 6ca3 e0bb 9ee5 d53c
00000280: ad3b 6fbc a7f7 0b3d fa58 0dbd 7477 52bd
00000290: 45c1 0bbd 0c8d 253d 5104 193c 6877 afba
000002a0: e6d7 923c eb37 88bc 7d42 7bbc cda6 99b9
000002b0: 3d48 f73c 64f0 87bc 3830 393d bb6a 363d
000002c0: 009c 513d e9a1 e73c 08fb 973b fece 8e3c
000002d0: d94c 94bd 92ec f639 07c6 b1bb 61ab 6fbd
000002e0: 26f3 d2bc 491d a2bc d670 013b 8f3b cd3c
000002f0: 8e2d 63bd e8f4 833d 2de7 db3c 5701 67bd
00000300: 58f4 913d a735 0f3d f69c 87bd 2256 0b3d
00000310: d572 3a3d 82be f2bd fc9c c03c 1173 ec3c
00000320: c9e8 8e3c bedb 523c b2e3 dd3b 3293 9ebb
00000330: ff40 993c 8aca 043d a57a 333c 2da9 903b
00000340: 693f 93bd 62f4 64bd 7472 9a3b 753e ab3b
00000350: 3563 a83b 0f18 01bd bc29 ffbb cef8 37bd
00000360: 8f4e b83c 9434 9cbb 6f31 ca3c e75c 273d
00000370: c526 063c 2eb3 55bc 1c54 0c3d 2971 4e3b
00000380: e360 d1bc 2bcc cf3d 8441 b0bc a2e2 d9bc
00000390: 94ba 7fbb fe48 5dbd eef3 4aba 6f34 5dbd
000003a0: ad07 2abd 62d1 0b3d 6616 ae3c 4cc5 0fbc
000003b0: d0db 423d 0a41 56bc c022 e43c 7028 e13c
000003c0: 1817 6aba 2b1d 11bc eda4 9bbc 8841 513d
000003d0: 3dc8 59bc 7050 64bc 363a 4c3d 3e05 babb
000003e0: a9bd 1dbd 42ec 153d e2c6 9f3c f755 213d
000003f0: 4dc4 d0b8 3a38 873d e785 7d3d 8947 cdbc
0.03867016 -0.018145604 0.054758593 0.025657983 -0.02976558 -0.020803789 0.018990142 -0.025692338
-0.014076851 0.0032699395 -0.005417304 0.029180598 0.02299381 0.0022202192 0.032506842 0.031037034
0.007306727 0.011894273 0.027132647 -0.028128505 -0.026081339 0.043868855 -0.018273823 -0.02915741
0.024148982 -0.028667023 -0.01627562 0.013977664 -0.058967765 -0.0049799336 0.014994983 -0.07815609
-0.03043129 0.08181274 -0.016302543 -0.010597749 0.00732051 0.055330165 -0.012003328 -0.044759247
0.019565346 0.017186146 -0.008977665 -0.016710091 -0.008951262 -0.016710723 0.0664042 0.062045485
-0.06178318 0.044342224 -0.026373882 -0.08776717 0.032174177 -0.042030383 0.012789067 0.026371086
-0.0011871262 0.022620605 -0.011855676 0.0011513452 0.057847172 -0.017387725 -0.025788939 0.06293629
0.03306224 0.116470926 -0.00131945 0.00446926 0.06396446 -0.014115357 -0.017451053 0.09536457
0.024588333 0.004981002 -0.021258939 0.038703635 0.03658836 -0.038191713 0.053321306 -0.008327691
-0.08340308 -0.02888233 -0.007814094 0.03876751 -0.033130568 -0.0047058417 0.022503594 -0.048235927
0.016424282 -0.006417186 0.08269051 -0.0054518976 -0.021481954 0.040016115 0.01506487 0.07949619
0.038038593 -0.039853793 0.01261947 0.03807013 -0.0027516691 -0.0045836195 -0.052781343 -0.039083816
0.0026148169 -0.03365751 0.00809264 -0.020773195 -0.04905931 -0.03091397 -0.004158305 -0.061481327
-0.046344966 0.011731667 0.009592858 -0.008348507 0.03007364 -0.05550557 -0.003066402 0.005798527
0.025859168 0.034036238 -0.0077528153 0.056916393 0.059295 -0.0006570985 0.061914414 -0.008088007
-0.009748168 0.09409663 -0.0041495035 -0.0067948946 0.051448204 0.01791504 0.045572605 0.045125794
-0.029357633 0.021156931 -0.05009539 -0.051226385 -0.022155747 -0.009559164 -0.01909283 -0.028576186
0.05433937 -0.043294802 -0.059712198 -0.02288249 -0.010428448 -0.048500273 0.06065056 -0.042455528
-0.031705715 -0.0042502736 -0.0086257635 0.03319337 0.03502554 0.012104744 -0.006855419 0.026110467
-0.01460163 0.034171727 -0.034508683 -0.05138345 -0.034119863 0.040417716 0.009339408 -0.0013387026
0.017925214 -0.016628226 -0.015335676 -0.0002930671 0.030185813 -0.01659412 0.045212 0.04453538
0.051174164 0.028275447 0.0046380796 0.017432686 -0.0724122 0.00047097035 -0.005425218 -0.05851305
-0.025750708 -0.019789355 0.0019751093 0.025052814 -0.055463366 0.064431965 0.026843632 -0.056397762
0.07126683 0.034963276 -0.06621735 0.03401769 0.04551967 -0.11852743 0.023512356 0.028863462
0.017444985 0.012869773 0.006771528 -0.0048393244 0.01870775 0.03241972 0.010954534 0.0044146986
-0.07189829 -0.055897124 0.004713351 0.0052259513 0.0051387795 -0.031517085 -0.0077869575 -0.044915013
0.022498397 -0.00476701 0.024681775 0.040860083 0.008187954 -0.013043208 0.0342599 0.0031500554
-0.025558895 0.10146364 -0.021515615 -0.026597325 -0.0039021121 -0.05402469 -0.0007742037 -0.054005083
-0.041511226 0.03413523 0.021250915 -0.008775067 0.04757291 -0.01307703 0.027848601 0.027485102
-0.0008929833 -0.008857052 -0.018999541 0.051087886 -0.013292369 -0.013935193 0.0498602 -0.0056768944
-0.038510952 0.036602266 0.019504014 0.039388623 -9.954777e-05 0.06602521 0.061895277 -0.025058525

bias f4 [32]
00000000: c020 0abc 957e f23c 828f 643d d8d4 a23d
00000010: f90c a53d 57ee 56bd 3ad1 70bd 6d2a 34bd
00000020: e746 7fbc 91f4 72bd 0706 af3c bb7c 48bd
00000030: c1b7 bbbc e1b8 6bbd 8aab 543d 53ba dabd
00000040: 8d7c 14bb af4d 0f3d 3aee d4bc c900 78bb
00000050: 3990 5abd fb0d 233c bb6e bdbb df07 1c3d
00000060: fe89 4f3d c56f 633d 6289 dd3c 5a01 4b3c
00000070: d54e 06bd 9685 253c bbee 173d 972f 26bb
-0.00843066 0.029601375 0.055800922 0.07950753 0.08059115 -0.052473392 -0.058793284 -0.043985773
-0.015580869 -0.059315268 0.021365179 -0.048947077 -0.02291477 -0.05754936 0.051921405 -0.1068007
-0.0022657246 0.034986194 -0.025992502 -0.0037842265 -0.053360198 0.009952064 -0.0057810224 0.038093444
0.05066871 0.055526514 0.027043048 0.012390459 -0.032790024 0.01010265 0.037092905 -0.0025357956

weight f4 [32]
00000000: 80c6 843f 66f3 873f 54a8 803f 25cc 883f
00000010: 6da4 853f 09aa 833f 457c 853f 4319 7e3f
00000020: 8b38 833f f4f6 813f 1c60 bb3f 75af 883f
00000030: 9c5b 813f 2800 773f 69c1 823f f406 933f
00000040: 4b1e e63f c1d0 733f 28be 823f 3766 8b3f
00000050: 3071 8c3f 2665 893f 0b6a be3f c061 843f
00000060: 72d8 7e3f 605f 8d3f a13d aa3f e64f 8d3f
00000070: a391 983f 1551 7b3f 085f 893f 8302 863f
1.0373077 1.0621154 1.005137 1.06873 1.0440804 1.0286266 1.0428549 0.99257296
1.025163 1.0153489 1.4638705 1.0678545 1.0106082 0.96484613 1.0215274 1.1486497
1.7977995 0.9524041 1.0214281 1.0890568 1.0972042 1.0733993 1.4876112 1.0342331
0.9954902 1.1044731 1.3300058 1.1040008 1.1919445 0.98170596 1.0732126 1.0469517

bias f4 [32]
00000000: b8df 9bbb 0acb 9f3c e259 023e 8e30 6fbe
00000010: 5b94 7ebd 3810 fc3d c2c9 6fbd 0072 aa3e
00000020: af3e 3abe 8b05 95be 8836 193f ca72 663e
00000030: c810 6a3e 51d4 ddbe 555a c7bd 9515 ccbe
00000040: 909a 273f 3ed7 c8be 1e51 8abe dd37 203e
00000050: 34dc 1b3e 5ca4 babc e3d7 d83e dcdf d13e
00000060: 0230 183d 1e20 a0be 22b7 b0be 3c6e 7b3e
00000070: 6364 c63d 8606 fa3c b255 51be 2342 90bd
-0.004756894 0.019505996 0.127296 -0.23358366 -0.0621532 0.12307781 -0.05854202 0.332901
-0.18187974 -0.2910579 0.59848833 0.22504726 0.22857964 -0.43326047 -0.09734026 -0.39860216
0.6547022 -0.39226717 -0.27015013 0.1564631 0.1522072 -0.02278345 0.42352208 0.40991104
0.03715516 -0.31274503 -0.3451472 0.2455377 0.09687116 0.030520689 -0.20442846 -0.070438646

running_mean f4 [32]
00000000: b9f3 583e af27 90be 9f01 fd3e 50ac 8a3e
00000010: 4003 563e 0654 803d eb86 0d3f 9114 c2be
00000020: 3c53 a13f f1b7 f8be 4158 493c 9559 9fbf
00000030: 9bde 03be 5a8c 5d3e 5208 c53e 9b59 b53d
00000040: 0119 d8be ba8b 323f 3ffa 6ebe 286e 483e
00000050: bc16 073e 5168 37bf 6b89 71be d450 4bbc
00000060: d6bc 0dbf ef4f b03f e14b 9c3e 0d74 76be
00000070: e159 fbbd f566 943e dc5a e4be bada f3bd
0.21186723 -0.28155276 0.494153 0.2708459 0.20899677 0.06266026 0.55283993 -0.37906316
1.2603526 -0.48577836 0.012289108 -1.2449213 -0.12877886 0.21635571 0.3848291 0.088549815
-0.42206576 0.69744456 -0.23337649 0.19573271 0.13192266 -0.7164355 -0.23587577 -0.012409408
-0.55366266 1.3774394 0.3052664 -0.24067707 -0.122730024 0.289848 -0.4460057 -0.11906953

running_var f4 [32]
00000000: 2654 bb3d 09d7 c43d 15cb c53d 17dc df3d
00000010: 6d96 f03d 550c c23d 824d b33d 8a55 7e3d
00000020: e86b d73d 6524 d63d 9b8f f73d 1ef0 c63d
00000030: 5817 b63d f9fb e73d c314 0b3e 30fd 033e
00000040: 1ace 283d 8aa9 2d3e 660c b13d 75af d73d
00000050: ca31 c33d d7e2 e83d 18d1 3c3e 2425 1f3e
00000060: 275c b63d efd4 223e 79da a63d dc8c ca3d
00000070: c616 7a3e 43f6 a13d 1936 b93d 7444 c53d
0.091469094 0.09611327 0.096578754 0.10930651 0.117474414 0.094750084 0.08755018 0.062093295
0.10518628 0.104561605 0.120879374 0.097137675 0.08891171 0.11327357 0.13582139 0.12889552
0.04121218 0.16959205 0.08644943 0.10531513 0.09530981 0.11371391 0.18439138 0.15541512
0.089042954 0.1590154 0.08147139 0.09890148 0.2442275 0.07908299 0.090435214 0.09632197

weight f4 [1, 32, 3, 3]
00000000: e5c3 9ebd 5bdd 94bd 4748 52bd 43dd 27bd
00000010: 2373 aabc 03de babc 1190 89bd 65ea 09bb
00000020: 682c 3fbc 9bfd c7bd 48fe 9dbd 30b8 37bd
00000030: 96d9 6abd ebd2 47bd 6e81 80bd ada7 68bd
00000040: 7c02 44bc 5b6d 4cbd c081 aabd 2165 12bd
00000050: 1ba6 993c b07d 71bd d301 aebb 8622 173c
00000060: 3832 a3bd 04b9 bdbc 394f a4bc d2d0 01bd
00000070: 7b8b 80bd 951f 90bc 0542 93bd dfca cabd
00000080: 0601 81bd 7963 a5bd 910e dabd 60fd c6bd
00000090: 820c 943b 13fe a0bc 74c4 46bd 0d82 12bd
000000a0: fb4e 0fbd 0626 6fbd 45af cbbc 6828 88bd
000000b0: b1a6 59bd 212f 3e3c e2cf 90bc 95ec 9e3b
000000c0: 40ba b5bc 3deb 9cbd bd2a 48bc 8f2b 37bd
000000d0: 123e cbbd 2010 97bd 026b afbd a8bd 1fbd
000000e0: e405 79bd 1cf5 9dbd 232e 38bd bfeb 4ebd
000000f0: 24e2 66bc e2fd dfbc 88d3 64bd 7b83 403c
00000100: 8b51 38bd 9b23 0c3d 81e8 74ba 7e1e 6dbd
00000110: 4980 893c 5997 80bd cb43 75bd 5410 903c
00000120: e32e ccbc 534b 053d 83a3 0e3d 0759 993d
00000130: 3c4a c73d 5b4b 173e a34f 0cbd 4370 bfbc
00000140: 04a9 e93c c994 c23d de7f e93d f868 073e
00000150: e396 8abd a87e 45bd efb8 dbbc 75e4 673c
00000160: 83c2 c73c 31a1 713b d38c e5bd b7eb 753d
00000170: fe33 763e ad0f 8fbe a229 8fbd 3265 273e
00000180: 6b8f a5be d61b 20be 26d9 b03d 387c a9bd
00000190: b471 2a3d f516 e03d 542d b4bd b485 473c
000001a0: 82fe c53d f833 a2bd 77c2 313d 5395 ed3d
000001b0: 52d6 e4bc 2320 87bd f571 47bd 74d9 92bd
000001c0: 2448 adbd ee33 92bd 1521 753d 28b2 9abb
000001d0: 42c6 29bb 0151 653b 6c96 8cbc f381 7d3d
000001e0: bbce 233d 0d63 063d 7b86 113d 5d90 cf3c
000001f0: 6250 943c ecc9 873d 1190 353d 3472 29bc
00000200: 7212 0bbd faae ea3b e0dc d13b 19bd 023c
00000210: 21c9 273d 79bc be3c 721b 783c 26bb 153e
00000220: cdc8 b03d 12d6 d43d ddc9 2bbd 9cc5 f2bd
00000230: 835a d8bd 40e3 49bd f406 9dbd 3c3f a8bd
00000240: 6808 fbbd 50f9 0a3e 132b 903e e927 40be
00000250: cde9 c73d 5d06 743e 90d2 b3be ca86 09be
00000260: 70eb 3c3d ac0b 203d 2d96 e53b 9238 1b3d
00000270: 2ab3 823d 61f5 183c 277f 133b afa2 343d
00000280: 759e e9ba 00de 7abb b64a 64bd 93eb 96bd
00000290: 2431 d43c c9a0 02bd 3ed8 c0bd 4a14 68bb
000002a0: 75b2 82bd 8ccd 59bd 4998 afbc 1959 073d
000002b0: 85b9 e33c e198 273d 4c2c 783d 6e98 ec3d
000002c0: 96f7 d93d 6782 853d 2e64 503d 00c2 0a3e
000002d0: 62a1 c4bd 7a86 7cbd 1007 17be f158 283c
000002e0: af02 dc3d e033 20bd 7288 973b 3035 a53c
000002f0: 6c82 c6bd e8de ff3d 28d0 8a3d 7c69 7a3d
00000300: 770e 9c3c 956a 5dbd c87f 54bd 1869 983d
00000310: 698c ecbc 0f30 6e3c 1de6 8f3e f334 07be
00000320: 16da d9bd a7fa 913e 884d 84bd bef0 ebbd
00000330: 683a c43e aad4 663d 0c1d 603c 4205 d4bd
00000340: 8f31 93bd d835 8dbd 9678 aabd f224 e8bc
00000350: 569e 7abd 975a a7bd bb0f b0bd 4fdc 5ebd
00000360: 86a6 a0bd aa94 13bd 130a 59bc 103e b5bd
00000370: 78dc febc 792c 58bb 8501 49bd fcd6 ecb9
00000380: 6102 d5bb 5f5a bb3d ecd9 1b3e 2bdd 063e
00000390: 8a6a 0abc 8a0f 5c3d 0929 1d3b b0ac 8abd
000003a0: f1ed 98bd eabb e4bd 0996 8e3e 36d1 ff3c
000003b0: 5073 323d 414f 693e 7645 18be b65d 21be
000003c0: 7263 713e 6807 0ebe 1cea f2bd fbba 0c3e
000003d0: ada3 073e 03b7 953d 9f4d 093d 0bc3 11bd
000003e0: bd07 e43c 6b63 813d 4749 c33c 25cf a5bc
000003f0: 84c4 873d 7761 323d 68e0 9c3d 7a04 333d
-0.07752208 -0.07268783 -0.05133846 -0.040982496 -0.020806855 -0.022810942 -0.067169316 -0.002104425
-0.011668302 -0.09765168 -0.07714516 -0.04485339 -0.057336412 -0.04878513 -0.06274687 -0.056800533
-0.011963483 -0.049908977 -0.08325529 -0.035740975 0.018755963 -0.058957756 -0.005310276 0.00922454
-0.07968563 -0.023159511 -0.020057308 -0.031693287 -0.06276604 -0.017593184 -0.071903266 -0.09901976
-0.06299023 -0.080756135 -0.106473096 -0.09716296 0.0045180926 -0.019652402 -0.048527196 -0.035768557
-0.03498743 -0.05838587 -0.024863848 -0.06648332 -0.053137485 0.011607916 -0.017677251 0.00484998
-0.022183537 -0.07662056 -0.012217221 -0.044719275 -0.09923948 -0.073761225 -0.08565332 -0.03899923
-0.060796633 -0.077127665 -0.044965874 -0.050517794 -0.014092002 -0.02734274 -0.055865794 0.011750097
-0.04499964 0.034213644 -0.0009342507 -0.057890408 0.016784804 -0.06278867 -0.059879106 0.01758591
-0.024924701 0.032542538 0.034823906 0.07487684 0.09730956 0.1477484 -0.034255635 -0.02336896
0.028522976 0.09501035 0.11401342 0.13223636 -0.067670606 -0.048216492 -0.026821582 0.0141535895
0.024384743 0.003686976 -0.11208501 0.06003925 0.24043271 -0.27941647 -0.06990363 0.16347197
-0.32335982 -0.15635619 0.08635168 -0.08275646 0.041612342 0.10941879 -0.08797708 0.012177873
0.09667684 -0.079200685 0.043398347 0.11600747 -0.027934227 -0.065979265 -0.048692662 -0.07170382
-0.08461025 -0.07138811 0.059846003 -0.004720945 -0.0025905524 0.003499091 -0.01716157 0.061891507
0.039992075 0.032809306 0.03552864 0.025337392 0.018104736 0.066303104 0.044326846 -0.01034217
-0.033953138 0.007161972 0.006404504 0.007979655 0.040963296 0.02328323 0.015143262 0.14622173
0.0863205 0.10392393 -0.04194056 -0.11854097 -0.10564139 -0.049288988 -0.07667342 -0.08215186
-0.12257463 0.13571668 0.28157863 -0.18765225 0.09761391 0.23830552 -0.35121584 -0.13430324
0.04612297 0.03907363 0.0070064277 0.037895747 0.06381829 0.009335847 0.0022506209 0.04410046
-0.0017823713 -0.0038279295 -0.055735312 -0.07369151 0.025902338 -0.031891618 -0.09416245 -0.0035412484
-0.06381694 -0.05317454 -0.02143492 0.033043955 0.027798424 0.04091728 0.06058912 0.11552511
0.106429264 0.06519013 0.05087679 0.13550568 -0.09601094 -0.061651684 -0.14748788 0.0102751115
0.10742699 -0.03911197 0.00462442 0.020166963 -0.09692845 0.12493688 0.06777984 0.061135754
0.019049866 -0.054056723 -0.051879674 0.0744192 -0.028875547 0.014537825 0.2810525 -0.13203792
-0.106373 0.28511545 -0.064601004 -0.11520527 0.3832581 0.056355156 0.0136788 -0.10352565
-0.07187187 -0.068950355 -0.08323781 -0.02833793 -0.061186157 -0.081715755 -0.0859675 -0.05440932
-0.07844262 -0.03603045 -0.013247031 -0.08849728 -0.031110987 -0.0032985492 -0.049073715 -0.00045173604
-0.0065005277 0.09148096 0.1521985 0.13170306 -0.008448252 0.053725757 0.0023980758 -0.06771219
-0.07467259 -0.11168654 0.27848843 0.03122769 0.043567 0.22784139 -0.14870247 -0.15758404
0.23573092 -0.13870013 -0.11861059 0.13743202 0.13246031 0.07310297 0.03352129 -0.035586398
0.027835721 0.063177906 0.023838652 -0.020240376 0.06629279 0.04354998 0.076599896 0.04370544
