TuiGAN/models/facade2labels/a3.pth (torch, 131453 bytes, 25 tensors)

weight f4 [32, 3, 3, 3]
000000 a2 a5 4f bd fb 2c 68 3b a1 e6 20 3d 27 01 70 3c
       -0.05069507 0.00354272 0.039282445 0.014648712
000010 31 a5 ec bc 2f be bc 3c eb be 01 3d 6b aa c3 bb
       -0.028887363 0.023039905 0.031676214 -0.005971243
000020 5b e3 c9 bd d7 78 46 bd a1 b9 36 3c 33 74 2d 3d
       -0.09857818 -0.048455086 0.011152656 0.042347144
000030 1b 5e 1d 3d 16 03 d0 bb 78 e0 42 3d cf 38 43 3d
       0.038419824 -0.006348024 0.04757735 0.0476616
000040 43 61 30 3c 01 2e 8d bd f4 83 a4 bd 45 7e 3c bb
       0.0107653765 -0.0689354 -0.080329806 -0.0028761786
000050 c8 b8 f5 3b 29 01 48 3b 32 a9 e2 bc 55 9c ca 3c
       0.0074988343 0.003051827 -0.02766857 0.024732748
000060 9d a2 6f 3b 83 80 2d bc 38 47 c2 bd 26 cc 07 3d
       0.003656543 -0.010589722 -0.0948624 0.033153675
000070 93 05 e3 3c 58 bc 16 3c c4 a2 06 3d a1 05 64 bc
       0.027712619 0.009200178 0.03287007 -0.013917358
000080 83 4a 94 bb 68 94 33 3c 07 2c 16 38 7c 1e 1b bc
       -0.004525484 0.010960676 3.580379e-05 -0.009467717
000090 bb 51 31 3b 4e 93 34 bd 16 f9 07 bd 80 0f dd bc
       0.0027056772 -0.044085793 -0.03319653 -0.02698493
0000a0 4e 0d f4 bc af 66 45 bd 21 2f 6e bd 35 8f 94 bd
       -0.0297915 -0.04819363 -0.058150414 -0.07253877
0000b0 be 1d 74 bd 78 e8 ba bc 1e 6d e2 3b 87 81 4f 3c
       -0.059598677 -0.022815928 0.0069099804 0.012665159
0000c0 a8 7f 98 3c 40 a4 4c 3d 93 14 9a 3d 9a 32 27 3d
       0.018615559 0.04996133 0.075234555 0.04081974
0000d0 14 4c 76 3d 9c 10 88 3d ea c1 18 3d cf cb ac 3c
       0.060131148 0.06643793 0.037294306 0.021093277
0000e0 78 fd ac 3c 2f 00 9b bc a5 69 0f bc 66 98 4b 3b
       0.021116957 -0.018920986 -0.008753215 0.0031066178
0000f0 40 0f b0 3c c7 7f 9d bc ea d2 3b 3d d9 46 eb 3c
       0.021491647 -0.019225968 0.04585544 0.028720306
000100 44 44 af 3c 15 10 44 3d 20 67 0f bc 81 a6 29 bc
       0.021394856 0.0478669 -0.008752614 -0.010354639
000110 69 0c 02 bd 9d 85 21 3d 76 46 23 bc fa 2b 46 3d
       -0.031750116 0.039434064 -0.00996553 0.048381783
000120 3d 35 15 3d 37 cf 91 3c d9 ce 81 3d 5b d1 0f 3c
       0.036427725 0.017799003 0.06338281 0.008777942
000130 c7 ee 66 3b 6c 1f b7 3c a1 2a f6 3d 59 cf ab 3d
       0.0035237537 0.02235385 0.120198496 0.08389158
000140 3c 98 bc 3d 3a 89 3a 3d d3 7f 50 3c 2e 1b 73 bc
       0.09208724 0.045541026 0.012725788 -0.014838023
000150 c8 ef 0d 3d 42 ee 52 3c 4e d1 46 bc 6e 62 6f bb
       0.0346525 0.012874188 -0.012134863 -0.0036527175
000160 6c 6e e5 bc 5f 79 86 bd bc dd 3a 3d 5e 2e 9a 3c
       -0.028006755 -0.065661184 0.04562162 0.018820938
000170 3a 5e 0a bc d2 b6 2d 3c be c4 cb 3b df ab 1a bc
       -0.008445317 0.01060267 0.006218522 -0.009440391
000180 da 94 48 3b 6e b1 3d bd f1 a7 7c bd e8 b8 6a 3d
       0.00306063 -0.04631179 -0.0616836 0.057305247
000190 47 c7 03 3d ee d5 a6 3b e6 ad 05 3d 72 78 99 3c
       0.032172468 0.0050914204 0.032636546 0.01873419
0001a0 07 bf 45 bb 3d 99 94 3b 76 f8 0a bd 5e 03 78 bd
       -0.0030173676 0.004534869 -0.033928357 -0.060550086
0001b0 bd 86 29 3d 15 e3 f3 3c 11 93 26 3d 11 bf 29 b9
       0.041388262 0.029771367 0.040667597 -0.00016188274
0001c0 cb b8 2a 3d b0 13 32 bc d4 f9 06 bc 4b a8 c8 ba
       0.04168014 -0.010868952 -0.008238275 -0.0015308944
0001d0 fd 53 ca bc da d5 4f 3d 2d 5f 23 3d 53 44 c7 3d
       -0.024698252 0.050741054 0.03988569 0.09729829
0001e0 fc 20 00 bc 8f 9e 0e 3d 1f 96 79 3c 5b 06 db bc
       -0.007820364 0.034819182 0.015233546 -0.026736429
0001f0 f3 4d c1 3a 80 c8 7a ba f3 e3 8d 3c 69 20 82 3d
       0.0014747962 -0.000956662 0.017320609 0.06353838
000200 45 86 a5 3d 92 dc ea bc 65 27 8e 3c a1 e4 a8 b9
       0.080822505 -0.02866963 0.01735277 -0.000322138
000210 e5 61 80 bd 4d e6 e8 bc a3 23 13 bc 27 61 e8 3c
       -0.06268672 -0.028430128 -0.008980664 0.028366638
000220 17 d1 02 3d a4 ae a7 3d f4 17 08 bc f0 b2 1e bb
       0.031937685 0.08187607 -0.008306492 -0.0024215542
000230 b5 a6 6f bc bb 8a f0 bc d5 3d 19 bd ea 6e 58 bd
       -0.014627148 -0.029363027 -0.037412483 -0.05284015
000240 9a 40 04 3d 10 b3 77 3d a1 6d bc 3d 0a 01 2b 3c
       0.03228817 0.0604735 0.092005976 0.010437259
000250 49 be e2 3b ce 9a 00 3b 8e e7 15 3b 0c c5 63 bb
       0.0069196564 0.001962352 0.0022873613 -0.00347549
000260 0c 56 4a bd 70 d0 ae 3c 4d b4 ed 3c ab 53 39 3d
       -0.049398467 0.021339625 0.029016638 0.045245808
000270 a3 79 6f bc cd a9 ab bc 11 5b e2 bc 38 ec bd bc
       -0.014616403 -0.02095499 -0.027631314 -0.023183927
000280 d4 cf 06 bd 22 e8 94 bd 88 0e 71 bd cd d8 93 3c
       -0.032913044 -0.07270838 -0.05885175 0.018047715
000290 d1 76 f2 3b ea fd ca bc 55 cf 8c 3b 24 c7 b0 39
       0.007399418 -0.024779279 0.004297177 0.00033717707
0002a0 64 57 9a bd 59 75 12 3c a8 1a c1 bc 48 32 be bb
       -0.075362 0.008939111 -0.023572281 -0.005804334
0002b0 3e 30 15 3d bb 0d 09 bd 96 04 1c 3d 16 fe ae 3b
       0.03642296 -0.03346036 0.03809031 0.005340348
0002c0 08 a4 15 bd 08 76 5e b9 01 df 19 3d 7e 7f 2d bd
       -0.036533386 -0.0002121554 0.03756619 -0.042357914
0002d0 69 e6 ca bc a7 19 c0 bc 85 fe ab bd ed a3 98 39
       -0.024768071 -0.023449732 -0.08398155 0.00029113833
0002e0 bb a4 2b bd 3c ce 3d bd fc b0 e9 bc 19 ef ec 3a
       -0.041905146 -0.04633926 -0.028526776 0.0018076628
0002f0 a3 9a 5c bd 71 20 c3 bc 30 05 a2 3b 9f 8e fb ba
       -0.05385841 -0.02381918 0.004944466 -0.0019192285
000300 d9 79 27 bd 77 cb b2 3b 63 f0 b7 bb c0 49 83 bd
       -0.040887687 0.005456384 -0.005613373 -0.06410551
000310 68 5b 26 bd 28 e4 d1 bc 8f 99 33 3d b8 09 0b 3d
       -0.040614516 -0.025621489 0.043847617 0.033944815
000320 4d b4 70 3c 73 35 97 3a a5 9a 38 3c d5 29 84 3c
       0.014691425 0.0011536315 0.011267339 0.016133228
000330 d9 a7 0e bd 1f a5 7a bc 71 54 8d bc 81 b3 f8 3d
       -0.03482804 -0.015298157 -0.017252179 0.12143613
000340 7e e0 1e 3d 3b b1 6a 3d fb ac 09 3d 13 ae bc 3c
       0.03878831 0.057297926 0.033612233 0.023032224
000350 5a 56 96 3c 17 1b 4f bb c4 b1 20 bc 60 cf 2c bd
       0.018351723 -0.003160184 -0.009808008 -0.042189956
000360 cd 83 89 3d 20 14 06 3d f1 4c e8 bc d1 44 08 3c
       0.06714592 0.032734036 -0.028357001 0.008317188
000370 52 8f c7 ba ea 26 9b bc d8 f3 cd 3c f1 9d 7e 3c
       -0.0015225208 -0.018939454 0.025140688 0.015540586
000380 65 bf 46 bc 79 ed 08 3d 07 87 6a bb f4 08 92 bd
       -0.012130593 0.033429597 -0.003578605 -0.07130614
000390 6f 98 39 bc ce 3e f6 bc f9 1e 6a bd 1a 27 76 3c
       -0.011327847 -0.030059244 -0.057158444 0.015023971
0003a0 7d 06 d4 bb 82 94 62 bd ac bf 30 3d 28 10 89 3c
       -0.0064705 -0.05531741 0.043151543 0.016731337
0003b0 df 2d 57 bd 4e a3 16 3c c4 ba 3a 3c 4d 30 dc bc
       -0.05253398 0.009194208 0.011397067 -0.0268785
0003c0 a1 f1 2a 3d 56 61 15 3c 7e b4 36 bc 92 1b 2e 3c
       0.04173434 0.009117445 -0.011151431 0.01062669
0003d0 7e df 17 bd 92 60 d4 bc 92 d2 c5 3c 94 b9 c3 bc
       -0.037078373 -0.025924955 0.02414826 -0.023892201
0003e0 5a 15 c6 bc c7 c6 12 3d a8 3b 2f bc a5 9f 59 bd
       -0.024180103 0.0358341 -0.0106953755 -0.053130765
0003f0 53 20 e0 3c dd d4 25 bd 63 9e cd bc 11 3c ea 3c
       0.027359163 -0.040486205 -0.025099939 0.028593095

bias f4 [32]
000000 0c b2 84 bc 7e f4 7e be 81 fb f4 bd 79 85 ca 3d
       -0.01619818 -0.24897954 -0.11962033 0.09888739
000010 a3 67 22 3e 1d 55 06 be b0 8e e2 3c b0 b5 97 3d
       0.15859847 -0.13118406 0.02765593 0.07407701
000020 af e3 de bd 8c 4b 1c be 27 bf 20 3e 3f 0f 3a be
       -0.10883271 -0.15263194 0.15697919 -0.18169878
000030 06 f7 19 3e 4a fc 92 bb 6c b4 4a 3d de 33 e3 bd
       0.15035638 -0.0044856416 0.04948847 -0.11093877
000040 5b 95 74 be 02 82 22 3d c2 4b 1f 3d 3e b9 68 be
       -0.238851 0.039674766 0.038890608 -0.22726914
000050 aa 64 f0 bd d2 3f 62 be d4 46 54 3e d6 29 25 3e
       -0.1173795 -0.22094658 0.20730144 0.1612924
000060 f5 3f 0f be 53 76 1e be b8 97 83 be 59 94 ed 3d
       -0.13989241 -0.15474825 -0.2570169 0.11600561
000070 a2 bf 88 3d 98 9f ca bd a3 c5 98 bd 2c 79 d1 3d
       0.06677176 -0.09893721 -0.07459571 0.1022819

weight f4 [32]
000000 b0 1c 77 3f 80 dc 20 3f c9 43 7a 3f 61 2e 7d 3f
       0.9652815 0.62836456 0.9775968 0.98898894
000010 4d a1 85 3f 8e 1f 77 3f 92 65 7b 3f e3 fc 54 3f
       1.043985 0.96532524 0.9820186 0.83198375
000020 d8 29 77 3f 44 95 6f 3f a9 5a 86 3f a4 3c 87 3f
       0.96548223 0.93587136 1.0496417 1.0565381
000030 85 f6 86 3f 55 aa 81 3f c3 bc 87 3f d5 90 50 3f
       1.0543982 1.0130106 1.060448 0.81470996
000040 86 41 71 3f 2e a1 7a 3f 41 2e 7a 3f 4f 9a 7e 3f
       0.94240606 0.9790219 0.9772683 0.99454206
000050 b5 5b 6f 3f 68 da 38 3f b8 ea 74 3f c6 dd 77 3f
       0.9349931 0.7220826 0.9567065 0.96822774
000060 11 91 68 3f e1 6e 74 3f b0 0b 87 3f 44 de 77 3f
       0.90846354 0.9548169 1.0550442 0.96823525
000070 a5 be 6e 3f c0 7c 69 3f dc 94 69 3f 25 20 81 3f
       0.9325965 0.9120598 0.91242766 1.0087935

bias f4 [32]
000000 6b ec a6 3e 29 c7 82 3f 75 1d 21 3f 9b 77 ff 3d
       0.32602248 1.0217029 0.6293557 0.12473985
000010 46 93 29 bc 05 84 5e 3e 6a 39 f6 3e b2 01 f5 3e
       -0.010350054 0.21730049 0.48090678 0.47852856
000020 4f 19 9c 3e 30 f6 9d 3e a9 f2 aa 3e dd 98 51 3e
       0.3048806 0.3085189 0.3338826 0.20468469
000030 e0 4e 42 3e 4a d2 11 3f 96 ef d4 3b 2e 3c 45 3e
       0.18975401 0.569615 0.0064982874 0.19261238
000040 8e 0d 54 3c 04 f5 b0 3e 19 96 3d 3d d9 be 99 3e
       0.012942685 0.34561932 0.046285722 0.30028418
000050 02 fb 0a 3f 39 a2 cd 3e dd 02 1f 3f e6 92 d7 3e
       0.5428926 0.4016283 0.62113744 0.42104262
000060 d9 1d 04 3f af c9 02 3f ff 24 0c bc 2d 12 05 3d
       0.51608044 0.51088995 -0.008553742 0.032488037
000070 9d 31 c7 3e f6 01 89 3d 22 ac 3d 3e c8 10 0c 3d
       0.3890504 0.06689827 0.18522695 0.03419569

running_mean f4 [32]
000000 f9 2a 2c bc bd 24 84 be 68 78 08 be c1 7d c9 3d
       -0.010508292 -0.2580928 -0.13327181 0.09838439
000010 60 28 20 3e 6b 7c 02 be d5 22 19 3d d1 64 90 3d
       0.15640402 -0.12742774 0.037386734 0.07050479
000020 f6 ab e2 bd 50 f4 20 be 0c a0 21 3e de 98 3a be
       -0.11067955 -0.15718198 0.1578371 -0.18222377
000030 2e 37 1e 3e 1f a6 0c bc ce bd 48 3d 4a c4 e2 bd
       0.15450737 -0.008584528 0.049009137 -0.110725954
000040 3b 77 76 be 68 39 2a 3d 3f b4 2e 3d 0b 14 6c be
       -0.2406892 0.041558653 0.042652365 -0.23054521
000050 e5 67 d8 bd 86 77 65 be a3 6b 5b 3e 3d b9 27 3e
       -0.10566691 -0.22408876 0.21427779 0.16379257
000060 c8 a0 0c be b8 cf 1b be b8 c2 83 be b4 50 cc 3d
       -0.13733208 -0.15215957 -0.25734496 0.099763304
000070 8d 3a 81 3d e2 0f ce bd 41 e8 90 bd 7f 25 c5 3d
       0.06309996 -0.10061623 -0.07075549 0.096262924

running_var f4 [32]
000000 54 46 76 3b ad 24 b2 39 b4 8e 33 3d b9 be a3 3b
       0.003757854 0.0003397813 0.043837264 0.004997101
000010 46 d0 8b 3c da 6a 8c 3b 32 42 9c 3c 8f 99 76 3b
       0.017067086 0.0042851986 0.019074533 0.003762815
000020 a6 8c af 3b fb d5 bb 3b 67 8a 6e 3b 78 7c eb 3b
       0.005357343 0.0057322956 0.0036398412 0.0071864687
000030 21 b7 ae 3c 26 6e a5 3c f5 d0 e2 3b c0 f7 36 39
       0.021327557 0.020194124 0.0069218823 0.00017449167
000040 f0 ff 20 3b f4 b7 6c 3c 08 bf 29 3b 7b 6a 52 3b
       0.0024566613 0.014448155 0.0025901217 0.0032106924
000050 6e 54 f6 3c cf 27 66 3a 33 c9 69 3c ff ee 9b 3c
       0.030069556 0.00087797357 0.014269161 0.01903486
000060 a9 1e e0 3c c7 06 9b 3c ad 24 1b 3b 4b 3c 16 3d
       0.02735837 0.01892413 0.0023672984 0.036678594
000070 28 85 0a 3d c5 40 0c 3b 90 01 69 3b eb d6 e8 3c
       0.033818394 0.002140091 0.003555391 0.028422793

weight f4 [32, 32, 3, 3]
000000 5d e0 30 bc cc 73 f3 bc 8b 2c a5 bd ff 98 04 3c
       -0.01079568 -0.029718302 -0.080651365 0.008093118
000010 90 72 34 bd 06 d0 06 be 6e 5b cf 3b 69 ba 2f bd
       -0.044054568 -0.13165292 0.006328038 -0.042902384
000020 11 b0 ce bd 7f 56 95 bc e9 58 37 3c a2 3f db bc
       -0.10092176 -0.018229721 0.011190631 -0.02676374
000030 0b 59 25 bc 35 0e 8d bc 87 0c e5 bb 04 90 d3 39
       -0.01009203 -0.017218689 -0.0069900188 0.00040352356
000040 81 aa 2d bb 9d cb d5 bb 7d 63 03 3d 60 b4 6e bc
       -0.0026499333 -0.0065245167 0.0320773 -0.014569372
000050 5b 6d ad bc a8 ef 00 3d a2 da 71 bd 5a 42 47 bd
       -0.021170309 0.031478554 -0.059046395 -0.048647262
000060 65 dc f6 b9 f2 e9 b9 bc 74 06 8b bd 7e 8f d6 3a
       -0.00047084983 -0.022694562 -0.0678834 0.0016369668
000070 4c 46 ae bb b6 fb 6c 3c f5 11 99 bc f5 5f ba bc
       -0.0053184386 0.014464309 -0.01868532 -0.022750834
000080 fa 8e b1 bc 7e 47 1e 3d ca ad f6 3c ef 47 a4 3d
       -0.021674622 0.0386424 0.030112166 0.08021533
000090 38 7c 5f 3b f4 07 39 bb dc 0f 15 bd 3d 3b dd 3b
       0.003410114 -0.00282335 -0.036392078 0.0067514465
0000a0 53 c2 05 bd fa 2f 49 bd fd 33 60 3d dd 99 2b bc
       -0.032656025 -0.04911802 0.05473708 -0.010473696
0000b0 61 bc 71 bd 3e 67 29 bd a4 44 4b 3d f5 21 54 3b
       -0.059017543 -0.041358225 0.049626008 0.0032368873
0000c0 42 64 e9 bc 5e 1c 7f bb b0 07 67 bd 09 78 a7 3b
       -0.02849019 -0.003892682 -0.056403816 0.005110745
0000d0 65 58 5c 3c c9 43 85 3c 52 49 56 3d ce 0b 95 3c
       0.013448809 0.016267674 0.052316017 0.018194105
0000e0 d4 e0 c7 bd 72 38 2e 3d 79 3b 54 3c 5e af dd bd
       -0.097596794 0.0425343 0.0129536325 -0.10824464
0000f0 04 d1 9c 3d 65 bb 8b 3c 88 c6 2d bd 76 3a 1c bd
       0.07657054 0.01705713 -0.042425662 -0.03814169
000100 84 71 ce bb c7 65 a9 bc ce 35 cd bc 20 14 49 bd
       -0.006300153 -0.020678414 -0.02505007 -0.04909146
000110 32 1e 69 bc f5 ff fa bc f3 ea 2c bd 22 f4 9e bc
       -0.0142283905 -0.030639628 -0.042216253 -0.019403521
000120 3b de 16 3d 7b ac 0f bd 93 78 22 bd 34 cb ad 3c
       0.03683303 -0.0350766 -0.03966577 0.021215059
000130 5a fa 88 bc 6b 7a ff 3a 20 3d 09 3d 8e c5 de 3b
       -0.01672094 0.001949144 0.03350556 0.0067984527
000140 a0 1f c1 bc f1 10 43 3d 95 86 78 3d 65 5f 87 3b
       -0.02357465 0.04762358 0.060675222 0.004131245
000150 49 cd 3c 3d 0e 19 49 bb 7f 85 3a bc d8 55 84 bd
       0.046094213 -0.00306851 -0.011384367 -0.06461686
000160 92 20 01 bd f9 93 78 3c 75 a9 50 3c ed 35 f0 bb
       -0.031525202 0.015171998 0.012735714 -0.007330647
000170 da 89 d1 bd 02 de 61 bc 72 ff c0 3b a7 ff 82 bd
       -0.10231371 -0.013785841 0.0058898265 -0.06396418
000180 cd 27 02 bc 46 2e 8d 3c 19 2a 6f bc 58 ed 39 3d
       -0.00794406 0.017233979 -0.014597439 0.045392364
000190 ff 2b b3 bc 73 e0 b1 bc b0 c3 22 3b 6d b1 1b bd
       -0.021871565 -0.021713471 0.0024835877 -0.038011003
0001a0 b3 35 cf bc 22 82 d1 3c 19 42 bd bb fb 0b 87 3c
       -0.02529416 0.025574747 -0.0057757017 0.016485205
0001b0 1f c7 d7 bc 28 9f 2d bc 38 c8 26 bd 6c 69 14 bd
       -0.026340066 -0.010597028 -0.040718287 -0.03623335
0001c0 87 83 b4 bb 2a ee df bd 62 55 a5 3c 35 c6 78 bc
       -0.0055088433 -0.10934098 0.020182315 -0.015183975
0001d0 2e 5b d3 bd 8a a7 15 3c e0 54 06 3d 53 08 10 3d
       -0.103201255 0.009134183 0.032795787 0.03516419
0001e0 44 bc bb bc 83 01 4a 3c 18 a3 39 bc a4 b8 61 bd
       -0.02291692 0.012329462 -0.0113303885 -0.055107728
0001f0 38 77 16 3d 6b e9 d1 3c 9f 04 81 3d 40 f7 17 3d
       0.03673479 0.025623998 0.062997095 0.03710103
000200 4f f7 42 3d 6d 44 41 bb ad c6 02 3c cc 3f 56 3d
       0.047599133 -0.0029490248 0.007981938 0.052306935
000210 a6 f6 a2 3c 67 5e 69 3d 5c 3c 47 3d a7 82 69 bc
       0.019893002 0.056974795 0.048641548 -0.014252341
000220 c8 92 83 3b 5a b7 e2 3b 2f 97 15 3c e3 8e 17 bb
       0.0040153004 0.00691883 0.009130283 -0.0023125939
000230 e5 21 34 3c 35 74 46 bc 97 74 ad 3b e7 27 7f bc
       0.010994409 -0.012112667 0.0052934396 -0.015573478
000240 99 0b 74 3c 15 c9 f1 bc bd 11 79 3d 2b 2a 8c 3b
       0.014895343 -0.029514829 0.060807932 0.0042774878
000250 e1 06 b6 3b 25 7a 0e 3d 9b d0 3f bc 37 9f 35 3a
       0.0055550192 0.034784455 -0.01170745 0.0006928327
000260 b2 27 a3 3d 89 bd 91 3c 82 7d 41 3d 9a 68 cc bd
       0.07966556 0.017790573 0.047238834 -0.09980889
000270 d1 b5 02 bd 3a 5c 0f bc 83 2f 9f bd 13 84 b1 bc
       -0.031911675 -0.008750016 -0.07772734 -0.021669423
000280 e3 79 65 bc 7c 10 99 bd 58 5c ee bb 29 71 2f 3d
       -0.014006111 -0.07473847 -0.007274192 0.042832527
000290 c2 10 b2 bc ea 7a 77 bb b1 6c 79 3c 5e e8 a1 bc
       -0.021736506 -0.0037762471 0.015223668 -0.019764122
0002a0 27 9b e4 bc 52 70 c8 3b fa ca b5 bc 99 86 c8 bc
       -0.027906014 0.0061169052 -0.022191513 -0.024478244
0002b0 17 fc 88 bc 21 cb 3a 3c a1 18 fd 3b f2 01 f6 3a
       -0.016721768 0.011400969 0.0077238833 0.001876889
0002c0 50 5e a7 bc 52 fb dd bc 06 7c 25 bc cb a5 d1 bc
       -0.020430714 -0.027097378 -0.01010037 -0.025591752
0002d0 f8 5d 5a bc 64 13 45 3c e3 3f a5 bd c5 c9 c3 bc
       -0.013328068 0.012028549 -0.08068826 -0.023899922
0002e0 d3 4b 8e bb 77 c6 ad bd bb c7 e4 3c 18 2d 4e 3c
       -0.004342535 -0.0848512 0.02792727 0.012583993
0002f0 91 f0 85 bd 22 cd 2f bc 7d f9 09 3d 9f 77 e5 bc
       -0.06540025 -0.01073006 0.033685196 -0.028011141
000300 2d 33 de 3c bc b6 fd 3c 7a 63 17 bd b9 f5 39 ba
       0.027124012 0.030970924 -0.036960103 -0.00070938055
000310 0e f5 2f bc aa 00 fc bc 2a eb f4 3c 86 ad 80 3c
       -0.010739578 -0.030762035 0.029897291 0.015707742
000320 26 bd 84 3d 45 df 27 bd dd 0b 71 3c 27 2a b4 bc
       0.0648139 -0.04098441 0.014712301 -0.021992756
000330 72 4b 89 bc 0b e0 e9 ba 45 a7 ad bc 1f 14 09 bd
       -0.016759608 -0.0017843259 -0.021197924 -0.033466455
000340 77 8c 4c 3b 6b cf 49 bd e7 7e 58 3c 69 0f 91 bc
       0.0031211653 -0.049270075 0.01321385 -0.017707543
000350 8f fc 40 bd 19 0d d4 3c cc 54 4d 3d 26 c3 78 3c
       -0.04711586 0.025885152 0.050129697 0.015183246
000360 19 02 bc 39 44 b2 5c 3c b0 fc ac bd a6 25 7e 3c
       0.00035859717 0.013470236 -0.08446634 0.015511906
000370 85 3c fa 3b 0a 1b 93 bb 7d 1a d6 3c 9f 02 93 3c
       0.007636609 -0.0044893073 0.026135677 0.017945586
000380 51 a0 98 3c 5b 98 a1 3d 2b f1 5e bb 97 1e 9e bd
       0.018631132 0.078903876 -0.003401826 -0.07720678
000390 74 27 06 3d c1 03 5e 3c c2 9e 62 bd be 5d 6e 3d
       0.03275247 0.0135507 -0.055327184 0.05819487
0003a0 79 c5 48 3b 34 91 5a bd e4 cc fb bc c9 e6 a4 bc
       0.003063528 -0.053361133 -0.030737348 -0.020129578
0003b0 36 d1 93 bd 01 9b 2d bb 20 c8 89 bc dc 75 94 bd
       -0.07217638 -0.0026490095 -0.01681906 -0.072490424
0003c0 7e ea 4d bd cc a8 ad bc cb cb 66 bd b8 6f 95 3a
       -0.050272457 -0.021198653 -0.056346696 0.0011401093
0003d0 90 7d a5 bb 63 78 46 bd 0f 77 34 3c e5 c3 98 bb
       -0.0050503686 -0.048454653 0.011014714 -0.0046620243
0003e0 0c ba 5b bd 1a 90 fb 3c 75 99 96 bb 9c db 87 bd
       -0.053644225 0.030708361 -0.00459593 -0.06633684
0003f0 e3 f0 85 ba 44 0a 46 bc f4 d1 f6 bc 21 87 09 3d
       -0.0010218885 -0.012087408 -0.03012941 0.033576135

bias f4 [32]
000000 f6 ff 77 3d 56 27 33 3d b6 0a 3e 3d 42 c9 7d bd
       0.060546838 0.043738686 0.046396933 -0.061959513
000010 de 3a 48 bc 41 c8 ef bc 55 0d 48 3d c4 86 a8 bc
       -0.012221066 -0.029270293 0.04884084 -0.020572074
000020 27 68 2f bd 5a c3 0d 3d 51 49 4f bb 9d d5 59 bc
       -0.042823937 0.03461013 -0.0031629393 -0.013295558
000030 21 3c 55 bd 41 7f d5 ba e6 5c 33 bd 82 03 e4 bc
       -0.052059297 -0.0016288535 -0.043789767 -0.027833704
000040 c2 7b 0f bd f3 95 3a bd b6 c0 7d 3d 69 50 c1 39
       -0.035030134 -0.04555316 0.06195136 0.0003687174
000050 7c af 0c bd 5f 87 3b 3d 73 2e 67 3d 47 e5 84 bc
       -0.034347042 0.045783397 0.05644078 -0.01622261
000060 b6 1d d9 bc c5 5e 60 bc 6b 20 2a bd f0 98 a9 3d
       -0.026503425 -0.01369447 -0.041534822 0.08281124
000070 17 e3 0f bc 27 f4 06 3d 58 f2 8b 3d 3d f4 32 3b
       -0.00878217 0.032947686 0.06833333 0.0027306222

weight f4 [32]
000000 86 de 84 3f 96 11 81 3f 4b b8 76 3f 2f 92 78 3f
       1.0380409 1.0083492 0.9637496 0.9709806
000010 25 bd 71 3f 77 21 80 3f 5a af 72 3f 0a 23 7f 3f
       0.94429237 1.0010213 0.94798815 0.9966284
000020 e0 19 84 3f 88 99 71 3f 88 09 6c 3f b3 bb 6b 3f
       1.0320396 0.94374895 0.92202044 0.9208328
000030 d1 c2 70 3f f3 82 83 3f 48 f2 35 3f e7 c9 68 3f
       0.94047266 1.0274338 0.71072817 0.9093308
000040 05 14 86 3f 12 e7 7c 3f e5 f0 56 3f 7e 3a 68 3f
       1.047486 0.98790085 0.83961326 0.9071425
000050 d1 de 7f 3f 7a 84 6b 3f 1d 43 6a 3f 9c 97 5a 3f
       0.99949366 0.9199902 0.91508657 0.8538759
000060 f3 29 3b 3f c3 cf 82 3f e1 c2 84 3f 1a 85 77 3f
       0.73110884 1.0219654 1.0371972 0.9668747
000070 37 9d 6c 3f f4 74 77 3f 10 a4 80 3f b4 5e 7f 3f
       0.9242739 0.9666283 1.0050068 0.9975388

bias f4 [32]
000000 81 27 c1 3e 15 a2 86 3e 97 f3 96 3e 4f 65 c8 3e
       0.37725452 0.26295534 0.2948272 0.39139792
000010 cc 11 d3 3e 2e fe ec 3d da d7 cc 3e e6 41 e4 3e
       0.41224515 0.115719184 0.40008432 0.44581527
000020 38 f8 5d 3c a1 2a 8f 3e 04 49 0c 3f 14 55 e5 3e
       0.0135479495 0.2796221 0.54798913 0.44791472
000030 9d 9a bd 3e 0c 3f af 3d 80 0d d7 3e 0a a5 f7 3e
       0.37032023 0.08556947 0.42002487 0.48368102
000040 4e 87 22 3e ea 71 62 3e 1f 18 0e 3f 86 5d fa 3e
       0.15871927 0.22113767 0.55505556 0.48899478
000050 90 c5 31 3e 26 f1 f2 3e f3 18 b9 3e 82 44 45 3f
       0.1736052 0.47449607 0.36151847 0.7705766
000060 15 1c ba 3e 09 0d a7 3e b3 fe 13 3f 8e 7f 8b 3e
       0.3634955 0.32627133 0.57810515 0.27245754
000070 bf 78 e9 3e c9 30 ba 3e f6 68 b0 3d 11 e9 b1 3d
       0.45599934 0.36365345 0.0861377 0.08687032

running_mean f4 [32]
000000 1f 8c 99 bf 47 ca 12 c0 00 c3 1a c0 21 84 e1 3e
       -1.1995887 -2.293596 -2.4181519 0.4404612
000010 a2 95 a4 bf 8f 0e cb bf 16 b4 c6 bd e8 63 d7 3f
       -1.2858164 -1.5863818 -0.097023174 1.6827364
000020 3a e0 33 c0 a7 84 85 be 15 3e 20 3f 46 14 78 bf
       -2.8105607 -0.26077768 0.6259473 -0.96905935
000030 75 4f 0c be 64 05 4a 3e 08 49 cc 3d d9 e6 3a bf
       -0.13702185 0.19728619 0.09974867 -0.73008496
000040 77 24 cb 3e 8d 7d 0b bf e0 e9 61 bf 8b 53 89 bf
       0.39676258 -0.5448845 -0.8824749 -1.072862
000050 54 72 60 3e ee 0e fd 3f ba 48 7a bf 7c 46 eb be
       0.21918613 1.9770181 -0.9776722 -0.45952213
000060 de 8f 98 bf 5c 63 34 3e 26 4e 10 40 f0 d5 ac 3f
       -1.1918905 0.17616028 2.2547698 1.3502789
000070 c6 94 be bf d6 75 64 bf c4 db 65 bf db 4e cc bf
       -1.4889152 -0.89242303 -0.8978846 -1.5961565

running_var f4 [32]
000000 d3 56 e2 3e 46 cb ff 3e 47 fe c3 3e 63 7b 0a 3e
       0.44206867 0.49959773 0.38279936 0.13523631
000010 b9 d0 88 3f df 55 de 3e 1f 24 b7 3e 7a 86 9d 3e
       1.0688697 0.4342489 0.35769746 0.3076666
000020 c0 de aa 3e 8a 7a 8b 3e 27 7b 59 3e dd 4a 9d 3e
       0.3337307 0.27241927 0.21238385 0.3072118
000030 ae ab 38 3e ec ab d5 3f dd e9 ca 3d c0 6d 98 3e
       0.1803424 1.6693091 0.09907887 0.29771233
000040 14 83 13 3f 46 83 86 3f 54 72 b0 3e 32 f9 13 3f
       0.57621884 1.0508811 0.34462225 0.57802117
000050 72 84 a1 3e c3 8d cc 3e 7c 74 7c 3e d3 d9 53 3e
       0.3154636 0.39951906 0.2465381 0.20688562
000060 58 35 fe 3d 52 42 db 3e 4f c8 10 3f d1 3e 19 3f
       0.12412518 0.42824036 0.56555647 0.59861475
000070 c7 91 3e 3f 99 fc 99 3e 4d 37 c4 3e c7 cc af 3e
       0.7444119 0.3007553 0.3832344 0.3433592

weight f4 [32, 32, 3, 3]
000000 d3 b0 05 3d 00 f3 39 bd 21 d4 c9 bd d4 79 7e 3c
       0.032639336 -0.04539776 -0.098549135 0.015531976
000010 97 3a 32 3c af 8e f9 bc 5e 2d a4 3c 76 35 12 bd
       0.010878227 -0.030463545 0.020041164 -0.035695516
000020 db 3b 95 bd c7 d0 9d 3d fc 0a 3a 3d b5 b6 b9 3c
       -0.07286807 0.07705837 0.04542063 0.02267013
000030 33 41 97 3d d1 71 ac 3d 80 72 0c 3d f3 be bc 3d
       0.07385483 0.08420146 0.034288883 0.09216108
000040 21 79 52 3d 9c e1 bc 3d 92 79 84 bd 3a bb 99 bd
       0.05138505 0.09222719 -0.064685 -0.07506414
000050 33 de 1d bd 28 15 c5 bc 86 1f bd bc 67 3c 64 3c
       -0.038541984 -0.02405794 -0.02308632 0.013930417
000060 f5 e2 ac bc 6c 11 3a bc cf c5 02 bd ff 59 12 bc
       -0.021104315 -0.011356693 -0.031926926 -0.00893259
000070 5b d6 31 3d d9 13 a0 3c 44 2b 15 bc b0 3d c1 3c
       0.043417316 0.019540714 -0.009104554 0.023588985
000080 3a 7f 24 3b 90 c8 c8 bc ea cc 43 3b f6 e8 16 bc
       0.0025100247 -0.024509698 0.0029876777 -0.009210816
000090 e1 e5 4d bd 84 93 8b bc ba 5b 2c 3c 05 79 1c bd
       -0.050268058 -0.017038114 0.010519916 -0.03820135
0000a0 92 be ca bc e1 49 ad bc 5e 0c df bd ae eb 57 bd
       -0.024749074 -0.021153392 -0.10891031 -0.052714996
0000b0 c6 8f 1a bd a8 b6 a8 3c 1e 34 f4 3c e1 9a 8e bc
       -0.03773477 0.02059491 0.029810008 -0.017407836
0000c0 56 45 44 bc b2 54 7f 3c 53 c1 13 3d fd 0e d6 3b
       -0.011979422 0.015584158 0.03607304 0.0065325485
0000d0 66 33 98 3c 50 68 4f 3c ad 73 51 bd 2a 9c 51 bd
       0.018579196 0.012659147 -0.051135708 -0.05117432
0000e0 0f 0f 2c 3b ed 3f 02 bc 6d 50 64 bd fc fe 27 bc
       0.0026254093 -0.007949811 -0.055740763 -0.010253664
0000f0 d2 72 1e bb 79 3b dc bb e8 cd b1 3c 5e fa 0c 3b
       -0.0024177325 -0.006720957 0.021704629 0.0021511535
000100 db f8 9d bc 7c 10 d6 bd cd f9 fe bc 95 de 6c bd
       -0.019283703 -0.10452363 -0.031124974 -0.05782946
000110 13 b8 5c bd 46 42 1b bc 08 04 72 bd cf 68 68 bd
       -0.053886484 -0.00947625 -0.059085876 -0.05674058
000120 ed 44 c7 bc 71 99 22 bc 10 86 1c bd 13 d1 a9 3b
       -0.024324859 -0.009924279 -0.03821379 0.0051823943
000130 ed 33 0e 3d d8 81 d7 3a 54 b6 49 3c 86 1a 41 bc
       0.03471749 0.0016441895 0.012311537 -0.011786109
000140 de b1 46 3d 38 f3 a7 bb 28 4d da bb 13 9b 50 bd
       0.04850947 -0.0051254295 -0.00666203 -0.05092914
000150 f1 9e 8f 3b cf 75 a2 bc e8 0d 54 bc bf 39 ac 3c
       0.004382961 -0.019831566 -0.012942769 0.02102363
000160 1f c3 f7 bc 92 3c 86 bd c3 ef 90 3c 7f 6a 0a bc
       -0.030244408 -0.065545216 0.017692452 -0.008448242
000170 7e 35 a8 bc 4e 48 4a 3b 47 2d 6f bd d2 6a d0 bc
       -0.02053332 0.003086585 -0.05839279 -0.02544156
000180 09 4b 92 3d 8f 04 7f 3d 1e 57 98 3d a0 e1 05 bc
       0.07143218 0.062260207 0.07438491 -0.008171469
000190 8b b4 78 bd 50 58 c9 bd fb 46 0d bc 73 9b df bb
       -0.060719054 -0.098312974 -0.00862288 -0.006823951
0001a0 25 7c 69 bb 1d 95 32 3d 27 9c 08 3d f4 5d 4c bd
       -0.0035626974 0.043599237 0.033352043 -0.04989429
0001b0 29 2f 86 3c dc f7 ba bb 23 7f ee 3c 8e 8e 6e 3c
       0.01637991 -0.0057058167 0.029113358 0.014560355
0001c0 f1 48 29 3d f5 14 20 3d e5 85 27 ba 94 27 5f 3d
       0.041329328 0.039082486 -0.0006390496 0.054481104
0001d0 ba 21 3b 3c 2d 91 77 bc 4d da 2d bd ee 72 64 bd
       0.011421615 -0.015110296 -0.042444516 -0.055773668
0001e0 03 37 f8 3c 01 bb be bc d9 ca 0f bd 8f 0c 8e 3c
       0.03029967 -0.02328253 -0.03510556 0.017339973
0001f0 72 1a f8 bc 0b ad 49 bd 60 74 d2 bb 65 fb 2a 3d
       -0.030286048 -0.049237292 -0.0064225644 0.041743655
000200 a5 e6 38 3c b8 66 43 bb c9 8c 15 bd be cf 17 bb
       0.011285459 -0.0029815864 -0.036511216 -0.0023164595
000210 3b a9 fd ba 49 89 ab bc 7a 44 d8 3c ac c4 a5 bd
       -0.0019352803 -0.020939486 0.02639984 -0.08094153
000220 bd 49 e6 bc e1 9e c4 bc e2 ed 03 bd a9 a2 8a bc
       -0.028111333 -0.02400154 -0.032209285 -0.016923266
000230 85 58 cd bc e0 66 9d bd c5 ee a6 bc a3 61 bd ba
       -0.025066623 -0.076856375 -0.020377526 -0.0014448654
000240 e4 6b e5 bc f3 7f 3a bd ac 91 87 bc f7 91 49 bd
       -0.028005548 -0.045532178 -0.016548954 -0.04921147
000250 36 9e 07 ba bb a3 33 bd 90 a2 0c bd 1b 3f 8e bc
       -0.00051734166 -0.043857317 -0.03433472 -0.017364075
000260 0c fb 5c bd 22 c6 48 3c da 5d b3 3c e1 ac 14 3a
       -0.053950354 0.01225427 0.021895338 0.0005671513
000270 62 b0 38 3c 33 f4 0a 3c 3a 08 23 bc 7e c9 6e 3d
       0.011272522 0.008481073 -0.009950692 0.058297627
000280 3d 8e 53 3c a3 9a e6 3c 25 9a 31 bd 9b fa 09 bb
       0.01291233 0.028149908 -0.043359894 -0.0021053914
000290 68 cd 36 bc 84 80 2e 3d 1e 2f b2 bc 57 27 8f 3c
       -0.011157371 0.04260303 -0.021750983 0.017474813
0002a0 63 61 ea 3c 4d 0a fc 3c 79 f5 7e bc 27 fd 64 3d
       0.02861089 0.03076663 -0.015561455 0.055905487
0002b0 d7 61 9a 3b d5 71 63 3c a3 fc e1 3c c8 7f a5 3c
       0.0047113704 0.01388212 0.027586287 0.020202532
0002c0 dc 88 b5 3c b8 4e 5f 3d 94 fc 04 3c c6 85 b7 bc
       0.022159986 0.05451843 0.00811686 -0.022402655
0002d0 c9 3f 09 bd 06 c9 dc bb 3b a4 89 bc da 27 a7 3c
       -0.033508096 -0.006737831 -0.016801944 0.020404745
0002e0 9e 88 87 3c 2d 70 d5 bb 15 de 39 3c 06 2d 57 3d
       0.016544636 -0.0065136165 0.011344452 0.052533172
0002f0 15 d6 0e 3d c3 68 d8 3a e8 4d 57 3d 80 42 ad 3d
       0.034872133 0.0016510714 0.05256453 0.084599495
000300 52 f6 b7 bb 50 af 6e 3c fa 78 ec 3c 77 db 44 3c
       -0.0056140805 0.014568165 0.02886628 0.012015215
000310 af df 28 3d 71 2e 06 3d 79 c8 fd 3c eb 19 57 3c
       0.041228946 0.032759134 0.030979382 0.013128738
000320 e4 bd 92 3d ea 1b 23 3d 86 0a e4 3c a9 d7 6f 3d
       0.07165125 0.039821543 0.02783705 0.05855528
000330 71 78 fb 3c 53 f0 62 3c ab f2 ce 3c cb 10 f3 3c
       0.03069708 0.013851243 0.025262197 0.029671093
000340 b9 68 5e 3b e4 e2 2f bd 27 1a 8e 3b 94 46 3d 3d
       0.0033936931 -0.04294099 0.0043366137 0.046209887
000350 f8 38 72 bc d0 81 7a bd 98 9c 8c bd 0d 14 13 be
       -0.01478409 -0.061158955 -0.068658054 -0.14363118
000360 ea df b6 3c 96 07 52 3c 8a 35 3d 3d cf 65 11 bc
       0.022323567 0.012819191 0.046193637 -0.008874371
000370 03 11 00 3b d1 a2 5d bd da 95 59 bd 7a 24 50 bc
       0.001954139 -0.054110352 -0.053121425 -0.012704009
000380 6d db c5 bc 3c 9d 2d 3d fb 5b 04 3d 0a bf b4 3d
       -0.024152482 0.04238628 0.032314282 0.088255
000390 d9 78 a5 3b 58 18 ac 3b 2b 51 c4 3c 2c 30 21 3d
       0.0050498066 0.0052519254 0.023964485 0.03935258
0003a0 14 62 b6 bc 60 4d 0d bd 8a 1c 37 bd 7f 2c ce b9
       -0.022263564 -0.03449762 -0.04470495 -0.00039324534
0003b0 f9 22 74 3b 43 7a 60 bd 9b 3b 1a bd 06 4c fe bc
       0.003725229 -0.054804098 -0.0376545 -0.03104211
0003c0 1e db 05 3c 03 b6 69 3b 1c 91 1d bd 62 f0 83 bc
       0.008169917 0.0035661466 -0.038468465 -0.016105834
0003d0 e4 47 b6 3c f6 1f 00 bd ff f4 0e bb 1e 43 99 bc
       0.022251077 -0.03128048 -0.002181351 -0.018708762
0003e0 81 06 b4 bc ce 7e 10 bd 92 cb 29 bd 67 46 d2 bd
       -0.021975758 -0.03527718 -0.041453905 -0.102673344
0003f0 a5 0a 0a 3d 0b 33 f6 3c ad ef cf bb 6d 88 ab 3c
       0.033701558 0.030053636 -0.0063457103 0.020939076

bias f4 [32]
000000 f7 8f be bc 20 88 3a bc 0f da 2b 3d c3 5c 80 3c
       -0.023262007 -0.011384994 0.041956004 0.015669232
000010 96 56 50 3d 01 e8 46 3c a2 29 bd 3c 16 34 80 3c
       0.050863825 0.012140275 0.023091141 0.015649837
000020 c8 57 8e bc 79 6d 04 3c 3e 6c 19 bb a9 70 61 bd
       -0.017375842 0.008082741 -0.0023410465 -0.05503908
000030 89 0b f1 3b 07 df 5e bd 0a b7 3f bd e0 46 e4 ba
       0.0073561114 -0.054411914 -0.04680542 -0.0017416142
000040 50 fa bc bc db c5 80 bd 92 19 82 3d fe b4 62 bd
       -0.023068577 -0.06287738 0.063525334 -0.05534839
000050 4c 76 85 bd a5 d4 27 3d 48 a0 68 3d d4 80 ad 3d
       -0.06516704 0.040974278 0.05679348 0.08471838
000060 18 02 04 3c bb c4 14 bd 85 c1 a2 3d 1b 76 08 bc
       0.00805714 -0.03632043 0.07947067 -0.00832894
000070 bf d6 82 bc 14 bc 6e 3d cb b8 49 bd 3f 79 7d bd
       -0.01597154 0.058284834 -0.049248498 -0.061883207

weight f4 [32]
000000 73 ac 75 3f d2 8c 73 3f 17 0d 85 3f f6 15 62 3f
       0.9596626 0.9513675 1.039462 0.8831476
000010 9e 37 59 3f 3d 7a 81 3f a7 11 7c 3f 98 18 60 3f
       0.8485049 1.0115429 0.98464435 0.8753753
000020 bd a3 83 3f 26 94 61 3f 97 bb 6c 3f 17 fa 81 3f
       1.0284344 0.8811668 0.9247374 1.0154446
000030 c1 c7 81 3f c3 2a 7f 3f ff 1c 67 3f 17 d7 76 3f
       1.0139085 0.99674624 0.9027862 0.9642195
000040 87 52 82 3f e4 d6 77 3f 5f 0f 6e 3f 66 58 7b 3f
       1.0181435 0.9681227 0.92992204 0.9818176
000050 02 5f 6f 3f c4 4e 82 3f d2 41 66 3f be d9 6e 3f
       0.93504345 1.0180287 0.89944184 0.93301
000060 65 0f 70 3f 80 88 84 3f 0b 7e 74 3f cb 97 80 3f
       0.9377349 1.0354156 0.95504826 1.0046324
000070 ae 3f 7f 3f f4 1e 7d 3f 71 17 71 3f 6c 74 77 3f
       0.9970654 0.98875356 0.94176394 0.9666202

bias f4 [32]
000000 25 a3 a8 3e ad 97 a3 bc af b9 15 3e b7 f4 24 3f
       0.3293697 -0.019969786 0.14621614 0.64435905
000010 b6 96 30 3f 8d e5 a3 3e ab 08 66 3e 91 0d 14 3f
       0.68979967 0.3201107 0.22464244 0.578332
000020 74 ba 3c 3e 9a b0 0a 3f d8 56 b1 bc 1d 59 8f 3d
       0.18430501 0.5417572 -0.021647856 0.06999419
000030 dd 60 51 3e fe 23 00 3e 35 53 0b 3f b2 00 9b 3e
       0.20447107 0.1251373 0.5442384 0.30273968
000040 fc ff de 3d 02 ba 96 3e 7e 58 f1 3e c9 13 6a 3d
       0.10888669 0.29438788 0.47137827 0.057147775
000050 1a b3 9f 3e f1 c6 e7 3e fe 6e 2c 3f 0b 39 b0 3e
       0.3119133 0.45268968 0.6735686 0.3441852
000060 e0 7a 79 3e 30 c1 a0 bc a8 66 21 3f e4 70 e7 3e
       0.2436328 -0.019623369 0.63047266 0.45203316
000070 19 74 4f 3e 64 9b af 3e 79 8b 16 3f bb d3 89 3e
       0.20259131 0.3429824 0.5880657 0.2691935

running_mean f4 [32]
000000 93 06 1c bf 66 77 91 3d dc 2f bb bf 6a a7 05 be
       -0.6094753 0.071028516 -1.462398 -0.13052145
000010 99 df 9d bf 80 5a c4 3d c4 4d 93 bf d8 c1 60 bf
       -1.2333862 0.09587574 -1.1508107 -0.8779578
000020 a9 0e 04 3f 73 eb 76 3e cd 79 68 3f 87 e2 06 bf
       0.5158487 0.24113254 0.90810853 -0.52689403
000030 b4 c4 87 be 36 90 5a be 1c e0 c2 be c5 82 87 bf
       -0.2651726 -0.21344075 -0.38061607 -1.0586783
000040 8a ce 8e be ab ba 3d bf 77 fe 5c bf 31 75 27 bf
       -0.27891952 -0.7411296 -0.8632578 -0.65413195
000050 8d 91 5a bf 1b e6 99 bf 32 3f 26 bf 08 33 98 bf
       -0.8537834 -1.2023348 -0.6494018 -1.1890574
000060 ea 58 14 bf 65 4f 6e bf b3 85 d1 3f a3 4b ad bf
       -0.5794817 -0.93089896 1.6368927 -1.3538707
000070 d0 8a ee bf e4 fe a5 bf b4 f3 b7 bf e1 25 52 3e
       -1.8636112 -1.2968411 -1.4371247 0.20522262

running_var f4 [32]
000000 d2 cb 6e 3e f7 c9 a4 3e c9 5f 88 3e 76 57 33 3e
       0.23319939 0.32185337 0.26635578 0.17513832
000010 dc 69 da 3d 81 d1 70 3f af 71 94 3e eb 36 10 3e
       0.10664722 0.9406968 0.28992984 0.1408345
000020 b7 59 2d 3e 81 ce 8a 3e c6 c1 1c 3e 3b cc cb 3e
       0.16928755 0.27110675 0.15308294 0.39804253
000030 05 6d 84 3e 81 39 d3 3d a2 0c 3b 3e 24 f1 9b 3e
       0.25864425 0.103137024 0.18266538 0.30457413
000040 d9 1c 52 3f ac 6a ae 3e 2a 53 97 3e e6 8f 23 3e
       0.8207527 0.3406576 0.29555637 0.15972862
000050 50 8f 72 3e 83 10 fd 3e be 63 59 3e 49 39 13 3e
       0.23687482 0.4942666 0.21229455 0.14377321
000060 02 35 59 3e 89 9d 97 3e 42 25 af 3e 77 93 69 3e
       0.21211627 0.29612377 0.34208113 0.2281016
000070 10 15 33 3f 14 a8 8e 3e 7a 74 b5 3e ca c4 4a 3e
       0.69954014 0.27862608 0.35440427 0.19801632

weight f4 [32, 32, 3, 3]
000000 7c 66 27 bc 3f 3c 29 bc 91 d6 3d 3c a5 71 8a bb
       -0.010217305 -0.010329305 0.011586801 -0.0042249733
000010 b6 0b e7 3c c8 e3 9e bb 56 33 c8 3c a9 75 85 3c
       0.028203826 -0.004848931 0.024438541 0.016291456
000020 ec 79 8e ba eb f1 52 bd 33 21 39 bd fa 5f 92 ba
       -0.0010870076 -0.051500242 -0.045197677 -0.0011167519
000030 40 8d 1b bd 3c 29 a2 bc 07 69 1f bc 4a d2 c6 bc
       -0.037976503 -0.019795053 -0.00972963 -0.024270196
000040 f9 00 8e bc 75 07 62 3b 8c 0d 5f bd 1d 48 da bc
       -0.017334448 0.0034489308 -0.05445628 -0.026645714
000050 5d b1 a3 3c f4 c3 8f 3b 07 f6 ca bb 26 f0 a4 3c
       0.019982034 0.004387373 -0.0061938795 0.020134043
000060 a9 57 67 bd 88 58 8d 3a 2a 56 32 3d cd 09 aa bc
       -0.056480084 0.0010783831 0.043539204 -0.020756627
000070 d0 06 dd bc b8 b2 b8 3b 1d dd 0f bd 15 e1 40 3c
       -0.026980788 0.0056365393 -0.03512298 0.011772414
000080 a7 e1 b8 bc aa d1 3e bd c1 4f ba 39 f8 e4 1b bd
       -0.022568537 -0.04658667 0.00035536106 -0.03806016
000090 3b c7 95 bc 8c ce 8a 3b a4 a7 9b bc f0 59 50 bd
       -0.018283477 0.004236048 -0.019000836 -0.05086702
0000a0 6f b4 5f 3a 66 22 e9 39 a0 d9 fa bb 6f f0 11 bc
       0.00085336616 0.00044466852 -0.0076553375 -0.0089074215
0000b0 2e 8b 2e 3d 6f 6c ca 3c 95 28 7e 3c e1 a0 52 bc
       0.0426132 0.024709908 0.015512605 -0.012855739
0000c0 3b 1a 65 bc e9 14 08 3c 07 f6 79 bd b5 2c 7f bd
       -0.013983305 0.008305767 -0.061025646 -0.062298495
0000d0 0b 49 a2 ba 92 44 9a bd 46 72 0b 3c 3e c8 91 3c
       -0.0012381388 -0.0753261 0.008511132 0.017795678
0000e0 32 aa f8 3c b3 dd f9 bb df 25 a3 3c 4c e0 ef 3c
       0.030354593 -0.0076253056 0.01991552 0.029281758
0000f0 ec 11 87 bd a8 a1 1a 3d df 61 1a 3d 08 ec aa bb
       -0.06595215 0.037751824 0.037690993 -0.0052161254
000100 df a5 ae 3c ba e3 15 3c 96 f8 3d bd 88 06 f7 bc
       0.021319328 0.0091485325 -0.04637965 -0.030154482
000110 35 27 bb bc 72 62 8e 3c d5 0b 05 3d a7 55 1d 3b
       -0.022845844 0.017380927 0.032481987 0.0024007352
000120 1b 17 be 3c 91 c8 06 bc f5 a7 2d bd 8d 24 3d 3d
       0.023204377 -0.00822653 -0.042396504 0.046177436
000130 f1 6d 37 3d 24 26 4d 3d 58 0a ed bd fc b2 be bd
       0.044782583 0.0500852 -0.115742385 -0.09311482
000140 af b1 ad bc 71 79 41 3c 0e 9a e7 3b 14 f3 61 bc
       -0.02120289 0.011808739 0.0070679253 -0.0137908645
000150 49 d1 1b 3d 8a c2 57 3c 17 80 d9 3a a2 2a f9 3b
       0.038041387 0.01316894 0.001659396 0.007603959
000160 d5 ae 54 3d 76 94 47 3d e0 1f b3 3b 52 e7 81 3c
       0.051924545 0.048725568 0.0054664463 0.015857372
000170 e6 77 e5 3c ff ee c4 3b b4 09 86 bc 19 12 de bb
       0.028011274 0.006009936 -0.016362049 -0.0067770598
000180 8b 66 e0 3c da 9f eb 3c 98 22 71 bc 9e 22 00 3c
       0.027392646 0.028762747 -0.01471772 0.007820753
000190 69 d4 8d 3d 20 91 7e 3d 3b a2 f1 3c df c4 bc 3c
       0.0692528 0.06215012 0.029496303 0.023043094
0001a0 15 13 04 bb 1a 68 0e 3c 36 6f 14 3c 9e a9 85 bb
       -0.0020152975 0.008691812 0.009059718 -0.004079058
0001b0 13 8c cd bc 05 07 2e 3c 89 9e 38 bd 6e 37 c0 bc
       -0.025091207 0.010621791 -0.045073066 -0.023463931
0001c0 aa 9a 90 3c 9e cd dc bc 89 86 1b 3c fc 57 37 3d
       0.017651875 -0.026953515 0.009492525 0.044761643
0001d0 29 e4 41 3d 8a 79 06 bd 1a 37 6f bc b3 5d 51 3d
       0.04733673 -0.032830752 -0.01460054 0.05111475
0001e0 9c b8 3c bd af bc db bc 7c 2e 90 3b 9f 5e c3 3c
       -0.046074495 -0.02682337 0.0044000726 0.02384883
0001f0 ac 30 8b 3c 35 84 01 3d f8 7e 47 3a 34 f7 bb bc
       0.016990982 0.031620223 0.00076101674 -0.022945024
000200 a8 ed 52 3d 3a f0 56 3d a2 f7 3f 3d 56 e1 36 3d
       0.051496178 0.05247519 0.04686702 0.04464849
000210 5e d4 76 bc b2 0f 03 3b e4 ee 7f 3c 11 f4 db bc
       -0.015065281 0.0019998369 0.015620921 -0.026849778
000220 79 af a5 3b 28 0c 16 3d 8b 8e ab 3c 54 c2 e2 3b
       0.0050563184 0.036632687 0.020941993 0.0069201384
000230 27 b2 8b 3c 50 55 ba 3c 37 54 04 3d 9c 3b 6e 3d
       0.017052723 0.022745758 0.032306876 0.058162317
000240 a3 a9 87 3c 7d 8b 9d 3d 83 26 a1 bb 60 05 99 3d
       0.016560381 0.07692621 -0.004917921 0.07471728
000250 a3 0a a4 3d 2f 38 8a bc 77 10 6e 3d 8e b9 3a 3d
       0.08009841 -0.016872494 0.05812117 0.045587115
000260 d0 b8 80 bd e3 30 03 3d ce 5e 72 3c b6 f5 d8 3d
       -0.0628525 0.032029044 0.014793111 0.10593741
000270 57 6b 23 bd ae 0f 93 bc f1 ce b9 3c 7d 49 fc 39
       -0.03989729 -0.017951813 0.022681685 0.0004811994
000280 fd da 00 3c d0 a3 a7 3d db 90 23 3d b8 64 8f 3d
       0.007864711 0.08185542 0.039933067 0.070016325
000290 ef 24 ce bb 49 19 20 bd 4f d1 8b 3c c9 8e 46 bd
       -0.006291024 -0.039086614 0.01706758 -0.048476014
0002a0 28 8b ac 3c 9a 42 60 3d 9e 14 9b bd 6a 25 bf 3c
       0.021062449 0.054751016 -0.07572292 0.02333327
0002b0 26 88 0c bd 5c cb c3 3c 4f 71 3e bc f0 cd 52 bc
       -0.03430953 0.02390068 -0.011623695 -0.012866482
0002c0 70 cd 96 bc 29 cc cd 3c 68 c8 97 bc aa ad 43 bd
       -0.018408507 0.025121765 -0.018528178 -0.04777304
0002d0 56 19 5e bd d3 ec 2e bc 96 da cd bc c0 77 d2 3c
       -0.05422338 -0.0106765805 -0.025128644 0.025691867
0002e0 84 b9 a8 3c 42 ec 85 3c 8d da 9a bc c0 75 4d bc
       0.020596273 0.016348008 -0.018903041 -0.012540281
0002f0 ba 1d 92 bd 73 df 4a 3c bb cd 23 bc 52 62 7c bd
       -0.07134576 0.012382376 -0.00999778 -0.061617203
000300 01 c7 46 3d 8e fe b8 3c 59 fb 1c bc b6 17 68 3d
       0.04852963 0.022582319 -0.00958141 0.056663238
000310 46 aa a5 3c e8 12 7b bd f2 ab 0c 3c 05 7d f2 3c
       0.020222794 -0.061297327 0.008585917 0.02960063
000320 27 f2 7f 3d 5c cf db bc 90 7d 1a bd 93 f8 aa 3a
       0.062486794 -0.026832275 -0.037717402 0.0013044052
000330 52 c3 3f 3c 9c 92 fb 3b f5 0f b8 3c ee 80 05 3c
       0.011704283 0.0076773893 0.022468546 0.008148415
000340 26 3e 10 3d 81 b1 f5 3c a7 fd 57 3c b3 5c ce ba
       0.03521552 0.029991867 0.013183034 -0.0015744179
000350 bb 0c c9 bc 0d d4 0d bc 13 ab 22 bd 16 58 ba bc
       -0.024542203 -0.008656514 -0.03971393 -0.02274708
000360 8e 82 b6 bb a4 aa 48 3c 88 a1 d1 3b c9 10 23 3b
       -0.0055697626 0.012247715 0.00639743 0.002488183
000370 40 8a 00 3d e8 89 57 3d 90 42 f4 3b 68 37 9b 3c
       0.031381845 0.052621752 0.007454224 0.018947318
000380 d0 84 29 3b be c4 81 bd 56 46 6e bd 92 ae 03 be
       0.0025866516 -0.06336354 -0.058172546 -0.12859562
000390 f8 27 1d 3d 6e 24 58 3d 72 2d 18 bc 3a 82 a4 bb
       0.038368195 0.052769117 -0.009288179 -0.005020407
0003a0 b1 59 76 bd 76 fa 0a bd 62 1b 92 3d f5 f7 5a 3d
       -0.06014413 -0.033930264 0.07134129 0.053459127
0003b0 bc 76 80 3c ed 45 a4 3c 8f a1 1a bb 85 7f ae bb
       0.015681617 0.020052874 -0.0023594832 -0.00532526
0003c0 01 6d 93 3d fa 64 8a 3a e6 2a e4 3c 98 46 92 3d
       0.07198525 0.0010558658 0.027852487 0.07142371
0003d0 fe e5 ec 3c c7 57 3e ba 62 c2 1e bd 20 01 02 bd
       0.028918263 -0.00072610046 -0.038759597 -0.031739354
0003e0 8a c3 e1 bd 82 01 2e bb 8f 78 cc 3b 82 ac eb bb
       -0.11023624 -0.0026551192 0.0062399576 -0.0071921954
0003f0 6d 85 07 3d 51 69 6a 3b 99 58 85 3c 4f 96 f4 3c
       0.03308623 0.003576834 0.016277598 0.029856829

bias f4 [32]
000000 53 98 03 bc b7 f4 59 3d 17 fd 43 bd af 26 ad bb
       -0.008031922 0.053211894 -0.047848787 -0.0052841525
000010 05 b1 99 3d 7f 2c e7 bd 6f 90 f5 3c b1 f1 6c 3d
       0.07504467 -0.11287784 0.029976098 0.057847682
000020 e5 cc 3a bd 94 8b d8 bc b1 4c 5d bc dd a4 52 bd
       -0.04560556 -0.026433744 -0.013507054 -0.051426757
000030 1f 27 51 3d c2 3a f0 3c cd 5a 19 bd 31 f4 7d 3c
       0.0510627 0.029324893 -0.03744011 0.015500114
000040 ee 86 e1 bb 2d a7 5d bd 4e d8 c5 bc d3 b2 4c 3d
       -0.00688254 -0.05411451 -0.024150994 0.049975228
000050 ff 8a 41 bd 96 e7 3d bb 42 47 ac bc 66 04 83 3d
       -0.047251698 -0.0028977147 -0.021030072 0.06397323
000060 1f 0f 3b bd 02 43 10 3d 1e 8e 2f 3d 09 ee f6 bc
       -0.045668717 0.035220154 0.042860143 -0.0301428
000070 8c 65 dc bb 0f 2f 40 3d 0f d2 4a 3d 1d da 52 3d
       -0.0067259725 0.04691988 0.049516734 0.05147754

weight f4 [32]
000000 a9 14 99 3f dd 4c ba 3f 45 82 86 3f d4 af 7a 3f
       1.195943 1.4554707 1.0508505 0.9792454
000010 69 2b 6c 3f d0 91 77 3f 83 95 80 3f 08 3a 88 3f
       0.9225374 0.9670687 1.0045627 1.064271
000020 ed f4 82 3f 2a 8a 6f 3f 10 d1 88 3f a9 c5 88 3f
       1.0230995 0.93570197 1.0688801 1.0685321
000030 be 23 79 3f c2 ca 8a 3f da 60 81 3f 68 db a4 3f
       0.97320163 1.0843127 1.0107682 1.2879457
000040 4e be 81 3f be 7f 60 3f f7 69 87 3f d8 31 7b 3f
       1.0136201 0.8769492 1.0579213 0.9812293
000050 ed 59 ad 3f b0 09 8a 3f 52 3b ba 3f 6d bc ed 3f
       1.3543068 1.0784206 1.4549353 1.8573128
000060 01 10 6f 3f 3b a3 93 3f cf 52 84 3f dd e7 8b 3f
       0.93383795 1.1534189 1.0337771 1.0930134
000070 f8 b4 cd 3f 61 d6 85 3f c6 ba 93 3f 1d 26 6b 3f
       1.6070852 1.0456048 1.1541374 0.9185503

bias f4 [32]
000000 68 ff 0f bd f2 ca 8a bd e4 84 33 3e 89 29 9e bd
       -0.035155684 -0.0677699 0.17531163 -0.07722766
000010 0b c6 ff 3e ca 01 6a be 74 c8 9a be b8 30 6d bd
       0.49955782 -0.22852245 -0.3023106 -0.05790779
000020 7d c8 aa bd a4 58 ed be 26 86 de bd 46 e7 a4 3d
       -0.08339021 -0.4635669 -0.108654305 0.080519244
000030 55 6b 08 3f 9d 42 2b bd c2 3b 07 be 51 72 0d 3f
       0.53288776 -0.041811574 -0.1320639 0.5525256
000040 7d 67 8f be 29 a0 cc 3e 08 a5 69 be 23 0b 9b 3e
       -0.28008643 0.39965943 -0.2281686 0.30281934
000050 e5 07 0c 3f 0b 99 98 bd c3 8c 83 3e e4 a2 06 3e
       0.54699546 -0.07451066 0.2569333 0.13148075
000060 e9 24 eb 3e be 0f 48 3d 31 9f fe 3d f3 17 81 3e
       0.45926598 0.048843138 0.12432707 0.25213584
000070 4c 0a 3a 3f 4d 0e 2d 3e e4 29 a0 be 91 0e d2 3e
       0.7267196 0.16899987 -0.3128196 0.41026738

running_mean f4 [32]
000000 28 a2 83 3e 0d 36 2e 3f 40 0b 37 be d2 f2 ce 3e
       0.25709653 0.68051225 -0.17875385 0.40419632
000010 19 08 35 3e 99 20 02 3e 04 82 32 be a2 e4 8c bd
       0.1767887 0.12707748 -0.1743241 -0.06879546
000020 07 bb 5b 3e ea 14 c5 3e 5f e0 4e bd 7a 74 ba 3e
       0.21458064 0.3849252 -0.050506946 0.3641699
000030 27 69 00 3e 28 49 42 3c 88 af aa be f0 a9 4e 3e
       0.12540112 0.011858262 -0.33337045 0.20182014
000040 da b9 76 3e ff 22 18 bf ff a0 67 be 2f f9 0e bf
       0.24094334 -0.594284 -0.22620009 -0.55848974
000050 f1 be ca 3e 4d d9 c3 3e cb 2a 69 3e 58 70 3b 3f
       0.39598802 0.38251725 0.2277023 0.732183
000060 8d 46 0d bf a0 86 b0 3e 46 20 52 3d d1 4a af 3e
       -0.55185777 0.3447771 0.05130031 0.34236768
000070 4a cd 5b be b2 c2 33 3e e2 7c 07 3f 2b af a5 be
       -0.2146503 0.17554739 0.5292493 -0.32360205

running_var f4 [32]
000000 fb 6d dd 3d 35 b0 0e 3e 45 66 e7 3d 69 ce db 3d
       0.10811993 0.13934405 0.11298803 0.10732729
000010 e0 cc fe 3d 87 a3 fa 3d bc 5d a8 3d c4 3e 14 3e
       0.124414206 0.122382216 0.082210034 0.14477068
000020 75 3b 4b 3e 2c 47 cc 3d e0 1e 2c 3e 4b f7 27 3e
       0.198469 0.099745125 0.16808653 0.16402929
000030 03 3d d2 3d 8f fd ea 3d 2f e7 aa 3d 23 a5 90 3d
       0.10265543 0.11474144 0.08344876 0.07062747
000040 97 71 b8 3d 9d de 37 3e 2f 06 22 3e e0 4e 8a 3e
       0.090060405 0.17956014 0.15822671 0.27013302
000050 60 41 7d 3e fb 59 17 3e 06 6a 96 3e ab 81 b6 3d
       0.2473197 0.14780419 0.29377764 0.08911451
000060 46 25 1d 3e cc c6 d7 3d 6f fe f3 3d 92 13 45 3e
       0.1534625 0.10535964 0.11913764 0.19245747
000070 74 f4 98 3d 8c ac 6d 3e 25 a7 d6 3d b7 ae 0f 3e
       0.07468501 0.23210353 0.10481099 0.14031492
