TuiGAN/models/facade2labels/b0.pth (torch, 131453 bytes, 25 tensors)

weight f4 [32, 3, 3, 3]
00000000: fb22 c53c 3581 ac3c fd1a 103c 5c52 153d
00000010: 118b 2dbc c3c4 1abd 5da0 033e e97a 2a3d
00000020: 6cea bbbc 0b3b 4cbc 6559 9ebc 1385 12bc
00000030: 52ab cfbc 1b64 fcbc d38f 23bd 479c e43c
00000040: c3dd e3bc 2403 46bd fce0 42bd e7e6 d7bc
00000050: 0065 d2bc 2f29 0c3b 7d1b b73b 125c bb3c
00000060: de12 acbd 5f94 74bd 43a6 81ba bc6e 6e3d
00000070: a190 253d f3c1 943d 995b afbc 0553 c7bb
00000080: 71d5 a3bc 1ddc 17bd ab2d 48bd 0d4b 79bd
00000090: da26 da3c 76ab 6a3d cbd4 6e3d 423b febb
000000a0: 5cef 963b 4efd 3ebc e16b 07bd 6d3c 47bd
000000b0: 1dc6 80bd c6b7 c5bc 799a 33bd 58f0 0dbd
000000c0: 13d7 3b3c a91d 1bbb 6290 d73b 4d32 df3c
000000d0: c627 d23c 83ef ec3c d924 92bd d96b afbc
000000e0: b982 bd3d 5c1f 06bd c0e8 86bc b451 4b3d
000000f0: 70e5 c13c 0537 05bd 0ee7 f63b c45c babc
00000100: 1779 15bc cbc1 0c3d ca5b 9ebc e6de 9fbb
00000110: 3a62 ce3c 453d 053d a526 b5bc e075 dfbb
00000120: cb2a 633d 8326 763c 9bf0 93bd 159f 1b3d
00000130: 04ec 813a 6309 20bd a100 db3c a915 08bb
00000140: 01ef d1bc 8ebf d5bb 1196 c83c 14ff c53d
00000150: 9bd1 ef3b ca44 823c 0932 5b3d 6c3f bcbc
00000160: 3671 b33b 3c66 4bbc 2cd2 d7bd 6ccd d8bc
00000170: c629 393d c40e 5fbd 8596 8dbb 11fc 3d3d
00000180: 2cbd 0dbd 336a a2ba 1c94 5f3c afd3 9abc
00000190: e189 56bd b288 21bd ceb9 eaba 9c1d 22bd
000001a0: ce2e ccbc fb5c 3f3c 94f9 ac39 dfc6 3d3c
000001b0: 9019 8d3d ae16 903c 9a21 363d 1e56 023d
000001c0: 1c0e 103d 07f5 f83b 8bc7 d53c 8591 06bc
000001d0: e365 7bbc 0fcc 31bd c6db 46bc 3929 39bd
000001e0: a601 32bd 3d2d 74bc 47e3 c2bc ea9c 34bd
000001f0: 3590 573b e236 fe3b 8046 c3bd 5651 86bd
00000200: 39b6 b3bc 73d3 1cbd 586f 22bd 1f6a 3d3c
00000210: 52be 4bbd 4bab f0bc 2633 cb3b 5a23 1fbc
00000220: 4662 84bc 6125 8abd cf0e 493d 4ef7 4d3d
00000230: 3a16 1b39 50ba 8d3b 95db e43c 5643 6cbc
00000240: 7919 d43d 0b6a b53c 6f02 78bc 021f ad3d
00000250: b3ef 7e3d 2aa2 0c3d 114f aa3c 4502 0f3d
00000260: 757d f63a 2b13 353a 93dc c6bc 7ea4 6f3c
00000270: 1326 2bbc b800 0abd 289f 813c 49ee 713c
00000280: 385d 24bd 65c6 e73c 83b2 5a3d d9f2 6d3c
00000290: 5c94 c33c 8c94 75bc 793d 02bd 265c 9fbc
000002a0: 875f 8f3c f4f4 05bc f23d 2b3a 79f7 8bbd
000002b0: a981 56bd 9920 a4bb 9851 f1bd 136f b4bd
000002c0: 5e30 f9bc 57a8 3abd 041d d6bc ad23 6e3a
000002d0: bbd0 65bd 2c1d 8cbb ac6d 0dbd c321 79bc
000002e0: 844c da3c fb46 9fbc 7ed3 c8bc 9e33 223c
000002f0: 2c91 213b 5a01 69bb 73e7 f63c fe15 663d
00000300: e94f 483c 8d2d 0a3c f04b 8fb9 77ae be3b
00000310: 3d7e 323c 8b35 cd3c d8f9 3e3c b192 943d
00000320: 4db9 f43d 90a3 ae3a b4fe fe3c ece7 e73c
00000330: 9b12 c4bc d12f bdbb 0bfb 473c 9c2f e03c
00000340: f05b 5f3d b45c c8bb 6dd4 22bc 1139 a3bc
00000350: 40e9 47bd c40d 92bc 5baa e2bb 7f97 1fbd
00000360: d516 27bc 1f6a c23c 9a16 40bc ee76 0fbd
00000370: 62dc 8c3b 2f83 8cbc a429 723b f5ac 723d
00000380: 63e5 773d 9db5 6b3d e1c6 4f3d bb9b b53c
00000390: d786 c63c bede 833c 581c adbc ab61 b83c
000003a0: a27b 0f3d f2f3 b63c d962 283d 18fa dbb9
000003b0: fcee ff3c ceb2 663d 2e78 2c3b fc1a d73c
000003c0: 3c94 2a3d c8f9 18bc 7655 053c 2781 20bd
000003d0: 233f 50bb 2301 223d 5ce7 09bd bad5 53bc
000003e0: 8dbb f03c a70f 30bd 6897 bb3b 5076 2b3d
000003f0: 8e9c e73c d538 0abb b22a 29bd a76d 663d
0.024064532 0.021057704 0.008795497 0.036455497 -0.010592238 -0.037785303 0.12854142 0.041621123
-0.02293893 -0.012465249 -0.019329736 -0.00894286 -0.025350247 -0.030809453 -0.039932083 0.02790655
-0.027815705 -0.04834284 -0.047577843 -0.02635522 -0.025682926 0.0021386852 0.0055879937 0.022871051
-0.08402036 -0.05971181 -0.0009891469 0.058211073 0.040421132 0.072635554 -0.021405982 -0.0060828947
-0.019999238 -0.03707515 -0.048871677 -0.06086259 0.026629854 0.057292424 0.058308404 -0.007758529
0.0046061706 -0.011657072 -0.033061866 -0.04864161 -0.06287787 -0.024135482 -0.04384849 -0.034653038
0.011464852 -0.0023668802 0.006578491 0.027245665 0.025653731 0.028922802 -0.071359344 -0.02141373
0.09253449 -0.03274475 -0.016468406 0.049638465 0.023668975 -0.032523174 0.007534868 -0.022749312
-0.009123108 0.034364503 -0.019330878 -0.0048788665 0.025193322 0.032529134 -0.022113154 -0.0068194717
0.055460732 0.01502383 -0.07223626 0.03799351 0.0009912257 -0.039071452 0.026733698 -0.0020764864
-0.025626661 -0.0065230792 0.02448562 0.09667793 0.007318688 0.015901942 0.053514514 -0.02297946
0.0054761423 -0.012414511 -0.10538134 -0.02646514 0.045205854 -0.05445744 -0.004320922 0.046382967
-0.034604236 -0.0012391269 0.013646152 -0.018899767 -0.052377585 -0.039437003 -0.0017908157 -0.03957902
-0.024924662 0.011679883 0.00032992347 0.011583059 0.06889641 0.01758894 0.04446564 0.03182041
0.035169706 0.007597569 0.026096126 -0.0082134055 -0.015344116 -0.043407496 -0.012137359 -0.04520533
-0.043458603 -0.014903364 -0.023790015 -0.044094957 0.003289235 0.0077580074 -0.09534931 -0.06558482
-0.021937476 -0.03828759 -0.039656967 0.011560946 -0.04974205 -0.029378554 0.0062011657 -0.009713018
-0.016160142 -0.06745411 0.04908639 0.050284676 0.00014790232 0.0043251887 0.027936736 -0.014420351
0.10356421 0.022145292 -0.015137299 0.0845318 0.062240314 0.03433434 0.020789655 0.034914274
0.00188057 0.00069074583 -0.0242751 0.01462662 -0.010446089 -0.03369209 0.015822962 0.014766284
-0.040127963 0.028292844 0.0533929 0.014523231 0.023874454 -0.01498903 -0.031796906 -0.01945312
0.017501606 -0.008176077 0.0006532363 -0.06834311 -0.052369747 -0.0050087688 -0.11783141 -0.08810248
-0.030418571 -0.045570698 -0.026136883 0.00090842956 -0.056107264 -0.0042759385 -0.03452842 -0.015205803
0.026647814 -0.019443026 -0.02451491 0.009900002 0.002465318 -0.0035553784 0.03013966 0.056173317
0.012226083 0.008433712 -0.00027331663 0.0058191377 0.010894355 0.025049945 0.011656247 0.07254542
0.11949406 0.0013323892 0.031127311 0.028308831 -0.023934653 -0.0057735224 0.012205849 0.027366452
0.054531038 -0.0061145667 -0.009938342 -0.019924672 -0.04880643 -0.01782883 -0.0069172806 -0.038962837
-0.010198315 0.023732243 -0.011724139 -0.03502553 0.0042987326 -0.017152397 0.003695109 0.059246976
0.060521495 0.057546247 0.050726775 0.022168985 0.024234219 0.016097423 -0.02113168 0.02250751
0.035030015 0.022333119 0.041109893 -0.0004195727 0.031241886 0.056322865 0.002631675 0.026257984
0.041645274 -0.009336896 0.008138051 -0.03918567 -0.0031775914 0.039551865 -0.033667907 -0.012929374
0.029386306 -0.042983677 0.005724836 0.04186088 0.028272893 -0.0021091003 -0.041300483 0.056256916

bias f4 [32]
00000000: 14cd b8be bbf0 823d 5ac1 fe3d 54c1 abbe
00000010: 8f37 8b3e 4c53 edbd 9e4e 04bd 680a 0a3e
00000020: c2d2 ae3e 0266 9b3e 0a17 48bc af7e f83d
00000030: 3733 e1bd 3a68 0abe db11 92bd 2193 72be
00000040: aa15 133e f2bd e3bd 911a 55be 9b41 babd
00000050: f9d8 20bc e14d 853e a068 5b3e 8202 723e
00000060: 5934 913d e8b6 873e e233 fd3d ef8e 68bd
00000070: 064d 5b3b be28 ef3d 850f 9fbe a36b 6cbe
-0.36093962 0.06393572 0.12439223 -0.33545935 0.27190825 -0.11588153 -0.032301538 0.13480532
0.3414517 0.30351263 -0.012212524 0.12133538 -0.109960966 -0.13516322 -0.07132312 -0.23688938
0.14363733 -0.111202136 -0.20810916 -0.090945445 -0.009817355 0.2603598 0.2142663 0.23633769
0.07090063 0.26506734 0.123634115 -0.056776937 0.0033462658 0.11677693 -0.31066528 -0.23087935

weight f4 [32]
00000000: 983d 7f3f 839c 863f ae81 7a3f 1117 733f
00000010: 8ac4 813f 281d 343f afc9 853f f904 543f
00000020: c223 683f ba27 553f 6f1c 763f aae3 713f
00000030: 519b 733f a62b 843f 1ffa 803f 750c 613f
00000040: b615 853f f3f5 7b3f 2d37 4b3f 1efe 633f
00000050: 7971 743f da48 673f cfaa 7c3f ae12 723f
00000060: 410d 6c3f 2bfc 5e3f 6310 843f af53 853f
00000070: 6a0c 7a3f 0dcf 773f 7e4e 533f 84f5 663f
0.9970336 1.0516514 0.97854125 0.9495707 1.0138104 0.7035699 1.0452174 0.8282009
0.9067956 0.8326374 0.96137136 0.9448801 0.9515887 1.032582 1.0076331 0.8790963
1.0397251 0.98422164 0.79381067 0.8905963 0.95485646 0.9034554 0.98698133 0.9455975
0.92207724 0.8710353 1.0317501 1.0416163 0.9767519 0.9680031 0.82541645 0.9021838

bias f4 [32]
00000000: bebd c03e 3449 323d 74eb 7cbc 216c bb3e
00000010: 97dd ed3e 3873 413f 0a27 01be bc65 143f
00000020: 6066 cc3e 25dd e83d ba93 333e d4a4 913e
00000030: 2c4d ba3e 028c b83e 06e3 c13e d474 fb3e
00000040: 234b e13c 681d 73bd 57ed ec3e 6670 153f
00000050: 4d16 923e 0c76 b23e 9afc e53e c984 d93e
00000060: 30ed 613d c58d 1f3f baba 9cbe e840 203e
00000070: d055 31bd dcfd f63e 6ab6 f73e 91f3 433e
0.37644762 0.043526843 -0.015436996 0.36605933 0.46458122 0.75566435 -0.12612548 0.57967734
0.39921856 0.11370305 0.17536822 0.28446066 0.36387002 0.36044317 0.37868518 0.4911257
0.027501648 -0.059354216 0.46274826 0.5837463 0.2853264 0.34855688 0.44919282 0.4248412
0.05515784 0.623257 -0.3061121 0.1564976 -0.043294728 0.48240554 0.48381358 0.19135882

running_mean f4 [32]
00000000: 2f50 0cbf 162f 9d3d ccad fb3d c668 fabe
00000010: 0f33 903c 4457 62be 2ec0 debc 2858 01bd
00000020: e599 ba3e 4b8c 9d3e ae7f a2bb 816c 833e
00000030: 57f2 d53d 829b 6d3e cdd1 aebe cafb 0abf
00000040: e61a 113e 9fb4 19bd 7714 8dbe ffe0 0bbe
00000050: 2006 c33d 61a9 163e c1ae a43e 0e7e 783c
00000060: 0560 973d 1b99 993e 3479 9a3e ad7e ac3e
00000070: cf20 a63e f1d9 28be 58b8 99be 60a0 e2bd
-0.5480985 0.076749966 0.122890085 -0.4890806 0.017602472 -0.22103602 -0.027191248 -0.031578213
0.36445537 0.30771098 -0.0049590683 0.2566872 0.10446613 0.23203853 -0.3414444 -0.5429045
0.14170417 -0.03752577 -0.27554676 -0.13660048 0.095226526 0.1471305 0.32164577 0.0151667725
0.07391361 0.29999623 0.30170596 0.33690396 0.32446906 -0.16489388 -0.30023456 -0.11065745

running_var f4 [32]
00000000: 4c11 133d dcfb 0f3d f1cf 3e3c 5356 de3c
00000010: 0480 4d3d 79dc fb3c 7ffd f83c 6061 043d
00000020: a523 413c 22c8 c83b 981d 843c 12c9 e63c
00000030: b951 3c3d dc5d a93d c213 4a3d af18 863d
00000040: 130e 9a3c 7594 ae3c 2d71 b03b 69c1 bc3c
00000050: 373a cf3c 95f6 853c 48fb fa3c c2d9 5f3d
00000060: e39e 1d3c 4329 883c 7978 e63c 99d1 df3d
00000070: 2bda b93d 0a3e 823d 9667 393c b742 8a3c
0.035905167 0.0351523 0.011646257 0.027140772 0.050170913 0.030744778 0.030394314 0.032319427
0.0117882835 0.0061273733 0.016127393 0.02817205 0.045976374 0.082698554 0.04933525 0.06547677
0.01880554 0.021311024 0.0053845854 0.023041444 0.025296314 0.016352931 0.030637398 0.05465103
0.009620401 0.016621238 0.028133618 0.109286495 0.09074815 0.06359489 0.011316201 0.016877515

weight f4 [32, 32, 3, 3]
00000000: 0571 88bd a865 553d 61ab 02bd 4db4 56bd
00000010: 3e09 963d 8a3c 99bc 7af7 70bd e408 8d3d
00000020: 9c36 90bb ffa4 b83c 088e cabc 718f b1bc
00000030: fa5b 7dbc 4482 47bd 93f8 d7bc bf38 443d
00000040: 1dde 963b ce81 463d 7778 2f3d 8ccb ad3b
00000050: b362 a33c cbd5 0c3c d218 1b3d 4b1f 81bc
00000060: 1aac f7bc 7600 243d 6743 70bc 0359 c1bb
00000070: 855d e23c af05 fbbc f92e 0b3d 0bde 2e3d
00000080: a214 ec3b 26e5 24bc f8e6 43bc e558 e1bc
00000090: 54b9 a6bd 2ee0 f1ba e13a 8fbd 4401 2bbd
000000a0: 9604 063d 436e c03c 2300 b7bd f508 043d
000000b0: eaf7 ab3c 2cbd 45ba 6dd1 913b 90e0 b3bc
000000c0: 39b4 fabc e1b0 d23c db15 a33c 12b1 acbd
000000d0: f297 843c 1d02 04bd aa63 24bd dff8 93bc
000000e0: f737 28bd 50bd 3abc 74ff 753c 7663 0e3d
000000f0: 2855 1bbd 095f 073c f80f b6bc abbe 12bc
00000100: 6412 95bb 6962 193d 0dfb 2ebd 53ad 493d
00000110: 423c bcbb d850 0abd e5f1 1a3c 8a99 82bd
00000120: 6df3 3b3d 6ebc 1e3d cb54 f13b 5070 8ebc
00000130: 39b8 bd3c f5ae ca3c 7afe 28bc 4712 c33c
00000140: c4e8 5c3d b875 23bd 2465 f93b 70f0 70bd
00000150: b327 6abd a895 c83c cc03 4a3c 2802 26bc
00000160: a9b4 933c 740f 62bb 9320 3e3a 8281 b13d
00000170: 9103 aebc 1a90 b9bc 8db7 f33c 8621 d43b
00000180: 587a 07bd 0c07 3a3c c220 eb3c b045 73bd
00000190: 8ca6 e9bb 0f4b 063d 6ada 8bbc 8d3c bebb
000001a0: c887 9d3c 53dc a9bc 0ae0 873c 585e 3e3d
000001b0: 8bc8 6cbc 686a 86bb f9c9 a3bc 8fa7 21bc
000001c0: 8fe8 143c cbac 72bc 0305 733c b580 6abc
000001d0: fc62 433c 3344 68bd d766 32bd 2aa3 12bd
000001e0: ddf7 343c 5ac3 0ebd 51ef 26bc 9326 c33a
000001f0: 03cd 2cbc 9420 cb3c 7119 fbbc b721 4b3d
00000200: 001b a4bd d16a 2dbd b55d 60ba 6d04 54bd
00000210: d9e1 39bd e59d 023d 6857 3ebd 4882 58bb
00000220: 26b0 093d 7936 ba3b 680c 34bd ae88 85ba
00000230: 42e7 40bb 6e7a 0cbd e142 163d 893d 8ebc
00000240: 2dc9 3f3d 8b28 7f3d 3153 273d faff 5e3c
00000250: a25b 3fbc b34d e9bc 9fbd 483c d43e 283c
00000260: 6523 8a3c c70c 58bd 4b47 9fbc 4493 90bb
00000270: d72e 45ba fc0a f53c db67 19bc b67e 33bd
00000280: c67b 803c 9a19 0bbd 0960 d73c 9e0e 863b
00000290: b067 13bd f710 e0ba 946e e13c 97c4 c9bb
000002a0: 0387 bfbc 6fb6 c3bc bbca c6bc a12e 42bd
000002b0: 91e0 7abd eaea 7abd d17d 25bd b95a d43b
000002c0: b3ee 813d 30d1 783c 983c 0d3b bc2a 0a3d
000002d0: 6240 a7bc da4c dcbb be99 5dbd ef4f efbc
000002e0: 8f79 0a3c ef7a e3bc ff4b 8bbd 9d47 2ebc
000002f0: f29c 55bc ee95 48bd 55e1 b0bc 508b 63bd
00000300: 7811 adbc 2dcf 223d 8f3d 843c 03df 94bc
00000310: 863d 073d 9c55 1a3d 6c0f eebd a1d7 81bd
00000320: d807 ccbd 7d21 3abd 2e46 0abc 6175 a4bc
00000330: 5881 893c f03c 273d 6585 f53c dad0 90bd
00000340: 377a 49bd c6a7 17bd 24ee 31bd d69c 2bbd
00000350: 6b7f 5abd b7ee 0b3c 1227 ee3b 6d60 30bc
00000360: 80eb 94ba c369 9f3c c874 36bc e5f8 e4ba
00000370: b877 ea3c d7e4 533c 2f3f cbbc ed8b b83c
00000380: b511 d6bc 3578 2cbc c2cb 873d e3a0 343c
00000390: 634a 303d 31a8 c43d 2a49 2c3d 8e61 dd3c
000003a0: 2715 293d fc44 303c 453a 39bd 9bae bdbc
000003b0: 6f4b 3cbd b262 adbc 646b 623d e497 ac3c
000003c0: 560b 9bbd e48f b53c 134c 83bd 433b 92bc
000003d0: aa8d 83bc 3b0b e13b 5a54 cfba 238e fcbc
000003e0: 3782 9c3b 0650 22bd bc0b 1cbd 49af 01bd
000003f0: 38f5 9f3b bcaa 12bc 5049 3abd 6409 11bd
-0.06662182 0.0520989 -0.03190172 -0.052418042 0.073259816 -0.018705625 -0.058829762 0.068864614
-0.004401041 0.022539614 -0.024725929 -0.021674844 -0.015463823 -0.048708215 -0.026363647 0.04790568
0.0046041147 0.048463635 0.042839494 0.0053038057 0.019944524 0.008595894 0.037865467 -0.015761992
-0.030233432 0.040039502 -0.0146645075 -0.0059005036 0.027632484 -0.030642359 0.033980343 0.042692225
0.007204608 -0.010064399 -0.011956923 -0.027508209 -0.08140817 -0.0018453652 -0.06993652 -0.041749254
0.032719217 0.023490077 -0.08935573 0.032235105 0.020992238 -0.00075431424 0.0044500143 -0.021957666
-0.030603515 0.025719108 0.019907882 -0.08432211 0.016185734 -0.032228578 -0.04013411 -0.018063007
-0.041068997 -0.011397675 0.015014518 0.034762822 -0.03792301 0.008262404 -0.022224411 -0.008956592
-0.0045493115 0.037447367 -0.04271989 0.04923756 -0.005744488 -0.033768505 0.009457086 -0.063769415
0.045886446 0.03875392 0.0073648444 -0.01738754 0.023159133 0.02474163 -0.010314578 0.023812426
0.05393292 -0.039907187 0.007610934 -0.05882305 -0.057166766 0.024485424 0.012330007 -0.01013235
0.018030481 -0.0034494074 0.0007252779 0.0866728 -0.021241935 -0.02265172 0.02975061 0.006473723
-0.03307566 0.011354219 0.028702144 -0.05939263 -0.0071304496 0.032786425 -0.017071921 -0.005805558
0.019229785 -0.020734942 0.016586322 0.046476692 -0.01445211 -0.00410204 -0.019993769 -0.009866609
0.009088649 -0.014811705 0.014832738 -0.014312913 0.011925455 -0.056705665 -0.043555107 -0.035800137
0.011045423 -0.03485427 -0.010188893 0.0014888815 -0.0105469255 0.024795808 -0.03065178 0.0495927
-0.08012962 -0.042338196 -0.00085588853 -0.051762033 -0.0453814 0.03188886 -0.046470076 -0.0033036638
0.033615254 0.005682763 -0.043957144 -0.0010187828 -0.0029434715 -0.034296446 0.036684874 -0.017363327
0.046822716 0.062294524 0.040850822 0.013610834 -0.011679562 -0.028479433 0.01225224 0.010268886
0.01686258 -0.05274656 -0.019443175 -0.0044120867 -0.00075219333 0.029912464 -0.00936314 -0.043822013
0.01568402 -0.033959962 0.02629091 0.004091098 -0.035987556 -0.00170949 0.027518548 -0.0061574685
-0.023379808 -0.023890702 -0.024266591 -0.04740775 -0.06124932 -0.061259188 -0.04040319 0.0064805415
0.063443564 0.015186593 0.002155101 0.03373216 -0.020416442 -0.0067230286 -0.054101698 -0.02921292
0.008451833 -0.02776858 -0.068016045 -0.010637191 -0.013037907 -0.04897111 -0.021591822 -0.05555278
-0.021126494 0.03974836 0.016142635 -0.018172747 0.033017658 0.0376793 -0.11624035 -0.06339956
-0.099624336 -0.045442093 -0.008439584 -0.020075502 0.016785309 0.0408296 0.029970834 -0.07071085
-0.04918882 -0.037025236 -0.04344 -0.041897617 -0.05334417 0.008540801 0.007267841 -0.010765177
-0.0011361688 0.01945961 -0.011136241 -0.0017469196 0.02862154 0.012932978 -0.024810402 0.02252766
-0.02613149 -0.010526706 0.066306606 0.0110246865 0.04303969 0.096023925 0.042061962 0.027024057
0.041279938 0.010758635 -0.045221586 -0.023154547 -0.045970377 -0.021165226 0.055278197 0.02106852
-0.075705215 0.022163339 -0.064109944 -0.017850524 -0.016058762 0.006867794 -0.0015817985 -0.030829495
0.004776265 -0.039627098 -0.03809713 -0.031661306 0.0048815273 -0.008951839 -0.045480072 -0.035409346

bias f4 [32]
00000000: 0612 ec3c f5e0 bc3d 268f 81bd 181a 28bc
00000010: ef1d 483d 3487 90bd 9fe8 a9bd 6edf d1bd
00000020: 4375 3c3d 8647 5ebc 6841 7cbd ca69 d2bc
00000030: 2ea6 a13c 3cff 4cbc b322 d23d d982 fc3c
00000040: 5735 5a3c abe8 14bd e9dc 0bbd c7a8 ddbc
00000050: 2d22 eb3b 8b8e 383c 1171 c13d a478 67bd
00000060: 1b61 443d 33fe 40bb 76b7 a73d bf9e 893d
00000070: d0dd 343d 2793 f93d f281 cd3c 8296 62bd
0.028817188 0.09222595 -0.063261315 -0.0102601275 0.048856672 -0.07057038 -0.08296322 -0.10247694
0.046010267 -0.013566857 -0.061585814 -0.02568521 0.019732561 -0.0125120245 0.102605246 0.030824112
0.013318381 -0.036354702 -0.034146223 -0.027058018 0.007175705 0.011264454 0.09445394 -0.056511536
0.04794417 -0.002944839 0.08189289 0.067197315 0.04415685 0.1218627 0.025086377 -0.055319317

weight f4 [32]
00000000: 58ce 773f 7f81 5c3f 83f2 833f c0bf 793f
00000010: b815 703f 20f6 433f d284 513f 2590 7a3f
00000020: a7c1 633f b2dd 7c3f 637e 513f 3d58 6d3f
00000030: 204f 713f 75bc 663f f7c4 5a3f b1e9 7f3f
00000040: c6c3 6f3f e6be 693f 548f 663f da8b 573f
00000050: 7c29 6e3f 6fb8 633f 3678 713f 140b 823f
00000060: 63e5 583f 4c6f 6d3f 548e 743f e72a 6a3f
00000070: cfcc 823f 9c77 863f 8802 883f 093e 573f
0.9679923 0.86135095 1.0308384 0.9755821 0.9378314 0.7654743 0.8184329 0.978762
0.88967365 0.9877578 0.81833476 0.92712766 0.9426136 0.9013131 0.85456795 0.9996596
0.936581 0.9130691 0.9006245 0.8419777 0.9303205 0.889533 0.9432405 1.0159631
0.84725016 0.9274795 0.95529675 0.91471714 1.0218753 1.0505252 1.0625772 0.84079033

bias f4 [32]
00000000: 7858 e23e f9f4 1f3f aa0d a53e 31dc 2a3e
00000010: 0d43 1e3e d7e7 4c3f 50c1 383f 9849 d63e
00000020: 7b52 fc3e a866 e43e 2b2d 2d3f d292 f03e
00000030: 36e3 943e a434 bd3e 1c64 ec3e 83c0 c13e
00000040: ccf8 033f 56c6 d03e 5532 2d3f 8815 363f
00000050: 8c52 ba3e e798 8a3e e875 ec3e 1654 063e
00000060: 306b 1c3f 553a 0c3f 2e5d bc3e cc53 ac3e
00000070: 09cb 213f 1a4f d73e e2ee ca3e 5e6f bf3e
0.4420812 0.62483174 0.32236987 0.16685559 0.15455265 0.8004126 0.7216997 0.41853023
0.49281678 0.4460957 0.67647046 0.46987015 0.29079598 0.36954224 0.46170127 0.37842187
0.5155151 0.40776318 0.67654926 0.71126604 0.36391103 0.2706978 0.46183705 0.13118014
0.61101055 0.5477651 0.3678984 0.33657682 0.6320043 0.42052537 0.39635378 0.37389654

running_mean f4 [32]
00000000: 2171 84bf d225 8d3f c2a7 85bf e4bb 99bf
00000010: fc20 503f 1e18 3ebf c8d1 91bf 9555 f8be
00000020: 5856 e43e 4958 e1bf 19cc e83d c0ef 5dbf
00000030: 0917 07bd a90c 69bf c3a4 ffbe 2f6d 9e3e
00000040: d267 0bbf 44ba afbe 9b9b 0bbf 2f3e 24c0
00000050: a08e 8fbe b76b ca3d 5027 0a3f 0673 8fbf
00000060: d0ff 543f db5b 50be 7392 a43e 7baf 46bf
00000070: 5dc9 3a3c fc23 883f 9058 dcbe 0d06 32bf
-1.0347024 1.1027167 -1.0441821 -1.2010465 0.8130033 -0.7425555 -1.1392145 -0.48502794
0.44597125 -1.7605067 0.113670535 -0.86693954 -0.032980952 -0.9103494 -0.4993039 0.30942675
-0.5445529 -0.34321797 -0.5453431 -2.5662954 -0.28038502 0.09883826 0.53966236 -1.1206977
0.8320284 -0.2034754 0.32142982 -0.7761151 0.011400548 1.0635982 -0.43036318 -0.6954048

running_var f4 [32]
00000000: 28bd a83e 2ca9 093e 9b77 da3e 375a 8a3e
00000010: f42e 743e e817 423e 8720 043e e89d 153e
00000020: 19bd 793e de09 463f 54af fe3d b1d6 9e3e
00000030: 4bc5 9f3e 066a 4c3e 3b89 473e 2503 573e
00000040: b62c 2c3e 5bef 063e 3f2f 7b3e 67ab 4c3e
00000050: 9bfe 8c3e 005a 053e 82a8 7a3e 098e 213f
00000060: c726 763e e8e2 283e 7692 553e 1d9f 453e
00000070: d7a0 df3e 42d4 e63e e38e 933e 25a0 153e
0.32956815 0.1344344 0.42669377 0.27021953 0.23846036 0.18954432 0.12903033 0.14611018
0.24388541 0.77358806 0.12435785 0.31023172 0.3120521 0.1996232 0.19485943 0.20997293
0.16813931 0.13177244 0.24529742 0.1998726 0.27538 0.13022614 0.24478343 0.63107353
0.2403823 0.16492808 0.20856652 0.19298978 0.436774 0.45083815 0.2881995 0.14611872

weight f4 [32, 32, 3, 3]
00000000: ab17 57bc b2c1 8cbc 4abf 453c a871 513b
00000010: 7b2a c8b8 eb92 9c3c 54fa abbc ddaa cdbc
00000020: 9aa9 18bd f161 803d d895 cd3b 95ee 9fbb
00000030: f611 833c 3d83 143d c2a4 d9bc 322e c53b
00000040: 245a 143d 6fba 1b3d 6313 01be 5e1a 35bd
00000050: 23d6 243d 5695 b3bc 3106 be3c fdc9 e93c
00000060: 0e50 a5bd 6d3f 5fbd b640 ca3b 8f8b 00bd
00000070: 9a01 8bbc 4130 413d 44e8 8fbd 692f 5fbc
00000080: 7ce9 793c 6df2 90bb 4e23 71bc 5898 1ebc
00000090: 9972 42bc 26b4 03bd 4f4a 2b3c 5304 37bd
000000a0: 8312 39bc fbbc 4cbd 25a5 003d b9f2 d53a
000000b0: 2b35 c2bc 9e3d c2bc 08c4 ba3b 2b0d a33c
000000c0: 415f 9e3c f838 593d 9026 c73d 0712 4ebc
000000d0: f496 0bbc 0b16 c23c a4e9 443d 08a9 0b3c
000000e0: be69 54bb 9e33 fb3b 637a 353d 3c8e 03bd
000000f0: 7552 92ba d2e1 a0bc 1bdb babb 909c ecbc
00000100: c176 86bd ae6a f1bc ba98 85bd 9ccd 513c
00000110: 057f a53c e0ee 5ebd de96 b1bc d1a7 94bc
00000120: 3298 d83c 7bca f83c 9620 46ba 739c ab3c
00000130: f080 783b d8ce 07bd 4c95 8a3d 290d 4e3d
00000140: 8c79 8cbd 2699 69bc d351 b4bc 973a 863b
00000150: de55 30bd afc4 9cbd b285 64bc ea05 a6bb
00000160: 1112 5dbd d3a2 05bc 4485 933b 9255 033d
00000170: cee4 bcbb baa1 c739 8fe2 cd3c b777 62bc
00000180: 9e0d 99bc 20da 153d 7d19 cf3b a882 733d
00000190: e3a1 623d 2225 753c 9ab0 673c fcd4 683d
000001a0: 5f23 e6bb 472d 573d 0a1f 8e3d fc53 b73c
000001b0: 3885 b0bd 0300 67bd 3efb 743a bb04 1e3d
000001c0: 72d2 4e3c d346 a03c 41a2 afbd 6d1a 1abd
000001d0: d140 bb3c edfc 3cbd 6dee 60bd 8b4b acbd
000001e0: 85e8 373c c668 21bc b6b1 a2bc 7fdf 85bd
000001f0: 3437 3abd 8ee8 fbbc a7a9 7d3b 3dea 983d
00000200: ff2c 06b9 259b 883b 28eb 9c3c 69d5 52bd
00000210: 4de4 10bc 0102 3a3d 6110 14bd f0c9 15bd
00000220: a220 e33c 6b67 2c3a 983a 1c3d 5d4a 623d
00000230: 6bfa 7d3d 18c7 11bd fb7a f73c 5749 e13d
00000240: 735a dc3d 6ad3 953d a149 3b3d c9cf a6bc
00000250: 7e97 2dbc 9dff 1cbd 6c18 8a3c 44cf 083d
00000260: 1557 6cbc 6960 adb9 de15 dfbb d685 2a3d
00000270: 760c 28bd 2d56 0bbd daf7 403c 933c a0bd
00000280: c650 86bd 10e8 36bd e079 0a3d 9141 bf3c
00000290: 7ad9 b5bb 2638 9f3d 7896 a03c 3ab1 7c3d
000002a0: 7f49 dfb9 75ec 283d df58 57bc bee4 1bbc
000002b0: c9ec 02bd 2ecc 76bc b46a 92bc 9939 2c3b
000002c0: ed95 febb 7c9e 463d 675e a5ba 5fd9 653d
000002d0: a629 28bd 51d6 39bc bd26 b3bd 3dc2 313c
000002e0: 93c2 593c bca3 2c3c 6d77 6ebd 0e4f 0fba
000002f0: 6bf6 353c 4075 c3bd e3b0 5fbc 2905 60bc
00000300: b003 0f3c e0d2 a63b 3c91 063b 9a60 8bbd
00000310: 25fe 15bb 6cfa 51bd 34b9 383d c555 fe3c
00000320: ce07 2bbd 8690 0b3d e47b 433d f862 fd3c
00000330: 6036 b3ba 11a9 b1bc 9894 45bd 7ece 763c
00000340: 7a88 21bd c771 82bc 4de5 023d b5ee dd3c
00000350: bd02 a33c af9e a03b d032 5a3c 8a38 2bbb
00000360: a01b 5cbd 27a3 28bc e6e4 3abd a017 2ebd
00000370: 8605 ce3a 8bbe b7bb a694 323d 5223 8a3d
00000380: 0c2e 1d3d 3312 643d 4ee5 9a3c 4a7a 873c
00000390: 5e92 c4bc e3db 13bd 090b 6fbd e336 3ebd
000003a0: 7a92 e3bc a1e4 9abd 369b c9bb 556b 613d
000003b0: 11b1 693c 0672 87bd 9f34 19bd 121c f5bc
000003c0: ea02 90bc de86 1e3c e0dd 2a3d 8393 333b
000003d0: ed38 9e3c e855 003d a283 1ebd 1545 f7bc
000003e0: a400 8cbd 44dd 6f3d 8504 163d fdd5 423d
000003f0: bcd9 37bd 14d4 e9ba eb57 8abd 080d 1bbd
-0.0131282015 -0.017182205 0.012069533 0.0031958614 -9.544656e-05 0.019113025 -0.02099339 -0.025105888
-0.03727112 0.06268681 0.0062739663 -0.004880736 0.015999775 0.03625797 -0.02656782 0.00601747
0.036218777 0.038019594 -0.12605052 -0.0442146 0.04024328 -0.021921795 0.023196312 0.028538698
-0.0807191 -0.054503847 0.006172265 -0.031383093 -0.016968537 0.04716516 -0.07026723 -0.013622143
0.015253421 -0.0044234307 -0.01471789 -0.009679876 -0.0118681425 -0.032154225 0.010454728 -0.04468186
-0.011295917 -0.049984913 0.031407494 0.0016322947 -0.023706993 -0.023711022 0.0056996383 0.01990374
0.01933253 0.053032845 0.09724152 -0.01257754 -0.008519877 0.023692152 0.04807438 0.008524187
-0.003241166 0.0076660654 0.04430617 -0.032118067 -0.001116349 -0.01963893 -0.005702389 -0.028883249
-0.06565619 -0.029469814 -0.06523271 0.012805369 0.02020217 -0.054427028 -0.021678384 -0.018146427
0.02643976 0.030369988 -0.0007557956 0.020948624 0.003791865 -0.033156246 0.06766757 0.05030552
-0.06859121 -0.014257705 -0.022011673 0.00409634 -0.04305064 -0.07654702 -0.013947891 -0.005066623
-0.053972308 -0.008156496 0.0045019705 0.032064028 -0.0057645803 0.00038076733 0.025132446 -0.013822488
-0.018683251 0.036584973 0.006320177 0.059450775 0.05533017 0.014962466 0.014141226 0.056843743
-0.0070232595 0.052533414 0.06939514 0.022378914 -0.086191595 -0.056396496 0.00093452993 0.03857873
0.012623416 0.019565022 -0.08575869 -0.037622858 0.022858055 -0.046139646 -0.05491488 -0.08412846
0.011224871 -0.00985164 -0.01986013 -0.06536769 -0.045462802 -0.03075054 0.0038705857 0.074665524
-0.00012795998 0.0041688853 0.0191551 -0.051473055 -0.008843494 0.045412067 -0.036148433 -0.036569536
0.027725521 0.000657669 0.038141817 0.0552467 0.062006395 -0.03559026 0.030210009 0.110003166
0.10759439 0.07315715 0.045724515 -0.020362752 -0.010595201 -0.03832971 0.016857348 0.03340079
-0.014425059 -0.00033068963 -0.0068080267 0.041631542 -0.04102751 -0.03401773 0.011777842 -0.078240536
-0.06558375 -0.044654906 0.033807635 0.023346694 -0.005549607 0.07774381 0.019603 0.061692454
-0.00042588633 0.041241128 -0.013143747 -0.009514986 -0.031964097 -0.015063329 -0.017873146 0.0026279448
-0.0077693374 0.048490986 -0.0012616635 0.056115504 -0.041055344 -0.011342601 -0.08747623 0.010849533
0.013291019 0.010537084 -0.058219362 -0.0005466797 0.011106114 -0.09543848 -0.013653013 -0.013673105
0.0087289065 0.005091056 0.0020533344 -0.06805535 -0.0022887078 -0.05126421 0.0450985 0.031046757
-0.04175549 0.034073375 0.047725573 0.030930981 -0.0013672821 -0.021687062 -0.048237413 0.01506388
-0.039436795 -0.015923394 0.03195696 0.027091363 0.019898767 0.004901729 0.013317779 -0.002612623
-0.053737283 -0.010292805 -0.04562845 -0.042503 0.0015718199 -0.0056074313 0.043598793 0.06745018
0.03837399 0.05568142 0.01890817 0.016537804 -0.023995575 -0.036098372 -0.058360133 -0.046439063
-0.027779806 -0.07563139 -0.006152536 0.055034 0.014263407 -0.06613545 -0.0374037 -0.029920612
-0.017579515 0.0096757095 0.041715503 0.0027401156 0.019314254 0.031331927 -0.038699754 -0.030184308
-0.0683606 0.058560625 0.036625404 0.047567356 -0.044885382 -0.0017839693 -0.0675505 -0.037854224

bias f4 [32]
00000000: 53df 583b b3ec febc 2ae7 803d f35b 2abb
00000010: c359 ce3d 5baa 493c 9bf6 8bbd 5cbc b13c
00000020: 141f 353d d12f 413d 6e58 ebbc cbf7 3bbd
00000030: f737 193e 2023 e4ba 0187 ddbc d8ad 303d
00000040: 86db 8d3d 4c53 663d b5cf 62bd afa7 743d
00000050: d6b4 4b3d 2cf4 d33b 49bc 903c 90e8 0bba
00000060: 821c 6dbb 6d5e 80bd 35d1 a2bc bc24 a0bc
00000070: 4033 2b3d c03e af3d b899 c8bc 254b d63c
0.0033092096 -0.031118726 0.06294091 -0.0025994747 0.100757144 0.012308682 -0.06834146 0.021696262
0.04421909 0.047164742 -0.02872869 -0.04589061 0.14962755 -0.0017405488 -0.027041914 0.04313454
0.069266364 0.05623178 -0.055373866 0.059730228 0.049733005 0.0064683165 0.017667906 -0.0005337084
-0.0036180322 -0.0626801 -0.019875148 -0.019548766 0.041796923 0.085568905 -0.024487361 0.026158879

weight f4 [32]
00000000: fe62 833f e186 813f fd0f 7d3f a817 7b3f
00000010: 0152 7e3f cb96 773f 724b 533f 2fb4 7e3f
00000020: 5d32 803f 3ee5 693f 81d5 673f 7a40 843f
00000030: 7460 6b3f 44f7 813f d02a 6f3f 0b83 6f3f
00000040: 7dd2 723f 20ff 753f b6c0 7b3f 93b6 693f
00000050: 6ad4 673f 7036 733f 2859 673f 3f4c 853f
00000060: 2d61 6c3f 3514 753f 7779 833f 3434 4c3f
00000070: 0417 703f d886 7f3f 6e3e 7d3f 1abe 6f3f
1.0264585 1.0119287 0.9885252 0.9808297 0.9934388 0.96714467 0.82536995 0.9949369
1.001537 0.9136542 0.90560156 1.0332177 0.9194405 1.0153584 0.934247 0.9355933
0.9485243 0.96092415 0.9834093 0.9129421 0.90558493 0.9500494 0.90370417 1.0413893
0.9233578 0.9573396 1.0271443 0.79767156 0.9378512 0.9981513 0.98923385 0.93649447

bias f4 [32]
00000000: 6503 033f 65c3 0b3f a48d 733e 6e00 153e
00000010: ea33 153e f8bf b43e 1114 303f 06ff fc3d
00000020: 676b 1f3e 8222 fb3e cc81 183f 16e0 2c3d
00000030: d8a2 eb3e 4f89 223e 8754 b33e e35f 3c3f
00000040: 1412 283f 9490 fb3e c59a 8d3e 3902 1a3f
00000050: 2033 833e 7b7a 8d3e 6b93 e63e 1c8c d33e
00000060: 1c34 aa3e e1ff f43e 6b88 9c3e faef 473f
00000070: e573 a33e 00bc ab3e f8a0 643d 1e03 193f
0.51177055 0.54595023 0.237845 0.14550945 0.14570585 0.3530271 0.6878062 0.12353329
0.15568314 0.49049765 0.59573054 0.042205893 0.46022677 0.15872692 0.35025427 0.7358381
0.65652585 0.49133742 0.27657142 0.6015964 0.25624943 0.27632508 0.45034346 0.41317832
0.3324288 0.4785147 0.3057283 0.7810055 0.31924358 0.3354187 0.055817574 0.5977038

running_mean f4 [32]
00000000: 9251 8bbe 5401 a3be 3039 743e 9b0e 523f
00000010: 8c92 28c0 1588 4ebf 0ef3 d13d c53f 2dbf
00000020: 66bf 5fbf c7af 843f dccb 53bf ad64 adbd
00000030: 59a8 b8bf 5753 22bf 9594 88bf 5957 81be
00000040: 41a6 49bf 7c8e 093e f704 643d 72c4 063f
00000050: 0bae bb3e d3d4 50be b198 de3e 4c43 00bf
00000060: 8386 b2bc 7ed9 3d3d 2084 e0be 6a4f 20bf
00000070: 9edc 91bd 7340 393e 71de bd3e 8840 10c0
-0.2721067 -0.3183695 0.2384994 0.82053536 -2.6339445 -0.80676395 0.10251437 -0.6767543
-0.87401426 1.0366143 -0.8273294 -0.08466468 -1.4426376 -0.63408417 -1.0670344 -0.25261953
-0.7876931 0.1343326 0.055668797 0.526435 0.36656222 -0.20393686 0.4347587 -0.50102687
-0.021792656 0.046349995 -0.43850803 -0.62621176 -0.071221575 0.18090992 0.37083772 -2.2539387

running_var f4 [32]
00000000: ef28 733e 56f1 bc3e 27e4 6c3e c6a1 3d3e
00000010: 2c56 0a3e 0375 8e3e 8d6b d83d 610c 6b3e
00000020: ff00 9a3e d005 753e a471 1a3e b883 983e
00000030: e0cd 8a3d 0649 493e 8f2e 183e e776 b73e
00000040: 293d a03e e4ae fb3e e139 a63e bd6b 843e
00000050: 2ed1 8c3e 1ac6 9e3e 7800 6a3e 924b 903e
00000060: 9e06 5f3e 557a 4a3e b241 d53e 03c1 333e
00000070: b385 a63d 30ea 653e 97d4 6a3e 157d 193e
0.23746084 0.36902875 0.23133908 0.18518743 0.13509434 0.27823648 0.10567389 0.22953941
0.30078885 0.23927999 0.15082413 0.29787993 0.06777549 0.19656762 0.1486151 0.35832903
0.31296661 0.49156868 0.32466033 0.25863448 0.2750334 0.31010514 0.22851741 0.28182656
0.21779868 0.19773228 0.41651684 0.17554097 0.0813097 0.22452617 0.22932659 0.14989121

weight f4 [32, 32, 3, 3]
00000000: e34a 1c3d 83ea 91bd f843 9c3d 482f 393c
00000010: 1c77 9fbd fe90 583d 9ef1 6bbd bcce 6fbd
00000020: 800b e53d 6af6 383d 9b72 9abd 8f3a aa3d
00000030: 3e0c 1b3d 4c4f 66bd 8db1 5e3d 4e23 b53d
00000040: 5671 9ebd f39d 4cbc 92b3 423d f151 b9bd
00000050: 97d2 9e3c 5aaf 223c 3eaf 71bd 77e8 ba3d
00000060: 1626 263d 24cd 84bd f007 9e3d a34f c83b
00000070: 7844 7e3d 38e6 35bd 6286 a3bc fff3 183d
00000080: a1da 613c 2e09 efbb bb90 103d de87 45ba
00000090: 7f14 74bd 95a2 7d3d 77c0 4abd c396 fabc
000000a0: 4d42 903d 9fad afbb 200f 1fbd 5fe0 b63d
000000b0: 4ba3 313c 5536 733d e2f7 443d f617 633c
000000c0: 3db8 61bc f8bd f93c 975d 80bd e33b 1fbc
000000d0: d645 3c3d b3c0 d6bc 5431 423d fe44 3b3c
000000e0: 0022 ebbc 2b69 2f3b f9e7 fbbc 694c 2e3c
000000f0: 9498 ac3a 76ef ae3b 41f2 eebc 3330 15bc
00000100: 0b59 86bc f8ff 76bd 6d65 293b 2738 cd3c
00000110: 3b0a adbc 8ca2 10bd 4ed2 7c3b 7766 70b9
00000120: 4a3a 81bc 5803 b83b b614 66bb cbfe 093d
00000130: c666 25bb 2bd8 5f3d 0f83 09bd df11 aabc
00000140: d783 25bd 8f59 cabc c439 4f3c 0a62 dc3d
00000150: bb91 16bd d0e5 0e3c a9b2 863d 9301 efbb
00000160: a0f9 fd3b f9f5 8f3b 22b2 48bd 07f0 52ba
00000170: 4d48 993d ecfd 8a3c 7edc 95ba 682d 233d
00000180: 2093 22bd b791 65bc 975e cebc 38c9 27bd
00000190: 5eb0 9d3c 5401 aabd 2ef4 f4bc 85c2 303d
000001a0: 2291 dfbc c089 f0bd 7bb7 083d 7b88 9ebc
000001b0: d4cd 22bb 3351 11bd 0751 a9bc 5927 933c
000001c0: 4adf 97bc 5bf7 263b bfd9 00bb 29aa e3bb
000001d0: e81e 373c 6050 ae3c 7899 8cbd b6df 00bb
000001e0: 410f ad3c ed5e 6abd 8a65 443c bf09 a43d
000001f0: 9042 4dbb c73e a33d 2b62 443d 8359 95bc
00000200: 9bfb 413d c785 493c 5926 57bd 4081 973d
00000210: 4e70 463c 21eb a6bd b443 51bc 4a65 83bb
00000220: e101 19bd 12f3 90bd 03c9 85bd 0ad7 11bd
00000230: 99d8 29bd 4f0a c3bd 35c6 0ebd 11b8 143c
00000240: cfd1 0f3d dc6a 88bd c8a9 423d 6f31 013d
00000250: 4752 b4bd 84a5 0e3d 31fe 383d 48f3 abbd
00000260: 0c24 7e3d 5199 463b 437f 563c 6bbd dabc
00000270: a95e e9bb 12fa 963c 2b9a 993c 6c6d 36bd
00000280: 06bb 2abd 272f 96bd 5f6b b5bd 729a 2c3d
00000290: 8c41 14bd 020a 88bd 46e8 833c e46d bfbc
000002a0: 7af3 0fbc 4229 aa3c 9b85 e03b 9493 a13d
000002b0: 3a7d b6bc 1b30 acbd 8f7a 8a3c e8e8 0dbc
000002c0: 43e0 06bd f5ad be3c 7a9d 993c 17cc 16bd
000002d0: 28ed 29b9 e9f3 003d 9e0a 69bd f09d b7bc
000002e0: e405 363c bfc0 3fbd d231 95bc 3405 cf3c
000002f0: 706d 573c 36a4 72bd 63be 8cbd 749d acbb
00000300: 0412 05bd 518d afbb 5c71 273d 932f 66bd
00000310: 59a2 933b 2923 da3c 034b 76bd 4f8c a93d
00000320: 655e 3cbb 82f6 7dbc fe7f a23d f7d1 683d
00000330: 5a62 57bd 19ad 1f3d 3b88 873c 7e3f 6f3c
00000340: 3359 babd 8f9c 963d 67ec 743d 5872 90bd
00000350: d6dc 8a3d aeed a73d e680 06bd 59c1 583d
00000360: 2f50 25bd e603 ecbc 5a08 553b 2e6b c73c
00000370: de54 c4bc 467c c43c b7d5 94b9 2a76 55bd
00000380: 6032 e3bb 48f1 a9bb b5bf 443d 53d9 8cbd
00000390: df83 54bd dda7 a33c 566c 04bd a57b c7bb
000003a0: e761 fb3c e93c fcbc 94fb 06bd b7fc 42bb
000003b0: 1196 4dbd c034 c4bc bc0c c73c 9b84 0cbc
000003c0: 61a6 96bd 2c43 a8bc c50e 9abc f883 9c3d
000003d0: 8f6a b6bc bbad b23c 645f dbbc 1396 b3bc
000003e0: 34c9 543d b0cb ad3b bc3e c13a 2dc6 3c3d
000003f0: 90ae df3a f180 ae3c 7e01 a03c b8a7 9dbc
0.038157355 -0.07124808 0.076301515 0.011302777 -0.0778639 0.05287265 -0.05760347 -0.058546767
0.11183834 0.045156874 -0.075413905 0.083119504 0.037853472 -0.056227967 0.054368544 0.088446245
-0.07736461 -0.01248883 0.047534533 -0.09048832 0.019387526 0.009929502 -0.059005015 0.091263704
0.040563665 -0.0648444 0.07716358 0.006113009 0.062077016 -0.044409007 -0.01996154 0.037342068
0.013785035 -0.0072947955 0.035294276 -0.00075351994 -0.05958986 0.06192263 -0.049499955 -0.030589467
0.07043896 -0.0053612734 -0.038832784 0.08929514 0.010842155 0.059377987 0.048087962 0.013860693
-0.013776836 0.030486092 -0.06267851 -0.009718868 0.04596504 -0.026214933 0.047410324 0.011430023
-0.028702736 0.0026765566 -0.030750262 0.010638335 0.001316803 0.0053386046 -0.02916825 -0.00910573
-0.01639988 -0.060302705 0.0025847808 0.02505119 -0.021123042 -0.035311267 0.00385775 -0.00022926355
-0.015774865 0.005615633 -0.003510756 0.033690255 -0.002523826 0.054649513 -0.033572253 -0.020760475
-0.040408935 -0.024700908 0.01264805 0.10760887 -0.036760073 0.008721784 0.065770455 -0.007293889
0.007750705 0.004393336 -0.048998006 -0.0008046631 0.074844934 0.016966783 -0.001143351 0.039838225
-0.03969109 -0.014011792 -0.025191588 -0.04096338 0.019249137 -0.083010346 -0.02990159 0.04315426
-0.027290884 -0.11745024 0.033378106 -0.019352188 -0.0024841921 -0.03547783 -0.02066852 0.017963098
-0.01853909 0.0025477025 -0.0019661037 -0.006947775 0.011176802 0.02127856 -0.06865209 -0.0019664592
0.021125438 -0.057219435 0.011987099 0.080096714 -0.0031320192 0.07970958 0.047945183 -0.01823116
0.04735909 0.012299961 -0.052526806 0.07397699 0.012111736 -0.08150316 -0.012772489 -0.0040098773
-0.037355307 -0.07077612 -0.065324806 -0.035605468 -0.04146633 -0.095234506 -0.034856994 0.009077088
0.0351122 -0.06661007 0.047525197 0.031541284 -0.08804756 0.034825817 0.04516429 -0.083960116
0.062046096 0.0030303786 0.013091865 -0.02670165 -0.00712188 0.01842979 0.01875027 -0.044537947
-0.041682266 -0.07333212 -0.0885837 0.042139478 -0.036195323 -0.06642534 0.016101968 -0.02336783
-0.008786077 0.020771626 0.0068518645 0.078894764 -0.02227651 -0.08407613 0.016904144 -0.008661486
-0.032928716 0.023276309 0.018751848 -0.03681573 -0.00016205444 0.03148261 -0.05689489 -0.022414178
0.011109803 -0.046814676 -0.018212233 0.025271036 0.0131486505 -0.059238635 -0.06872251 -0.0052677933
-0.032487884 -0.0053574224 0.040879592 -0.056197714 0.0045054373 0.026628094 -0.06013013 0.08278715
-0.0028742787 -0.015500667 0.07934569 0.056840863 -0.05258403 0.03898344 0.016544452 0.01460254
-0.09099045 0.0735408 0.059795763 -0.07053059 0.06780402 0.08199631 -0.03283777 0.052918766
-0.040359672 -0.028810453 0.0032506199 0.0243431 -0.02396625 0.02398504 -0.0002838799 -0.052114643
-0.0069334954 -0.0051862337 0.04803439 -0.06877389 -0.051883575 0.019977504 -0.03232988 -0.0060877376
0.030686332 -0.030790763 -0.032954767 -0.002975268 -0.050191943 -0.023950934 0.024298064 -0.0085765375
-0.07355953 -0.020539843 -0.01880587 0.076423585 -0.022267608 0.021811357 -0.026778884 -0.021922147
0.051949695 0.0053038225 0.0014743428 0.046087433 0.0017065573 0.021301718 0.019531962 -0.019245014

bias f4 [32]
00000000: b3e8 a4bc 1b62 8b3d afa3 7a3d 0a8e 963c
00000010: e240 0e3d f9da 3cbc 75fe 70bd b58a 293d
00000020: 96e4 ca3d e9d9 a2bc 1324 983c fe8a 8d3d
00000030: a685 983d ee48 173d efed 753c a0d3 ac3d
00000040: b8c3 9c3c b788 8d3c 42a6 933a 1249 353d
00000050: 91ad 95bd 85b0 983d f4d9 4e3c 0944 21bc
00000060: cb66 d73c 0beb 1b3c 1921 a73d 0a40 123d
00000070: 297a c5bb 55fb 9c3d c24c 1fbd 685c 78bd
-0.02013049 0.068058215 0.061191257 0.018378276 0.034729846 -0.0115268165 -0.05883642 0.041392047
0.099068806 -0.019879298 0.018571889 0.06911276 0.074473664 0.036934786 0.015010341 0.08438802
0.019136295 0.017277105 0.0011264759 0.04425914 -0.07308496 0.074555434 0.012625206 -0.009842881
0.026294133 0.009516488 0.0816061 0.035705604 -0.0060265255 0.07665125 -0.03889156 -0.060635

weight f4 [32]
00000000: f526 a33f 3171 8f3f 9222 883f 7699 833f
00000010: 48a8 933f 2079 b43f 3450 933f aba9 943f
00000020: 092d a63f bbdb 893f a841 903f 3856 b03f
00000030: 8715 a53f a483 b13f 8ada 883f 1f4a 963f
00000040: 3d7e b93f 178b 873f 5d19 a83f c5d8 853f
00000050: b4e1 933f 2af4 903f 711a 873f 1397 8d3f
00000060: 4a97 8b3f c355 913f e602 893f 951f 853f
00000070: 727b 883f 299e 8b3f f3f8 823f 9836 8c3f
1.2746264 1.1206418 1.063555 1.0281208 1.153573 1.4099464 1.1508851 1.1614279
1.2982494 1.0770181 1.1270037 1.3776312 1.2897195 1.3868299 1.0691693 1.174137
1.449165 1.0589322 1.313274 1.0456778 1.1553254 1.1324513 1.0554944 1.1061729
1.0905545 1.1354297 1.070401 1.0400263 1.0662673 1.0907642 1.0232223 1.0954161

bias f4 [32]
00000000: e2d4 8abe f610 04bf b756 0c3e 72b8 9fbd
00000010: 6052 42be 91bf fb3b 9304 38bc 0753 f33e
00000020: 0005 46be f746 053d 560e 67be ba4b 41bb
00000030: d310 f0bd 9f89 603e a15b 18be 1049 243e
00000040: 6c90 8a3d e0cc 46bd c537 7f3d 8e55 dcbe
00000050: 04a3 4fbd 734f d73e 681b bfbc 6441 11be
00000060: c972 983e 04ee 1dbe 2ef3 d13c 6a4c 84bd
00000070: 1be4 583e 452c 883e 56b6 7b3e 94fe 33be
-0.27115542 -0.5158838 0.13704954 -0.07798852 -0.18976736 0.0076827486 -0.011231559 0.47524282
-0.19337845 0.03253838 -0.22564062 -0.00294946 -0.11721959 0.21927498 -0.14878704 0.16043496
0.067658275 -0.048535228 0.062309045 -0.43034023 -0.050692573 0.42052802 -0.023328498 -0.14185101
0.29775074 -0.15422827 0.025628652 -0.06459887 0.21180765 0.26596275 0.24581274 -0.17577583

running_mean f4 [32]
00000000: 4ef1 b5be 2ff6 d13d c1fc d7be 8eea 18be
00000010: 95b0 e73e 0b57 28be 180c 843e c02c d5be
00000020: 1ffb 1bbe 9a34 c1bd f563 c93d c7c9 42bf
00000030: 7c77 643e 1370 c0be 1303 673d 5b18 8b3e
00000040: 4bd9 53be 76d6 71bf 6190 2dbe ca38 79be
00000050: eaab 97be 9078 b9be 2d37 6abe 8df2 0f3f
00000060: d059 b33e ed7b 84be 6683 d8be 2007 04bf
00000070: 9c1a 573e 0897 d53e eba9 413d f0aa 7dbf
-0.35535663 0.10252034 -0.42185023 -0.14933226 0.4525191 -0.16439454 0.25790477 -0.41635704
-0.15232514 -0.09433861 0.098335184 -0.7608914 0.22311205 -0.37585506 0.056399416 0.2716702
-0.2068836 -0.94467866 -0.16949607 -0.2433807 -0.29623348 -0.36224794 -0.2287261 0.5622948
0.3502946 -0.25875798 -0.4228775 -0.5157337 0.21006244 0.4171679 0.047281187 -0.99088955

running_var f4 [32]
00000000: 63b9 1b3e c593 a23d a4a9 763d 3547 cf3d
00000010: 4a4a ee3d eee0 683d 37fa ef3d 1d4b ab3d
00000020: 0c06 2a3e 352e d23d 5b05 c83d be8b 043e
00000030: 2865 b33d 7976 e73d 541f b13d 0ae5 cf3d
00000040: 3e6a 4d3e 9c6a 9c3d 04a6 933e 1555 b63d
00000050: e286 0f3e 2b69 f23d 8e21 a63d d3ef de3d
00000060: a94e c13d 0b9f b63d b8d3 d23d 7c50 083e
00000070: dd60 993d 9e8d 1d3e d23a b33d fb21 043e
0.15207438 0.07938341 0.060220376 0.101210035 0.11635263 0.056855135 0.117176466 0.08363936
0.16603869 0.102627195 0.097666465 0.12943932 0.087595284 0.11301894 0.086485535 0.101511076
0.2006006 0.076375216 0.28837597 0.08902947 0.14016297 0.118364654 0.08111869 0.108855866
0.09438831 0.08917054 0.102942884 0.13311952 0.07489178 0.15386054 0.087514535 0.12903588

weight f4 [1, 32, 3, 3]
00000000: a785 75be b9dc 89be df35 74be 3b8a 52be
00000010: 6295 6cbe a05c 44be c7b4 7dbe 3d0c 66be
00000020: 3377 62be 0e8d 703e 4613 cf3d f3d3 f23d
00000030: ae8a 083e ace5 5ebd 071f 7b3d c3ae 9bbc
00000040: 9700 1dbe 4dbd 00be 425b 8abd 2d5a 79bd
00000050: fb2f bcbc 72c7 5ebd 2dbd 68bd da19 22bd
00000060: 57e8 2fbd e322 97bd caa0 0abd f0bf f8bc
00000070: 008c b83b e333 20bb e40b 83bd 7487 1dbd
00000080: a33f dc39 fba2 acbd ff35 98bd 77a9 543b
00000090: 0384 0c3e c7b0 6b3e 71e1 3d3e 9fe4 793d
000000a0: 21b5 c13d 8abb c53d a9e8 07be a3ac 99bd
000000b0: 84e4 d6bd 9b3d 233e 8494 ba3d 397a 85be
000000c0: e5a6 fe3d 4403 cd3d d352 74be 4cac 323e
000000d0: 4603 be3d 449b 55be 4a8b 46be 934e ecbd
000000e0: 0252 21be 321b 53bd 755d acbd 32cb febc
000000f0: 0a04 9ebd aadd a8bd 4956 5abd 01bb 7e3e
00000100: 1e69 283e 4a17 683e 4a1f dfb9 8dbf b5bd
00000110: acb2 143c 2b7c 1bbd 4b3c b3bd 88b5 a0bd
00000120: dfc2 8fbe 9db0 5bbe 300a a0be 224a 91be
00000130: 53ad 2bbe 593b 8cbe 2148 78be dfa5 35be
00000140: 8382 83be 8515 cdbc a360 0abd 630e 05bd
00000150: 2754 2dbd 0474 debc fb36 36bd c789 b7bc
00000160: 9e20 62bd 5b1c b1bd 4a46 e83d d894 143e
00000170: 5d1b 013e 5b22 723d 1083 12bc 237c a43c
00000180: ceb1 923d 4b8a 513d 008b 433d c851 1c3e
00000190: 6212 1f3e b1c3 443e 1629 573d e5b4 30bc
000001a0: ece4 093d 47e8 62be b617 82be 63e8 4cbe
000001b0: d3ff 683e addd 153e 5d16 7d3e 8c2f bb3c
000001c0: d58d 8bbd a0a6 393d e5cd 23bd 56e4 5fbe
000001d0: fa09 c7bd 858e 983e ffbd 433e cae4 593e
000001e0: 81b5 213e 1e85 bc3a 903e 7cbc 0348 d2bd
000001f0: efe7 bebe 012a c7be 3641 84bd 0990 a7bd
00000200: 6c32 a8bd 3500 a0bc d1f2 e2ba ee5b 89bd
00000210: 1e80 84bc 78bf a6bc 3bc9 fabb f5cc f2bd
00000220: e86a ecbd bb06 50bd a821 99bc d0d4 a53d
00000230: 565d 8f3d 0edb 8b3d 2e77 e23d 2dd6 2d3e
00000240: bc11 c03e ca21 663e b95e 593e af83 cd3e
00000250: 8192 5e3e adee 7e3e 4a0d c63e 0cf1 823e
00000260: ee59 983e 997d 85bd 1848 37bd 91d0 34bd
00000270: 783d a9bd a6a5 91bd a1ce fbbc 0565 bebd
00000280: 1db2 3cbd aca2 5bbd 0e6f a43e b093 3b3e
00000290: ae0b 263e ac83 9b3e 2e28 3b3e d3a4 423e
000002a0: 531b 9a3e e58e 453e ca13 313e cd77 b7bd
000002b0: fd22 27bd e710 67bd 00f1 83bd 4756 f6bc
000002c0: d84a 39bd 4fc0 d2bc 8a25 7bbc 0c6f 66bb
000002d0: f221 543e 99d1 083d 5904 803d 39c2 563e
000002e0: 94b7 813c 1a84 c63c 6326 213e 9540 a53c
000002f0: 8a61 8c3c 0172 5b3e cfb3 bb3d 2142 393d
00000300: 8318 c73d 279a cfbc 9b6b b7bb 0762 253e
00000310: d225 92bb a4e8 c53c b592 43bd 1ef9 91bd
00000320: a8af 60bd cba1 11bd 155f 00bd f84f a6bc
00000330: f39f 94bd c7d2 5fbc 4c28 ffbc c645 a2bd
00000340: 5111 c9bd 2550 d6bd 2c40 c0bd a4e8 97bd
00000350: 5933 c1bd bfb9 9fbd 746c 9abd 535f bbbd
00000360: dc18 aebd 02a9 23be ffc2 1cbe 5cdc 15bc
00000370: 865a 80bd ac10 88bd 89e4 a33b 4a20 443c
00000380: 278e abbc fd4c 753e 5aa1 a43d f1d5 393d
00000390: 38a9 193e aa6d 20bd 2065 86bd aa2e 273e
000003a0: 62c5 5ebd 26b2 93bd 8caf 963d be2f 1e3d
000003b0: dee4 673d 8d5a 383d a110 b13c c072 d03c
000003c0: 8f4f 303d 1616 8a3c 81bc 473d b72b 82bd
000003d0: 8f67 8ebc 1c96 17bd 6fc4 5ebd 12cb 0dbd
000003e0: 0ecb b4bc d2a4 05ba 6475 4c3c d96f 6bbc
000003f0: 89b7 7c3c 19c3 efbc 2fff 4b3c 2b74 03bd
-0.23976766 -0.2692621 -0.23848675 -0.20560543 -0.2310386 -0.19175959 -0.24775992 -0.22465606
-0.22115783 0.23491308 0.10111098 0.11856832 0.13334152 -0.05441825 0.061308887 -0.019004231
-0.15332256 -0.12572213 -0.06755687 -0.060877014 -0.022972098 -0.054389425 -0.056821037 -0.039575435
-0.042946186 -0.07379701 -0.033844747 -0.03036496 0.0056319237 -0.002444499 -0.06398752 -0.038459256
0.00042009083 -0.084295236 -0.07432174 0.0032449642 0.13722233 0.23016654 0.1854303 0.061009046
0.09458376 0.09654911 -0.13272347 -0.07503631 -0.10492805 0.1594147 0.09110358 -0.2606981
0.12434176 0.100103885 -0.2385972 0.17448539 0.09277968 -0.2086001 -0.19389072 -0.11538424
-0.1575394 -0.051539607 -0.08416263 -0.03110275 -0.07715614 -0.08245404 -0.053304944 0.24876024
0.16446349 0.22665134 -0.00042557187 -0.08874426 0.009075802 -0.037960213 -0.08751734 -0.07847124
-0.28078362 -0.21454091 -0.31257772 -0.2837687 -0.16765337 -0.2738903 -0.24246265 -0.17739056
-0.2568551 -0.025034675 -0.033783566 -0.032484423 -0.042316582 -0.02715493 -0.044486027 -0.022404565
-0.055206887 -0.086479865 0.113415316 0.14509904 0.12608095 0.059114795 -0.008942381 0.020078724
0.0716282 0.051157277 0.047739983 0.15265572 0.15534356 0.19215275 0.052529417 -0.010785316
0.033665583 -0.2215892 -0.25408715 -0.20010523 0.22753839 0.14635344 0.24715562 0.02284982
-0.06814162 0.04532492 -0.03999128 -0.21864447 -0.097187 0.29796234 0.19115447 0.21278682
0.15791894 0.0014382934 -0.015395775 -0.102676414 -0.37286326 -0.38899234 -0.064577505 -0.081817694
-0.08212742 -0.019531349 -0.0017314797 -0.06706987 -0.016174372 -0.020354971 -0.007653383 -0.11855499
-0.11543828 -0.05078767 -0.018692806 0.080972314 0.07000224 0.06828891 0.11057888 0.16976233
0.3751353 0.22473827 0.2122754 0.4013953 0.21735574 0.24895735 0.38682014 0.2557453
0.2975611 -0.065180965 -0.04474649 -0.044144217 -0.08263677 -0.07111673 -0.030738177 -0.09296612
-0.0460683 -0.053621933 0.32115978 0.18318057 0.16215393 0.30373895 0.18277046 0.19008188
0.30098972 0.19292791 0.17292705 -0.08958397 -0.04080485 -0.056412604 -0.064424515 -0.030070437
-0.045237392 -0.025726466 -0.015328774 -0.0035161404 0.20716074 0.033403013 0.06250829 0.20972528
0.015834607 0.024232913 0.157373 0.020172397 0.017136354 0.21430208 0.09165155 0.04522908
0.09721472 -0.02534206 -0.0055975444 0.16150676 -0.004460075 0.024158783 -0.047747333 -0.071275935
-0.05485502 -0.03555469 -0.031340677 -0.020301804 -0.072570704 -0.013661093 -0.031147145 -0.079234645
-0.09817756 -0.10464505 -0.0938724 -0.074174196 -0.09433622 -0.077991 -0.07540217 -0.09149041
-0.08500835 -0.1598244 -0.1530876 -0.009146776 -0.06267266 -0.06643805 0.0050016087 0.011970589
-0.020941807 0.2395515 0.08038588 0.045370046 0.15005958 -0.039167084 -0.06562257 0.16326395
-0.054387458 -0.072117135 0.07357702 0.03861975 0.05661475 0.04500823 0.021614375 0.025445342
0.043044623 0.016856235 0.048763756 -0.06355994 -0.017383365 -0.03700839 -0.054386552 -0.03461749
-0.02206948 -0.00050981075 0.01247916 -0.014369928 0.015424618 -0.029267834 0.012450977 -0.03209321
