TuiGAN/models/facade2labels/b2.pth (torch, 131453 bytes, 25 tensors)

weight f4 [32, 3, 3, 3]
000000 7c 19 be bc a8 bd 2a bc 5c b6 95 bb 4e ba 58 bb
       -0.023205511 -0.010421194 -0.004568858 -0.003307003
000010 32 61 65 3c 16 c0 ae 3c a0 53 52 bd bc 6b 1e bd
       0.014000224 0.021331828 -0.051349282 -0.038676962
000020 09 41 9c bc d0 76 4d 3d 44 05 1f 3d 29 14 81 bc
       -0.01907398 0.050162137 0.03882338 -0.015756683
000030 a7 5a 07 3c 81 05 1c 3c cf f9 9d bd df 06 73 bd
       0.008261359 0.009522797 -0.07713663 -0.059332725
000040 4c 31 56 bd 70 a7 2d be 1c 54 c0 3c ba c4 5d bc
       -0.052293107 -0.16958404 0.023477606 -0.013535673
000050 cf c5 84 bc 62 5b da 3c fd bf 2f 3d cd 13 95 bc
       -0.016207604 0.026654903 0.042907704 -0.018197918
000060 6b 55 b9 bb 19 f4 83 bc e4 07 81 bd 90 f6 78 39
       -0.0056559346 -0.016107606 -0.06300333 0.00023742975
000070 89 b6 09 bd 7f 77 bd bb 70 ad 07 3d 45 69 2b bd
       -0.033621345 -0.0057820673 0.033124387 -0.04184844
000080 38 01 42 3d 71 8e 37 bc 30 bc ba ba 6f 4c 23 bd
       0.047364444 -0.011203394 -0.0014246758 -0.039867815
000090 3d 4d 3e bc 1c 2f 03 bd d2 01 8c bb cb a0 07 bc
       -0.011615095 -0.03202735 -0.004272678 -0.008278082
0000a0 e0 0d e3 bc 7a 8a 56 bc d9 e6 25 3d 32 c0 05 bd
       -0.027716577 -0.013094539 0.040503357 -0.032653995
0000b0 2b c0 5e 3c 52 42 fc 3d b7 29 61 3d df d2 f6 3d
       0.013595621 0.12317337 0.054971423 0.12051939
0000c0 b5 83 a6 3c 60 ed 24 bd aa e1 57 3c 58 e2 c1 3d
       0.020326475 -0.04026544 0.013176361 0.09467
0000d0 69 d4 27 3d 9b 58 04 3d 0d d9 4a bd 04 7a 19 bd
       0.040974054 0.032311063 -0.049523402 -0.03746988
0000e0 a6 de ab bc b6 61 36 3d 46 83 f8 3c 15 27 71 3d
       -0.02098019 0.04452678 0.030336034 0.058875162
0000f0 91 89 45 3d 92 71 38 3d 83 e4 83 bc 02 03 6e bd
       0.048226897 0.045030184 -0.016100174 -0.058108337
000100 50 2c 43 bd 81 9f 94 bc d1 75 32 3d 11 8c ed 3c
       -0.04764968 -0.018142464 0.04356939 0.028997453
000110 82 bc a0 3c 6d 81 9c bb e5 e6 09 3d d4 a5 22 bb
       0.019621138 -0.004776171 0.033667464 -0.002481808
000120 77 7e 97 3c b9 71 9b 3c fe 93 bd 3c 7e a8 ed 3c
       0.01849292 0.018975126 0.023141857 0.029011007
000130 e2 e7 30 3d 99 8c b9 3c 92 4b ba bd e1 47 dc bc
       0.04318989 0.02265005 -0.09096445 -0.026889743
000140 7e f6 01 bc 8e 9c 4b 3c b8 11 8b bb 76 d9 dd bc
       -0.0079323035 0.012427462 -0.0042440556 -0.027081233
000150 98 e7 15 3d 60 8b be 3b 38 2b 3b 3c 2d 23 a1 3c
       0.036597818 0.0058149546 0.011423878 0.019670093
000160 4c 7f bd 3c 87 a8 77 bc 50 af 8c bd 0c ee 59 bd
       0.023131989 -0.015115864 -0.06869376 -0.053205535
000170 50 bf e9 bd da 34 3e bd 60 d3 a4 bc 1f c7 8d bd
       -0.11413443 -0.046437122 -0.020120323 -0.06922745
000180 37 c2 ae bd a6 de ad 3c f7 74 9c bd 66 2e ab 3c
       -0.08533137 0.021224331 -0.07639497 0.020896148
000190 5a 4f b2 bc 82 c5 3b 3d a4 58 b3 bc e1 67 1a bd
       -0.021766353 0.045842655 -0.021892853 -0.037696723
0001a0 7c 44 c9 bc c0 24 21 bc 19 3c a8 3b 39 12 fa 3c
       -0.024568789 -0.009835422 0.0051341173 0.030526267
0001b0 be e9 b7 bd b9 57 08 3c 72 fc 62 3c 57 c6 5e bd
       -0.0898013 0.008321696 0.013854133 -0.05438837
0001c0 0c be 0a bd f2 be 88 bc cc e8 b0 bd f6 c4 f7 bc
       -0.03387265 -0.016692612 -0.086381525 -0.030245285
0001d0 72 cd 9c bc 38 7d d9 bc 6c 81 6e bc 7a b6 60 bd
       -0.019140933 -0.026548967 -0.014557224 -0.054861523
0001e0 e5 d4 32 bd a8 47 5a bd f8 6e 94 bc 78 99 04 bd
       -0.043660063 -0.053290993 -0.01811932 -0.03237292
0001f0 1c 11 1c bd 5e 64 7e bc fc be 43 3d 67 fb 8f 3d
       -0.038102254 -0.015526859 0.04778956 0.07030373
000200 cc 07 64 3c 17 b8 36 3d ce 67 80 bc cb 32 3c 3d
       0.013917875 0.044609156 -0.015674498 0.045946877
000210 54 a4 2b 3c de 0f e1 bc ab 0f 03 3d a1 67 54 bc
       0.010476191 -0.027473386 0.031997364 -0.01296416
000220 96 36 73 3b 3e f8 2d bd 53 ef 04 3d 36 be f6 3c
       0.0037111393 -0.04247307 0.0324548 0.030119997
000230 50 79 e9 3b e6 80 22 3b e7 85 b4 bb e2 22 d0 bc
       0.0071250573 0.0024796068 -0.0055091265 -0.025407258
000240 30 89 95 bd 63 45 c9 3c bf 9b a2 3d 75 d3 78 bd
       -0.07301557 0.024569219 0.079398625 -0.060748536
000250 54 ca eb bb 96 13 f8 3c 3d 87 1b bd 57 98 4c 3b
       -0.0071957503 0.030282777 -0.03797077 0.0031218731
000260 33 c5 5f 3d 87 f4 99 bd 03 04 8c 3c 28 ed f2 3c
       0.054631423 -0.07517343 0.017091757 0.0296541
000270 71 b0 b5 bd 39 1d 25 3d 0d ff 01 3d e9 bd e4 bc
       -0.08871544 0.040311072 0.031737376 -0.027922587
000280 e5 3b 60 3c 48 44 85 bb 62 84 8b bd 5c 49 76 3c
       0.013686155 -0.0040669776 -0.068123594 0.015032139
000290 67 7a ad 3d 6b 2b 24 bd 64 04 13 bc 88 bc 92 bb
       0.08470612 -0.04008047 -0.008973215 -0.004478041
0002a0 15 be 90 bc 44 15 4c bc 85 98 21 3d b2 8b a5 bd
       -0.017668763 -0.012456242 0.039452095 -0.080832854
0002b0 44 97 a2 bc a5 4c ad 3d 30 6c 15 bd ab 94 3d 3c
       -0.01984752 0.084618844 -0.03648013 0.01157109
0002c0 ac be 33 3d 71 90 34 bd 54 eb 3d bb 93 d9 33 3d
       0.04388301 -0.044083063 -0.0028979378 0.043908667
0002d0 91 93 0e 3d 26 48 22 bb 65 f0 c8 bc 91 e3 59 3c
       0.0348087 -0.0024762242 -0.024528692 0.013298885
0002e0 92 59 a4 3c 60 2c ff 3b db 4f 41 3a 74 bd 73 bc
       0.020062242 0.0077872723 0.0007374265 -0.014876712
0002f0 dd 6b 1e bd 2e e2 92 3b fd bc c7 3c 80 6d 2c 3d
       -0.038677085 0.004482529 0.024382109 0.042096615
000300 6d 97 92 bd 40 80 5f bb 25 49 01 bd a3 41 cc bb
       -0.071577884 -0.0034103543 -0.031563897 -0.0062334104
000310 18 23 c5 3b dd ab 70 3c c0 e8 cd 3b 56 63 5f 3d
       0.0060161464 0.014689413 0.0062838495 0.054538094
000320 ec 7a 8c 3d 80 84 f4 bd df d0 92 bc 24 f9 8c bc
       0.06859383 -0.11939335 -0.017921863 -0.017208643
000330 fa ef 57 bd 17 00 d7 3c ee 14 cd 3b b0 52 ca 3c
       -0.052719094 0.02624516 0.0062585985 0.024697632
000340 09 c3 b1 3c 2b c9 e6 3c 73 6c e9 bc 66 ed 38 bc
       0.021699445 0.028172096 -0.028494095 -0.011287069
000350 87 19 8c bb 95 22 9c bc 7c e3 25 3b 6a 6d d5 3c
       -0.004275504 -0.019059459 0.0025312593 0.02605315
000360 82 2e 02 bc 17 d9 45 bb 29 2b ea 3b 9d 11 08 bd
       -0.007945659 -0.003018921 0.0071462584 -0.033219922
000370 ab 5d 50 bd ee 49 38 bd fb 61 64 3d 82 5f 63 3d
       -0.05087058 -0.04499238 0.055757504 0.055511005
000380 de 61 99 3d c5 43 74 3c 47 ae 0a bb 04 e3 9f bc
       0.0748937 0.014908736 -0.0021161006 -0.01951743
000390 c6 fe 1a bd 4d f5 42 bd c1 d6 96 bd 7e 37 50 3c
       -0.037840627 -0.04759722 -0.0736518 0.012708543
0003a0 fe 46 1e 3d 28 15 78 3d b4 14 27 3c 4c e5 8b 3c
       0.038641922 0.06056705 0.010197807 0.01707711
0003b0 da 1a e9 3c fd 6b af bb f2 91 8c bc 15 55 55 bc
       0.028455187 -0.0053534494 -0.017159436 -0.013020773
0003c0 d7 30 54 bc a4 23 ed 3c a6 c4 af 38 c9 5d b1 bd
       -0.012951097 0.028947659 8.381279e-05 -0.08660466
0003d0 0a 5f b9 bd e4 44 b8 bd b1 b9 98 bd 87 40 e5 bc
       -0.090513304 -0.08997515 -0.07457293 -0.02798487
0003e0 34 f4 07 bd 80 ac 2e bd 66 bc 0b bc a9 15 12 bd
       -0.033191875 -0.042644978 -0.008528804 -0.035665188
0003f0 67 a8 fb 3c 90 7a fb 3a 02 e2 c8 bc b6 79 2a 3d
       0.030719949 0.0019186307 -0.024521831 0.04161998

bias f4 [32]
000000 c7 1a dd bd 2b 7e 8e bd 99 71 da bd d5 17 0a 3e
       -0.10796123 -0.069576584 -0.10666198 0.13485654
000010 dd 7c 85 3d 7d 6b 25 bd fd d8 2b 3e a5 0c df bd
       0.065179564 -0.040385712 0.16781993 -0.10891084
000020 25 42 dd bd c4 7b 87 3d 77 cb e7 39 f1 06 88 3d
       -0.10803632 0.06615403 0.00044211347 0.06641949
000030 5e cb 90 3b 07 6f 14 be cc c6 da 3d 69 23 2e 3e
       0.0044187745 -0.14495479 0.10682449 0.17005695
000040 5b 15 0d be 5d e6 67 bd a8 1f 30 be 97 55 de 3c
       -0.13777678 -0.056616176 -0.17199576 0.027140422
000050 23 ca 26 3e 53 4a cc 3d ba 1b 8e 3d 8a fd 73 3d
       0.16288047 0.09975114 0.06938882 0.059567966
000060 4b 79 dc bc d1 7f 4f 3e ba 70 77 3e cf 03 57 be
       -0.026913306 0.20263602 0.24164096 -0.20997547
000070 e9 79 55 be f7 c1 cb bd b6 e3 bf bd 55 aa 69 be
       -0.20847286 -0.09949105 -0.09369604 -0.22818883

weight f4 [32]
000000 b1 72 83 3f 56 bc 76 3f 87 cd 82 3f 6b 7c 5f 3f
       1.0269376 0.9638113 1.0218972 0.8729922
000010 ea 60 7e 3f c8 0d 6a 3f 59 b9 86 3f b9 91 80 3f
       0.9936663 0.9142728 1.0525314 1.0044471
000020 e0 75 89 3f 4e 97 7e 3f 91 bd 84 3f 60 c3 82 3f
       1.0739098 0.9944962 1.0370351 1.0215874
000030 0d 67 4a 3f 58 69 80 3f 6a 33 7a 3f b0 45 7c 3f
       0.79063493 1.0032148 0.977347 0.98543835
000040 83 83 8d 3f 2a e8 7a 3f 9c 7e 7b 3f 12 3c 7a 3f
       1.1055759 0.98010504 0.98240066 0.9774791
000050 e3 24 7c 3f d8 30 6a 3f d6 bb 73 3f 8e 93 76 3f
       0.98493785 0.9148078 0.9520849 0.963189
000060 ad 4a 81 3f 9b 8a 56 3f 59 2d 61 3f 9a 8d 61 3f
       1.0100914 0.83805245 0.8795982 0.8810669
000070 e8 ac 71 3f cc 6b 7a 3f 40 fd 7e 3f 3b b6 80 3f
       0.9440446 0.97820735 0.9960518 1.0055612

bias f4 [32]
000000 7b 8b 0e 3e c9 8d 3a 3e 1b 03 72 3e 4d f1 f3 3e
       0.13920395 0.18218149 0.23633997 0.47645035
000010 c2 51 2b 3e 01 9f 0e 3e 19 ef 97 3d 9b 03 e6 3d
       0.16730407 0.13927843 0.07418651 0.112311564
000020 24 59 bd 3c 0c c2 6f 3e 19 1c 8b 3e a0 d7 1c 3e
       0.023113795 0.23413867 0.27169874 0.1531663
000030 e1 b5 1d 3f 76 4c d1 3e 35 07 8c 3e 4b 64 4c 3e
       0.6160565 0.40878648 0.2734925 0.19960134
000040 80 40 35 3e 6a 9d 48 3e 80 e4 50 3e 69 53 61 3e
       0.17700386 0.19591299 0.20399666 0.22004475
000050 72 3c bc bc b1 6d a1 3e 15 5c 0c 3f 82 55 81 3e
       -0.022978041 0.31529 0.54828006 0.2526055
000060 c8 6a e2 bc 25 05 77 3e 21 0a b8 3e bf fe b9 3e
       -0.027638808 0.24123056 0.35945228 0.36327168
000070 94 72 94 3e 62 59 4b 3e 7f eb 77 3d e5 51 a9 3e
       0.28993666 0.19858316 0.06052732 0.33070293

running_mean f4 [32]
000000 ca bd 8c 3b f2 9c 84 3e 0a 09 1a be 7c c8 5b 3e
       0.0042950856 0.2590099 -0.1504251 0.21463197
000010 9e 6b ec 3e 44 24 98 bd 04 eb 32 3e af c4 75 bd
       0.46175855 -0.07428792 0.17472464 -0.060002025
000020 c5 34 d2 bd 63 75 df 3e 0e 49 b8 3d 92 72 34 3d
       -0.10263971 0.43644246 0.08998309 0.044054575
000030 74 22 56 bd 10 92 f9 3d d0 2d 44 3d da 3d 7e 3e
       -0.05227895 0.12186062 0.047895253 0.24828282
000040 2c 02 d1 be 15 c5 39 bd 11 ac 7d be 06 1f 88 3e
       -0.4082197 -0.045353968 -0.2477267 0.2658617
000050 76 c0 cf 3d 84 65 9f 3d db 79 c4 bc eb 37 1e be
       0.10144131 0.077830344 -0.023983886 -0.15451019
000060 ec a8 9b bd a2 67 50 3e bf 31 5a 3e 24 ae 87 be
       -0.07600579 0.20352033 0.21308039 -0.26500046
000070 c1 42 a6 be 6c 9f cd bd bf d9 82 3b c6 c0 a2 be
       -0.32472804 -0.10040173 0.0039932425 -0.317877

running_var f4 [32]
000000 0e ce f1 3c f7 fe 8a 3d 86 70 75 3c 62 59 29 3d
       0.0295172 0.06786912 0.014980441 0.041345008
000010 35 9b ee 3d 75 be 5d 3b ff 79 f9 3b 70 58 1d 3c
       0.11650697 0.0033835445 0.00761342 0.009603605
000020 c7 e8 3e 3c 78 dd c0 3d ae b7 d9 3c be 5f 14 3c
       0.011652178 0.09417242 0.026576843 0.00905603
000030 f9 a3 ae 3c 07 79 6e 3d 53 5d 14 3c bb 0b b9 3c
       0.021318423 0.05822089 0.009055453 0.022588601
000040 e1 66 80 3d 32 90 f5 3b 5e 4c 73 3c 13 4f 6e 3d
       0.062696226 0.007493996 0.01484975 0.05818088
000050 0d 54 90 3c 25 f9 0c 3b 58 d7 21 3c c0 ef 80 3d
       0.017618204 0.0021510806 0.009878002 0.06295729
000060 0b 69 73 3c 17 81 3a 3b ef a8 8a 3b dc b3 82 3b
       0.014856587 0.0028458291 0.0042315642 0.003988726
000070 3c bb 02 3d 52 2a ca 3c ac 4b 54 3c f1 30 4a 3c
       0.031916842 0.024678383 0.012957495 0.01234077

weight f4 [32, 32, 3, 3]
000000 2c 0e df bc c2 38 48 3b ea bf 95 bd 39 9e 90 bb
       -0.027228437 0.0030551408 -0.07311995 -0.004413393
000010 24 d7 83 3c 77 1e 41 3d 3a b5 61 3c 23 8b 91 3d
       0.016093798 0.047148194 0.013776118 0.07106616
000020 98 6e 89 3d 0c 84 30 bd 7c b0 da bc d3 3e 85 bc
       0.06710547 -0.04309468 -0.026695482 -0.016265308
000030 95 80 2f bc f6 b3 b4 3c 32 55 e8 3c a2 a8 4a bd
       -0.010711809 0.022058468 0.028360937 -0.049477227
000040 6c fb 32 bc 91 03 ac 3c 4a d9 e8 3a ee 11 f0 bb
       -0.010924201 0.020997794 0.0017764952 -0.007326356
000050 61 c8 b6 bb cc 72 e9 bb 6a 8b 64 3c 39 81 b8 bc
       -0.0055780862 -0.0071242806 0.0139492545 -0.022522556
000060 2b 71 0a 3d dc 53 53 bb e4 ba 2e bc 6f 2a 49 bd
       0.03379933 -0.003224603 -0.010664675 -0.049112733
000070 5c 4e c1 3a 86 e3 81 bc 39 1d 18 3b 1f cf 88 3d
       0.0014748084 -0.015855562 0.0023210777 0.0668013
000080 8e 15 a6 3c 13 0c a1 bc 72 3f 37 3d 1d e1 8b 3c
       0.02027395 -0.019659078 0.04473824 0.017075116
000090 06 7f 0a bd 85 19 17 bd 35 3f bb bb 73 ca b4 bc
       -0.033812545 -0.03688957 -0.005714322 -0.022069192
0000a0 b4 4a 42 3c 48 27 1d 3d 54 ca 3f 3c d8 b0 90 3c
       0.011858631 0.03836754 0.011705954 0.01766245
0000b0 5c f8 ae 3d 3a 4c 72 bd b8 11 7b 3c 13 db 8d 3c
       0.085434645 -0.059154727 0.015324049 0.017316377
0000c0 32 cb 81 bc 0f 13 ac 3c 17 6f d6 bc e1 44 33 bc
       -0.015843961 0.021005182 -0.026176019 -0.010941715
0000d0 5b bf da 3b 74 a7 c4 bb d2 bf 21 3d fb 2a 9d bc
       0.0066756434 -0.0060014073 0.039489575 -0.019185534
0000e0 a6 35 04 3c b3 be cd 3d 9b a3 59 bd 1c cb 0c bd
       0.008069431 0.100461386 -0.053134542 -0.034373388
0000f0 54 a3 b1 3d a9 10 c0 3c ee 8c ac bd 20 6a 1f bc
       0.086737305 0.023445444 -0.08425318 -0.009729892
000100 72 96 d2 3b d3 e9 ae 3d 2b ac c0 3c 53 43 35 bc
       0.006426626 0.08540692 0.023519596 -0.011063415
000110 6b 31 29 bd 77 0b c5 3c 0e 2a 9d bc eb 1c 1b bd
       -0.041306894 0.024053318 -0.019185092 -0.037869375
000120 9f 2e 48 3d e2 73 31 bc ad 76 4b bd f9 a1 8c bc
       0.048872586 -0.010830851 -0.049673725 -0.017167078
000130 ff 46 73 bc 26 41 d3 bd 5a 2f e0 bd 1a 27 9c bd
       -0.01484847 -0.103151605 -0.109465316 -0.076246455
000140 24 be 07 be c5 49 7e bd 2e cd 23 bd 48 90 44 bc
       -0.13256127 -0.06208207 -0.039990596 -0.01199729
000150 99 92 64 bd a9 a0 88 bd fb 02 e4 3a ed 89 1a bb
       -0.05580387 -0.066712685 0.0017395908 -0.0023580745
000160 40 2f 6b 3c b2 d0 db 3d 06 55 aa bc 0b 61 12 3d
       0.014354527 0.10733165 -0.020792495 0.03573708
000170 b3 69 1b 3d df 85 2d 3d ce d0 e8 3c b3 1f 83 3c
       0.0379426 0.042363998 0.028419878 0.016006326
000180 c5 33 93 bc ba 52 50 3c be dc b4 3b 10 51 56 3c
       -0.017969022 0.012715036 0.0055194786 0.01308085
000190 72 cd 0a 3b ef 34 c7 bc 1a f6 9f 3b ff 6a b3 3d
       0.0021179584 -0.024317233 0.0048816325 0.08760642
0001a0 5c a3 07 3d 72 42 b4 3c a9 84 8b 3d fb cb 21 bc
       0.033114776 0.02200434 0.06812412 -0.009875293
0001b0 87 d2 0d bd d9 2c 83 bb 87 35 9c bc bd 99 2b b9
       -0.034624603 -0.004003149 -0.019068493 -0.00016365103
0001c0 d4 f9 61 3c dd 0b 4c 3c db 49 9e bc d1 92 51 3d
       0.013792474 0.012454 -0.019322326 0.051165406
0001d0 67 ce 01 3d 14 3d b4 bc ef c0 6f bc bd 13 4d bd
       0.03169098 -0.02200178 -0.014633401 -0.050067652
0001e0 a7 83 a1 bc 38 72 62 bc 5d 8e cf bc de 18 b8 bb
       -0.019716097 -0.013821177 -0.025336439 -0.005618199
0001f0 db 67 59 3d 90 49 ea 3c e7 5b 76 bb cd 5c f1 bc
       0.05307756 0.02859953 -0.00375914 -0.029463196
000200 ae 6c 0c 3d eb 20 82 3c 87 18 a3 ba da ee 2a bd
       0.034283333 0.015884837 -0.0012443223 -0.041731693
000210 28 fa c8 3c 94 5c c6 3c 29 49 41 3a 73 bb 89 3c
       0.024533346 0.024214067 0.00073732674 0.016813016
000220 14 c2 2e 3d 4a 32 76 3d d7 97 0d 3d 0a cc 30 3b
       0.042665556 0.060106553 0.034568634 0.0026977086
000230 84 ec 84 3c 08 49 15 3d b6 70 6b 3d a8 62 a8 3c
       0.01622606 0.0364466 0.057480536 0.020554855
000240 4b cb 99 bd dc 67 5b bd 1e a2 65 bd b3 24 b1 bc
       -0.07509478 -0.053565845 -0.05606281 -0.021623945
000250 91 83 c4 3c b4 79 4f bd 36 21 71 bd 43 9b 21 bd
       0.023988517 -0.050653175 -0.058869563 -0.03945471
000260 fa 4a 34 bd 8c 85 22 bc de 70 12 3d fe 56 80 3c
       -0.044016816 -0.009919535 0.03575217 0.015666481
000270 68 0b d4 3c 26 f0 87 bc ba 43 cf bc 01 7c 3d bb
       0.025884345 -0.016594004 -0.02530085 -0.0028913023
000280 c7 b3 86 bd fe c2 5e bd 1d 67 90 3d a1 36 21 3c
       -0.065772586 -0.054385178 0.07050917 0.009839685
000290 73 e2 39 3d 06 d9 a9 3d d6 26 a4 3c 6c 53 b2 3c
       0.045381974 0.08293347 0.02003805 0.021768294
0002a0 55 b5 cd 3b 37 9b 96 3b 49 69 b7 3c 9c 22 44 bc
       0.00627772 0.00459614 0.022389071 -0.011971142
0002b0 20 eb fc bb 7e bf 23 bc bc 2f 60 3c 94 bf be bc
       -0.007718459 -0.009994386 0.013683256 -0.023284711
0002c0 0a 03 18 3b 82 12 07 bc 66 00 41 bc b2 eb e0 3c
       0.002319517 -0.008244159 -0.01177988 0.027456138
0002d0 8b 2d 69 3c bb a8 30 3d 1f 12 0d 3d af a0 5b 3c
       0.01423205 0.043129664 0.03444111 0.013405009
0002e0 04 7f 62 3c b1 fe c5 bc 9d 2b 11 bc 43 a9 07 3d
       0.013824228 -0.024169298 -0.008860496 0.033120405
0002f0 84 0c 17 bd e5 5f b9 3b 48 69 d4 3b 11 b8 03 3d
       -0.03687717 0.0056571835 0.006482277 0.03215796
000300 a9 0e d9 3c 37 8f 13 bc 7e cf 8f bc e2 fb 58 3c
       0.026496248 -0.009006313 -0.017554995 0.013243647
000310 a8 8b 65 ba 47 c1 c6 3b cb f5 84 3c 65 8e 1d 3d
       -0.0008756467 0.006065521 0.016230484 0.038465876
000320 f0 a5 2f 3c e8 28 4b bc ab ad 6b bb a0 4e 71 bd
       0.010720715 -0.0123998895 -0.0035961668 -0.058912873
000330 32 bb bd bc 2a af a2 bc 22 04 62 bd f0 70 ab ba
       -0.02316055 -0.019858915 -0.055179723 -0.0013079923
000340 71 c8 a7 bc c3 dc 15 3c 1d 5a 25 bd 85 5a cd bb
       -0.02048132 0.009146872 -0.04036914 -0.0062668943
000350 a8 7e f2 bc a8 25 d8 bc 8a d6 07 bd d0 0e 71 3b
       -0.02960141 -0.026385143 -0.033163585 0.003678251
000360 00 77 14 3d d4 a6 74 3d 6b 39 20 3d c0 02 5b 3d
       0.0362463 0.059729412 0.039117258 0.05346942
000370 50 46 66 3d 68 59 af 3a dc 64 54 bc 65 0c c0 bc
       0.0562194 0.0013378086 -0.0129635 -0.02344341
000380 a0 eb c4 bd c0 fc 4f 3d 9e 4e 08 3d a4 2a 6d 3c
       -0.096152544 0.05077815 0.0332781 0.014475498
000390 7b b2 97 3d 7f 08 44 3d 7e 01 29 3c 46 bb 61 3d
       0.07407089 0.047859665 0.010315297 0.05511024
0003a0 38 39 02 bd 6f 91 2b bd a3 ca c7 bc 3d 2e c0 bc
       -0.03179285 -0.041886743 -0.024388617 -0.023459548
0003b0 a4 0b 52 bd a3 c5 1f 3d 36 f8 78 3d 33 f9 91 3c
       -0.051280633 0.03900684 0.060783587 0.017819023
0003c0 e9 80 aa bc ce 11 5f bc 09 71 94 bd ba 5a b1 3b
       -0.020813422 -0.013615085 -0.07248122 0.005412427
0003d0 f4 5f 7a 3d 99 40 9e bc 59 b6 9f bb 71 e1 7a 3b
       0.061126664 -0.019317912 -0.0048740325 0.0038281346
0003e0 55 a4 7a bd 66 f2 04 3d 52 22 1c 3d f0 f0 2f 3d
       -0.061191875 0.03245773 0.038118668 0.042954385
0003f0 cf c1 37 3d 93 9b 50 3d 60 29 13 3d 2b 99 da 3c
       0.044862565 0.050929617 0.03592813 0.026684364

bias f4 [32]
000000 02 79 45 3d 1a 34 76 bd d5 7e 89 bd e8 37 4a 3d
       0.048211105 -0.06010828 -0.067136444 0.049369723
000010 a9 40 8f bd 6b cf 59 bb 80 7e 9e bc 5b e1 53 bd
       -0.06994755 -0.0033235203 -0.01934743 -0.051728588
000020 68 3c 65 3d 92 0e 35 bd f1 2b ab 3c a3 3b 96 3c
       0.05596581 -0.04420335 0.020894976 0.018338984
000030 58 f1 40 3b da c4 40 bd 61 a4 77 bd 1d bb 52 3d
       0.0029440727 -0.047062732 -0.0604595 0.051447976
000040 e2 0e c8 bc 1f 0b b2 bd c8 05 64 bd 43 2f 3f bd
       -0.02442116 -0.086935274 -0.055669576 -0.04667593
000050 ad 9e 2e 3d 9d 0c 2d bc 6e 6b de 3c 05 8c 88 3d
       0.042631794 -0.010562089 0.027150836 0.066673316
000060 80 b1 fa bc b0 f8 a7 3d 4c 6a 04 bd 2f 69 c4 3b
       -0.030602217 0.0820173 -0.032327935 0.005993984
000070 b6 39 3a 3d 67 c8 2e 3b bf 00 db bb 71 70 92 bd
       0.045465194 0.0026669742 -0.0066834386 -0.07150353

weight f4 [32]
000000 06 91 84 3f 7d ed 64 3f a1 28 86 3f 07 71 84 3f
       1.0356758 0.8942488 1.0481149 1.0346993
000010 2c 9d 7b 3f 2c 84 65 3f dd d3 87 3f 41 d7 76 3f
       0.982867 0.89654803 1.061153 0.964222
000020 a1 17 82 3f e0 49 5d 3f 3a 08 7c 3f 4e 0c 72 3f
       1.0163461 0.8644085 0.9845005 0.94550025
000030 e8 53 6d 3f 5b 7e 87 3f 8f b1 7d 3f 4b ee 6f 3f
       0.92706156 1.0585436 0.9909906 0.9372298
000040 f9 20 7a 3f 68 2f 71 3f 0d 79 6d 3f c3 13 86 3f
       0.9770656 0.9421296 0.92762834 1.0474781
000050 28 65 70 3f 76 6b 6c 3f 8e d5 80 3f 52 11 80 3f
       0.9390435 0.9235147 1.0065172 1.0005286
000060 ab 4b 8e 3f da a5 82 3f cb d3 89 3f 7d 5d 7a 3f
       1.1116842 1.0206864 1.0767759 0.977989
000070 20 6e 79 3f b7 e0 61 3f 90 21 85 3f 6b f9 77 3f
       0.9743366 0.8823351 1.0400867 0.96864957

bias f4 [32]
000000 e7 40 ea bc 93 25 ee 3e 3a d5 48 3e 6f 5b 59 3e
       -0.028595401 0.46513042 0.1961259 0.21226285
000010 69 0b 3b 3e 60 d2 e7 3e 5f 5c f7 3d 00 23 c3 3e
       0.18266071 0.4527769 0.12078165 0.3811264
000020 97 2e a6 3e 45 45 e5 3e a3 06 90 3e 87 7c c2 3e
       0.3245742 0.4477941 0.28130063 0.37985632
000030 1e 60 b9 3e 70 6b 7f 3e b6 7d d1 3e 4e 47 19 3f
       0.36206144 0.24943328 0.40916222 0.5987443
000040 0a 58 b5 b8 ca 1f 00 3f 00 9d 8b 3e f6 8f 3b 3e
       -8.647151e-05 0.50048506 0.2726822 0.18316635
000050 43 a8 b3 3e df e9 11 3f 42 b5 ac 3e c4 38 bc 3e
       0.3508931 0.56997484 0.3373204 0.3676206
000060 78 c5 62 3e 8c 9c 46 3e 40 49 ba 3e 05 ad 46 3e
       0.22145641 0.19395655 0.3638401 0.19401939
000070 06 40 08 3e d1 0b e8 3e 9b 82 7a 3e 9e 07 8f 3e
       0.13305673 0.45321515 0.24463885 0.279355

running_mean f4 [32]
000000 3e 98 8c 3e bd 21 08 c0 e4 a7 89 bf 9d 87 cb be
       0.27459902 -2.1270592 -1.0754361 -0.39751902
000010 b7 cf 24 3d 65 01 c3 bf 48 48 1d bc f7 0a 84 3e
       0.040237155 -1.52348 -0.009599753 0.25789616
000020 98 eb d4 3d 1f c9 dd be 00 8e 77 bf 26 d9 70 3f
       0.103964984 -0.43317506 -0.9670105 0.9408134
000030 1b 3e fd bf db b1 f2 be 46 c9 df be fb 94 8c 3f
       -1.9784578 -0.47401318 -0.43708247 1.0982965
000040 00 21 33 3f c9 6f 86 bf c9 38 99 be e3 f3 cd bf
       0.6997223 -1.0502864 -0.29926136 -1.6090053
000050 df 0d e2 bf 40 75 11 40 b7 71 8b bf 4d 76 14 40
       -1.7660483 2.2727814 -1.0894078 2.3197205
000060 8e b4 af bd 61 74 b3 bf ac 8d 72 bf 51 20 30 3f
       -0.0857936 -1.4019891 -0.94747424 0.6879931
000070 47 2c 84 be 5c 7e 82 bf 02 e5 bb bf 09 b3 d3 bf
       -0.2581503 -1.0194812 -1.4679263 -1.6539012

running_var f4 [32]
000000 9d c3 30 3f b7 d7 37 3e 78 59 c4 3e 6a b3 a6 3e
       0.6904848 0.17953382 0.3834951 0.32558757
000010 34 87 b5 3e 8c 90 c1 3e 50 88 18 3f cc 75 74 3e
       0.35454714 0.37805593 0.59582996 0.23873061
000020 9d 69 35 3f 0f 05 ba 3d 04 a1 55 3e 1b 48 84 3e
       0.7086428 0.09082996 0.20862204 0.25836262
000030 c9 62 ac 3f 9d 01 1c 3e 8b 20 c5 3e 31 58 35 3f
       1.3467647 0.1523499 0.3850139 0.70837694
000040 07 b3 c3 3e 1d 08 51 3e cb 2e 8c 3e fc 27 02 40
       0.38222525 0.20413251 0.2737945 2.0336905
000050 8d 2a fe 3e 35 53 b1 3e 34 82 04 3f 49 b8 e0 3e
       0.4964184 0.34633794 0.51761174 0.43890598
000060 30 31 24 3f df e2 c4 3e 14 ac f9 3e c3 e7 9a 3e
       0.64137554 0.3845434 0.48764098 0.30254945
000070 07 6d 64 3e 77 f3 00 3e ba 9e 33 3f e9 fe 55 3e
       0.22307216 0.12592874 0.7016407 0.20898022

weight f4 [32, 32, 3, 3]
000000 65 46 71 bc e8 47 44 3d 93 30 28 3d 72 a6 22 bd
       -0.014726256 0.047920138 0.04106195 -0.039709516
000010 a1 b3 70 bc 24 2f 55 bc 20 9f 16 bd 4a b6 49 bc
       -0.014691264 -0.0130117275 -0.036772847 -0.0123115275
000020 7e 2e f3 bc 06 95 aa 3c 68 fb 3f 3d e2 d7 9a bc
       -0.029685255 0.020823013 0.04687062 -0.01890177
000030 25 8a 6f bc fa fa d4 3c 71 f6 0d bd 56 7f 49 3c
       -0.014620339 0.025998581 -0.034658853 0.012298426
000040 2e 38 84 3d 57 bc b4 3d c9 60 06 3e 35 25 71 3d
       0.06456028 0.088249855 0.13122858 0.058873374
000050 0b 54 85 3d 9e ea 92 bc 8a c3 e5 3b 47 e1 df 3c
       0.065101705 -0.01793414 0.0070118355 0.0273291
000060 43 79 1c bc 3e 05 07 bd 61 87 e0 3b 28 ae f4 3c
       -0.009550395 -0.032963984 0.006852076 0.0298682
000070 b5 09 68 3c 0b 0e f8 bc 44 c9 93 bc 55 0b 87 bd
       0.014162471 -0.030280134 -0.018040307 -0.06593958
000080 f5 df 12 bd 11 04 36 3d ee 6a e3 3c fd 3f 94 3d
       -0.035858113 0.04443747 0.027760949 0.07238767
000090 03 b7 cc bc 5c ed 3b bd 08 a2 14 bd 8f ff 84 b9
       -0.02498961 -0.04588066 -0.036287338 -0.00025367408
0000a0 4c 81 a0 3c f7 5e a8 bb 49 9f 4c 3d 41 3c 8c 3c
       0.019592904 -0.005138274 0.049956594 0.017118575
0000b0 f8 85 d5 3c a4 fc 91 bd 04 4e eb 3c 6f 37 4c bc
       0.026064858 -0.071282655 0.028723724 -0.012464388
0000c0 8e c8 b5 bc d5 48 a2 3b 9a e2 7a 3c c0 05 8b bc
       -0.022190358 0.00495253 0.015312815 -0.016970515
0000d0 77 77 ff 3c e6 49 4c 3d 48 d6 95 bc ad c5 93 bb
       0.031184895 0.049875163 -0.018290654 -0.004509649
0000e0 59 aa 98 3b 3c 8c 3c bc 60 cc 17 3d 36 ff c8 3c
       0.004658979 -0.011508044 0.03706014 0.024535757
0000f0 84 81 30 bc 0c 5d 04 3d 59 ec 5f bd d3 2b 32 bd
       -0.010773066 0.0323153 -0.054668758 -0.043498825
000100 c6 71 8d 3c ad 0f 07 3d f8 f4 ca 3b ea 21 48 3d
       0.017266165 0.032973934 0.0061937533 0.048860468
000110 61 dd 97 3d 78 5d 1e bc 69 16 19 3d 6a 60 67 3d
       0.074152716 -0.009665839 0.037374888 0.056488432
000120 19 c2 f4 3c 9e b8 f4 bc 35 23 9d bc 9a 2f 63 bd
       0.02987771 -0.029873189 -0.019181827 -0.05546532
000130 8c b3 4c 3c c8 28 79 bc e0 6f 5e bd 07 2f d9 3b
       0.012493979 -0.015207477 -0.05430591 0.0066279205
000140 a1 55 61 bd a4 9c f1 bc e8 b9 fb 3c 09 37 b6 bc
       -0.055013303 -0.029493637 0.030728295 -0.02224304
000150 04 61 19 bd f6 05 09 3d 24 32 23 bc 8c 8c 9d 3b
       -0.037446037 0.03345295 -0.009960685 0.0048080143
000160 85 22 fd 3c 50 02 78 3c 24 3d 8b 3d be c9 9f bc
       0.03090025 0.01513727 0.06798771 -0.019505378
000170 9a 9c d0 bc 63 95 cd 3b ec a2 e4 3a 3e 29 dc 3c
       -0.025465298 0.006273912 0.0017443574 0.026875135
000180 8b b7 4e bb 3a e9 fd ba 22 8c 8d 3d 4c 98 04 bd
       -0.0031542506 -0.0019371875 0.06911494 -0.032371804
000190 d6 e8 23 3d d9 54 53 3c 92 d7 c3 bc 76 63 39 3d
       0.04001697 0.012898647 -0.023906503 0.04526087
0001a0 9e 1f b3 bc 0a 4d a7 bc 78 4d 27 3d 6b fe 28 bd
       -0.021865662 -0.020422477 0.040845364 -0.041258257
0001b0 60 66 0f bd d8 70 2f bd d5 40 9a bd 16 cd 19 3c
       -0.03500974 -0.042832226 -0.07531897 0.009387275
0001c0 b6 b4 30 bd cf b5 6f bd 71 72 88 3d f2 87 2a 3c
       -0.04314109 -0.058522996 0.06662453 0.010408388
0001d0 58 6e b1 3c 72 66 78 3d b8 71 23 bd 72 29 02 3b
       0.021659061 0.060644574 -0.039903373 0.001986113
0001e0 02 04 33 3d a7 41 0c bd c6 c7 20 3d 27 0f a5 3c
       0.043704994 -0.0342423 0.03925302 0.020148827
0001f0 87 6f 4d bd 57 ab ad ba 08 29 9a bd b1 bc 32 3c
       -0.05015519 -0.0013249916 -0.07527357 0.010909245
000200 af d1 13 3d 03 92 fb bb 03 dc 3e bd 64 82 8b bb
       0.03608864 -0.007677318 -0.04659654 -0.004257487
000210 23 5b b6 3c 01 4f 04 3c 33 42 bb 3c 7d 70 b6 bc
       0.022260254 0.008075477 0.022858715 -0.022270435
000220 78 1c 0d bd c9 c0 53 bd 00 5f 50 bd be 3d 56 bc
       -0.034450978 -0.051697526 -0.05087185 -0.013076244
000230 8c 3e 0f bd 46 5d 0f 3d 44 d1 07 3d bf b4 2f bd
       -0.03497176 0.03500106 0.033158556 -0.042896982
000240 34 60 39 3d d5 ab e3 b9 b1 e7 28 3d 35 06 77 3d
       0.045257762 -0.0004342484 0.041236583 0.060308654
000250 d9 38 e1 3c 38 1b 85 3c 93 c2 21 3d 1a d0 d9 3c
       0.027492927 0.01624833 0.0394922 0.026588488
000260 5e 99 0b 3d 7b 78 7b bd 74 33 fc bc 70 11 b2 bd
       0.03408181 -0.061394196 -0.030786254 -0.08694732
000270 c8 64 1d 3c f6 e5 94 3c 71 dc eb 39 3c 98 f6 3c
       0.009606548 0.01817606 0.00044986935 0.030101888
000280 ad 0f 8b 3d 5b 64 ab 3d db e7 33 3d 8e c1 86 bd
       0.06790099 0.08368751 0.043922286 -0.065798864
000290 82 ca 7a bc 05 61 68 3c b2 4b d6 bb 9a 4a 41 3d
       -0.015307071 0.0141832875 -0.0065397853 0.047190286
0002a0 63 ff aa 3c 0e cf 59 3d 2d 26 27 3d ba ff 3b 3d
       0.020873731 0.05317598 0.04080789 0.045898177
0002b0 c4 bf c1 3c 17 d6 b4 bc 1f b3 2e 3d 73 7a 79 3a
       0.023651011 -0.022074742 0.042651292 0.00095168425
0002c0 2e fe af bd 2f 06 31 3e 92 5d ef 3d 10 a4 3e 3d
       -0.08593403 0.17287515 0.11687769 0.04654318
0002d0 5d 4d 9c bc 6d 11 78 bd bb 93 c1 bd 20 b5 a2 3b
       -0.019079858 -0.060563494 -0.094520055 0.0049654394
0002e0 b1 4d 90 bc 31 d2 97 bb ee f3 0d bd cf 1f dc b9
       -0.017615171 -0.004633211 -0.034656458 -0.0004198537
0002f0 83 3a 8a 3c 28 9a 42 bd b2 45 d2 bc 5c 66 19 3a
       0.016873604 -0.047510296 -0.025667999 0.00058517396
000300 6b eb 04 bc ad 5a eb 3c e8 ef 55 3c 81 ca 64 3d
       -0.008112769 0.028729761 0.013057686 0.055857185
000310 5a 00 97 3d 6c a9 f6 3d 3b 5e a0 bd 7c f6 64 bd
       0.07373114 0.120440334 -0.07830473 -0.05589913
000320 00 e7 11 be 6d 71 24 3c f8 3e 4d bd 15 5a 8d bd
       -0.14248276 0.010036808 -0.05010888 -0.069019474
000330 d4 f2 7d 3c d7 66 eb bb ce 4d 81 bd 93 01 8d bd
       0.015499789 -0.0071838903 -0.06313668 -0.06885066
000340 12 6d 3d bd 4a f7 e8 bd 92 3f ac bc 86 37 22 bd
       -0.046246596 -0.11375292 -0.021026406 -0.039603733
000350 9a f0 a4 bc 62 b9 05 bc 04 d6 0e bc 04 9f f9 bc
       -0.020134259 -0.0081618745 -0.0087180175 -0.030471332
000360 ad cb f5 3c 56 80 25 bc de 2b 5b bd 5d f1 68 3d
       0.030004347 -0.010101398 -0.053508632 0.056870807
000370 ab ce b1 ba 52 d7 81 bc 88 3c 4a 3d 01 95 19 3d
       -0.001356562 -0.015849743 0.049374133 0.037495617
000380 74 e7 b6 3c cd 75 10 bd 97 99 b9 bc 37 50 c2 3c
       0.022327162 -0.035268594 -0.022656245 0.02371989
000390 8b 58 55 bd df c3 a7 bc 69 f9 ef bc 7b 90 08 3c
       -0.052086394 -0.02047914 -0.029293733 0.008335228
0003a0 65 3c 3e 3d 25 82 22 3d 0c cb da 3c bd 2d a9 b9
       0.046444315 0.039674897 0.026708148 -0.0003226827
0003b0 7b 25 59 3c 86 c6 2c bd 0d 2c be bc 17 4d 4a bd
       0.013253565 -0.042181514 -0.023214364 -0.049389925
0003c0 95 df c4 bc 87 e7 85 bb 06 07 04 bd d7 72 64 bd
       -0.024032393 -0.004086438 -0.03223326 -0.055773582
0003d0 d2 de 3d bd 8d 4d 4c bd 3f 51 f0 bc 7f 9a 08 3b
       -0.046355076 -0.049878646 -0.029335616 0.002084404
0003e0 f4 1a 5d bd 86 07 60 3d 2a 90 e4 ba f2 2b e4 bc
       -0.053980783 0.054694675 -0.0017437984 -0.027852986
0003f0 28 51 1c 3d 2d 63 60 3c 8a 0c 9d 3d 54 38 ed 3b
       0.038163334 0.01369552 0.07668407 0.007239381

bias f4 [32]
000000 6c 21 17 3d 4c 24 07 bd bb fa 11 3d 46 f8 84 3b
       0.036897108 -0.0329936 0.035639506 0.004057917
000010 e0 c8 83 3c b9 d9 1a 3c f9 08 2c 3d 6b 1f 51 bd
       0.016086996 0.009451323 0.042000744 -0.051055353
000020 af 96 f6 bc 72 2b 8e 3a a7 22 12 3d be c0 9e bb
       -0.030101148 0.0010846688 0.03567758 -0.004844754
000030 0e 9d 3c bd 5d c1 04 3d 0c 04 c5 bc db c9 8d 3c
       -0.046048217 0.032410968 -0.024049781 0.017308166
000040 db bf 42 bc 61 e6 d9 3b 83 6a 7a 3d 8b f2 0b bd
       -0.011886562 0.0066497778 0.061136734 -0.034166854
000050 cb a3 70 bc 1f ac 7d 3d d5 ee 03 bc 52 8e 1e bd
       -0.014687489 0.061931726 -0.008052547 -0.038709946
000060 56 4b 64 bc 1c 81 0d bd ef 8d d9 bc 98 04 e2 bc
       -0.013933977 -0.034546956 -0.026556937 -0.027590081
000070 37 6d 15 3d 39 82 3d bd 46 01 bb bb 39 6f ff bc
       0.03648111 -0.046266768 -0.005706939 -0.031180965

weight f4 [32]
000000 41 d9 62 3f 06 32 6f 3f a5 88 75 3f a0 f4 72 3f
       0.88612753 0.93435705 0.9591163 0.9490452
000010 ec fa 71 3f d3 06 7b 3f 49 d1 7f 3f 60 a2 59 3f
       0.945235 0.9805729 0.9992872 0.8501339
000020 a4 42 7e 3f fc 41 72 3f de 70 66 3f bb 17 7c 3f
       0.99320436 0.94631934 0.9001597 0.9847371
000030 b7 e8 89 3f 28 72 7a 3f 86 54 80 3f 41 32 87 3f
       1.0774144 0.9783044 1.0025795 1.0562211
000040 ed 41 64 3f ea 80 75 3f 99 91 7a 3f 6c 15 85 3f
       0.89163095 0.9589983 0.97878414 1.0397162
000050 45 c2 77 3f d5 9b 72 3f cc 54 74 3f c6 e3 63 3f
       0.96780807 0.9476903 0.9544189 0.8901943
000060 1f 23 82 3f 89 28 79 3f 98 14 62 3f a3 f4 80 3f
       1.0166968 0.97327477 0.88312674 1.0074657
000070 b0 e3 5c 3f aa e1 80 3f a6 ca 62 3f ec ab 6b 3f
       0.86284924 1.0068867 0.88590467 0.92059207

bias f4 [32]
000000 5c e7 8a 3e db 99 83 3e 82 54 4f 3e e2 83 a1 3e
       0.27129638 0.2570332 0.20247081 0.3154593
000010 58 1e b9 3e de ff 3d 3d b9 9f 2b 3e 89 f6 0b 3f
       0.36155963 0.046386592 0.16760148 0.5467306
000020 6f d5 55 3e 6e 6f 9d 3e ec 69 b4 3e 4d 55 c7 bd
       0.208822 0.30749077 0.35237062 -0.09733067
000030 ba ba 8c 3e 13 2f 77 bd f6 da a7 3e 78 40 52 3e
       0.2748621 -0.060347628 0.3278424 0.20532405
000040 65 0c 8b 3e d6 b7 ff 3d bd 6c 90 3e f6 53 69 3e
       0.27157894 0.12486236 0.2820796 0.22785935
000050 74 9c 4d 3e 34 83 c9 3e ae d4 79 3e 3f fc 11 3f
       0.20079213 0.39357913 0.24397537 0.5702552
000060 df f1 9e bc 29 af 6f 3e c4 d0 08 3f 42 2e 12 be
       -0.019402442 0.23406662 0.5344355 -0.14275458
000070 75 a8 28 3f c1 6d 3c 3d 03 b1 19 3f 53 aa 92 3d
       0.65882045 0.046003107 0.60035723 0.07161393

running_mean f4 [32]
000000 24 9f 11 3d 0d 62 d9 3e a7 04 60 bf 00 69 5a 3f
       0.03555216 0.4245762 -0.875071 0.8531647
000010 5b 55 17 c0 a6 77 29 3d 8e 59 7e bf 2a ee 21 c0
       -2.3645847 0.04137387 -0.993554 -2.5301614
000020 11 22 d5 bf 07 48 e4 be 27 0b 8e be e9 e6 09 c0
       -1.6651021 -0.44586203 -0.27742884 -2.1547186
000030 de 1b 29 bf cd 2c 69 3d 78 65 65 bf d3 de b4 3d
       -0.66058147 0.05692749 -0.89607954 0.08831563
000040 fc e6 a1 be 1b 5d 7e 3e b6 bc 81 bf 6e 89 8c bf
       -0.3162154 0.24840204 -1.0135715 -1.097944
000050 cc cf 8a be 72 b5 85 bf 71 ec 52 3f 71 f0 16 bc
       -0.2711166 -1.0445998 0.8239203 -0.009212599
000060 f6 2f 86 bf 81 a7 42 bc f4 b6 28 bf d5 81 35 3f
       -1.0483387 -0.011880756 -0.65904164 0.7090123
000070 ab 8e ba 3e f7 9c cc 3f 43 c9 80 bf ba 7f 91 be
       0.36436972 1.5985402 -1.006142 -0.2841776

running_var f4 [32]
000000 36 e7 88 3e 36 75 13 3f 69 fa 47 3f 8b e4 66 3e
       0.267389 0.57600725 0.7811647 0.2254812
000010 ed 3c 12 3f 90 f0 16 3f 41 22 d4 3e 20 fa a4 3e
       0.57124215 0.5896082 0.41432384 0.3222208
000020 43 3b 9e 3f 94 0f e8 3e 73 30 e2 3e 75 ed 78 3e
       1.2361835 0.45324385 0.4417759 0.24309333
000030 71 9c 93 3f 71 2f 9e 3e 8e 1f 04 3f c4 69 55 3f
       1.1532117 0.3089557 0.5161065 0.8336451
000040 86 80 b3 3e 5f a2 93 3e a0 37 50 3f 97 58 63 3f
       0.35058993 0.28834817 0.81334877 0.8880705
000050 bd bd 9e 3e a3 4a 1b 3f cb 23 d4 3f 67 39 21 3f
       0.31004134 0.6066076 1.6573423 0.62978214
000060 84 d5 9e 3e a4 16 b8 3e be 7d 66 3e 36 29 d4 3e
       0.31022274 0.35954773 0.22508904 0.4143769
000070 2f d6 48 3e 5e e0 06 3f 1a e3 9a 3e 98 5b af 3e
       0.19612955 0.5268611 0.3025139 0.34249568

weight f4 [32, 32, 3, 3]
000000 78 ba 67 bc 52 dd bb bc 1b ec fd bc 4f a0 5d bc
       -0.014143579 -0.022932682 -0.030996373 -0.01352699
000010 e9 a5 0d 3d 25 74 92 3b 1b f1 a0 bc b1 a7 9d bc
       0.034582052 0.004469412 -0.019646218 -0.019245
000020 1c f2 04 3d 86 69 46 bd d8 88 98 3b 0a 67 23 bd
       0.032457456 -0.04844048 0.004654985 -0.039893188
000030 71 87 1d 3c a6 f7 9c 3c f2 75 d0 3c c6 ea cc 3c
       0.009614811 0.019161057 0.025446866 0.025014292
000040 d3 10 86 3c 00 f8 f0 3c 6c e9 3d bd a1 d1 3e bd
       0.016365444 0.02941513 -0.046365187 -0.046586636
000050 22 21 2f bd 40 8c 8d bc 0e 43 80 bc 66 b4 cd bc
       -0.042756207 -0.01727879 -0.015656974 -0.025110435
000060 4b 25 0a bd 89 af 16 bd 0f cb 92 bc f3 fd 5b bc
       -0.03372697 -0.036788497 -0.017919092 -0.013427245
000070 54 75 b0 3c 51 d2 b7 3d 15 56 4a 3b d7 ee 55 3d
       0.021540321 0.089756615 0.0030874063 0.05222973
000080 9b 2f 4e 3c 59 4d 0d bc ce bb 03 3c c9 88 9a bc
       0.012584592 -0.008624398 0.008040382 -0.018864052
000090 29 db ec 3b d8 74 1a 3d 01 57 17 3c 9a 95 ea 3c
       0.0072282744 0.037709087 0.009237052 0.028635789
0000a0 81 5f 1f 3c 05 87 8c 3b 6f 87 06 bc c6 96 9f bc
       0.00972736 0.0042885565 -0.008211001 -0.019481074
0000b0 fc 49 2e bd 9f 1d 0f 3d 41 05 3a 3c 5c 50 e2 bb
       -0.042551026 0.03494036 0.011353792 -0.0069065522
0000c0 ba aa 3f 3d 45 48 98 bc 71 5b 5d 3c 32 bc f8 3c
       0.046793677 -0.018589148 0.013510571 0.030363176
0000d0 09 98 d0 bc 70 0f cd 3c d2 ca 3f bc 45 f6 68 3d
       -0.025463121 0.025031775 -0.011706071 0.056875486
0000e0 24 8e a7 3d 6d cd 91 bc 23 c1 38 38 f6 5d 39 3d
       0.08181408 -0.01779815 4.404889e-05 0.045255624
0000f0 94 d5 d7 ba 26 1e b0 bb 6b d2 e5 3a 7a 85 2b bd
       -0.001646685 -0.0053746877 0.0017534023 -0.04187534
000100 cd 64 32 bd 76 f6 70 bd b0 82 d1 bc f0 dd c2 bb
       -0.043553162 -0.058828793 -0.025575012 -0.005946867
000110 9b 53 33 bd 62 0f 9c bc 4a d5 2e bd b4 cb c1 bd
       -0.043780904 -0.019050304 -0.042683877 -0.094626814
000120 10 f4 72 bc 7b 4c 82 3d b1 e9 34 3d fd 23 10 3d
       -0.014828697 0.06362244 0.044168178 0.03519057
000130 5d f4 89 3c f1 c6 37 3d 3d 5d f6 bc f6 ea 90 3c
       0.016840154 0.04486746 -0.030073756 0.017690163
000140 66 8c 19 3d 81 10 b2 3d 8d 83 a9 3b 22 18 91 3b
       0.03748741 0.08694554 0.005173153 0.0044279257
000150 69 8f 24 3c bd 0e 7e 3a c7 51 d3 bc e0 89 84 bd
       0.010043957 0.0009691527 -0.02579583 -0.0647161
000160 ca 54 81 bd 0a 82 9d bd 38 14 63 3c 57 f4 1c 3a
       -0.06315 -0.076908186 0.013859801 0.0005987337
000170 ab dc 9a bc a3 13 12 3d 68 a0 68 bc 4a 81 86 3b
       -0.01890405 0.03566326 -0.0141984 0.004104768
000180 c2 98 97 3d 0e d7 fb 3c 04 d2 d2 3c e7 02 73 3c
       0.07402183 0.030742195 0.025734909 0.014832235
000190 8f fc 1b 3d 2b 8c a2 3d 38 50 d4 ba b2 18 8c bb
       0.038082656 0.07936891 -0.0016198223 -0.004275405
0001a0 d7 48 b0 3d 24 1c a0 ba 70 e9 de bc 68 f6 c8 3c
       0.08607643 -0.0012215418 -0.027210921 0.024531558
0001b0 8b d3 47 bd d3 11 ba 3b 3a c7 14 bd a9 b8 2c bc
       -0.048785727 0.0056783943 -0.03632281 -0.010542073
0001c0 6b 9b 7b bc 5f 34 7c bc b3 1c 80 bb 36 17 17 3c
       -0.015356879 -0.015393346 -0.003909671 0.0092218425
0001d0 24 12 a8 bc 26 f2 f9 3a bb 2a c1 bb ce 97 9f bc
       -0.020516463 0.0019069358 -0.0058949864 -0.019481566
0001e0 28 ea 80 3c 84 d6 f9 bc b8 16 84 bd 69 ac 6e bd
       0.015736654 -0.030497797 -0.06449646 -0.058269892
0001f0 9f 24 ce bd f8 aa ee bd 6b ac 3d bd 0d 3e 18 bd
       -0.10065579 -0.116537035 -0.04630701 -0.03716855
000200 c9 c2 3c bd d8 c1 18 bd 93 15 a6 bb a7 c7 f3 bc
       -0.0460842 -0.03729424 -0.00506849 -0.029758288
000210 7f 12 2e bd 63 9e 94 bc 29 10 23 bd 7a 3c dc 3d
       -0.042498108 -0.01814193 -0.039810333 0.107537225
000220 00 ff b3 3c 03 04 92 3d 38 ea c1 3c 71 01 a1 3c
       0.02197218 0.071296714 0.023671255 0.019654008
000230 d3 7a cf 3c c9 53 d7 3b 3a 79 c6 3b 24 9f ee 3c
       0.025327122 0.0065712673 0.006056932 0.029128619
000240 78 0e b5 bb 47 a1 10 3c f7 02 ab bc 2f 54 13 bd
       -0.0055254065 0.008827514 -0.020875437 -0.035968956
000250 16 12 c1 3b 1b 21 a7 bd 8f de 58 bd f7 9b a2 3a
       0.0058920486 -0.08160611 -0.052946623 0.00124061
000260 4d 92 39 bd 0f 56 81 bd 53 62 30 ba f4 af 10 3c
       -0.04530554 -0.063152425 -0.00067285186 0.008831013
000270 b6 0b ba bc 64 a4 d2 bb 6b 54 b7 bc ea 04 0c bd
       -0.022710662 -0.0064282883 -0.02237912 -0.034184374
000280 a5 88 f5 bc 2a 4d 0f bd 06 2c 90 3d 67 f7 81 3d
       -0.029972384 -0.0349857 0.07039647 0.063460164
000290 ec b0 d0 3d c2 3a cc 3c 9d e7 37 3d 05 a7 40 3d
       0.10189995 0.024930362 0.044898618 0.047034282
0002a0 e2 ea 06 3d d4 0a da bb 0d bc 73 3d 4c 15 37 bd
       0.032938845 -0.006654123 0.05950551 -0.044698045
0002b0 73 c9 07 bd 64 0e c0 bc 1c f3 42 bd f9 f7 d3 3b
       -0.0331511 -0.023444362 -0.04759513 0.0064687696
0002c0 3f e5 8b bc fc 7b 5b bd 8b bf 8b bb 35 cd 66 bc
       -0.017077086 -0.053585038 -0.004264777 -0.014087011
0002d0 cf 06 90 3b c8 09 90 3c df 3b 49 3d 1c 01 b7 3c
       0.004395343 0.017582789 0.049129363 0.022339396
0002e0 a5 d6 94 3c c0 00 8f 3b b6 7f cb bc 9f fd 8e bc
       0.018168757 0.004364103 -0.02484117 -0.01745492
0002f0 c3 d3 5d bd 37 65 d4 bc 11 e4 f4 bc 41 6b cf 3c
       -0.05415703 -0.02592717 -0.029893907 0.025319697
000300 09 d2 a9 bc bc 53 ca 3c 25 b9 2e bc 2e 0b 64 3c
       -0.020730035 0.02469813 -0.010664259 0.013918681
000310 43 7b ed 3b 42 66 1b 3d f9 90 e0 3c 8a 0c e2 3c
       0.00724736 0.037939318 0.027412878 0.02759387
000320 45 4f 48 3c 41 95 6b 3c c3 0c a4 bb 11 0a 5a 3d
       0.012225931 0.014378847 -0.005006404 0.053232256
000330 6c df b3 bb c5 ca 65 3d 79 d7 83 3d 43 e4 b5 3c
       -0.0054892804 0.05610158 0.064375825 0.02220357
000340 18 24 f2 bc 44 72 c7 3c 64 03 47 bc 3a 15 9b 3c
       -0.029558226 0.024346478 -0.0121468045 0.01893102
000350 1f ce 4a 3c 00 7d f5 3c 4f b4 86 3c a1 36 b6 3d
       0.012378245 0.029966831 0.0164434 0.088971384
000360 57 12 77 3d 78 15 39 3d a4 0f 1c bd df 1e 55 3d
       0.060320225 0.04518649 -0.038100854 0.052031394
000370 93 0c ba 3c cc 7d b4 3c ed 65 0b 3c e2 0f bc 3c
       0.022711074 0.02203264 0.008508188 0.022956792
000380 d3 46 a4 3c 19 7b 56 bd 16 de 91 3c 4e 6a 9c bc
       0.020053303 -0.05236349 0.017806094 -0.019093659
000390 3c 27 ab bc 63 7c e2 3b 5f 40 07 3d 71 0d 89 ba
       -0.020892732 0.0069118007 0.033020373 -0.0010456276
0003a0 e3 e9 96 3c 86 b7 24 bc 9e a1 9a bb 4f 06 2a bd
       0.018422073 -0.010053521 -0.0047189733 -0.041509923
0003b0 29 7b a0 bd b9 9a 3b 3c 1d f0 64 bd b2 1f 0a bd
       -0.07835991 0.011450463 -0.055893052 -0.033721633
0003c0 17 ec 6c 3d 5a 86 2c 3d aa f8 36 3c fd 8a d4 bc
       0.05784234 0.042120315 0.011167685 -0.025945181
0003d0 4f ea 63 bd 29 30 0f bd c7 03 b5 bc af 52 11 bb
       -0.055643376 -0.03495804 -0.022096528 -0.0022174527
0003e0 7a ab bc bc 02 fc 44 bc 85 1c 01 bd b3 1c f7 bc
       -0.023030985 -0.012022974 -0.03152134 -0.030165052
0003f0 85 d7 07 3c 77 f1 f4 ba 77 6c f8 bc 87 53 d3 3c
       0.00829113 -0.0018687685 -0.030325158 0.025796665

bias f4 [32]
000000 ef e2 a6 bd 3f 38 59 3c e8 fb dc bb ac 52 62 3d
       -0.08148753 0.013258039 -0.0067438968 0.055254623
000010 cb ce bb bc ad 4a 52 3d d6 7d aa 3d d9 cb 9f 3d
       -0.022925755 0.051340748 0.083247826 0.07802553
000020 9d 27 14 3c 32 29 66 bd c0 4c 84 3d a0 1d a5 bd
       0.009042648 -0.05619163 0.064599514 -0.08062291
000030 58 65 88 3d b5 34 b5 3c 9f 66 21 3b 71 b8 93 bd
       0.06659955 0.02211986 0.0024627817 -0.07212914
000040 02 49 b5 3c b8 fb 73 bd 08 29 11 bd c2 9a 21 3c
       0.02212954 -0.05956623 -0.03543952 0.009863557
000050 93 5f 5d 3d 00 c4 7a 3d 5f 68 ae bd 31 5b 31 3d
       0.054046225 0.061222076 -0.08516001 0.043299858
000060 65 35 39 bd e9 64 a5 bc 68 09 a2 bb cd 53 c2 3c
       -0.045216937 -0.02018972 -0.004944969 0.0237216
000070 be 21 b9 3d 1d 5d 1f 3b 73 09 d4 3c d3 3f dc 3b
       0.09039639 0.0024316974 0.025883412 0.0067214756

weight f4 [32]
000000 b4 67 8d 3f f8 fc 88 3f 73 07 86 3f b5 b1 83 3f
       1.1047273 1.07022 1.0471023 1.0288607
000010 e1 74 84 3f 01 a3 8b 3f 9a 62 88 3f fe 8d 7b 3f
       1.0348169 1.090912 1.0655091 0.9826354
000020 c5 6b 75 3f 78 56 9e 3f b0 ab 8a 3f f9 5a 88 3f
       0.9586757 1.2370138 1.0833645 1.0652763
000030 55 b5 8b 3f 33 b5 8a 3f 4c 8d 7d 3f 1d 84 8f 3f
       1.0914713 1.0836548 0.99043727 1.1212193
000040 eb b7 8d 3f c8 da 74 3f 44 41 85 3f 0c 23 81 3f
       1.1071752 0.95646334 1.0410542 1.008882
000050 e3 e2 81 3f 61 1b 87 3f 1e c4 91 3f f9 bc 82 3f
       1.0147365 1.055523 1.1387975 1.021392
000060 9e c5 81 3f 2f bd 84 3f a6 97 83 3f 13 58 84 3f
       1.0138433 1.0370234 1.0280654 1.0339378
000070 44 2c 94 3f 31 ab 83 3f d8 36 88 3f cf 02 7d 3f
       1.1576009 1.0286618 1.0641737 0.9883241

bias f4 [32]
000000 2c fa c1 be 0e a7 80 3e cb 43 eb be d2 c5 91 bb
       -0.37886178 0.25127453 -0.4595016 -0.004448631
000010 49 e5 3f be ee fc a9 3e 10 b7 1f be bb 11 ff 3e
       -0.18739809 0.33200783 -0.15597177 0.49818215
000020 88 24 87 be 4b 3c 1e be 82 62 f2 3e e2 ca 26 be
       -0.2639506 -0.15452687 0.4734078 -0.16288331
000030 41 41 a8 3d d6 42 ba 3e 34 49 e3 be 44 00 d0 bc
       0.08215571 0.36379117 -0.44391787 -0.025390752
000040 45 b8 93 be bc ea 86 bd ce 38 05 be 0b d4 65 be
       -0.28851524 -0.06587741 -0.1300995 -0.22444169
000050 7e b0 f8 be 60 18 93 be 30 fa ab 3e 98 1d 4e bf
       -0.48572153 -0.28729534 0.33589315 -0.80513906
000060 c6 ae 68 be b8 57 fa be 8a ac 6e 3e 11 bd 09 3e
       -0.22722921 -0.4889505 0.23308006 0.1345103
000070 bf 84 93 3e 02 92 b7 3d fc 73 40 3e f9 09 4b 3d
       0.28812215 0.08963396 0.18794245 0.049570058

running_mean f4 [32]
000000 11 17 ef be 18 0d aa 3e 1c b3 03 3f 51 83 77 bf
       -0.46697286 0.33213115 0.51445174 -0.9668475
000010 d0 22 66 3f 93 54 92 bf 20 cc 44 be d0 04 c0 be
       0.8989687 -1.143206 -0.19218493 -0.37503672
000020 d1 47 56 3f 8b 11 16 bf e7 89 b3 3e 62 e9 22 3f
       0.83703333 -0.5862052 0.3506615 0.63637364
000030 1a 9b 4a 3e 62 ae ee 3e 92 66 e1 3e c8 5f be be
       0.19785729 0.4661742 0.44023567 -0.3718245
000040 12 ba 7b be e8 e6 b9 3f 80 9a ff 3e 90 e0 45 3f
       -0.24582699 1.4523592 0.49922562 0.7729578
000050 d7 81 1c 3f fc 89 5c be 23 e1 60 bf 3d d6 e5 3e
       0.6113562 -0.21537012 -0.8784353 0.44890013
000060 e7 78 39 bf 5e 32 82 be 96 c1 1b bd 96 4f 03 3f
       -0.7245011 -0.25429052 -0.038026415 0.51293314
000070 95 7b e1 3d 46 29 a4 3f 06 5e 1a bf f7 2f 27 3f
       0.110098995 1.2825096 -0.6029972 0.65307564

running_var f4 [32]
000000 b4 73 04 3e 15 3f fd 3d 08 4b 3e 3e cd c4 6d 3e
       0.12934762 0.123655476 0.1858331 0.23219605
000010 e9 89 37 3e f7 84 00 3e 9c 4b 56 3e 41 75 31 3e
       0.17923702 0.12550722 0.2092728 0.17329885
000020 f4 dc d0 3d 34 57 ed 3d 2e 5f 0c 3e 0b e5 ce 3d
       0.101983935 0.11588898 0.13708183 0.1010228
000030 dd 5b 04 3e 8c c8 1d 3e bb 9e 0f 3e 26 b7 48 3e
       0.12925668 0.15408534 0.14025395 0.19601116
000040 2e d8 0a 3e e1 0f 74 3e 0e fe 21 3e e8 d1 0b 3e
       0.13559029 0.23834182 0.1581957 0.13654292
000050 41 4b 28 3e 6b 88 2e 3e 67 0a 67 3e 1a 52 b6 3e
       0.16434957 0.17044227 0.22562562 0.35609514
000060 a8 54 16 3e 13 30 46 3e 6f b5 3f 3e 93 fb f3 3d
       0.14680731 0.19354276 0.18721555 0.11913218
000070 c3 34 ae 3d 23 00 4d 3e 00 af f8 3d 70 05 0a 3e
       0.08506157 0.20019583 0.121427536 0.13478637
