TuiGAN/models/facade2labels/b4.pth (torch, 131453 bytes, 25 tensors)

weight f4 [32, 3, 3, 3]
-0.04353838 -0.0010731819 -0.0026422257 -0.036519084 2.3546354e-05 -0.011852707 -0.023990178 0.013504862
-0.053520665 0.054358497 0.05903046 0.04257485 0.006517022 0.032265905 0.006493984 0.16892298
0.1302082 0.034418784 -0.027190829 0.006210814 -0.011428587 -0.0030068106 0.014615718 0.0100376
-0.0006453106 -0.018856576 0.03942008 -0.013201315 -0.022201082 -0.0018465653 -0.024807883 0.011122893
-0.019427747 0.0033675805 0.014517248 -0.0009086965 0.12126648 0.0708161 0.16194937 -0.02459232
-0.06437187 0.010910154 0.04531272 0.030424964 0.017350653 -0.0048505142 0.03713023 0.039724316
-0.016748851 0.024593506 0.008287973 -0.007485843 0.01324229 -0.0042902827 -0.044479195 -0.044939067
-0.01478725 -0.05245224 -0.026160827 -0.0076394975 0.041150868 -0.0006310613 0.06817247 0.004808557
-0.02877012 -0.030965446 0.0026120446 -0.0382074 -0.05310982 6.522683e-05 -0.007584357 0.011290995
0.02819585 0.043234363 0.05968195 -0.039647195 -0.00766761 -0.025298376 -0.048305914 0.010292914
-0.011119496 0.020973925 -0.00034832265 -0.041818134 0.03451725 0.012579129 0.045361727 -0.019584732
0.016337372 0.0017530954 -0.0198341 0.0028935457 -0.070835754 -0.012308311 0.0046310276 -0.055674005
-0.15560727 -0.071882926 -0.0745519 0.01073173 -0.0081903655 0.003465492 -0.0065992773 -0.05609558
0.016100366 0.007696545 -0.04588015 0.035953965 -0.065183565 -0.023193486 0.031544875 -0.034506287
0.012872592 0.04860496 0.045123123 0.024850423 0.03773768 -0.041319516 -0.017368212 0.091768034
-0.038693603 -0.004426645 0.06808605 -0.032591276 -0.0038532321 0.019637868 -0.00010767767 -0.03260938
-0.019522248 -0.008121564 -0.008940302 0.01163744 0.049781527 0.022241423 0.00046271668 -0.0050415033
-0.0016821703 0.025655659 -0.00782976 -0.031016653 0.036577627 0.0075499974 0.00058167987 -0.03576809
-0.013757921 0.060191944 0.09324988 -0.07063354 -0.006109098 0.047511503 -0.08782089 -0.030586582
-0.019064574 -0.023794634 0.023241432 -0.019821187 -0.027025692 0.038883157 0.013666421 -0.035627175
-0.02666176 0.0016850516 -0.013393168 -0.045958836 -0.036997035 -0.004157706 -0.015904339 -0.025369866
0.0035157972 0.005468957 0.050360173 0.053112894 0.03544257 0.05520873 -0.000111006884 0.0036773903
-0.006430137 -0.030172242 -0.027798865 0.027488455 -0.010777613 0.025326794 -0.021284029 -0.013384969
0.0046563083 -0.024583109 -0.06964315 -0.063204944 -0.080612734 -0.011808686 -0.0068639354 0.008346543
-0.015983263 -0.00573921 0.06511028 -0.02081805 -0.035627443 0.025263062 -0.013477795 0.0019968483
0.05303779 -0.05660547 -0.04753258 0.08396788 -0.049293786 0.0036185503 0.09217207 0.021453597
0.008435937 -0.028506646 0.005333713 -0.0016739912 0.018489994 -0.013554687 0.008712441 -0.0068101324
0.007855165 -0.0114793 0.0073175076 -0.03196932 -0.07021742 -0.044640996 0.018638944 -0.06407591
-0.03541925 -0.010798148 -0.0041645905 0.03746056 -0.051180575 -0.082404725 -0.052765045 -0.023753783
-0.07687409 -0.029080871 0.0124895 -0.014346312 0.018375235 -0.021768961 -0.02337182 -0.012919625
-0.03286006 -0.0037515496 0.008310622 -0.03797078 0.023346817 0.10358194 -0.043624792 0.015862044
0.030475946 0.0026244472 -0.0055955327 0.07769221 0.03454081 0.03369627 -0.036170308 -0.017631875
00000000: 4d55 32bd 02aa 8cba 3129 2dbb 0995 15bd
00000010: 6985 c537 db31 42bc 0d87 c4bc 7f43 5d3c
00000020: 7c38 5bbd 04a7 5e3d ecc9 713d f762 2e3d
00000030: be8c d53b 4129 043d 7ccb d43b 25fa 2c3e
00000040: 4c55 053e b6fa 0c3d 4dbf debc 1684 cb3b
00000050: f83e 3bbc e90d 45bb c476 6f3c bf74 243c
00000060: 102a 29ba 1b79 9abc f376 213d 544a 58bc
00000070: 0bdf b5bc 7308 f2ba e739 cbbc cb3c 363c
00000080: f026 9fbc a0b2 5c3b c0d9 6d3c 9735 6eba
00000090: 8f5a f83d 0808 913d 0ed6 253e d575 c9bc
000000a0: 66d5 83bd 81c0 323c d599 393d c63d f93c
000000b0: f522 8e3c 10f1 9ebb de15 183d f7b5 223d
000000c0: e334 89bc 5278 c93c 47ca 073c cd4b f5bb
000000d0: 31f6 583c 8095 8cbb d12f 36bd 0712 38bd
000000e0: 3946 72bc 29d8 56bd 3b4f d6bc c054 fabb
000000f0: d08d 283d cf6d 25ba 029e 8b3d 1a91 9d3b
00000100: 51af ebbc 3fab fdbc d62e 2b3b 5d7f 1cbd
00000110: af89 59bd 63ca 8838 3386 f8bb defd 383c
00000120: fcfa e63c 8416 313d 0f75 743d 1965 22bd
00000130: 9340 fbbb 8a3e cfbc 6cdc 45bd 9ca3 283c
00000140: 8c2e 36bc 82d1 ab3c 139f b6b9 7e49 2bbd
00000150: f661 0d3d b118 4e3c 38cd 393d 2970 a0bc
00000160: f4d5 853c 1fc8 e53a 1f7b a2bc a4a1 3d3b
00000170: 5612 91bd cca8 49bc e0bf 973b 6d0a 64bd
00000180: 8357 1fbe 5b37 93bd abae 98bd 23d4 2f3c
00000190: e230 06bc 4f1d 633b c03e d8bb 7bc4 65bd
000001a0: eae4 833c 4d33 fc3b d3ec 3bbd 7744 133d
000001b0: f67e 85bd 4400 bebc 3335 013d 7756 0dbd
000001c0: 90e7 523c ff15 473d 06d3 383d 1d93 cb3c
000001d0: d392 1a3d a73e 29bd c847 8ebc e1f0 bb3d
000001e0: 2f7d 1ebd 640d 91bb b370 8b3d 6e7e 05bd
000001f0: 8286 7cbb 98df a03c 02d1 e1b8 6a91 05bd
00000200: 1fed 9fbc 4f10 05bc 587a 12bc f6aa 3e3c
00000210: b7e7 4b3d a533 b63c c898 f239 3233 a5bb
00000220: 457c dcba d12b d23c 6548 00bc a316 febc
00000230: 6cd2 153d f865 f73b e07b 183a 9081 12bd
00000240: e768 61bc d48b 763d cbf9 be3d 51a8 90bd
00000250: d42e c8bb 6c9b 423d 70db b3bd b690 fabc
00000260: 4f2d 9cbc f7ec c2bc d164 be3c 0b60 a2bc
00000270: fc64 ddbc f243 1f3d 20e9 5f3c cded 11bd
00000280: c369 dabc f3dc dc3a 056f 5bbc 553f 3cbd
00000290: 348a 17bd 5e3d 88bb d149 82bc 77d4 cfbc
000002a0: 4a69 663b f034 b33b 7846 4e3d e88c 593d
000002b0: 3a2c 113d 8d22 623d 5ecc e8b8 5f00 713b
000002c0: e6b3 d2bb c72b f7bc 72ba e3bc 782f e13c
000002d0: 9694 30bc 237a cf3c d85b aebc a14c 5bbc
000002e0: f293 983b 8462 c9bc 11a1 8ebd 9871 81bd
000002f0: 4a18 a5bd 3879 41bc ddea e0bb f0bf 083c
00000300: 55ef 82bc fc0f bcbb 8a58 853d 9d8a aabc
00000310: 15ee 11bd 7bf4 ce3c f8d1 5cbc 8edd 023b
00000320: 273e 593d 23db 67bd 86b1 42bd 5af7 ab3d
00000330: 48e8 49bd 3325 6d3b b6c4 bc3d 74bf af3c
00000340: e236 0a3c c586 e9bc 6dc6 ae3b d369 dbba
00000350: 5478 973c 7a14 5ebc a0be 0e3c 8827 dfbb
00000360: f3b2 003c ad13 3cbc b4c7 ef3b 43f2 02bd
00000370: 27ce 8fbd 7ad9 36bd b3b0 983c 3b3a 83bd
00000380: c713 11bd b7ea 30bc 1e77 88bb 3f70 193d
00000390: b9a2 51bd cfc3 a8bd 2920 58bd 4b97 c2bc
000003a0: 2a70 9dbd 023b eebc c3a0 4c3c cb0c 6bbc
000003b0: a987 963c d254 b2bc 4276 bfbc d6ac 53bc
000003c0: 4598 06bd 8fdc 75bb 4629 083c 4087 1bbd
000003d0: d341 bf3c c522 d43d e9af 32bd 1ef1 813c
000003e0: b1a8 f93c ebfe 2b3b bb5a b7bb 181d 9f3d
000003f0: aa7a 0d3d 1a05 0a3d 5127 14bd b970 90bc

bias f4 [32]
0.1368117 0.07802254 0.048974503 -0.15829737 -0.020538203 0.09603286 -0.033029553 -0.12873887
0.027384229 0.048086762 -0.0567018 -0.07165652 0.12946339 -0.050949086 0.033193544 0.15856694
0.08021409 -0.061097063 -0.033746276 -0.06109111 0.09341088 0.01758401 -0.1134571 -0.05421571
-0.005136676 0.08259907 -0.15709564 0.035779413 0.102094255 -0.038142435 -0.08832003 -0.1323953
00000000: 5e18 0c3e 48ca 9f3d 7d99 483d b518 22be
00000010: bc3f a8bc e0ac c43d ff49 07bd 1fd4 03be
00000020: e454 e03c a0f6 443d 2640 68bd a7c0 92bd
00000030: 0d92 043e fdaf 50bd f4f5 073d 5f5f 223e
00000040: 4947 a43d ea40 7abd 8939 0abd ac3a 7abd
00000050: 344e bf3d 570c 903c 325c e8bd 4b11 5ebd
00000060: 9051 a8bb b429 a93d aedd 20be 6f8d 123d
00000070: cb16 d13d 3e3b 1cbd 22e1 b4bd a292 07be

weight f4 [32]
0.9807737 0.942087 0.9752289 0.9803827 0.8822645 0.96999323 0.9290408 0.9719784
1.0873193 0.94606215 1.0742408 0.96740174 1.0185869 0.9725125 0.98616844 0.91959995
1.002118 0.93909013 0.93879837 1.0025942 0.89860904 1.0300872 1.0244544 0.9828132
0.97071743 1.0035272 0.9819186 0.9882989 0.9322957 0.83162266 0.97044736 1.0250417
00000000: fc13 7b3f 9d2c 713f 9aa8 793f 5cfa 7a3f
00000010: 16dc 613f 7a51 783f 9ed5 6d3f 94d3 783f
00000020: 472d 8b3f 2131 723f b980 893f a4a7 773f
00000030: 0e61 823f 94f6 783f 8975 7c3f e76a 6b3f
00000040: 6745 803f 3668 703f 1755 703f 0255 803f
00000050: 3e0b 663f e6d9 833f 5221 833f a599 7b3f
00000060: f080 783f 9473 803f 045f 7b3f 2801 7d3f
00000070: eeaa 6e3f 39e5 543f 3d6f 783f 9134 833f

bias f4 [32]
0.025036471 0.28120336 0.24383251 0.17057002 0.237823 0.07494869 0.48168933 0.35517383
0.06400968 0.30818555 0.13349715 0.30070013 0.2157426 0.13895795 0.18557797 0.3869019
0.12201645 0.21807575 0.48628166 -0.030721257 0.30134013 0.2671614 0.1150199 0.19437593
0.025992516 0.27543008 0.3151931 0.28817087 0.29456487 0.60095185 0.25834757 -0.12367256
00000000: 4919 cd3c e3f9 8f3e 3baf 793e e8a9 2e3e
00000010: df87 733e b37e 993d fc9f f63e 58d9 b53e
00000020: 8217 833d 7fca 9d3e 7ab3 083e 5ef5 993e
00000030: a1eb 5c3e fe4a 0e3e 2708 3e3e 0118 c63e
00000040: c3e3 f93d 404f 5f3e e9f9 f83e 25ab fbbc
00000050: 4149 9a3e 61c9 883e 8e8f eb3d 7c0a 473e
00000060: 42ee d43c 2c05 8d3e fd60 a13e 228b 933e
00000070: 35d1 963e fbd7 193f 2246 843e 0a48 fdbd

running_mean f4 [32]
0.11010319 0.075998805 0.14084537 -0.11736631 -0.06997315 0.07622823 -0.16294368 -0.13890569
0.19802675 -0.0018361703 -0.113859564 -0.11037174 0.49323353 -0.12220386 -0.034837108 -0.01875063
0.116955504 -0.060628884 -0.08670609 -0.06340963 0.0835865 -0.040534567 -0.029312404 0.32137388
0.1014838 0.2683165 -0.20511086 0.17028765 0.087156564 -0.14581232 0.18229754 0.072088055
00000000: c87d e13d 43a5 9b3d c539 103e bf5d f0bd
00000010: 154e 8fbd 8c1d 9c3d b5da 26be 4b3d 0ebe
00000020: 86c7 4a3e a7ab f0ba 342f e9bd 940a e2bd
00000030: 1b89 fc3e 0446 fabd 5bb1 0ebd ec9a 99bc
00000040: 5e86 ef3d fe55 78bd f692 b1bd e8dc 81bd
00000050: 662f ab3d 9307 26bd 9120 f0bc 1e8b a43e
00000060: bdd6 cf3d c860 893e 9508 52be e35f 2e3e
00000070: 247f b23d d34f 15be 35ac 3a3e e7a2 933d

running_var f4 [32]
0.045475822 0.022898355 0.013742739 0.03486626 0.004923156 0.0050768857 0.013383637 0.0032876066
0.043983582 0.0027235416 0.019494107 0.003922918 0.0925377 0.024108918 0.009277824 0.031334266
0.034340672 0.0021169756 0.0063898284 0.009211486 0.002215269 0.0058452263 0.008166279 0.09838302
0.021274254 0.023057226 0.010184307 0.01446959 0.0045822384 0.01154666 0.052567046 0.0311872
00000000: db44 3a3d 5595 bb3c 3a29 613c eccf 0e3d
00000010: 6d52 a13b 015c a63b 0b47 5b3c e374 573b
00000020: 2128 343d 727d 323b 1bb2 9f3c d28b 803b
00000030: 6884 bd3d 1180 c53c 0402 183c 5c58 003d
00000040: cea8 0c3d f5bc 0a3b c461 d13b c6eb 163c
00000050: 0c2e 113b 5089 bf3b dbcb 053c 097d c93d
00000060: 5847 ae3c 82e2 bc3c 14dc 263c dc11 6d3c
00000070: 9a26 963b 342e 3d3c 8b50 573d 4d7c ff3c

weight f4 [32, 32, 3, 3]
0.0038275237 0.0010549002 0.011859963 -0.021231432 0.0033518758 0.018620659 0.016015189 0.010778497
0.007589176 -0.011677157 -0.010396322 0.024484724 -0.009855918 -5.898345e-05 -0.025765076 -0.063925005
-0.025977505 -0.011077548 -0.08165447 -0.08667235 -0.01980002 -0.033186406 0.010863612 0.033647235
-0.047786243 -0.036686152 0.01073503 0.015187147 -0.027805414 0.027742384 -0.031627864 -0.06347796
-0.0020310686 -0.023535246 -0.06953178 -0.020540051 -0.019205863 -0.0057611284 -0.020765746 0.031176148
-0.020013425 -0.037666366 0.0046337834 -0.05104765 -0.056881968 0.052114274 0.014702501 -0.0077747037
0.047408972 0.004090651 0.02307861 0.04697796 -0.024987347 0.04148314 -0.008001758 -0.042531986
-0.026407616 0.04974353 -0.030226408 -0.016247362 -0.016172558 -0.04678591 -0.049243234 -0.0524779
-0.038598258 -0.042212903 0.03410263 0.035641044 0.019074611 0.03386887 0.017804857 0.03753011
-0.013646729 -0.0022845706 0.047427036 -0.009243849 0.007376588 -0.011347961 0.008993702 0.04382901
0.03489873 0.008336207 -0.003367587 0.056274876 -0.0409573 -0.03002052 0.0033272645 0.017652214
0.029118704 -0.007326287 0.15192404 0.09939397 0.18794486 0.024847202 -0.056770965 0.03024748
0.03278279 -0.09085971 -0.013441439 -0.020784535 -0.010099592 0.0037399207 0.023779193 0.003920962
0.03500371 0.069468684 0.0361535 0.018126657 -0.0065167346 0.0083640795 0.026904771 -0.062007528
-0.012863919 0.0037283613 0.011295667 0.017763162 0.04657319 0.019434007 0.04489474 0.074970365
0.019869033 0.07388294 0.06391378 0.054240838 0.0641529 0.05127453 0.02353343 0.028593294
-0.010346251 -0.009883251 -0.020900803 0.020801706 -0.022959244 -0.025944255 -0.017352507 -0.03888962
-0.0111765005 0.0055831065 -0.010404908 -0.040729452 -0.007380189 -0.020582035 -0.03543184 -0.09397465
0.092967845 0.028181786 0.031872425 0.06365395 0.05574244 0.030630626 0.04043735 0.008795694
0.04124853 0.008325605 -0.04602062 0.023225183 0.00028419038 -0.05217058 -0.033976037 0.02237567
0.015166784 0.05608674 -0.012078051 0.033517096 0.09761065 -0.004193052 0.032361355 0.05469046
-0.02370785 -0.040472265 -0.009082961 0.03202371 0.06314869 0.08206732 -0.038843375 -0.012229253
0.058935598 -0.019242 0.00054047274 0.05799954 -0.04393805 0.016228404 0.014661274 -0.06475816
-0.005016308 -0.05262268 -0.0340174 0.00047657834 -0.024389427 -0.0017800274 -0.03628152 0.017280681
0.019712217 -0.03487585 0.0292528 0.0057202135 -0.019822929 0.0076641305 -0.04499346 -0.029265089
0.016833775 -0.05852868 -0.023024881 0.0069292164 -0.11138035 -0.043597378 -0.006024006 -0.019388247
0.051465437 0.06278879 -0.06873581 0.024391748 0.012004741 -0.018975057 0.05135648 0.03309554
0.009857261 -0.017073516 0.04977389 0.014866289 -0.050542124 -0.03516831 0.07960409 0.03691633
-0.011564593 -0.00949733 0.040085383 0.0014588654 -0.003055479 0.014724862 0.0129711535 -0.015031516
-0.047601767 -0.039743397 0.06837789 0.009171212 0.04170145 0.019436967 0.0100273965 0.018370993
0.055791557 0.010441806 0.06277177 -0.026204871 0.014946476 0.024979161 -0.033540554 -0.006972322
0.050858382 -0.013525294 -0.030111268 0.05998091 -0.014391189 -0.028231096 0.06232119 -0.026064698
00000000: 31d7 7a3b 9444 8a3a 4a50 423c 8aed adbc
00000010: 25ab 5b3b 5a8a 983c 4932 833c 4b98 303c
00000020: 9fae f83b 8c51 3fbc 5655 2abc 3094 c83c
00000030: b77a 21bc ff64 77b8 4811 d3bc 1deb 82bd
00000040: c7ce d4bc 9b7e 35bc 753a a7bd 4681 b1bd
00000050: a733 a2bc 78ee 07bd 4bfd 313c afd1 093d
00000060: 82bb 43bd 3844 16bd fbe1 2f3c 83d3 783c
00000070: 2ec8 e3bc ff43 e33c 388c 01bd bc00 82bd
00000080: ad1b 05bb fdcc c0bc ae66 8ebd 9c43 a8bc
00000090: 9d55 9dbc d9c7 bcbb ed1c aabc 1f65 ff3c
000000a0: 32f3 a3bc 0c48 1abd fed6 973b 5717 51bd
000000b0: 11fd 68bd c775 553d c2e2 703c f1c2 febb
000000c0: e92f 423d de0a 863b 5a0f bd3c f66b 403d
000000d0: 44b2 ccbc 3aea 293d ce19 03bc 0536 2ebd
000000e0: c954 d8bc dfbf 4b3d 5f9d f7bc 3019 85bc
000000f0: 507c 84bc 95a2 3fbd 46b3 49bd 11f3 56bd
00000100: 3519 1ebd 70e7 2cbd 33af 0b3d 58fc 113d
00000110: 5c42 9c3c 16ba 0a3d 7edb 913c 2cb9 193d
00000120: 8896 5fbc bcb8 15bb da42 423d 8373 17bc
00000130: 4eb7 f13b ccec 39bc 525a 133c 0c86 333d
00000140: f9f1 0e3d 9694 083c bcb2 5cbb 7c80 663d
00000150: d8c2 27bd 98ed f5bc 3c0e 5a3b 609b 903c
00000160: 598a ee3c 5a11 f0bb fa91 1b3e 118f cb3d
00000170: 9e74 403e 5c8c cb3c ac88 68bd 90c9 f73c
00000180: 3f47 063d a814 babd 7b39 5cbc 5444 aabc
00000190: c278 25bc 7519 753b 95cc c23c 6a7b 803b
000001a0: 0d60 0f3d 9945 8e3d b115 143d 5b7e 943c
000001b0: 558a d5bb 7e09 093c 6567 dc3c 9bfb 7dbd
000001c0: 30c3 52bc 8657 743b 7611 393c 0d84 913c
000001d0: 87c3 3e3d 1134 9f3c 8ce3 373d 108a 993d
000001e0: 62c4 a23c f04f 973d 3ae5 823d a42b 5e3d
000001f0: 9862 833d 3e05 523d 2ec9 c03c 7c3c ea3c
00000200: 5283 29bc 5ced 21bc 2938 abbc 5768 aa3c
00000210: 0615 bcbc 0c89 d4bc d826 8ebc b94a 1fbd
00000220: a41d 37bc 7ef2 b63b 5979 2abc edd3 26bd
00000230: 83d5 f1bb a89b a8bc fa20 11bd c875 c0bd
00000240: ed65 be3d 7ddd e63c a98c 023d 015d 823d
00000250: 2f52 643d 14ed fa3c a2a1 253d d11b 103c
00000260: 38f4 283d 1e68 083c 1e80 3cbd bd42 be3c
00000270: 63ff 9439 d1b0 55bd 752a 0bbd 2e4d b73c
00000280: 1a7e 783c 36bb 653d 05e3 45bc 3949 093d
00000290: 18e8 c73d df65 89bb 578d 043d 1b03 603d
000002a0: f736 c2bc 3fc6 25bd b3d0 14bc 4b2b 033d
000002b0: 1a54 813d e912 a83d 3b1a 1fbd 345d 48bc
000002c0: 7466 713d 66a1 9dbc 83ae 0d3a ed90 6d3d
000002d0: 62f8 33bd 6ef1 843c d735 703c ed9f 84bd
000002e0: d75f a4bb e18a 57bd d455 0bbd 43dd f939
000002f0: 56cc c7bc cf4f e9ba ee9b 14bd 3790 8d3c
00000300: 847b a13c fbd9 0ebd 91a3 ef3c a170 bb3b
00000310: b263 a2bc 6323 fb3b 104b 38bd 57bd efbc
00000320: fce6 893c c5bb 6fbd ad9e bcbc 7b0e e33b
00000330: 621b e4bd 2a93 32bd 0665 c5bb 1ad4 9ebc
00000340: 6ccd 523d 6997 803d 5cc5 8cbd 34d1 c73c
00000350: 88af 443c 9471 9bbc 2c5b 523d 308f 073d
00000360: 5980 213c c2dd 8bbc b5df 4b3d bc91 733c
00000370: 4205 4fbd a50c 10bd 7807 a33d 9435 173d
00000380: 6b79 3dbc b09a 1bbc 9230 243d 6637 bf3a
00000390: 6e3e 48bb 8c40 713c f684 543c bf46 76bc
000003a0: 12fa 42bd f9c9 22bd b509 8c3d da42 163c
000003b0: 24cf 2a3d 463a 9f3c f349 243c c47e 963c
000003c0: b085 643d 1c14 2b3c 7c8e 803d 99ab d6bc
000003d0: 10e2 743c 19a1 cc3c d261 09bd 1378 e4bb
000003e0: e150 503d 3299 5dbc e8ab f6bc 8bae 753d
000003f0: 06c9 6bbc e644 e7bc 8144 7f3d a285 d5bc

bias f4 [32]
-0.029899582 -0.025359876 0.1110412 -0.0088157505 0.027983842 0.035245303 -0.027634067 -0.0113588935
-0.08659807 -0.035078164 0.0062190057 0.049267534 0.05510923 -0.034358505 0.032486007 -0.038116727
-0.022896448 0.038077693 -0.058859754 -0.07101152 -0.034392275 0.006335234 0.051995642 -0.010876708
0.018272772 0.006823701 0.010772371 -0.02955188 -0.030243129 -0.023431886 0.036423717 0.04027369
00000000: f8ef f4bc 84bf cfbc 9269 e33d f06f 10bc
00000010: 5f3e e53c 615d 103d d760 e2bc a71a 3abc
00000020: 545a b1bd 1fae 0fbd cdc8 cb3b c1cc 493d
00000030: 37ba 613d 81bb 0cbd 0c10 053d 4920 1cbd
00000040: 5591 bbbc 5bf7 1b3d ed16 71bd 7d6e 91bd
00000050: eade 0cbd cb97 cf3b 62f9 543d 3834 32bc
00000060: c8b0 953c 5a99 df3b 997e 303c c916 f2bc
00000070: 70c0 f7bc 3af4 bfbc 0931 153d 06f6 243d

weight f4 [32]
1.0924652 1.0069236 1.0295823 0.9910251 1.0169717 1.0106549 0.9842957 0.95782596
1.0059083 0.9470709 1.1045375 1.1870517 0.9681913 0.9837395 1.0422387 0.9626599
0.98852265 1.038696 0.99753696 0.9811617 0.93835855 0.95430285 0.93888617 0.9650036
0.9774931 0.9603441 0.9079957 0.9825327 1.0101333 0.9260491 1.0059143 0.9202117
00000000: e6d5 8b3f dfe2 803f 5ac9 833f d2b3 7d3f
00000010: 212c 823f 245d 813f cefa 7b3f 1534 753f
00000020: 9ac1 803f 3d73 723f 7c61 8d3f 4ff1 973f
00000030: 63db 773f 5ad6 7b3f 1468 853f e170 763f
00000040: d20f 7d3f fef3 843f 955e 7f3f 6a2d 7b3f
00000050: 4438 703f 314d 743f d85a 703f 7a0a 773f
00000060: fd3c 7a3f 1cd9 753f 6872 683f 4387 7b3f
00000070: 0c4c 813f 8e11 6d3f cdc1 803f fe92 6b3f

bias f4 [32]
0.107308626 0.15880722 0.10717892 0.37048677 0.08122239 0.33796796 0.22146302 0.091242746
0.21474953 0.33527735 0.18320633 0.25145796 0.14129764 0.31616008 0.15156554 0.16551371
0.17244962 -0.045947473 0.37706435 0.039033376 0.40148047 0.13440879 0.32455897 0.061878987
0.01942994 0.07730741 0.4823748 0.3098229 0.057330966 0.35323197 -0.0030031486 0.27087498
00000000: a0c4 db3d 5c9e 223e 9f80 db3d 71b0 bd3e
00000010: ed57 a63d 230a ad3e 34c7 623e 7add ba3d
00000020: 4de7 5b3e 79a9 ab3e 719a 3b3e 19bf 803e
00000030: 54b0 103e bcdf a13e ff33 1b3e 6d7c 293e
00000040: a296 303e 6b33 3cbd 940e c13e 76e1 1f3d
00000050: d98e cd3e 75a2 093e 982c a63e d274 7d3d
00000060: 8a2b 9f3c 5953 9e3d d4f9 f63e 1ba1 9e3e
00000070: e0d3 6a3d d2da b43e 79d0 44bb 20b0 8a3e

running_mean f4 [32]
0.037913166 -0.20855682 -1.6773107 1.1644356 -1.7226391 -0.97070074 0.052071698 -1.7184445
1.3209724 0.48102623 0.59088916 0.16889274 -0.56346345 -0.04530138 -0.6086637 -1.3846585
-0.66718334 0.68840927 -2.3473947 -1.5084027 -2.1203177 -1.7102983 -0.4975338 -0.58055556
-0.13879366 -0.4543735 -1.5370059 -0.120282784 -1.2327741 -0.8519986 -1.0577197 -0.83167034
00000000: d64a 1b3d eb8f 55be 1eb2 d6bf 3a0c 953f
00000010: 707f dcbf d87f 78bf 2249 553d fdf5 dbbf
00000020: a015 a93f 1249 f63e 8344 173f 38f2 2c3e
00000030: 243f 10bf f18d 39bd 62d1 1bbf 7d3c b1bf
00000040: 87cc 2abf 973b 303f b73b 16c0 5713 c1bf
00000050: 49b3 07c0 0eeb dabf c0bc febe 4a9f 14bf
00000060: ed1f 0ebe a5a3 e8be 9cbc c4bf d256 f6bd
00000070: 8bcb 9dbf 951c 5abf 5c63 87bf 59e8 54bf

running_var f4 [32]
0.17691503 1.2259872 0.14877452 0.6169522 3.6467183 0.36510098 0.33982587 1.352843
0.546 0.70537144 0.62241507 0.86983657 0.1670425 0.7280682 0.26646882 0.06857854
0.4610038 0.251327 0.5638349 0.38629708 0.37957776 2.750661 0.29086322 0.20725821
0.2534499 0.4841512 0.42651573 0.26553896 0.51373774 0.34680408 2.20532 0.21609895
00000000: 3729 353e 26ed 9c3f 5958 183e 94f0 1d3f
00000010: d563 6940 84ee ba3e a8fd ad3e f629 ad3f
00000020: a8c6 0b3f 3993 343f 9856 1f3f 9cad 5e3f
00000030: 300d 2b3e ad62 3a3f 9a6e 883e e872 8c3d
00000040: b108 ec3e efad 803e 7c57 103f bbc8 c53e
00000050: 0458 c23e d40a 3040 06ec 943e 7f3b 543e
00000060: 2fc4 813e abe2 f73e 4560 da3e b9f4 873e
00000070: 5184 033f 4e90 b13e f623 0d40 0b49 5d3e

weight f4 [32, 32, 3, 3]
-0.046679657 -0.020146323 -0.011333385 -0.02062053 0.026561424 -0.026986934 0.014241047 0.0007031327
-0.011501979 0.023139466 0.0070405975 0.0026697738 0.0050093294 0.04587289 0.032745954 0.030857328
0.08095892 0.02423703 -0.009400856 0.014912854 0.016041331 -0.0017502529 0.030983835 0.015545296
0.04172957 0.030205408 0.008470946 0.050097317 -0.023840757 -0.0071530347 -0.0988797 -0.0016612258
-0.022373745 -0.06822198 -0.023239926 -0.02240069 0.05687854 -0.0076440554 0.03977023 0.050928824
0.04232772 0.059458137 0.027617304 0.059596926 0.056319166 0.023392662 -0.0253775 -0.012578482
-0.041511554 -0.049533285 -0.048248075 -0.004377322 -0.043656215 -0.06724935 0.010226382 -0.012587851
-0.05366948 0.042952374 -0.00077539444 -0.031954795 0.014667202 0.02335991 0.028554874 0.051431637
0.03970312 0.009075375 0.028534405 -0.016102264 0.008310161 0.022536244 0.03670147 -0.02393301
-0.05561398 -0.065374754 -0.06562656 -0.021869421 -0.091559604 -0.07123543 0.020508537 -0.023055509
-0.015779637 -0.009826676 0.03695772 0.030032592 -0.017315412 -0.04495918 0.030123923 0.032866314
0.03781025 0.048661795 0.012623878 -0.015041213 0.0045578447 0.05444069 -0.042980865 0.0057915743
-0.008026231 0.008706082 -0.014540242 -0.007752054 -0.014235133 -0.041418698 -0.071950816 -0.025391845
-0.09677089 -0.07678649 -0.08758553 -0.16217755 0.050401084 0.017640155 0.026081024 0.030820537
-0.0345592 -0.014869913 -0.058582954 -0.034884483 -0.0134237185 0.02375393 0.016510861 -0.0075343475
0.015187644 -0.014363132 0.014170441 -0.016588746 -0.0010631072 0.040519122 -0.10701377 -0.088433735
-0.12715268 -0.0861629 -0.06303338 -0.06507451 0.11005869 0.10711487 0.13734755 0.011386963
-0.029230358 0.015364607 0.018139731 0.047732323 -0.025139404 0.010343368 -0.008483427 -0.039708935
-0.05884058 -0.03891648 -0.060156923 -0.021240791 0.0041082357 -0.019985449 -0.06126488 0.028702624
-0.013941013 0.06978715 0.068423435 0.046858847 0.063621216 0.039778396 0.034409285 0.03020729
-0.0048681223 -0.008783794 -0.019226013 0.014422095 0.034645796 -0.017379964 -0.016765326 -0.0110788755
-0.00013654375 0.008144623 -0.007962437 0.03649337 0.002712147 -0.0003449017 -0.03162667 -0.004397637
-0.022493068 0.0040740413 0.0021882318 0.019346608 -0.05154955 -0.07490136 -0.065230995 -0.05396518
0.004092651 -0.061059408 -0.016134897 -0.004184925 -0.06866085 0.020364564 0.01159691 0.027930604
0.05857359 0.004588049 0.07904629 0.09476929 0.06102611 0.018666945 0.0480052 0.021422353
0.016172785 -0.02629363 -0.036942136 -0.006149973 0.037421852 0.07125791 0.05657972 0.05762429
0.03530979 0.038419005 0.0653342 0.0487608 0.032694735 -0.02324235 -0.03760903 -0.055013157
0.015158765 0.02135329 -0.010090553 -0.004396801 -0.010459548 -0.069751255 0.026033612 -0.04553895
-0.063060895 -0.016282447 -0.012377347 -0.024568763 -0.06499953 -0.04857613 0.000686959 -0.06200868
-0.06089857 -0.007575496 0.0022861322 0.036551375 0.052127194 0.014926922 -0.017847555 -0.0155232875
-0.024822507 -0.005190701 -0.02858451 -0.028785875 0.0080542145 -0.03466148 -0.04692364 -0.009445125
-0.0061819665 0.029090526 0.025507519 0.033781357 0.0076411534 -0.052837472 -0.018261494 0.04562873
00000000: 2b33 3fbd e709 a5bc a9af 39bc 63ec a8bc
00000010: 5897 d93c b413 ddbc 4853 693c 7052 383a
00000020: cc72 3cbc fa8e bd3c d0b4 e63b 5ff7 2e3b
00000030: 4d25 a43b 36e5 3b3d 9f20 063d 82c8 fc3c
00000040: cacd a53d bc8c c63c 0c06 1abc 0b55 743c
00000050: 1c69 833c be68 e5ba d0d1 fd3c b2b1 7e3c
00000060: a0ec 2a3d 5571 f73c b9c9 0a3c d832 4d3d
00000070: b14d c3bc 0164 eabb 7181 cabd 7dbd d9ba
00000080: 2549 b7bc f7b7 8bbd a861 bebc a781 b7bc
00000090: 79f9 683d fc7a fabb 1ce6 223d be9a 503d
000000a0: d55f 2d3d 608a 733d af3d e23c e81b 743d
000000b0: edae 663d f8a1 bf3c 7ae4 cfbc fa15 4ebc
000000c0: 0508 2abd 6ae3 4abd c69f 45bd a36f 8fbb
000000d0: dcd0 32bd 07ba 89bd 8e8c 273c 463d 4ebc
000000e0: 87d4 5bbd d4ee 2f3d d743 4bba 08e3 02bd
000000f0: b44e 703c 485d bf3c e9eb e93c fba9 523d
00000100: bd9f 223d e2b0 143c fcc0 e93c e5e8 83bc
00000110: 5727 083c ee9d b83c 4854 163d 290f c4bc
00000120: 7ccb 63bd 33e3 85bd 3867 86bd 8027 b3bc
00000130: 9a83 bbbd e2e3 91bd 8501 a83c e8de bcbc
00000140: 4c44 81bc 1100 21bc fa60 173d e906 f63c
00000150: 0dd9 8dbc 1e27 38bd 72c6 f63c d49e 063d
00000160: ecde 1a3d 9751 473d 62d4 4e3c 6b6f 76bc
00000170: f959 953b 33fd 5e3d b40c 30bd 3fc7 bd3b
00000180: 7480 03bc f4a3 0e3c 323a 6ebc f104 febb
00000190: 7a3a 69bc a7a6 29bd f35a 93bd 8f02 d0bc
000001a0: d12f c6bd 3c42 9dbd 0b60 b3bd df11 26be
000001b0: 5e71 4e3d 1682 903c dfa7 d53c 5a7b fc3c
000001c0: f38d 0dbd f0a0 73bc aef4 6fbd 08e3 0ebd
000001d0: 28ef 5bbc 9a97 c23c c941 873c b0e2 f6bb
000001e0: 99d5 783c 5853 6bbc 232b 683c 1fe5 87bc
000001f0: f557 8bba 61f7 253d 092a dbbd bf1c b5bd
00000200: 5034 02be 2d76 b0bd a517 81bd c945 85bd
00000210: 7366 e13d 0a5f db3d d6a4 0c3e 6290 3a3c
00000220: 8174 efbc d5bb 7b3c c699 943c f882 433d
00000230: 27f1 cdbc 3b77 293c 12fe 0abc d6a5 22bd
00000240: d202 71bd e366 1fbd 1b67 76bd 2b01 aebc
00000250: 619e 863b 86b8 a3bc e2f0 7abd c421 eb3c
00000260: d968 64bc 91ec 8e3d 9621 8c3d 10ef 3f3d
00000270: d74b 823d acee 223d c0f0 0c3d 4775 f73c
00000280: c584 9fbb e7e9 0fbc df7f 9dbc a74a 6c3c
00000290: c0e8 0d3d 6d60 8ebc 7057 89bc 2c84 35bc
000002a0: 2f2d 0fb9 0671 053c e274 02bc 127a 153d
000002b0: 47be 313b ecd3 b4b9 f88a 01bd 0e1a 90bb
000002c0: 6243 b8bc 897f 853b 7068 0f3b c77c 9e3c
000002d0: 9f25 53bd e265 99bd d497 85bd 980a 5dbd
000002e0: a51b 863b 6e19 7abd 552d 84bc b221 89bb
000002f0: 0f9e 8cbd 96d3 a63c f700 3e3c b9ce e43c
00000300: dcea 6f3d 5857 963b 05e3 a13d 6716 c23d
00000310: 84f6 793d 6ceb 983c 1aa1 443d ee7d af3c
00000320: ca7c 843c bd65 d7bc a350 17bd b685 c9bb
00000330: a847 193d abef 913d 23c0 673d 7307 6c3d
00000340: 00a1 103d 3f5d 1d3d f0cd 853d 68b9 473d
00000350: eaea 053d be66 bebc ed0b 1abd 7a55 61bd
00000360: 785c 783c 18ed ae3c d952 25bc 0a13 90bb
00000370: 865e 2bbc bfd9 8ebd 7144 d53c 0d87 3abd
00000380: 1226 81bd c462 85bc 5bca 4abc 6e44 c9bc
00000390: 791e 85bd c4f7 46bd 0a15 343a d0fc 7dbd
000003a0: c770 79bd de3b f8bb efd2 153b e5b6 153d
000003b0: 5383 553d 0c90 743c 0935 92bc 6355 7ebc
000003c0: 9258 cbbc c216 aabb 102a eabc 5bd0 ebbc
000003d0: d3f5 033c 32f9 0dbd 0133 40bd babf 1abc
000003e0: 1892 cabb 414f ee3c 25f5 d03c 525e 0a3d
000003f0: a462 fa3b 1b6c 58bd 2199 95bc 31e5 3a3d

bias f4 [32]
0.008682367 0.051203903 0.014626174 0.041584235 -0.01405749 0.05948671 0.020011779 0.0011987535
-0.080907635 -0.013571215 -0.053277485 -0.07321899 0.011558556 0.016217576 0.013556209 0.03679523
-0.02936678 -0.020056892 0.041899115 -0.03169704 0.042604066 0.06329202 -0.002560459 -0.018171389
-0.042874586 -0.021871112 -0.01765646 0.031596184 0.07249524 0.038522772 0.04261575 -0.034655403
00000000: 7d40 0e3c 2fbb 513d 9fa2 6f3c 3b54 2a3d
00000010: 6351 66bc 56a8 733d beef a33c 7e1f 9d3a
00000020: e7b2 a5bd cd59 5ebc 7e39 5abd d6f3 95bd
00000030: 1960 3d3c b9da 843c dd1a 5e3c 98b6 163d
00000040: 9a92 f0bc 5a4e a4bc 689e 2b3d c1d4 01bd
00000050: 9a81 2e3d 3f9f 813d 60cd 27bb 2adc 94bc
00000060: 439d 2fbd 0c2b b3bc 48a4 90bc 006b 013d
00000070: 6278 943d 0eca 1d3d da8d 2e3d d3f2 0dbd

weight f4 [32]
1.0475546 0.9852565 1.0525727 1.0312265 0.9886438 0.9154536 0.9730177 1.0241679
0.9753807 0.94468355 0.9622249 1.0394057 0.9665165 0.9709834 0.9662012 0.9732716
0.92337835 0.96646774 1.042333 0.9754872 1.0077919 0.9815186 1.0091381 1.0524795
0.9724046 0.9936226 0.95741343 0.9965101 1.0052592 0.95336574 0.9762386 1.0077451
00000000: 4516 863f c539 7c3f b4ba 863f 3bff 833f
00000010: c317 7d3f 2b5b 6a3f b017 793f ef17 833f
00000020: 8db2 793f c8d6 713f 5f54 763f 3f0b 853f
00000030: a06d 773f 5e92 783f f658 773f 5428 793f
00000040: 8662 6c3f 6e6a 773f 2b6b 853f 87b9 793f
00000050: 53ff 803f ce44 7b3f 702b 813f a6b7 863f
00000060: 82ef 783f 0d5e 7e3f 0c19 753f 491b 7f3f
00000070: 55ac 803f c70f 743f c6ea 793f cbfd 803f

bias f4 [32]
0.14881474 0.14799383 0.052541044 0.1353129 0.063111335 0.280383 0.18968025 0.053759396
0.40105802 0.4836041 0.08675774 0.11634516 0.24812855 0.15860368 0.24419597 0.3546662
0.38025388 0.12081608 -0.17000876 -0.04669339 0.08293227 0.10518935 0.25504437 0.06415963
-0.052388124 0.018437205 -0.15006909 0.2577214 -0.05149891 0.5081717 0.20594962 0.16764846
00000000: e462 183e b28b 173e 4735 573d 778f 0a3e
00000010: 8440 813d 5c8e 8f3e 8a3b 423e d032 5c3d
00000020: 7a57 cd3e f59a f73e 0bae b13d 5f46 ee3d
00000030: 6915 7e3e 0169 223e 820e 7a3e cf96 b53e
00000040: a3b0 c23e 6c6e f73d c716 2ebe 9141 3fbd
00000050: 65d8 a93d 846d d73d 2d95 823e 2066 833d
00000060: ee94 56bd 9f09 973c b6ab 19be 0ff4 833e
00000070: 85f0 52bd 8a17 023f 75e4 523e 0aac 2b3e

running_mean f4 [32]
-0.4076092 0.32619247 -0.08346006 0.59689796 -0.48667789 -0.5119893 1.0486113 -0.3540431
-0.14116518 -0.5191349 -0.19374189 -0.07750843 -0.5384591 -0.9232016 -0.15234302 -0.07315022
-0.16668278 0.07304465 -0.69653714 -1.0664583 0.4448775 0.3373892 0.73393404 -0.16105357
-2.0172658 0.44379836 0.35491362 -0.1809742 -0.05217818 -0.59684837 1.0339417 -1.2260989
00000000: 27b2 d0be b302 a73e 1ced aabd 4ece 183f
00000010: d82d f9be bb11 03bf e538 863f 2345 b5be
00000020: 9b8d 10be 06e6 04bf 4664 46be bdbc 9ebd
00000030: 75d8 09bf f156 6cbf cfff 1bbe c8cf 95bd
00000040: e4ae 2abe 6f98 953d 4250 32bf b581 88bf
00000050: fcc6 e33e 47be ac3e 1ae3 3b3f 3aeb 24be
00000060: e21a 01c0 8a39 e33e 3db7 b53e 4d51 39be
00000070: cab8 55bd 0ecb 18bf 3458 843f cff0 9cbf

running_var f4 [32]
0.6488855 0.68754184 0.7503868 1.4136217 0.30787787 0.21177375 0.6096521 0.28698468
0.15764533 0.73331773 0.19951285 0.4787777 0.31495643 0.2912822 0.14252865 0.27916577
0.27566177 0.10896777 0.306805 0.53863794 0.6005112 0.32498387 0.80471057 0.539006
0.28359857 0.27944714 0.3712429 0.70634836 0.6733126 0.8662341 0.27340922 0.27117997
00000000: 5c1d 263f be02 303f 5919 403f 8ef1 b43f
00000010: 2ba2 9d3e 38db 583e 2912 1c3f a8ef 923e
00000020: c76d 213e b6ba 3b3f 194d 4c3e 5a22 f53e
00000030: f841 a13e f122 953e 08f3 113e d1ee 8e3e
00000040: 8a23 8d3e 7f2a df3d 8c15 9d3e 2de4 093f
00000050: 1abb 193f 4964 a63e 8301 4e3f 4cfc 093f
00000060: d533 913e b213 8f3e 8d13 be3e 3fd3 343f
00000070: 375e 2c3f 85c1 5d3f 4bfc 8b3e 1ad8 8a3e

weight f4 [32, 32, 3, 3]
-0.048675455 -0.08060278 -0.024187772 0.006215905 -0.021557221 -0.04305485 -0.068091474 0.01315021
-0.040611416 -0.021355435 0.0043694773 -0.02868203 -0.03958232 -0.033154547 -0.031086951 -0.027619287
-0.053971414 -0.047768172 -0.043425724 -0.0025574646 0.037593268 -0.0132965185 0.009697944 0.013089052
0.02432857 0.019605026 0.074888535 0.02085414 0.013780638 0.016949922 -0.020414783 0.016888967
-0.022142049 -0.045927785 -0.055473465 -0.09618123 -0.010642317 0.0019469291 0.042929996 0.0084040845
0.00325863 0.0430991 0.03373325 0.05961631 0.01828215 0.0071806586 -0.014190912 0.013727894
-0.014535642 -0.0040446674 -0.013102738 -0.013944086 0.00062238803 0.009117603 0.008495023 -0.01890884
-0.0043706647 -0.023105467 0.01596888 -0.00074703444 0.026512397 0.014986473 0.047654506 0.036963943
-0.024830043 0.017623981 0.017343562 -0.04805495 0.013900549 0.025396869 -0.0183181 0.004709668
0.05553028 0.03529714 0.05064438 0.013679488 0.010932655 0.032770403 0.0029840372 0.008601896
0.0041184276 0.022824833 0.076000296 0.10720009 0.032186475 0.0040808804 0.0594603 0.03087686
0.056326598 0.08378385 -0.03605934 0.014859691 -0.01964297 -0.019503623 -0.011665557 -0.00752742
0.0015872287 0.017013423 0.004506879 -0.1052153 -0.032410562 -0.01708153 -0.03357634 -0.02480077
-0.04134563 -0.09290093 -0.04098268 -0.022443935 0.008162349 0.005706533 0.047733467 0.026597211
-0.0004744213 0.048847944 0.034653217 0.012927301 0.059497837 0.004183405 -0.044625282 0.01668266
0.0040441384 -0.006266304 0.029946659 0.0040565957 -0.011267704 0.027036928 0.015404354 0.007640856
0.00825491 -0.00043732545 0.008354942 0.045781706 0.03897289 0.009308622 -0.017301476 0.008533647
0.041026194 8.825519e-05 0.0012750427 0.010756622 -0.0065613748 -0.0037257252 0.026963763 0.037620448
-0.0058471905 0.010152751 -0.013695516 0.018519158 -0.00046945296 0.00083737355 -0.030519154 -0.014692192
-0.019194888 0.07828932 0.019563662 0.030108757 0.031686243 0.010507919 -0.015839543 0.08072069
0.0010903697 0.0129723 -0.07476002 -0.06437149 -0.042038713 -0.040423 -0.03511355 -0.02182526
-0.07107772 -0.03838042 -0.05418314 0.0007143293 -0.05010599 -0.03519452 -0.03596503 -0.01434169
-0.00669768 -0.01198936 -0.033421975 -0.013293546 -0.03259102 -0.017027142 -0.017207451 -0.06136718
-0.05606639 -0.051068638 -0.05047459 -0.07662518 -0.073650934 0.059873894 0.0380044 0.046108276
0.050466657 0.012167528 0.04342375 0.05839415 0.048688002 0.034856223 -0.1094455 -0.065476105
-0.06370857 -0.08928109 -0.015021948 -0.041210726 -0.052095324 -0.048072334 -0.034418285 0.02808874
0.031279683 -0.0007373094 -0.0030446134 0.04048646 0.010459451 0.012774887 -0.010332861 -0.0116342455
0.03919072 0.04112076 -0.011160424 0.013360643 -0.002454753 -0.0025525237 0.014514195 -0.011208386
0.015960785 0.029129377 0.04550314 -0.044184286 -0.0020493485 0.011616611 0.0045559094 -0.015757732
0.019205805 0.004078832 0.03117851 0.010954835 0.03329768 0.042015124 0.042002633 0.052654643
0.013463022 0.031359304 0.06569665 -0.035399422 -0.05782098 -0.038385123 -0.0063043316 0.010965796
-0.020544544 0.0123903565 -0.03220994 -0.0040764366 -0.028643271 0.0029050563 0.010913184 0.025853284
00000000: ea5f 47bd 1213 a5bd 6f25 c6bc caae cb3b
00000010: c598 b0bc 485a 30bd 8b73 8bbd fa73 573c
00000020: 2858 26bd 98f1 aebc d52d 8f3b 94f6 eabc
00000030: 1221 22bd 10cd 07bd 10aa febc d841 e2bc
00000040: 2111 5dbd 8fa8 43bd 2cdf 31bd 239b 27bb
00000050: 66fb 193d a4d9 59bc 20e4 1e3c 7773 563c
00000060: b64c c73c b89a a03c 295f 993d 4dd6 aa3c
00000070: 2fc8 613c 90da 8a3c e73c a7bc bb5a 8a3c
00000080: 3e63 b5bc c61e 3cbd 2538 63bd aafa c4bd
00000090: 1d5d 2ebc 1a30 ff3a 5dd7 2f3d 49b1 093c
000000a0: bd8e 553b af88 303d e02b 0a3d 3b30 743d
000000b0: 73c4 953c bb4b eb3b 0081 68bc f6ea 603c
000000c0: e726 6ebc 2189 84bb deac 56bc bc75 64bc
000000d0: c127 233a 0062 153c b52e 0b3c b6e6 9abc
000000e0: cb37 8fbb ad47 bdbc 2bd1 823c a2d4 43ba
000000f0: 8730 d93c d389 753c 5f31 433d 8167 173d
00000100: 6068 cbbc 2b60 903c 1614 8e3c 44d5 44bd
00000110: 21bf 633c 180d d03c d70f 96bc 8f53 9a3b
00000120: b873 633d bc93 103d 7b70 4f3d ee1f 603c
00000130: e11e 333c 423a 063d d68f 433b f8ee 0c3c
00000140: e0f3 863b 25fb ba3c 0ba6 9b3d b98b db3d
00000150: f7d5 033d e8b8 853b a58c 733d 78f1 fc3c
00000160: b8b6 663d de96 ab3d f5b2 13bd 1076 733c
00000170: 4bea a0bc 10c6 9fbc e420 3fbc 93a8 f6bb
00000180: 8f0a d03a bc5f 8b3c 71ae 933b 1f7b d7bd
00000190: f0c0 04bd 91ee 8bbc 5887 09bd fc2a cbbc
000001a0: 095a 29bd d842 bebd 74dd 27bd 58dc b7bc
000001b0: 60bb 053c defd ba3b 2b84 433d 65e2 d93c
000001c0: c0bb f8b9 c814 483d 88f0 0d3d 08cd 533c
000001d0: 01b4 733d f214 893b 00c9 36bd 13aa 883c
000001e0: b184 843b 9155 cdbb b252 f53c 31ed 843b
000001f0: 2d9c 38bc 8c7c dd3c 8b62 7c3c 2560 fa3b
00000200: 9a3f 073c d448 e5b9 2be3 083c 9985 3b3d
00000210: 09a2 1f3d 3183 183c d3bb 8dbc b6d0 0b3c
00000220: 150b 283d a515 b938 551f a73a 8b3c 303c
00000230: cd00 d7bb 4c2b 74bb 1ce3 dc3c e617 1a3d
00000240: ca99 bfbb b957 263c 2863 60bc 7db5 973c
00000250: e920 f6b9 3083 5b3a 4e03 fabc 85b7 70bc
00000260: 993e 9dbc 2756 a03d f943 a03c a4a6 f63c
00000270: 6fc9 013d 6829 2c3c eec1 81bc e450 a53d
00000280: bcea 8e3a c589 543c c81b 99bd 33d5 83bd
00000290: c930 2cbd 9692 25bd 3ad3 0fbd e3ca b2bc
000002a0: 3291 91bd ca34 1dbd 24ef 5dbd d441 3b3a
000002b0: f03b 4dbd 2128 10bd 1150 13bd 68f9 6abc
000002c0: 3678 dbbb 056f 44bc 7be5 08bd 2ccd 59bc
000002d0: 297e 05bd 817c 8bbc a4f6 8cbc 275c 7bbd
000002e0: dfa5 65bd 592d 51bd 72be 4ebd aaed 9cbd
000002f0: 4dd6 96bd 543e 753d 80aa 1b3d 08dc 3c3d
00000300: 20b6 4e3d 505a 473c 1add 313d b42e 6f3d
00000310: 126d 473d 66c5 0e3d f624 e0bd 5618 86bd
00000320: a479 82bd 01d9 b6bd 9e1e 76bc 94cc 28bd
00000330: e861 55bd 7fe7 44bd 30fa 0cbd 5b1a e63c
00000340: 201f 003d ff47 41ba 2388 47bb 21d5 253d
00000350: 1e5e 2b3c c24d 513c 294b 29bc 909d 3ebc
00000360: 7386 203d 3e6e 283d 36da 36bc 99e6 5a3c
00000370: ecdf 20bb 3e48 27bb f2cc 6d3c 61a3 37bc
00000380: 31c0 823c bba0 ee3c 8061 3a3d 95fa 34bd
00000390: 5d4e 06bb 9953 3e3c bd49 953b 5c16 81bc
000003a0: 7e55 9d3c b9a7 853b 136a ff3c e97b 333c
000003b0: 2663 083d 0d18 2c3d f40a 2c3d 65ac 573d
000003c0: 0294 5c3c 9d72 003d f78b 863d fcfe 10bd
000003d0: b1d5 6cbd b839 1dbd 9194 cebb e2a9 333c
000003e0: 084d a8bc ec00 4b3c 92ee 03bd a193 85bb
000003f0: 4ba5 eabc c262 3e3b 36cd 323c 44ca d33c

bias f4 [32]
0.038506363 0.009370279 -0.043327082 0.10303053 -0.014363296 0.0088912435 0.020676168 -0.05549963
-0.070161454 0.05403284 0.0726731 0.039768957 -0.03981967 0.0775716 -0.07433173 0.011260306
0.017531596 0.08110274 -0.011152696 -0.059947416 0.0022270319 0.0040983376 0.003020127 -0.041409787
-0.028763767 -0.010138725 0.094625056 0.028940868 -0.06592572 -0.058547545 0.1007097 0.056823798
00000000: d9b8 1d3d cc85 193c bd77 31bd ac01 d33d
00000010: 0854 6bbc 94ac 113c 1161 a93c 9453 63bd
00000020: cfb0 8fbd 8a51 5d3d a2d5 943d c6e4 223d
00000030: f319 23bd dcdd 9e3d 3c3b 98bd 267d 383c
00000040: 6c9e 8f3c 3119 a63d ccb9 36bc 6c8b 75bd
00000050: 65f3 113b 594b 863b 53ed 453b 4f9d 29bd
00000060: fea1 ebbc e51c 26bc c8ca c13d 6615 ed3c
00000070: 1004 87bd 8dcf 6fbd e340 ce3d 12c0 683d

weight f4 [32]
1.0294833 0.95488423 0.9687202 1.0108353 0.9509543 1.0301096 1.0163999 1.0208669
1.8491415 1.0375062 1.0938901 1.1330607 0.9202422 0.97057575 1.0431452 0.99405897
1.0246443 1.026834 0.9689467 1.1235889 1.018235 0.9815321 0.96889037 0.9730261
1.0270667 1.0399612 1.1053888 0.9885667 0.92896694 0.9506874 1.0328722 0.9603677
00000000: 1cc6 833f 4b73 743f 0cfe 773f 0d63 813f
00000010: be71 733f a2da 833f 6419 823f c4ab 823f
00000020: abb0 ec3f 01cd 843f 9704 8c3f 2208 913f
00000030: fe94 6b3f a777 783f c885 853f a67a 7e3f
00000040: 8b27 833f 4c6f 833f e40c 783f c3d1 8f3f
00000050: 8655 823f b045 7b3f 3309 783f 3d18 793f
00000060: ec76 833f 731d 853f 617d 8d3f b512 7d3f
00000070: c7d0 6d3f 4060 733f 2835 843f a8da 753f

bias f4 [32]
0.24391392 -0.25024295 -0.37541747 -0.24315718 -0.29912162 -0.061087307 0.30130285 -0.061368722
0.27877334 -0.0852163 0.045608737 0.038691323 0.20573205 0.1625935 -0.22414629 0.41887447
0.04080872 -0.52502054 -0.18421851 0.041997902 0.14902398 0.409701 -0.16833138 -0.3072435
0.0014228207 -0.1319133 0.10616504 0.30847037 -0.22530559 0.23986006 0.27961278 0.4617065
00000000: 92c4 793e d81f 80be b836 c0be 32fe 78be
00000010: 7826 99be af36 7abd 5e44 9a3e c55d 7bbd
00000020: 61bb 8e3e e285 aebd 3ad0 3a3d cb7a 1e3d
00000030: 6cab 523e e97e 263e 9b86 65be b776 d63e
00000040: 0b27 273d bf67 06bf c7a3 3cbe fe05 2c3d
00000050: be99 183e 54c4 d13e 105f 2cbe 054f 9dbe
00000060: f17d ba3a 4814 07be 0e6d d93d d4ef 9d3e
00000070: 82b6 66be e09d 753e 6829 8f3e cb64 ec3e

running_mean f4 [32]
0.19541939 -0.14668961 0.35145584 0.5548505 0.0061756275 -0.44821477 0.039437413 -0.223856
-0.04762595 -0.62582916 -0.4210618 0.313173 -0.32526785 -0.1324535 -0.55964524 -0.2129401
0.070506245 0.0818287 -0.42401078 -0.12857173 0.2596547 0.6339529 0.1842853 -0.043410357
-0.2449456 -0.106139675 0.62515336 0.06024284 0.3710696 -0.5145489 -0.1920847 0.16308841
00000000: 051c 483e cd35 16be 05f2 b33e af0a 0e3f
00000010: eb5c ca3b 687c e5be 2089 213d 823a 65be
00000020: 6e13 43bd 5736 20bf 6a95 d7be 3658 a03e
00000030: 8289 a6be e4a1 07be e944 0fbf f80c 5abe
00000040: 9465 903d ce95 a73d f117 d9be 4fa8 03be
00000050: 76f1 843e bd4a 223f 49b5 3c3e 0fcf 31bd
00000060: 05d3 7abe c25f d9bd 0d0a 203f 32c1 763d
00000070: d6fc bd3e 7ab9 03bf dab1 44be a600 273e

running_var f4 [32]
0.18623216 0.16402137 0.27816775 0.3990588 0.26783586 0.3667592 0.28758085 0.3383176
0.24799334 0.24626674 0.42568368 0.1870141 0.46436897 0.7946779 0.42742088 0.43586406
0.104613625 0.68145394 0.29875213 0.22463879 0.5199838 0.29986185 0.6763703 0.2454644
0.30381986 0.631836 0.16334365 0.29081136 0.34372056 0.3452561 0.46277082 0.3097168
00000000: a5b3 3e3e 38f5 273e 016c 8e3e 6f51 cc3e
00000010: c821 893e ddc7 bb3e cc3d 933e f737 ad3e
00000020: f7f1 7d3e 592d 7c3e 36f3 d93e a080 3f3e
00000030: c5c1 ed3e 0370 4b3f e9d6 da3e 9329 df3e
00000040: ab3f d63d c473 2e3f 0af6 983e b607 663e
00000050: a91d 053f 7e87 993e 9b26 2d3f 055b 7b3e
00000060: 478e 9b3e 01c0 213f 8f43 273e 3ae5 943e
00000070: 24fc af3e 68c5 b03e 4cf0 ec3e 3393 9e3e

weight f4 [1, 32, 3, 3]
-0.0060656606 -0.033833325 -0.04264855 0.0019798335 -0.015838047 -0.060193043 0.009598396 0.031917416
-0.01051373 -0.015063151 -0.0090201665 0.008911737 -0.013257991 -0.009787069 0.013298816 0.0025262749
-0.07380073 -3.44222e-05 0.07557057 0.05753569 0.06144762 0.05332535 0.024228929 0.043897927
0.1216763 0.0569972 0.07077718 -0.01973448 -0.027024375 -0.015361443 0.0067139654 -0.04159961
-0.004807918 -0.005261649 -0.024022331 -0.034430303 -0.04242056 -0.030727144 -0.03658536 0.022328781
0.01844805 -0.026217652 0.004620564 -0.0011989957 -0.02076147 0.0042818524 -0.017151574 -0.0060991677
0.017997123 0.011356756 0.021846734 -0.011266222 -0.036414165 -0.0019847343 -0.028751768 -0.022563722
-0.010767403 -0.027954789 -0.019062575 -0.02097888 -0.023935791 -0.056197796 -0.012216664 0.019164586
-0.066096425 -0.08511178 -0.0018084339 -0.07485136 -0.06107316 0.0010621974 -0.051997002 -0.04704053
0.36416692 0.19648111 0.18654367 0.1365423 -0.048504144 -0.042736016 -0.06244966 -0.18907697
-0.18494828 -0.0023061114 -0.06235731 -0.057710044 -0.014396168 -0.054325398 -0.053435452 -0.025443176
-0.059671853 -0.058532685 -0.013114468 0.029812036 0.080270745 0.0013403804 0.01773873 0.04107869
-0.011627738 -0.006073902 -0.006409592 0.21270736 0.08535412 0.14427687 0.072032176 -0.040480394
0.03710348 0.09305691 -0.060928456 -0.010424074 0.021805277 0.008738816 0.044173103 0.011389495
9.7615724e-05 -0.01232945 0.008652134 0.000101131875 -0.023222854 -0.027133143 0.00048546147 -0.022309585
0.016304022 0.010307594 -0.016844457 -0.03994944 -0.026874935 0.034297477 0.051470123 0.0742733
0.067210965 -0.0011664819 0.058978774 0.050488252 -0.017077895 0.013830294 0.020499887 0.018793834
0.06334504 0.01578992 0.08127504 0.035091236 -0.01492238 0.13931836 0.11315069 0.09547545
0.084992155 -0.030124327 -0.0010737458 0.048828933 -0.030994877 -0.07942688 0.04715668 -0.02051182
-0.0113488985 -0.09576122 -0.097220935 -0.10031566 -0.11329915 -0.10588884 -0.07610724 -0.06902655
-0.08330869 -0.077853836 -0.0017478813 0.012555134 0.024671305 0.00582276 0.01834062 0.04083438
0.022651402 0.008014509 0.027975766 0.07493418 0.0076731835 -0.057416722 0.05855662 -0.0047287582
-0.09472556 -0.004482392 -0.047078945 -0.15032917 0.018434513 0.0040382016 -0.012735956 0.05230331
0.005090429 0.01821074 0.02195938 0.012538266 -0.0032330565 0.008031856 0.039504547 0.021510493
0.029783346 0.062684886 0.051665083 0.12528563 0.08603669 0.0557353 -0.017243657 -0.009439461
0.012159987 -0.000717951 0.030823743 0.03060994 0.012284836 0.018774461 0.0012511546 0.008793688
0.0032141388 -0.019773403 0.0020351403 -0.009067653 -0.005353198 -0.008809796 -0.0011210034 -0.012997543
-0.030239666 -0.05050597 -0.013828781 -0.002617314 -0.040186875 -0.027162192 -0.051684875 -0.010753724
0.0046378965 -0.0061211376 0.03699486 0.010526103 0.0020974812 0.014928411 0.006631733 -0.014948856
-0.031876575 -0.023915153 0.038239952 0.06272407 0.04511791 -0.0810292 -0.036405392 -0.009051516
-0.12037129 -0.078161605 -0.09891267 -0.011169098 -0.052314386 -0.0017071676 0.044405684 -0.031069184
-0.00270527 -0.024506457 -0.014186189 -0.00096120464 -0.004786826 -0.023811795 -0.015869088 0.021394838
00000000: 73c2 c6bb d094 0abd 3fb0 2ebd 18c0 013b
00000010: cbbe 81bc fb8c 76bd 9742 1d3c d6bb 023d
00000020: c841 2cbc 6fcb 76bc 52c9 13bc 8902 123c
00000030: 0b38 59bc f159 20bc 47e3 593c dc8f 253b
00000040: d624 97bd 8e60 10b8 bec4 9a3d 8baa 6b3d
00000050: 80b0 7b3d af6b 5a3d bf7b c63c 50ce 333d
00000060: 6d31 f93d e575 693d a0f3 903d 34aa a1bc
00000070: 3962 ddbc 90ae 7bbc d300 dc3b 5a64 2abd
00000080: bd8b 9dbb e969 acbb 7bca c4bc ca06 0dbd
00000090: 2ec1 2dbd 7eb7 fbbc 88da 15bd d9ea b63c
000000a0: 5d20 973c 67c6 d6bc 1a68 973b 9f27 9dba
000000b0: f513 aabc c84e 8c3b 7581 8cbc 87db c7bb
000000c0: b46e 933c b011 3a3c ecf7 b23c f695 38bc
000000d0: 0527 15bd 5112 02bb d488 ebbc 8ed7 b8bc
000000e0: c369 30bc 7101 e5bc 1e29 9cbc e6db abbc
000000f0: fe14 c4bc a92f 66bd 6728 48bc 0dff 9c3c
00000100: 905d 87bd 164f aebd f908 edba ab4b 99bd
00000110: da27 7abd 6e39 8b3a cffa 54bd 92ad 40bd
00000120: 1674 ba3e 5832 493e 4e05 3f3e bfd1 0b3e
00000130: 48ac 46bd f60b 2fbd 37cb 7fbd 659d 41be
00000140: 1563 3dbe 2122 17bb 616a 7fbd 5e61 6cbd
00000150: e8dd 6bbc 4f84 5ebd 22df 5abd 356e d0bc
00000160: 796a 74bd f8bf 6fbd 11de 56bc 5f38 f43c
00000170: fd64 a43d b4af af3a d050 913c 2142 283d
00000180: 4582 3ebc 9507 c7bb 8e07 d2bb f5cf 593e
00000190: 24ce ae3d 51bd 133e 9b85 933d c5ce 25bd
000001a0: d2f9 173d 9f94 be3d 1e90 79bd bcc9 2abc
000001b0: fba0 b23c 402d 0f3c dbee 343d 019b 3a3c
000001c0: 0bb7 cc38 7601 4abc aec1 0d3c c316 d438
000001d0: db3d bebc 5346 debc 8985 fe39 97c2 b6bc
000001e0: 0390 853c 2fe1 283c 63fd 89bc 06a2 23bd
000001f0: d328 dcbc 837b 0c3d 56d2 523d 9a1c 983d
00000200: e7a5 893d a3e4 98ba ba93 713d c5cc 4e3d
00000210: f1e6 8bbc 7598 623c 61ef a73c 87f5 993c
00000220: 0bbb 813d dd59 813c 8773 a63d d4bb 0f3d
00000230: 007d 74bc 79a9 0e3e 8dbb e73d a288 c33d
00000240: 5e10 ae3d 4bc7 f6bc eebc 8cba d900 483d
00000250: f8e8 fdbc 8faa a2bd 5d27 413d 6808 a8bc
00000260: bbf0 39bc 751e c4bd c51b c7bd 4c72 cdbd
00000270: 6209 e8bd 40dc d8bd 1dde 9bbd cb5d 8dbd
00000280: bf9d aabd d571 9fbd 2a19 e5ba 0cb4 4d3c
00000290: 7a1b ca3c dacc be3b 113f 963c f341 273d
000002a0: 6f8f b93c 4a4f 033c 6f2d e53c 1777 993d
000002b0: 546f fb3b cc2d 6bbd 11d9 6f3d b3f3 9abb
000002c0: 79ff c1bd 08e1 92bb dad5 40bd e4ef 19be
000002d0: fa03 973c e452 843b 79aa 50bc ff3b 563d
000002e0: 9dcd a63b b12e 953c 28e4 b33c 4d6d 4d3c
000002f0: b0e1 53bb 0c98 033c 85cf 213d c636 b03c
00000300: 34fc f33c ef60 803d c49e 533d e04a 003e
00000310: 0134 b03d b34a 643d 9242 8dbc f8a7 1abc
00000320: af3a 473c e034 3cba 1382 fc3c b2c1 fa3c
00000330: 5646 493c e6cc 993c c8fd a33a 6713 103c
00000340: 4da4 523b d5fb a1bc fd5f 053b 7e90 14bc
00000350: e169 afbb f656 10bc a2ee 92ba a6f3 54bc
00000360: 2db9 f7bc 59df 4ebd 1d92 62bc 3e87 2bbb
00000370: fe9a 24bd 3f83 debc 85b3 53bd 6330 30bc
00000380: 7ff9 973b d393 c8bb ec87 173d ad75 2c3c
00000390: e575 093b 4b96 743c 024f d93b 0cec 74bc
000003a0: 0391 02bd b6e9 c3bc 7fa1 1c3d 7a75 803d
000003b0: 8fcd 383d a3f2 a5bd d21d 15bd cf4c 14bc
000003c0: 3985 f6bd 3113 a0bd ba92 cabd 98fe 36bc
000003d0: 9c47 56bd 0ac3 dfba bce2 353d cd84 febc
000003e0: e64a 31bb c4c1 c8bc 306d 68bc 5af9 7bba
000003f0: cfda 9cbb f410 c3bc e4ff 81bc 3a44 af3c
