TuiGAN/models/facade2labels/ba0.pth (torch, 233612 bytes, 46 tensors)

weight f4 [32, 3, 3, 3]
0.0023932417 -0.00082175847 0.011970681 -0.0016835146 -0.0368425 0.011742418 0.036296934 0.058810722
0.08050974 -0.0007393485 -0.006791399 -0.020726876 0.011796216 -0.058646515 -0.011005676 -0.009727936
0.006528464 0.01554357 -0.013309176 0.03015281 -0.023455527 0.0401571 -0.004698307 0.009741535
-0.05191103 -0.025444325 -0.0823677 0.028448673 -0.030833296 -0.0373396 0.045386553 0.0802821
-0.012110277 0.04306637 0.033635356 -0.030875996 -0.04263154 -0.025936244 -0.0050927163 0.0030105505
0.0429787 0.018733254 -0.056464266 -0.007957368 -0.006882277 -0.035679974 -0.028239915 0.03242593
-0.03287469 0.0014347316 0.002963731 -0.016206726 -0.029297374 -0.007342234 -0.013160942 -0.02292677
-0.03791058 -0.0018378608 0.045178857 0.020596698 -0.025688007 0.021700246 -0.040212844 -0.019862497
-0.020905692 -0.009673673 -0.026064558 0.050374873 0.05571512 -0.047468793 0.021390555 0.043890953
0.024797816 0.013873586 -0.01604672 0.035330757 0.034670763 0.04643306 -0.009908552 0.06466892
0.04039699 -0.06376838 0.015914924 0.0195008 -0.007849605 -0.036917064 0.019217568 -0.08641332
-0.022868233 0.04854966 -0.024195196 0.022918195 0.030546306 0.0047998996 -0.023341987 -0.0050986563
-0.032402687 0.004704713 0.032029238 -0.059778 -0.008996473 0.069851086 -0.032699052 -0.019861462
0.019629676 -0.053153876 -0.014420856 0.0144523615 -0.004922121 0.032181595 0.040919036 -0.025417062
-0.01006358 0.08053985 0.0201521 -0.0021273736 0.031722948 -0.052723188 0.009053413 -0.014573191
-0.04959961 0.007960594 0.070547506 -0.026343208 -0.018449856 0.020120172 0.027096955 0.03852929
-0.039903108 0.015306056 0.006624402 0.023723418 0.027585534 0.0117480755 0.04184449 -0.03686367
-0.05051963 -0.06919528 -0.0024348726 -0.024654055 0.01098688 0.032459132 0.013240144 -0.030722125
-0.005070635 0.013178912 0.010947739 -0.022107769 0.020746518 0.038187273 -0.025178019 0.035147324
-0.043844495 -0.0037107407 -0.088203855 -0.07893905 0.010747086 -0.011706007 0.030612532 0.02374003
0.016973507 -0.014200793 -0.0044307103 -0.020783557 -0.03986577 0.0067627924 -0.0432962 -0.020615684
-0.02649511 0.0019682052 -0.01928208 -0.034406584 -0.023523567 -0.006726569 0.03804964 0.007322837
0.0578475 0.01131422 0.03812602 0.049401477 -0.00810966 -0.008689193 -0.010609349 0.061756648
-0.009845633 0.021329658 -0.008500353 -0.05100216 -0.028849907 0.037243843 -0.021348614 0.049424842
-0.030573819 -0.02495677 -0.007815546 0.030029422 0.0033197 0.021481652 0.07405403 -0.025978394
0.012054991 0.020895978 -0.016827177 -0.017130421 0.054278586 -0.010000463 -0.041483548 0.0810224
0.022061966 0.043950945 0.044915028 -0.003004614 0.03466401 0.043328322 -0.024724472 -0.012645681
-0.0066085304 0.010987962 -0.019080264 -0.0036344673 -0.0025140066 -0.0057047904 0.0781207 0.015654158
-0.030769238 0.0043425625 -0.006703932 0.022400409 -0.020332718 -0.01084945 0.020068586 0.05800662
-0.011009419 0.0012084156 0.0069637895 0.009176548 -0.016231691 -0.011389398 0.05869762 0.07157099
-0.097053386 0.005210609 0.032471288 -0.011022893 -0.0003287284 -0.0365353 -0.04669657 -0.023647446
-0.0260246 -0.0661367 -0.028594328 -0.061141126 -0.0070740334 -0.030863704 -0.02138203 0.03055745
00000000: efd7 1c3b 476b 57ba ad20 443c 60a9 dcba
00000010: 29e8 16bd 4563 403c 18ac 143d 83e3 703d
00000020: 4ae2 a43d d7d0 41ba 628a debb 69cb a9bc
00000030: ea44 413c 5437 70bd 2751 34bc ec61 1fbc
00000040: baec d53b 75aa 7e3c bb0e 5abc 0703 f73c
00000050: ce25 c0bc c57b 243d 41f4 99bb f69a 1f3c
00000060: a9a0 54bd 9e70 d0bc 66b0 a8bd 310d e93c
00000070: 1c96 fcbc 69f1 18bd 40e7 393d f16a a43d
00000080: 2f6a 46bc 5d66 303d 3ac5 093d a8ef fcbc
00000090: 699e 2ebd 3f78 d4bc cde0 a6bb a84c 453b
000000a0: 6f0a 303d 7b76 993c 1347 67bd 9f5f 02bc
000000b0: b984 e1bb 2a25 12bd 6557 e7bc 0dd1 043d
000000c0: 9ca7 06bd 9b0d bc3a 283b 423b f8c3 84bc
000000d0: 0c01 f0bc 1f97 f0bb fea0 57bc ecd0 bbbc
000000e0: 2048 1bbd 60e4 f0ba 770d 393d 68ba a83c
000000f0: a86f d2bc b7c4 b13c 39b6 24bd adb6 a2bc
00000100: 6a42 abbc 537e 1ebc 5785 d5bc e255 4e3d
00000110: 8a35 643d a36e 42bd 3f3b af3c 00c7 333d
00000120: ca24 cb3c 0a4e 633c 6974 83bc fcb6 103d
00000130: ee02 0e3d 9830 3e3d 7b57 22bc 2471 843d
00000140: 5077 253d ff98 82bd 0460 823c 24c0 9f3c
00000150: a19b 00bc 5936 17bd 296e 9d3c 77f9 b0bd
00000160: 2956 bbbc 02dc 463d 0135 c6bc f0be bb3c
00000170: 3f3c fa3c 7a48 9d3b b237 bfbc a112 a7bb
00000180: aeb8 04bd fe29 9a3b 1731 033d c7d9 74bd
00000190: f165 13bc 160e 8f3d 71ef 05bd 81b4 a2bc
000001a0: 6ace a03c e1b7 59bd 7445 6cbc 99c9 6c3c
000001b0: be49 a1bb d9d0 033d b89a 273d 7137 d0bc
000001c0: b7e1 24bc 14f2 a43d 0416 a53c 686b 0bbb
000001d0: ecef 013d 45f4 57bd c454 143c 65c4 6ebc
000001e0: f628 4bbd 276d 023c 367b 903d b6cd d7bc
000001f0: 2724 97bc 0fd3 a43c 6ffa dd3c e4d0 1d3d
00000200: 7171 23bd 40c6 7a3c 8311 d93b 9d57 c23c
00000210: 0ffb e13c 007b 403c 2165 2b3d 5cfe 16bd
00000220: aced 4ebd 41b6 8dbd 6292 1fbb 4df7 c9bc
00000230: 5102 343c def3 043d 30ed 583c f7ac fbbc
00000240: 9227 a6bb 5dec 573c 255e 333c 5a1b b5bc
00000250: 9af4 a93c 426a 1c3d 2242 cebc a4f6 0f3d
00000260: 4996 33bd e62f 73bb 39a4 b4bd ccaa a1bd
00000270: 8c14 303c 8dca 3fbc 22c7 fa3c 747a c23c
00000280: 060c 8b3c 71aa 68bc 7e2f 91bb 4742 aabc
00000290: 4a4a 23bd 6a9a dd3b 5b57 31bd 39e2 a8bc
000002a0: 460c d9bc 01fd 003b 74f5 9dbc ebed 0cbd
000002b0: 7fb4 c0bc 8d6a dcbb f0d9 1b3d 69f4 ef3b
000002c0: 80f1 6c3d 475f 393c 082a 1c3d 3459 4a3d
000002d0: 61de 04bc 1e5d 0ebc d6d2 2dbc 8af4 7c3d
000002e0: 944f 21bc 89bb ae3c 1145 0bbc a4e7 50bd
000002f0: a456 ecbc 008d 183d 4ae3 aebc b471 4a3d
00000300: f275 fabc 2472 ccbc c70c 00bc 4300 f63c
00000310: 538f 593b 4afa af3c a4a9 973d a4d0 d4bc
00000320: 4c82 453c 0b2e ab3c 26d9 89bc 1955 8cbc
00000330: 3953 5e3d fbd8 23bc a7ea 29bd 12ef a53d
00000340: 4cbb b43c e805 343d d2f8 373d 0fe9 44bb
00000350: d9fb 0d3d 0a79 313d fa8a cabc d52f 4fbc
00000360: 5f8c d8bb da06 343c 374e 9cbc 3e30 6ebb
00000370: 08c2 24bb 40ef babb bffd 9f3d 263d 803c
00000380: c50f fcbc 0e4c 8e3b a8ac dbbb 1081 b73c
00000390: cd90 a6bc e4c1 31bc e066 a43c 5998 6d3d
000003a0: da60 34bc b363 9e3a 8030 e43b 3b59 163c
000003b0: 53f8 84bc 999a 3abc ea6c 703d d093 923d
000003c0: edc3 c6bd c2bd aa3b 9d00 053d 5d99 34bc
000003d0: 2e59 acb9 0aa6 15bd e744 3fbd 4ab8 c1bc
000003e0: 8b31 d5bc ae72 87bd a73e eabc 1e6f 7abd
000003f0: 4bcd e7bb e1d5 fcbc 5e29 afbc 9e53 fa3c

bias f4 [32]
0.12667823 0.09038701 -0.03433414 -0.07560905 -0.14793059 -0.020791996 0.17003207 0.0034067337
-0.13572353 -0.034495074 -0.055772837 -0.027361114 -0.14269292 0.038708974 0.113749005 -0.04444544
-0.20044483 -0.13839279 -0.09424751 0.05961388 -0.19894986 0.03144255 0.06960714 -0.00019719766
0.078384966 -0.13463722 -0.005103373 -0.13167216 0.033015206 -0.012704407 -0.15832548 0.117781125
00000000: f0b7 013e d31c b93d f5a1 0cbd ebd8 9abd
00000010: 1e7b 17be fa53 aabc e31c 2e3e 8243 5f3b
00000020: 1cfb 0abe b54a 0dbd 0f72 64bd 6a24 e0bc
00000030: 181e 12be 4d8d 1e3d 3df5 e83d 6c0c 36bd
00000040: 6941 4dbe d7b6 0dbe d704 c1bd af2d 743d
00000050: 83b9 4bbe e7c9 003d 308e 8e3d d8c6 4eb9
00000060: 4c88 a03d 57de 09be 323a a7bb 11d5 06be
00000070: f43a 073d 2526 50bc 1320 22be 3b37 f13d

weight f4 [32]
0.97952896 0.96202385 0.99540883 0.9523105 0.9669878 0.9888648 1.00064 0.9845086
1.004142 0.98747456 1.0154779 1.0667945 1.0258147 1.0032163 0.9776676 1.0097648
1.0175521 0.9797929 1.0219085 0.93970644 0.9963934 1.0093749 0.9999889 1.0059448
0.97575694 0.93784976 1.0068796 0.9439606 0.9699809 1.057056 0.9681092 1.034361
00000000: 69c2 7a3f 3247 763f 1dd3 7e3f 9fca 733f
00000010: 838c 773f 3e26 7d3f f914 803f c108 7c3f
00000020: ba87 803f 22cb 7c3f 2efb 813f b98c 883f
00000030: e54d 833f 6469 803f 6d48 7a3f f93f 813f
00000040: 263f 823f b5d3 7a3f e6cd 823f 9a90 703f
00000050: a313 7f3f 3233 813f 46ff 7f3f cdc2 803f
00000060: 35cb 793f ec16 703f 6ee1 803f 67a7 713f
00000070: ab50 783f 9c4d 873f 01d6 773f f165 843f

bias f4 [32]
-0.092470646 -0.054504275 0.012406568 -0.13956901 -0.25133267 -0.04596851 -0.1185415 -0.095738545
-0.2159885 -0.0042673443 -0.04752734 -0.027733006 -0.0865533 -0.17838892 -0.075444676 -0.24971263
-0.104722686 -0.083258875 -0.03042143 -0.003071969 -0.17627418 -0.25575542 0.010898304 -0.11425304
-0.083257325 -0.12532026 -0.14417787 -0.20772877 -0.04067373 -0.15339871 -0.10633846 0.014307492
00000000: 4061 bdbd e03f 5fbd eb44 4b3c 2eeb 0ebe
00000010: adae 80be 7a49 3cbd e3c5 f2bd 9212 c4bd
00000020: 172c 5dbe 14d5 8bbb 07ac 42bd 5430 e3bc
00000030: db42 b1bd 96ab 36be bd82 9abd abb4 7fbe
00000040: d978 d6bd a183 aabd 5d36 f9bc 1653 49bb
00000050: 3881 34be 60f2 82be cd8e 323c 7ffd e9bd
00000060: d182 aabd f453 00be 5da3 13be dab6 54be
00000070: 7f99 26bd 8d14 1dbe fbc7 d9bd f969 6a3c

running_mean f4 [32]
0.020084336 0.0015753525 0.078727044 -0.06323632 -0.14551316 -0.0065839407 0.20174514 0.06995702
-0.13290879 0.015441617 0.00797966 -0.02811217 -0.12964512 0.0110775065 0.12944299 -0.04532663
-0.18283483 -0.13111612 -0.030962327 0.07595729 -0.19306134 0.030085668 0.20712359 -0.030156983
0.037461627 -0.17620274 0.018443631 -0.1544361 0.04703115 -0.030016685 -0.19750428 0.1815859
00000000: e887 a43c 0f7c ce3a a53b a13d 0b82 81bd
00000010: 6701 15be 19be d7bb 4796 4e3e a045 8f3d
00000020: 3e19 08be d6fe 7c3c 1fbd 023c 7e4b e6bc
00000030: b1c1 04be 6e7e 353c b48c 043e 6ba8 39bd
00000040: 0e39 3bbe 4e43 06be b5a4 fdbc 7f8f 9b3d
00000050: dfb1 45be 3876 f63c 3518 543e c70b f7bc
00000060: 5d71 193d 7e6e 34be 1917 973c 7f24 1ebe
00000070: bca3 403d 8de5 f5bc 903e 4abe a7f1 393e

running_var f4 [32]
0.017451135 0.014645486 0.018069722 0.005784662 0.00816507 0.004445054 0.006888217 0.012149626
0.00682794 0.008738878 0.015909573 0.010192271 0.009234535 0.00376123 0.009238505 0.009620531
0.014481124 0.0049947724 0.016991122 0.006444942 0.0054186024 0.0061976854 0.02075316 0.009023858
0.008529686 0.010408708 0.008789065 0.01869503 0.014733936 0.013442279 0.007670032 0.018661508
00000000: aff5 8e3c 9ff3 6f3c f406 943c 438d bd3b
00000010: c9c6 053c d1a7 913b 8db6 e13b 3a0f 473c
00000020: e9bc df3b 832d 0f3c cb54 823c 7cfd 263c
00000030: 724c 173c f87e 763b 195d 173c 6f9f 1d3c
00000040: 3c42 6d3c 30ab a33b f730 8b3c 1830 d33b
00000050: 888e b13b f415 cb3b 8802 aa3c ced8 133c
00000060: 19c0 0b3c 4989 2a3c 0300 103c 5226 993c
00000070: 9b66 713c 013d 5c3c e454 fb3b 05e0 983c

weight f4 [32, 32, 3, 3]
0.014383567 0.023456635 -0.052214693 0.0002058366 -0.029670056 -0.021844015 -0.057558324 -0.03131829
-0.023698483 -0.0022035053 -0.0471961 -0.05931112 0.013009986 0.045829006 -0.0077688736 0.031801242
-0.022116572 -0.051833037 -0.0022021742 0.026476026 -0.03861154 0.022856003 0.043839004 0.011989674
0.025336882 -0.02164669 -0.021802835 0.02031633 0.026444744 0.040624246 0.05004053 0.012217412
-0.0033473908 0.06465772 -0.021774162 0.016024824 -0.05283832 -0.042477306 0.0030892957 0.04425528
0.023945428 0.034241833 0.03698386 0.04596777 0.03780406 -0.017579272 -0.012124102 -0.10294248
-0.015349964 -0.008500705 -0.019465726 -0.03758699 0.0013087078 -0.05363135 -0.019353105 -0.023031825
-0.026525447 0.010284504 -0.026316023 -0.024267001 0.003242594 0.05304422 0.010540105 0.028498618
0.08246266 0.017703595 0.006223821 0.025567371 0.0057728463 0.0009911583 -0.024215259 -0.0147821875
0.009285076 0.0071642357 0.043261185 0.027230702 -0.03411811 0.04634586 -0.0021652472 0.03239919
0.069482855 0.013710757 0.022394987 -0.024505375 -0.03333366 0.041039858 -0.016535286 -0.025821617
-0.03791745 -0.02852073 -0.040872976 -0.067288905 -0.01743353 -0.04657474 -0.056921203 -0.022222184
-0.088884026 0.0028104752 -0.026270172 -0.0024426926 0.005972542 -0.055537622 -0.026604053 -0.025912149
-0.032451503 -0.016464187 -0.048993617 0.005273318 -0.05753536 -0.0076498226 -0.0050887205 -0.024966968
-0.012772281 -0.019199371 -0.016874932 0.032708056 0.018464817 -0.0067218174 -0.015347666 0.045382965
0.029539533 -0.041566014 -0.033186156 0.02995135 0.02472528 -0.014240232 -0.0022741524 0.0417389
-0.009926518 -0.041692376 -0.041673813 -0.016257603 -0.0013543383 0.031986177 0.013756704 -0.014794449
-0.040956534 0.0056101005 0.035670258 -0.0058027385 0.0004357082 0.060851578 -0.006684609 -0.008482291
-0.031941254 0.008726558 -0.008886563 -0.063878044 -0.043050405 0.0050229435 -0.09766566 -0.009145968
0.0068982677 -0.037308387 0.05238024 0.033377007 0.007332714 -0.0129201375 -0.037645906 0.04043248
0.015303986 -0.023046965 -0.0092323795 -0.050982334 0.0066259834 -0.03294373 -0.025766542 -0.007931906
-0.061416384 -0.06351544 0.004126268 0.022926703 -0.04954359 0.006245865 0.03749943 0.03562417
-0.00082683604 0.0102665555 -0.017641632 -0.03913184 -0.067085885 -0.071364984 0.0285015 -0.00741483
0.02452893 0.00070074585 0.023722937 0.024237644 0.012036861 0.00056434306 -0.025296228 -0.0052358527
-0.0058141924 0.061046164 -0.025945954 -0.00035357554 -0.010630311 -0.03349318 0.018029053 -0.008018964
-0.019496407 -0.07320071 0.027460689 -0.03193079 -0.02952328 -0.03627217 -0.0012355397 -0.016733272
0.009091671 -0.010756534 0.0039495453 -7.3065814e-05 -0.020110564 -0.02850345 -0.032469977 -0.027572872
-0.0054289233 -0.026663806 -0.048673533 -0.008466932 0.0015735796 0.014034127 0.0061299987 -0.03407103
-0.05052556 -0.002653845 -0.019592224 -0.048460774 -0.014044493 0.011273231 0.017662449 -0.061856754
0.019669179 -0.015745025 -0.06332236 0.022959072 0.015412349 -0.09034398 -0.044648226 -0.062960654
0.049502086 0.05795507 0.06380973 -0.04907811 -0.030086119 -0.05906875 0.052624233 0.01090798
0.021659603 0.0048035025 -0.032822512 -0.016552685 -0.018788297 -0.02738308 -0.021029517 0.014850703
00000000: 0da9 6b3c 2128 c03c 13df 55bd d7d5 5739
00000010: 9e0e f3bc 38f2 b2bc 47c2 6bbd 9b47 00bd
00000020: 5223 c2bc af68 10bb b350 41bd 38f0 72bd
00000030: d627 553c 32b7 3b3d 0992 febb 0542 023d
00000040: d02d b5bc e14e 54bd 5a52 10bb 40e4 d83c
00000050: 2227 1ebd 833c bb3c 8790 333d 5670 443c
00000060: 4b8f cf3c 6654 b1bc dc9b b2bc 6f6e a63c
00000070: a6a2 d83c 9c65 263d 4cf7 4c3d 8a2b 483c
00000080: e65f 5bbb 446b 843d ba5f b2bc 7e46 833c
00000090: ff6c 58bd affc 2dbd c875 4a3b 0645 353d
000000a0: 3429 c43c 2a41 0c3d 637c 173d b348 3c3d
000000b0: 6ed8 1a3d 6802 90bc 2ba4 46bc 82d3 d2bd
000000c0: 6a7e 7bbc 8a46 0bbc 9676 9fbc d1f4 19bd
000000d0: f288 ab3a 8cac 5bbd 678a 9ebc 3dad bcbc
000000e0: e54b d9bc 5680 283c b394 d7bc 97cb c6bc
000000f0: b381 543b e544 593d 68b0 2c3c ef75 e93c
00000100: 2fe2 a83d 2107 913c 32f1 cb3b aa72 d13c
00000110: 252a bd3b c1e9 813a 145f c6bc fd30 72bc
00000120: 6e20 183c f7c1 ea3b a432 313d ec12 df3c
00000130: 6ebf 0bbd 28d5 3d3d d2e6 0dbb 03b5 043d
00000140: 074d 8e3d 15a3 603c b175 b73c 7fbf c8bc
00000150: e088 08bd 6919 283d 0275 87bc db87 d3bc
00000160: 544f 1bbd 4ea4 e9bc 6c6a 27bd c4ce 89bd
00000170: c3d0 8ebc 28c5 3ebd 3526 69bd 4c0b b6bc
00000180: d408 b6bd f32f 383b 8b34 d7bc 9515 20bb
00000190: 50b5 c33b 6b7b 63bd bef0 d9bc b745 d4bc
000001a0: deeb 04bd e7df 86bc 88ad 48bd cccb ac3b
000001b0: 33aa 6bbd 5dab fabb 48bf a6bb 8787 ccbc
000001c0: d442 51bc 0048 9dbc 4c3d 8abc e2f8 053d
000001d0: 8743 973c b142 dcbb c774 7bbc 7de3 393d
000001e0: e4fc f13c 2041 2abd 35ee 07bd 895c f53c
000001f0: ac8c ca3c dd4f 69bc f209 15bb 69f6 2a3d
00000200: d6a2 22bc a0c5 2abd 29b2 2abd aa2e 85bc
00000210: 0d84 b1ba f003 033d cc63 613c 6b64 72bc
00000220: 0ac2 27bd efd4 b73b fa1a 123d e624 bebb
00000230: c46f e439 813f 793d 910a dbbb 4ff9 0abc
00000240: d5d4 02bd d6f9 0e3c f298 11bc 7ed2 82bd
00000250: 9f55 30bd 8197 a43b ef04 c8bd f8d8 15bc
00000260: dd0a e23b aed0 18bd aa8c 563d 54b6 083d
00000270: 4347 f03b fcae 53bc 9832 1abd 879c 253d
00000280: 92bd 7a3c fdcc bcbc 6843 17bc dad2 50bd
00000290: c71e d93b 01f0 06bd 5b14 d3bc d3f4 01bc
000002a0: bf8f 7bbd 6214 82bd a535 873b c8d0 bb3c
000002b0: 38ee 4abd 1daa cc3b 0199 193d a6ea 113d
000002c0: 07c0 58ba 0e35 283c 2f85 90bc b548 20bd
000002d0: 5364 89bd ce27 92bd fa7b e93c 1af8 f2bb
000002e0: e5f0 c83c 42b2 373a 9b56 c23c 068e c63c
000002f0: 4136 453c 6cf0 133a 093a cfbc 8491 abbb
00000300: fb84 bebb 8b0b 7a3d 9c8c d4bc 1b60 b9b9
00000310: c22a 2ebc 2530 09bd aab1 933c f961 03bc
00000320: eeb6 9fbc 41ea 95bd 3df5 e03c dcc9 02bd
00000330: ceda f1bc 2092 14bd d5f1 a1ba 3714 89bc
00000340: 3bf5 143c 2c3c 30bc 306b 813b e93a 99b8
00000350: e9be a4bc 1180 e9bc 3dff 04bd 81e0 e1bc
00000360: 1ce5 b1bb 0e6e dabc e65d 47bd e3b8 0abc
00000370: 9240 ce3a 65ef 653c 28de c83b 108e 0bbd
00000380: e4f3 4ebd 21ec 2dbb df7f a0bc ce7e 46bd
00000390: e01a 66bc 5cb3 383c d7b0 903c 825d 7dbd
000003a0: 4221 a13c b6fb 80bc 27af 81bd aa14 bc3c
000003b0: 1484 7c3c 4406 b9bd 0fe1 36bd 84f1 80bd
000003c0: b3c2 4a3d 4c62 6d3d adae 823d 2106 49bd
000003d0: 2a77 f6bc 13f2 71bd 828c 573d 62b7 323c
000003e0: 7b6f b13c b366 9d3b e670 06bd 7f99 87bc
000003f0: eae9 99bc 7b52 e0bc 1846 acbc 5d50 733c

bias f4 [32]
-0.035231203 0.01331577 0.022039222 0.026116224 -0.024900185 0.051578905 0.0026784893 -0.022797035
-0.058173046 -0.041293923 -0.02603937 0.028529445 -0.050461844 0.044170786 -0.05915321 -0.028605841
0.042607028 0.009079239 0.02738994 -0.022210283 -0.011653483 -0.034405984 0.046243478 0.011585032
0.013215248 0.0080404375 -0.030985136 0.06284952 0.013088843 0.019470822 0.057830855 -0.009525818
00000000: 984e 10bd 632a 5a3c 998b b43c b1f1 d53c
00000010: 79fb cbbc 6744 533d 9889 2f3b d9c0 babc
00000020: dc46 6ebd d123 29bd 8450 d5bc 95b6 e93c
00000030: 14b1 4ebd 6dec 343d a34a 72bd cc56 eabc
00000040: b584 2e3d 17c1 143c de60 e03c 57f2 b5bc
00000050: 40ee 3ebc 4aed 0cbd cd69 3d3d 25cf 3d3c
00000060: c484 583c 0abc 033c 8ad4 fdbc 40b7 803d
00000070: 9672 563c 4681 9f3c 0ce0 6c3d 2d12 1cbc

weight f4 [32]
0.9848481 1.0431093 1.0224768 1.014871 1.0089201 1.0192763 0.9816436 1.0107857
1.023333 0.98000735 1.0795997 0.9861022 0.9337485 0.97196364 1.0633236 1.0767255
0.9784991 1.0269608 0.9436361 1.0319816 0.9953067 0.9806791 0.997015 0.9631741
0.94170165 1.0491741 1.0102574 0.97213274 1.0283109 1.0661851 0.97451824 1.0133553
00000000: 011f 7c3f 9b84 853f 85e0 823f 4be7 813f
00000010: 4b24 813f a577 823f ff4c 7b3f 6d61 813f
00000020: 93fc 823f c3e1 7a3f 5330 8a3f 3271 7c3f
00000030: 240a 6f3f 9cd2 783f fd1a 883f 24d2 893f
00000040: eb7e 7a3f 7473 833f 2392 713f f917 843f
00000050: 6bcc 7e3f c90d 7b3f 603c 7f3f 9492 763f
00000060: 5c13 713f 564b 863f 1d50 813f b1dd 783f
00000070: b19f 833f c178 883f 077a 793f a0b5 813f

bias f4 [32]
-0.1567708 -0.17460877 -0.14547142 -0.03858452 -0.17269017 -0.3001626 -0.11400297 -0.14971797
-0.06713483 -0.021518644 -0.106323875 -0.107382245 -0.22088282 -0.14725652 -0.07966133 -0.02690866
-0.017774079 -0.16837224 -0.15548712 -0.07391774 -0.20202829 -0.090365246 -0.10354766 -0.1376252
-0.13208303 -0.07872944 -0.2096785 -0.07086572 -0.19784997 -0.115504876 0.0012732028 -0.095360845
00000000: 8688 20be a4cc 32be 76f6 14be cd0a 1ebd
00000010: b1d5 30be eaae 99be 647a e9bd ab4f 19be
00000020: fc7d 89bd de47 b0bc 55c0 d9bd 39eb dbbd
00000030: 1b2f 62be 6aca 16be 7b25 a3bd 8d6f dcbc
00000040: f29a 91bc c669 2cbe 0438 1fbe 2f62 97bd
00000050: 81e0 4ebe 6a11 b9bd cc10 d4bd 9fed 0cbe
00000060: c640 07be e73c a1bd f6b5 56be 0c22 91bd
00000070: 2f99 4abe d28d ecbd 99e1 a63a 8c4c c3bd

running_mean f4 [32]
-0.7230714 -0.3818482 -0.024470268 0.06703015 0.16047275 0.16764848 -0.2542812 -0.0665627
-0.7319071 -0.51366544 -0.5687874 -0.14761662 -0.22074999 0.044069763 -0.12679943 -0.021107908
0.62481964 -0.1366837 -0.08254171 -0.09529968 -0.19740771 -0.15637904 0.16547494 -0.31393495
0.15649804 -0.17422532 -0.48862723 -0.23011306 -0.12555985 -0.65732616 -0.16860855 0.16343473
00000000: 351b 39bf 9b81 c3be df75 c8bc 1a47 893d
00000010: f852 243e 0bac 2b3e 2531 82be 0652 88bd
00000020: 445e 3bbf 947f 03bf 0d9c 11bf d028 17be
00000030: 490c 62be 7f82 343d b6d7 01be 7eea acbc
00000040: 2ef4 1f3f d0f6 0bbe a10b a9bd 7b2c c3bd
00000050: 3f25 4abe d421 20be 4372 293e 15bc a0be
00000060: 0641 203e 1f68 32be 592d fabe c2a2 6bbe
00000070: c392 00be 8746 28bf b8a7 2cbe 6f5b 273e

running_var f4 [32]
0.3487941 0.23678313 0.1722843 0.44349617 0.19405836 0.12658826 0.23087668 0.10956507
0.48537633 0.2659827 0.21426058 0.18600932 0.14987297 0.16119552 0.18912785 0.17743382
1.4410821 0.2769542 0.18326561 0.11385224 0.2584129 0.101576075 0.2364443 0.3864731
0.16636984 0.18970366 0.18998627 0.2445874 0.17889754 0.34132305 0.23834589 0.36462516
00000000: 2495 b23e 4777 723e 4c6b 303e ee11 e33e
00000010: 3cb7 463e 5aa0 013e f06a 6c3e a763 e03d
00000020: 3f83 f83e e22e 883e 2067 5b3e 3a79 3e3e
00000030: 4d78 193e 7010 253e bbaa 413e 36b1 353e
00000040: 6175 b83f f1cc 8d3e fba9 3b3e 5d2b e93d
00000050: b24e 843e 1e07 d03d 741e 723e cddf c53e
00000060: db5c 2a3e ad41 423e c38b 423e 1f75 7a3e
00000070: eb30 373e e5c1 ae3e f210 743e 26b0 ba3e

weight f4 [32, 32, 3, 3]
0.02420541 -0.005970957 0.019078318 -0.027461935 -0.011047878 -0.013507979 0.020361597 0.0047128643
0.01993933 0.009104058 -0.07047168 -0.014980057 0.033902165 0.03609346 -0.01559228 -0.059352282
-0.08354377 -0.0012620717 0.026383206 0.042653643 0.01583812 0.015754495 0.043755103 0.015180223
0.004527185 -0.011567884 -0.0021988333 0.011986218 -0.013775559 0.0685175 -0.013171769 0.007046399
0.032479733 -0.025336271 0.022314323 0.07606173 -0.024429154 -0.01819291 -0.035642236 -0.038461708
-0.004903259 0.022534287 0.0227351 -0.02731487 -0.03351477 0.028732518 0.04706635 -0.09843107
-0.015543487 -0.012424562 0.056012087 0.06622632 0.016219161 0.015866715 0.040328927 -0.010431527
-0.037017543 0.01493974 -0.0013376675 -0.052036636 0.029008428 0.07498703 0.047418598 0.022433463
0.026808124 0.009716937 0.009951491 -0.004713332 -0.066544354 0.048465796 -0.025810154 -0.009145397
-0.06210775 -0.027864931 -0.0040563745 -0.015777608 0.015271046 -0.010568759 -0.066137716 -0.015680589
-0.025162196 0.0073656687 0.011789478 0.047611553 0.02524766 -0.0004269005 0.019572577 -0.016371282
-0.013483811 -0.02629249 0.001085807 -0.00029387456 -0.041679382 0.070523575 -0.013557509 -0.03058111
-0.052388884 -0.045366794 -0.07351483 -0.033515334 -0.060856935 -0.08012769 0.04579657 0.030683825
0.006516254 0.0043336838 0.009748508 -0.05350513 -0.010881862 -0.0043603317 -0.024810394 -0.008527644
0.008605893 0.02315719 -0.020378955 0.0063119233 0.05224943 0.028226374 0.018014384 0.005518894
-0.018295396 -0.03860556 -0.0431605 0.014195502 -0.017018383 -0.050794072 -0.06476225 -0.10378167
-0.042316034 -0.010354827 0.0046416665 0.064970806 -0.011957583 -0.0679076 0.0016431401 -0.024851607
0.0048163533 -0.031802878 0.022723809 0.012595585 -0.013258797 0.05845511 -0.016989255 -0.05401553
-0.008144117 -0.01911898 0.0018362103 0.052836716 0.03001406 0.039281666 -0.0049607637 -0.004172411
-0.03479749 0.021422591 0.0021809575 -0.0053018522 0.060664505 0.055330347 -0.016092652 -0.005479827
-0.013653436 -0.04493012 -0.0052600456 0.0057810317 0.024400184 -0.008656073 0.028747631 -0.0050452463
0.01355287 0.021849895 -0.01344049 0.0027594483 0.037564415 -0.062050585 -0.0033062303 0.012762834
-0.025330978 0.040938485 -0.0015237237 -0.08571928 0.0010932072 -0.004693495 -0.065458685 0.014654258
0.026111223 0.0012251975 -0.02780906 0.028450498 -0.010370367 0.028711027 -0.005737645 0.05112049
-0.002924177 -0.00877752 -0.01950788 -0.01096305 -0.02069083 0.029018112 -0.0014216966 0.0073841196
0.012645412 -0.018969089 0.012947373 0.030502947 -0.009665588 0.0025577687 0.03691525 -0.09067716
-0.021965489 -0.056264926 -0.0028160596 0.03189492 -0.0023574152 0.022876045 0.0044019534 0.032886337
0.03714717 0.056272138 0.045621492 0.013531328 -0.0057803662 -0.009124985 0.014476446 -0.019659402
-0.015265663 0.013639334 0.021411447 0.049631793 -0.02019017 -0.012474731 0.017772503 0.0072945496
0.04959179 -0.0026686706 -0.04968864 0.00981238 -0.05304994 0.00084413576 -0.05276291 0.011156111
0.04739698 0.003496748 -0.036546484 0.038866058 0.051045 -0.013088168 -0.010321831 0.0071985987
-0.0015703684 0.020149035 -0.027749596 -0.0040893652 -0.029994993 0.028461404 0.03435396 0.023331422
00000000: 6d4a c63c 05a8 c3bb 224a 9c3c daf7 e0bc
00000010: 2902 35bc 9250 5dbc 5dcd a63c 5f6e 9a3b
00000020: ce57 a33c 3029 153c 7553 90bd ea6e 75bc
00000030: ffdc 0a3d bcd6 133d c376 7fbc 611b 73bd
00000040: ff18 abbd 196c a5ba 9821 d83c 96b5 2e3d
00000050: f2be 813c 920f 813c 8d38 333d 78b6 783c
00000060: c858 943b 3987 3dbc 4d1a 10bb d861 443c
00000070: e2b2 61bc e752 8c3d 67ce 57bc 7be5 e63b
00000080: 7809 053d 038e cfbc 87cc b63c 41c6 9b3d
00000090: a61f c8bc 4c09 95bc 98fd 11bd 068a 1dbd
000000a0: 85ab a0bb d399 b83c f63e ba3c 6fc3 dfbc
000000b0: c946 09bd 7560 eb3c a5c8 403d 3b96 c9bd
000000c0: 1caa 7ebc 6490 4bbc ee6c 653d aaa1 873d
000000d0: 0cde 843c eafa 813c f22f 253d ffe8 2abc
000000e0: b59f 17bd d0c5 743c ac54 afba 5e24 55bd
000000f0: 15a3 ed3c cd92 993d 013a 423d 62c6 b73c
00000100: b69c db3c ca33 1f3c 940b 233c 4b72 9abb
00000110: 6848 88bd 1284 463d d16f d3bc 93d6 15bc
00000120: b264 7ebd ff44 e4bc 56eb 84bb 0b40 81bc
00000130: 6933 7a3c 9728 2dbc 3673 87bd 9474 80bc
00000140: f320 cebc b55b f13b a828 413c 5504 433d
00000150: 2ed4 ce3c 9dd1 dfb9 ab56 a03c 111d 86bc
00000160: 34eb 5cbc 5963 d7bc a351 8e3a 2d13 9ab9
00000170: 00b8 2abd aa6e 903d 5020 5ebc 3c85 fabc
00000180: ba95 56bd 88d2 39bd f18e 96bd 6047 09bd
00000190: 1f45 79bd fd19 a4bd 2f95 3b3d a55c fb3c
000001a0: 4d86 d53b 9301 8e3b 35b8 1f3c 3228 5bbd
000001b0: d649 32bc 1de1 8ebb 2b3f cbbc 88b7 0bbc
000001c0: bbff 0c3c 26b4 bd3c c4f1 a6bc 40d4 ce3b
000001d0: 8003 563d ff3a e73c e792 933c d7d7 b43b
000001e0: 3ae0 95bc dd20 1ebd 10c9 30bd 4094 683c
000001f0: 236a 8bbc 720d 50bd 12a2 84bd 7c8b d4bd
00000200: 9453 2dbd 4ba7 29bc 1f19 983b 6a0f 853d
00000210: bde9 43bc 2413 8bbd a25e d73a 9995 cbbc
00000220: 80d2 9d3b bc43 02bd 4827 ba3c b65d 4e3c
00000230: 6d3b 59bc a06e 6f3d 0d2d 8bbc 633f 5dbd
00000240: e76e 05bc 689f 9cbc feac f03a 506b 583d
00000250: 0ce0 f53c d0e5 203d e78d a2bb b8b8 88bb
00000260: d087 0ebd 6e7e af3c 65ee 0e3b 29bb adbb
00000270: 587b 783d 13a2 623d bdd4 83bc 1f90 b3bb
00000280: a9b2 5fbc a508 38bd 765c acbb cf6e bd3b
00000290: e5e2 c73c 34d2 0dbc 2780 eb3c 9852 a5bb
000002a0: db0c 5e3c 8dfe b23c 8035 5cbc dcd7 343b
000002b0: 25dd 193d c128 7ebd 57ad 58bb 351b 513c
000002c0: e982 cfbc 1daf 273d afb7 c7ba 978d afbd
000002d0: f249 8f3a e4cb 99bb 340f 86bd 6a18 703c
000002e0: 34e7 d53c ce96 a03a d3cf e3bc 0511 e93c
000002f0: 79e8 29bc 6333 eb3c db02 bcbb b863 513d
00000300: 8da3 3fbb 96cf 0fbc fdce 9fbc 5d9e 33bc
00000310: d17f a9bc 64b7 ed3c 3958 baba 7cf6 f13b
00000320: b42e 4f3c 1065 9bbc 3821 543c 51e1 f93c
00000330: 6a5c 1ebc 3da0 273b 7234 173d f2b4 b9bd
00000340: f8f0 b3bc 0d76 66bd a48d 38bb 3fa4 023d
00000350: dd7e 1abb 8b66 bb3c 433e 903b d3b3 063d
00000360: a227 183d 9d7d 663d 9add 3a3d 81b2 5d3c
00000370: 3a69 bdbb f680 15bc 9e2e 6d3c c10c a1bc
00000380: d51c 7abc 8377 5f3c 0f67 af3c b54a 4b3d
00000390: db65 a5bc d062 4cbc a497 913c 1e07 ef3b
000003a0: c320 4b3d dde4 2ebb 5186 4bbd 1bc4 203c
000003b0: e54a 59bd fe48 5d3a ec1d 58bd 1fc8 363c
000003c0: 5623 423d b229 653b c4b1 15bd 0432 1f3d
000003d0: 9014 513d c16f 56bc e61c 29bc 39e2 eb3b
000003e0: d2d4 cdba 970f a53c 1f53 e3bc 1500 86bb
000003f0: 0fb8 f5bc e427 e93c bdb6 0c3d 8a21 bf3c

bias f4 [32]
0.07258646 0.028571753 -0.04462658 -0.0014551707 -0.0057979226 0.014102028 0.06005286 0.058655187
-0.040180836 -0.06604922 -0.029689083 0.040455606 -0.0385882 0.051033407 0.01597181 -0.018118028
-0.052130155 -0.012804824 -0.06604827 -0.006283989 -0.009413902 -0.0054258313 -0.00552287 0.019235464
0.02748602 0.05577859 -0.0066031134 0.019960541 -0.04501566 0.038770873 -0.03463053 0.02790405
00000000: 36a8 943d 4f0f ea3c 5cca 36bd 6dbb beba
00000010: 80fc bdbb 310c 673c fdf9 753d 6c40 703d
00000020: a994 24bd d044 87bd 8536 f3bc c7b4 253d
00000030: a90e 1ebd 6808 513d 50d7 823c 426c 94bc
00000040: 6e86 55bd 53cb 51bc 5144 87bd ece9 cdbb
00000050: c43c 1abc 2ccb b1bb 31f9 b4bb b193 9d3c
00000060: 5d2a e13c 1778 643d ee5e d8bb 4a84 a33c
00000070: 5762 38bd 35ce 1e3d bed8 0dbd 0997 e43c

weight f4 [32]
1.0057163 1.0185846 1.0166224 1.0200644 1.0066003 1.00019 0.9938539 1.0115091
0.964946 0.9845884 1.0118622 1.0103979 0.98584175 1.0335332 1.0395224 1.0181831
0.99869967 1.0081941 1.0466563 1.0077564 1.0210075 1.0271717 1.0000247 0.95184046
1.0844805 1.0067703 0.987895 1.00931 0.9492054 0.9803062 0.97572225 1.1014881
00000000: 50bb 803f fb60 823f af20 823f 7891 823f
00000010: 47d8 803f 3a06 803f 366d 7e3f 2179 813f
00000020: b306 773f fc0d 7c3f b384 813f b854 813f
00000030: 2060 7c3f d14a 843f 120f 853f d353 823f
00000040: c8aa 7f3f 810c 813f d5f8 853f 29fe 803f
00000050: 60b0 823f 5d7a 833f cf00 803f d1ab 733f
00000060: 42d0 8a3f d9dd 803f b0e6 7c3f 1231 813f
00000070: 20ff 723f 59f5 7a3f efc8 793f 90fd 8c3f

bias f4 [32]
-0.05541154 -0.07882023 -0.06213503 -0.043792956 -0.060994577 -0.10302292 -0.24895895 -0.09662668
-0.080861904 -0.06702164 -0.15907116 -0.04522317 -0.087291926 -0.120110415 -0.23940958 -0.3076756
-0.08310238 -0.0003511376 -0.049705844 -0.10846002 -0.3122187 -0.02975292 -0.0841023 -0.060357206
0.0023608166 -0.1255626 -0.2081367 -0.031048948 0.011504909 -0.12056753 -0.067358226 -0.101707265
00000000: 36f7 62bd 806c a1bd 4d81 7ebd 3e60 33bd
00000010: 73d5 79bd aefd d2bd 18ef 7ebe 35e4 c5bd
00000020: ed9a a5bd a442 89bd 8de3 22be ee3b 39bd
00000030: 1cc6 b2bd 73fc f5bd c927 75be a887 9dbe
00000040: 9531 aabd e418 b8b9 5b98 4bbd 4920 debd
00000050: 21db 9fbe 65bc f3bc d43d acbd 1e39 77bd
00000060: eeb7 1a3b 7b93 00be c921 55be 5d5a febc
00000070: 167f 3c3c 1cec f6bd 1cf3 89bd e64b d0bd

running_mean f4 [32]
0.033425234 -0.42021623 -0.051518936 -0.27045304 -0.46077308 0.041839197 -0.13345999 0.33364564
-0.15644056 -0.01814544 -0.20897263 -0.20583707 0.19141859 -0.22803147 0.15815803 -0.23544367
0.3826961 -0.17612818 -0.18704493 -0.12920511 -0.12350086 -0.012308418 0.03277027 0.06698471
0.093849115 0.3980742 0.35075697 0.21676789 -0.29829723 0.1413161 -0.12782483 0.1857481
00000000: e6e8 083d 9526 d7be 8505 53bd d278 8abe
00000010: 73ea ebbe 945f 2b3d bca9 08be 9ad3 aa3e
00000020: f431 20be bfa5 94bc ecfc 55be f4c6 52be
00000030: 3c03 443e 1581 69be 2ef4 213e 2518 71be
00000040: bef0 c33e f25a 34be b588 3fbe 584e 04be
00000050: 05ee fcbd 3fa9 49bc 1e3a 063d 482f 893d
00000060: f733 c03d 62d0 cb3e 6b96 b33e 67f8 5d3e
00000070: 6aba 98be 2bb5 103e 83e4 02be c034 3e3e

running_var f4 [32]
0.20025939 0.41915762 0.19694997 0.5852116 0.3398968 0.1995393 0.1940252 0.3248384
0.13998823 0.19860834 0.15913701 1.1674954 0.2812107 0.119129285 0.27819288 0.18121947
0.203361 0.15460989 0.19112085 0.2663715 0.12438766 0.12893331 0.43466568 0.30974367
0.16521382 0.21572642 0.15584348 1.453902 0.10637181 0.18633357 0.16321999 0.18019083
00000000: cc10 4d3e d49b d63e 41ad 493e 6dd0 153f
00000010: f406 ae3e 0854 4c3e 8bae 463e 3851 a63e
00000020: 1359 0f3e fc5f 4b3e d0f4 223e 7d70 953f
00000030: d9fa 8f3e 0efa f33d 4c6f 8e3e 9991 393e
00000040: de3d 503e 0e52 1e3e 2fb5 433e d861 883e
00000050: f5be fe3d 1807 043e 808c de3e b996 9e3e
00000060: d02d 293e 63e7 5c3e 6f95 1f3e 7619 ba3f
00000070: 77d9 d93d 3ace 3e3e 2423 273e f283 383e

weight f4 [32, 32, 3, 3]
-0.035070185 0.014951166 -0.0072894553 -0.047493782 0.015904082 0.015581874 -0.018264124 -0.046521038
0.008086296 -0.014640781 -0.027921095 -0.035492297 0.011822577 -0.018861474 -0.051558334 -0.021445762
-0.0006967321 -0.02509647 -0.009344297 0.019624637 -0.025577558 -0.06817742 -0.024757272 -0.0154431015
0.018494349 -0.010949777 0.0125315115 0.031702768 -0.034788016 -0.020165773 -0.023737887 0.03763901
0.0056377393 -0.022436181 0.0013765321 -0.012277897 -0.008362163 -0.042039346 -0.01914393 -0.04741089
0.0138201695 0.06824334 -0.042118877 0.019134153 0.031309333 0.013538193 -0.0328743 -0.017211597
0.021925673 0.01673532 0.03911367 0.0067473464 0.025136048 -0.020316578 -0.005199636 -0.012738253
0.051550675 0.044465758 0.053925816 0.09658798 -0.0047203773 0.02989955 0.05593843 -0.07997291
-0.007567785 -0.046562016 -0.053246126 -0.0556974 -0.027743578 -0.050497793 0.024301449 -0.019898154
0.03226488 0.10037301 -0.0073713916 0.023171153 0.03315143 0.04930015 -0.024095519 0.032412447
0.045322474 0.030130746 -0.06314247 0.040674943 -0.0059737787 0.034188394 -0.029147448 -0.03194258
0.0032821626 -0.07854691 0.023965338 0.0074767396 -0.100805394 -0.012794372 0.017875032 -0.07097993
-0.014553756 0.0007626633 0.022755193 -0.009155301 0.004342551 0.04404156 0.048668634 0.0009333947
0.031187518 0.01903269 0.012814948 -0.01814137 0.053817406 0.007142298 0.02256933 0.0053750016
-0.023534838 -0.015722277 0.008816895 -0.042389847 -0.011975072 -0.00902038 0.0114191035 -0.027780253
0.0014318946 -0.005027615 0.032868337 -0.059053637 -0.0127911875 -0.01904424 0.12305666 0.03843265
0.0116345575 0.043544892 0.024289899 -0.04517736 -0.029468568 -0.0062043853 0.024373885 0.020443765
0.032334834 0.0067816614 -0.04543088 -0.007816129 -0.07287583 0.071294434 -0.04885848 0.032000277
-0.020133754 -0.007504281 0.044660263 0.030632736 0.05821741 -0.011496822 -0.0014819263 0.013859442
-0.0012118899 0.050812174 0.004038575 -0.018630847 -0.047711335 0.026996242 0.066739924 -0.045556802
-0.01144063 -0.046807718 -0.034913108 0.01830751 -0.0020149592 0.0003169414 0.0050762277 -0.006301551
-0.017799973 -0.0017396213 -0.02569785 -0.06224146 -0.0615563 -0.009060247 -0.058607165 0.028211188
-0.09223203 0.030720953 -0.018850913 -0.034174882 0.048798606 0.011913829 0.08946947 -0.032810364
-0.010186046 -0.020072844 0.029847793 -0.027549766 0.015177347 0.022420913 0.0024428302 0.05590654
0.12159812 0.03536723 0.020621488 0.06163137 0.04269735 0.010525946 -0.05273529 -0.010986975
0.010407293 -0.0057718162 -0.0075494936 0.0025733227 -0.025437158 -0.013894546 -0.061933465 -0.0322599
0.0029788439 0.082773805 -0.06842403 0.017188458 0.0065306285 -0.0025489863 0.037660077 0.060270637
-0.02434361 0.01645044 -0.0613589 -0.0015353074 -0.015206168 -0.03329616 0.0129193505 -0.0366932
0.046055313 -0.017753307 0.03697429 0.015136452 -0.05713698 0.07905612 0.022132087 0.054791335
0.0335144 0.0058082724 -0.02525532 -0.0073242025 0.027678557 0.012694948 0.04107664 0.0470896
-0.017382847 0.084706254 -0.004196917 0.0052939826 -0.022648053 -0.0077216597 0.002227338 -0.0104685165
-0.049849074 -0.01871793 -0.022073824 0.033487942 -0.017679684 0.039247368 0.0054325904 -0.0012768328
00000000: c1a5 0fbd bcf5 743c 62dc eebb d788 42bd
00000010: 4749 823c 1e4b 7f3c a59e 95bc d88c 3ebd
00000020: 627c 043c e3df 6fbc c8ba e4bc 5f60 11bd
00000030: 7bb3 413c 6183 9abc d52e 53bd 06af afbc
00000040: e6a4 36ba 1d97 cdbc d318 19bc d9c3 a03c
00000050: 0788 d1bc 9aa0 8bbd c3cf cabc 1005 7dbc
00000060: 7681 973c b266 33bc f850 4d3c c3da 013d
00000070: e17d 0ebd b132 a5bc f575 c2bc 5d2b 1a3d
00000080: c9bc b83b 15cc b7bc c16c b43a 3c29 49bc
00000090: 7401 09bc 7331 2cbd bbd3 9cbc ec31 42bd
000000a0: fe6d 623c 2ac3 8b3d d884 2cbd 3abf 9c3c
000000b0: 373e 003d 4ccf 5d3c 34a7 06bd 56ff 8cbc
000000c0: 789d b33c 8318 893c a835 203d d818 dd3b
000000d0: 1dea cd3c f46e a6bc b561 aabb 1bb4 50bc
000000e0: cd26 533d ba21 363d 51e1 5c3d ebcf c53d
000000f0: 65ad 9abb e7ef f43c b21f 653d d6c8 a3bd
00000100: 2ffb f7bb d0b7 3ebd 9c18 5abd f522 64bd
00000110: 8046 e3bc c6d6 4ebd d513 c73c 7401 a3bc
00000120: 2e28 043d 5d90 cd3d b78b f1bb 6ed1 bd3c
00000130: cbc9 073d f4ee 493d f763 c5bc eac2 043d
00000140: 0fa4 393d c1d4 f63c d750 81bd c59a 263d
00000150: b0bf c3bb 2109 0c3d a1c6 eebc 39d6 02bd
00000160: 8d19 573b 34dd a0bd f552 c43c 70ff f43b
00000170: 0f73 cebd 7c9f 51bc a96e 923c ed5d 91bd
00000180: e172 6ebc 78ed 473a 1969 ba3c 1e00 16bc
00000190: f54b 8e3b ec64 343d c358 473d 0faf 743a
000001a0: f77c ff3c 72ea 9b3c caf5 513c 369d 94bc
000001b0: a46f 5c3d f009 ea3b 51e3 b83c c820 b03b
000001c0: 22cc c0bc 01cc 80bc bd74 103c faa0 2dbd
000001d0: 1833 44bc 37ca 13bc 3117 3b3c 6a93 e3bc
000001e0: 69ae bb3a b1be a4bb f3a0 063d 3ae2 71bd
000001f0: 2192 51bc aa02 9cbc 2105 fc3d 8e6b 1d3d
00000200: df9e 3e3c 215c 323d 9cfb c63c e50b 39bd
00000210: 1168 f1bc 284e cbbb beab c73c af79 a73c
00000220: 8871 043d b338 de3b bb15 3abd 390f 00bc
00000230: ec3f 95bd d102 923d d41f 48bd b912 033d
00000240: 8bef a4bc 79e6 f5bb aeed 363d 81f1 fa3c
00000250: 6175 6e3d 2b5d 3cbc 323d c2ba b712 633c
00000260: 47d8 9eba 6d20 503d 0656 843b b89f 98bc
00000270: f66c 43bd 3927 dd3c f1ae 883d c599 3abd
00000280: 7b71 3bbc 73b9 3fbd 0c01 0fbd a2f9 953c
00000290: 680d 04bb 282b a639 7c56 a63b 3e7d cebb
000002a0: 40d1 91bc 0104 e4ba 4c84 d2bc e7f0 7ebd
000002b0: 7522 7cbd 6e71 14bc 110e 70bd 261b e73c
000002c0: 26e4 bcbd 82aa fb3c 3b6d 9abc f6fa 0bbd
000002d0: 0ce1 473d 3832 433c c53b b73d 2964 06bd
000002e0: 60e3 26bc ce6f a4bc 5c83 f43c 0cb0 e1bc
000002f0: 68aa 783c 10ac b73c e417 203b 42fe 643d
00000300: 6f08 f93d 3bdd 103d 65ee a83c 2d71 7c3d
00000310: 6be3 2e3d 0475 2c3c f600 58bd b702 34bc
00000320: 5a83 2a3c 8121 bdbb be61 f7bb 31a5 283b
00000330: 9661 d0bc f3a5 63bc f2ad 7dbd f522 04bd
00000340: b538 433b 5085 a93d e621 8cbd cfce 8c3c
00000350: e2fe d53b e50c 27bb 7441 1a3d 58de 763d
00000360: 406c c7bc 13c3 863c 7853 7bbd 5e3c c9ba
00000370: 4b23 79bc 8e61 08bd afab 533c 9c4b 16bd
00000380: 7fa4 3c3d 626f 91bc 5a72 173d e2fe 773c
00000390: 7708 6abd 2de8 a13d 5a4e b53c e16c 603d
000003a0: 6546 093d 5253 be3b 3fe4 cebc ddff efbb
000003b0: 24be e23c 79fe 4f3c fb3f 283d 06e1 403d
000003c0: 7966 8ebc 797a ad3d 4b86 89bb 2579 ad3b
000003d0: 6988 b9bc fa05 fdbb 88f8 113b 2484 2bbc
000003e0: 8b2e 4cbd 5856 99bc 2ad4 b4bc a72a 093d
000003f0: fcd4 90bc d9c1 203d df03 b23b 665b a7ba

bias f4 [32]
-0.04903094 0.01800668 0.011214716 0.008981462 -0.012424956 -0.0035138878 0.03716847 -0.04466282
0.028059319 0.027020756 -0.029952072 0.036797713 0.057701487 0.025425153 -0.029045047 0.037473664
-0.023072857 0.017746912 0.031369925 0.010153261 -0.0077715092 -0.011760597 -0.017375689 0.0262099
-0.010680616 -0.031295456 0.038044523 0.056567557 0.011571436 0.047262862 0.023576144 -0.012784714
00000000: abd4 48bd bf82 933c eebd 373c fb26 133c
00000010: 0b92 4bbc 4149 66bb f73d 183d 5cf0 36bd
00000020: a8dc e53c a25a dd3c 0c5e f5bc 33b9 163d
00000030: 6558 6c3d 6948 d03c e1ef edbc fc7d 193d
00000040: 4a03 bdbc f961 913c c07d 003d dd59 263c
00000050: 25a8 febb 85af 40bc 7657 8ebc 25b6 d63c
00000060: c0fd 2ebc aa2f 00bd 93d4 1b3d 62b3 673d
00000070: 1f96 3d3c b496 413d c222 c13c fa76 51bc

weight f4 [32]
1.0780871 1.1693429 1.0556197 1.0324856 1.1152253 0.99591345 1.1302168 1.1379068
1.0328814 1.2871867 1.3445634 1.1147195 1.2740386 1.2917322 1.2726148 1.2870133
1.0358924 1.1113808 1.111772 1.2601119 1.0400465 1.0966538 1.0908277 0.9649573
1.0656997 1.1555951 1.0923761 1.1425537 1.0168697 1.0814401 1.1071991 1.1822879
00000000: c2fe 893f 07ad 953f 8c1e 873f 7d28 843f
00000010: b4bf 8e3f 2ff4 7e3f f2aa 903f eea6 913f
00000020: 7535 843f 89c2 a43f a71a ac3f 21af 8e3f
00000030: b213 a33f 7b57 a53f 0be5 a23f dabc a43f
00000040: 1f98 843f ba41 8e3f 8b4e 8e3f 594b a13f
00000050: 3e20 853f 275f 8c3f 3ea0 8b3f 7107 773f
00000060: d968 883f 8aea 933f fbd2 8b3f 333f 923f
00000070: c928 823f a16c 8a3f b3b8 8d3f 3655 973f

bias f4 [32]
-0.03397116 -0.11749297 -0.051757377 0.008771684 -0.12477892 -0.059963018 0.0006144628 -0.1498408
0.01634787 -0.1084345 -0.30005527 -0.1968902 -0.106320456 -0.065054014 -0.14968161 -0.13549507
-0.11437967 -0.06476221 -0.08351127 -0.18639365 -0.08831753 -0.13868827 -0.14040032 -0.09027114
-0.12648983 -0.07962507 -0.056415647 -0.1212992 -0.05303059 -0.088887885 -0.12143331 -0.09610478
00000000: 5825 0bbd 27a0 f0bd 8bff 53bd 1cb7 0f3c
00000010: 178c ffbd c89b 75bd e713 213a de6f 19be
00000020: f8eb 853c e812 debd d8a0 99be 969d 49be
00000030: 8abe d9bd 0a3b 85bd 2346 19be 38bf 0abe
00000040: e33f eabd 0da2 84bd f507 abbd fadd 3ebe
00000050: d2df b4bd 4c04 0ebe 1ac5 0fbe 13e0 b8bd
00000060: 8d86 01be 7812 a3bd 1814 67bd b76b f8bd
00000070: 9b36 59bd da0a b6bd 07b2 f8bd 95d2 c4bd

running_mean f4 [32]
-0.12799153 0.13544153 -0.3257072 0.041195597 -0.0076937913 0.03091978 0.34254944 -0.32464895
-0.07457242 0.033268355 0.08811793 -0.008576281 0.3862741 -0.06098315 0.39030847 -0.030274121
0.045720696 0.016502863 0.24777095 -0.15980998 -0.15031548 -0.36981878 -0.6039788 -0.2801173
0.13464074 -0.4655883 -0.416758 -0.27166772 -0.2287154 0.26577893 0.069830075 -0.24459371
00000000: 3610 03be 2fb1 0a3e 18c3 a6be b7bc 283d
00000010: 331c fcbb 7a4b fd3c a462 af3e 6338 a6be
00000020: 6db9 98bd 6644 083d 2c77 b43d 8883 0cbc
00000030: b8c5 c53e 78c9 79bd 83d6 c73e 6f01 f8bc
00000040: a045 3b3d 0331 873c abb7 7d3e 3aa5 23be
00000050: 4dec 19be e358 bdbe 5b9e 1abf 896b 8fbe
00000060: 43df 093e 9761 eebe 4e61 d5be 0818 8bbe
00000070: 5f34 6abe 2d14 883e 1203 8f3d c676 7abe

running_var f4 [32]
0.1102205 0.1359279 0.36537927 0.18969823 0.669277 0.13668354 0.21949968 0.46157995
0.15429425 0.14914909 0.08477408 0.09318484 0.34258848 0.3705851 0.40767074 0.1986207
0.23855819 0.84819245 0.16663712 0.19259866 0.113548085 0.4210853 0.43455964 0.18379141
0.6173916 0.68458414 0.21915199 0.52310497 0.47683188 0.61348164 0.35328987 0.5631667
00000000: 49bb e13d af30 0b3e fe12 bb3e 4140 423e
00000010: bd55 2b3f c5f6 0b3e 86c4 603e 3554 ec3e
00000020: 50ff 1d3e 8aba 183e 089e ad3d b2d7 be3d
00000030: c267 af3e 55bd bd3e 38ba d03e 3a63 4b3e
00000040: 9948 743e 2423 593f eca2 2a3e 9538 453e
00000050: e68b e83d 7e98 d73e 9a7e de3e d133 3c3e
00000060: 600d 1e3f e840 2f3f 6169 603e 35ea 053f
00000070: 4f23 f43e 220d 1d3f 69e2 b43e b12b 103f

weight f4 [3, 32, 3, 3]
0.040887795 0.005868445 0.045638837 -0.090687156 -0.017325457 -0.01715507 -0.016813494 0.044219784
-0.018540127 -0.07693931 0.022718742 -0.09216474 -0.06695208 -0.04117604 -0.08561596 0.002766507
0.043782387 -0.07094316 -0.0788268 -0.034991138 -0.043026686 -0.037841227 0.010725722 -0.046139196
-0.05650997 -0.03848116 -0.081722915 0.009457662 0.02021445 0.0052138693 0.06976815 0.07455979
0.08446867 0.055627238 0.055214006 0.033700928 0.0020295365 -0.03802789 -0.060679182 -0.0534196
-0.07881814 -0.07534088 -0.029399304 -0.052185595 -0.0905619 0.01708526 0.008310424 0.03328271
-0.011347449 0.021344919 0.006679513 0.036580425 0.008979664 0.058698293 -0.0046666698 -0.045534175
-0.011318189 -0.026033029 -0.033913936 0.03179176 0.033306863 0.06896811 0.13058746 0.008440913
-0.04653858 0.00022815369 0.07982929 -0.0022554228 0.040059842 0.15318681 0.008869278 0.011125927
0.017969292 0.08901168 0.018745588 0.038312536 0.010320182 0.04860026 0.08081639 0.08087113
0.05806156 0.055552863 -0.034623932 0.07621391 0.05854595 -0.10434917 0.09009152 0.071705416
-0.10907177 0.0683393 0.080882154 -0.081912786 -0.05464041 -0.034554485 0.0284795 0.02582006
-0.07544165 -0.028349815 0.13250485 -0.0030960196 -0.012233045 -0.06386775 0.11274848 0.023127932
-0.071639016 -0.030558975 0.03041033 -0.014657434 0.03773304 -0.08472223 -0.05464211 0.07548032
-0.048420127 -0.028969796 0.17350903 0.01600921 0.046235155 -0.09924308 -0.029364333 0.07080435
-0.13450438 -0.020948716 0.07167428 -0.12731592 -0.06727451 0.026972044 0.019130068 -0.040051557
-0.1257249 0.033768836 0.06332824 -0.09586967 0.035556883 0.10153921 -0.08618725 0.07347516
0.0066340105 -0.044666827 0.094867446 -0.06048729 -0.072982356 0.083218254 -0.034173325 -0.12189009
0.010249038 0.03739953 0.06939743 0.020089854 0.041069567 0.02384136 0.047652043 0.032083042
0.04191758 -0.01342902 -0.04187761 -0.051173013 -0.011948377 -0.038664922 -0.03568922 -0.087228425
-0.051006842 -0.06525698 0.030717418 0.095624276 0.04887812 0.027488653 0.08451234 0.089929305
-0.01315865 -0.025854949 0.012837558 0.06995359 -0.09985253 0.020899585 0.03073893 -0.07751789
0.040455677 -0.011847997 -0.12647516 -0.044358592 0.019411847 -0.0527606 0.010649543 0.010900071
-0.10615008 -0.009975434 -0.037850704 -0.03576003 -0.07239382 0.09542779 -0.0046525653 0.01204551
0.034527294 -0.023777504 -0.010705875 0.0744924 0.06429751 0.124192625 0.13279365 0.09963192
0.06305062 0.10212316 0.066635236 0.051296666 0.038072463 0.03828672 0.0008245279 -0.085778125
0.010682351 -0.017727058 -0.08096998 -0.04146803 -0.019715333 -0.06488884 -0.04379753 -0.034306217
-0.049478374 -0.02617254 -0.067535155 0.035799198 -0.002437231 0.024565509 -0.07197504 -0.023128696
-0.03787223 0.03386765 0.019261274 0.027039563 0.033827357 -0.058802776 -0.05058793 0.15466873
0.092135735 -0.0016640221 -0.04480905 -0.03744343 -0.01176593 -0.09474238 -0.085563995 -0.092332944
0.021319412 0.0014585392 0.035958257 0.10019875 0.049450696 0.11441955 0.05268857 0.007956573
0.114172116 0.024789127 -0.037553255 0.052632175 -0.016791727 -0.03696233 -0.026263319 -0.009401752
00000000: f679 273d 164c c03b caef 3a3d 30ba b9bd
00000010: 1eee 8dbc ca88 8cbc 74bc 89bc ce1f 353d
00000020: 77e1 97bc 5b92 9dbd a81c ba3c dec0 bcbd
00000030: 2c1e 89bd 35a8 28bd 6c57 afbd 494e 353b
00000040: 2955 333d a64a 91bd f26f a1bd de52 0fbd
00000050: c03c 30bd 67ff 1abd f0ba 2f3c 74fc 3cbd
00000060: 0077 67bd 6c9e 1dbd 585e a7bd 4ff4 1a3c
00000070: c698 a53c 1bd9 aa3b 9be2 8e3d ceb2 983d
00000080: e9fd ac3d 63d9 633d 1528 623d fc09 0a3d
00000090: f901 053b 22c3 1bbd bc8a 78bd 83ce 5abd
000000a0: 686b a1bd 524c 9abd cfd6 f0bc 90c0 55bd
000000b0: 8478 b9bd 63f6 8b3c 7228 083c 7353 083d
000000c0: a7ea 39bc 8adb ae3c d1df da3b 5bd5 153d
000000d0: 711f 133c 9f6d 703d ddea 98bb 0b82 3abd
000000e0: ed6f 39bc 3843 d5bc 57e9 0abd 1438 023d
000000f0: c76c 083d 273f 8d3d b8b8 053e c14b 0a3c
00000100: 3d9f 3ebd 8a3c 6f39 8a7d a33d b7cf 13bb
00000110: ca15 243d 01dd 1c3e 7350 113c 8549 363c
00000120: 5634 933c c14b b63d 5990 993c 9bed 1c3d
00000130: fb15 293c 1111 473d 1083 a53d c39f a53d
00000140: f5d1 6d3d 668b 633d d3d1 0dbd 0a16 9c3d
00000150: e1cd 6f3d 05b5 d5bd e781 b83d 4ada 923d
00000160: 0561 dfbd 7af5 8b3d 8ba5 a53d e4c1 a7bd
00000170: 9fce 5fbd 0189 0dbd d74d e93c 9784 d33c
00000180: 2781 9abd df3d e8bc 5aaf 073e 97e6 4abb
00000190: 1c6d 48bc 18cd 82bd ade8 e63d ca76 bd3c
000001a0: 7ab7 92bd d156 fabc 161f f93c bc25 70bc
000001b0: f68d 1a3d d982 adbd 68d0 5fbd 6d95 9a3d
000001c0: 2f54 46bd 1152 edbc 5aac 313e bf25 833c
000001d0: 1361 3d3d f53f cbbd 788d f0bc df01 913d
000001e0: 84bb 09be a49c abbc f7c9 923d 1b5f 02be
000001f0: 38c7 89bd 7af4 dc3c a9b6 9c3c 1a0d 24bd
00000200: 07be 00be 3151 0a3d 3cb2 813d 5157 c4bd
00000210: 18a4 113d caf3 cf3d f182 b0bd 257a 963d
00000220: 1d62 d93b 90f4 36bd dd49 c23d 85c1 77bd
00000230: c677 95bd 556e aa3d 54f9 0bbd 83a1 f9bd
00000240: 95eb 273c 4030 193d 3d20 8e3d 7a93 a43c
00000250: 9038 283d f54e c33c ca2e 433d 8269 033d
00000260: c5b1 2b3d 6405 5cbc db87 2bbd cb9a 51bd
00000270: 20c3 43bc 1c5f 1ebd dc2e 12bd d1a4 b2bd
00000280: 8dec 50bd 74a5 85bd 18a3 fb3c a9d6 c33d
00000290: 6c34 483d e22f e13c ce14 ad3d db2c b83d
000002a0: 6197 57bc c2cd d3bc 9f54 523c d443 8f3d
000002b0: 7c7f ccbd 9b35 ab3c 35d0 fb3c b3c1 9ebd
000002c0: dab4 253d 1a1e 42bc b482 01be 5bb1 35bd
000002d0: 9805 9f3c 801b 58bd 6c7b 2e3c 3696 323c
000002e0: 3765 d9bd 0170 23bc 5709 1bbd 1c79 12bd
000002f0: 3643 94bd a56f c33d 8c74 98bb 885a 453c
00000300: 7e6c 0d3d 0ac9 c2bc b267 2fbc 798f 983d
00000310: 6aae 833d b458 fe3d 0ffb 073e d20b cc3d
00000320: af20 813d f325 d13d 0e78 883d 741c 523d
00000330: dff1 1b3d 89d2 1c3d 2125 583a 71ac afbd
00000340: 0705 2f3c 5638 91bc 97d3 a5bd 62da 29bd
00000350: 0d82 a1bc 71e4 84bd 0a65 33bd ad84 0cbd
00000360: d6a9 4abd cb67 d6bc df4f 8abd 2ea2 123d
00000370: f3b9 1fbb 9b3d c93c a667 93bd 6478 bdbc
00000380: e91f 1bbd ceb8 0a3d d2c9 9d3c 1382 dd3c
00000390: 8e8e 0a3d 2edb 70bd 4a35 4fbd 7b61 1e3e
000003a0: a9b1 bc3d 511b daba b289 37bd 485e 19bd
000003b0: e3c5 40bc 4b08 c2bd 2d3c afbd 0e19 bdbd
000003c0: 0ca6 ae3c 742c bf3a f748 133d 0135 cd3d
000003d0: d08c 4a3d cc54 ea3d f8cf 573d 495c 023c
000003e0: 12d3 e93d 9112 cb3c 71d1 19bd d694 573d
000003f0: ce8e 89bc d065 17bd 2c26 d7bc ce09 1abc

bias f4 [3]
-0.018308908 -0.008633674 0.006345951
00000000: 90fc 95bc 4174 0dbc b2f1 cf3b
