TuiGAN/models/facade2labels/ba1.pth (torch, 233612 bytes, 46 tensors)

weight f4 [32, 3, 3, 3]
0.08168847 -0.009915524 -0.02968699 0.033197463 -0.0051820204 -0.031342052 0.023189258 0.009650651
0.023359796 0.016784472 -0.007283476 -0.036286034 -0.0035487257 -0.014031103 -0.03985184 -0.012305723
0.035809357 0.04861975 -0.022832332 0.031333305 0.041857824 -0.011738782 0.020780254 -0.016752383
0.018937856 0.030984905 0.02996406 0.0048130173 0.011909555 -0.011457539 0.020702306 0.023136754
0.027356641 0.017869582 -0.0018461432 -0.027505375 0.004436901 0.050613314 0.011039323 -0.014325253
0.024792038 0.07158503 -0.06385079 -0.045378536 -0.052356184 -0.028992917 0.016721362 -0.0026253557
-0.013627745 0.036906213 0.006237188 -0.029397214 -0.0032480396 -0.055007778 -0.04564962 -0.027069274
0.010445385 -0.024369853 0.008197462 -0.043744158 -0.04927467 -0.067978725 -0.00040795063 -0.007847076
0.005650022 0.017050043 0.0059613218 0.019984553 -0.034525476 -0.00814472 -0.020376809 0.013402456
-0.10960487 -0.006533042 -0.07293427 -0.030186899 0.014749376 -0.039106894 -0.006428835 0.009277882
0.00469355 -0.0036720312 -0.07302758 0.027163675 0.038158927 -0.05834263 -0.0031275377 -0.013804216
-0.062196396 0.05325607 0.02347285 -0.031199522 0.032363266 0.057590064 -0.07100074 0.0055623213
-0.0012931239 -0.05113392 0.03841108 -0.0065056533 -0.013184037 0.009601677 -0.00027726794 -0.03910606
-0.015783269 -0.0054989713 -0.020891488 0.00924907 0.02469829 -0.014192942 -0.022150444 0.0677653
0.04479616 0.021835677 0.031211015 0.0021900919 0.022351999 -0.014885469 -0.03391868 -0.03340688
-0.015656896 0.0027642802 0.024998073 -0.050602634 -0.053233657 0.019228471 0.011418304 0.019918038
0.04375074 -0.007980879 -0.024754267 -0.024194963 -0.0015825893 -0.005492603 -0.036311436 -0.0172301
0.029028116 0.031333722 -0.05245949 -0.059461337 -0.060368516 0.064359665 -0.0063954224 -0.006763156
0.012096953 0.041642442 0.05903054 -0.021552647 -0.017346537 -0.028184565 0.030826496 -0.0002660579
0.0036301762 0.0071170605 0.0032043243 0.018836673 -0.047441334 -0.044345915 -0.02672174 -0.019309578
-0.03787251 0.008937025 -0.047455676 -0.06212322 -0.026748693 -0.049130265 0.0070001846 -0.056381688
-0.0018972513 -0.027878772 0.025060358 0.041522652 0.027095104 0.032311473 0.046238195 0.07403136
0.01268829 0.042224173 0.014810762 0.00803517 -0.03248393 -0.012243115 -0.00386431 0.026564747
0.054706782 -0.0013502939 -0.03236036 -0.052943055 -0.035500977 0.05113065 0.0064740176 0.040706307
0.03037371 -0.016608655 0.046591096 -0.012717522 0.0044609704 0.045856707 0.03254762 0.0026799683
-0.0055764113 0.034705505 -0.040785164 -0.0017833399 0.05416715 0.035541162 0.04987553 -0.0070319027
0.004387109 0.032417644 0.043002207 -0.019050054 0.031505536 0.043133333 -0.006190038 0.0032543957
-0.015644435 -0.047486242 -0.054974962 0.0068361736 -0.009429805 -0.091310784 -0.012588764 -0.04483493
0.008108936 0.0130984895 -0.002844329 -0.01839873 0.019168647 0.0126694925 -0.010664085 0.023754738
-0.01578346 -0.009496619 0.049581308 -0.053628687 -0.000446071 -0.033386715 -0.068359345 -0.062752575
0.07701316 -0.03618795 0.007525466 0.008118256 -0.0062609743 0.010430744 0.05505595 0.0023275916
0.018688183 -0.025405545 -0.025490541 -0.031450767 -0.055046562 -0.025349142 -0.04184106 0.054031048
00000000: 494c a73d b974 22bc 2132 f3bc 10fa 073d
00000010: f0cd a9bb 8660 00bd 66f7 bd3c c41d 1e3c
00000020: 0b5d bf3c 977f 893c 3aaa eebb aaa0 14bd
00000030: bd91 68bb b6e2 65bc af3b 23bd f19d 49bc
00000040: d5ac 123d 8125 473d df0a bbbc 5a57 003d
00000050: 1c73 2b3d 0554 40bc 5a3b aa3c 4b3c 89bc
00000060: 9023 9b3c 0ed4 fd3c 3077 f53c 84b6 9d3b
00000070: 4b20 433c 67b8 3bbc e297 a93c 4a89 bd3c
00000080: 091b e03c 3b63 923c 49fa f1ba f452 e1bc
00000090: 6c63 913b e84f 4f3d 47de 343c 77b4 6abc
000000a0: ac18 cb3c 2c9b 923d 34c4 82bd d8de 39bd
000000b0: 7073 56bd 8e82 edbc 3dfb 883c 290e 2cbb
000000c0: e846 5fbc f82a 173d 5361 cc3b 6dd2 f0bc
000000d0: 10dd 54bb d64f 61bd 19fb 3abd 62c0 ddbc
000000e0: 1f23 2b3c 49a3 c7bc a64e 063c 132d 33bd
000000f0: 3dd4 49bd 6e38 8bbd 35e2 d5b9 0691 00bc
00000100: d223 b93b 88ac 8b3c 3157 c33b a5b6 a33c
00000110: 966a 0dbd 6f71 05bc 44ed a6bc fa95 5b3c
00000120: 8578 e0bd 2113 d6bb 905e 95bd 844a f7bc
00000130: 5ea7 713c 8d2e 20bd faa8 d2bb 4202 183c
00000140: 5acc 993b 76a6 70bb 7c8f 95bd 5b86 de3c
00000150: 894c 1c3d aef8 6ebd 60f7 4cbb 142b 62bc
00000160: a6c1 7ebd 0923 5a3d 224a c03c 2496 ffbc
00000170: 588f 043d 8fe3 6b3d d668 91bd 2244 b63b
00000180: 0a7e a9ba cd71 51bd f054 1d3d 602d d5bb
00000190: dc01 58bc 5a50 1d3c 465e 91b9 ad2d 20bd
000001a0: ea4b 81bc b730 b4bb a024 abbc 6989 173c
000001b0: 1154 ca3c 8389 68bc d974 b5bc 89c8 8a3d
000001c0: 2e7c 373d bce0 b23c 3eae ff3c a587 0f3b
000001d0: 8a1b b73c 2fe2 73bc 50ee 0abd a7d5 08bd
000001e0: e442 80bc ed28 353b c2c8 cc3c b544 4fbd
000001f0: 890b 5abd 0785 9d3c d713 3b3c 272b a33c
00000200: fa33 333d 3cc2 02bc 76c9 cabc 8434 c6bc
00000210: e36e cfba 4bfb b3bb 4dbb 14bd 2426 8dbc
00000220: 5fcc ed3c ca57 003d c3df 56bd bb8d 73bd
00000230: fa44 77bd 00cf 833d b190 d1bb 779d ddbb
00000240: 4c32 463c 4491 2a3d 02ca 713d 2d8f b0bc
00000250: 531a 8ebc 51e3 e6bc d987 fc3c b07d 8bb9
00000260: 40e8 6d3b 3b36 e93b a4ff 513b 5e4f 9a3c
00000270: d851 42bd 10a4 35bd 8de7 dabc 1f2f 9ebc
00000280: 3420 1bbd 9a6c 123c e260 42bd eb74 7ebd
00000290: 1320 dbbc d13c 49bd ce61 e53b 7cf0 66bd
000002a0: 31ad f8ba 0662 e4bc 614b cd3c a813 2a3d
000002b0: 8df6 dd3c 0959 043d 4364 3d3d c19d 973d
000002c0: 8ce2 4f3c 41f3 2c3d d7a8 723c f2a5 033c
000002d0: df0d 05bd 5997 48bc 5d40 7dbb 509e d93c
000002e0: 3814 603d 58fc b0ba 4c8c 04bd d1da 58bd
000002f0: 7969 11bd 5f6e 513d ff23 d43b a8bb 263d
00000300: 49d2 f83c e00e 88bc 4ed6 3e3d 275d 50bc
00000310: 552d 923b 3ed4 3b3d a750 053d 68a2 2f3b
00000320: 54ba b6bb 5c27 0e3d 580e 27bd f5be e9ba
00000330: 60de 5d3d 9c93 113d 494a 4c3d e06b e6bb
00000340: bdc1 8f3b 5dc8 043d 1523 303d dc0e 9cbc
00000350: f30b 013d 94ac 303d cdd5 cabb b347 553b
00000360: c228 80bc ef80 42bd 6d2d 61bd fb01 e03b
00000370: 787f 1abc 2601 bbbd 1a41 4ebc d5a4 37bd
00000380: 58db 043c 0c9b 563c ec67 3abb efb8 96bc
00000390: 9107 9d3c b493 4f3c 6ab8 2ebc 4c99 c23c
000003a0: 514c 81bc b597 1bbc c515 4b3d c1a9 5bbd
000003b0: a3de e9b9 82c0 08bd fcff 8bbd 6c84 80bd
000003c0: 13b9 9d3d d139 14bd 2f98 f63b 6f02 053c
000003d0: dc28 cdbb b6e5 2a3c 5982 613d 828a 183b
000003e0: f617 993c 4a1f d0bc 8ad1 d0bc 85d2 00bd
000003f0: 8178 61bd 01a9 cfbc 8861 2bbd a94f 5d3d

bias f4 [32]
-0.12873633 -0.06578576 -0.018772144 -0.068246536 -0.14456159 -0.020036329 -0.16894129 0.19182153
0.10596422 0.05896251 0.022430822 -0.15345433 -0.12945676 0.00051752006 0.13437653 0.0629727
0.052907195 -0.14808124 0.13793835 0.041014064 -0.113248385 0.0025917753 0.08116399 0.16045885
0.040400904 -0.07624613 -0.19079787 0.13624896 0.08478264 -0.011604477 -0.055761047 0.07323907
00000000: 75d3 03be afba 86bd 0ac8 99bc d7c4 8bbd
00000010: f407 14be 3a23 a4bc f2fe 2cbe dd6c 443e
00000020: c503 d93d ac82 713d d8c0 b73c 2223 1dbe
00000030: 5090 04be 2faa 073a 009a 093e d5f7 803d
00000040: 37b5 583d 9ca2 17be b63f 0d3e 5dfe 273d
00000050: c5ee e7bd c6da 293b 4e39 a63d 534f 243e
00000060: 6b7b 253d ee26 9cbd 8460 43be d984 0b3e
00000070: 85a2 ad3d b420 3ebc b265 64bd 5efe 953d

weight f4 [32]
0.95560354 1.0132631 0.9875064 0.9610891 0.93375427 1.0634379 0.99855953 0.93589276
0.9729518 0.99435353 0.9543581 1.0177989 1.0262336 0.9773689 0.99322337 0.9555467
1.0045013 1.0068549 0.99830276 1.0714319 0.97852665 0.9772747 0.9471208 0.95319766
1.0752269 0.92424494 0.98908484 0.9827367 0.98122346 1.0314295 1.0718819 0.9992375
00000000: 6fa2 743f 9bb2 813f 38cd 7c3f ef09 763f
00000010: 850a 6f3f bc1e 883f 99a1 7f3f ab96 6f3f
00000020: 5f13 793f f48d 7e3f d050 743f 3c47 823f
00000030: 9f5b 833f d934 7a3f e343 7e3f b59e 743f
00000040: 8093 803f 9fe0 803f c590 7f3f ae24 893f
00000050: b980 7a3f ad2e 7a3f 8276 723f c304 743f
00000060: 09a1 893f 519b 6c3f aa34 7d3f a294 7b3f
00000070: 7631 7b3f e205 843f 6d33 893f 07ce 7f3f

bias f4 [32]
-0.21460108 -0.030029453 -0.038021397 -0.24979822 -0.2012026 -0.06240876 -0.06171886 -0.105499946
-4.532835e-05 -0.2040429 -0.07836315 0.039028585 0.23781723 -0.16291396 -0.011332234 -0.07752265
-0.095362574 -0.0709781 -0.20278713 -0.04861977 0.013544884 -0.10906003 -0.062481295 -0.12282423
-0.19144356 -0.17916344 -0.09032796 -0.005094079 -0.10745959 -0.05967322 0.011439756 -0.025055334
00000000: 63c0 5bbe 5400 f6bc 53bc 1bbd 1bcb 7fbe
00000010: 0e08 4ebe 54a0 7fbd eacc 7cbd 5b10 d8bd
00000020: f21e 3eb8 9ff0 50be dc7c a0bd 70dc 1f3d
00000030: 5c86 733e ebd2 26be d6aa 39bc 32c4 9ebd
00000040: 744d c3bd f75c 91bd 6ea7 4fbe 8625 47bd
00000050: 5ceb 5d3c dd5a dfbd 63ec 7fbd 458b fbbd
00000060: c809 44be 9f76 37be defd b8bd 3bec a6bb
00000070: c613 dcbd e86b 74bd d06d 3b3c d840 cdbc

running_mean f4 [32]
-0.11493299 -0.12650608 -0.011049523 -0.059479296 -0.21161444 -0.05735581 -0.14993872 0.13033773
0.16914652 0.061331302 0.020750545 -0.24718192 -0.12392114 -0.017867481 0.24306221 0.070236616
0.050812278 -0.1187843 0.14995728 0.10015681 -0.0104442295 -0.050563175 -0.071805544 0.09708468
0.026363082 -0.10512577 -0.35152546 0.18837708 0.08499248 -0.064752266 0.0678321 0.102379665
00000000: fd61 ebbd cf8a 01be 0f09 35bc 90a0 73bd
00000010: 75b1 58be eded 6abd 8989 19be 4177 053e
00000020: bf34 2d3e 8836 7b3d 0cfd a93c 421d 7dbe
00000030: 5eca fdbd d35e 92bc 4de5 783e 37d8 8f3d
00000040: 8920 503d 2f45 f3bd 678e 193e 031f cd3d
00000050: 461e 2bbc 551b 4fbd c90e 93bd 55d4 c63d
00000060: 64f7 d73c 2e4c d7bd 25fb b3be ece5 403e
00000070: 8a10 ae3d d69c 84bd 8eeb 8a3d 6eac d13d

running_var f4 [32]
0.005640893 0.009161191 0.012372181 0.0050242958 0.009711227 0.008230949 0.011686387 0.016264793
0.01077035 0.005788505 0.0063196067 0.014682061 0.011843991 0.011717825 0.01862704 0.007019358
0.011219984 0.02225354 0.005091446 0.019836461 0.01707781 0.007720134 0.036383804 0.012350647
0.0057529416 0.009963889 0.03353952 0.02274342 0.005463284 0.017731765 0.025478251 0.014690616
00000000: 3dd7 b83b d218 163c b0b4 4a3c d9a2 a43b
00000010: d71b 1f3c 1adb 063c 4278 3f3c be3d 853c
00000020: 1f76 303c 80ad bd3b b414 cf3b 078d 703c
00000030: 4c0d 423c 1ffc 3f3c bc97 983c a502 e63b
00000040: 06d4 373c 0e4d b63c 25d6 a63b 1380 a23c
00000050: c3e6 8b3c 2ef9 fc3b 2f07 153d 5e5a 4a3c
00000060: 2c83 bc3b 943f 233c bc60 093d 6950 ba3c
00000070: 5905 b33b 3542 913c c4b7 d03c e9b0 703c

weight f4 [32, 32, 3, 3]
-0.04724464 -0.034717333 0.046648864 0.06660409 0.055507705 0.056179665 -0.018005665 -0.00048316986
-0.0015052017 0.0063180854 -0.032795187 -0.03385916 0.03733132 0.035683148 0.01201619 0.0277283
0.01436147 -0.011691027 -0.022128081 -0.022358216 -0.035048857 -0.02444417 -0.0052991947 0.0067426674
0.044144463 0.017484173 0.0048224498 0.026828857 -0.045471977 -0.02947001 -0.015052622 -0.030100044
-0.0049500754 -0.008890843 -0.017518526 0.030746441 0.0339113 0.020140233 0.02378344 -0.026678814
0.0032131614 -0.034635372 0.026393382 0.0352925 0.04534143 0.030600416 -0.032446254 -0.027442591
-0.036771674 0.0018925436 0.030691037 0.003464985 -0.0021644128 0.0345881 0.022772381 -0.015954562
0.002708786 0.01604327 -0.015299351 -0.058914706 0.018264314 0.04468513 0.05234626 -0.0093975095
-0.006699106 -0.033613812 -0.03386852 -0.07517042 -0.018969016 -0.03978578 -0.070998274 -0.050346017
-0.0065026716 0.027000902 -0.013035597 -0.0009931234 0.004702981 0.016608154 -0.008707629 -0.024946718
-0.023670165 0.037303127 -0.037839 0.019465467 -0.020707762 -0.041207545 -0.019865643 -0.013305287
0.008971356 0.042972673 -0.0025739968 0.053217094 0.012013224 -0.023411453 -0.017687717 -0.035333537
0.02495136 0.037621226 0.02426719 0.024568714 0.013774422 0.010739137 0.0077915066 -0.046503745
-0.002704627 0.0036806774 0.038135424 0.0026831317 0.030422205 0.03501575 0.06410926 -0.0298869
0.0007470755 -0.029071087 -0.05059766 0.017514052 -0.0036839347 0.01988437 -0.011177703 0.03219867
-0.045841057 -0.05018123 -0.020220976 0.025955377 -0.04269794 0.030782051 -0.03638899 -0.034759447
-0.011078959 -0.013111284 0.015217197 0.0034695636 -0.012414734 0.0033076315 -0.010528325 0.015929649
0.07096515 0.076932676 0.011734942 0.012088077 0.0010405551 -0.00011991169 0.06378098 0.014673643
-0.01662013 0.028336294 -0.009005119 -0.02827105 -0.018484604 -0.035013333 0.021294333 0.03711039
0.045518734 0.014548295 0.011431772 0.057608046 -0.012428124 -0.035350036 -0.002547258 0.0025253263
-0.065768674 -0.013547149 -0.01010611 0.0035016101 -0.006172426 0.0005495875 0.023503449 0.06747407
0.038371943 -0.0012254571 -0.005934777 0.015872039 -0.032895353 0.026520072 -0.032671526 -0.021743447
-0.04793503 -0.022361359 0.039368525 0.03518145 -0.09175845 -0.017882805 -0.027600117 -0.0022624775
0.036426913 0.00961117 -0.011336619 -0.027054315 -0.0413956 -0.03636827 -0.028463574 -0.041471303
-0.021019977 -0.0112983575 -0.0028756803 0.008976399 0.05277663 0.026078591 0.002167517 -0.0391337
-0.046967167 -0.0034912156 -0.028518312 -0.098723456 -0.018063724 -0.039113335 -0.054030873 0.0022422622
-0.044808216 -0.04013814 -0.05278897 -0.08509954 -0.016717887 -0.049554482 -0.06275334 -0.0035499546
-0.044830624 -0.00482268 -0.06097101 0.0061491607 -0.020603612 0.0017665859 0.08905204 0.04578718
0.051550586 0.026776575 0.026100686 0.036353786 0.0054190997 0.0011587047 0.031771652 0.09427285
-0.02429898 -0.045729775 0.015368215 0.024435697 -0.01576427 -0.002115636 0.008998086 -0.025635572
0.02096753 -0.007798724 -0.024508243 -0.057787314 -0.06865909 0.045677625 0.019702688 -0.004436371
0.01649508 -0.017075649 -0.035444364 -0.036741037 -0.026818408 -0.022995317 -0.019795114 -0.014834984
00000000: 9883 41bd c333 0ebd e112 3f3d ba67 883d
00000010: 0c5c 633d a61c 663d 9e80 93bc f651 fdb9
00000020: 304a c5ba f107 cf3b 3f54 06bd e7af 0abd
00000030: bae8 183d 7e28 123d 8edf 443c 7626 e33c
00000040: 5f4c 6b3c b98b 3fbc f345 b5bc 9428 b7bc
00000050: 648f 0fbd 243f c8bc dea4 adbb 98f1 dc3b
00000060: d3d0 343d f83a 8f3c a405 9e3b 31c8 db3c
00000070: d340 3abd 176b f1bc 469f 76bc 5e94 f6bc
00000080: 3e34 a2bb e6aa 11bc 0383 8fbc f6df fb3c
00000090: 93e6 0a3d 21fd a43c 7dd5 c23c 878d dabc
000000a0: e793 523b d2dd 0dbd ef36 d83c de8e 103d
000000b0: efb7 393d b9ad fa3c 5de6 04bd 49cf e0bc
000000c0: e59d 16bd 3a0f f83a c56b fb3c cd14 633b
000000d0: d2d8 0dbb 40ac 0d3d 258d ba3c 24b3 82bc
000000e0: e385 313b 2d6d 833c 21aa 7abc 8c50 71bd
000000f0: 0b9f 953c c107 373d 0869 563d 03f8 19bc
00000100: 2d84 dbbb a3ae 09bd b8b9 0abd f3f2 99bd
00000110: e964 9bbc 6af6 22bd 8b67 91bd a037 4ebd
00000120: 5d14 d5bb ff30 dd3c 4293 55bc b12b 82ba
00000130: 771b 9a3b d30d 883c 71aa 0ebc 0f5d ccbc
00000140: efe7 c1bc 2acb 183d 11fd 1abd 0b76 9f3c
00000150: 53a3 a9bc 3ec9 28bd 46bd a2bc 6bfe 59bc
00000160: 98fc 123c 1d04 303d 80b0 28bb 2bfa 593d
00000170: 1dd3 443c 60c9 bfbc d5e5 90bc e6b9 10bd
00000180: cb66 cc3c b718 1a3d fccb c63c 5444 c93c
00000190: 1dae 613c 35f3 2f3c e54f ff3b b67a 3ebd
000001a0: 1d40 31bb 8537 713b e433 1c3d 7bd7 2f3b
000001b0: fd37 f93c ad6c 0f3d b74b 833d 5fd5 f4bc
000001c0: 63d7 433a 7d26 eebc 7e3f 4fbd a179 8f3c
000001d0: 2b6e 71bb 8ce4 a23c af22 37bc c1e2 033d
000001e0: d5c3 3bbd d58a 4dbd 76a6 a5bc 5fa0 d43c
000001f0: 09e4 2ebd a42a fc3c 9f0c 15bd ec5f 0ebd
00000200: 8684 35bc b6d0 56bc 8d51 793c 9e61 633b
00000210: 2b67 4bbc d9c4 583b ff7e 2cbc e57e 823c
00000220: 2d56 913d e18e 9d3d ea43 403c 120d 463c
00000230: 3c63 883a 1979 fbb8 9a9f 823d b869 703c
00000240: f026 88bc 8421 e83c 358a 13bc b098 e7bc
00000250: 066d 97bc 246a 0fbd 7471 ae3c 1001 183d
00000260: da71 3a3d f95b 6e3c 544c 3b3c 6af6 6b3d
00000270: 559f 4bbc 33cb 10bd e6ef 26bb f27f 253b
00000280: bab1 86bd dcf4 5dbc 1994 25bc 457b 653b
00000290: 1042 cabb 3112 103a 4e8a c03c d82f 8a3d
000002a0: e62b 1d3d 849f a0ba 8578 c2bb 1406 823c
000002b0: 47bd 06bd 9f40 d93c 94d2 05bd 501f b2bc
000002c0: 8657 44bd 2b2f b7bc e440 213d 6d1a 103d
000002d0: dbeb bbbd f67e 92bc a419 e2bc 1346 14bb
000002e0: 6334 153d 2b78 1d3c 3abd 39bc 03a1 ddbc
000002f0: 6f8e 29bd e5f6 14bd 712c e9bc d0dd 29bd
00000300: 1632 acbc bf1c 39bc e975 3cbb bf11 133c
00000310: 4f2c 583d c5a2 d53c e70c 0e3b a94a 20bd
00000320: a560 40bd e1cc 64bb 3c9f e9bc 862f cabd
00000330: 60fa 93bc 4e35 20bd 7a4f 5dbd ebf2 123b
00000340: d288 37bd e467 24bd 3f39 58bd ab48 aebd
00000350: f3f3 88bc a4f9 4abd d384 80bd 5ba6 68bb
00000360: 51a0 37bd 9207 9ebb bdbc 79bd e67e c93b
00000370: e8c8 a8bc c98c e73a ea60 b63d 578b 3b3d
00000380: b526 533d 8c5a db3c 1bd1 d53c b5e7 143d
00000390: b492 b13b aedf 973a fe22 023d 2012 c13d
000003a0: a80e c7bc 254f 3bbd f7ca 7b3c 5f2d c83c
000003b0: 1224 81bc 7ba6 0abb b56c 133c b101 d2bc
000003c0: 19c4 ab3c 708c ffbb 83c5 c8bc 64b2 6cbd
000003d0: 239d 8cbd 7618 3b3d 8867 a13c fa5e 91bb
000003e0: b120 873c 3be2 8bbc 1c2e 11bd c57d 16bd
000003f0: 47b2 dbbc ad60 bcbc 5d29 a2bc 6f0e 73bc

bias f4 [32]
-0.007803267 0.01793289 0.0069848388 -0.039007556 -0.051853675 -0.024661401 -0.029901799 -0.025851648
-0.02648121 -0.038051773 0.053599086 0.018076243 -0.01458992 -0.026295278 -0.032772146 -0.051164657
0.026564272 -0.054589827 0.04980305 -0.063975886 -0.0070482832 0.0483072 0.004724628 0.06466256
0.045125004 0.0076582604 0.035346612 0.035558283 -0.04278341 -0.039307244 0.05036299 0.01406144
00000000: 8cb2 ffbb ffe7 923c 13e1 e43b 63c6 1fbd
00000010: 8564 54bd b506 cabc 9ef4 f4bc d6c6 d3bc
00000020: 1fef d8bc 2ddc 1bbd b78a 5b3d a114 943c
00000030: 8f0a 6fbc 3269 d7bc 163c 06bd 0892 51bd
00000040: 519d d93c 9599 5fbd 48fe 4b3d ca05 83bd
00000050: 49f5 e6bb c5dd 453d 0dd1 9a3b ce6d 843d
00000060: ffd4 383d 25f2 fa3b 9cc7 103d 90a5 113d
00000070: a83d 2fbd a200 21bd 6c49 4e3d f461 663c

weight f4 [32]
1.0329089 0.9759559 1.0008125 0.9762272 0.94886696 0.99925745 0.9917809 0.94610894
1.0120946 1.0046645 0.9982362 0.9175881 0.9403585 0.9763447 0.99351513 1.0612533
1.0384374 1.0179844 1.0352008 1.0041968 0.9818229 1.0247676 1.005167 0.9817171
0.99192506 0.9529002 1.0152617 1.0496125 0.9870187 0.9896966 0.93860304 1.0451001
00000000: 5c36 843f 3fd8 793f a01a 803f 07ea 793f
00000010: f2e8 723f 56cf 7f3f 5ae5 7d3f 3234 723f
00000020: 518c 813f d998 803f 688c 7f3f 0ee7 6a3f
00000030: 56bb 703f baf1 793f 0257 7e3f 26d7 873f
00000040: 84eb 843f 504d 823f 7681 843f 8589 803f
00000050: bf58 7b3f 962b 833f 50a9 803f d051 7b3f
00000060: cdee 7d3f 44f1 733f 18f4 813f b459 863f
00000070: 42ad 7c3f c25c 7d3f 4a48 703f d7c5 853f

bias f4 [32]
-0.087641194 -0.13111821 -0.07784031 -0.045233734 -0.11287557 -0.06871775 -0.02687365 -0.030622857
-0.17159812 -0.0080122175 0.033046283 -0.24420317 -0.09645599 -0.22218904 -0.21838164 -0.17068453
-0.024095796 -0.033311535 -0.2596642 -0.15657821 -0.0692894 -0.0980921 -0.086939484 -0.09824025
-0.07297637 -0.041105565 -0.16582552 -0.25010583 -0.11797701 -0.25607967 -0.25194323 -0.22975636
00000000: 3a7d b3bd da43 06be be6a 9fbd 0247 39bd
00000010: 4f2b e7bd e4bb 8cbd 2126 dcbc c9dc fabc
00000020: 6bb7 2fbe ad45 03bc 8a5b 073d 6510 7abe
00000030: b88a c5bd 8685 63be 709f 5fbe edc7 2ebe
00000040: 8c64 c5bc ad71 08bd b5f2 84be 0a56 20be
00000050: 9ae7 8dbd 83e4 c8bd 540d b2bd 2f32 c9bd
00000060: a374 95bd 4f5e 28bd 2ace 29be df0d 80be
00000070: ee9d f1bd e01c 83be b4fe 80be 4045 6bbe

running_mean f4 [32]
-0.22386177 0.31558165 -0.09642518 -0.07903914 0.027926926 -0.13943648 -0.15701339 -0.5447215
-0.11151558 -0.19670002 -0.028847681 -0.056304242 0.24826804 -0.0863886 -0.32900542 -0.03508151
-0.08631884 -0.8451501 -0.110821545 -0.45019105 -0.00075433304 0.25691834 -0.10453126 -0.06033004
0.08286457 -0.14217001 0.010636587 -0.3420566 -0.26588967 -0.12587595 0.2800402 0.14714903
00000000: 053c 65be eb93 a13e 917a c5bd 46df a1bd
00000010: 02c7 e43c 70c8 0ebe 1ec8 20be de72 0bbf
00000020: 4862 e4bd bb6b 49be f951 ecbc 479f 66bd
00000030: fa39 7e3e 82ec b0bd 6673 a8be a1b1 0fbd
00000040: efc7 b0bd c25b 58bf 68f6 e2bd 717f e6be
00000050: 6fbe 45ba cd8a 833e 7c14 d6bd a21c 77bd
00000060: e6b4 a93d 0495 11be 1445 2e3c 0b22 afbe
00000070: b122 88be a0e5 00be 6e61 8f3e 3cae 163e

running_var f4 [32]
0.2390861 0.10433631 0.3241013 0.155411 0.17129134 0.52061445 0.16073944 0.27542666
0.18297881 0.36080012 0.14738335 0.19043538 0.14665477 0.12744355 0.2899165 0.14123444
0.29571256 0.68707824 0.26181597 0.19549412 0.2035351 0.45735788 0.21813929 0.18287477
0.3276917 0.18308218 0.14076227 0.2875955 0.13735509 0.29748255 0.13438518 0.114431515
00000000: fdd2 743e 46ae d53d 9bf0 a53e 1024 1f3e
00000010: ff66 2f3e fd46 053f e198 243e b904 8d3e
00000020: cc5e 3b3e cbba b83e a9eb 163e 7e01 433e
00000030: ab2c 163e 9080 023e ef6f 943e c39f 103e
00000040: a367 973e 5ce4 2f3f be0c 863e 9c2f 483e
00000050: 816b 503e d02a ea3e e85f 5f3e 8643 3b3e
00000060: 35c7 a73e e579 3b3e fc23 103e b83f 933e
00000070: d0a6 0c3e a24f 983e 459c 093e 125b ea3d

weight f4 [32, 32, 3, 3]
0.04879692 -0.0012428375 -0.0051455125 0.01650491 0.034557626 0.05308739 -0.0017509884 0.0037049074
0.05096001 0.05257253 -0.005089713 0.010411212 -0.006068864 0.0012842057 0.004002275 -0.0029976708
-0.020225111 0.05094211 0.038346708 0.038631625 0.020574577 -0.060807228 -0.027748134 -0.06349181
0.050515592 0.016025616 -0.03984302 -0.030847935 -0.012793126 -0.00968562 -0.041955963 -0.07349945
-0.02073678 -0.054014996 0.051482882 -0.013567579 -0.044764005 -0.030094799 0.014000992 -0.007740131
-0.010968177 -0.005560535 -0.035097484 -0.017251167 -0.0028339045 -0.074832596 0.03294357 0.059982616
0.0121325 0.023045575 -0.05927485 0.031461254 -0.039737985 0.003022336 -0.06940636 0.00841217
-0.026963482 -0.026286222 0.03750107 0.009550195 -0.050181635 0.039611094 -0.011213502 -0.006005247
-0.028931025 -0.06657247 0.022252979 -0.042012624 -0.0055936053 0.03159915 0.04653784 0.021531804
0.051339857 -0.022944216 -0.012782945 0.02765621 0.025429439 0.0008706869 0.01054423 0.031345125
-0.014959062 0.01752642 0.04574621 -0.057315037 -0.048518576 -0.0741794 -0.046259563 0.014293051
0.029718075 -0.025090849 -0.04692008 0.038729455 0.0064716935 0.0126326 0.044446573 -0.005383496
-0.020260675 0.03765873 0.037943315 0.03798772 -0.012302331 -0.017884126 0.010811537 -0.021896476
0.06972951 0.033687945 0.0084060915 0.025737356 0.06579592 -0.031180792 -0.001756271 -0.0632034
0.0035841374 -0.06384283 -0.014062098 0.016233912 -0.019516293 0.041570533 -0.014682437 0.08309936
0.011772582 0.010208385 -0.021111323 -0.02841719 0.025616528 0.036020685 -0.0051629213 -0.014572737
-0.008050099 0.042314764 0.0075331507 -0.018046655 0.014849414 0.0035609698 0.0019901353 0.02308839
-0.01792846 -0.080318205 0.009068873 -0.0048133894 -0.026037712 -0.012790304 -0.02467895 -0.05867137
-0.0072006616 0.009069532 0.042916775 0.009766809 0.015710095 0.034791637 0.0029960203 -0.05697045
-0.04312646 -0.030252049 -0.04775205 -0.07628836 -0.020293659 0.014307649 0.0632306 -0.044634327
0.008950315 -0.0018347645 -0.041670304 -0.05675352 -0.01800365 -0.011150516 -0.022694072 0.06238825
-0.014898391 -0.0167342 0.016441282 0.03973335 0.07933213 0.07273323 0.03656236 0.013215372
0.047379885 0.012495838 0.013482271 -0.027845481 0.03015856 -0.016984155 -0.014214987 0.009981666
0.031528566 0.03555428 0.024095112 -0.030575484 0.0016299223 -0.108932115 -0.04482248 -0.008406659
-0.029558742 0.012025536 0.02246271 -0.014708155 -0.014403081 0.048326835 0.005125991 -0.016978195
0.047559552 -0.0037367353 0.02678834 -0.021568371 -0.017610531 0.027358431 0.03566811 0.0038660113
-0.0026988406 0.06338643 0.04166506 -0.10605765 0.007359532 -0.04121863 0.086554885 0.041856043
0.055471316 -0.007935435 -0.010175931 0.048257396 0.015388455 0.005493336 -0.032131415 -0.06807605
-0.014563549 0.026316823 -0.0082486225 0.037158214 -0.00078696315 -0.018470082 0.008004631 0.03489793
-0.013801364 0.038043927 -0.0109867975 -0.009945986 0.030145876 0.014085275 -0.07048262 -0.027510606
0.07564089 -0.00024473184 -0.022247601 -0.02325307 0.012672802 -0.038520467 -0.023091746 -0.03315384
-0.06978841 -0.03533488 -0.02812024 -0.045293536 -0.038043942 -0.0023682376 -0.005558072 0.0047952253
00000000: 47df 473d b5e6 a2ba b09b a8bb 4e35 873c
00000010: 4c8c 0d3d 2a72 593d 6c81 e5ba 08ce 723b
00000020: 72bb 503d 4b56 573d 9bc7 a6bb ca93 2a3c
00000030: 52dd c6bb cb52 a83a 8425 833b 9274 44bb
00000040: 22af a5bc ada8 503d 7011 1d3d 323c 1e3d
00000050: 048c a83c 0011 79bd 0e50 e3bc fe07 82bd
00000060: 70e9 4e3d 2748 833c 6f32 23bd cfb4 fcbc
00000070: 429a 51bc 6fb0 1ebc 04da 2bbd e186 96bd
00000080: 2ee0 a9bc d43e 5dbd b7df 523d 8d4a 5ebc
00000090: 765a 37bd 5e89 f6bc 6b64 653c eda0 fdbb
000000a0: deb3 33bc 2635 b6bb 61c2 0fbd 5252 8dbc
000000b0: 07b9 39bb d541 99bd d6ef 063d 55b0 753d
000000c0: 65c7 463c 13ca bc3c 2fca 72bd 84dd 003d
000000d0: 4cc4 22bd 6212 463b ec24 8ebd 33d3 093c
000000e0: 85e2 dcbc 3456 d7bc b99a 193d 6c78 1c3c
000000f0: 428b 4dbd 3e3f 223d d6b8 37bc aac7 c4bb
00000100: c200 edbc 2657 88bd e14b b63c 6e15 2cbd
00000110: 904a b7bb 1c6e 013d 769e 3e3d 7763 b03c
00000120: be49 523d 82f5 bbbc 8f6f 51bc 478f e23c
00000130: 6651 d03c cf3e 643a b5c1 2c3c bf63 003d
00000140: db16 75bc 9193 8f3c 6160 3b3d 2cc3 6abd
00000150: 6abb 46bd 5feb 97bd ab7a 3dbd 672d 6a3c
00000160: 5273 f33c 538b cdbc 452f 40bd c7a2 1e3d
00000170: 8010 d43b f7f8 4e3c 9c0d 363d 0a68 b0bb
00000180: b7f9 a5bc 0a40 1a3d 736a 1b3d 0399 1b3d
00000190: b78f 49bc bb81 92bc df22 313c 3d60 b3bc
000001a0: 58ce 8e3d 5ffc 093d b4b9 093c 26d7 d23c
000001b0: 03c0 863d dc6e ffbc ad32 e6ba c970 81bd
000001c0: d9e3 6a3b 08c0 82bd b764 66bc fbfc 843c
000001d0: a2e0 9fbc dd45 2a3d 9b8e 70bc ff2f aa3d
000001e0: cae1 403c 1241 273c a7f1 acbc 2bcb e8bc
000001f0: c1d9 d13c 6d8a 133d b92d a9bb 7dc2 6ebc
00000200: 90e4 03bc 3f52 2d3d a6d8 f63b 94d6 93bc
00000210: f54a 733c 295f 693b ee6c 023b dd23 bd3c
00000220: b5de 92bc df7d a4bd 9c95 143c a3b9 9dbb
00000230: 0a4d d5bc 6c8e 51bc 822b cabc 6451 70bd
00000240: 87f3 ebbb 6098 143c 80c9 2f3d f704 203c
00000250: 75b2 803c ad81 0e3d e158 443b d959 69bd
00000260: 5fa5 30bd 25d3 f7bc a797 43bd 123d 9cbd
00000270: e33e a6bc a16a 6a3c 0b7f 813d 7cd2 36bd
00000280: 58a4 123c 7b7c f0ba 7bae 2abd 6176 68bd
00000290: 647c 93bc a7b0 36bc ebe8 b9bc d28a 7f3d
000002a0: 6218 74bc 2916 89bc deaf 863c 70bf 223d
000002b0: e278 a23d 29f5 943d 6ac2 153d 4a85 583c
000002c0: 6911 423d 58bb 4c3c bee4 5c3c 351c e4bc
000002d0: 160f f73c 5b22 8bbc fae5 68bc 248a 233c
000002e0: 1924 013d 5da1 113d 1d63 c53c 7079 fabc
000002f0: 1ea3 d53a cd17 dfbd c797 37bd 15bc 09bc
00000300: 2d25 f2bc c106 453c b803 b83c 79fa 70bc
00000310: e6fa 6bbc 5cf2 453d eef7 a73b db15 8bbc
00000320: cecd 423d 04e4 74bb 3973 db3c 27b0 b0bc
00000330: f643 90bc ca1e e03c b918 123d e85c 7d3b
00000340: 08df 30bb bfd0 813d fba8 2a3d c134 d9bd
00000350: 3b28 f13b ded4 28bd b043 b13d 3e71 2b3d
00000360: e435 633d a003 02bc f3b8 26bc 8ca9 453d
00000370: dc1f 7c3c 7101 b43b 3b9c 03bd 756b 8bbd
00000380: f49b 6ebc 6196 d73c 3b25 07bc 3633 183d
00000390: 344c 4eba 924e 97bc db25 033c 22f1 0e3d
000003a0: 1e1f 62bc f3d3 1b3d f801 34bc 7df4 22bc
000003b0: 7cf4 f63c edc5 663c 3159 90bd ec5d e1bc
000003c0: 9ce9 9a3d 5a4f 80b9 9a40 b6bc 397d bebc
000003d0: 96a1 4f3c a3c7 1dbd e72a bdbc 52cc 07bd
000003e0: 3aed 8ebd 4fbb 10bd 6b5c e6bc b785 39bd
000003f0: f7d3 1bbd 6f34 1bbb 7d20 b6bb 4421 9d3b

bias f4 [32]
-0.010061022 0.030779637 -0.039249957 -0.0074029206 -0.035319153 -0.05287074 -0.032313272 -0.02583128
0.050404906 -0.0055148047 -0.038858905 0.030502634 0.028677685 0.010769838 0.0015626055 -0.045771334
0.011547361 0.032919906 0.019992173 -0.04605007 0.056279127 -0.044278808 0.039665386 -0.010733452
-0.039211065 0.01056869 -0.0010956866 -0.007669692 0.02564555 0.040700257 0.04312718 0.0070673027
00000000: fcd6 24bc 9425 fc3c 90c4 20bd 3394 f2bb
00000010: d1aa 10bd fd8e 58bd ec5a 04bd 1f9c d3bc
00000020: 6075 4e3d 89b5 b4bb 842a 1fbd a9e0 f93c
00000030: 77ed ea3c f973 303c 57d0 cc3a b97a 3bbd
00000040: 2431 3d3c 06d7 063d a0c6 a33c 009f 3cbd
00000050: f184 663d b25d 35bd 2c78 223d 5cdb 2fbc
00000060: c89b 20bd 4c28 2d3c 249d 8fba 0a52 fbbb
00000070: 9e16 d23c 50b5 263d 20a6 303d d594 e73b

weight f4 [32]
0.9982388 1.0709668 0.9842665 0.978122 0.9788413 1.0224651 1.006316 1.0166408
0.9712226 0.9955796 1.0033442 1.0289252 0.9974815 1.0196025 1.0792313 0.9906262
0.9932436 1.0073326 0.99413973 0.95175165 1.0132865 1.0107722 0.96724766 1.0046442
0.97234136 0.9805445 1.0159801 1.011074 1.0339471 1.0234001 0.96730167 0.98440754
00000000: 948c 7f3f 7115 893f e4f8 7b3f 3466 7a3f
00000010: 5895 7a3f 23e0 823f f6ce 803f 4921 823f
00000020: 0ba2 783f 4ede 7e3f 956d 803f d2b3 833f
00000030: f35a 7f3f 5682 823f 4024 8a3f ae99 7d3f
00000040: 3645 7e3f 46f0 803f f17f 7e3f ffa5 733f
00000050: 5fb3 813f fc60 813f 8b9d 773f 2e98 803f
00000060: 5deb 783f f704 7b3f a30b 823f df6a 813f
00000070: 6158 843f c6fe 823f 15a1 773f 2202 7c3f

bias f4 [32]
-0.06454298 -0.1503521 -0.09594012 -0.10858818 -0.20762312 -0.071874194 -0.13148427 -0.061964866
-0.07902944 -0.21145153 -0.190665 -0.10700685 -0.057655346 -0.2578408 -0.045975592 -0.053703994
-0.09245465 -0.12494977 -0.10599305 -0.08514227 0.011324418 -0.17240943 -0.09295033 -0.21970323
-0.14570369 -0.055446982 -0.13011612 0.011245008 0.00522539 -0.13120677 -0.16367635 -0.016776003
00000000: 1c2f 84bd e7f5 19be 417c c4bd 7b63 debd
00000010: 289b 54be c732 93bd d0a3 06be dfce 7dbd
00000020: 30da a1bd c086 58be b03d 43be 6826 dbbd
00000030: 0328 6cbd b603 84be e750 3cbd b8f8 5bbd
00000040: dd58 bdbd aae5 ffbd e212 d9bd 125f aebd
00000050: 0d8a 393c 198c 30be be5c bebd e2f9 60be
00000060: 5933 15be 601c 63bd 293d 05be fb3c 383c
00000070: c039 ab3b 115b 06be c69a 27be d46d 89bc

running_mean f4 [32]
-0.100584485 -0.04229089 -0.11302864 -0.20671323 0.09563228 0.06772939 -0.10258827 0.07565763
-0.13133655 -0.008907141 -0.34879833 0.08190964 0.01938469 0.17791073 -0.002262035 0.07844981
-0.10691176 0.06325571 0.2271668 0.008323226 0.07886803 -0.1548824 0.1658922 -0.14384449
-0.021277906 -0.3481869 -0.16926974 0.086087376 -0.15529902 0.3479942 0.052779615 -0.005517684
00000000: 3dff cdbd 3639 2dbd 8f7b e7bd a2ac 53be
00000010: dbda c33d b5b5 8a3d cd19 d2bd 63f2 9a3d
00000020: 177d 06be 42ef 11bc b295 b2be 3ec0 a73d
00000030: a4cc 9e3c 3b2e 363e a63e 14bb 4baa a03d
00000040: 8ef4 dabd 368c 813d 6a9e 683e 245e 083c
00000050: 9085 a13d 7e99 1ebe a5df 293e f84b 13be
00000060: 014f aebc 8e45 b2be 0c55 2dbe 944e b03d
00000070: b506 1fbe 4c2c b23e 702f 583d b0cd b4bb

running_var f4 [32]
0.103288464 0.15295069 0.119611725 0.14761712 0.15949878 0.23936464 0.1023317 0.15592535
0.18219945 0.14364673 0.12449623 0.13607629 0.28227326 0.14085513 0.19922666 0.85860336
0.09153755 0.17179379 0.10369833 0.07403729 0.09681155 0.36505258 0.12366733 0.15105395
0.12658754 0.0989995 0.1287702 0.12348446 0.8920403 0.20850904 0.10743241 0.16148017
00000000: e788 d33d 1b9f 1c3e fef6 f43d f128 173e
00000010: a653 233e 011c 753e 4893 d13d e5aa 1f3e
00000020: 7e92 3a3e 2118 133e e1f7 fe3d 9557 0b3e
00000030: 1f86 903e 543c 103e 1302 4c3e 6ecd 5b3f
00000040: 0a78 bb3d b6ea 2f3e ca5f d43d dda0 973d
00000050: 2245 c63d 2ce8 ba3e 4c45 fd3d e3ad 1a3e
00000060: 2aa0 013e 40c0 ca3d 56dc 033e 6ce5 fc3d
00000070: c15c 643f 6583 553e 8605 dc3d 0f5b 253e

weight f4 [32, 32, 3, 3]
-0.046641696 -0.020772675 -0.019939369 0.0704727 0.027516829 -0.013027381 0.0023558084 0.030738039
-0.07433366 -0.03585986 -0.018989647 -0.0051771267 -0.040483348 -0.07772806 -0.07152849 0.0021710573
0.03006635 -0.0027418092 0.021243405 -0.009546377 0.025135249 0.012172687 -0.017256105 -0.006977159
0.006818846 0.0010561589 0.039828554 0.048967708 0.032379404 0.018037379 0.0100830905 0.015699524
-0.015474171 0.005062882 0.027881615 -0.004423037 0.021689275 0.054314956 -0.0083178105 0.00646816
-0.02925331 0.0035837784 0.061353773 -0.043094493 0.050795667 0.007331617 -0.02438585 -0.048407327
0.035108827 -0.014966563 0.022702314 0.046525776 0.013400912 0.07538742 -0.009189068 -0.020175217
-0.0007387221 0.027883124 0.021552717 0.008542495 0.012381372 0.03402766 0.01882267 0.056700364
-0.0032860395 0.013334745 0.024872335 -0.0047556623 0.0503316 -0.037822813 0.0016117786 5.575362e-05
0.047815274 0.042687196 0.0031975384 -2.3789888e-05 -0.0051566036 -0.0039461395 -0.050779715 -0.034353655
-0.0019501642 0.00520895 0.02922735 0.043564133 -0.044111736 -0.041239265 -0.014174674 0.038949937
0.03182934 -0.0048170327 -0.06816917 -0.035208322 -0.055561192 -0.036917686 0.00022603713 -0.0075550238
-0.01570952 -0.003227765 -0.031535115 0.02936349 0.023337604 0.0076825134 0.0016532649 -0.0014457993
-0.0013025623 0.018387754 0.07214019 -0.03595986 -0.007659814 -0.029330282 -0.03813968 -0.0583908
0.0151367625 0.00996878 0.00678563 0.03721191 -0.023854693 -0.01107469 0.016356762 -0.07692809
0.061820243 0.05331861 0.002860253 -0.0032520113 -0.0057174563 -0.058112785 -0.02865145 -0.0022106115
0.03765466 -0.016067678 0.0038714297 -0.0012811957 -0.0045316154 0.008762963 -0.03385729 0.029428912
0.045724917 0.051800076 -0.04201516 0.017449718 -0.032105513 0.05268864 0.0015817047 0.027890598
-0.012902009 0.0068398276 -0.036023565 0.027874812 0.013157867 0.03450768 -0.071593985 0.010615693
-0.055377487 0.0019039899 -0.010230238 0.006801901 -0.037936322 0.014392882 -0.034964643 0.016011607
0.028697956 -0.026711931 -0.05582954 0.02636804 -0.025381466 0.020694347 0.0575181 0.056920614
-0.007122387 0.05427322 -0.008153902 0.044194423 -0.012671549 0.0010144713 -0.04235356 0.0021175384
-0.010354617 -0.047805663 -0.06302334 -0.028120415 0.017447464 0.022447042 0.042481054 0.016006457
0.012016289 0.03591773 -0.03500117 -0.009791606 0.047262125 0.008901561 0.028469265 -0.0641889
0.00023076584 0.001088793 -0.03326833 -0.01959477 0.0200768 0.008922959 0.026307406 0.012175048
-0.0021189526 0.0053741047 0.035558883 0.0075516356 0.002198029 -0.016844716 0.044827517 -0.10524151
-0.024083868 -0.098051704 -0.058308646 0.0021107546 0.0073693916 0.020344071 -0.087858155 0.004876026
-0.02953998 -0.054107063 -0.03351384 0.008330938 -0.041728746 0.0021842143 -0.012344395 0.0007388212
-0.0073849363 -0.0408097 -0.03772203 -0.008437652 -0.040543932 -0.017374475 -0.035497453 0.05792249
0.05119509 -0.07630421 0.07404703 0.006665001 -0.044132605 0.0010408331 -0.02767944 -0.032708272
0.023912251 0.03199372 0.0021110266 -0.003994818 -0.04118908 -0.020145776 -0.0136368135 0.024698947
-0.06109638 -0.0022703714 0.0024670563 0.018610066 0.0043365294 6.730038e-05 -0.015732024 -0.0026939292
00000000: 5d0b 3fbd 752b aabc e357 a3bc fe53 903d
00000010: f96a e13c cc70 55bc e863 1a3b 57ce fb3c
00000020: 3f3c 98bd cae1 12bd 2d90 9bbc e3a4 a9bb
00000030: ded1 25bd e42f 9fbd 877d 92bd 4c48 0e3b
00000040: b54d f63c edaf 33bb a606 ae3c 6868 1cbc
00000050: 70e8 cd3c f36f 473c ad5c 8dbc a7a0 e4bb
00000060: a070 df3b d06e 8a3a 4423 233d 5d92 483d
00000070: 44a0 043d 20c3 933c 8c33 253c 4a9c 803c
00000080: 6187 7dbc 88e6 a53b fc67 e43c 20ef 90bb
00000090: b5ad b13c 5c79 5e3d 6d47 08bc dcf2 d33b
000000a0: a3a4 efbc d3dd 6a3b 184e 7b3d da83 30bd
000000b0: 1e0f 503d 103e f03b d6c4 c7bc c346 46bd
000000c0: 46ce 0f3d 5136 75bc 34fa b93c d091 3e3d
000000d0: 808f 5b3c b864 9a3d bf8d 16bc 7f46 a5bc
000000e0: cda6 41ba 266b e43c 538f b03c d2f5 0b3c
000000f0: 3ddb 4a3c 9660 0b3d 0032 9a3c a43e 683d
00000100: 985a 57bb f979 5a3c 11c1 cb3c 63d5 9bbb
00000110: 8228 4e3d 18ec 1abd 5142 d33a fed8 6938
00000120: f3d9 433d c5d8 2e3d cb8d 513b 6590 c7b7
00000130: baf8 a8bb 9e4e 81bb 64fe 4fbd 6bb6 0cbd
00000140: a79c ffba d7af aa3b 326e ef3c 4e70 323d
00000150: 82ae 34bd 81ea 28bd e43c 68bc f889 1f3d
00000160: 7b5f 023d 33d8 9dbb 479c 8bbd 9a36 10bd
00000170: 2294 63bd 0037 17bd 6104 6d39 2290 f7bb
00000180: 40b1 80bc e988 53bb f72a 01bd b48b f03c
00000190: 812e bf3c 98bd fb3b 5db2 d83a f980 bdba
000001a0: bdba aaba eaa1 963c 3cbe 933d a54a 13bd
000001b0: 2dff fabb 0f46 f0bc 5a38 1cbd 312b 6fbd
000001c0: 2f00 783c 1854 233c fd59 de3b 846b 183d
000001d0: eb6a c3bc 9e72 35bc 9efe 853c 798c 9dbd
000001e0: 3937 7d3d 9d64 5a3d 1573 3b3b b21f 55bb
000001f0: 8059 bbbb ac07 6ebd 72b6 eabc e8df 10bb
00000200: c63b 1a3d 5da0 83bc d0b7 7d3b cbed a7ba
00000210: f27d 94bb 8892 0f3c f1ad 0abd e714 f13c
00000220: 0d4a 3b3d 512c 543d 1718 2cbd b6f2 8e3c
00000230: 1281 03bd 0bd0 573d 3451 cf3a d37a e43c
00000240: f362 53bc a220 e03b 728d 13bd b859 e43c
00000250: 1894 573c ed57 0d3d de9f 92bd 72ed 2d3c
00000260: 81d3 62bd 4d8f f93a ba9c 27bc 7be2 de3b
00000270: 1e63 1bbd 1fd0 6b3c 1637 0fbd c62a 833c
00000280: fa17 eb3c fbd2 dabc 84ad 64bd ca01 d83c
00000290: cbec cfbc 3187 a93c 1998 6b3d 9725 693d
000002a0: ea62 e9bb 994d 5e3d f297 05bc 3605 353d
000002b0: 549c 4fbc 02f8 843a ed7a 2dbd 66c6 0a3b
000002c0: 69a6 29bc dfcf 43bd 6212 81bd c95c e6bc
000002d0: fced 8e3c dce2 b73c 9d00 2e3d f91f 833c
000002e0: f8df 443c 781e 133d 635d 0fbd f96c 20bc
000002f0: ee95 413d dad7 113c 6038 e93c 7875 83bd
00000300: bcf9 7139 d5b5 8e3a 5f44 08bd 3685 a0bc
00000310: 1a78 a43c 9a31 123c a182 d73c da79 473c
00000320: 20de 0abb 4219 b03b 31a6 113d b673 f73b
00000330: cf0c 103b eefd 89bc 0f9d 373d dc88 d7bd
00000340: 884b c5bc 55cf c8bd 0cd5 6ebd 9654 0a3b
00000350: f07a f13b 9ca8 a63c faee b3bd 12c7 9f3b
00000360: d4fd f1bc 5e9f 5dbd cf45 09bd 7d7e 083c
00000370: c3eb 2abd 0925 0f3b 2540 4abc 74ad 413a
00000380: 56fd f1bb 1228 27bd 6a82 1abd 143e 0abc
00000390: 6511 26bd ea54 8ebc c765 11bd 2240 6d3d
000003a0: f1b1 513d 6245 9cbd f8a5 973d 1566 da3b
000003b0: 64c4 34bd 906c 883a febf e2bc 1cf9 05bd
000003c0: a0e3 c33c d90b 033d 2659 0a3b f6e6 82bb
000003d0: e1b5 28bd c108 a5bc f16c 5fbc 7255 ca3c
000003e0: 3340 7abd 83ca 14bb 56ae 213b 2374 983c
000003f0: 7219 8e3b 9e23 8d38 72e0 80bc a28c 30bb

bias f4 [32]
-0.045268383 -0.05024762 -0.06046458 -0.02778912 0.03177073 -0.020033501 0.028578378 0.009755495
-0.005890319 0.027148688 -0.009523881 0.0016826546 -0.03224175 -0.0350085 0.055906057 -0.051683523
-0.040462058 -0.02216061 0.0149847 0.03260422 -0.051648088 0.01324219 -0.049878392 0.05413543
-0.05523245 -0.06541318 -0.029407464 0.04815138 -0.010578503 -0.038644772 -0.004499727 0.05596939
00000000: 576b 39bd 73d0 4dbd b5a9 77bd 02a6 e3bc
00000010: 0622 023d 4c1d a4bc 341d ea3c 83d5 1f3c
00000020: 9403 c1bb ed66 de3c 0d0a 1cbc 858c dc3a
00000030: ed0f 04bd 1365 0fbd c0fd 643d 1ab2 53bd
00000040: 8bbb 25bd 2b8a b5bc 6382 753c 018c 053d
00000050: f28c 53bd c5f5 583c 494d 4cbd 1dbd 5d3d
00000060: 6c3b 62bd 58f7 85bd ece7 f0bc 623a 453d
00000070: 7551 2dbc fb49 1ebd 7272 93bb 2940 653d

weight f4 [32]
1.0710794 1.0906663 1.0958008 1.1807437 1.0040976 0.9794806 1.0289841 1.0502422
0.9859033 1.0892045 1.0653987 1.0842249 1.1414198 1.187613 1.0265331 1.2112608
1.0234356 1.0146805 0.9377006 1.0157698 1.1157582 1.1568544 1.1312873 1.1409006
1.0482088 1.0548412 0.9989932 0.93433076 1.0098268 1.0140401 1.0257056 1.1293722
00000000: 2119 893f f49a 8b3f 3343 8c3f 9c22 973f
00000010: 4586 803f 3ebf 7a3f c0b5 833f 566e 863f
00000020: 2964 7c3f 0e6b 8b3f fc5e 883f e2c7 8a3f
00000030: 0b1a 923f b403 983f 7065 833f 980a 9b3f
00000040: f0ff 823f 0de1 813f 260d 703f bf04 823f
00000050: 2ad1 8e3f ce13 943f 06ce 903f 0809 923f
00000060: b52b 863f 0905 873f 05be 7f3f 4d30 6f3f
00000070: 0142 813f 11cc 813f 524a 833f 458f 903f

bias f4 [32]
-0.06475569 -0.19236748 -0.08043932 -0.036962528 -0.33922887 -0.06753714 -0.0666976 -0.0949049
-0.12205005 -0.116256 -0.10848082 -0.0939135 -0.3338878 -0.20395851 -0.0013544067 -0.15324062
-0.062872514 -0.054617815 -0.13115801 -0.09925664 -0.0768278 -0.10748394 -0.1102171 -0.21197931
-0.10820632 -0.041205842 -0.1297904 -0.18718114 -0.02859672 -0.06674977 -0.10805023 -0.1614748
00000000: a29e 84bd fbfb 44be 5fbd a4bd 0566 17bd
00000010: 68af adbe e950 8abd c098 88bd 805d c2bd
00000020: 60f5 f9bd a017 eebd 312b debd b955 c0bd
00000030: 57f3 aabe 80da 50be 5986 b1ba 1ceb 1cbe
00000040: 4ec3 80bd eeb6 5fbd 494e 06be 1147 cbbd
00000050: e557 9dbd 8a20 dcbd 81b9 e1bd 1b11 59be
00000060: 469b ddbd 75c7 28bd c6e7 04be 6aac 3fbe
00000070: ab43 eabc 1ab4 88bd 7049 ddbd a659 25be

running_mean f4 [32]
-0.17665386 -0.16721936 -0.5133445 -0.08310412 0.17669751 -0.051116657 -0.40876126 -0.22893976
-0.05548655 -0.36851284 -0.4886859 -0.37943345 -0.39964783 -0.025910132 0.019469969 -0.028956506
-0.42470467 0.013254416 -0.1767234 -0.018413575 -0.28985327 0.05289851 -0.18252598 0.12767662
0.009515434 -0.2587744 -0.152462 0.08487033 -0.18183643 -0.18664348 -0.04074729 -0.003656279
00000000: c0e4 34be 8d3b 2bbe 8c6a 03bf 7e32 aabd
00000010: 31f0 343e b35f 51bd 2849 d1be 2f6f 6abe
00000020: dd45 63bd b7ad bcbe 0a35 fabe 1a45 c2be
00000030: a49e ccbe 7c41 d4bc 7c7f 9f3c 3236 edbc
00000040: e472 d9be 0d29 593c fbf6 34be 11d8 96bc
00000050: a667 94be 1cac 583d 17e8 3abe a9bd 023e
00000060: 9fe6 1b3c 147e 84be 001f 1cbe 7fd0 ad3d
00000070: 5433 3abe 781f 3fbe a1e6 26bd 2f9e 6fbb

running_var f4 [32]
0.13548604 0.117024235 0.4601537 0.32690552 0.28829628 0.2015453 0.37716642 0.22079861
0.10728425 0.49404302 0.33753222 0.12106295 0.24513455 0.16995713 0.16515294 0.2680118
0.16828829 0.19579327 0.13315512 0.21753295 0.34031144 0.13242722 0.17059873 0.43693534
0.24837953 0.53539425 0.15925941 0.4493759 0.42934492 0.15540542 0.1305007 0.096441194
00000000: dabc 0a3e 67aa ef3d 4499 eb3e 2960 a73e
00000010: 929b 933e e461 4e3e f51b c13e 0819 623e
00000020: d8b7 db3d 35f3 fc3e 06d1 ac3e daef f73d
00000030: 8d04 7b3e 3e09 2e3e da1d 293e d838 893e
00000040: c453 2c3e 087e 483e d159 083e f5c0 5e3e
00000050: 4d3d ae3e 009b 073e 6fb1 2e3e fdb5 df3e
00000060: 3457 7e3e 990f 093f e614 233e 9914 e63e
00000070: 19d3 db3e 9922 1f3e faa1 053e f682 c53d

weight f4 [3, 32, 3, 3]
0.0031477201 -0.025319671 -0.014042141 -0.032018073 0.0072984435 -4.1028572e-05 0.00047134375 0.05744396
0.08441169 -0.068964474 -0.046884693 0.017334342 -0.0076571563 -0.028148012 0.07214846 0.013706481
0.0022846502 0.07560378 -0.05628939 -0.04385177 -0.09529717 -0.053527404 -0.022297611 -0.09439773
-0.0630061 -0.051550474 -0.08004967 -0.031780683 -0.07543563 0.048041385 -0.023509728 -0.0487321
0.03548307 0.026724547 -0.036872268 0.09762499 -0.0085235 -0.036289614 0.03719477 -0.024657331
-0.05382558 -0.0037587588 -0.0058691767 -0.052554283 0.022868374 0.003435357 0.035729207 -0.014981468
0.04441414 0.041050073 -0.013826231 0.031749588 0.043007623 0.07024833 0.017779173 0.0051758667
0.05471039 -0.03995408 -0.029347662 0.010895173 -0.036573604 -0.023839131 -0.015754834 0.017999066
0.033805635 0.027587837 0.061481293 0.0449548 0.029040392 0.048778445 0.07510002 0.06410012
-0.06142009 -0.010256649 -0.027583977 -0.0027100644 0.03110991 0.013090583 -0.03660785 0.04235984
-0.008451718 -0.030789038 0.0055616302 -0.063308604 -0.045342755 -0.02318435 -0.062374607 -0.035794836
-0.02927105 -0.082865454 -0.095331855 -0.034767076 -0.019426085 -0.077373624 -0.062244177 -0.04077875
-0.05395218 -0.08551432 -0.03744568 -0.012715264 0.03930171 0.06326985 -0.08560416 0.0032747823
0.011892187 -0.033401273 0.047017943 0.036409393 -0.12722754 -0.052090663 -0.0024330602 -0.1129603
0.00073691097 0.019332182 -0.067474656 -0.007342131 0.042894408 0.05857082 -0.09949362 -0.075643405
0.08015182 -0.07125673 -0.062577814 0.08521154 -0.07170427 -0.0713919 0.048689034 0.05868062
0.060026698 0.07615548 0.03645309 0.0633662 0.0022341118 -0.0040111165 0.04213218 -0.017446619
0.00091348414 0.10919781 -0.055102404 -0.060173165 0.06943791 -0.030271629 -0.043993358 0.06630145
0.06412564 0.047506064 0.03846322 0.06330061 0.05321608 0.0387037 0.07701625 0.04991757
0.05426295 0.0033169575 -0.020860955 -0.010056371 -0.0053630676 -0.021859074 -0.08510929 0.018517856
-0.006193561 0.02420126 0.01972122 -0.024595922 -0.009133477 0.006631771 0.039008394 0.01476947
0.0075496887 0.00695277 0.009795255 -0.06191476 -0.02975293 -0.06889106 -0.0068131182 0.011441363
-0.0014210268 -0.031858593 -0.053974226 -0.039993208 0.044998657 0.046958797 -0.04507363 0.04452413
0.0016373688 -0.053985033 -0.009527556 -0.018498415 -0.11480978 0.011462734 -0.05462418 0.05969483
-0.0071713063 -0.07904051 0.0009894128 -0.0041350415 -0.09874272 -0.018560965 -0.04463464 0.060454953
0.056213193 -0.08275101 0.045773543 0.037502468 -0.10205772 0.026847428 0.07843003 0.095934935
0.07385519 -0.038293324 0.10075723 0.07122098 -0.05163857 0.114362195 0.042877793 -0.0815287
-0.045732398 0.021216117 0.00988261 0.001808744 0.027283406 -0.013076914 0.047949817 0.0852731
0.039555233 0.10149192 0.048390716 0.07061995 0.095528 0.06839641 0.084225655 0.08375114
0.035089564 0.07069878 0.0028352693 -0.046146788 -0.04339772 0.015717098 -0.0431031 -0.019000223
-0.009481482 -0.02727295 -0.047141753 0.0019044727 -0.039294317 -0.0039394693 -0.04692076 -0.014726734
-0.028347675 -0.069109045 -0.019706706 -0.009543234 -0.060951702 -0.041549325 -0.01720936 -0.0017891601
00000000: fb49 4e3b 336b cfbc 0211 66bc 6225 03bd
00000010: c827 ef3b 1816 2cb8 b01e f739 5c4a 6b3d
00000020: 09e0 ac3d 3f3d 8dbd 2a0a 40bd c000 8e3c
00000030: e2e8 fabb a996 e6bc 92c2 933d 2691 603c
00000040: 12ba 153b 28d6 9a3d b48f 66bd ea9d 33bd
00000050: 2a2b c3bd 8d3f 5bbd 7ba9 b6bc 9953 c1bd
00000060: 5809 81bd 9726 53bd 15f1 a3bd 762c 02bd
00000070: ff7d 9abd 0bc7 443d 7997 c0bc 4f9b 47bd
00000080: b256 113d 70ed da3c 6007 17bd 9cef c73d
00000090: 26a6 0bbc 6ba4 14bd 8b59 183d 2cfe c9bc
000000a0: 3678 5cbd 8255 76bb 3952 c0bb 2943 57bd
000000b0: 7556 bb3c ba23 613b ca58 123d d574 75bc
000000c0: 9aeb 353d 1f24 283d 6a87 62bc db0b 023d
000000d0: c328 303d 5bde 8f3d a1a5 913c 519a a93b
000000e0: 0018 603d e4a6 23bd 826a f0bc ab81 323c
000000f0: 34ce 15bd 484a c3bc 4810 81bc c772 933c
00000100: c777 0a3d e3ff e13c cfd3 7b3d 8622 383d
00000110: 1ee6 ed3c e8cb 473d 0ace 993d ec46 833d
00000120: a293 7bbd 810b 28bc cbf7 e1bc 569b 31bb
00000130: 36da fe3c e279 563c 1df2 15bd 8381 2d3d
00000140: 1379 0abc 4b39 fcbc 563e b63b f1a7 81bd
00000150: 53b9 39bd 1bed bdbc 847c 7fbd 9b9d 12bd
00000160: d7c9 efbc 5db5 a9bd 593d c3bd ec67 0ebd
00000170: 7423 9fbc 1076 9ebd c0f3 7ebd 9e07 27bd
00000180: f6fc 5cbd 2222 afbd a460 19bd af53 50bc
00000190: d4fa 203d a093 813d 3c51 afbd bb9d 563b
000001a0: 73d7 423c c6cf 08bd e395 403d 0422 153d
000001b0: f047 02be 055d 55bd fa73 1fbb bb57 e7bd
000001c0: 422d 413a 865e 9e3c 2730 8abd 4296 f0bb
000001d0: 0cb2 2f3d f5e7 6f3d 50c3 cbbd eeea 9abd
000001e0: a326 a43d 0cef 91bd cc28 80bd 6383 ae3d
000001f0: b0d9 92bd eb35 92bd 276e 473d 175b 703d
00000200: 8ede 753d 68f7 9b3d d64f 153d 23c6 813d
00000210: 2d6a 123b af6f 83bb cb92 2c3d 36ec 8ebc
00000220: e276 6f3a 1aa3 df3d 0fb3 61bd 2378 76bd
00000230: 7735 8e3d 35fc f7bc 6132 34bd 0ec9 873d
00000240: 4e54 833d b895 423d 9c8b 1d3d c0a3 813d
00000250: 1bf9 593d c587 1e3d b2ba 9d3d 5e76 4c3d
00000260: d442 5e3d 5061 593b 98e4 aabc 7ac3 24bc
00000270: acbc afbb cd11 b3bc c84d aebd c2b2 973c
00000280: 5bf3 cabb b941 c63c 658e a13c 637d c9bc
00000290: 94a4 15bc 544f d93b 44c7 1f3d a6fb 713c
000002a0: 6163 f73b 10d4 e33b 477c 203c 559a 7dbd
000002b0: 6bbc f3bc c216 8dbd 9440 dfbb 8e74 3b3c
000002c0: bf41 baba 287e 02bd 1414 5dbd ebcf 23bd
000002d0: 8350 383d de57 403d 209f 38bd ef5e 363d
000002e0: fb9c d63a 691f 5dbd 7719 1cbc fd89 97bc
000002f0: 6421 ebbd 31ce 3b3c 9bbd 5fbd 9182 743d
00000300: 47fd eabb fedf a1bd 2faf 813a 3e7f 87bb
00000310: a039 cabd 2a0d 98bc d0d2 36bd 9d9f 773d
00000320: ce3f 663d 5d79 a9bd 0a7d 3b3d 309c 193d
00000330: a303 d1bd 23ef db3c ec9f a03d 8979 c43d
00000340: 6441 973d 76d9 1cbd ce59 ce3d 4edc 913d
00000350: f782 53bd ba36 ea3d a0a0 2f3d 85f8 a6bd
00000360: e551 3bbd 6ccd ad3c acea 213c 6113 ed3a
00000370: 7381 df3c 8d40 56bc 0767 443d aaa3 ae3d
00000380: ab04 223d ffda cf3d 5835 463d 31a1 903d
00000390: 2fa4 c33d 6b13 8c3d 807e ac3d b885 ab3d
000003a0: 13ba 0f3d 86ca 903d edcf 393b 6a04 3dbd
000003b0: cfc1 31bd 25c1 803c e08c 30bd 5ba6 9bbc
000003c0: 3858 1bbc 866b dfbc b617 41bd 809f f93a
000003d0: 14f3 20bd aa16 81bb fc2f 40bd 6648 71bc
000003e0: 6239 e8bc 0b89 8dbd f56f a1bc 395b 1cbc
000003f0: 7ea8 79bd a02f 2abd a5fa 8cbc 4082 eaba

bias f4 [3]
-0.04616091 -0.004178008 -0.017366054
00000000: 3913 3dbd ace7 88bb 4143 8ebc
