TuiGAN/models/facade2labels/ba2.pth (torch, 233612 bytes, 46 tensors)

weight f4 [32, 3, 3, 3]
-0.0035417941 -0.021395512 -0.057101056 -0.030530415 -0.010322094 -0.062317684 0.02663422 0.032520596
0.029117387 2.0459536e-05 0.010196135 -0.024703909 0.024720477 0.016372442 -0.015128572 0.013636719
-0.0062948614 -0.03389183 -0.013962307 -0.019554975 -0.07235336 0.048093136 0.03857444 -0.008226726
0.005145378 0.051078055 -0.07560987 -0.0038466996 0.007372584 0.004165871 -0.018709349 0.06229728
0.013779879 0.023634046 0.06435189 0.01973344 0.021357408 0.015968015 -0.030507447 0.0047278726
0.025351588 -0.009764242 0.017423466 0.06638139 0.05765744 -0.019905537 0.01470344 0.010863897
-0.05788179 -0.0011355517 0.0050987075 0.00468137 0.073257804 0.0604296 0.0133487135 -0.03915402
-0.00037799735 0.011621373 -0.034298006 -0.007961801 0.0365564 -0.04238873 -0.008552504 -0.011011008
-0.029235635 -0.0032262546 0.010161844 -0.046640918 -0.021724239 0.08997587 0.019235576 -8.917302e-05
0.0014272858 -0.011378021 0.01958117 -0.037374683 -0.0683873 -0.0255067 0.030190289 -0.023394993
-0.0198482 -0.033944163 -0.03255351 0.02627768 -0.0052814647 -0.06511828 -0.023777794 -0.07101982
-0.0591296 0.013413243 -0.006275548 -0.006352378 0.07538632 -0.023996323 -0.009287946 0.046433803
-0.047632314 -0.043381013 -0.0018130842 0.0028327089 -0.00045199285 -0.0033834707 0.032141086 0.026782675
0.008851413 -0.049979784 0.002085483 0.013738964 0.022199588 0.019713378 0.021012908 -0.026025888
0.015536772 0.04789854 -0.011583896 -0.018682143 0.008903436 -0.00834994 -0.018469552 -0.04463637
-0.0022847063 0.016495178 0.044250235 -0.015335624 -0.039884016 -0.029787542 -0.00086893607 -0.048960693
-0.048953682 0.010789348 0.007388817 0.04726637 0.05329507 -0.00941565 0.075210616 -0.032784075
-0.08061964 -0.06854896 0.00740259 0.0026281902 -0.076386824 0.024670342 0.011927896 -0.018559618
-0.024270305 -0.002479043 -0.024586583 -0.036256526 0.032223 -0.0074774777 0.006433432 0.0067871585
0.018386323 0.052538555 -0.0033136376 0.037960865 0.03295077 0.0718669 0.021821633 -0.018667318
-0.009807748 0.013500606 0.02614951 0.054878235 0.020793237 0.024908794 0.020270238 -0.018812025
0.04780735 0.060667455 0.008191624 -0.021322398 -0.020828089 0.012300467 -0.017395629 -0.030794429
0.018074073 0.03230155 0.014328661 0.015964106 0.0043286523 -0.018841205 -0.022078026 0.019735146
-0.0039802105 0.031094333 0.06287198 0.07635942 0.012871846 0.013195008 0.026025835 0.058348075
0.023855109 0.01545856 0.01393178 0.02075222 0.06733588 -0.026096938 -0.06094794 0.011924736
0.0679251 -0.02294718 -0.021174485 -0.00990602 0.016842846 0.038267504 -0.022725703 0.020300755
0.025012385 0.047774088 0.017358731 0.017927643 0.0031120507 -0.012918375 0.011503768 -0.016055405
-0.04723859 0.019331677 -0.021422949 0.038613357 0.06857339 0.051639237 -0.033445492 0.03637806
0.044601683 -0.034450654 0.012263058 -0.017025579 0.017900059 -0.0018131471 0.008912788 -0.051910747
0.029463733 0.014289065 0.0292872 0.002709083 0.039845094 0.040320907 0.046508964 0.037555248
0.03137757 -0.0054906635 -0.005768949 0.0031336132 0.0035931487 0.020848742 -0.028397918 -0.091691434
-0.036055222 -0.013306675 -0.08632754 -0.0046042847 0.019422248 -0.0072980756 0.016036129 0.034102518
00000000: 721d 68bb a445 afbc cce2 69bd ec1a fabc
00000010: 001e 29bc d440 7fbd 0230 da3c 5134 053d
00000020: 9687 ee3c 85a0 ab37 b10d 273c da5f cabc
00000030: 9982 ca3c 801f 863c d4dd 77bc 8c6c 5f3c
00000040: 2045 cebb 29d2 0abd 29c2 64bc c131 a0bc
00000050: 002e 94bd 4ffd 443d 3b00 1e3d 64c9 06bc
00000060: 8f9a a83b 3937 513d 59d9 9abd e918 7cbb
00000070: b895 f13b dc81 883b 5944 99bc 6f2b 7f3d
00000080: 00c5 613c 309c c13c ecca 833d 06a8 a13c
00000090: bbf5 ae3c 5bcf 823c c1ea f9bc 45ec 9a3b
000000a0: 22ae cf3c 33fa 1fbc a8bb 8e3c f7f2 873d
000000b0: 352a 6c3d f010 a3bc b2e6 703c 7dfe 313c
000000c0: 7515 6dbd cbd6 94ba 0f13 a73b 2e66 993b
000000d0: 3008 963d 0785 773d 90b4 5a3c f75f 20bd
000000e0: f22d c6b9 9267 3e3c 117c 0cbd 3772 02bc
000000f0: 2abc 153d ce9f 2dbd cd1f 0cbc 8467 34bc
00000100: 927f efbc 926f 53bb dd7d 263c 8c0a 3fbd
00000110: 08f7 b1bc 4545 b83d ed93 9d3c 6702 bbb8
00000120: c413 bb3a e16a 3abc b168 a03c 3216 19bd
00000130: a40e 8cbd 6df3 d0bc a051 f73c dba6 bfbc
00000140: b198 a2bc 0909 0bbd d456 05bd 4a44 d73c
00000150: 2310 adbb bc5c 85bd a6c9 c2bc d772 91bd
00000160: e131 72bd 38c3 5b3c 1da3 cdbb 9c27 d0bb
00000170: 2564 9a3d f093 c4bc 782c 18bc 5f31 3e3d
00000180: 1a1a 43bd 4ab0 31bd 03a5 edba f8a4 393b
00000190: 74f9 ecb9 38bd 5dbb 5fa6 033d 5767 db3c
000001a0: 8405 113c 9ab7 4cbd 99ac 083b 6419 613c
000001b0: e9db b53c f37d a13c 4323 ac3c 3e34 d5bc
000001c0: f28d 7e3c 4231 443d 62ca 3dbc 4b0b 99bc
000001d0: b8df 113c 30ce 08bc 754d 97bc a0d4 36bd
000001e0: 03bb 15bb e520 873c bc3f 353d 4542 7bbc
000001f0: 6c5d 23bd 0105 f4bc 50c9 63ba 028b 48bd
00000200: a883 48bd cec5 303c e41d f23b 629a 413d
00000210: ee4b 5a3d 1944 1abc 0608 9a3d 9848 06bd
00000220: e91b a5bd 6663 8cbd 6d91 f23b b73d 2c3b
00000230: b270 9cbd 7519 ca3c 396d 433c 570a 98bc
00000240: 85d2 c6bc 7177 22bb cd69 c9bc b981 14bd
00000250: 44fc 033d a105 f5bb 8acf d23b d066 de3b
00000260: ea9e 963c ab32 573d 9d29 59bb da7c 1b3d
00000270: 63f7 063d f42e 933d 48c3 b23c 34ec 98bc
00000280: adb0 20bc a531 5d3c 7f37 d63c 00c8 603d
00000290: 9456 aa3c 870d cc3c c50d a63c ad1b 9abc
000002a0: a4d1 433d 707e 783d 2936 063c 4fac aebc
000002b0: ab9f aabc e687 493c 4781 8ebc 9944 fcbc
000002c0: 1410 943c a14e 043d c3c2 6a3c 28c7 823c
000002d0: 5ed7 8d3b df58 9abc fadc b4bc 9aab a13c
000002e0: 6d6c 82bb 8bb9 fe3c 06c3 803d 5462 9c3d
000002f0: 6fe4 523c e02f 583c 2234 d53c 64fe 6e3d
00000300: ca6b c33c e645 7d3c 1f42 643c 8f00 aa3c
00000310: 65e7 893d 3fc9 d5bc 8ca4 79bd f85f 433c
00000320: 511c 8b3d b9fb bbbc 1d76 adbc dc4c 22bc
00000330: 02fa 893c 63be 1c3d 412b babc c54d a63c
00000340: c6e6 cc3c c3ae 433d e633 8e3c fedc 923c
00000350: 8cf3 4b3b 98a7 53bc 4d7a 3c3c a086 83bc
00000360: 407d 41bd 775d 9e3c 2e7f afbc 0a29 1e3d
00000370: 3570 8c3d aa83 533d 24fe 08bd 2901 153d
00000380: 41b0 363d 211c 0dbd feea 483c 3a79 8bbc
00000390: 25a3 923c 1fa7 edba f106 123c 5da0 54bd
000003a0: ed5d f13c af1c 6a3c b6eb ef3c df8a 313b
000003b0: 9c34 233d 8927 253d 2f80 3e3d 88d3 193d
000003c0: c485 003d 06eb b3bb 7409 bdbb 4e5d 4d3b
000003d0: 087b 6b3b fbca aa3c c0a2 e8bc b8c8 bbbd
000003e0: a4ae 13bd 3d04 5abc 7ecc b0bd 8adf 96bb
000003f0: 681b 9f3c b224 efbb 335e 833c 15af 0b3d

bias f4 [32]
0.05199732 -0.120700605 0.20288713 -0.0764911 -0.08168106 0.108064 0.1621964 0.12493048
0.04019156 -0.16853546 -0.23713776 0.030068338 -0.044833787 0.09695356 -0.03902855 -0.098970585
0.042494513 -0.08354154 0.12681597 -0.06536975 -0.19665131 0.17138591 0.011953912 0.06980352
-0.1500436 -0.062057152 0.22325607 -0.16342868 -0.11900845 0.07411739 -0.15038282 -0.13864225
00000000: 24fb 543d e131 f7bd a5c1 4f3e 5ea7 9cbd
00000010: 6648 a7bd a950 dd3d d016 263e 8ddb ff3d
00000020: e89f 243d 8f94 2cbe 3ed4 72be e051 f63c
00000030: a2a3 37bd 978f c63d 67dc 1fbd 17b1 cabd
00000040: ba0e 2e3d d417 abbd 0cdc 013e 93e0 85bd
00000050: f65e 49be ca7f 2f3e 57da 433c 26f5 8e3d
00000060: 08a5 19be a42f 7ebd 3d9d 643e d959 27be
00000070: b4ba f3bd dcca 973d f4fd 19be 3cf8 0dbe

weight f4 [32]
1.0246668 0.94852394 1.056079 1.0033098 1.022098 1.0244756 0.94717586 1.0303966
1.0258921 1.0080402 0.99801075 1.0560281 0.98000866 1.0331442 0.9827438 0.9734918
1.0685413 0.9587508 0.93468726 0.90941983 0.995456 0.9282753 0.9812022 1.0042043
1.0125196 1.047019 1.0420312 1.0327547 0.9740709 0.9854035 1.0074259 0.9514739
00000000: 4828 833f 77d2 723f 992d 873f 756c 803f
00000010: 1bd4 823f 0422 833f 1e7a 723f 09e4 833f
00000020: 6f50 833f 7607 813f a27d 7f3f ee2b 873f
00000030: d9e1 7a3f 123e 843f 1995 7b3f c236 793f
00000040: f6c5 883f b170 753f aa47 6f3f bdcf 683f
00000050: 34d6 7e3f 73a3 6d3f 1130 7b3f c489 803f
00000060: 3e9a 813f b804 863f 4761 853f 4e31 843f
00000070: b65c 793f 6743 7c3f 55f3 803f cb93 733f

bias f4 [32]
-0.009059812 -0.13801847 -0.2142834 -0.012396131 0.06601396 -0.089806594 -0.16250657 0.03621366
0.10838697 0.03253352 -0.054984722 -0.04154484 0.009667263 -0.24893136 -0.01758381 -0.19285771
-0.15451984 0.008435695 -0.14140183 -0.038248055 -0.02773428 -0.05071642 -0.10745176 -0.039402675
-0.110858686 -0.08007184 0.01573039 -0.0036903415 -0.032696053 -0.038236175 0.045014635 -0.018700236
00000000: 9b6f 14bc b754 0dbe 1c6d 5bbe 2419 4bbc
00000010: 5432 873d 85ec b7bd 1f68 26be c654 143d
00000020: fdf9 dd3d de41 053d a937 61bd ec2a 2abd
00000030: 7163 1e3c dde7 7ebe ec0b 90bc 7e7c 45be
00000040: 733a 1ebe df35 0a3c a4cb 10be fea9 1cbd
00000050: 0033 e3bc 05bc 4fbd ab0f dcbd b364 21bd
00000060: e109 e3bd b4fc a3bd 05dd 803c a8d9 71bb
00000070: 4cec 05bd 899d 1cbd 4461 383d 3d31 99bc

running_mean f4 [32]
0.07928894 -0.19315515 0.17511304 0.05973123 -0.062383857 0.31038174 0.12034729 0.07778336
0.06684711 -0.04862561 -0.20952179 0.09727849 0.025018854 0.09233288 -0.13949415 -0.10415979
0.019955618 -0.09513048 0.08029512 -0.11540578 -0.20025182 0.070319004 0.033725318 0.10419545
-0.10945478 -0.10907878 0.35002246 -0.1343068 -0.23552652 -0.014267345 -0.25294793 -0.25185367
00000000: 3d62 a23d 77ca 45be d550 333e bca8 743d
00000010: 3786 7fbd 5bea 9e3e a478 f63d e24c 9f3d
00000020: 23e7 883d a62b 47bd e18c 56be f239 c73d
00000030: 57f4 cc3c 0519 bd3d 8ed7 0ebe ba51 d5bd
00000040: f779 a33c c5d3 c2bd c571 a43d de59 ecbd
00000050: d00e 4dbe 6903 903d 8f23 0a3d 6d64 d53d
00000060: d429 e0bd b264 dfbd 2536 b33e b987 09be
00000070: dd2d 71be 95c1 69bc 6482 81be f7f2 80be

running_var f4 [32]
0.005099691 0.020529024 0.0063774013 0.026049811 0.005171339 0.045984898 0.009981498 0.0076831058
0.009546598 0.020200435 0.009324281 0.0106406575 0.019369895 0.0081880335 0.018225214 0.0088527175
0.0063009136 0.0021148717 0.010864714 0.0037311816 0.007936549 0.012823424 0.0069492585 0.015787698
0.008145546 0.00914012 0.024603521 0.0061704 0.015867611 0.02304591 0.017162738 0.012879467
00000000: 4f1b a73b 7c2c a83c 85f9 d03b 6a66 d53c
00000010: 5674 a93b a95a 3c3d 7089 233c 90c2 fb3b
00000020: 5669 1c3c 627b a53c dec4 183c 2756 2e3c
00000030: 9dad 9e3c 1a27 063c 0b4d 953c fd0a 113c
00000040: e577 ce3b a999 0a3b ea01 323c d786 743b
00000050: 4d08 023c 5719 523c 9bb6 e33b 3455 813c
00000060: e574 053c 71c0 153c 538d c93c 1131 ca3b
00000070: cbfc 813c c7ca bc3c df98 8c3c 6604 533c

weight f4 [32, 32, 3, 3]
0.04783378 -0.016831977 0.0030648494 0.0104860095 0.02412397 -0.060729537 0.0118800895 -0.039428134
-0.033552367 0.0051073376 0.04074554 0.0064875623 0.0014351361 -0.013461363 -0.014601555 -0.008500938
-0.01268073 0.005533191 -0.052958425 0.095512256 -0.06110374 -0.023229936 0.021002945 -0.04043459
-0.04549833 0.06945736 -0.007799472 0.028124006 0.0043623773 0.01213526 0.009231216 -0.008901956
0.045713726 -0.033770986 -0.039381407 0.0038491185 0.01734914 0.053510826 0.04179207 -0.012489316
0.068560556 0.009294041 -0.0077252993 0.036363814 -0.03225264 0.019893244 0.029062502 -0.020735808
0.036955137 0.011309987 -0.014251603 0.022333782 0.04862229 0.03383068 -0.00011723214 0.045190312
0.047952812 -0.009546089 0.010105571 -0.01947236 0.0073833778 -0.028909376 -0.011931323 0.06192717
0.071778506 -0.005114614 0.014928232 -0.02729494 -0.005203753 0.088795274 -0.024441313 -0.017760308
0.037812322 -0.015199354 -0.0030092748 0.05574595 0.01704442 -0.012973083 0.0068531916 -0.039001882
-0.036805 0.051940467 0.014852868 0.04095689 0.037550576 -0.0091397595 0.05429166 0.028427148
-0.041123327 -0.02046192 0.006654812 0.020547794 0.045494717 0.050913606 -0.03383331 0.01277028
0.06223523 0.03370246 0.025679883 -0.022258831 -0.0023329044 0.032198522 -0.0043241414 -0.004031871
0.051287815 -0.029342484 0.007822211 0.021877097 -0.011280392 -0.008725516 0.06543643 0.014150817
0.036177047 -0.0045222593 0.021062339 0.034669768 0.018058687 -0.02238902 -0.00016972955 0.017933499
0.004533434 -0.03908548 -0.060539987 0.03704721 0.029485302 0.010089267 0.07135783 0.015800925
-0.026299719 0.019564956 0.010134188 -0.0065718084 -0.023251312 0.026649276 0.008590197 0.091344394
0.032659482 0.0032698212 0.04107212 -0.0048252903 -0.006438605 0.023069698 0.006876695 -0.008365692
0.025706392 -0.014707066 -0.017489733 0.04334721 -0.0050576283 0.023246134 -0.019401506 0.017723309
0.009597767 -0.00023207515 0.03264888 0.020174436 -0.01370806 -0.023661625 0.014884379 -0.042743776
-0.0064237667 -0.026884906 -0.020480966 -0.018420488 0.003735214 -0.0089046545 0.01094655 -0.0053050863
0.042089164 -0.005434253 0.015681552 -0.029700093 -0.0023685335 0.023609102 0.027927812 0.008148991
0.032885987 0.011943894 0.028787082 -0.006268716 -0.07079725 -0.003125644 0.0080075 -0.027766155
0.022985637 0.0028336188 -0.013036786 0.02216257 -0.05870526 -0.015511677 0.009475949 0.034301326
0.01852749 0.027024858 0.043590054 -0.03618979 -0.06489369 -0.001944293 -0.009405941 -0.037532564
-0.0316537 -0.01686607 -0.018160706 -0.0047074356 -0.07993198 0.00071004254 -0.014233175 0.016622813
0.0022857024 0.0535749 -0.0027367477 0.028593116 0.05408008 0.0024518042 0.014193096 -0.024735
-0.007385214 0.027430212 0.0036409453 0.0017248465 0.037657317 0.045680445 0.041578997 -0.018185558
0.049616612 -0.026090406 0.0041942038 0.010684852 -0.026878621 -0.016919587 -0.0242457 -0.049933184
-0.027072428 0.032504547 0.010536404 0.02742135 -0.03598903 0.031912576 0.0004443227 -0.0076436773
0.08499117 0.046776317 -0.0555806 0.0031728917 0.008173255 0.027647771 -0.022316232 0.0086728865
0.014139594 0.00757276 0.009688738 -0.009069746 -0.058079373 -0.023182504 -0.0068925032 0.0026740478
00000000: 5bed 433d 37e3 89bc a4db 483b 83cd 2b3c
00000010: a29f c53c 89bf 78bd b5a4 423c 657f 21bd
00000020: 356e 09bd 745b a73b cce4 263d 9e95 d43b
00000030: 2d1b bc3a 0c8d 5cbc 5c3b 6fbc 8547 0bbc
00000040: d6c2 4fbc c54f b53b efea 58bd ee9b c33d
00000050: ea47 7abd b54c bebc 5e0e ac3c be9e 25bd
00000060: 755c 3abd a93f 8e3d b792 ffbb 5164 e63c
00000070: 46f2 8e3b f8d2 463c 873e 173c 82d9 11bc
00000080: 513e 3b3d 7253 0abd 664e 21bd 7e41 7c3b
00000090: c91f 8e3c 2b2e 5b3d 292e 2b3d fd9f 4cbc
000000a0: 7a69 8c3d 0946 183c 8224 fdbb 39f2 143d
000000b0: 581b 04bd 28f7 a23c 7c14 ee3c 24de a9bc
000000c0: 455e 173d 864d 393c 8e7f 69bc 56f5 b63c
000000d0: 2b28 473d 0a92 0a3d 87da f5b8 7a19 393d
000000e0: 2b6a 443d 3367 1cbc d691 253c 8084 9fbc
000000f0: 43f0 f13b 5bd3 ecbc 997b 43bc 58a7 7d3d
00000100: 9c00 933d 7e98 a7bb 8b95 743c a399 dfbc
00000110: 3e84 aabb 4cda b53d 2639 c8bc 117e 91bc
00000120: 18e1 1a3d b606 79bc 4137 45bb de55 643d
00000130: bda0 8b3c 0e8d 54bc bd90 e03b 70c0 1fbd
00000140: d7c0 16bd 87bf 543d 7259 733c 69c2 273d
00000150: a2ce 193d eebe 15bc ef60 5e3d 0de0 e83c
00000160: ef70 28bd c29f a7bc 9c10 da3b d953 a83c
00000170: ab58 3a3d c98a 503d cc94 0abd 703a 513c
00000180: 5eea 7e3d 970b 0a3d 9e5e d23c 2758 b6bc
00000190: a4e3 18bb 99e2 033d 87b1 8dbb c91d 84bb
000001a0: 2c13 523d a65f f0bc bb28 003c 9937 b33c
000001b0: 65d1 38bc 77f5 0ebc 8903 863d d4d8 673c
000001c0: 622e 143d 762f 94bb ed8a ac3c e301 0e3d
000001d0: d0ef 933c 2e69 b7bc 6ef9 31b9 46e9 923c
000001e0: 338d 943b 1918 20bd c7f8 77bd d1be 173d
000001f0: 298b f13c 744d 253c 0e24 923d f170 813c
00000200: 8272 d7bc b046 a03c de09 263c 5358 d7bb
00000210: 8979 bebc 954f da3c e6bd 0c3c c512 bb3d
00000220: f3c5 053d 7f4a 563b 3d3b 283d 781d 9ebb
00000230: effa d2bb aafc bc3c e655 e13b 4110 09bc
00000240: 3696 d23c e8f5 70bc a146 8fbc d88c 313d
00000250: 76ba a5bb ad6e be3c e8ef 9ebc 7930 913c
00000260: f43f 1d3c 3359 73b9 d5ba 053d dc44 a53c
00000270: c597 60bc 06d6 c1bc 9cdd 733c 1914 2fbd
00000280: 767e d2bb bc3d dcbc b3c7 a7bc 90e6 96bc
00000290: 7eca 743b d4e4 11bc 2959 333c 4ad6 adbb
000002a0: b065 2c3d d111 b2bb 9976 803c 9c4d f3bc
000002b0: 6639 1bbb e067 c13c dec8 e43c 5883 053c
000002c0: 75b3 063d 53b0 433c e3d2 eb3c cd69 cdbb
000002d0: 26fe 90bd 9bd7 4cbb e431 033c d975 e3bc
000002e0: 604c bc3c 3cb4 393b 3e98 55bc 478e b53c
000002f0: ed74 70bd b024 7ebc 0341 1b3c 8c7f 0c3d
00000300: f6c6 973c 3c63 dd3c 7c8b 323d bf3b 14bd
00000310: fce6 84bd a6d7 feba 601b 1abc bfbb 19bd
00000320: 4fa7 01bd b62a 8abc c3c5 94bc d540 9abb
00000330: 61b3 a3bd 2622 3a3a 4332 69bc 912c 883c
00000340: b9cb 153b 5b71 5b3d 025b 33bb 1c3c ea3c
00000350: 1383 5d3d 73ae 203b 298a 683c 0ea1 cabc
00000360: aaff f1bb 53b5 e03c ed9c 6e3b 3f14 e23a
00000370: 8f3e 1a3d 6b1b 3b3d bd4e 2a3d e1f9 94bc
00000380: ca3a 4b3d 8cbb d5bc 886f 893b 840f 2f3c
00000390: 8e30 dcbc f29a 8abc eb9e c6bc bd86 4cbd
000003a0: ffc6 ddbc 7d23 053d e2a0 2c3c bda2 e03c
000003b0: 3c69 13bd c3b6 023d fcf3 e839 d077 fabb
000003c0: da0f ae3d 8698 3f3d 7ca8 63bd 4af0 4f3b
000003d0: 1ee9 053c 947d e23c 88d0 b6bc b918 0e3c
000003e0: c1a9 673c ea24 f83b 83bd 1e3c 4699 14bc
000003f0: a3e4 6dbd 3ce9 bdbc 82da e1bb 143f 2f3b

bias f4 [32]
0.011586749 0.02306228 0.017674658 0.025693752 -0.035863884 -0.057062957 0.013415474 0.030856334
0.052448895 0.04835751 0.056175973 -0.050795496 0.013583598 -0.03713489 -0.03286758 -0.055696163
0.043497246 -0.02506004 -0.039096773 0.0015525572 -0.016591 -0.016313428 -0.04046091 0.047912233
-0.054200653 0.03845642 0.011160017 -0.025977245 0.0061336183 0.0027462419 0.007066769 -0.03004784
00000000: 59d6 3d3c 1bed bc3c 72ca 903c b47b d23c
00000010: 02e6 12bd d9ba 69bd 94cc 5b3c 6cc6 fc3c
00000020: a7d4 563d 8612 463d c718 663d f00e 50bd
00000030: bd8d 5e3c c11a 18bd 28a0 06bd a921 64bd
00000040: 2b2a 323d b74a cdbc f023 20bd 2d7f cb3a
00000050: d9e9 87bc bda3 85bc 57ba 25bd 9e3f 443d
00000060: 8101 5ebd 7b84 1d3d 81d8 363c 3bce d4bc
00000070: 85fc c83b 4bfa 333b 5b90 e73b e326 f6bc

weight f4 [32]
1.0059733 0.99005115 1.0210407 1.055051 0.94224787 1.0385029 0.9829655 1.0189464
0.9998732 0.97977656 1.0193175 0.98899275 1.0200452 0.9786143 1.062012 1.0030713
0.97488195 0.97167885 0.98128253 0.94500667 0.9500923 0.9621458 0.99986386 0.94001853
0.9581645 1.0171025 0.98655987 0.9593231 1.0388436 0.96722686 0.93702304 0.9737532
00000000: bcc3 803f fe73 7d3f 76b1 823f e90b 873f
00000010: 2837 713f aaed 843f a1a3 7b3f d66c 823f
00000020: b1f7 7f3f a3d2 7a3f ff78 823f a12e 7d3f
00000030: d790 823f 7786 7a3f 02f0 873f a464 803f
00000040: dd91 793f f2bf 783f 5535 7b3f f5eb 713f
00000050: 4039 733f 304f 763f 14f7 7f3f 0ea5 703f
00000060: 454a 753f 6a30 823f 308f 7c3f 3396 753f
00000070: d4f8 843f 2e9c 773f bee0 6f3f e447 793f

bias f4 [32]
-0.15903114 -0.111639924 -0.09707225 -0.013158092 -0.10627808 -0.0039692996 -0.066569164 -0.0645334
-0.1217051 -0.017323632 -0.09812965 -0.082615495 -0.065867394 -0.20686474 0.1379568 0.016208915
-0.07261613 -0.018333266 -0.20275775 -0.06417369 -0.056331225 -0.11989717 -0.034085672 -0.10068073
-0.053053036 -0.12255746 -0.006713124 -0.08196265 -0.124800935 -0.17961189 -0.022420011 -0.13581851
00000000: 0fd9 22be 79a3 e4bd d1cd c6bd 0a95 57bc
00000010: 52a8 d9bd e610 82bb 6a55 88bd 162a 84bd
00000020: 8640 f9bd 4aea 8dbc 33f8 c8bd 5032 a9bd
00000030: 7ce5 86bd 5ad4 53be 8c44 0d3e 8fc8 843c
00000040: c4b7 94bd a52f 96bc ba9f 4fbe 7f6d 83bd
00000050: 92bb 66bd a68c f5bd 6b9d 0bbd b331 cebd
00000060: 244e 59bd 68ff fabd c4f9 dbbb 09dc a7bd
00000070: a297 ffbd 2eec 37be 2caa b7bc 0214 0bbe

running_mean f4 [32]
0.3924393 -0.22284319 -0.032810338 0.2484952 -0.032165773 -0.41995847 -0.2997916 0.1041383
-0.16858263 -0.6683649 -0.092192434 0.0007636704 -0.24415435 0.42528367 -0.40996456 -0.35010606
0.101120315 -0.24132697 -0.35320053 -0.06616278 0.17694198 -0.1778648 -0.19040677 -0.06290268
0.27307954 -0.37562963 -0.68231 -0.31142893 0.14298883 0.122404195 0.20378089 0.030375114
00000000: ceed c83e 0131 64be 2264 06bd 8775 7e3e
00000010: 42c0 03bd cc04 d7be 497e 99be 7646 d53d
00000020: eda0 2cbe f619 2bbf 63cf bcbd 0e31 483a
00000030: 9903 7abe c8be d93e e0e6 d1be 1a41 b3be
00000040: 2b18 cf3d 6b1e 77be b3d6 b4be 5a80 87bd
00000050: 4730 353e 3122 36be fef9 42be 1fd3 80bd
00000060: 15d1 8b3e 8752 c0be deab 2ebf 9d73 9fbe
00000070: aa6b 123e 0daf fa3d f0ab 503e 3bd5 f83c

running_var f4 [32]
0.13207053 0.22648211 0.261664 0.33132425 0.16556633 0.34037364 0.13883904 0.32811144
0.12828684 1.4321961 0.17139538 0.14421792 0.18812351 0.836172 0.39211565 0.22003943
0.12036185 0.1894307 0.18149106 0.34807378 0.46835464 0.25837544 0.3576464 0.22469829
0.33081818 0.31349263 0.5456183 0.1680989 0.2878955 0.09763617 0.18620984 0.1287727
00000000: 7f3d 073e edea 673e d3f8 853e 55a3 a93e
00000010: 388a 293e 7445 ae3e d22b 0e3e 39fe a73e
00000020: a05d 033e 3452 b73f 4582 2f3e ddad 133e
00000030: 73a3 403e 5e0f 563f 62c3 c83e 0452 613e
00000040: 4680 f63d 1ffa 413e cbd8 393e ba36 b23e
00000050: 2ecc ef3e c949 843e 6e1d b73e 4f17 663e
00000060: 0061 a93e 1b82 a03e a4ad 0b3f 1e22 2c3e
00000070: 0a67 933e 79f5 c73d cbad 3e3e fedc 033e

weight f4 [32, 32, 3, 3]
-0.02334139 -0.016144637 -0.07345095 -0.028922098 0.00048008212 0.0071750367 0.031045923 0.01384033
0.020711863 0.042962726 -0.008548155 -0.016558638 -0.04321311 -0.05285394 -0.011381439 0.008725649
0.019790567 0.04996856 -0.025061732 -0.010903789 -0.02362088 0.025799964 -0.06789085 -0.018936455
0.05595527 0.033006784 0.008639029 0.037554625 0.010679263 0.025080917 0.030718923 0.00044219402
-0.010799347 0.0034030732 -0.033094954 -0.05245196 0.053136777 -0.052813888 0.043124676 -0.07152186
0.013503426 0.011438589 0.021790544 -0.083990335 -0.021070376 0.024010297 0.07767499 0.00947232
0.04935722 0.062226273 -0.018835615 0.016655747 -0.0004257043 -0.060915276 -0.014313145 -0.022824297
-0.06355702 -0.010848824 -0.011237367 -0.03884784 -0.0055244192 -0.03467597 0.018083153 0.025816308
0.01209795 -0.04731463 -0.032053836 0.036376845 0.013540232 0.0064161653 0.024876451 -0.028848095
0.029188596 0.0014355305 0.0660766 -0.03743598 0.026772173 0.07360402 0.06787522 -0.025462193
0.019924289 0.014315898 -0.02215455 0.008541897 -0.010665465 -0.049413987 0.005424146 0.012027353
-0.041092124 0.028532708 0.0071118623 0.013572059 -0.01669911 -0.024352424 0.05086568 -0.054612674
-0.03759601 -0.014497192 0.02122769 -0.038974375 -0.0046449015 -0.023932789 -0.0353051 -0.00023998533
0.0060088597 -0.0135031305 -0.006462621 0.014990518 0.028607156 0.054328837 0.04914499 0.03703663
0.0003155415 -0.030379713 0.061919242 0.01040076 -0.058680426 0.0003156159 -0.039136324 0.024023658
0.074546754 0.017039707 0.0413823 0.027087055 -0.01712547 -0.037944634 -0.039801907 -0.011905423
0.012946753 -0.02084977 -0.004750909 -0.06421065 0.013079211 0.017520908 -0.031598378 -0.03963505
-0.02571532 -0.022352638 0.028874138 0.01689328 -0.05657955 0.0064088185 0.007291201 -0.08284555
-0.010747937 0.009491483 -0.0024473108 -0.007243033 0.0075765243 0.017837243 0.00094148127 0.05495862
0.0631487 -0.044650294 -0.026667055 0.024069276 0.03322166 0.027309015 0.059275355 -0.032554828
0.0054524937 0.004861137 -0.038088642 -0.09479982 -0.04219799 0.027999932 0.023843193 0.04879008
2.4576815e-05 0.029613068 -0.00075434876 -0.040191583 -0.04135233 -0.030963987 -0.013558417 -0.010639652
-0.013335793 -0.057213575 -0.015850572 -0.030516293 0.020198924 0.0013099618 -0.026940336 -0.042243212
-0.03504384 -0.009805382 -0.00235242 0.01524852 0.019335791 -0.07811846 0.004185935 0.010890526
-0.0035338195 0.014704563 0.021884209 -0.041428473 -0.027384942 -0.07428883 0.005344326 -0.031465396
-0.009209378 0.016403815 -0.036531735 -0.015304452 9.408889e-05 0.07672306 0.05123654 -0.05409883
-0.032917574 -0.04380134 -0.025248189 0.021404844 0.0032503062 -0.015908116 0.019656647 -0.04209377
0.0046274476 0.0022593902 -0.008373055 0.030415643 0.03881708 0.022059478 0.010287101 0.06934901
0.027658354 0.02496168 0.013271225 0.06970018 -0.015590115 0.03388251 0.08364974 -0.008015105
0.060727336 0.0076073306 -0.020631554 -0.037694205 -0.03295161 -0.035731073 -0.02095079 0.012929053
0.01223709 -0.026780948 -0.0005276849 -0.024098475 0.00969978 -0.0067260987 -0.021734877 -0.017963909
-0.024774924 -0.061752647 0.02472774 0.011694277 0.0034485199 0.011801854 -0.010141108 -0.026454346
00000000: 7136 bfbc c241 84bc 746d 96bd 09ee ecbc
00000010: 88b3 fb39 921c eb3b 0554 fe3c 8dc2 623c
00000020: edab a93c aff9 2f3d 900d 0cbc fba5 87bc
00000030: 3b00 31bd 5f7d 58bd 3779 3abc 06f6 0e3c
00000040: d41f a23c d5ab 4c3d 434e cdbc cea5 32bc
00000050: 9380 c1bc 725a d33c 5c0a 8bbd a020 9bbc
00000060: 5a31 653d 1f32 073d b78a 0d3c e1d2 193d
00000070: 13f8 2e3c 7f76 cd3c 40a6 fb3c 47d6 e739
00000080: bfef 30bc 1806 5f3b 938e 07bd ded7 56bd
00000090: f3a5 593d 6053 58bd 80a3 303d 0e7a 92bd
000000a0: 793d 5d3c eb68 3b3c 1582 b23c 2003 acbd
000000b0: c89b acbc 3eb1 c43c 1114 9f3d ca31 1b3c
000000c0: cc2a 4a3d fae0 7e3d 264d 9abc a271 883c
000000d0: 1031 dfb9 4c82 79bd ae81 6abc 05fa babc
000000e0: 2f2a 82bd 44bf 31bc ef1c 38bc ea1e 1fbd
000000f0: 3006 b5bb 6408 0ebd 1f23 943c b97c d33c
00000100: 7b36 463c fccc 41bd e24a 03bd e3ff 143d
00000110: d9d7 5d3c b23e d23b b3c9 cb3c d752 ecbc
00000120: ec1c ef3c 6928 bc3a 2b53 873d 7856 19bd
00000130: 5151 db3c b4bd 963d 2a02 8b3d 1796 d0bc
00000140: 4338 a33c 3a8d 6a3c 757d b5bc 50f3 0b3c
00000150: 34be 2ebc 5266 4abd 09bd b13b 600e 453c
00000160: 3750 28bd 6dbd e93c a00a e93b 575d 5e3c
00000170: 92cc 88bc bc7e c7bc 8858 503d 8ab1 5fbd
00000180: 46fe 19bd a185 6dbc b1e5 ad3c 98a3 1fbd
00000190: 4234 98bb b20e c4bc 159c 10bd 92a4 7bb9
000001a0: f8e5 c43b 3c3c 5dbc 65c4 d3bb ca9a 753c
000001b0: 8e59 ea3c ea87 5e3d 424c 493d b9b3 173d
000001c0: 436f a539 e0de f8bc 089f 7d3d f367 2a3c
000001d0: e35a 70bd 4079 a539 694d 20bd 43cd c43c
000001e0: f8ab 983d db96 8b3c 7d80 293d ace5 dd3c
000001f0: b74a 8cbc d56b 1bbd 5307 23bd f70e 43bc
00000200: 9e1e 543c 23cd aabc 83ad 9bbb e080 83bd
00000210: 304a 563c 0288 8f3c 4d6d 01bd 5d58 22bd
00000220: efa8 d2bc e11c b7bc 7589 ec3c c763 8a3c
00000230: f5bf 67bd 1101 d23b 07eb ee3b edaa a9bd
00000240: 1d18 30bc 2a82 1b3c 1063 20bb f756 edbb
00000250: 7e44 f83b 691f 923c bdcd 763a 4a1c 613d
00000260: 1b54 813d 3ae3 36bd de74 dabc ee2c c53c
00000270: 6f13 083d 28b7 df3c b7ca 723d 3658 05bd
00000280: d5aa b23b 2c4a 9f3b d602 1cbd 6826 c2bd
00000290: cdd7 2cbd 1d60 e53c cd52 c33c 1bd8 473d
000002a0: 4f2a ce37 1b97 f23c 7dbf 45ba ee9f 24bd
000002b0: 1061 29bd 30a8 fdbc 1f24 5ebc ef51 2ebc
000002c0: 5f7e 5abc c858 6abd 0fd9 81bc 4efd f9bc
000002d0: 3778 a53c 06b3 ab3a fbb1 dcbc 3807 2dbd
000002e0: 218a 0fbd c1a6 20bc 0f2b 1abb eed4 793c
000002f0: 1866 9e3c 92fc 9fbd 2b2a 893b 2d6e 323c
00000300: a797 67bb 68eb 703c 8346 b33c e7b0 29bd
00000310: 6356 e0bc be24 98bd 751f af3b dce1 00bd
00000320: eee2 16bc 4b61 863c 4da2 15bd 86bf 7abc
00000330: 9751 c538 fb20 9d3d 68dd 513d bc96 5dbd
00000340: 94d4 06bd 0969 33bd 4ad5 cebc 3659 af3c
00000350: 1703 553b bd51 82bc fa06 a13c 846a 2cbd
00000360: d8a1 973b 4712 143b 232f 09bc 3a2a f93c
00000370: a9fe 1e3d 14b6 b43c 3b8b 283c db06 8e3d
00000380: c693 e23c 707c cc3c 8d6f 593c f8be 8e3d
00000390: af6d 7fbc 63c8 0a3d 8e50 ab3d c951 03bc
000003a0: 3abd 783d ea46 f93b 8103 a9bc 3d65 1abd
000003b0: 44f8 06bd bf5a 12bd fea0 abbc 61d4 533c
000003c0: 137e 483c b863 dbbc 5654 0aba 2a6a c5bc
000003d0: d3eb 1e3c 9b66 dcbb 570d b2bc 0c29 93bc
000003e0: c8f4 cabc 58f0 7cbd d491 ca3c 5a99 3f3c
000003f0: 9000 623b 905c 413c e426 26bc c9b6 d8bc

bias f4 [32]
-0.04729823 0.013671316 0.04290604 0.012300994 0.021087669 -0.054921325 -0.019006794 -0.052123632
-0.025075829 -0.044624474 -0.05947375 0.005266374 0.016568368 -0.03901471 -0.0061558024 -0.02443414
0.012255568 0.016230494 -0.0040731793 -0.045599736 0.028328644 -0.060625188 -0.010996922 -0.018530672
-0.0114760455 0.0118633555 -0.027258279 -0.0423325 0.06146906 -0.008041722 -0.030756995 0.0069611496
00000000: cabb 41bd a8fd 5f3c 3ebe 2f3d 1c8a 493c
00000010: 0cc0 ac3c 2ff5 60bd 23b4 9bbc 977f 55bd
00000020: d36b cdbc 27c8 36bd bf9a 73bd 8c91 ac3b
00000030: 63ba 873c e3cd 1fbd 9db6 c9bb 1b2a c8bc
00000040: 94cb 483c d0f5 843c 4e78 85bb cac6 3abd
00000050: 7911 e83c 1e52 78bd 6f2c 34bc a3cd 97bc
00000060: 0606 3cbc 855e 423c c14c dfbc d864 2dbd
00000070: fbc6 7b3d 6dc1 03bc 18f6 fbbc 5b1a e43b

weight f4 [32]
1.0465568 1.0145909 1.0389204 1.031256 0.9986681 0.8740024 0.96266496 1.0237176
1.0113698 1.0315855 0.9643504 0.94428813 1.0049081 1.0232431 1.0168476 1.031749
1.013893 1.0304216 0.95471185 0.9855111 1.024674 1.0043347 1.0252594 1.0219669
1.0026561 0.9775695 1.0467857 1.0102527 1.0102102 0.97017896 0.99862474 1.0213001
00000000: 93f5 853f 1dde 813f 58fb 843f 3200 843f
00000010: b6a8 7f3f 9fbe 5f3f 3671 763f 2e09 833f
00000020: 9174 813f fe0a 843f abdf 763f debc 713f
00000030: d4a0 803f a1f9 823f 1028 823f 5a10 843f
00000040: 3fc7 813f dbe4 833f ff67 743f 754a 7c3f
00000050: 8528 833f 0a8e 803f b33b 833f d0cf 823f
00000060: 0957 803f ff41 7a3f 13fd 853f f64f 813f
00000070: 914e 813f a65d 783f dfa5 7f3f f6b9 823f

bias f4 [32]
-0.04383982 -0.124466725 -0.13289331 -0.10497483 -0.09086271 -0.1573182 -0.08984701 -0.10488446
-0.079239495 -0.2186673 -0.119963385 -0.16053446 -0.11339175 -0.09015044 -0.014680504 -0.077549666
-0.03569732 -0.14231998 -0.12856308 -0.06279047 -0.054358512 -0.031555668 -0.17697354 -0.22620691
-0.27011365 -0.15602477 -0.027229352 -0.032671787 -0.11246577 -0.038344122 -0.22187598 -0.070835695
00000000: 6291 33bd 69e8 febd 2f15 08be 0bfd d6bd
00000010: 3a16 babd 0618 21be b601 b8bd aacd d6bd
00000020: 5148 a2bd 52ea 5fbe 5daf f5bd 2563 24be
00000030: ef39 e8bd cba0 b8bd 7f86 70bc 5cd2 9ebd
00000040: 5a37 12bd 54bc 11be 0aa6 03be 4a98 80bd
00000050: 08a7 5ebd 8440 01bd 8d38 35be c9a2 67be
00000060: 564c 8abe f5c4 1fbe 1710 dfbc dad2 05bd
00000070: 7454 e6bd ba0e 1dbd 7533 63be 4e12 91bd

running_mean f4 [32]
-0.2602669 0.29866806 -0.13576296 -0.07393161 -0.0009277895 0.22607596 -0.16811055 -0.59328336
-0.14673227 0.02531369 -0.24404351 0.020789655 -0.093423165 -0.47913554 -0.39690527 0.1325446
-0.43953776 0.09452462 0.39943257 -0.2599045 -0.0072800172 0.014727155 0.058508843 0.03818832
-0.373094 0.15043357 0.14721361 0.008836135 -0.0411156 -0.33444437 0.058938477 0.25425842
00000000: b441 85be 05eb 983e 7205 0bbe 7569 97bd
00000010: e636 73ba 7580 673e 2c25 2cbe 6be1 17bf
00000020: fc40 16be a85e cf3c 8be6 79be 114f aa3c
00000030: a554 bfbd 4151 f5be 2b37 cbbe c6b9 073e
00000040: 180b e1be 2096 c13d 6d82 cc3e 3412 85be
00000050: 368d eebb 2a4a 713c f8a6 6f3d 5b6b 1c3d
00000060: 2d06 bfbe 420b 1a3e 2abf 163e 70c5 103c
00000070: d568 28bd 4b3c abbe 7969 713d 292e 823e

running_var f4 [32]
0.14072856 0.1906011 0.103830874 0.16963147 0.30025086 0.18251696 0.3049612 0.26127324
0.13101465 0.3019747 0.19204867 0.0894465 0.15940891 0.114544496 0.7228702 0.11658448
0.30188218 0.15424938 0.11641119 0.15730417 0.111623615 0.108173735 0.14368004 0.19744436
0.24130645 0.15332632 0.17656416 0.18708387 0.2274492 0.38620737 0.1083477 0.1251835
00000000: 261b 103e ef2c 433e 48a5 d43d dfb3 2d3e
00000010: 7bba 993e bae5 3a3e e023 9c3e 9bc5 853e
00000020: b428 063e 6e9c 9a3e 68a8 443e ba2f b73d
00000030: 173c 233e 4e96 ea3d 050e 393f d8c3 ee3d
00000040: 4d90 9a3e 8df3 1d3e fd68 ee3d 5814 213e
00000050: ec9a e43d 318a dd3d dc20 133e db2e 4a3e
00000060: 0a19 773e 9301 1d3e 3ccd 343e ea92 3f3e
00000070: 71e8 683e f9bc c53e 66e5 dd3d 1a30 003e

weight f4 [32, 32, 3, 3]
-0.0009949977 0.029442707 -0.014090582 0.02540617 0.004721458 -0.049817245 0.008217366 -0.03769537
-0.0011288043 0.042485762 0.07983045 0.024972642 0.038324006 0.010156386 -0.0042027426 0.07409097
0.041402496 0.009213218 -0.059141442 2.1269041e-05 -0.027681798 -0.0038161403 0.03275368 0.029848851
0.0018895696 0.018845202 0.0027018248 -0.011648508 0.0055804458 -0.022338307 -0.013397085 0.01294553
0.0036539924 -0.034812916 0.0053081834 0.004410417 0.009920398 -0.0042650993 -0.018545473 -0.0047370726
-0.01272495 -0.040702183 -0.020554282 -0.04059775 -0.038795665 -0.020213582 -0.0683298 0.005427078
-0.0215766 -0.016934058 0.03234055 -0.02490722 -0.033955935 -0.049066886 -0.020416047 -0.010798525
-0.035714395 -0.01274463 0.029119186 0.019483097 -0.013667248 -0.040639777 0.0120228 -0.034026906
-0.0242387 -0.0066763423 0.018242234 0.009030903 -0.045907136 0.03880709 -0.045056697 -0.06572806
-0.021733616 -0.027226727 -0.044931304 0.007947107 0.047301523 0.0056684697 -0.026166359 -0.017498266
-0.043979995 0.008165173 0.006260824 -0.00049354316 0.0477533 0.03315245 -0.01157136 -0.015125895
0.023043128 -0.027495159 0.026706437 0.014247176 0.007751975 0.0077171694 -0.027884496 0.04263048
-0.035996284 -0.018517476 -0.020460883 0.013632416 0.03793393 0.01150206 0.048912406 0.004005093
-0.00084798544 -0.014528168 0.041118514 0.012591158 -0.01657522 0.02545316 0.038057204 -0.040610727
0.019221012 -0.03062802 -0.012376019 -0.004286854 -0.0091659 -0.059593502 -0.01374867 -0.05853436
-0.043214098 0.038892295 -0.005436209 -0.025952388 -0.04397828 -0.051784445 -0.038748432 -0.002951982
-0.08279544 -0.008738342 0.061434895 -0.011252712 0.01177684 0.049284846 -0.03283262 0.0537244
0.039917197 0.002121247 0.039581414 -0.044354085 -0.02754761 0.05661205 0.019522082 0.0150932055
0.0019587786 0.0038772074 -0.020085888 -0.016352486 -0.028304387 -0.024994725 0.022389282 0.0065270965
-0.039448276 0.034592252 -0.06100289 -0.023538675 0.007658783 0.007296522 -0.035498474 0.042152863
0.01947214 -0.012737012 0.0014339298 -0.012840212 0.032835986 -0.00034899896 0.011880094 0.019462181
-0.021129025 -0.035508987 -0.054223325 0.023528572 0.0059895758 -0.058844898 0.02141506 0.036956504
0.028258136 -0.027016269 0.017323252 -0.05718649 0.055813003 -0.0023018734 -0.0018211048 0.06239546
0.03706225 0.0013860026 0.028316436 -0.04266865 -0.0061768238 0.02030579 -0.030437823 -0.014663163
-0.0072476855 0.026689254 0.024569035 -0.018444803 -0.02046795 -0.03425333 -0.021250388 0.003284359
-0.062816076 -0.007208683 0.023553045 -0.03977757 -0.0042525157 -0.012458299 -0.014257902 -0.027189959
-0.011803071 1.4131989e-05 -0.02893355 -0.0099373115 -0.083460495 -0.039879456 -0.02150973 -0.077604376
-0.010571972 -0.002493906 -0.002295172 0.012683081 0.00012225495 0.009505088 -0.0031496934 0.0063355374
-0.002893737 -0.009020867 -0.052985188 -0.00019748861 -0.010140348 -0.11700431 -0.013226208 0.045816906
-0.050293606 -0.014315081 0.017033316 -0.013948424 -0.060499065 -0.030209813 0.021588255 -0.031706136
0.0036422096 0.014529191 -0.016551629 -0.044863965 0.0229487 0.010150001 0.005659808 0.0609575
0.0427827 0.008843676 0.06693623 0.042706836 -0.03949376 -0.023763742 -0.050626084 0.0313287
00000000: 956a 82ba d531 f13c 2fdc 66bc 9a20 d03c
00000010: 76b6 9a3b 2b0d 4cbd 22a2 063c 7666 1abd
00000020: 63f4 93ba 8d05 2e3d 267e a33d 6d93 cc3c
00000030: a2f9 1c3d f866 263c 29b7 89bb 02bd 973d
00000040: aa95 293d 0af3 163c 4c3e 72bd eb6a b237
00000050: f0c4 e2bc 3618 7abb b928 063d 9485 f43c
00000060: 6fab f73a 4161 9a3c 1911 313b 62d9 3ebc
00000070: 2cdc b63b d3fe b6bc 727f 5bbc 7d19 543c
00000080: d277 6f3b fd97 0ebd 45f0 ad3b 4285 903b
00000090: 2a89 223c 3fc2 8bbb adec 97bc 7239 9bbb
000000a0: 4f7c 50bc 55b7 26bd 7461 a8bc d449 26bd
000000b0: 34e8 1ebd f496 a5bc 7ff0 8bbd a1d5 b13b
000000c0: 69c1 b0bc 4bb9 8abc 8677 043d 3a0a ccbc
000000d0: 6115 0bbd 5cfa 48bd 8e3f a7bc 4cec 30bc
000000e0: 4249 12bd dace 50bc 5c8b ee3c 049b 9f3c
000000f0: 98ec 5fbc e575 26bd 47fb 443c cc5f 0bbd
00000100: 3d90 c6bc 38c5 dabb bd70 953c 5af6 133c
00000110: 1f09 3cbd 2ff4 1e3d 5f8d 38bd 6f9c 86bd
00000120: b20a b2bc 960a dfbc e309 38bd 9534 023c
00000130: 3ebf 413d 92be b93b d55a d6bc 8658 8fbc
00000140: 5e24 34bd 38c7 053c 9927 cd3b 1f61 01ba
00000150: f798 433d ddca 073d cd95 3dbc 9ad2 77bc
00000160: f1c4 bc3c 873d e1bc 75c7 da3c fd6c 693c
00000170: 4804 fe3b 4fe0 fc3b 076e e4bc 4c9d 2e3d
00000180: d770 13bd f6b1 97bc 959d a7bc 7f5a 5f3c
00000190: 9c60 1b3d 2373 3c3c 6058 483d 283d 833b
000001a0: 574b 5eba 8e07 6ebc e36b 283d 254b 4e3c
000001b0: c1c8 87bc 2583 d03c dfe1 1b3d 6f57 26bd
000001c0: 6275 9d3c 9de7 fabc c9c4 4abc bd78 8cbb
000001d0: 922c 16bc 5118 74bd 1a42 61bc bac1 6fbd
000001e0: 4401 31bd 874d 1f3d 3a22 b2bb 1a9a d4bc
000001f0: 9222 34bd ed1b 54bd adb6 1ebd 0a76 41bb
00000200: a890 a9bd 432b 0fbc 28a3 7b3d 4c5d 38bc
00000210: a6f3 403c e8de 493d 7f7b 06bd 1e0e 5c3d
00000220: 3780 233d 9e04 0b3b 1f20 223d a1ac 35bd
00000230: 87ab e1bc 09e2 673d c6ec 9f3c 7e49 773c
00000240: da5e 003b bf18 7e3b 298b a4bc a6f5 85bc
00000250: 9ade e7bc bdc1 ccbc ba69 b73c 41e1 d53b
00000260: 8494 21bd 9bb0 0d3d 2bde 79bd 2ed4 c0bc
00000270: 87f6 fa3b aa17 ef3b d966 11bd 7ba8 2c3d
00000280: 0a84 9f3c e6ae 50bc b3f2 bb3a c15f 52bc
00000290: 077f 063d d9f9 b6b9 baa4 423c 276f 9f3c
000002a0: c716 adbc df71 11bd 4719 5ebd febe c03c
000002b0: 3444 c43b 5907 71bd a36e af3c b45f 173d
000002c0: 9b7d e73c 3951 ddbc 7ee9 8d3c 623c 6abd
000002d0: 2d9c 643d 07db 16bb 23b2 eeba 6292 7f3d
000002e0: 96ce 173d 88aa b53a dff7 e73c 53c5 2ebd
000002f0: f466 cabb 5458 a63c be58 f9bc c33d 70bc
00000300: fe7d edbb 6ca3 da3c 0045 c93c 8e19 97bc
00000310: 67ac a7bc 384d 0cbd 4b15 aebc 663e 573b
00000320: b7a5 80bd d136 ecbb 51f2 c03c ceed 22bd
00000330: b058 8bbb e51d 4cbc fa99 69bc 7abd debc
00000340: ab61 41bc 6e18 6d37 0d06 edbc 1bd0 22bc
00000350: 56ed aabd a458 23bd 2c35 b0bc 0bef 9ebd
00000360: 1036 2dbc cd70 23bb 996a 16bb b3cc 4f3c
00000370: 9031 0039 3bbb 1b3c 166b 4ebb 579a cf3b
00000380: daa4 3dbb 42cc 13bc ff06 59bd f214 4fb9
00000390: b423 26bc f59f efbd bdb2 58bc 82aa 3b3d
000003a0: ab00 4ebd cd89 6abc 7489 8b3c ee87 64bc
000003b0: decd 77bd 927a f7bc dad9 b03c 4bde 01bd
000003c0: 23b2 6e3b d80b 6e3c 4897 87bc 47c3 37bd
000003d0: e9fe bb3c 314c 263c e975 b93b 92ae 793d
000003e0: ea3c 2f3d 11e5 103c dd15 893d 5ded 2e3d
000003f0: 35c4 21bd 2eac c2bc 4c5d 4fbd 8652 003d

bias f4 [32]
-0.012230758 0.035127565 0.055491313 0.052528184 -0.031718444 -0.017840791 -0.013142192 0.012964091
0.031176407 0.0042720004 -0.025107209 0.03716104 -0.049283955 0.013875133 -0.050691213 0.018051071
0.047548108 -0.026857993 0.0068265693 2.556888e-05 0.03360623 -6.3809166e-05 0.06496721 -0.016464282
0.017261934 -0.012282617 -0.055772603 -0.0524109 0.031587567 0.051041674 -0.029752936 -0.05448107
00000000: 8463 48bc ece1 0f3d dc4a 633d cb27 573d
00000010: 33eb 01bd da26 92bc 5952 57bc 5767 543c
00000020: aa65 ff3c 23fc 8b3b a2ad cdbc 2d36 183d
00000030: f9dd 49bd 8754 633c 97a1 4fbd d7df 933c
00000040: cec1 423d 4b05 dcbc 6ab1 df3b c07c d637
00000050: b0a6 093d 49d1 85b8 870d 853d 1ae0 86bc
00000060: e668 8d3c 083d 49bc d071 64bd d0ac 56bd
00000070: f761 013d 1311 513d 6ebc f3bc 8b27 5fbd

weight f4 [32]
0.9632226 1.1109912 1.0178578 1.0457122 0.95699364 1.0172734 1.0405772 1.2259647
1.0514168 0.96641386 0.9094024 1.0044354 0.9701731 1.0114117 1.0022054 0.98332226
0.98165226 0.9589574 1.0072383 1.020782 0.9981302 1.0059447 1.1101391 1.0158787
1.0256484 0.9448881 1.0226885 1.1777635 0.93880653 1.0699283 0.95107377 0.9445329
00000000: c295 763f f634 8e3f 2a49 823f e6d9 853f
00000010: 89fd 743f 0436 823f a231 853f 69ec 9c3f
00000020: d394 863f e666 773f 98ce 683f 5791 803f
00000030: 445d 783f f075 813f 4448 803f 02bb 7b3f
00000040: 904d 7b3f 3b7e 753f 2fed 803f fca8 823f
00000050: 7685 7f3f ccc2 803f 0a19 8e3f 5008 823f
00000060: 7248 833f 30e4 713f 75e7 823f f4c0 963f
00000070: a055 703f 69f3 883f 9279 733f e8cc 713f

bias f4 [32]
-0.056608506 -0.33573228 -0.02006135 -0.012514711 -0.19576679 -0.24879958 -0.20350151 -0.16358961
-0.076669596 -0.03891576 -0.17298874 -0.13752812 -0.046488356 -0.10551302 -0.2090227 -0.026623975
-0.057431024 -0.098538786 -0.037973855 -0.15265489 -0.18990217 -0.14735763 -0.24964413 -0.1770178
-0.105882995 -0.114889264 -0.04221678 -0.29480657 -0.18622202 -0.051045775 -0.053879585 -0.1713996
00000000: 52de 67bd 1ae5 abbe b357 a4bc 810a 4dbc
00000010: 1777 48be 51c5 7ebe b362 50be 0984 27be
00000020: f304 9dbd 2266 1fbd f623 31be 2cd4 0cbe
00000030: 936a 3ebd 3617 d8bd 0c0a 56be 861a dabc
00000040: cb3c 6bbd b4ce c9bd 798a 1bbd 9051 1cbe
00000050: b775 42be ebe4 16be b6a2 7fbe 2744 35be
00000060: 2fd9 d8bd 104b ebbd 81eb 2cbd e3f0 96be
00000070: fcb0 3ebe 6015 51bd d7b0 5cbd 6083 2fbe

running_mean f4 [32]
-0.34483504 -0.06839665 0.07458673 0.18595521 0.25848946 -0.011926924 -0.018327206 0.05724508
-0.28500247 0.39091116 -0.35816276 0.10333418 -0.2603346 0.12272474 -0.057734583 -0.047236208
-0.45775938 -0.27275774 -0.31692645 -0.08203189 -0.035512503 0.13224459 -0.0165693 -0.051270455
-0.113134615 -0.012644474 -0.07075088 -0.23551661 0.019948322 0.343882 -0.06421714 0.04509131
00000000: 388e b0be 8b13 8cbd edc0 983d 0b6b 3e3e
00000010: bb58 843e 2569 43bc f022 96bc d179 6a3d
00000020: d8eb 91be 8225 c83e 1c61 b7be dfa0 d33d
00000030: 944a 85be 1c57 fb3d 197b 6cbd c17a 41bd
00000040: 705f eabe e7a6 8bbe 2f44 a2be 5600 a8bd
00000050: 8f75 11bd 206b 073e 57bc 87bc f800 52bd
00000060: 1fb3 e7bd c52a 4fbc d6e5 90bd 442b 71be
00000070: aa6a a33c 4d11 b03e 4784 83bd aab1 383d

running_var f4 [32]
0.29209056 0.11295799 0.13539608 0.223097 0.2636217 0.2499189 0.2029787 0.12372275
0.20852126 0.2837737 0.13104245 0.24223126 0.27746862 0.19247624 0.11608567 0.21815363
0.34517434 0.27771625 0.21077622 0.12911916 0.21598691 0.15730058 0.15034959 0.19880483
0.41033655 0.2627712 0.14498197 0.069352314 0.22702006 0.56489265 0.16506998 0.22472903
00000000: e58c 953e 8556 e73d 45a5 0a3e 8a73 643e
00000010: 6cf9 863e bdea 7f3e a6d9 4f3e 5a62 fd3d
00000020: 9986 553e c94a 913e fe2f 063e 790b 783e
00000030: 5e10 8e3e 7e18 453e 53be ed3d aa63 5f3e
00000040: b1ba b03e d330 8e3e b9d5 573e d037 043e
00000050: ac2b 5d3e 6713 213e 3ef5 193e 7e93 4b3e
00000060: a217 d23e f289 863e 2776 143e 9608 8e3d
00000070: f277 683e ce9c 103f 1b08 293e 5e1f 663e

weight f4 [3, 32, 3, 3]
-0.01808294 -0.039572865 -0.026055958 -0.075027324 -0.0702714 -0.02276288 -0.023535345 -0.04711341
0.026755445 -0.043136574 0.04666429 0.039689917 -0.011035994 0.016456204 0.07297757 -0.08779391
-0.030504076 0.0010323228 0.004461989 0.014023876 -0.004224189 0.019919861 0.0074675395 0.051513694
0.0025838164 0.058684878 0.056870062 0.063195854 0.016920416 0.020387545 0.036429726 0.024953807
-0.01324393 0.045849368 0.036543567 0.039798472 -0.039719503 -0.01262427 -0.01601606 -0.04850212
0.014728295 0.00507784 -0.06294574 -0.014797137 -0.03932389 -0.04103374 -0.028239321 -0.0055868826
-0.07774048 -0.036080316 -0.040092193 -0.07856175 -0.030998508 -0.022900878 -0.0060467576 -0.041559204
-0.042684898 0.025951091 -0.084915765 -0.050768822 -0.014199815 -0.04109725 -0.05172337 0.052922234
-0.040009893 0.018185282 0.027185248 -0.0851598 -0.032456264 0.06085084 -0.09391892 -0.023524886
0.019072916 0.0061796494 0.03480458 0.043927748 0.0007764403 0.078115754 0.06522481 0.015352809
0.018833237 -0.014038884 -0.0130814435 -0.025254559 -0.0034278843 -0.0047820387 -0.010742786 -0.015650982
-0.010300673 0.027011098 -0.047506217 -0.047501277 0.007882584 -0.0004786475 0.0029510767 0.03850106
-0.007531007 -0.019825941 -0.0135073215 -0.03233952 -0.013045586 -0.080439545 -0.024545658 -0.03206916
-0.04524223 -0.0022555643 -0.00037999352 -0.006006494 0.0054537086 0.02522613 0.027177721 0.015870828
0.019131139 0.025211537 -0.009008056 0.020639922 0.029720703 -0.008296986 -0.007530073 0.02006445
0.053848363 0.0026731233 0.016127223 0.017606284 -0.0064309323 -0.0037969796 -0.03133137 -0.07520595
-0.0458406 0.024579056 0.006257396 -0.019568384 0.0016335249 0.037166107 -0.013812456 0.015916625
0.03141604 0.0014856305 0.057323165 0.024603732 0.04638072 0.038137425 0.050892588 0.01997109
-0.02219024 -0.014905257 -0.03779728 -0.024077548 -0.03775153 -0.014265269 -0.012546125 -0.00951544
0.02229036 -0.0025641236 0.034778204 0.044821527 0.049694184 -0.0081790285 0.03658737 0.013707835
-0.017323207 0.01710443 -0.037811197 -0.019899338 0.02459719 -0.005627693 -0.00049976393 0.048709378
-0.006672629 0.05097043 0.07990512 0.0004612596 0.009096887 -0.009942292 0.013988466 0.042537306
0.039806668 0.06432757 0.04996884 0.035652664 -0.034977626 -0.017950006 0.019206267 -0.052817896
-0.058500927 -0.03229229 -0.03488701 -0.045015503 -0.009032359 -0.06474633 -0.028026422 0.026808811
-0.005652097 -0.012412226 -0.0048332885 0.005961456 0.053557277 0.062150285 0.05057511 -0.010211326
-0.061462753 0.11126058 0.02988293 -0.019609436 0.058453303 -0.008989346 -0.04963505 -0.036963142
-0.03519618 -0.052941605 -0.04136939 -0.025331616 -0.06753618 -0.021212421 -0.008291893 -0.036000617
0.039646313 0.008447479 0.011433371 0.051862463 0.028487945 0.016364867 0.06780131 0.03716932
0.019895636 -0.019766243 -0.024649635 -0.027929347 -0.015744213 0.027378192 0.023734596 0.031402018
-0.022441186 0.0076809865 0.06818313 0.035063118 0.03133951 0.057671063 -0.002015141 0.05716042
0.030494701 0.017902061 0.0142307505 -0.0526438 -0.06861614 0.09389599 -0.024349755 -0.035075348
0.08741478 -0.026852801 -0.03639761 0.118267484 0.026769137 0.010766382 0.025487386 0.008153472
00000000: ac22 94bc 2817 22bd 4e73 d5bc eda7 99bd
00000010: 74ea 8fbd 3879 babc 32cd c0bc fef9 40bd
00000020: 3c2e db3c faaf 30bd 0e23 3f3d e591 223d
00000030: 50d0 34bc 29cf 863c 4475 953d 4bcd b3bd
00000040: afe3 f9bc 014f 873a e035 923b 66c4 653c
00000050: 116b 8abb fa2e a33c 43b2 f43b 0600 533d
00000060: 3f55 293b 8e5f 703d 95f0 683d d46c 813d
00000070: af9c 8a3c c803 a73c 5637 153d ed6b cc3c
00000080: 12fd 58bc 8ccc 3b3d b5ae 153d b903 233d
00000090: ebb0 22bd 07d6 4ebc 1d34 83bc 29aa 46bd
000000a0: f24e 713c 0264 a63b b2e9 80bd b16f 72bc
000000b0: 1612 21bd ff12 28bd 2656 e7bc 2b12 b7bb
000000c0: 6736 9fbd f4c8 13bd b637 24bd fce4 a0bd
000000d0: 95f0 fdbc 9f9a bbbc e123 c6bb fc39 2abd
000000e0: 5cd6 2ebd 6297 d43c 51e8 adbd f8f2 4fbd
000000f0: 57a6 68bc 9755 28bd e2db 53bd fcc4 583d
00000100: 6ae1 23bd 4df9 943c 99b3 de3c 4368 aebd
00000110: dcf0 04bd bb3e 793d 9058 c0bd 43b7 c0bc
00000120: ce3e 9c3c a87e ca3b 3f8f 0e3d 95ed 333d
00000130: 078a 4b3a 27fb 9f3d 9694 853d 598a 7b3c
00000140: 2948 9a3c 5903 66bc 8d53 56bc a6e2 cebc
00000150: 5ba6 60bb a6b2 9cbb 8302 30bc 7d36 80bc
00000160: 27c4 28bc 6146 dd3c e195 42bd b390 42bd
00000170: f425 013c fbf2 fab9 da66 413b 4ab3 1d3d
00000180: aac6 f6bb 036a a2bc d04d 5dbc 7276 04bd
00000190: 27bd 55bc 7dbd a4bd fa13 c9bc f45a 03bd
000001a0: eb4f 39bd 17d2 13bb de39 c7b9 20d2 c4bb
000001b0: 06b5 b23b 07a7 ce3c d0a3 de3c 8a03 823c
000001c0: e8b8 9c3c 6d88 ce3c 8696 13bc 0e15 a93c
000001d0: d578 f33c 15f0 07bc d5be f6bb 345e a43c
000001e0: 1a90 5c3d 912f 2f3b 3d1d 843c 0e3b 903c
000001f0: 92ba d2bb bfd6 78bb 5355 00bd 9405 9abd
00000200: 5ac3 3bbd 045a c93c d80a cd3b e04d a0bc
00000210: 001c d63a 7d3b 183d a44d 62bc 9563 823c
00000220: 1bae 003d 7db9 c23a b2cb 6a3d c48d c93c
00000230: b6f9 3d3d fd35 1c3d bf74 503d 699a a33c
00000240: 4ec8 b5bc 2e35 74bc 52d1 1abd 473e c5bc
00000250: 59a1 1abd e0b8 69bc 438e 4dbc a6e6 1bbc
00000260: 469a b63c db0a 28bb 9773 0e3d c796 373d
00000270: 218c 4b3d 5501 06bc a3dc 153d d496 603c
00000280: 66e9 8dbc 971e 8c3c eadf 1abd f003 a3bc
00000290: 0c80 c93c 8368 b8bb 9702 03ba 7c83 473d
000002a0: 12a6 dabb 5fc6 503d 4ca5 a33d 37d5 f139
000002b0: 1c0b 153c ffe4 22bc e12f 653c 993b 2e3d
000002c0: 510c 233d 2cbe 833d 20ac 4c3d 8708 123d
000002d0: b344 0fbd e40b 93bc 7656 9d3c 9457 58bd
000002e0: ab9e 6fbd ec44 04bd aee5 0ebd 2d62 38bd
000002f0: 76fc 13bc b999 84bd ab97 e5bc 279e db3c
00000300: 3a35 b9bb a65c 4bbc 9060 9ebb 5158 c33b
00000310: e05e 5b3d 4c91 7e3d d927 4f3d 684d 27bc
00000320: 5ec0 7bbd 96dc e33d 0ccd f43c f8a3 a0bc
00000330: bb6c 6f3d 0d48 13bc 1f4e 4bbd aa66 17bd
00000340: df29 10bd 4cd9 58bd f372 29bd 4084 cfbc
00000350: 6950 8abd acc5 adbc b8da 07bc 6275 13bd
00000360: 2c64 223d 4c67 0a3c 0953 3b3c bc6d 543d
00000370: 8d5f e93c 9d0f 863c 6adb 8a3d db3e 183d
00000380: 2cfc a23c d1ec a1bc 08ee c9bc 16cc e4bc
00000390: 02fa 80bc 3b48 e03c 0e6f c23c 679f 003d
000003a0: 94d6 b7bc c9b0 fb3b 99a3 8b3d 589e 0f3d
000003b0: dc5d 003d 7e38 6c3d 7510 04bb 0b21 6a3d
000003c0: 06d0 f93c 58a7 923c 1828 693c 06a1 57bd
000003d0: 9e86 8cbd 8a4c c03d 2379 c7bc 2bab 0fbd
000003e0: 8506 b33d 68fa dbbc a915 15bd 3936 f23d
000003f0: f34a db3c 7b65 303c ecca d03c 2496 053c

bias f4 [3]
-0.044014283 -0.03949691 -0.06348962
00000000: 5248 34bd 83c7 21bd d906 82bd
