TuiGAN/models/horse2zebra/a0.pth (torch, 131453 bytes, 25 tensors)

weight f4 [32, 3, 3, 3]
000000 1d 3e 44 bd cb 4e 18 3d 56 e8 64 3d 66 93 ae bc
       -0.0479108 0.037184518 0.055885635 -0.02131052
000010 b4 48 13 bc df 2f 20 bd 2a 90 dc bb b1 30 83 3c
       -0.008989502 -0.039108153 -0.006731053 0.016014429
000020 f0 62 6c bd fe 3b 85 bd f6 4b 35 3a 19 eb 47 bd
       -0.05771154 -0.06505583 0.0006915921 -0.04880819
000030 89 e3 20 3d 43 f2 d6 bc a7 e0 44 bd 54 8a db 3c
       0.039279494 -0.026238566 -0.048065808 0.026799358
000040 2f 71 f5 3b d5 6c 7b bd 51 54 88 bd 9e 39 b4 bc
       0.007490299 -0.061383087 -0.06656707 -0.02200013
000050 cb 1a 98 bc 8d 69 fc 3c 3d 8a 40 bc 49 0b 6d bc
       -0.018567463 0.03081205 -0.011751709 -0.014468023
000060 78 57 37 bc d9 72 08 bd 07 89 6e ba 48 5c 85 3c
       -0.011190288 -0.033312652 -0.0009099398 0.016279355
000070 cd 87 bc ba 2a 1c 89 3d 3b c0 8f bc 15 30 f9 bc
       -0.0014383734 0.06694825 -0.017547717 -0.030418435
000080 8d 4c 35 3d b5 09 67 bd 4d bf 6e bc 99 82 cf 3c
       0.044262458 -0.05640574 -0.014571977 0.025330829
000090 62 32 90 3d e2 9d 38 3d eb db a4 3d 13 91 d5 3b
       0.0704086 0.045072444 0.080497585 0.0065175383
0000a0 02 77 0a bd 28 57 b2 3d eb 95 c7 3a d4 d5 63 3c
       -0.0338049 0.0870803 0.0015227174 0.013905961
0000b0 f9 54 54 3d 3b f3 83 3d 94 12 50 3c 7b e4 f0 3b
       0.05183885 0.06442877 0.012699742 0.0073514557
0000c0 ef 90 a6 ba 88 80 28 bd 95 59 23 3d 1f 79 2e 3d
       -0.0012707988 -0.041138202 0.039880354 0.04259598
0000d0 3c f4 19 3d 77 31 5a 3d 74 74 39 3d e6 b3 50 3d
       0.037586436 0.05326983 0.045277074 0.050952815
0000e0 82 b4 8a bd 77 b7 24 3d 94 76 09 3d f3 6b 07 bc
       -0.067727104 0.04021403 0.03356035 -0.008265483
0000f0 cb bf e4 bc 50 a9 1f bc 26 62 80 bd 0b 92 b6 3c
       -0.027923485 -0.009744957 -0.0626872 0.022286436
000100 d7 2d 41 3d 17 67 65 bd 25 46 d1 3b 9c 1e 70 bb
       0.047162857 -0.056006517 0.0063865357 -0.0036639338
000110 3b 2a d0 bc 22 76 5a bc d3 1d 43 3c fc 67 b0 bd
       -0.025410762 -0.013333829 0.011908966 -0.086135834
000120 0d 54 f0 3b a2 47 e6 3c fa 8d 61 bd 69 aa a4 3b
       0.0073342384 0.028110329 -0.05506704 0.0050251973
000130 9f 8c 25 bc 56 e2 cb bc 10 f6 98 bc 78 1b e7 bc
       -0.010104327 -0.024888199 -0.01867202 -0.02821134
000140 97 4c 86 bd 60 7a bc bc a5 4b 13 bd 83 76 49 bd
       -0.06557577 -0.023007572 -0.035960812 -0.049185287
000150 31 e7 4b 3c 89 dc 0d bc 1f b3 eb ba ed 55 83 3c
       0.012445257 -0.008658537 -0.0017982459 0.016032184
000160 d0 13 62 3b db ea 4c 3c d8 18 91 3d 75 90 65 3c
       0.0034496672 0.012507166 0.07084817 0.014011492
000170 ee 19 c4 3c 44 5e 99 3d 15 8a 69 3c 65 a5 3e 3d
       0.023938145 0.07488683 0.014254113 0.04654445
000180 7b ae 0d 3d de 38 7d 3b 77 84 13 3d f5 28 43 3d
       0.034590226 0.0038638632 0.036015 0.04764648
000190 c5 3e 72 3d fd c3 12 3d 33 3e 8b 3b 2d ec be ba
       0.059141893 0.03583144 0.004249358 -0.0014566235
0001a0 54 a0 75 3c b3 ae 51 bd c2 81 6f bd 8f c7 b0 bc
       0.0149918385 -0.051191997 -0.058473356 -0.021579532
0001b0 9f ab 8b bd 7d e1 98 bc 5e b8 08 3b 37 27 89 bc
       -0.068198435 -0.018662209 0.0020861845 -0.016742332
0001c0 22 4c f4 3b 4a 62 f2 3c 12 cd ff 3b a3 bd c7 3c
       0.007455365 0.029587884 0.0078064287 0.024382418
0001d0 ca 07 99 3d 80 bf ac bd f9 89 41 bd 9b 43 07 bd
       0.07472189 -0.08434963 -0.04725072 -0.033023458
0001e0 0d 01 93 bc a7 c3 9a 3c c3 71 03 3c 1b 18 05 bb
       -0.017944837 0.018892122 0.008022728 -0.0020308557
0001f0 51 80 82 3c 6a a8 32 3c 97 4c f8 bd 15 a8 90 bd
       0.015930327 0.010904411 -0.12123983 -0.07063309
000200 43 6a 0b bd ab aa 87 bc bf a8 96 3b e0 01 80 bb
       -0.034036886 -0.016560873 0.004597753 -0.0039064735
000210 47 f7 f0 bc 44 9f e4 bb 8a 30 50 bc 29 b6 7c bd
       -0.029414786 -0.0069769938 -0.012706885 -0.06169716
000220 91 c1 65 bc d7 37 18 bd 05 a0 24 bc 3f 25 bc ba
       -0.014023201 -0.037162628 -0.010047917 -0.0014354362
000230 31 01 02 ba 1f 4a c0 bc a4 0b a9 bc 36 ef 37 bc
       -0.0004959284 -0.023472844 -0.020635433 -0.011226466
000240 77 ca 63 3c 07 ca e4 3b 47 a6 2a 3d fd 24 91 3c
       0.013903252 0.0069820913 0.04166248 0.017717833
000250 75 90 cc 3c 2a f8 59 3d 37 bb 21 3c 96 e0 bd 3c
       0.024971226 0.053215183 0.009871296 0.02317838
000260 88 03 14 3d b8 c8 78 3c f4 bb 4c bc 83 52 1f bd
       0.03613618 0.015184574 -0.012495983 -0.03889705
000270 ec 51 8b 3b 93 ab 95 bc 70 0c 2f bd ed b2 f2 3b
       0.004251709 -0.01827029 -0.04273647 0.0074065835
000280 8b 31 5c bc b2 1c 39 bd 59 39 c1 b8 6e 50 34 bd
       -0.013439546 -0.04519338 -9.213639e-05 -0.044022016
000290 22 62 6c 3d a9 93 24 bb cf cc 2b 3d 6e ce dd bc
       0.057710774 -0.0025112426 0.041943368 -0.027075972
0002a0 d7 22 cf b9 b4 ac 5c bc 3b cd 00 bd 78 4c 16 3c
       -0.00039508074 -0.01346891 -0.031445723 0.009173505
0002b0 59 27 37 bd 29 23 9d 3d 61 50 a1 bb 3a b1 32 3d
       -0.04471526 0.07672722 -0.004922912 0.043626048
0002c0 7a e0 8b bc 88 30 73 bb 10 5a f5 bc 2f 24 1e 3b
       -0.017074812 -0.0037107784 -0.029950172 0.0024130454
0002d0 b0 6f 00 bc 98 c6 16 bd b3 b6 a7 3d 6b a3 fc bc
       -0.007839128 -0.036810488 0.08189144 -0.030839643
0002e0 b5 ba 43 3d 9e 16 c9 bc ab fd 5d bc 68 22 c6 bc
       0.04778548 -0.024546918 -0.013549249 -0.024186328
0002f0 59 87 29 ba 3e 3a 2c bc 6d 37 21 bc fd 8e c6 bb
       -0.0006467007 -0.010511933 -0.009839875 -0.006059526
000300 3c da 86 3c 2b 68 8c 3b eb a5 fd 3c 09 40 9f 3d
       0.016461484 0.0042848787 0.030962905 0.077758856
000310 f4 cc 47 3d 1f 73 92 3d c4 64 b1 bc 83 c3 af bc
       0.048779443 0.07150864 -0.021654494 -0.021455532
000320 ac 57 bd bc d9 0e 70 3b d4 57 f4 bb 73 8f 17 3c
       -0.023113094 0.0036629944 -0.007456759 0.00925051
000330 ad 2b 5b 3d 25 54 bd 3c 49 0c 8a 3d 40 f4 1b bd
       0.05350845 0.023111412 0.067406245 -0.03807473
000340 63 91 c6 bc 81 00 2c bd d8 21 9d bc 99 2c 4d bc
       -0.024239248 -0.041992668 -0.019181177 -0.01252284
000350 bf 86 22 bd 88 39 96 3c 72 d7 73 3b 6e a9 03 3d
       -0.039679285 0.01833798 0.0037207273 0.032144003
000360 dc d8 1b bd 9f 9f 53 3d 3e 0e 82 bc 23 3f 33 bd
       -0.03804861 0.0516659 -0.015875932 -0.043761384
000370 2f 24 60 bd ac 8f 50 3d 6d 96 26 3d 31 a5 3c bd
       -0.054722007 0.050918266 0.0406708 -0.046055976
000380 58 1a 47 3a 3d 8c 42 bd 48 c2 e2 3c a9 d4 34 bc
       0.0007595173 -0.047497023 0.027680531 -0.01103703
000390 91 c8 b9 bd e7 19 93 bd 61 0c ba 3c aa cd 61 bc
       -0.09071458 -0.07182675 0.02271098 -0.013781944
0003a0 1c d2 68 bd 7c 20 03 bd 47 dd 06 bc 8e 6f 54 3d
       -0.056841 -0.0320134 -0.008231468 0.0518642
0003b0 f5 a2 d0 3c 2a a5 11 bd 58 52 88 bc eb 41 e3 3c
       0.025468329 -0.035557903 -0.016640827 0.027741393
0003c0 86 0b 21 3d b1 21 36 bc f3 e7 c9 ba 71 3f 0e bd
       0.03931763 -0.011116431 -0.0015404209 -0.03472847
0003d0 59 ef 3b bd 14 52 12 bc c0 5c a7 bc 64 17 56 bc
       -0.045882557 -0.008930702 -0.020429969 -0.0130671
0003e0 54 b0 d0 bc fa c5 08 be 6b 4e 4c bd c3 00 5a bd
       -0.025474705 -0.13356772 -0.049879473 -0.053223383
0003f0 d8 51 b5 bc 99 d1 e3 3b d7 cc dc bb c2 ad 18 3c
       -0.022133753 0.006952476 -0.006738286 0.009318771

bias f4 [32]
000000 49 61 68 be 3a 33 a4 bd 3f 5b e8 3c 23 a8 bd 3e
       -0.22693361 -0.08017583 0.028363822 0.3704234
000010 fc 00 9a bd 60 76 e7 3e f7 c8 b6 3d f4 45 84 be
       -0.07519719 0.452075 0.0892505 -0.2583462
000020 03 40 d6 bc 91 af 05 3c 3f 50 d6 be 7a 66 8d 3d
       -0.02615357 0.008159534 -0.41858098 0.069043115
000030 ac 2b f3 3d 01 07 ff bd 02 e2 a5 bd 0e b3 90 bd
       0.11873564 -0.12452508 -0.08099748 -0.07065402
000040 7f 39 07 3e 3e 18 2f be dc 11 a5 3d 7e 81 8c 3b
       0.13205527 -0.17099091 0.08060047 0.0042878976
000050 11 b1 66 bd 12 92 12 be 8f 1c a0 be 17 83 05 bd
       -0.056321207 -0.14313534 -0.31271788 -0.03259572
000060 50 a2 00 3d d6 2a c6 3d 6b 19 f6 bd 88 85 d3 3d
       0.031404793 0.09676139 -0.12016567 0.103282034
000070 87 7b 0d 3e a6 9a 86 3e f7 da a8 3d 4b 78 1f 3b
       0.13816653 0.26289862 0.08244889 0.0024333175

weight f4 [32]
000000 8c 9d 77 3f 8d 43 81 3f ed 45 7f 3f 75 a6 70 3f
       0.9672477 1.009874 0.99716073 0.94003993
000010 90 41 70 3f a3 f1 33 3f 66 64 5c 3f 97 44 70 3f
       0.9385004 0.70290583 0.86090696 0.9385466
000020 0b 36 70 3f 30 82 86 3f 94 80 7d 3f 44 53 76 3f
       0.93832463 1.050848 0.9902432 0.96220803
000030 a6 8b 6e 3f bc 7f 70 3f 3b 3f 5b 3f dd 20 7c 3f
       0.93181837 0.9394491 0.8564336 0.98487645
000040 3d cd 78 3f cb ed 64 3f c4 27 85 3f 2a ec 75 3f
       0.9718817 0.89425343 1.040276 0.9606348
000050 e2 88 59 3f d4 36 6a 3f 38 28 72 3f 81 37 7b 3f
       0.8497449 0.9148991 0.9459262 0.9813157
000060 e5 c7 6b 3f ac a2 84 3f b7 0d 72 3f c1 82 75 3f
       0.9210189 1.0362144 0.9455218 0.9590264
000070 3d 01 51 3f bd a4 87 3f 17 89 70 3f 1e ab 89 3f
       0.81642514 1.0597149 0.9395918 1.0755346

bias f4 [32]
000000 69 12 9d 3e e3 6a c5 3e f8 c6 eb 3e bd e2 73 3e
       0.30678108 0.3855811 0.4605024 0.23816963
000010 1a 9b 08 3f 1d 42 ec 3e 46 83 12 3e a0 0a de 3e
       0.53361666 0.4614419 0.1430789 0.4336748
000020 f2 c0 1d 3e 7c 3c 36 3e f4 8c c4 3d 99 66 50 3d
       0.15405634 0.1779651 0.09597197 0.050879095
000030 f2 0e f0 3e 66 73 49 3e d9 6d d2 3e 3d 68 c8 3e
       0.46886402 0.19672927 0.41099432 0.39142027
000040 de dc f7 3e 66 38 8c 3e 7a 23 1f 3f 84 60 e0 3d
       0.48410696 0.2738678 0.6216351 0.10955909
000050 c8 3b bb 3e 1c 2c aa 3e 52 1d 8f 3e 00 50 54 3e
       0.36569047 0.33236778 0.27952057 0.20733643
000060 fa 23 cd 3e c5 5d e7 3d 25 6f ae 3e b3 7b 85 3e
       0.4006651 0.11297182 0.34069172 0.26070938
000070 76 1f 77 3e f8 0c dd 3d 9a 5f 04 3f 72 8c 21 3e
       0.24133095 0.10793489 0.51708376 0.15776232

running_mean f4 [32]
000000 f4 e4 4d be 1e d1 ff bd f1 68 7c 3d b7 04 b3 3e
       -0.2010687 -0.12491058 0.061623517 0.34964535
000010 ba 22 55 bc 23 53 ea 3e 92 62 b5 3d d0 73 5d be
       -0.013008768 0.45766553 0.088566914 -0.2162621
000020 67 bd 1c bd 25 55 b7 bc ac fa d8 be 2a a9 0e 3e
       -0.038266566 -0.022379467 -0.42378747 0.13931718
000030 67 8f c3 3d bf 4b 5e be 5a 37 2c be 26 43 9a bd
       0.09548836 -0.21708582 -0.1681799 -0.07532339
000040 e5 fa ee 3d a2 a5 40 be 79 6f ab 3d 18 12 ce bb
       0.11668948 -0.18813184 0.08370871 -0.006288778
000050 86 12 77 bd 11 3b 24 be 19 b5 9d be 70 94 06 bd
       -0.0603204 -0.16038157 -0.3080223 -0.032856405
000060 4c e4 32 3c c3 a6 32 3e 9e b2 12 be 1c 37 01 3e
       0.010918688 0.17446427 -0.1432595 0.12618679
000070 2e 6b ee 3d 81 a7 91 3e 03 2d 3e 3d 34 31 82 3c
       0.11641537 0.28448108 0.046429645 0.015892603

running_var f4 [32]
000000 64 c6 d6 3c fd 6e 65 3d 97 dd 8b 3c 5f 55 76 3c
       0.026217647 0.05601405 0.017073436 0.0150350025
000010 89 6a f0 3c 1e 45 a5 3a e7 57 07 3b 2d 2b 52 3c
       0.029347675 0.00126091 0.002065176 0.012827677
000020 ed 98 81 3c cc b3 54 3d 72 eb 70 3c c8 b9 6c 3c
       0.015819991 0.05192928 0.014704572 0.014448591
000030 02 6b 0b 3c 1b b4 07 3c 57 f0 30 3c 9b 9e c3 3b
       0.008509399 0.008282687 0.010799489 0.005969835
000040 54 47 c9 3b 91 03 99 3b 1f 97 be 3c 21 0c f8 3b
       0.006142536 0.0046696146 0.02326542 0.0075698053
000050 d0 ed ee 3b b2 1a e7 3b 84 b4 cc 3b ba 25 08 3c
       0.007291533 0.007052743 0.006247105 0.008309776
000060 b2 72 44 3d b6 20 44 3d e7 56 e6 3b 23 bb a7 3b
       0.047960944 0.047882758 0.0070294025 0.005118744
000070 ae 3a 2c 3b 2c f8 2d 3d 63 2c 81 3c 51 50 3a 3d
       0.0026280093 0.042473003 0.015768236 0.045486752

weight f4 [32, 32, 3, 3]
000000 3e aa 3a bd 83 07 2a bd 91 dd 77 bd fd 81 42 bc
       -0.04557251 -0.04151107 -0.060514037 -0.011871812
000010 2a b3 27 bc c2 ef 87 bb f0 23 fb bc ac 16 c7 ba
       -0.010235587 -0.0041484544 -0.030656785 -0.0015189252
000020 dc 22 0a bd df 03 f5 bc 4c ee 5a bd 7f cb 48 bd
       -0.03372465 -0.029909072 -0.053449914 -0.049022194
000030 9d a8 e6 bc 4a eb d6 bc 1d a5 8c bc 35 a7 32 3d
       -0.028156573 -0.026235241 -0.017168576 0.043616492
000040 57 22 9e bc d4 93 05 3d 89 a9 2c 3d e0 8f fa 3c
       -0.019303484 0.032611683 0.04215387 0.030586183
000050 3d ee b3 3c 81 e7 ad bc 9c 3f 87 bc 23 d6 3b 3d
       0.021964187 -0.021228554 -0.016509824 0.045858514
000060 2f 4e a9 bc 2f 32 91 3c 82 00 5f bc 15 a7 1b 3b
       -0.020667164 0.017724125 -0.013610961 0.0023750712
000070 2e 76 c2 3c b1 7e 32 bd 77 44 83 bc 8a 31 6b 3c
       0.023737993 -0.043577854 -0.016023858 0.014355073
000080 47 95 0f 3d 84 ca 0e bc be a0 b1 3c c2 68 c7 3c
       0.03505447 -0.008715276 0.021683093 0.024341945
000090 fc 3b 66 3d db 9a 20 bc 43 89 e8 b9 e6 7d 17 3d
       0.05620955 -0.009802545 -0.00044352756 0.0369853
0000a0 72 e3 45 3b 16 db 82 3c 5d 57 01 bd f3 df 31 ba
       0.0030195382 0.015973609 -0.031577457 -0.0006785385
0000b0 08 bf 80 ba 46 a9 8f 3d 8f fd 76 bb 2c f9 5f 3b
       -0.0009822557 0.07014708 -0.0037687754 0.0034175618
0000c0 56 7c a4 bb f3 9c ba bc 45 da ae 3c 52 23 36 bc
       -0.005019705 -0.022779917 0.021344313 -0.011116819
0000d0 3d c3 c0 bc 4a be a8 3c 90 8a fd 3c 7f 8e 07 3d
       -0.023530597 0.02059855 0.03094986 0.03309488
0000e0 d6 0c a8 3c d4 a9 66 bc ce 85 56 ba bb 96 9b bb
       0.020513933 -0.014078576 -0.00081833906 -0.004748193
0000f0 79 44 90 3c 33 36 47 3c d7 11 fc 3c 2a fe 31 3d
       0.017610775 0.012158918 0.030770225 0.04345528
000100 d0 23 6b 3c dc 72 a7 3c f7 28 38 3d d1 d7 3b bd
       0.0143518 0.020440511 0.044960942 -0.045860115
000110 19 a2 9a bc d8 24 7b 3d 57 16 e4 3c 7d fb 43 3d
       -0.018876122 0.061314434 0.027842684 0.04784726
000120 1c 97 f0 3c 47 2e 65 3d d3 37 73 3d 75 41 0a bd
       0.02936893 0.055952337 0.05937941 -0.03375383
000130 83 05 43 ba 32 05 94 3b 02 51 94 3c 36 e6 c7 bc
       -0.0007439481 0.004517221 0.018105034 -0.024401765
000140 4c 9b a4 bc ff 8f 3d 3c af 6c 05 3d fb 66 f8 bc
       -0.020093583 0.011569976 0.032574352 -0.030322542
000150 9e 77 a8 bb e2 19 0f 3d db 75 9f 3c 91 29 3b bd
       -0.0051412126 0.034936793 0.019465378 -0.045693938
000160 c0 cd 86 bb 41 76 af bb 00 61 10 3d e0 0c 17 3d
       -0.004113883 -0.005354673 0.035248756 0.036877513
000170 a5 14 af 3c 85 69 56 3c 5d 56 3e bc 34 3b 06 bd
       0.021372149 0.013086681 -0.01161727 -0.032771304
000180 4d f7 52 bc 19 44 81 bd 4c 3b 42 bd 23 0f a2 bc
       -0.012876344 -0.06311817 -0.04741983 -0.019782608
000190 dd a0 02 3b eb dc e6 3b 32 0c 2d bc a3 08 cf 3c
       0.0019932308 0.0070453784 -0.01056199 0.025272673
0001a0 ea e5 ef bc 46 e0 dc 3c 5a 51 bd bb a2 e0 ac bc
       -0.029284436 0.02696241 -0.00577752 -0.021103207
0001b0 ed 4f c8 3a 54 7c ca 3c 9d d9 c4 3c 69 5f 93 3c
       0.0015282609 0.024717487 0.024029547 0.017989831
0001c0 65 43 88 bc 25 95 b7 3c 31 9c d6 3d 9f 12 0a 3d
       -0.016633699 0.022409985 0.1047901 0.033709165
0001d0 67 74 3d 3c 93 25 83 3d aa 40 f1 3c 89 3e c4 3c
       0.011563397 0.06403651 0.02944978 0.0239556
0001e0 a4 a0 11 3d 3c 06 a0 3c aa 17 0b 3d 12 43 66 bd
       0.03555359 0.019534223 0.033958115 -0.056216307
0001f0 3b bc b7 bc 67 db 56 bb 54 6d 48 bd 2d 66 0f bd
       -0.022428622 -0.0032784583 -0.04893239 -0.03500955
000200 9c ef 03 3d d2 b3 f2 bb 81 c7 c5 3a 86 61 1b bb
       0.03221093 -0.00740669 0.0015089364 -0.0023709252
000210 5a f3 a4 bb 4d 93 49 bd a6 88 96 3c 79 2a b9 3d
       -0.0050338926 -0.049212743 0.018375706 0.09041304
000220 80 b5 1a 3c 79 ec c0 bc 85 be 8f 3d fc 75 13 3b
       0.009442687 -0.023550259 0.070187606 0.0022500744
000230 27 70 ac 3c 83 f3 68 bd a0 15 59 3c 1b 01 05 bd
       0.021049572 -0.056872856 0.013249785 -0.032471757
000240 d3 32 38 3b c1 39 e7 3c 19 10 36 bd 07 2f 44 3d
       0.0028106465 0.028225781 -0.044448946 0.04789641
000250 b3 de c0 3d 45 f2 78 3c 16 af 83 bb df e8 4a bd
       0.094174765 0.01519448 -0.0040186746 -0.04953849
000260 a1 67 a9 bd 3e c6 22 3c 0d 04 aa ba 40 ed 30 3d
       -0.08271719 0.00993496 -0.0012971178 0.04319501
000270 21 8a a8 bc 23 11 5f 3c b3 7f e3 bb 83 3e cd 3b
       -0.020573677 0.013614926 -0.006942713 0.0062635555
000280 8c 35 33 bc 5e 35 2a bc 90 63 3d 3d 9a 8c 05 3d
       -0.01093806 -0.0103887 0.04623753 0.03260479
000290 b4 65 f0 3c 75 3b b3 3d c8 88 3a 3d dc 2a 9b 3d
       0.02934537 0.08751575 0.0455406 0.07576534
0002a0 a3 9a 06 3e 56 e3 ce 3c 3c 96 61 3b 47 9e b0 3c
       0.13144927 0.025254887 0.0034421822 0.021559848
0002b0 97 87 1f bc 12 aa 2a bc 43 07 a0 3b 93 50 37 3c
       -0.009736917 -0.0104165245 0.004883678 0.011188644
0002c0 d1 2f 6c 3d ce 8f 85 3c fe a7 44 3c c9 03 c2 3c
       0.05766279 0.016303923 0.012002943 0.023683446
0002d0 22 c8 62 3c 73 f7 2a 3d 6e 4a ae 3c 48 07 fa 3c
       0.013841661 0.041739892 0.021275725 0.03052105
0002e0 ca b7 bf 3b 7f 99 51 3c ad 15 e8 3c 86 0e 44 bc
       0.005850767 0.012792944 0.028330648 -0.011966353
0002f0 50 23 fa 3b 7e ff 25 3d 59 71 b3 3c 5b bd 82 bc
       0.007633604 0.04052686 0.021904634 -0.015959432
000300 ee 5c 5b 3d f6 8b 9f 3d 78 32 3d 3d e3 3a e2 bc
       0.05355542 0.07790367 0.04619071 -0.02761597
000310 7c 14 18 bd 15 b9 fc bc 13 a2 a5 bc 02 0f d1 3c
       -0.03712891 -0.030849973 -0.020218885 0.025519852
000320 6c 79 c9 ba b3 de a6 3b 8b 6c 75 3d 10 c2 97 3c
       -0.001537127 0.005092466 0.059917968 0.018525153
000330 49 67 ec bb 90 c0 b1 3d ef 22 9f 3c 3c 18 67 bc
       -0.007214461 0.086793065 0.019425837 -0.014104899
000340 c3 19 da bc 54 aa 9c 3c e4 f5 67 3c 8e 59 f1 3c
       -0.026623612 0.019124188 0.014157746 0.029461648
000350 c6 12 f8 3c ab 28 76 bc 45 45 c0 bc f5 ad 12 3d
       0.03028239 -0.015024344 -0.02347053 0.03581043
000360 ee 84 a5 bd f2 85 be bd 6b 76 59 bd 90 95 75 3d
       -0.08081995 -0.09302892 -0.053091448 0.059957087
000370 cd f9 25 ba 64 0b 1e bd 1e 74 a4 3b 43 58 29 3d
       -0.00063314737 -0.03858508 0.005018725 0.04134394
000380 34 29 02 3d 3e 53 0f 3d f7 a2 51 3d ff ae 71 3d
       0.031777576 0.034991495 0.051180806 0.05900478
000390 5e a9 7f 3b 3a f6 b4 3c 1c c4 ba 3c d4 c2 7b bd
       0.0039010863 0.022090066 0.02279859 -0.0614651
0003a0 62 5b fa 3b eb 94 42 3c 0c 03 f6 3c 5c 0a 7d 3b
       0.007640288 0.011876325 0.03003075 0.003861091
0003b0 93 3a 33 3d a8 27 38 3c 67 5b 0b bd 7f c3 57 bb
       0.043757033 0.011239924 -0.034022715 -0.0032922921
0003c0 f8 66 14 3d 2b 5a f6 3a 6a a9 db 3c 00 de 17 3d
       0.03623101 0.0018795183 0.026814181 0.03707695
0003d0 54 71 9b 3d 74 c1 ec 3c 7a 76 c9 3c f7 5f 23 3d
       0.07589975 0.02890084 0.024592627 0.03988644
0003e0 55 bd 81 b9 21 64 03 3d 06 9b fa 3c 32 19 fd 3c
       -0.0002474586 0.032077912 0.030591499 0.030895803
0003f0 6a 8f 8b 3c c2 cb a4 bc 5c d1 cc 3c ea 4b 1c 3b
       0.017036159 -0.02011669 0.025002174 0.002384896

bias f4 [32]
000000 f5 fb 8e bd 78 5e 28 3d 76 52 1b 3d 88 95 84 bd
       -0.06981651 0.041105717 0.037920438 -0.06473833
000010 ed cc 0f bd 8b 41 36 bd ea a8 58 3d 7e ff d7 3c
       -0.03510754 -0.0444961 0.052895464 0.026366945
000020 95 df ee 3a 29 27 e2 bc 0a 8b 80 bc d7 18 1e bd
       0.0018224592 -0.027606564 -0.015691299 -0.038597908
000030 02 9c 00 3d 43 8d 47 3d e8 8a 6b 3c 1e d4 3e bd
       0.03139878 0.048718702 0.01437638 -0.04658901
000040 a3 fa 28 bc 14 a3 4c bd 94 c4 7f 3d 09 5f 53 3d
       -0.010313663 -0.04996021 0.06244333 0.051604304
000050 54 0f f2 3c 0e ab 56 bc 5b 57 9a bc f3 fd 26 bd
       0.029548325 -0.013102306 -0.018840482 -0.04076953
000060 a9 85 e1 3c 5f 6c 1b bb f8 c1 8b bc 5e 85 67 3c
       0.027529554 -0.0023715717 -0.017060265 0.014130918
000070 1b fc 05 bd 0c 03 1e bd 5b 38 d0 3c dc f4 6e 3d
       -0.03271113 -0.038577124 0.025417497 0.058338985

weight f4 [32]
000000 b8 ac 78 3f cd 01 6b 3f 91 9f 76 3f c3 bd 76 3f
       0.9713855 0.9179962 0.9633723 0.96383303
000010 a5 7f 66 3f 5f 9c 63 3f e6 a3 80 3f 6e 58 68 3f
       0.9003852 0.8891048 1.0050018 0.90759933
000020 dc 0f 74 3f f3 62 62 3f 96 9a 75 3f 34 39 80 3f
       0.953367 0.88432235 0.95939004 1.0017457
000030 9b f2 71 3f 0a 27 68 3f 61 c7 7c 3f 7a e8 6b 3f
       0.9451081 0.9068457 0.9874173 0.92151606
000040 a0 c4 82 3f 11 c2 83 3f 33 cc 75 3f f9 08 70 3f
       1.0216255 1.0293599 0.9601471 0.9376369
000050 e0 a3 6c 3f 27 d0 83 3f a4 96 6f 3f aa ef 82 3f
       0.92437553 1.0297898 0.93589234 1.022939
000060 20 d3 76 3f dc c5 6a 3f f1 5c 56 3f 07 47 70 3f
       0.964159 0.9170816 0.8373557 0.9385838
000070 96 f1 6b 3f 63 c7 72 3f bf 70 7a 3f 9a 54 74 3f
       0.92165506 0.9483549 0.97828287 0.9544159

bias f4 [32]
000000 32 f4 7c 3e 34 2e ea 3e 28 19 f6 3e c5 49 01 3f
       0.24702528 0.45738375 0.48066068 0.5050319
000010 1c a6 e1 3e 72 b9 92 3e 21 88 b9 3d c7 42 c6 3e
       0.44072044 0.2865711 0.09059168 0.38722822
000020 63 5d b1 3e d5 bb fb 3e b6 17 3e 3e 59 a6 4a 3e
       0.3464156 0.49166742 0.18563733 0.19790019
000030 33 4e 0d 3f 69 20 bf 3e 39 ab 7e 3e af f7 c9 3e
       0.5519745 0.37329414 0.24870004 0.3944678
000040 87 cf 43 3d 1b b7 99 3e 27 99 ed 3e aa 41 f6 3e
       0.047805335 0.3002251 0.46405908 0.48096973
000050 d6 03 88 3e 2d 3a 1f 3f ec 14 8d 3e 22 aa e6 3e
       0.26565427 0.62198144 0.27555025 0.45051676
000060 fc 3d 2e 3d 35 e7 7a 3e 7f 2f f1 3e 6f 62 63 3e
       0.04253958 0.24502261 0.4710655 0.22205518
000070 32 df e3 3e eb 55 a3 3e ad aa 1c 3e 84 74 98 3e
       0.44506222 0.31901488 0.15299483 0.29776394

running_mean f4 [32]
000000 a9 ba 75 3f 2f df 19 be 71 3f 4d bf 74 ef bb bf
       0.95987946 -0.15026544 -0.8017493 -1.468245
000010 79 22 13 3f cc 4a d1 3e 92 68 e2 3c 6b 68 20 bf
       0.57474476 0.40877378 0.027637754 -0.6265933
000020 b7 84 bc bf 00 63 34 3f 4c 02 c0 bf e4 dd 6e bf
       -1.4728001 0.7046356 -1.5000701 -0.9330733
000030 fa 4b 80 bf bf 4b a9 bd 21 13 4f bf 0c 7a b4 3e
       -1.0023186 -0.082664005 -0.80888563 0.35249364
000040 16 8e d5 bf 1b d7 30 bf 5e 0a a6 3f 87 3e 0a 3f
       -1.6683986 -0.69078225 1.2971914 0.5400166
000050 77 55 01 bf f0 c6 02 40 b2 a6 12 be 50 93 38 3f
       -0.50521034 2.0433922 -0.14321402 0.7209978
000060 16 37 c0 bf 67 95 2a bf 3d 1e 82 3e 26 e5 2a bf
       -1.5016811 -0.6663422 0.25413695 -0.667559
000070 0e 16 6e 3f 77 63 c1 bf f2 20 c1 be 58 36 c5 bf
       0.930024 -1.5108479 -0.37720448 -1.5407209

running_var f4 [32]
000000 a3 0a 29 3e b4 72 12 3e 53 17 a2 3e 54 3c 77 3e
       0.16507964 0.14301568 0.3165842 0.24144107
000010 39 26 29 3e 67 99 f2 3d ec c3 87 3e e6 7e 23 3e
       0.16518487 0.118456654 0.26516664 0.15966377
000020 78 c0 28 3e c5 38 21 3e 6e e5 72 3e a4 53 1d 3e
       0.16479671 0.15744312 0.23720333 0.15363938
000030 9a 77 bf 3e a2 73 6d 3e 6c 4d b3 3e fb 71 89 3e
       0.37395936 0.23188642 0.35020006 0.26844773
000040 9d ec 06 3f 52 b3 d8 3e ea b4 8a 3e 3d 35 8c 3e
       0.52704793 0.4232431 0.2709115 0.27384368
000050 97 8b 51 3e d4 e6 b3 3e c3 9b 83 3e e8 8a d6 3e
       0.20463406 0.35137045 0.25704774 0.41902852
000060 51 73 87 3e fd ac 80 3e 91 5c 51 3e 7b e1 8c 3e
       0.26455167 0.2513198 0.20445468 0.27515778
000070 6b b1 14 3f ac 64 70 3e e7 2f 89 3e 2f 66 f3 3e
       0.5808322 0.23475903 0.2679436 0.47538897

weight f4 [32, 32, 3, 3]
000000 e9 ed bd 3d a5 50 06 3b 69 4c f4 bc b1 ce 66 3d
       0.092738934 0.0020494845 -0.029821591 0.05634946
000010 59 28 1b bb 55 75 ec bc 83 9a 46 3d a0 ec 94 bc
       -0.0023675172 -0.028864542 0.048487198 -0.018179238
000020 6f 14 68 bd d1 a6 3a 3d bc d3 c4 3c d0 43 33 bd
       -0.056660112 0.045569245 0.024026744 -0.043765843
000030 50 7b 9c 3c 75 c8 14 3d b7 df 9a ba 5b 41 b9 3c
       0.019101769 0.036323983 -0.001181594 0.022614172
000040 d0 f8 51 bd 08 31 26 bd df 87 56 bc 48 c3 39 3b
       -0.051262677 -0.040574104 -0.013093918 0.0028345156
000050 7a 1d 50 3d 44 d6 9e 3c 56 80 5c 3d c1 38 4b 3d
       0.05080936 0.01938928 0.05383333 0.04961467
000060 1a 96 1f 3d 58 23 50 bb 9e 98 85 3d 48 81 ce bd
       0.038961507 -0.0031759348 0.0652325 -0.10083252
000070 46 23 25 bd 94 4a bf bd b4 2e 8f bb cd d9 7b 3c
       -0.040316842 -0.093403965 -0.004369581 0.015371752
000080 e8 b6 fe bc 08 ff 98 bc 42 8c a0 bd b1 05 81 bd
       -0.031093076 -0.018676296 -0.07839252 -0.06299914
000090 fd 41 40 bd 19 e7 e9 3b 19 31 45 3d 79 56 03 bd
       -0.04693793 0.0071381447 0.048142526 -0.03206489
0000a0 2f 89 f6 bb 8e 97 f2 3b d5 dc ea 3a 03 60 ab bd
       -0.007523678 0.0074033206 0.0017918596 -0.08367922
0000b0 29 df 4e bd f9 68 21 bc 54 52 06 bd f0 ec 03 bd
       -0.05050579 -0.009851688 -0.032793358 -0.032208383
0000c0 95 df 95 3c 1d 7a 54 3d 49 55 b2 3c 67 8a 9d 3c
       0.018295089 0.05187427 0.021769183 0.019231034
0000d0 cd aa 57 bd 85 a3 1a be 65 a4 1a 3d 83 67 3e bc
       -0.052653123 -0.1510144 0.037754435 -0.011621359
0000e0 54 80 67 3d b0 d2 fa bc b6 74 16 bd cd 57 dd ba
       0.056518868 -0.030618042 -0.036732398 -0.0016887129
0000f0 e9 e5 2c 3c 1c b2 28 bc b2 b7 cc bc ef 82 0d 3d
       0.010552862 -0.010296371 -0.024989937 0.034548696
000100 1d 26 30 3d b6 97 01 3d c7 8e 25 3d 30 62 d7 3a
       0.043005098 0.031638823 0.040419366 0.001643246
000110 f9 b5 6b 3d 9e 7c 44 3d ae b4 1f 3d b4 d5 c1 3c
       0.05754659 0.047970407 0.03899067 0.023661472
000120 22 6f 2f 3d fb 30 77 3c 8e 5f a4 bd f4 75 bc 3c
       0.042830594 0.015087361 -0.08026038 0.023005463
000130 32 bd 61 bc 6e 89 d7 3b 12 59 84 bb c1 7b 1d bd
       -0.013778018 0.006577662 -0.0040389383 -0.0384481
000140 44 5c 8e 3b 68 00 bc bc ea 64 c8 bc f1 bb 83 3d
       0.004344495 -0.022949412 -0.024462182 0.06432331
000150 ea 40 97 bb 81 9b 7d 3c a3 85 86 3d b4 38 2c 3c
       -0.0046158927 0.01547897 0.06568458 0.010511566
000160 7a 8b 8f 3c ad 44 af 3c cb 32 ba 3c c1 6d 0a 3d
       0.017522562 0.021395052 0.022729298 0.033796076
000170 c7 4f 8e ba 3d 90 fb 3c 36 87 e9 3c 96 e0 a5 bc
       -0.0010857516 0.030708427 0.028506856 -0.020248692
000180 47 cc ac 3c 43 0a 37 bc e9 11 0a bd 9c 64 46 3c
       0.0210935 -0.01117188 -0.033708487 0.012108948
000190 ed 98 09 3c dc c7 0d bc f5 de e9 bb d5 8c 37 3d
       0.008398277 -0.008653607 -0.0071371743 0.044812042
0001a0 68 d2 ee bc 58 fe 7e bd 8b 1f 31 3c 9a b5 92 bd
       -0.029153064 -0.06225428 0.010810743 -0.07163544
0001b0 d5 a9 86 3c 56 d7 93 bc 90 78 c4 3c 39 3b 1e bb
       0.016438404 -0.018047016 0.02398327 -0.0024144186
0001c0 93 79 e4 bb 0e 40 0c 3d 46 ad f2 bc 2d 9b a0 bc
       -0.0069725006 0.034240775 -0.029623639 -0.019605244
0001d0 b8 1d 6a bb 36 45 8b bd dd de 5b bc 3d ef 2b bc
       -0.003572328 -0.0680031 -0.013419834 -0.010494051
0001e0 7e 84 cb bc 34 bb 16 bd 7c fe 62 3b 5a fe 26 bb
       -0.02484345 -0.036799625 0.0034636548 -0.0025481195
0001f0 d9 3e cc bc 3f 16 67 bd e9 f2 ad 3d 57 6b fc 3c
       -0.024932312 -0.0564177 0.08493597 0.030812902
000200 cb 04 ce 3c e3 22 0e 3d 81 62 b3 3c 96 eb 1c 3d
       0.02514877 0.03470124 0.021897556 0.03831061
000210 7a 0c 95 3c c4 47 36 bc 20 b3 2c 3c e4 56 c0 bc
       0.018194426 -0.011125509 0.010540754 -0.023478933
000220 b6 4c 2a bd 59 7d ba ba 47 5e 21 bd c0 3d 4e bd
       -0.041577064 -0.001422803 -0.03939655 -0.05035186
000230 98 74 53 bc 40 6f c5 3c 25 55 35 bd 46 e0 48 bd
       -0.012906216 0.0241009 -0.044270653 -0.04904201
000240 cb 30 68 3d 06 cb b5 3c 2a cc c0 3c 80 94 26 3c
       0.056687158 0.022191536 0.023534853 0.010167241
000250 13 5b b7 3c bf 8c c4 3c 76 41 d7 bc 5f ed 82 bb
       0.022382295 0.023992894 -0.026276331 -0.003995582
000260 2f 9e ce bc ce c5 4f 3d 1c 77 50 3c 45 a9 63 bd
       -0.025221912 0.05072575 0.01272371 -0.05558135
000270 3e 4f 3f 3d 0b 99 26 bc f0 2f b5 bc d7 8c 1e 3d
       0.04670643 -0.010168324 -0.022117585 0.038708534
000280 6f b4 3a bd 5b 8f e9 bd de 24 7a 3d 7f 7d 4b 3d
       -0.04558223 -0.11404296 0.061070316 0.04968023
000290 1a 18 83 3d 35 8f a7 3c 00 ab 7e 3c d9 22 b1 3c
       0.064010814 0.020454029 0.015543699 0.021623062
0002a0 c8 02 11 3d e2 ba 07 3d c5 11 ff 3c 99 ed 51 3d
       0.035403043 0.03313721 0.031136403 0.05125198
0002b0 1b 89 db bc 4c bf 7e 3c 93 d6 c0 3c 3c 6c 81 bc
       -0.026798775 0.015548538 0.023539817 -0.01579868
0002c0 cb d5 3c 3d cc 4c d6 3d 81 85 fe 3c 91 a8 af ba
       0.046102326 0.104638666 0.031069519 -0.0013401677
0002d0 a0 09 55 bd 19 50 ce bc 5f cf d3 3c 42 b6 2e 3c
       -0.052011132 -0.025184678 0.025855718 0.010663571
0002e0 d4 ae 26 bc 37 03 b1 3c 5a 9e 8d 3c 70 c9 8a bc
       -0.010173518 0.021607978 0.017287422 -0.016941756
0002f0 e8 38 e0 b9 12 7d 1f 3d 34 f9 1e 3d 06 b1 a2 3d
       -0.00042767008 0.038937636 0.038811877 0.07943921
000300 e0 ca 92 bc 14 48 20 3d ed d1 4a bc ef f3 b7 bd
       -0.017919004 0.03913124 -0.012379152 -0.089820735
000310 1d d8 30 bd d1 af 97 bd b5 2d 22 3d 62 00 0b 3d
       -0.04317485 -0.07406581 0.03959437 0.033935912
000320 ff db e2 3c 53 5d 86 3d 46 df 0d 3b a2 be 33 3c
       0.027692793 0.06560769 0.0021647974 0.010970743
000330 e3 59 0f 3d a8 53 93 bc df d3 24 bd b4 66 73 3d
       0.034997832 -0.017984226 -0.04024112 0.059424117
000340 3b 77 93 37 01 0a 58 3d 6f 22 28 3b ec 75 f4 bc
       1.7579287e-05 0.052743915 0.002565529 -0.029841386
000350 32 99 b0 3c 79 c0 cd bc 9b 4b c3 bc 83 5a d8 3c
       0.021557424 -0.025116192 -0.023839762 0.026410347
000360 a1 bd 02 3d 24 4b 79 bc f1 a7 85 bb 4a ff bc 3c
       0.031919125 -0.015215669 -0.004078858 0.02307095
000370 e9 97 77 bc cb 73 23 3c 93 b7 9e 3d ef d4 46 bc
       -0.015111902 0.009976338 0.07749858 -0.012135728
000380 df 60 67 3a ef 4f b1 3b 30 68 bb 39 73 6c 8b 3c
       0.00088263856 0.00541114 0.00035745045 0.017019486
000390 ed 78 65 bd f5 0a 48 bd 0f 83 1c 3c 0d a0 e7 3c
       -0.056023527 -0.048838574 0.009552731 0.02827456
0003a0 3c 5e 95 bc b3 63 3b 3d e8 e9 72 3d 02 1c 95 bd
       -0.018233411 0.045749377 0.0593051 -0.07280733
0003b0 58 94 09 bd be cc ac 3c 69 b2 11 bd 7a be 04 bd
       -0.033588737 0.021093722 -0.035570536 -0.032408215
0003c0 db 80 22 bd 90 a1 46 bd 82 9a b1 bd b4 06 2a 3d
       -0.039673667 -0.04849392 -0.08672048 0.0415103
0003d0 b1 50 31 3c e5 31 f0 bc 0b c9 14 3d 41 37 a1 3d
       0.010822461 -0.029320667 0.036324542 0.07871867
0003e0 a8 c8 4d 3c 47 b0 8c bd 73 08 83 bd 7e 61 6b bd
       0.012560047 -0.0686956 -0.06398096 -0.057466023
0003f0 c9 42 25 3c 04 d3 09 bd 16 88 7d bc da 4f 10 3c
       0.010086724 -0.033648506 -0.01547434 0.008808101

bias f4 [32]
000000 65 84 7a 3d 58 40 2d bd 46 8d cd 3c 55 e7 b0 3d
       0.061161418 -0.04229769 0.025091778 0.08637873
000010 a1 17 9b 3d c5 ed 39 3d f7 7e 8f 3a 35 d9 2c bd
       0.07572866 0.04539277 0.0010947873 -0.042199332
000020 9c 27 36 3d c1 38 ab 3c 4a ae 9f 3d cb 56 44 3d
       0.04447137 0.020901086 0.07796915 0.047934335
000030 9d 7e dd bc 09 69 5c 3d f6 b3 16 bd e1 db 9a 3d
       -0.027037913 0.053811107 -0.036792718 0.0756147
000040 dc 62 78 3a bb 96 be bc f3 a8 d2 3c 1a cf 34 bd
       0.00094751804 -0.023265233 0.025715327 -0.04414282
000050 6c fc 63 bc 55 24 82 3c 47 34 34 3d 02 58 bb 3c
       -0.0139151625 0.015886465 0.043995168 0.022869114
000060 24 f8 00 bd fb 10 7f 3d 7a 0f cf bc 98 73 31 3d
       -0.031486645 0.062272053 -0.025275934 0.04332313
000070 ee 35 46 bc 58 3f c3 39 14 72 72 3d ca 81 5d 3d
       -0.012097819 0.00037240493 0.059190825 0.054078855

weight f4 [32]
000000 75 4d 73 3f 09 7b 7a 3f e7 ac 7a 3f 0f 01 87 3f
       0.95040065 0.97843987 0.9792008 1.0547198
000010 5b 49 76 3f 81 8c 6a 3f 70 43 5e 3f e5 55 82 3f
       0.9620568 0.9162064 0.8682165 1.0182463
000020 6e 79 87 3f f9 2d 69 3f e0 e5 82 3f b3 d3 66 3f
       1.0583932 0.91085774 1.0226402 0.9016678
000030 2d b0 63 3f a4 35 5f 3f 52 39 82 3f 72 b0 6f 3f
       0.889407 0.87191224 1.0173743 0.9362861
000040 77 1e 6a 3f 4c a1 79 3f 5d 30 83 3f ec ec 68 3f
       0.91452736 0.97511744 1.0249134 0.90986514
000050 b5 28 8c 3f 8e 31 75 3f 19 34 69 3f d2 de 72 3f
       1.0949923 0.9577874 0.9109512 0.94871247
000060 ad 3a 74 3f 54 a1 83 3f 9b 20 66 3f e1 89 65 3f
       0.9540203 1.0283608 0.898935 0.8966351
000070 2f 4a 79 3f 67 8a 74 3f 73 ed 81 3f f3 1b 8b 3f
       0.9737882 0.95523685 1.0150589 1.0867904

bias f4 [32]
000000 6e a3 d1 3e 37 c5 ae 3e db fc a2 3e 85 b2 8d 3e
       0.40945 0.34134838 0.31833538 0.27675262
000010 ae de 7d 3e 2d b7 8e 3e 68 20 08 3f da 64 73 3d
       0.24791977 0.27874127 0.5317445 0.05942235
000020 4c b5 9b 3c 16 8b 0d 3f 86 de 34 3e 3c 71 bd 3e
       0.019007348 0.55290353 0.17663011 0.37000453
000030 90 73 12 3f 6a e7 4b 3e 60 3a 7d 3e 61 d4 ae 3e
       0.57207584 0.19912496 0.247293 0.34146407
000040 7e 76 a6 3e a2 ea 1c 3e 82 17 f1 3e 43 b7 db 3e
       0.32512277 0.1532388 0.47088248 0.42913255
000050 a2 5b 9e 3e 86 90 f8 3d ae d2 b2 3e 1c f0 41 3e
       0.30929285 0.12136941 0.3492636 0.1893925
000060 47 e4 f2 3e 8b 6a c1 3e 87 e1 a0 3e 2b a3 ec 3e
       0.47439787 0.37776598 0.31422064 0.46218237
000070 f5 27 82 bb 69 95 e8 3e e3 64 9b 3e f4 76 fb 3d
       -0.0039720484 0.4542649 0.30350408 0.12278548

running_mean f4 [32]
000000 21 01 20 3e 54 24 66 3f 8b 01 c5 be 20 da 2d be
       0.1562543 0.8989918 -0.3847774 -0.1697774
000010 1f 41 22 3f 3f 03 82 bd 8f f5 89 be 38 c0 ea be
       0.63380617 -0.063482754 -0.2694516 -0.45849776
000020 cf 77 e4 3e 96 ae 8a be 8f b1 04 3f e2 f1 fc 3d
       0.44622657 -0.27086323 0.5183343 0.12350823
000030 5e f5 ee bb 10 a5 26 3e 43 0f b0 be 83 76 5a bf
       -0.0072924336 0.16273904 -0.34386644 -0.85337085
000040 bc 13 3e bf 5a fa 46 bf eb a7 bb be 3d ff 71 be
       -0.7424886 -0.77725756 -0.3665155 -0.23632522
000050 08 29 32 bf ad 34 11 3f ab 2c a3 3e 19 1b 68 be
       -0.6959386 0.56721 0.31870016 -0.22666587
000060 86 79 af 3f a7 76 87 3e 09 33 40 3e 2d 7e 3b 3f
       1.3708961 0.26457712 0.18769468 0.73239404
000070 10 08 f3 bd cc 2b 8a 3e 6f 13 56 be 97 33 b6 bf
       -0.11866772 0.2698654 -0.20905851 -1.4234494

running_var f4 [32]
000000 1d 6d 24 3e a9 0f 5e 3e 7c fc 52 3e 30 bf 82 3e
       0.16057248 0.21685661 0.20604128 0.2553649
000010 92 95 7a 3e 3a 1c 56 3e a1 a7 94 3e 19 9f f8 3d
       0.24471119 0.20909205 0.2903414 0.121397205
000020 39 df 55 3e db f6 5b 3e a1 b7 59 3e ac 42 05 3e
       0.20885934 0.21480887 0.21261455 0.13013715
000030 c6 b7 4c 3e a8 68 db 3d 93 50 8e 3e 6e 25 77 3e
       0.19991979 0.10713321 0.27795848 0.24135372
000040 0f 4f 04 3e fc 05 91 3e 46 90 90 3e 1b cc 3e 3e
       0.12920783 0.28324878 0.28235072 0.18632548
000050 4b 28 a2 3e 5e e9 b7 3e 8a a0 53 3e c0 c3 57 3e
       0.31671366 0.35920233 0.2066671 0.21070766
000060 86 fa 51 3e 35 5b 7f 3e c8 33 4b 3e 6b 98 0d 3e
       0.20505723 0.24937136 0.19843972 0.13827674
000070 c2 9e 41 3e 54 67 1c 3e 0d d0 50 3e a5 b5 90 3e
       0.18908218 0.15273792 0.20391865 0.28263584

weight f4 [32, 32, 3, 3]
000000 bf a2 9b bb 10 3f 44 3c 38 86 41 3c c9 02 b0 3b
       -0.0047496255 0.011977926 0.011811785 0.0053714258
000010 6d f6 75 3c fb be 92 3b 75 54 91 bc 6b 80 00 bd
       0.015012366 0.004478333 -0.017740468 -0.03137247
000020 6b 3d eb 3c 51 16 af bb dd 67 f7 3c 89 5e da bc
       0.02871581 -0.0053432365 0.030200893 -0.026656406
000030 38 15 94 bc 7d 33 1a bc 77 51 ea bc 87 7b 22 bd
       -0.018076524 -0.00941169 -0.028603299 -0.039668586
000040 c8 7e 7e 38 a3 5f 35 bd 7d 47 83 bc 36 84 2d 3b
       6.0676393e-05 -0.04428066 -0.0160253 0.002647651
000050 30 6e f4 3b 45 92 00 3a ea a0 97 3c d3 a9 bc 3b
       0.0074594244 0.00049046084 0.018509347 0.0057575493
000060 75 c1 47 bb 8e 96 3b bd 2a 7c 58 bb 4d bb a8 3c
       -0.00304803 -0.045797877 -0.0033032992 0.020597124
000070 0e d9 39 3d c7 27 12 3d 25 c8 ab bc 98 e6 2b bc
       0.045373015 0.035682466 -0.02096946 -0.01049199
000080 7e 61 a2 bd 4c a1 c4 bb ff 20 23 3c 3f 04 06 3d
       -0.079287514 -0.0060006734 0.009956597 0.032718893
000090 07 07 68 bc b6 27 c2 3b d0 5b 89 bd 7a a5 37 3d
       -0.014161832 0.005925144 -0.06706965 0.044835545
0000a0 64 bf ca 3c 88 4b ff bc 81 47 84 3d 45 57 8a 3c
       0.024749465 -0.031163946 0.06458951 0.016887316
0000b0 c4 68 bd bc 4b c2 35 3c 71 12 12 3c f2 3a 0f 3c
       -0.023121245 0.011093686 0.00891553 0.008742081
0000c0 1a 7e a1 3c a4 95 7b 3c 80 f0 35 3d b1 36 ab bc
       0.01971345 0.015355501 0.04441881 -0.020900102
0000d0 83 0a 18 bd 36 f1 14 bb 43 f4 8a bb 10 2f 84 bc
       -0.0371194 -0.002272678 -0.004240544 -0.016135722
0000e0 e4 d0 4d 3d ed 52 0f 3d 70 d7 cf bc 3e 20 e9 bb
       0.05024804 0.034991194 -0.025371283 -0.0071144393
0000f0 43 8d ab 3c e0 9a ba 3b 7f e0 62 bc f8 21 bd 3d
       0.020941382 0.005694732 -0.013847469 0.09234995
000100 01 f4 2c 3d 5d 7d 5d 3c 7d 65 07 bd ff 91 57 bd
       0.042224888 0.0135186585 -0.03305577 -0.052629467
000110 c8 60 35 bd 85 9f 21 3d 87 10 12 3d cb d6 ee 3a
       -0.04428175 0.03945877 0.035660293 0.0018221972
000120 0d c9 e3 bb 9e 78 96 bc 37 c2 24 3d 59 1e d5 3c
       -0.0069514574 -0.018368062 0.04022428 0.026015447
000130 53 db 4b 3d c8 89 1f 3d 0c 5c 8c bd bb b5 05 bc
       0.04976971 0.038949758 -0.06853494 -0.008161004
000140 ad d7 1e bd 62 35 d3 bc c0 ea 44 bc 20 07 eb bb
       -0.038779903 -0.02578229 -0.012018859 -0.00717248
000150 e7 f9 08 bc 34 1e 75 3b 82 06 31 3d d7 99 b3 bc
       -0.008360363 0.0037402036 0.043219097 -0.021923942
000160 ad 58 ae 3c f6 8e 43 3d 59 fe 8d bd 7c db a8 3c
       0.021282518 0.04774376 -0.069332786 0.02061247
000170 7c 2e df 3c fb 76 f2 3a f0 e7 14 3d 02 06 0c bd
       0.027243845 0.0018498594 0.036354005 -0.034185417
000180 30 43 f1 3a e8 3b 3c bc 58 34 91 bc 61 b0 d1 bc
       0.0018406864 -0.011488892 -0.017725155 -0.0255968
000190 1a f9 0c bd c8 bf ec bc a0 7a be 3c 7b ef 8d 3c
       -0.03441725 -0.028900042 0.023251832 0.017326107
0001a0 7f b0 07 3d 37 df 18 3d 8f b6 b7 bb c4 cc f5 bb
       0.033127304 0.03732225 -0.0056064795 -0.0075012166
0001b0 21 48 28 bd f9 28 e9 3c 5e 0b 39 3c a1 56 1f bd
       -0.041084412 0.02846192 0.011294214 -0.038900975
0001c0 70 74 b4 bb fe 2a 34 3c e6 32 1a bc 14 cf e1 3b
       -0.0055070445 0.010996578 -0.009411549 0.0068911407
0001d0 d4 4a 99 3c c0 10 51 3d bb d6 a0 3b 04 8c af 3c
       0.018712439 0.051041365 0.0049084104 0.02142907
0001e0 67 a8 15 3c a8 d7 d4 3b c4 99 6f bc 36 26 3b bd
       0.0091343885 0.006495435 -0.014624063 -0.045690738
0001f0 4e 03 a2 bc 37 05 d1 3b b1 c0 4b bc 31 40 17 bc
       -0.019776966 0.0063787955 -0.012436078 -0.009231613
000200 8a ce 09 3b 52 09 40 bd f6 0c d2 3c 04 cd bd ba
       0.0021027648 -0.04688389 0.025640946 -0.0014480655
000210 ca 7f 57 bd 16 ae 44 3d 48 9a 32 3d fe 88 a9 bc
       -0.052612104 0.048017584 0.043604165 -0.020695206
000220 bd 4e 28 bb 59 ba 1f bd dc c1 63 3c 39 1b ca bc
       -0.0025681697 -0.038996074 0.0139012 -0.024671184
000230 f2 57 20 3c ac 0e 79 bb 5f b9 b7 bc 01 88 3f 3c
       0.009786593 -0.003800313 -0.022427259 0.011690141
000240 0c 96 b5 3c 39 67 1b 3b 80 96 26 3d 39 e9 d8 bc
       0.022166274 0.0023712649 0.04067087 -0.026478397
000250 27 15 1a bd 47 7b 1d 3d ed 13 61 bc a3 95 eb 3c
       -0.03761783 0.038447645 -0.013737661 0.028757876
000260 98 58 18 bc 2c f9 23 3d 62 b2 01 3d 44 c0 17 3d
       -0.009298466 0.04003255 0.03166426 0.037048593
000270 7c 69 b6 3c 48 43 f9 3c d1 13 c9 3c 45 b9 41 bd
       0.022267096 0.03042759 0.024545582 -0.047295827
000280 e9 ba 90 3c 3f 21 31 bd c1 4c 56 bd 97 ca 27 bd
       0.01766725 -0.043244597 -0.052319292 -0.04096469
000290 9e 2c 40 bc a4 79 6d 3c 65 11 4a 3c 4d ab 26 3d
       -0.011729388 0.014494333 0.012333249 0.04069071
0002a0 ca 2a d1 3c a5 f8 6b 3a d7 3d 6e bb fe e8 aa b8
       0.025533099 0.00090015895 -0.0036352777 -8.14963e-05
0002b0 6b 9c 8e 3a c0 67 8f 3c 8e 6e 77 3c cf 52 b8 bc
       0.0010880356 0.017505527 0.015102042 -0.022500424
0002c0 0e 6e 1e 3d 42 65 8f bb 52 8a cb bb 26 3e 23 bc
       0.038679175 -0.0043760845 -0.0062115574 -0.009963548
0002d0 89 96 3f 3d 1c a4 3c 3d 13 5d ec 3c bb b1 71 bc
       0.04677442 0.046054944 0.028852975 -0.014751847
0002e0 69 d7 da 3c 48 e6 76 bd 03 7d 55 bd 19 ff 0a bc
       0.026714044 -0.060278207 -0.052121174 -0.008483672
0002f0 2d e3 68 bd 36 24 0c bc f8 30 9c 3b 2e 61 44 3b
       -0.056857277 -0.008553555 0.0047665797 0.002996515
000300 d1 18 1a 3d 5b 80 bc 3b 72 9d 45 bc 95 17 8b 3d
       0.037621323 0.005752606 -0.012061464 0.06791607
000310 a7 c1 a5 39 cf 3e 55 ba 76 b6 9f bc d9 7e 30 3d
       0.00031615535 -0.00081346644 -0.019496184 0.04308972
000320 61 80 ee bc 5f 2a f7 bb 2a 8c d1 3c 80 ed 36 bc
       -0.02911395 -0.007542893 0.02557953 -0.011165023
000330 c3 aa 0c bd 5d 41 01 bc ed 1f 82 bd 2a 63 ff bc
       -0.03434254 -0.007889119 -0.063537456 -0.031175215
000340 e1 43 d1 bb 5f d2 6e 3d 66 b0 a7 bd af 8b c9 bc
       -0.0063862656 0.058306094 -0.08187942 -0.02460274
000350 11 7b a4 bc 5d 57 69 bd 90 78 71 3a c2 d1 ac 3c
       -0.020078214 -0.05696808 0.00092113856 0.021096114
000360 1f 2b ab bc eb 03 21 bd 17 bc da 3c 9b cb 6d 3d
       -0.020894585 -0.039310377 0.026701016 0.0580555
000370 30 9e 2f 3d 68 bc 23 3d cb 9d 4b 3b 98 f6 d0 bc
       0.04287547 0.0399746 0.0031069394 -0.02550821
000380 a7 6a 1e 3c 19 e6 4b ba cb 45 32 bd 7c 54 e3 bc
       0.009668983 -0.00077781227 -0.04352359 -0.027750246
000390 0c 7a 51 3d c9 e6 04 3c 95 c4 62 3d 84 61 a1 3c
       0.051141784 0.008111664 0.055363256 0.01969982
0003a0 65 f0 43 b8 76 60 36 3c 69 f8 61 3d 81 dc 59 bc
       -4.6715508e-05 0.0111313965 0.055168543 -0.013297201
0003b0 36 a5 eb 3c 2b f5 03 3d d6 fa bd bc 03 45 ce 3c
       0.028765302 0.032216232 -0.023190897 0.025179392
0003c0 50 a5 8d bc c3 32 84 bd ea d1 8c ba 3b fd dd bc
       -0.017290741 -0.064549945 -0.0010743712 -0.027098289
0003d0 29 f9 4e 3d 81 88 9f 3c ef c6 d1 bc 66 f5 dd 3c
       0.050530586 0.01947427 -0.025607554 0.027094554
0003e0 f4 8a 1d bd 19 fc 3e 3d af 86 04 bc 27 4d 35 bd
       -0.038462594 0.046627138 -0.008088752 -0.04426303
0003f0 f2 81 94 bd 84 15 d9 bb 0d 91 4b 3c bc f9 c0 bc
       -0.072513476 -0.0066248793 0.0124247195 -0.023556583

bias f4 [32]
000000 ef 60 b3 3c af 13 3f bd 4c 12 10 3d 93 73 b3 3d
       0.021896807 -0.04664963 0.0351737 0.087622784
000010 2a 9c 4e 3d 27 b9 9e 3c d8 f3 8d 3d 7f d8 21 3d
       0.0504419 0.019375397 0.06931275 0.039513107
000020 27 54 b3 3c 0f f0 0c 3e 74 45 d2 3b 50 d8 f4 3c
       0.021890713 0.1376345 0.006416971 0.029888302
000030 c4 9e 0a 3c db 6a 65 bd 1f 26 0b bd ee 80 90 3d
       0.008460704 -0.05601011 -0.033971902 0.070558414
000040 dc 5a 88 3d 89 07 6d 3d 64 b5 72 3d 2a db ab 3c
       0.06657955 0.057868514 0.05925502 0.020978529
000050 31 f7 1a bc 32 49 15 3b ce 35 12 3d f1 f9 31 3b
       -0.009458349 0.0022779224 0.035695843 0.0027157033
000060 3c 9c 2d bd dc f6 bf 3b 58 a8 db 3c 16 90 b9 bc
       -0.042385325 0.0058582854 0.026813671 -0.022651713
000070 81 ab 0b 3d d0 c8 62 3c d2 ef ca 3c e0 37 3f bd
       0.034099106 0.013841823 0.024772558 -0.046684146

weight f4 [32]
000000 dc 0a 83 3f 1c 99 8c 3f 60 e8 88 3f 12 f8 90 3f
       1.0237689 1.0984225 1.0695915 1.1325705
000010 b9 c7 89 3f 12 3c a1 3f 69 bc 86 3f 25 fc bc 3f
       1.0764076 1.2596457 1.0526248 1.4764448
000020 14 ca 90 3f 80 de 8b 3f 22 d9 80 3f 0c 04 82 3f
       1.1311669 1.0927277 1.0066264 1.0157485
000030 01 20 8a 3f 03 23 82 3f 24 a0 8d 3f bc 34 8b 3f
       1.0791017 1.0166935 1.1064496 1.0875468
000040 d6 84 9e 3f d9 62 94 3f 2f e4 86 3f 0c 14 8f 3f
       1.2384288 1.1592666 1.0538386 1.1177993
000050 a4 a2 b1 3f f1 6c 8f 3f 5a b7 8d 3f e7 86 8b 3f
       1.3877759 1.1205121 1.107158 1.0900544
000060 73 31 85 3f 66 ba 8d 3f f7 e2 97 3f 28 e2 92 3f
       1.0405716 1.1072509 1.1866139 1.1475267
000070 fb 72 8a 3f 3f a5 88 3f 0c 00 83 3f 4e 5d 85 3f
       1.0816339 1.0675429 1.0234389 1.0419099

bias f4 [32]
000000 3e 85 a1 3e e1 8f 19 be a2 80 bf 3d a6 2a eb bd
       0.31546968 -0.14996292 0.09350707 -0.11482744
000010 a2 12 de 3e 73 71 01 3d 47 57 88 bd 31 5f ee bc
       0.4337359 0.031602334 -0.06657272 -0.029098125
000020 b9 3e 7b be b0 8e d8 ba 17 42 a8 3e ed 7f d1 3e
       -0.24535646 -0.0016522016 0.32862923 0.40917912
000030 a4 fb 18 3c 71 0d a8 3e 1e d8 88 3d e4 51 14 3c
       0.00933734 0.32822755 0.06681846 0.009052727
000040 5c e0 c4 bd 19 1c 6c 3e 30 20 e2 bb 54 21 a5 be
       -0.09613106 0.23057593 -0.0069008097 -0.3225199
000050 60 f1 0c 3e 1d fc 98 bd 6a 77 c6 3d fe a3 e2 bd
       0.13763952 -0.07469962 0.09690745 -0.11066435
000060 2f 20 4f 3d be 79 a2 bc 32 83 38 3e d2 c1 a5 3e
       0.050567802 -0.019833442 0.18018797 0.32374436
000070 bd ed 72 3a 4d d2 c2 3e 82 6a 44 3b 1b 58 5b bd
       0.0009266993 0.38051072 0.002997071 -0.05355082

running_mean f4 [32]
000000 68 d0 f8 3d d3 9e 59 be d9 35 86 3e f6 10 74 be
       0.12149125 -0.21251993 0.26212958 -0.23834595
000010 02 47 a0 3e 07 94 71 3e 1e cd 73 be 81 dd a8 be
       0.31304175 0.23591624 -0.23808715 -0.32981494
000020 38 76 95 bd 29 5e 5c 3e 1c ce 45 3e c7 6b 7c 3e
       -0.07297939 0.21520294 0.19316906 0.24650489
000030 06 21 0b 3e b3 7e 02 3e 0c 6c c5 bd 36 56 93 bb
       0.13586816 0.12743644 -0.09639749 -0.004496361
000040 7b bf 88 be 0b 13 3b 3d 83 e5 be bc 4b dd 09 bc
       -0.26708588 0.045672458 -0.0233028 -0.008414577
000050 b6 34 8a 3d 36 1e a9 be 3f cb ac 3d cf 45 17 be
       0.06748335 -0.33030862 0.084372036 -0.14772724
000060 49 dc 32 3e df d3 53 be ba d8 d3 3e c8 e9 14 bd
       0.17466845 -0.20686291 0.41376287 -0.036355764
000070 90 68 b7 bc 9b 9e e7 3d ba a8 06 3e a2 81 af be
       -0.022388726 0.113095485 0.13150302 -0.3427859

running_var f4 [32]
000000 69 3a 2d 3e 10 78 53 3e 13 af b2 3d ba 53 98 3e
       0.16916813 0.20651269 0.08724799 0.29751378
000010 bf a6 8e 3e d1 52 7e 3d 37 72 21 3f 3b 00 c4 3d
       0.27861592 0.0620907 0.63064903 0.095703565
000020 61 69 8f 3e 36 f1 f1 3d 17 76 86 3e b9 cf 54 3e
       0.28010085 0.118135855 0.2626197 0.20782365
000030 bf 35 f8 3e b8 10 54 3e a8 9e 3b 3e d0 c8 e3 3e
       0.48478505 0.20709503 0.18322241 0.44489145
000040 dd 78 2e 3d 05 1a 4e 3d ce 2a 91 3e 9f e7 28 3e
       0.042595733 0.050317783 0.2835297 0.16494606
000050 d0 4b c9 3d 8b 7c 1a 3f b3 96 fc 3d 9e 9f 65 3d
       0.09828913 0.6034629 0.12333431 0.056060426
000060 bc 0d 41 3e 1d bf 4c 3e db a3 b6 3e 19 7e a2 3e
       0.18852895 0.19994779 0.35671887 0.3173683
000070 4d 8b d9 3e 67 17 5d 3e 4b 74 9a 3e 40 27 03 3f
       0.4248909 0.21590959 0.3016685 0.51231766
