TuiGAN/models/horse2zebra/a2.pth (torch, 131453 bytes, 25 tensors)

weight f4 [32, 3, 3, 3]
00000000: 438a 81bd a9f0 9e3c 7a09 df3c b861 46bd
00000010: 6535 973c b840 49bc 1dd5 8fbc f088 9ebc
00000020: 26f0 13bd 52e7 83bd 04cb 153c 114e d53b
00000030: 4cfd 64bd 8248 89bc 6c18 7bbd 529b 59bd
00000040: ec68 f3bc 5db2 a9bd 0f8d 013d 205f 5b3c
00000050: 6b22 813d 2ca8 74ba 7fdb 473b 84db 92bc
00000060: 6a55 ab3c 500f ac3c 5f3e 81bc 432b eebb
00000070: cee7 873d 31bd f53c faf6 4fbd e81e 213d
00000080: 1520 3f3b 0bbd bdbd e683 f0bc ca83 ec3c
00000090: 26f2 b5ba 5af4 1b3d 2a38 d13c c460 83bd
000000a0: 2891 de3b 11b1 87bc a968 a2bd 0db0 44bc
000000b0: 185f 6c3c 7cef cb3c 9e70 393d a1fb 9f3c
000000c0: e070 48bd f5d7 663c f958 6ebb 70ab 53bd
000000d0: e6e4 aa38 e4e6 353d b01c 093c 1fd1 c1bc
000000e0: e05b 3c3d 4ce2 d0bc 6a34 ae3c a6ce ca3c
000000f0: e991 27bd a6d0 0d3d f75b 68bd 7f6a bc3b
00000100: 2af2 12bd c9c0 713d 3563 8e3a 8257 3a3c
00000110: 037d 063d 2efd 9abc 9a2b 8ebb 2e50 8abd
00000120: a983 243d f69e 06bc df08 8a3d cdc7 653c
00000130: f8b1 013c f6c2 343c bee9 99bc b26d 9a3c
00000140: e25e ccbd 1dbb 513c c2d5 33bb 7ae5 0dbc
00000150: 40d7 ddbb e440 13bd f1c6 b83c 5b86 5abc
00000160: e674 5fbc 1898 133c a3af b6bc e23e 45bd
00000170: 3c0a 0cbd a574 1ebb 428a e9bc 4b7e e6bc
00000180: e0b8 8c3b 2f1d 14bc 2ab6 c9bc 21df 013d
00000190: f876 0d3d 05e4 033d 50bb a13d 5091 3f3c
000001a0: 5608 833d ccd5 be3d 00e9 863d 2835 ed3d
000001b0: 34d6 1e3d 2f16 1c3d f347 553d 5872 9a3c
000001c0: 12d1 f73c 15ac 013d 7421 9c3c e28b 293d
000001d0: 97a6 4e3d 4a11 50bd b3cb 0bbd f67b 11bd
000001e0: c83e fcbc ab36 c7bc 4ac1 fbbc 7a54 f9bc
000001f0: 2a4f 16bd b952 f3bc 951d 30ba 8594 c139
00000200: d327 77bc 7f0d 903b 4bf5 1abc 9fef 65bb
00000210: 183e 4dbc 0a5a 2dbc 3352 e7bc 6a29 443c
00000220: 110c 203a 2a19 9a3c 6c2e 92bd d692 26bd
00000230: 71e1 21bd 93f5 ef3c 55c6 253c 78e6 9b3c
00000240: 0de6 a33b d961 503b 24c6 433c 91ad 47bd
00000250: 1806 f8bc d803 12bd 8568 7b3d 06d5 ee3c
00000260: 1122 ac3c 99cb 843c 23a5 4b3b 5c9d 8b3c
00000270: b7e6 1dbd 7005 05bd 2cce adbc 5ab9 613d
00000280: 6bd6 b83c 4fe6 b33c 6cdd 85bc e97f f7bd
00000290: 17a1 72be 6f09 5cb9 ba81 003d 2557 b8bb
000002a0: f768 4a3b 3927 a63c 6c46 24bd 14ca 0bbc
000002b0: 4c24 1b3c cf1a 153c 7d71 973c f131 313d
000002c0: 4d71 f53a 06cb 463c bbb7 5a3b 850f 13bd
000002d0: 9f4f dbbc 371e eebc 4a20 dabc 1c67 5cbc
000002e0: d056 9dbb 9ac8 dabb 8f8a 27bc 2b45 2dbd
000002f0: 05e5 d6bc 8473 33bd 182f f4bc 8c0a c4bd
00000300: 0147 5fbc 9f27 84bc ed12 4bbd a25d 14bd
00000310: ab20 86bd 68a7 ccbd b686 0dbc a620 60bc
00000320: 1d3c 07bd 32d8 a63c 8a1f 3d3d 5d55 443c
00000330: 4a20 61bc 6c54 c6bc f083 15b9 7177 453d
00000340: a9a2 413d 2608 893c 77c5 603d ecd8 103d
00000350: cf66 223d 9036 f03c bc68 403c f4e4 b43c
00000360: 0fc1 a93d 5d6d f9bc 3f4a e83b 3347 b9bb
00000370: a89a 0d3c b8ad 1e3d 8382 4bbc 4c9f 8f3c
00000380: 5113 47bd f66a ab3d 0539 5bbc 45dc 1cbc
00000390: 1565 db3a 6783 a7ba 8558 a23c c9fb a8bc
000003a0: 50a4 8b3b 9b02 84bd 81ab ac3d 870c 01bd
000003b0: 9f50 35bc 9e1f a9bc e0ac 87bb d9af 093d
000003c0: 5f0a 79bc 0384 06bc ce15 86bd 88a2 80bb
000003d0: 77e3 0abb 5407 9dbb b499 0eba fdc0 c43c
000003e0: 7db4 0fbd 2efa b33b b14a 1fba e02b 4fbd
000003f0: 7ce4 fa3c ff89 573b 1e48 b8bd 0543 2a3d
-0.063251995 0.019401865 0.027226198 -0.048433036 0.018458078 -0.012283497 -0.017557675 -0.019352406
-0.036117695 -0.06440605 0.009142641 0.0065095504 -0.055905625 -0.016758207 -0.061302587 -0.05312664
-0.029713117 -0.08285973 0.031628665 0.013389379 0.06305393 -0.0009332921 0.003049582 -0.017926939
0.020914752 0.021003395 -0.015776811 -0.007268341 0.0663601 0.02999744 -0.050772645 0.039336115
0.002916341 -0.09264573 -0.02935977 0.028871436 -0.001388137 0.03807483 0.025539476 -0.06414941
0.0067922063 -0.016563924 -0.079301186 -0.012004864 0.014426969 0.024894468 0.045273416 0.019529166
-0.04893577 0.014089574 -0.003636895 -0.051677167 8.148867e-05 0.044409648 0.008368656 -0.023659287
0.045986056 -0.025498532 0.021265227 0.02475674 -0.040910635 0.03462281 -0.05672833 0.00575
-0.035875477 0.059021745 0.0010863306 0.011373403 0.032834064 -0.018919554 -0.004338694 -0.06753574
0.040164623 -0.00821661 0.06739973 0.014024687 0.007915966 0.01103281 -0.018788215 0.018851135
-0.09979035 0.012800959 -0.0027440642 -0.0086606685 -0.0067700446 -0.035950556 0.0225558 -0.013337697
-0.013638711 0.00900843 -0.022300547 -0.048155673 -0.034189448 -0.0024178412 -0.02850831 -0.028136393
0.0042944998 -0.009040161 -0.024622995 0.031706933 0.034537286 0.03219988 0.07897055 0.01169236
0.06398074 0.09318122 0.0658741 0.115824044 0.0387785 0.038107093 0.05207057 0.018853351
0.03025106 0.03165825 0.01905892 0.04139317 0.05045184 -0.050797738 -0.03412981 -0.03551861
-0.030791655 -0.02431806 -0.030731816 -0.03043579 -0.03669659 -0.029702531 -0.0006718275 0.00036922484
-0.015085178 0.00439614 -0.009457896 -0.0035085452 -0.012527011 -0.010580549 -0.028237438 0.0119727645
0.00061053137 0.018810827 -0.071377605 -0.040667377 -0.03952164 0.029291904 0.010118087 0.019030795
0.0050017894 0.0031796603 0.011949096 -0.04874951 -0.030276343 -0.035648197 0.061378974 0.029154312
0.021012338 0.016210364 0.003107377 0.017042808 -0.038550105 -0.03247589 -0.021216474 0.055108406
0.02256318 0.021960406 -0.016340934 -0.12084944 -0.23694263 -0.00020984349 0.031373717 -0.005625623
0.0030885318 0.020282375 -0.040106222 -0.008532066 0.009469103 0.00910063 0.018486733 0.04326052
0.0018725783 0.0121333655 0.0033373672 -0.035903472 -0.026771365 -0.029067142 -0.026626725 -0.013452318
-0.0048016086 -0.0066767456 -0.010225906 -0.04230229 -0.026232252 -0.043811336 -0.029807612 -0.09572324
-0.0136277685 -0.016132174 -0.049578596 -0.036222108 -0.065492 -0.09992868 -0.008638075 -0.013679659
-0.033016313 0.020366762 0.046172656 0.011983243 -0.0137406085 -0.024210177 -0.00014258898 0.04820961
0.047274265 0.016727518 0.054875817 0.035363123 0.039648827 0.029322892 0.011743721 0.02208183
0.08288776 -0.030447656 0.007088929 -0.0056542396 0.00864283 0.03873989 -0.012421253 0.017532013
-0.048602406 0.083700106 -0.013380294 -0.009574001 0.0016738499 -0.001278025 0.0198176 -0.020627873
0.004261531 -0.064458095 0.08431149 -0.031506088 -0.011066585 -0.020644959 -0.0041404814 0.033614967
-0.015200227 -0.008210185 -0.06547128 -0.0039256252 -0.0021192709 -0.0047921333 -0.00054397737 0.024017805
-0.035084236 0.00549247 -0.00060764985 -0.05057895 0.030626528 0.0032888649 -0.0899813 0.04156782

bias f4 [32]
00000000: e3e1 e13d 8e27 2a3d a601 a93d b993 1cbe
00000010: 645c 5b3d 92a9 e93c 5345 313e 531b 7e3d
00000020: 6a22 18be 8f92 ee3d 2235 4dbe 846d eabd
00000030: f252 aa3c 531f cfbd dfdc e1bd 7844 5a3d
00000040: e778 ac3a e089 a3bd c0c4 323a 9922 a03d
00000050: e46f 673d 4bcb 223e d01a 04be feed 03bd
00000060: c43a 1b3e 17b5 ddbc a476 843c 5850 9c3d
00000070: 0087 88bd 6e3a 0c3e bdf4 f1bd 5a49 bf3c
0.110294126 0.04154163 0.082522675 -0.15290727 0.053554907 0.02852324 0.17311601 0.062037777
-0.14856878 0.116490476 -0.200398 -0.1144667 0.020791505 -0.101133965 -0.11028456 0.053287953
0.001315859 -0.07985282 0.0006819479 0.07819099 0.05650319 0.15897863 -0.12900853 -0.03220939
0.15159136 -0.02706389 0.016169854 0.07632512 -0.06666374 0.13694164 -0.11814258 0.023350406

weight f4 [32]
00000000: a211 753f b25f 743f 534d 653f daa2 763f
00000010: 2cec 593f d672 613f a04f 803f 5ee7 503f
00000020: bd15 773f d4b7 723f dc0c 683f bb22 803f
00000030: 35b2 923f 2c7d 6f3f babd 553f 0d7e 723f
00000040: 2ee0 713f 31e3 833f 1fad 813f 182d 803f
00000050: 4724 523f 68b8 803f c67d 4e3f a451 7c3f
00000060: db4b 813f 098b 633f 4af6 813f 90e3 693f
00000070: d1e5 843f 61ad 853f 43d7 753f e827 833f
0.9573003 0.9545852 0.8957111 0.9634224 0.85125995 0.8806585 1.00243 0.8160304
0.96517545 0.9481175 0.9064462 1.0010599 1.1460634 0.9355037 0.83492625 0.9472359
0.94482696 1.0303708 1.0130957 1.0013762 0.82086605 1.0056276 0.80660665 0.98562074
1.0101274 0.88884026 1.0153286 0.9136286 1.0382634 1.0443536 0.9603159 1.0246553

bias f4 [32]
00000000: 42b3 48bc 106c ae3e 69c4 e53d ec22 f33e
00000010: a87b 243f 8ff8 703d 6df1 463e d04c 573f
00000020: 1e93 543e 04f1 bb3e 4a25 ac3e 8fb2 9f3e
00000030: 8bc7 533e 6bb8 e73e e058 d73d d34c 613e
00000040: 3777 073e c2b8 003f f2fd d93e 6ad2 cc3d
00000050: 8a48 e63e 602c 063e a695 e93e aaf1 73bd
00000060: 3f7c b73e 0b21 023f 50b4 393e da8c 94bd
00000070: 3c31 153f f1e3 9a3e e222 773e 9701 7b3e
-0.01224977 0.3406682 0.11219103 0.4748758 0.64251184 0.058830794 0.19428034 0.8410158
0.20759246 0.36707318 0.336222 0.31190917 0.20681588 0.45257887 0.105149984 0.22001962
0.1322907 0.5028192 0.42576557 0.10001071 0.44977218 0.13102865 0.45621985 -0.05955664
0.3583698 0.5083167 0.1813519 -0.07253428 0.5827825 0.3025203 0.241344 0.24512325

running_mean f4 [32]
00000000: 0a6e b03d 9b76 113d 4423 9b3d 02c6 81be
00000010: 1a6d d93d 885f 703c 2769 313e 40c1 1cbd
00000020: f80c 0bbe c088 0d3e 2a04 77be 0a3d f2bd
00000030: bf6f 213d e132 b5bd 2655 f3bd df41 453d
00000040: fa0b 2bbb 8695 20be 48c9 d43c 9ca6 a93d
00000050: 12f3 bc3d 4192 df3d 8190 08be 1cb9 52bd
00000060: 2208 1f3e 7c7a 8037 52c6 8b3d eb3f b53d
00000070: 9a57 99bd a010 2e3e 36a8 d5bd ca8b ac3d
0.08614738 0.0355135 0.07575086 -0.2534638 0.106165126 0.014671214 0.17325269 -0.038270235
-0.13579166 0.13821697 -0.24122682 -0.118280485 0.03941321 -0.08847595 -0.11881475 0.048158523
-0.0026099668 -0.15682039 0.025974885 0.08283731 0.092260495 0.109165676 -0.13336374 -0.051446065
0.15530446 1.5315825e-05 0.06824936 0.08850082 -0.07487412 0.1699853 -0.10432474 0.084251

running_var f4 [32]
00000000: 60c2 eb3c 8414 b73b e7d9 2d3b c71a 5d3c
00000010: 5d99 1d3b 03e0 f43a e45d 303d 6375 2b3c
00000020: 5921 4a3b fa96 943c 90e2 813b 5b49 313c
00000030: 0272 843d 3a64 2c3c 9335 763a 18a4 7d3b
00000040: 46bf a53b cdf9 ab3c 16d9 c13c 2a90 7a3c
00000050: 568d 2c3b 75a8 763c 62d5 883b 2561 d23b
00000060: 3a68 713c c7fe be3b 6bd4 2f3d 09d9 663b
00000070: cf17 8a3c 7370 b03c 7f54 673b c353 683d
0.028779209 0.0055871624 0.0026527585 0.013495154 0.002404771 0.0018682483 0.04305829 0.010464999
0.003084263 0.018138397 0.003963776 0.010820712 0.06467058 0.010521943 0.00093921385 0.0038702544
0.005058202 0.020993138 0.023663085 0.01529316 0.002632936 0.015054812 0.004175828 0.006420272
0.014734322 0.0058287117 0.042927187 0.0035224578 0.016857056 0.021537995 0.0035298166 0.056720506

weight f4 [32, 32, 3, 3]
00000000: d298 84bd 4a68 013d dd98 dd3c aa35 093c
00000010: cd4f 683d 9740 373c 2492 ac3c 5bf8 253d
00000020: 2e3d ad3d c947 8f3d 1389 1fbd 1ef8 64bc
00000030: b1c7 94bb 0fdc 7abd 1e3e 5cbd 1131 de3c
00000040: a3eb 18bc 9402 a4bc 6c96 e4bc e105 71bc
00000050: 6401 9d3a b25d abb9 f816 0c3d bebe 523b
00000060: aa4b 49bd de88 123b e80c 3cbd fce6 4c3d
00000070: 6736 ec3c ac8d b2bc be75 273d 7fee f0bc
00000080: 2bd5 0abc 204e 873d b23c 2f3d 830f 2c3d
00000090: bbbb 9c3c 7adb b7bc c8e1 19bd 738b 963b
000000a0: e73d 563c 834a 67bc d4f5 333c 1554 f83c
000000b0: f8de 173b c9ce 2a3a d3f6 4ebc 4d09 b0ba
000000c0: 8338 8abb 512b 48bc a245 0abc 8a81 4fbd
000000d0: 237c 07bd 6b4d 94bc 270a 2dbd 74f7 4fbd
000000e0: 05f6 1cbd 5499 353c 7f29 ccbc e4ee d93c
000000f0: 415b 0c3d 16a8 1b3c f63d 573d 9948 9bbc
00000100: e78a d4bc 28fb 61bd 4898 4d3d ed6e ab3b
00000110: a6f4 0bbd 248f 5e3d 7a6c d93c 4d59 31bc
00000120: 0b75 3f3b 1819 bbbc 72d5 84bc 27ab 00bd
00000130: f007 04bd a033 c23c d8ff 0c3d a6cb d73c
00000140: 42a3 d43c e479 c7bd 42bb 22bb d8f1 163d
00000150: 2aa9 d0bc 1c0b 853b 6820 963c 78d9 c13c
00000160: 508c f03d ac38 1b3e 86fa 81bb dfff 173d
00000170: 9f13 af3d 48d3 36bd dde7 ab3b 0b6b c33b
00000180: f713 7abc 1360 12bd ea59 bfbc 27af 973d
00000190: 2eb3 da3a 1ea5 2a3d 7883 6e3d 3e9b 283d
000001a0: 86dc 983d ac18 5d3d 9c3f 663d 1a26 ab3d
000001b0: 5d74 79bd a582 11bd 432b 65bb d8e0 f9bc
000001c0: d3ca 423c 2ede 533d f88e a6bc 127e 8fbc
000001d0: 5781 173d d574 313d c46e 2c3d 480c 443d
000001e0: f0d7 a3bc 04f7 243b ec44 b03c 033d 06bd
000001f0: c326 253c eee3 ec3b a2be 733c d3c1 073d
00000200: 2915 76bc 76f6 aebb 31c8 9abb 1b8a 8ebc
00000210: 8542 c2bb 109a 84bb 41e1 d0bc b8d7 053d
00000220: d054 27bc d437 91bc a819 0abd 4a1d a0bc
00000230: 4d9e d53b 7666 8a3c 3b39 213d 8398 483d
00000240: 897b d03c d59e 103d 20cf 68bc 8f90 a4bc
00000250: d524 9dbc 8331 53bc 7d5e bd3c 3248 473d
00000260: cbd3 b7bb 9001 b53c cdd1 263d 1b56 b13d
00000270: f836 e43b ebad ce3c 35ca 023d c762 f43c
00000280: e128 333c e8a7 443d d79d e63c 04ff 643c
00000290: 11a8 4b3c ad37 0bbd 84fc 063c 8baa 0e3d
000002a0: 9ce4 31bd bd4c 0abc 298d 863d a94c aabc
000002b0: 4ea4 e1bc 57b7 a5bd 465c 083b 0cdc d0bb
000002c0: 8263 853b 867a e83c f6b9 533c da13 673b
000002d0: 8f25 9ebc e1a1 4bbc 82d1 163d 7c8d febb
000002e0: 1fbe 933c 1ab9 f23c 25ba 8ebc 1952 63bc
000002f0: f455 4d3d 9d71 95bd 9792 4cbd d202 62bd
00000300: a6bc 75bd 1dc2 76bd 2150 a2bd af03 cab9
00000310: 3e2e 56bc 8cef cbbc 94d3 343c 48fe 42bd
00000320: 2ab1 b3bc ffd1 36bc 7181 7abb 5e3b be3c
00000330: 0872 c23b a9d1 233d 02ce f83c a343 60bd
00000340: 9fe9 b3bc 12c5 bfbc f1a8 f13c 9605 be3c
00000350: e92a 983c 9fdc 273d 86c2 373d b370 ae3b
00000360: 2d55 073e 25e2 9f3d c7c8 aebc 6d60 99ba
00000370: 7289 f1bc 9907 5c3b 6c82 3a3c 18a9 9c3b
00000380: 80d2 293c 7a05 813d 4ef6 393c 2588 303d
00000390: 2120 8c3c bb77 8abb a614 1a3c 0bf8 243c
000003a0: db87 2bbd 89ed 833b e6c5 6cbd a889 0ebd
000003b0: f66b 8ebc d4ea 23bb 8170 b03a 1e03 c03c
000003c0: ed33 da3c 1c1a bd3c 47bf 833d e235 963c
000003d0: 8d09 a9bc 4a2a 85bb fb4d e63b 67e6 2cbc
000003e0: 56c8 d4bc 96ee 313b a841 313c 813e d53c
000003f0: 98f6 043d 285c 5abc 601a 653d e92c ac3b
-0.06474461 0.0315936 0.02705043 0.008374611 0.05671673 0.011184833 0.021065779 0.040520053
0.08458935 0.06996114 -0.038949084 -0.013975171 -0.0045404066 -0.06124502 -0.053770177 0.027123006
-0.009333524 -0.02002076 -0.027903758 -0.014710874 0.0011978564 -0.0003268547 0.034201592 0.0032157148
-0.049144424 0.0022359411 -0.045910746 0.05002497 0.028834535 -0.02179607 0.040883772 -0.029410599
-0.008473675 0.06606698 0.042782493 0.04200698 0.019132486 -0.022443522 -0.037568837 0.0045942604
0.013076282 -0.014116886 0.010983903 0.030313531 0.0023173671 0.0006515799 -0.01263209 -0.0013430506
-0.0042181625 -0.012217359 -0.008439453 -0.050660647 -0.03307737 -0.018103322 -0.04224601 -0.0507731
-0.03832056 0.01108392 -0.02492213 0.02660317 0.034266714 0.009500524 0.052549325 -0.018955516
-0.02594514 -0.055171162 0.050194055 0.0052317292 -0.03416886 0.05433573 0.026540983 -0.010824514
0.002921405 -0.022839114 -0.01621506 -0.031413224 -0.032234132 0.023706257 0.03442368 0.026342224
0.025956754 -0.09740046 -0.0024830853 0.036851734 -0.025471289 0.004060162 0.018326 0.023663267
0.117455125 0.15158337 -0.0039666323 0.037109252 0.08548664 -0.044635087 0.005246146 0.0059636883
-0.015263549 -0.035736155 -0.023358304 0.074064545 0.001668548 0.041661374 0.058230847 0.041163675
0.074639365 0.053978607 0.056213006 0.08356877 -0.06090199 -0.035524983 -0.0034968413 -0.030502722
0.011889177 0.05172556 -0.020331845 -0.01751617 0.036988582 0.04332431 0.04209782 0.047863275
-0.020000428 0.0025171647 0.02151724 -0.03277303 0.010080042 0.00722932 0.014876993 0.03314383
-0.015019693 -0.005339439 -0.0047235717 -0.017399838 -0.00592834 -0.004046686 -0.025498034 0.03267643
-0.010213092 -0.017726816 -0.033715874 -0.019545216 0.006519115 0.01689456 0.03936122 0.04897357
0.025449531 0.035307724 -0.014209539 -0.020088462 -0.019182602 -0.0128902225 0.023116345 0.048652835
-0.0056099645 0.022095472 0.040727425 0.086590014 0.0069645606 0.025229415 0.03193112 0.029832257
0.010935039 0.04801169 0.028151436 0.013976816 0.012430207 -0.033988643 0.008238915 0.03483061
-0.04343091 -0.008441147 0.06569893 -0.020788508 -0.027544167 -0.0809161 0.0020806952 -0.006373888
0.0040707 0.028378736 0.0129227545 0.0035259635 -0.019305019 -0.012428732 0.036820896 -0.007768331
0.018034993 0.029629279 -0.017422745 -0.013874554 0.0501308 -0.07297061 -0.049944486 -0.05517847
-0.059994362 -0.060243715 -0.079254396 -0.00038531187 -0.013072548 -0.024894498 0.011036772 -0.047605783
-0.021935064 -0.011158465 -0.0038224126 0.023221668 0.0059340037 0.03999487 0.03037167 -0.054752003
-0.021961985 -0.0234094 0.029499503 0.023196023 0.018575149 0.040981885 0.044863246 0.0053234934
0.13216086 0.078068055 -0.021335972 -0.0011701711 -0.029484484 0.0033573864 0.011383634 0.0047808997
0.0103651285 0.06299873 0.0113502275 0.043098588 0.017105164 -0.0042256988 0.009404337 0.010068904
-0.04187761 0.004026119 -0.05780592 -0.034799248 -0.017385464 -0.0025011795 0.0013461263 0.023438986
0.026636088 0.023083739 0.06432968 0.01833624 -0.020634437 -0.004063879 0.007028339 -0.010552979
-0.025974434 0.0027150265 0.010818876 0.02603078 0.032461733 -0.013327636 0.055933356 0.005254377

bias f4 [32]
00000000: 0fc2 c4bc ace0 bd3b 1558 e73c 0520 fcba
00000010: 60e6 21bd bca2 03bd 2218 303d 3fdb 45bd
00000020: d329 153d a48d 5abc be5c f6bc 7e6f 4abd
00000030: 1980 abbb 4a79 243b 2fab ac3c 0dbb 4b3c
00000040: 62ed 603d 7908 0d3d c50c bb3c 158a 1dbc
00000050: b7af 2cbd 1b5a 873c 2bd7 fe3c 87c7 243d
00000060: 40ad 263c b816 28bd d071 2fbd e72b aabb
00000070: 8f2c 2bbd e136 32bd 4059 20bd 818d 0c3d
-0.024018316 0.0057946052 0.028240243 -0.0019235617 -0.039526343 -0.032137617 0.042991765 -0.048304792
0.03641684 -0.013339434 -0.03007352 -0.049422733 -0.0052337763 0.0025096708 0.02107772 0.012434733
0.054913886 0.03443191 0.022833237 -0.009615441 -0.042159762 0.016522458 0.03110846 0.040229347
0.010173142 -0.04103729 -0.04283315 -0.005193222 -0.04179054 -0.043509368 -0.039147615 0.034314636

weight f4 [32]
00000000: 4fe3 723f da7e 793f 9f34 5e3f bbb4 7c3f
00000010: 42c9 703f 343f 863f e336 583f 53d3 733f
00000020: 6f55 793f 7aa4 633f 4968 533f 5464 743f
00000030: 000b 633f cf2e 4d3f b66f 6c3f f3c8 873f
00000040: 90bb 8a3f 1e45 773f 2c72 753f 1f63 7e3f
00000050: 73b6 773f 1e5f 743f 56c3 813f 8435 7b3f
00000060: 79b9 5f3f 6a6d 623f 9c87 863f 3167 793f
00000070: b8ca 743f 3b87 843f 54b7 7c3f 68bb 793f
0.94878095 0.97459185 0.86799043 0.9871327 0.94057095 1.0488038 0.8445875 0.9524433
0.97395986 0.88922846 0.82581 0.9546559 0.8868866 0.8014955 0.9235796 1.06082
1.083849 0.9658984 0.9587734 0.99369997 0.9676277 0.9545764 1.0137737 0.98128533
0.87392384 0.884482 1.0510135 0.9742308 0.95621824 1.0353769 0.98717237 0.97551584

bias f4 [32]
00000000: c301 c93e a8f1 e63e dea9 1b3f 74f9 843e
00000010: 6482 103f 150e 3a3e c36a fe3e 8fba 923e
00000020: 85dc cb3e 69db c63e 0e45 c33e 3f3d bc3e
00000030: 7f60 da3e a076 ed3e 7ea8 963e 56cf af3e
00000040: e8df b13e 36ad 653e b99c 2d3e 6065 103f
00000050: 932e a93e 7df2 4c3e 00da 393e d4eb 40be
00000060: f91c 0e3f aa66 a83e 3db7 8a3e 9256 053f
00000070: 1c23 d23e 2683 45bd 51c0 2c3e 3e35 033e
0.39259157 0.45106244 0.6080607 0.25971568 0.5644896 0.18169434 0.49690828 0.28657958
0.3981668 0.38839272 0.38138622 0.36765477 0.42651746 0.46379566 0.29425424 0.34337872
0.3474114 0.22429356 0.16954316 0.56404686 0.33043346 0.20014377 0.18149567 -0.18839961
0.5551296 0.32890826 0.27092925 0.5208522 0.4104241 -0.048220776 0.16870238 0.12813279

running_mean f4 [32]
00000000: a9b2 ae3f 8caf 81be ea19 0dbf 2251 26bf
00000010: 13f2 8e3d eaad 933f bcb0 f0bf fa36 a1bf
00000020: b443 bbbe 8464 9dbf 7963 16bf a23f f0bf
00000030: 2fd4 4ebf 8579 51bf 6e07 8cbf 9e65 543e
00000040: 78f1 0740 c205 04bf e92e 4abf 4378 a53f
00000050: ef10 26bf 8657 043d 832a 65bf 702c 47bf
00000060: 4a95 a4bf 8d02 97bf cec5 02c0 08ce b5bf
00000070: 8caf 1bbf 7cd8 983f 73ea edbe 3b91 6fbf
1.3648273 -0.25329244 -0.55117667 -0.6496755 0.06979766 1.1537449 -1.8803935 -1.2594903
-0.3657509 -1.22963 -0.58745533 -1.8769419 -0.80792516 -0.8182605 -1.0939767 0.20741889
2.124113 -0.51571286 -0.7897783 1.2927326 -0.6486959 0.03231003 -0.8951799 -0.7780218
-1.285806 -1.1797653 -2.043323 -1.4203501 -0.6081474 1.1941066 -0.46467933 -0.9358098

running_var f4 [32]
00000000: 7f59 6a3e 5cb9 4d3f 530b d73e 2db3 913e
00000010: 46d3 703e c557 e33e 35b5 b13e b9e7 d33e
00000020: e823 c73e 593d 723e c64f 773e be6b a63e
00000030: 0886 453e d189 e53d cd11 bc3e 100e 3a3e
00000040: 8dfb 183f e406 073e 68ab a53e bd2a ef3e
00000050: 94b7 b63e 520f c23e 4664 d83e 18b9 363f
00000060: b26b b93e 35d8 9e3e fc38 b53e dac0 0b3f
00000070: 908a 8f3e af2a 783e 991a 853e 2f24 063f
0.22885703 0.8036096 0.42000827 0.28457013 0.23518094 0.444029 0.34708562 0.41387728
0.38894582 0.23656215 0.24151525 0.32504076 0.1928941 0.11207927 0.3673233 0.18169427
0.59758836 0.13186222 0.32357335 0.46712294 0.35686934 0.37902313 0.42264003 0.7137618
0.36214978 0.31024328 0.35395038 0.54591143 0.28035402 0.24235032 0.25996855 0.5239896

weight f4 [32, 32, 3, 3]
00000000: a433 6abb 8880 d1bc 659e 25bb d007 ee3a
00000010: fae8 e0bc 8ae0 6c3c fe5c a5bc bb91 44bd
00000020: 50db 663b 6006 24bd 2e0d e3b9 3449 66bc
00000030: 9649 15bd 6a42 b4bc 9dba 84bd e1bc 8cbd
00000040: 9e54 34bd 9486 9abb 2759 afbc 8b25 5fbd
00000050: dfa5 6dbc 39c9 a93c 4bc2 473a 7c2b 0b3d
00000060: 7389 9fbb 4b2d e43c 29cb 243d 106c 633d
00000070: 1879 543d 4d81 53bc 0c54 7b3c 68f4 65bc
00000080: 16ce d9bc 3e54 07bc 394b 843c d0fb f6bc
00000090: fa5d b6bc 929e 0c3d 8624 d5bc 0af2 c9bc
000000a0: f763 133d c9f8 aabc 3dbc c13c fa45 803d
000000b0: c745 72bd 82f9 003c c735 b2bc ff38 7c3d
000000c0: eeba 12bd 1a5c 0ebd caf9 f9ba 697d 03bd
000000d0: 8f00 63bb 3757 39bd f9f9 273c 8776 453d
000000e0: 9496 0a3d 820a 58bb 9015 e2ba 8efe 613d
000000f0: 20f8 c6bc b4a6 97bb a89e 413b afd6 02bd
00000100: dab6 123c c226 3bbd 2819 ecbc 1ef7 6fbc
00000110: ef50 3abd a30e 3c3d 6f2e e13c dbf4 e4ba
00000120: ab9b 2f3b 35f0 cfbb e268 2e3b 5828 143c
00000130: 8b0a 1dbd e444 02bd 32f4 eb3c a29e 33bd
00000140: e3da 253c 9d21 023d 9c2d 373c c537 cb3c
00000150: 962a c2bb 27eb 85bc 5cb8 303d 4fb9 46bd
00000160: e22d 30bd 1184 e93b 2f3f 61bd 285c 96bc
00000170: 7ad5 143d 955b e2bc 7d15 8abb 6426 d1bb
00000180: 7fe1 b9bb a7e5 4abb ad62 b43b 1ebc d23d
00000190: 66fb b93d ab17 6d3d b4fa c43c b475 333c
000001a0: ffde 333b 55a2 cc3b 751b 143d 1f8c db3c
000001b0: c6aa 033d cf5f 71bc 9cf2 d93c f795 f0bc
000001c0: 1505 2bbd 84e5 19bd 7f10 3c3d 443d 72bb
000001d0: 9d3f 2abd aad5 6cbd fb82 50bd 4e4a 2abd
000001e0: 9972 23bd b704 a83c 6d76 20bd 7bbc 05bd
000001f0: ed6f 88ba 4876 24bb 27e5 45bc 238f 1bbc
00000200: 5125 76bc 3d54 bc3c 0b1b f33c 67df 1cbd
00000210: a8e6 283d fc45 963d be86 c5bc 9061 d93c
00000220: 6939 1d3d bee4 8f3d 7254 c53a 10a3 1d3c
00000230: f74a 743c 0225 863c 2d14 09bb 8108 4a3d
00000240: 4508 f73d 1c82 d33b f89d 71ba f8d9 193d
00000250: a999 7dbc f839 66bd 0d6f ba3d dc76 bebc
00000260: 98e1 eabc 5417 b43b e954 bcbb 2f60 e8bc
00000270: 1383 113d f924 403c fbac e03b c05a d4bc
00000280: c6ed 0abd 4314 92bc 234a 8cbc 7095 ac3a
00000290: 4e17 ecbc db57 dbba 5041 e1bb 9728 31bd
000002a0: 4b04 4cbd defa 26bd 9f52 c8bd 1bbc 253d
000002b0: 736a ea3c 9f92 b5bc be6f b53b 7439 423c
000002c0: 3c9c 4dbd 8a96 bf3d fc73 223d 6e76 07bc
000002d0: 29b2 bebd 61b5 4b3d b7de 483d 6004 b9bd
000002e0: ee86 9f3c a241 d3bc 91fc 1d3d 5234 313b
000002f0: 565d 74bc 36bf 20bd 2dca cabb 0669 453d
00000300: fa33 843c f0ae 903c a8b4 9b3c 09e8 1e3c
00000310: fff3 943b cadc 613c b1fd e6bb 3d39 213d
00000320: b7f8 943d cd2e b23c 6cb4 303d c966 f93c
00000330: ea52 2a3d efab 7e3d ca07 19bc ce17 f63c
00000340: 444b eebc dd34 cfb9 67c6 963c 3ca9 be3b
00000350: ec10 9f3b cdef 543d a24a 183d b557 df3c
00000360: 338f 14bd b296 ccbc 45a9 08bc b8d3 0abd
00000370: d834 cbbc 2b82 c73c 31d6 b2bc 4b1f 37bd
00000380: 18de 84bc c190 a2bd d8ae 05bd a4e0 eebc
00000390: 278e 10bd d6fe bebc 3a29 453d d1af 3dbd
000003a0: 79a2 87bc 1d6c fd3c dceb 18bd 7af8 13bd
000003b0: d912 edbd 0d29 9b3d deb7 82bc 0960 163b
000003c0: 455c 9f3d b3f5 883d f3de c53a a0d3 66bd
000003d0: 8e99 9fbc 0358 193c c4db 2dbd d3bd 34bd
000003e0: ec1b 99bc 6317 7c3d efe2 1cbd 8dd5 163d
000003f0: c82e b23a 765a 02bc 8aaa a8bc d175 54bb
-0.0035736347 -0.025573984 -0.0025271412 0.0018160287 -0.027454842 0.014457831 -0.020185944 -0.047990542
0.0035225935 -0.040045142 -0.00043306634 -0.014055539 -0.03644713 -0.022004325 -0.06480906 -0.06871963
-0.04402601 -0.00471575 -0.021404816 -0.054479163 -0.014504879 0.020725833 0.00076201995 0.033977017
-0.00486868 0.027853629 0.04023281 0.05552298 0.051873296 -0.012909246 0.015339863 -0.014035322
-0.026587527 -0.008259831 0.01614915 -0.03014937 -0.022261608 0.034330912 -0.026018392 -0.024651546
0.035984006 -0.020870583 0.02364933 0.06263347 -0.059148576 0.007871987 -0.021754159 0.061577793
-0.0358228 -0.034755804 -0.0019071635 -0.032102022 -0.0034637784 -0.04524919 0.010252469 0.04820874
0.03383501 -0.0032965248 -0.0017248858 0.055174403 -0.024288237 -0.004628027 0.002954403 -0.03194302
0.008954728 -0.04569126 -0.02882059 -0.01464632 -0.04548734 0.045912396 0.027487962 -0.0017467992
0.0026795666 -0.0063457736 0.0026612808 0.009042822 -0.038340133 -0.03180398 0.028802965 -0.043852456
0.010122987 0.031770337 0.011180308 0.024806866 -0.005925487 -0.016347481 0.04314457 -0.048516568
-0.043012507 0.0071263392 -0.054991897 -0.01835449 0.0363364 -0.02763156 -0.0042139874 -0.0063827503
-0.005672633 -0.0030959637 0.005504927 0.10289787 0.090811536 0.0578839 0.024045326 0.010953356
0.0027446148 0.0062449374 0.036158998 0.026800213 0.032145284 -0.014732315 0.026604943 -0.029368384
-0.041752893 -0.0375724 0.04591417 -0.0036962787 -0.041564573 -0.057820953 -0.050906163 -0.04157477
-0.03990421 0.02051006 -0.03917544 -0.032650452 -0.0010409333 -0.0025094915 -0.01207856 -0.009494576
-0.015023545 0.022989387 0.029675981 -0.03829899 0.041235596 0.07337567 -0.024112102 0.02653578
0.03838483 0.07026051 0.0015055074 0.009621397 0.014910451 0.016375069 -0.0020916567 0.049324516
0.12062124 0.006454719 -0.00092169596 0.037561387 -0.01547853 -0.056207627 0.091032125 -0.023250036
-0.028672025 0.005495945 -0.0057474268 -0.028366176 0.035525393 0.011727565 0.0068565584 -0.02592218
-0.033918165 -0.017831927 -0.017125195 0.0013167094 -0.028819706 -0.0016734557 -0.006874241 -0.0432516
-0.04980878 -0.04076659 -0.09781384 0.040462594 0.028615212 -0.022164641 0.0055370023 0.011854518
-0.050197825 0.09354885 0.039661393 -0.008267982 -0.09311325 0.049733523 0.049040522 -0.090340376
0.01947352 -0.025788132 0.038570944 0.0027039242 -0.014914831 -0.039244853 -0.006188652 0.04819586
0.016138066 0.017661542 0.019007042 0.009698876 0.004545688 0.01378555 -0.0070492853 0.039361227
0.07274001 0.021750832 0.043140814 0.03044452 0.04158298 0.062175687 -0.009340236 0.030040648
-0.029088624 -0.00039521503 0.018405152 0.005818514 0.004854312 0.051986504 0.03718055 0.027263502
-0.036269378 -0.0249742 -0.008341138 -0.033893317 -0.024805471 0.024354061 -0.02183065 -0.044707578
-0.016219184 -0.07937766 -0.032637447 -0.029159851 -0.035291817 -0.023314875 0.04813502 -0.04631025
-0.016556965 0.030935341 -0.037334308 -0.036125638 -0.115758605 0.07576189 -0.015956815 0.0022945425
0.07781271 0.066874884 0.0015096351 -0.056354165 -0.0194824 0.009359363 -0.042445913 -0.044126343
-0.018690072 0.06154574 -0.03830236 0.03682475 0.0013594264 -0.007956138 -0.020589132 -0.0032418857

bias f4 [32]
00000000: 417c ccbc 526b 06bd cdc0 4dbd a0df debc
00000010: dde6 713d d7d4 4d3d 0615 e7bc 5ff2 43bd
00000020: bd1d fa3a eeb3 8ebc ad82 213d d6d9 de3c
00000030: bb46 263d c93d 03bd 49e1 013d eb47 2d3d
00000040: e723 263c 7e5b b1bd dbe8 5f3d 071f 553d
00000050: 3088 d6bc 5bbe 27bc 0864 683d 63f8 4a3c
00000060: 7f54 1fbd 427f 3bba 7ee6 f03c 6e3c fc3b
00000070: 1b70 24bd 3d6b 81bb 32d2 2b3d 01d0 afbc
-0.024961593 -0.032817192 -0.050232697 -0.027206242 0.05905806 0.050251808 -0.028208267 -0.047838565
0.0019082349 -0.017419782 0.039431263 0.027203482 0.040594798 -0.032041345 0.03170899 0.042304914
0.010140396 -0.08660029 0.054665428 0.052031543 -0.026187986 -0.010238255 0.056736022 0.012388322
-0.03889894 -0.0007152447 0.029406782 0.0076976335 -0.040145975 -0.0039495514 0.041948505 -0.021461489

weight f4 [32]
00000000: cd13 803f e31b 763f d962 623f 2a71 6d3f
00000010: 54f8 6e3f db79 813f 9550 803f 9393 793f
00000020: ded8 813f 5967 7d3f aa99 7b3f ff0f 893f
00000030: af57 753f 2529 6a3f 0d89 733f 9767 713f
00000040: 0135 773f 633c 6e3f d6b3 823f 00b0 753f
00000050: 4ea9 7f3f 518e 763f fdde 703f 9741 723f
00000060: 228a 703f c644 7c3f e42b 883f 9274 793f
00000070: 3a2b 6d3f 5708 673f e974 813f 909d 7b3f
1.0006043 0.961363 0.8843208 0.927508 0.9334767 1.0115312 1.0024592 0.97490805
1.0144308 0.9898582 0.9828135 1.0708007 0.9583692 0.9146903 0.95131 0.9429869
0.9656525 0.9306089 1.0211132 0.9597168 0.99867713 0.9631091 0.94090253 0.9463133
0.93960774 0.9854244 1.0638394 0.974435 0.92644083 0.902471 1.0113803 0.98287296

bias f4 [32]
00000000: 403c 833e d52b bc3e 6578 b93e 62b5 a33e
00000010: 84bd a03e d70e 01bd 8d15 a83e 0b22 3e3e
00000020: e761 253e 1f3e 913d 1986 d93e b4d0 993d
00000030: d5c4 da3e 8310 c23e 55b1 f83d 4d54 083e
00000040: b6ab df3e 3419 153f 65f9 d6bd a2c7 fc3e
00000050: 7bed 1a3e 3176 f63e 2cdf f73e 009f d73e
00000060: 2f43 2b3f 9c05 be3e 4538 e43d 2480 313e
00000070: 3985 033f 40d7 f53e 2f04 a03e f48b c43b
0.25631905 0.3675219 0.36224666 0.31974322 0.3139459 -0.031508293 0.32828942 0.18567674
0.16150628 0.07091927 0.4248512 0.0751051 0.42728296 0.37903222 0.121431984 0.13313408
0.43685693 0.5824158 -0.10496787 0.49371058 0.15129654 0.48137048 0.48412454 0.42113495
0.6689939 0.37113655 0.11143545 0.17334038 0.51375157 0.48015785 0.31253192 0.005998129

running_mean f4 [32]
00000000: d247 c8be 9ffb 13bf 82f7 9e3e c9d3 423f
00000010: 6da7 933e d0b2 953f 8e12 57bf e0a3 47be
00000020: 48cb 8ebf c714 143f 05cf d9bd 3917 bebf
00000030: 64fe f2be c5d4 58be 3131 5c3e 066c 57bd
00000040: 309d 21bf 5c70 1e3f f818 7cbb def9 903f
00000050: 1bd1 0bbf 608f 013f aa22 e1bc 61c7 24be
00000060: 24f5 a0bf 04fe 2c3f 7772 7a3e 7013 46be
00000070: afd4 95bd 3f48 30bf fad3 a83e 919a 423f
-0.39117295 -0.5780582 0.31048208 0.7610441 0.28838673 1.1695194 -0.8401269 -0.19496107
-1.1155787 0.57844204 -0.10635189 -1.4850837 -0.4745971 -0.21174915 0.2150314 -0.052593254
-0.63130474 0.61890197 -0.003846703 1.1326253 -0.54615945 0.506094 -0.02748235 -0.16091682
-1.2574811 0.675751 0.24457727 -0.19343352 -0.07315957 -0.6886024 0.32974225 0.760171

running_var f4 [32]
00000000: 75da 493e 2c94 a43e 5959 593e 4234 973e
00000010: 4802 343e 9c30 df3e a280 f03e 8e95 b03e
00000020: 2770 a93e 1dd0 5a3e 2534 723e ae8d 633f
00000030: a88b a53e 7b5e 703e 4caa 633e 3922 fc3e
00000040: b612 a33e 3cd6 a23e 69d8 613e c7eb c03e
00000050: 8d63 b13e 03ea 973e ce9a 6b3e 7e62 203e
00000060: acbd fc3e c7f6 773e 7a1d 0c3f 850d 013e
00000070: 85fd 473e 3e5a 9b3e 4d75 f93e 0f2e 813e
0.19712241 0.32144296 0.2122549 0.29532057 0.17578995 0.43591774 0.4697314 0.344891
0.33093378 0.21368451 0.23652704 0.8888806 0.32333112 0.23473541 0.22232932 0.4924486
0.31850213 0.31804073 0.2205521 0.37679884 0.34646264 0.29670724 0.23008272 0.15662572
0.49363458 0.24215232 0.5473248 0.12602814 0.19530304 0.30342287 0.48722306 0.25230452

weight f4 [32, 32, 3, 3]
00000000: e473 e7bc e93e 443d f46a 103d 526a 11bd
00000010: 2bb4 753c 917d f63c 9de4 64bd 8438 c3bc
00000020: aab7 903c a5e6 733d 659f 05bc 3125 11bd
00000030: dde3 603c aa26 00bd a067 dabc 479e e3bd
00000040: e230 9bbd 66ed 05bd bf24 b6bc 3f27 23bd
00000050: 71e5 6bbd ec21 2abb 9157 e7bc e162 00bc
00000060: a051 c53c 2285 d33c 827c 7e3d aae7 993d
00000070: bf7a c63b 3786 ca3c a734 af3c 34b6 b2bc
00000080: f45a 0cbd bd33 113b 6f65 e53b c6ff 00bd
00000090: 9f16 71bc 14d2 9cb9 f559 883d 7149 0a3c
000000a0: f7db c83b 3804 d03c 041c 35bd 2af0 893b
000000b0: 082c 913c fc44 213d a6db 5e3d 06d3 8f3d
000000c0: 3401 05bc ac83 a8bc b1cd d0bc a29d 4ebd
000000d0: d4ee 413c d1ff ebbc a0ce 8c3c e254 97bc
000000e0: 6024 90bd a7c5 683d 81eb a73a ef3d 9abd
000000f0: 55fc 423a 8fc1 c0bc 7c71 8d3b 47cf e2bc
00000100: 3ce7 9a3c fce8 e53c 75e9 71bd ebff cbbc
00000110: 33cf 35bc 8acc 553b 77cf 543d c406 983c
00000120: 8c0b 9b3b b753 2e3c 1136 323d ba86 243d
00000130: 55cd 133d 4fe5 083d e784 963c 3e08 2a3d
00000140: 7dd6 043d 43a0 9339 cd46 303d 9427 1d3d
00000150: c3ce 22bd 5211 e13c 99cd 6b3d 4e9a 05bd
00000160: 7d30 c6bd c5ca eebc e386 acbb a748 c0bc
00000170: 0b05 333d 31b5 7d3d d25c abbc ee17 3f3b
00000180: 7732 813d 32f3 ecbc 6bc1 03bd 2d35 0c3d
00000190: a6ac 2e3d 56c4 063d 3d88 733d acc1 ae3b
000001a0: 5767 01bd 33f5 853d faee 20ba a2d3 92bc
000001b0: 48e8 02bd 5eab 5abd 3f36 013c eee9 df3c
000001c0: 0cc3 fabb 79f7 54bc f8ce f53c b7a0 6b3d
000001d0: 18ea a13d 00e3 1e3c 7901 5eb8 1d99 2f3d
000001e0: 691f d7bc c0d4 1c3d 9e0d 463d 48a8 79bc
000001f0: fb06 65bd 5b27 78ba 324c c4bc cda1 25bc
00000200: 87cd 8b3c fa27 cfbc d59e 01bd 3892 79bb
00000210: ea42 47bd fa1b 533c 5a9e 853b 3352 13bd
00000220: 6f3d c5bc 07c5 043b 8780 1c3c ac1d 803b
00000230: 45ef f33c 57b7 b63c af19 b03c 6e87 413d
00000240: 4667 143d ba2a 6dbc 2ed9 973c 9340 843c
00000250: 6861 023d 9a6b 343d 0ca4 7f3c c449 ffbb
00000260: 4037 2abc 2df0 f43d f2f7 ad3c 8da6 923d
00000270: 7e3d 153d 3bbc 333d cb9f 3b3d fffc 573d
00000280: d6d8 98bc 057d a5bc 54fe 193d 9c44 c63c
00000290: 985e 263d 1dd7 12bc 829c 96bc c7e7 453c
000002a0: 181a 18bd 9fe4 24bd 682e 243b 6ec3 c3ba
000002b0: 77a3 24ba b019 59bc 2859 19bb 308c 153d
000002c0: d6f4 c73a 75d7 c33b 7c4c e03b 87d4 22bd
000002d0: 2cec 68ba a4c2 06bd 01d2 253d 255b b0bc
000002e0: 6cd8 e3bc 0216 3a3c 4b63 2a3d 8470 17bd
000002f0: 3849 853c 173d c83c d723 25bd 0cbc 8ebd
00000300: 248a f63c 0e3f 403c fde7 83bd 2f55 543d
00000310: 4934 963d bf41 b73d f3c4 02bd 2fa5 a53c
00000320: 0f9d e63c ec17 fdbc 954b 563c 27e5 633d
00000330: 5dac acbd 6b2f ffbc ab27 8d3b a78e bd3c
00000340: e857 f73c 691e 7a3d df9e 91bc 2a72 4abd
00000350: 2547 60bc 7755 4ebc 7417 53bc ae97 86bd
00000360: e8d6 d2bb 2539 6b3d 1a0b fdbb f670 f9bc
00000370: 1761 703d 80db f1bb 58a4 813c d4c8 52bc
00000380: d31a 49bd c791 303d 30e7 583d d502 bc3c
00000390: b3c9 febb 9f81 cd3a 738f c6bc b8ce 59bc
000003a0: c139 ff3c 0350 08bd e7ab 183b 25cc cebc
000003b0: b415 45bd c254 7f3d 93ee c4bb d198 16bd
000003c0: c387 8d3d 6429 d73a 9ebc 623c 5da4 acbc
000003d0: 9fb0 b93c 11c0 14bd 9eb7 8cbd 81f8 7dbd
000003e0: 863d d9bc eaf0 253d 448c 413c aa54 353d
000003f0: 90c3 4b3d d73c d23a 0470 17bd ff88 7b3d
-0.028253503 0.04791156 0.03525825 -0.035501786 0.014996569 0.030089172 -0.055882085 -0.02383066
0.017665703 0.05954613 -0.008155678 -0.03543586 0.013726202 -0.031286873 -0.02666074 -0.111141734
-0.07577683 -0.032697104 -0.022234319 -0.03983235 -0.05759186 -0.002596016 -0.028239997 -0.007836075
0.024086773 0.025820319 0.06213046 0.075148895 0.006057113 0.024722202 0.021387411 -0.021815397
-0.034266427 0.0022156083 0.007000617 -0.031493925 -0.014714866 -0.0002991116 0.06657783 0.008440361
0.0061297375 0.025392637 -0.04421617 0.004209538 0.017721191 0.03937243 0.05440869 0.070226714
-0.008117963 -0.020570599 -0.025488706 -0.0504433 0.011836726 -0.028808506 0.01718837 -0.018473092
-0.07038188 0.05682912 0.0012811275 -0.07531344 0.0007438113 -0.023529796 0.004316507 -0.027686728
0.01890909 0.028065197 -0.059060533 -0.024902305 -0.011096763 0.0032623135 0.051955666 0.018557914
0.004731601 0.010640076 0.043508593 0.040167548 0.03608449 0.03342181 0.01837392 0.041511767
0.032431114 0.0002815743 0.04303627 0.038367823 -0.039747965 0.02747408 0.05756912 -0.03261786
-0.09677217 -0.029149422 -0.005265103 -0.023472143 0.04370598 0.061940376 -0.020918284 0.002915855
0.063084535 -0.028924558 -0.03216688 0.0342304 0.04264512 0.032902084 0.0594561 0.005333146
-0.031592693 0.06540909 -0.0006139126 -0.01792318 -0.031959802 -0.053386085 0.007886468 0.027333226
-0.007652646 -0.012998455 0.030005917 0.057526316 0.07905978 0.009697676 -5.2930296e-05 0.04287063
-0.026260095 0.03828883 0.04835283 -0.015237875 -0.05591486 -0.00094663136 -0.023962114 -0.010109377
0.017065777 -0.025287617 -0.031645615 -0.0038081538 -0.0486478 0.012885088 0.004077715 -0.035967063
-0.024077145 0.002025904 0.009552128 0.003909787 0.029777179 0.02230422 0.021496622 0.047248296
0.0362313 -0.014475519 0.018536177 0.016144073 0.031831175 0.04404793 0.015603077 -0.007790776
-0.010389149 0.119598724 0.021236394 0.07160673 0.036435597 0.043880682 0.045806687 0.05273151
-0.018658083 -0.020201216 0.03759606 0.024202637 0.040617555 -0.00896242 -0.018385176 0.012079186
-0.03713426 -0.040257093 0.0025052074 -0.0014935562 -0.00062804617 -0.013250753 -0.0023399089 0.036510646
0.0015255462 0.005976612 0.006845055 -0.039753463 -0.000888529 -0.032900468 0.04048348 -0.021527836
-0.027813159 0.011357786 0.0415986 -0.036972538 0.016270265 0.024443192 -0.040317383 -0.06969461
0.030095167 0.011733783 -0.06440733 0.05183905 0.07334191 0.08948087 -0.031926107 0.020220367
0.028151063 -0.030895196 0.013079544 0.05563846 -0.08431313 -0.03115054 0.0043077073 0.023139311
0.030193284 0.061064158 -0.017775951 -0.04942528 -0.013688837 -0.012593619 -0.01288401 -0.06571899
-0.00643431 0.057427544 -0.0077222707 -0.030449372 0.058686342 -0.007380903 0.015825436 -0.012865264
-0.049097847 0.043107774 0.052954853 0.02295057 -0.0077755093 0.0015678889 -0.024238324 -0.0132939145
0.031155469 -0.03327943 0.002329582 -0.025243828 -0.0481164 0.06233669 -0.0060098856 -0.03676683
0.0691066 0.0016415534 0.013838915 -0.021074468 0.022667227 -0.03631598 -0.0687096 -0.06200457
-0.026518594 0.040512957 0.011813227 0.044270195 0.04974705 0.001603986 -0.03697206 0.061409947

bias f4 [32]
00000000: 2d93 0b3d c737 c939 5c3c b7bd 8020 b5bb
00000010: 46fa a93c d9ff dabc e16c 6a3c f85b 003d
00000020: 5ed5 093d d3b5 2f3d fd53 523c 9438 8cbd
00000030: 60ae 273d 6db3 523d 51ee 92bc fa6d 32bd
00000040: 53dc 533d 9191 a1bc 16cc a2ba 5711 ccbb
00000050: 5352 433c c3e0 6ebd f3a9 1ebd c15b 613d
00000060: 151e cf3b f9a5 4db9 0fcd eb3c b238 533d
00000070: e91a c13c 552e efbc c2b0 cabc 27f4 c53c
0.034075905 0.00038379265 -0.089470595 -0.005527556 0.020749222 -0.026733326 0.014308185 0.03133771
0.03365075 0.04289801 0.012837407 -0.06846729 0.04093778 0.051440645 -0.017935904 -0.043561913
0.05172379 -0.019722732 -0.0012420441 -0.006227653 0.011921483 -0.05831982 -0.038736295 0.055019144
0.0063207247 -0.00019612153 0.028784303 0.05156774 0.023572402 -0.029196898 -0.024742488 0.024164272

weight f4 [32]
00000000: 40d0 833f 9979 873f 047c 8e3f 4f71 833f
00000010: 86b0 8e3f 6e23 883f 0621 6e3f 60f4 8b3f
00000020: 985a 7d3f 2d16 823f fbb3 873f 36d7 943f
00000030: 798a f83f 9c41 803f 0515 833f b049 8d3f
00000040: d448 873f ce06 803f 9820 9f3f 24c3 843f
00000050: 439a 8e3f a84f 883f d184 893f 8a21 853f
00000060: a4dc 813f 7f63 8b3f 1f82 7c3f cb9c 8f3f
00000070: 6c26 823f 8af5 773f 7514 813f 1d38 7c3f
1.0297928 1.0583984 1.1131597 1.0268954 1.1147621 1.0635812 0.9301914 1.0933952
0.9896636 1.0163018 1.0601801 1.1628177 1.9417259 1.0020022 1.024079 1.1038113
1.05691 1.0002077 1.2431822 1.0372052 1.1140827 1.0649309 1.0743657 1.040086
1.0145459 1.0889739 0.9863605 1.1219724 1.0167975 0.9685904 1.0084368 0.9852312

bias f4 [32]
00000000: ae74 113e 3607 99bd 0aff 0c3e d4f7 863e
00000010: 6a57 d4bc eac1 343e cfae aebe 5b72 c4bc
00000020: 5a64 383e 4093 0e3e d96d 033e 6b7c 92bd
00000030: 1871 b13f e957 fe3d 3bbd 9ebd 1001 1d3e
00000040: 4f70 9b3d a797 f3bd 60c6 65be 0ffe 5ebe
00000050: 82b8 53bd bee2 303e 2623 bb3d 84d8 13be
00000060: 3588 f1bd 1ac0 9cbd 78c1 adbe fd31 94be
00000070: 6e32 d23d eb60 b1be 5964 203e 801c b5be
0.14204666 -0.074720785 0.13769165 0.26360953 -0.025920589 0.17652097 -0.34117743 -0.02398031
0.18007031 0.13923359 0.12834872 -0.07152637 1.3862638 0.12419111 -0.077509366 0.15332437
0.075897805 -0.1189416 -0.22438955 -0.21776603 -0.051689632 0.17273995 0.091375634 -0.14438063
-0.117935576 -0.07653828 -0.33936667 -0.28944388 0.10263525 -0.34644255 0.1566328 -0.35373306

running_mean f4 [32]
00000000: e83d 133f 9d90 153f 6aee 6c3b 783a 9ebb
00000010: 163f 27bf 7c6f e33e 2ea5 eebd 8a6f 393e
00000020: 1314 423f b30d 393f 5a11 5cbe b91e 4ebe
00000030: fc55 a3bd 3eef 243f 000a 3fbd e86e 9e3e
00000040: c450 99bf 9b11 4dbe 62d8 c53e 7b39 99be
00000050: cef2 16bf b942 9abe 2bab dc3d b915 9bbe
00000060: 5654 a8be f858 fbbe 9125 48bd 0d94 bbbe
00000070: 6255 c3be 82d1 a43e 2c76 2e3f 2db5 d4bc
0.57516336 0.5842379 0.0036152848 -0.0048287474 -0.65330637 0.44420993 -0.11652599 0.18108955
0.7581188 0.7228653 -0.21490994 -0.20128907 -0.079753846 0.64427555 -0.046640396 0.3094399
-1.1977773 -0.20026247 0.3864165 -0.29926667 -0.5896424 -0.3012903 0.10774835 -0.3029001
-0.32876843 -0.49091315 -0.04886395 -0.3663639 -0.3815108 0.32191092 0.68149066 -0.025965298

running_var f4 [32]
00000000: 43a4 5b3e ead5 923e 384b a93d 2124 c93d
00000010: 525c 4e3e 5064 2e3e 2ef5 ad3d ff9c 363e
00000020: 845a bb3e a63b aa3e 3423 4f3e 1a4f 813e
00000030: 2bd0 f93c 08a7 483e 3aac 9e3d 0a2d 873e
00000040: aaa2 043f e8cd bb3d fbad d63d 00d9 073e
00000050: 8c38 9d3e fcea e83d 6c03 543e 9587 843e
00000060: c527 773e 257c 123e f31f 783e 1cdf 783e
00000070: e7dd 3d3e 4667 c33d 0ba9 7e3e 4a2a ee3d
0.2144938 0.28678828 0.082663 0.09821344 0.20152405 0.17030454 0.0849403 0.17833327
0.36592495 0.33248633 0.20228273 0.25255662 0.03049477 0.19594967 0.07747693 0.2640155
0.51810706 0.09170133 0.10482403 0.13266373 0.30707204 0.11372945 0.2070443 0.2588469
0.24136265 0.1430517 0.24230938 0.2430386 0.1854168 0.09541182 0.24869172 0.1162916

weight f4 [1, 32, 3, 3]
00000000: f40a f3bc e622 c83c 41eb ad3c cc29 cbbc
00000010: e63e 99bd 844b 15bd fff7 cabd 55c4 74bd
00000020: 16bc 3d3c a5d0 26bd 1c15 47bb 3e4d d0bc
00000030: dad1 b4bd 7c35 a0bd 130e 5ebd fc9b 5bbd
00000040: 53ff 52bd 6b12 61bd addd 4ebd a8ff 523d
00000050: b3c5 f53d fd0b 93bd 1c84 8f3d f0ab 933d
00000060: ddd7 cbbd cca6 8c3c c017 563d ecfa 263c
00000070: 580a 5c3d 51e2 ee3d a599 80bc 6a5d 813c
00000080: 1717 693d 8e01 23bc 975e d6bc dfe1 2d3d
00000090: 9997 03be ced5 d0bd 6b32 d0bd 47a7 acbb
000000a0: 4bf8 d23c 9657 46bb 17c2 0f3c 1d6d 293a
000000b0: 5c76 1a3c 381d 113d b0a2 583c 53b8 3abd
000000c0: 83d3 ac3b 1f41 b43c daf9 f7bc 620d 65bd
000000d0: 8906 73bd e6ae f9bd 92d2 723d 8a7e 493d
000000e0: 5f8c d83c ac1f 453c e85d 123d 401a ccbc
000000f0: 179c 2b3d ff82 473d ae12 b0bc 2d01 eebd
00000100: 5679 adbd 8eab 9fbd 3de8 42bd 927e 82bc
00000110: db14 83bc f0ed 97bd b930 b5ba dadc 2fbd
00000120: 8716 88bd ec49 883c e446 9abc 9334 fdbc
00000130: 1148 3abd a827 c4bb d39d 45bd 2160 c4bc
00000140: 6c19 14bd 40f3 f73c fd62 533c 70e1 8dbb
00000150: 5756 393d 4aec 023d 791d 3cbc 61ab a63d
00000160: 1751 c73c 295d 8f3c 93b7 f2bc d27b 5bbd
00000170: edb6 49bc 3ccf 61bd c739 13bd e2ac 6b3c
00000180: 58e2 e1bd 366e 43bd 656a 8dbc 5511 ecbd
00000190: b881 dabd 3d57 8838 ee05 67bd f718 52bd
000001a0: 42b8 b03c 38a0 7abd 9b5c 073d e4fa bf3d
000001b0: ca63 00be 213a 543e 00a5 5e3e b84b 12be
000001c0: 74c9 703e 268f 803e 7756 ffbe 78f8 fabd
000001d0: f476 febd d70b a53c 0441 613c 5561 793d
000001e0: 4b2d 443d 6c10 98bc b760 9dba a6fa 263d
000001f0: c67b ad3c 323e 543d c6c6 25bd a89b 16bd
00000200: b8ea e63b 0003 1dbd 28c3 36bd cc57 993c
00000210: b8d8 c4bd 4dbb 5cbd 3f95 53bc 5f6c 343d
00000220: 754b cd3d eccb a13d 2082 3b3d 2f2b 473d
00000230: 8e68 803d 7dc3 a5bc 1396 933c a7b6 523d
00000240: 9379 e3bd 296a a0bd 1bfc 88bd 68ef 96bd
00000250: a87c 32bd 6aac 263c 39bd 13bd 9047 b2bc
00000260: 49d7 44bd ccd2 9cbb 7e69 5c3c 1f33 c4bc
00000270: a608 ae3b 5a2e 9bbb 4a43 873c d1ce 52bd
00000280: 940b 4abd c45f 75bd 3e46 b23d 0148 853c
00000290: ee81 edbd 257d b93d f4ef d8bc 316b 26be
000002a0: 75c4 b43d 9ab1 eebc 0174 23be c661 613c
000002b0: 0e23 b6bc 2e24 563d d70e 003d 8290 12bd
000002c0: d7a2 e6bb 5c7f bbbc ae90 333c 3a03 88bc
000002d0: bb69 f8bd 60b8 abbd f6b0 f4bd 186e 0fbe
000002e0: acc0 f9bd fc61 6bbd 4f1a e4bd 5189 cbbd
000002f0: d8a9 b5bd 694a a3bd 8029 d2bd 2aa1 803d
00000300: e7ed 1bbd 1b5b d0bd 9237 1d3c ced0 f9bb
00000310: 29fa 06bd 3f3c 013e 2d2b 55bc 4d5e b7bd
00000320: e204 5ebd f93c b53b 2856 85bd d07d 0cbd
00000330: 5141 1fbc 4aca 6cbd 98fc 2ebd 88ac 9b3d
00000340: 89a0 293d e564 ea3c 978b ae3c 0bbf 6d3d
00000350: 5a46 113c c4f9 0f3d 85ac c63c 5133 763d
00000360: 570d 81bd e442 13bd bede 94bc a2b2 9aba
00000370: 42cc 9cbc 41b6 55bd 30a0 3bbd bb12 a73c
00000380: 326f ccbc 8e2f f73b 3f84 2a3d a5b6 3b3d
00000390: bd46 bcbd e535 91bd 8802 71bd f5cb cbbd
000003a0: feec c5bd 90b4 e0bc 402b 75bd 5908 9dbc
000003b0: 2d39 8bbc 0086 0bbd 0400 5dbd 45f8 4ebb
000003c0: 0b7c d1bc 433d 71bd f9b8 c7bc 472a 003d
000003d0: e9a3 243b 0568 083e d74f 28bc 8c42 f2bc
000003e0: 8aad f13d 2bea 693c 64f8 a0bc 6bcf c63d
000003f0: 5cfb b9bd eb1d 87bd f78c 6fbd 7386 f2bb
-0.029668309 0.024430703 0.021230342 -0.024800204 -0.074827 -0.03644897 -0.09910583 -0.05975755
0.011580488 -0.040726323 -0.0030377572 -0.025427457 -0.088290885 -0.07822701 -0.05421264 -0.053615555
-0.051513027 -0.054949205 -0.050504375 0.051513344 0.12000599 -0.07180021 0.0700762 0.07210529
-0.09953282 0.017169379 0.052268744 0.01019166 0.053720802 0.1166426 -0.015698263 0.015791614
0.056906786 -0.009949101 -0.02616815 0.042451736 -0.12850799 -0.1019703 -0.101658665 -0.0052689645
0.025753161 -0.0030264608 0.008774302 0.00064630975 0.009427633 0.035428256 0.0132223815 -0.04558594
0.0052742376 0.022003708 -0.030270506 -0.055920966 -0.059332404 -0.12191562 0.059282847 0.049192943
0.026434122 0.012031477 0.035734087 -0.02491486 0.041896906 0.048708912 -0.021493282 -0.11621318
-0.084704086 -0.07796393 -0.04758476 -0.015929494 -0.016001156 -0.0741843 -0.0013823725 -0.04293523
-0.06644922 0.016636811 -0.018832631 -0.030908858 -0.045478884 -0.0059861727 -0.048246216 -0.02397162
-0.036157057 0.030267358 0.012902019 -0.0043298528 0.045248356 0.031963624 -0.011481636 0.08138157
0.024330659 0.017500477 -0.02962855 -0.05358488 -0.012311679 -0.055129275 -0.035943773 0.01438448
-0.110295 -0.047712527 -0.017262647 -0.11526743 -0.10669273 6.501235e-05 -0.05640214 -0.05129334
0.021572236 -0.061187953 0.0330473 0.093740255 -0.12538067 0.207253 0.2174263 -0.14286697
0.23514348 0.25109214 -0.49870655 -0.12254423 -0.12425032 0.020147247 0.013748411 0.06088384
0.047894757 -0.018562518 -0.0012006973 0.04076638 0.021177184 0.051817127 -0.04047277 -0.03676954
0.0070470236 -0.03833294 -0.04461971 0.018718623 -0.09611648 -0.05388956 -0.012914001 0.044048663
0.10024158 0.07900223 0.045778394 0.048625167 0.06269942 -0.020234818 0.018015897 0.051443722
-0.11107173 -0.078327484 -0.0668871 -0.07369882 -0.043575913 0.010172943 -0.03606913 -0.02176264
-0.048056874 -0.004785871 0.013452886 -0.023950158 0.0053110896 -0.00473575 0.016511578 -0.051466767
-0.049327448 -0.059905782 0.08704804 0.016269686 -0.11597048 0.090570726 -0.026481606 -0.16251828
0.08826534 -0.029137421 -0.1596222 0.013756221 -0.022233512 0.052280597 0.031264152 -0.035782345
-0.007038455 -0.022887878 0.010959787 -0.016603101 -0.121295415 -0.08384776 -0.11947815 -0.14006841
-0.12194952 -0.057466492 -0.111378305 -0.099383004 -0.08870286 -0.07973177 -0.10261822 0.062807396
-0.03806868 -0.10173627 0.0095957685 -0.0076237684 -0.032953415 0.12620638 -0.013010782 -0.08953533
-0.054203875 0.00553095 -0.065105736 -0.03429967 -0.0097201625 -0.057810105 -0.04272136 0.07601267
0.041412864 0.028612563 0.021306796 0.05804352 0.008866871 0.035150304 0.024252186 0.060107533
-0.063013725 -0.035952464 -0.018172618 -0.0011802504 -0.019140366 -0.052175764 -0.045807064 0.020394674
-0.024955366 0.0075435108 0.041630026 0.04582848 -0.0919318 -0.07090358 -0.058840305 -0.09951011
-0.09664343 -0.027429849 -0.0598557 -0.01916902 -0.016995037 -0.03406334 -0.053955093 -0.0031581086
-0.025571844 -0.058896314 -0.024380194 0.03129032 0.0025122112 0.1332093 -0.010272942 -0.029572748
0.11800678 0.014277021 -0.019649692 0.097075306 -0.09081146 -0.06597503 -0.058484044 -0.0074012815
