TuiGAN/models/horse2zebra/a4.pth (torch, 131453 bytes, 25 tensors)

weight f4 [32, 3, 3, 3]
00000000: 0e85 82bc ed0b debc a769 61bd fe9e d33c
00000010: da8a 01bd ef9b 49bd bc49 713d 2ff7 6e3d
00000020: cc2a 04bb c306 f9bd 8c83 5fbd 5ffa 65bd
00000030: 1ce9 07bc 9aa8 8ebc f434 14bd 15fd 8c3a
00000040: 417b b13b c4ee 873b 262c f4bd d2f7 f3bb
00000050: be82 773c d120 333c f2c5 7abc 7418 723c
00000060: 596e 04bc a367 45bc a52e 6abc aa91 8bbc
00000070: 2745 48bc 778a 68bd 9c1c 8abb a7f4 abbb
00000080: a47f fabc 380b d0bc f25e 313b 23b7 5ebd
00000090: 1164 263d 1a28 033d 7eca 61bc dcca 793d
000000a0: d9fb 2c3d 691d f23c 82d7 c03c d497 ddbb
000000b0: 4328 d0bc a4bd bbbc c25f 2bbd 2ff0 ecbc
000000c0: 4474 03bd ab02 babc a4ba f9bb a4e7 343c
000000d0: c6b0 e3ba 5a23 903b 433e 223d f1af 953d
000000e0: d99b 763c 6b8c 013d e303 253d 3679 60bc
000000f0: db1e e6bc 702e 39bd 0a7b b5bd 3f19 dcbb
00000100: 6c21 cfbb 9b1a 60bc 085d 7a3c f31a fdbb
00000110: 597a b8bc d421 2bbd 9029 71bd d2cf a3bd
00000120: d58e 4ebd bcd4 a2bc 3024 60bd 4981 60bc
00000130: 73ed a43c a0e2 3abb 9d4f 14bc 4e09 353c
00000140: a690 c7bb 330a c1bc ae83 09bd 1fea 05bd
00000150: c476 9f3c d4d3 02bc b83a 4ebc 1afe 743d
00000160: c45c 893d f278 9d3c 5249 cdbc 6409 5cbd
00000170: 8b7c 14bd 449f 6ebb dbe3 9bbc ec54 ccbc
00000180: 6ff9 3b3d 86c9 2b3d 794d 783c bde4 c2bc
00000190: 1b7c 17bd 1e80 0ebd d46b 44bb d501 f0bc
000001a0: 6538 d7bc 3488 4c3d 58c7 963d fbf9 d63c
000001b0: 9d24 313c 44a5 cb3c 7ad9 cebc 43eb 113b
000001c0: 4752 dbbb 67ed a2bc 89e3 903d e743 5c3c
000001d0: 9ad3 373c 0777 243d acb7 733c 0166 4cbd
000001e0: 5c98 b13c 93e6 b63b ff94 c9bc 8f63 233d
000001f0: c1b5 d1bc 4b98 76bd 05c1 9c3c 3532 27bb
00000200: 3562 b9bd 76f7 183d 86e0 063c f7f3 f3bc
00000210: 7048 1c3c 848e c4bc a939 b3bd a4c1 8c3d
00000220: 3dac 943c db1d 1d3c 7f41 763d 8e54 28bc
00000230: 9985 3dbc df90 4ebc 1b81 08bd e8ed 17bc
00000240: de47 aa3d 03f5 7f3c 14a9 203d a582 3d3d
00000250: 4128 f3bc 688b 50bc f017 84bc 876e 0cbd
00000260: dc37 8dbc 6a6d a13d 60ee f23c 5908 673d
00000270: 3777 153d aae9 dbbc 5997 b63b c845 02bd
00000280: 224f bfbc 6820 e5bb 4fa7 32bc e0d8 d53b
00000290: 631b 7f3d 13de 243c a9a7 13bc f534 0dbd
000002a0: 20fe 11bc 6641 37bd 6513 d7bd 888a c4bb
000002b0: 53ce ec3b 4f3a 613d 8f96 0cbc c5ec 85bc
000002c0: 634f c7bc 2901 6d3c 7711 f4bc 9154 c8bd
000002d0: 1a69 903b b928 973c 1fc2 bb3c 186f 123d
000002e0: b252 ba3b 6f7e 7bbc cf0f b73d 5855 ea3c
000002f0: 1b2e 5dbd 8bac c13c 6f1b 5d3d 41e1 3c3d
00000300: 75e0 923c 28f1 75bb 058c 033c 3b5d 70bc
00000310: 6d6f 67bc 3150 33bd 1052 fd39 2784 e3bc
00000320: 90bb 7bbc 117c b03b 8dac c6bc 0487 b6bc
00000330: fd3f 09bd 2d64 48bd 305b 96bd 4963 843c
00000340: e6cf db3c a6f6 743d a64e 4a3b 91cc c23c
00000350: d126 903d 8a82 4abd 4cbe 8ebc 17ba 32bc
00000360: 9548 a0bd 21b6 e93b 5115 7a3d 7ab4 dcbc
00000370: 6f6e bf3c fe5e 3e3d 2864 89bd 227a dabc
00000380: 1a72 9d3c 41d3 6bbd fa9a 103b f989 093c
00000390: d23e 4bbd 7241 99bc 0ff2 b7ba 8449 babd
000003a0: 0da8 dfbc 15ba 94bb c8a2 86bd e3d3 9dbb
000003b0: 6b63 e93c b9bc 11bd 4e9a 18bd 9236 e2bb
000003c0: 4516 1f3d 1710 333c 8299 083d eee9 563d
000003d0: 72d7 31bc 270e 83bd a36b c53b 8555 e13c
000003e0: 2816 75bc 04b9 c8bc c3ba a2bb bf3a 9cbc
000003f0: 1e03 893c 8f42 f93b 3e07 8abd e153 85bc
-0.015932586 -0.027105296 -0.0550324 0.02583265 -0.03162656 -0.049220975 0.05890821 0.0583412
-0.002016711 -0.12159493 -0.054568812 -0.056146976 -0.008295324 -0.01741438 -0.036183313 0.0010756577
0.0054163043 0.004148336 -0.11922483 -0.007445314 0.015106855 0.010933117 -0.015305983 0.014776338
-0.00808295 -0.012048635 -0.0142933475 -0.017037231 -0.012223518 -0.056772675 -0.0042148363 -0.0052476707
-0.030578442 -0.025395975 0.0027064648 -0.05437387 0.040622775 0.032020666 -0.013781188 0.060984477
0.04223237 0.02955504 0.023540262 -0.006762484 -0.025409823 -0.022917576 -0.04183937 -0.028923122
-0.0320933 -0.02270635 -0.0076211262 0.011041556 -0.0017371408 0.0043987455 0.03961016 0.07308949
0.015051805 0.031628054 0.04028691 -0.013700774 -0.028090885 -0.045210302 -0.088613585 -0.0067168768
-0.006321123 -0.013678218 0.015280969 -0.00772416 -0.022519277 -0.041780308 -0.058877528 -0.07998623
-0.050429184 -0.01987683 -0.05472201 -0.013702699 0.020132756 -0.0028516427 -0.009052184 0.011049582
-0.0060902415 -0.023564434 -0.033572845 -0.03269398 0.019465812 -0.007985074 -0.012587242 0.059812643
0.06707147 0.01922271 -0.025059376 -0.053719893 -0.036251586 -0.0036410848 -0.019029548 -0.024942838
0.045892175 0.041940235 0.01515519 -0.023790712 -0.03698359 -0.03479015 -0.0029971497 -0.029297749
-0.026272008 0.04993458 0.073622406 0.026242247 0.010811952 0.024859078 -0.025250185 0.002226547
-0.006693158 -0.019888593 0.07074649 0.013443924 0.011219883 0.040152576 0.014875334 -0.049901966
0.021679096 0.005581686 -0.02460718 0.03988987 -0.025599362 -0.06020383 0.019135008 -0.0025512103
-0.09051935 0.037345372 0.0082322415 -0.029779417 0.009538755 -0.023993738 -0.08751232 0.068728715
0.018148536 0.009589638 0.060121056 -0.010274066 -0.011567497 -0.012607782 -0.03332625 -0.00927303
0.08314489 0.01562238 0.039223745 0.04626717 -0.02968228 -0.01272855 -0.016124696 -0.034285095
-0.01723855 0.07882197 0.029654682 0.056404445 0.036490645 -0.026844818 0.0055722413 -0.03180483
-0.023353163 -0.0069923885 -0.010904147 0.0065260977 0.062281977 0.010062712 -0.009012141 -0.034474332
-0.008910686 -0.044740103 -0.10501746 -0.0059979595 0.007226744 0.054987248 -0.008580818 -0.016348252
-0.024329847 0.014465609 -0.029793484 -0.09781755 0.0044070603 0.018452035 0.022919713 0.03575048
0.0056861276 -0.015349968 0.08938562 0.028605148 -0.053999048 0.023641845 0.05398124 0.046113256
0.017929295 -0.0037527774 0.008028989 -0.014670665 -0.014125687 -0.04377765 0.00048317062 -0.027772976
-0.015364543 0.0053858836 -0.0242522 -0.022281177 -0.03350829 -0.04892366 -0.073416114 0.016160624
0.026832532 0.059805535 0.0030869632 0.023779185 0.07038654 -0.049440898 -0.017424725 -0.010908625
-0.07826344 0.007132307 0.061055485 -0.026941527 0.023368089 0.04647731 -0.067085564 -0.026669566
0.019219447 -0.057574514 0.002206503 0.008394712 -0.049620457 -0.018707965 -0.0014033931 -0.09096053
-0.027301813 -0.0045387843 -0.06574017 -0.0048165186 0.028489789 -0.03558037 -0.03725653 -0.006903478
0.038839597 0.010929129 0.03334952 0.052469186 -0.010854589 -0.06399184 0.006024794 0.0275066
-0.014958896 -0.024502285 -0.0049661114 -0.019070981 0.01672512 0.0076068114 -0.067396626 -0.016275348

bias f4 [32]
00000000: 67a7 0bbe 5904 43be c66d 3fbe 64ab c9bb
00000010: b61f 343e 8db5 17be 0319 80bc bc7e e03d
00000020: 05cf 283e b7f2 39bd aa9b 3ebe 4daf 3a3e
00000030: 0915 3f3c 567c e93d ef1c 3e3d e357 a13d
00000040: 88a3 8f3d 0051 383e 1e13 08be b4eb 2e3d
00000050: 2690 323d a35f 19be 3f24 ebbd cfde d43d
00000060: 068d 4b3d e3ad a43c 82ee b5bd e5b0 f7bc
00000070: fa31 9ebd 6549 103d 07c5 98bd 4e09 e0bd
-0.13638078 -0.19044627 -0.18694219 -0.0061544646 0.17590222 -0.1481535 -0.015636927 0.10961673
0.16485222 -0.045397487 -0.18614069 0.18230934 0.01166273 0.11400668 0.046414312 0.07878091
0.07013613 0.17999649 -0.13288543 0.042705253 0.043594502 -0.14977889 -0.11481523 0.1039406
0.049695037 0.020102447 -0.088833824 -0.030235717 -0.07724376 0.035226244 -0.07459455 -0.10939275

weight f4 [32]
00000000: 7bbe 773f c52d 6d3f 16f5 703f 8afa 863f
00000010: c268 753f 97b9 713f 16c6 653f bbef 633f
00000020: c371 823f cd85 4a3f 9680 833f 6b85 6d3f
00000030: 42b5 3a3f 2141 3e3f dc7b 833f a234 893f
00000040: bf87 863f 4308 823f cccb 703f 961f 663f
00000050: 0caf 813f 984d 923f b5d7 643f b099 703f
00000060: d1b7 7d3f 7cc3 6a3f 9019 713f 8ed0 6c3f
00000070: ab44 693f d772 4c3f 1578 683f 1dbc 753f
0.96775025 0.92647964 0.9412397 1.0545208 0.9586297 0.9442381 0.8975538 0.89037675
1.0190967 0.79110414 1.0273616 0.92781705 0.7293283 0.7431813 1.0272174 1.0719187
1.0510176 1.0158771 0.9406097 0.89891946 1.0131545 1.142993 0.8939164 0.9398451
0.99108607 0.91704535 0.9417963 0.9250573 0.91120404 0.7986273 0.9080823 0.95990163

bias f4 [32]
00000000: 7b6c 333e 8dcd 4c3e e203 043e ea33 da3e
00000010: 5bd9 613e d1ab 243f 7577 1c3f 57fc 3f3e
00000020: 9e95 af3d b171 173f aa7a 4a3e b029 f93d
00000030: 0c1a bb3e fce3 973e e593 063f 9bc8 e43e
00000040: 2bba cd3d 067c 333e 0b0a 983e d7b6 bd3d
00000050: 48e4 653d 92af da3e 6b3e 043f d863 e0bd
00000060: f16c dc3c 4fb4 803e b4a9 1a3e d12a 283e
00000070: f237 e2bc 318b 4e3f f973 1f3f 61ac 703e
0.17521851 0.20000286 0.12892106 0.42617732 0.22055571 0.6432467 0.61119777 0.18748604
0.08573459 0.59157854 0.19773355 0.121661544 0.3654331 0.29666126 0.5256942 0.446843
0.10045274 0.1752778 0.29695162 0.092633896 0.05612591 0.42712075 0.5165774 -0.10956544
0.026907416 0.25137565 0.15103799 0.16422583 -0.027614567 0.8068114 0.62286335 0.23503257

running_mean f4 [32]
00000000: d55b dcbd 0fd5 3fbe bfdf 1ebe f07f 693a
00000010: 4479 5b3e 5b8e 28be f803 4ebd f66f cc3d
00000020: fcfe 323e 5549 3abd 91d7 52be 92d4 503e
00000030: 58c7 5cba 212c d73d f443 2abd 9ac8 513d
00000040: 0397 843d 44d5 273e de0a 5bbe 4b7f 5a3d
00000050: 6eda c03d 1134 f5bd 0f06 22be f433 633e
00000060: 2c61 083d 3f89 6f3d 0ea4 b1bd aaad 093d
00000070: efb2 81bc eafd 5fbd b1a3 7dbd 1757 10be
-0.10759703 -0.18733619 -0.1551504 0.0008907309 0.21432978 -0.16460554 -0.050296754 0.09982292
0.17480081 -0.04548009 -0.20590045 0.20393589 -0.00084220385 0.10506464 -0.04156871 0.0512167
0.06474116 0.16389948 -0.21390864 0.053344052 0.09416662 -0.119728215 -0.15822624 0.22187787
0.033295795 0.058480497 -0.08673869 0.033612885 -0.015832392 -0.05468551 -0.061923686 -0.14095722

running_var f4 [32]
00000000: 28a4 193d d49b 803b e735 9d3c dd87 573b
00000010: 2d34 a23b f76f 6e3c 6f4f b03b a666 203b
00000020: b3a7 ab3c e739 7e3b 77de 643b 5b2d 563c
00000030: a764 2a3a c10f d83a 5edb b53c b7ec b43c
00000040: 552b 9d3b 96ee e33b 78b1 233c c626 4a3b
00000050: 1848 763b 68bf 8f3c 610e 493b be28 9c3c
00000060: 1e1a 083c e7d5 d93c 0c17 cb3b 9519 813b
00000070: ddb5 913c 4c20 573b 860e d13b fe3a 213c
0.037510067 0.003924826 0.019190742 0.0032887377 0.0049500675 0.014553062 0.005380563 0.0024475246
0.020953989 0.0038791837 0.0034922638 0.013072337 0.0006499984 0.0016484187 0.022199329 0.02208553
0.0047964253 0.006955932 0.009991042 0.0030845865 0.0037579592 0.017547324 0.0030678737 0.019062396
0.008307008 0.026591254 0.0061978158 0.003939817 0.017786914 0.0032825647 0.006379905 0.009840725

weight f4 [32, 32, 3, 3]
00000000: b6d0 2ebc 59f6 cbbc bae3 0bbc d94d 5f3d
00000010: 90ff a23d 7a1c 153d f0ae 0abd b914 e039
00000020: f1ff c73c bb67 cbbc 86ef d9bb 3a4d 3cbd
00000030: eb83 9fbc 5fe0 3dbd 94c9 f1bb 93ac b2bc
00000040: c83d 5f3c 4e3e c63c 5a3d ad3c 47d1 893b
00000050: 5b15 f83c 627c 613d b597 193d 7df0 873d
00000060: 4d09 fcba 4d70 70bc 1cb1 9d3c c464 0c3d
00000070: c3c5 9b3c e8a2 633a 7a46 31bd cfaa 49bd
00000080: 93c2 f6bb 5f18 023d cc75 c13c 45db 673d
00000090: ce73 ceb9 82ea 9fbc 2247 edbb 9982 01bc
000000a0: 5055 03bd 4ca1 913a 2cd2 063b f4c2 1cbc
000000b0: b4bc 24bc 9bbb 25bd 65d3 eabc 8756 14bd
000000c0: 9854 ccbc b4b0 69bc 1d80 243c a5ef c3bc
000000d0: 6d78 a7bc d914 833c 9cf3 1ebd 9034 82bc
000000e0: 40e6 08bd dd8a 043d e691 893c 32a6 e9bc
000000f0: 69d5 70bb 675c 22bd a494 20bd e785 e6b9
00000100: 5662 a0bc bdc4 99bc 92e9 623c 5efd 30bc
00000110: 99b0 c63b d371 2e3c 78d3 ea3c acef 4ebc
00000120: 22cd 0abb 79be 06bc 2c66 e13c e4b2 953c
00000130: 194f ab3b bac8 afbc 71d9 24bc 710b 383d
00000140: e061 70bd ce9f b23c d2ea 313b 4175 65bd
00000150: b464 013c 4291 3ebd 9ca1 16bd 51c0 b1bb
00000160: e98b 8b3c d3da 72bc c00e 08bd 5d5a 063b
00000170: 4466 40bc 36c2 f53c d1dd c9bb 446a 0c3d
00000180: cd6c f33a b2b8 593c 54db ffbc 96f5 d9bc
00000190: 18fa 68bd dfe8 85bd 51ba a13d 1027 a43c
000001a0: 6e67 79bc fe5b c83a 811a 193c cca5 ea3b
000001b0: 99ff 76bc 6092 0ebb 2d87 ad3b ecb7 14bd
000001c0: 7294 c5bb 93d6 c33c fdb5 62bb 55a8 4c3c
000001d0: 6a8b 343d 5909 0ebc 58fd ffbc 60b0 47bc
000001e0: 22b0 a0bb 568d 49bc 5629 4abb 78ba b1bc
000001f0: d6f5 e63c 8b44 033d 98a7 3dbd 48cd 7dbd
00000200: b28c 37bd b998 90bd 6545 06bd e20f 5dbd
00000210: 8745 1ebe 4eb5 edbc 34f5 75bd 0a37 dabc
00000220: b126 e1bc 29bb b9bd bec3 753c 1711 513c
00000230: eda2 cfbc aee6 413d 121e bcbc b742 8bbd
00000240: 8216 de3b c5b3 3bbd 7771 83bd 22fd 493c
00000250: d3ee cb3b 08be ac3c 29a4 183c f4ad 39bc
00000260: 7da2 023d 39f1 543c 1209 94bb e9c0 2b3d
00000270: 40ae 9b3d 7846 ce3d 3421 d43d 4e19 723c
00000280: aeba 903c 2b0a 2dbd caa6 59bc 2733 14bc
00000290: 45b0 16bd 1f07 f9ba b9c3 11bc 5d08 633c
000002a0: 07db 9ebc 68e8 913b 8991 173d d734 babc
000002b0: bed9 bbbc 4e9f ea3c 7fef 40bd 2c93 74bd
000002c0: 37d4 0ebc 0785 483d 5a59 1c3d 0553 273d
000002d0: 2e6b e2ba f920 89b9 8733 1abd da17 0e3b
000002e0: 1441 86bc 7c23 67bc 9941 183d 58ca c9bc
000002f0: 2571 043d 415a 97bd b921 04bc d5f5 4dbc
00000300: d653 51bd 93e8 79bd aacd 1cbd 4646 35bc
00000310: d475 2dbd 1709 7a3c af36 edbc 5ac2 b8bc
00000320: b942 68bd b9d4 eebc 8412 83bd 438d 14bd
00000330: 2700 21bc 8898 823b a622 4b3c b107 8dbd
00000340: dbb4 82bd f67f 08be d40e 76bc 7d97 3cbc
00000350: 0453 3fbd db03 9ebc 68c4 f3bb fb65 b6bd
00000360: 29df 76bd 035f babd cb9b 55bd 1e75 bdbc
00000370: 2906 a7bc c954 bcbc a527 07bc 745c db3b
00000380: a552 ac3c 5c52 fbbb 4f8f ff3c 8271 423d
00000390: 337c aebc 4a8d 323d e41d c8bb f04a 3b3d
000003a0: db87 413d be9c 5f3d 0584 61bb a0b5 c7bc
000003b0: f848 22bd a8d6 f7ba 2ad8 e6bc 0155 bcbc
000003c0: 3f3f 0c3d bef1 c1ba 5860 cfbc 76c6 2dbd
000003d0: 7b93 6bbd d8a4 a8bd b682 febb f154 0bbd
000003e0: f8b8 adbc 6c90 5fbd 5d0f 65bd cd29 b5ba
000003f0: 81bb 3cbb 2d53 3cbd 763a 783c 97f4 d9bc
-0.010669878 -0.024897741 -0.008538181 0.0545176 0.07958901 0.03640411 -0.03385824 0.0004274005
0.024414035 -0.024829736 -0.006650868 -0.045972086 -0.019472083 -0.046356555 -0.0073787663 -0.021810805
0.01362557 0.024199631 0.021147419 0.004205856 0.03028362 0.05505026 0.037498195 0.066376664
-0.0019228846 -0.014675212 0.019249491 0.034275785 0.019015199 0.0008683638 -0.043280102 -0.04923516
-0.0075305193 0.031761523 0.02361574 0.056605596 -0.00039377663 -0.019521002 -0.0072411457 -0.007904672
-0.032063782 0.0011110692 0.002057205 -0.009567965 -0.010054756 -0.040462118 -0.028665254 -0.03621533
-0.024942681 -0.014263321 0.01004031 -0.023917982 -0.020443166 0.016001152 -0.038806543 -0.015894204
-0.03342271 0.032358993 0.016793203 -0.02852163 -0.0036748296 -0.039638903 -0.039204255 -0.00043968784
-0.01957814 -0.01877057 0.013849633 -0.010802595 0.0060635325 0.010647255 0.02866529 -0.012630384
-0.0021179398 -0.008224123 0.02751454 0.018273778 0.005227935 -0.021458019 -0.010061608 0.044932786
-0.05868709 0.021804716 0.002714802 -0.056020025 0.007897545 -0.046525247 -0.036775216 -0.005424537
0.017034488 -0.01482268 -0.03321719 0.0020500638 -0.011743132 0.029999834 -0.006160476 0.03428103
0.0018571854 0.013288664 -0.031232513 -0.026606362 -0.056879133 -0.06538557 0.07896865 0.020038158
-0.015222413 0.0015286205 0.009344698 0.007160878 -0.015075588 -0.0021754727 0.005295655 -0.036308214
-0.006029659 0.023906028 -0.0034593337 0.012491305 0.044078268 -0.008669221 -0.031248733 -0.012188047
-0.004903809 -0.0123017635 -0.0030847392 -0.02169536 0.028193396 0.03204779 -0.046302408 -0.06196335
-0.044811912 -0.070603795 -0.032781024 -0.053970225 -0.1545621 -0.029017117 -0.060048297 -0.026637573
-0.02748427 -0.09068901 0.015000282 0.012760422 -0.025346244 0.047339134 -0.022963557 -0.06799834
0.0067775855 -0.04582574 -0.06418126 0.012328418 0.0062235384 0.021086708 0.009316483 -0.011332978
0.031893242 0.012996965 -0.004517683 0.04193202 0.07601595 0.100720346 0.103578955 0.014776541
0.01766714 -0.042246025 -0.0132843945 -0.009045399 -0.036789197 -0.0018999315 -0.008896762 0.013856974
-0.01939155 0.004452754 0.037004028 -0.022730274 -0.022930976 0.028640416 -0.0471034 -0.059710667
-0.008717588 0.04895499 0.03817115 0.040850658 -0.0017274374 -0.00026155243 -0.037646797 0.0021681697
-0.016388454 -0.014107581 0.037171934 -0.024632618 0.032334466 -0.073902614 -0.008064681 -0.012570818
-0.051105343 -0.061012816 -0.038282074 -0.011064118 -0.042348698 0.015260956 -0.02895674 -0.022553612
-0.056704257 -0.029154168 -0.06400016 -0.03626753 -0.0098266965 0.0039854683 0.012398398 -0.06886233
-0.06382152 -0.13330063 -0.015018184 -0.011510727 -0.04671003 -0.019288948 -0.007439185 -0.0890617
-0.060271416 -0.09100153 -0.05215053 -0.023127135 -0.02038868 -0.022989647 -0.008249198 0.006694371
0.021035502 -0.00766973 0.031196265 0.04747153 -0.021299457 0.043591775 -0.006107079 0.045725763
0.047248702 0.05459284 -0.0034410965 -0.024378598 -0.03962037 -0.0018908577 -0.028179247 -0.022989752
0.034240004 -0.0014796776 -0.025314495 -0.042425595 -0.057513695 -0.082345665 -0.007767047 -0.034016553
-0.021206364 -0.05458109 -0.055922855 -0.0013821662 -0.0028798284 -0.04597776 0.015150657 -0.026605887

bias f4 [32]
00000000: 918f f53c 9e6d 93bd 438f 223d 3072 123d
00000010: 9c13 0c3c 9461 5bbd 5321 2fbb 24b2 263d
00000020: be61 023c b1d7 32bc 1ee6 15bd 418d debc
00000030: e53d 2e3c 982d 89bc d7a7 11bd caad 62bd
00000040: 6865 193d 45b5 273d 3027 d23b 91c9 0a3c
00000050: a17d 3cbc 8ddd 7f3c 1c9c 4cbd dcd6 46bc
00000060: c2fa 0a3d d40a 753c 0217 01bd e93c 45bb
00000070: 65a5 173b 5693 88bd e796 fa3c 5bb2 773d
0.029975684 -0.07198642 0.039687406 0.03575343 0.008549597 -0.053559855 -0.0026722744 0.040697232
0.007957874 -0.010915683 -0.03659641 -0.027166964 0.010634874 -0.016745374 -0.035560455 -0.05534152
0.037450224 0.040944356 0.006413363 0.008470909 -0.011504562 0.015616787 -0.049953565 -0.012136187
0.033930548 0.014956195 -0.031516083 -0.003009612 0.0023139354 -0.06668727 0.030589534 0.060472827

weight f4 [32]
00000000: 337d 803f f209 603f ecc9 873f 18a4 6d3f
00000010: aa51 5a3f b0f2 723f b32f 783f 95a3 763f
00000020: fc89 633f a55f 5f3f 6d33 803f 8250 7d3f
00000030: a842 773f 09f4 853f 1444 793f 0198 753f
00000040: 3913 6f3f a3ef 4e3f 0aed 873f 0dc6 713f
00000050: 00b2 7d3f 7de2 733f febd 813f 2470 7c3f
00000060: 43fb 553f d54f 8a3f 9380 853f 8059 803f
00000070: 8f62 803f 4e4a 743f 7953 653f a7a0 603f
1.0038208 0.87515175 1.0608497 0.9282851 0.8528086 0.9490156 0.96947783 0.96343356
0.8888242 0.87255317 1.0015694 0.9895097 0.96586084 1.0465099 0.97369504 0.95935065
0.93388706 0.80834407 1.0619214 0.94442827 0.9909973 0.9526747 1.0136106 0.98608613
0.8358652 1.0805613 1.0429863 1.0027313 1.0030078 0.9542588 0.89580494 0.87745136

bias f4 [32]
00000000: afdb fb3e 867a 673f 2ef9 3a3e e772 933e
00000010: ce51 343f e210 9a3e f23c 18bc ef4d 4e3e
00000020: d4d8 013f ce9d 093f 2c52 313e 99b0 093f
00000030: cb5a ab3c bb70 453d 354f 8c3e bf85 c13e
00000040: f99b b63e 3156 173f fb5b 0a3f 83e5 9d3d
00000050: 8b4d 20be 8de9 ee3e 1d89 c43e a283 903e
00000060: 4a8a e03e ec97 263e 3330 0c3e 5e04 bb3e
00000070: 1b6c 8c3c c613 bb3e 0a78 303e f657 033f
0.49191043 0.9042133 0.18259117 0.287986 0.70437324 0.30091006 -0.009291874 0.20146917
0.5072148 0.53756416 0.17316502 0.5378509 0.020917317 0.04820321 0.2740418 0.37797353
0.35665873 0.5911589 0.540466 0.077097915 -0.1565458 0.4666256 0.3838586 0.28225428
0.43855506 0.16268891 0.13690262 0.3652677 0.017141392 0.36538523 0.17233291 0.5130609

running_mean f4 [32]
00000000: 91df c9bf fd46 b03e aad7 d8bf 4957 0bbf
00000010: ba50 cebf 3da0 e1bf 7ddc f9be 732d 00bf
00000020: a4b7 a4bf 8548 9a3f 534a ddbf 5b3b cebe
00000030: 71c8 5abf 1d0f aebf 5c88 11c0 d742 c4bf
00000040: d2b0 77bf 4ca0 d0be ee37 763f ae20 463e
00000050: 98f5 93bf b646 373f a35f f2bf 6f24 a83f
00000060: 939a 1dbd 1b48 a13c c43d 7b3f 688f b23e
00000070: 9af0 06be f79c 17c0 a2aa 09bf 67c1 c8bf
-1.5771352 0.3442916 -1.6940815 -0.5443006 -1.6118386 -1.7627026 -0.48801032 -0.5006935
-1.2868543 1.2053381 -1.7288307 -0.4027966 -0.854621 -1.3598362 -2.2739477 -1.5332898
-0.9675418 -0.40747297 0.9617909 0.19348404 -1.1559324 0.7159227 -1.8935436 1.3136119
-0.03847749 0.019687703 0.9814112 0.34875035 -0.1317772 -2.3689554 -0.5377599 -1.5684022

running_var f4 [32]
00000000: f2f3 5a3e f5a1 fb3d 4146 933e 38db 373e
00000010: 4725 a13e 063e a13e d893 7c3e 1eb2 be3e
00000020: cbd5 9e3e 6ded 193e eca0 493f 029a 013f
00000030: 724b 7d3e 907c f63e 4638 d03e cc1a ca3e
00000040: 3c51 a13e 2f66 683e dc94 6c3e 68c6 703e
00000050: 79fe b23e 3fcf ca3e 446f 563e 4439 8a3e
00000060: 8524 343e 4268 ca3e 6970 193f 1f2d 1a3e
00000070: e6c0 733e cfcc 083f 0f56 a23e e181 443e
0.2138212 0.1228675 0.28764537 0.17954719 0.31473753 0.31492633 0.24665773 0.37245268
0.31022486 0.15031977 0.7876117 0.5062562 0.24735811 0.4814191 0.40667933 0.3947357
0.3150729 0.2269523 0.2310366 0.23513186 0.34959772 0.3961124 0.20940882 0.26996815
0.17592056 0.39532667 0.5993715 0.15056275 0.23804054 0.53437513 0.31706282 0.1919017

weight f4 [32, 32, 3, 3]
00000000: 0de6 3c3d 3b05 58bd 082b 35bd 4b29 19bd
00000010: 4d60 d8bd 955d d9bd 4eaf f53d 97cd 20bd
00000020: e29d cf3c 14bf 0a3d 590b a6bd c3c7 91bb
00000030: 78af f0bc 63c9 10bc a4a2 d5bc 59fa 363d
00000040: f624 353d 3ad7 2b3d de74 38bd dcd5 88bd
00000050: 8d44 00be 17e5 97bb 2ced 7cbc cd1c b6bc
00000060: 0c40 10bd cbba 3b3d 9d12 013d dde2 afbc
00000070: ecd3 4d3c bd36 933c 51dd a53c 8f1d f23a
00000080: eab9 e23c 40a3 58bd a829 a6bc 5764 193c
00000090: 687b e63c c9c8 45bc 283d 0b3d 9467 89bc
000000a0: c1e2 e7bc 6698 b13d 8150 40bb a5f0 80bd
000000b0: fb4a 5c3b bb4a 1fbd 91fc 693b 0ade 283a
000000c0: 77ae 673d a5ed b03c 6457 c63b ac0d e83c
000000d0: fe09 c0bb e4b1 143d 4061 2cbb 8f1e 4e3c
000000e0: 81ef f0bc b00f b63d e865 223d ad64 53bc
000000f0: 24aa 243d 1566 5e39 3a6d 3dbd 5f15 27bd
00000100: 0be7 973c f1f2 adbb 782f 3abb 63e4 a83c
00000110: f2db 11bd 23d0 4e3d 5f89 e23b bd26 cfb9
00000120: 427c 7dbc 356f 513d 11b2 103d a104 81bb
00000130: bbdc 8d3c f391 423d 8104 873c 1e77 68bb
00000140: 9f52 6b3c d970 69bc ab18 1dbd e9e2 2d3d
00000150: 3357 4ebc 946f eebc d922 6fbc bc5b 94bc
00000160: af5f a1bc 2eed 2ebd 99f6 cf3c 8052 95bc
00000170: 45f7 933d 727d afbc c35a 1bbd 98d0 8c3d
00000180: 71cc 81bb 213e 0bbd fdef b63c c51e 203c
00000190: 2a9c 6ebd 7e81 483d a49a 113c ef5a 50bd
000001a0: 85d1 ecbc 43b9 a3bc 756a 99bc 11c1 8c3c
000001b0: ee33 d13b d7b3 adbc d90e ae3b 6bb0 253d
000001c0: bc25 75bc e3f5 0cbd dc9e 7ebc 8b61 0fbd
000001d0: 62c6 f53c f6c4 063d 56f1 cfbc aec9 303c
000001e0: cce9 663c dddc a7bc 59dc 8c3d 4ec4 873c
000001f0: a947 15bc 0365 613d 06c1 7ebd 8dbd bfbd
00000200: 1e86 61bc 85b1 bfbc d832 e4bc bfc1 d8bb
00000210: 7117 f2bc 9d2d b03c a43f 60bc 6a87 963c
00000220: 0ee3 90bc 369a 923d d095 53bc c388 6ebd
00000230: 22e2 bebc 4a46 dd3c 9ab0 bebc edfc 603d
00000240: 897e dc3d 3216 d9bb f707 b53c 4add ea3d
00000250: c109 8c3b 737e 24bd d3c8 8c3d d509 cebc
00000260: 0f95 52bd 8b3d 773c d29c 1bbd 5ecb 49bd
00000270: 0f83 333c 866f ee3b 3f06 7aba d440 9bbd
00000280: 65ab e3bb f942 1fbd 827b 62bc 8ea7 0fbd
00000290: 4028 343d a0d1 3a3d ca12 aebc 387f 1f3d
000002a0: 0e8f 0bbd b73f 63bd 7466 b2bc 981c 8d3c
000002b0: 8b77 fc3c 73b5 12bc 8a89 fdbc 6fa8 22bc
000002c0: cb21 023d 7f52 593c c69d 30bd bb11 0abd
000002d0: a52c b23d 8acf 83bd 0dcd 373d c4ca 24bd
000002e0: d045 97bd b3ec 1dbd afea 9bbd afc0 edbd
000002f0: 3fd7 93bd 0d8a 0dbd 5b9e 40bd 8cfa cfbc
00000300: 17bd 47bc 77a1 4fbd 1e83 28bd 0963 553d
00000310: 6fe7 373d 5f60 633d 5a8b bebc 34aa e2bc
00000320: aa30 37bc 59be 933b c035 b2bc 6dab a93c
00000330: 883f 57bd fbff e5bc 6183 49bc 6983 3e3c
00000340: 1a50 5fbd 4342 8cbd d3b6 9a3c 4b1c cbbc
00000350: 8d5f 4cbd b565 b73c febd d7bc a2ad 75bd
00000360: e001 833c a403 d03c 7667 ccbc 1b3e 043c
00000370: a011 ddba d7f8 47bd 831e 183c 6bc0 84bc
00000380: 1443 6bbc 0d24 1abd f029 06bd 4cd0 4e3d
00000390: d2ed b73b 2e20 56bb 0082 b2bb 5e4a 533d
000003a0: d0f4 403d eccd ab3d de28 583c e20f 1a3d
000003b0: 6d83 bc3d 6a6b 233d de56 5ebb df38 88bc
000003c0: 547c ad3d 1660 693d adcf b5bc b289 f7ba
000003d0: 0e21 16bd 2bf2 bc3a 70b0 e8bb f4dc 4abc
000003e0: 97ea 2fbc bd2a 4ebc 8db7 50bc d3a5 95bd
000003f0: d907 023e 6799 eabc 3f12 333d 0ac9 2f3d
0.04611783 -0.052739363 -0.04423049 -0.037392896 -0.10565243 -0.106135525 0.11996327 -0.039258566
0.02534384 0.033873633 -0.08107633 -0.0044488623 -0.029380545 -0.008837077 -0.02607853 0.044672344
0.0442247 0.041953303 -0.04503333 -0.066814154 -0.1252615 -0.004635464 -0.015437406 -0.02223053
-0.03521733 0.045832437 0.03151189 -0.021470482 0.012562733 0.017970437 0.020247133 0.0018471944
0.027676541 -0.052890062 -0.020283535 0.009362302 0.028135017 -0.012071797 0.03399387 -0.016773023
-0.028306367 0.08671646 -0.002934486 -0.06295899 0.0033614028 -0.038889628 0.003570352 0.0006441778
0.056562867 0.021597693 0.0060528982 0.028326832 -0.005860566 0.036302462 -0.0026303083 0.012580528
-0.02941108 0.08889711 0.039647967 -0.012902421 0.04020132 0.00021209598 -0.046246745 -0.040791865
0.018542787 -0.005308502 -0.0028409641 0.020616716 -0.035610147 0.050491463 0.0069133486 -0.0003951098
-0.01547152 0.051131446 0.035326067 -0.0039373194 0.017317167 0.04750247 0.01648164 -0.003547139
0.01436296 -0.014248096 -0.038353603 0.042452727 -0.012594032 -0.029105939 -0.014595711 -0.018110149
-0.019698946 -0.04270666 0.025386142 -0.018227816 0.07224897 -0.021422122 -0.037928354 0.068757236
-0.003961139 -0.033994798 0.022331232 0.009772961 -0.0582544 0.04895162 0.008886967 -0.05086797
-0.0289085 -0.0199858 -0.01872752 0.017181905 0.0063843643 -0.021203918 0.0053118286 0.04045145
-0.01496261 -0.034414183 -0.015540805 -0.035005134 0.030001823 0.03290268 -0.025383633 0.010790272
0.014093827 -0.020491058 0.068779655 0.016573098 -0.009111323 0.055027973 -0.0621958 -0.09362326
-0.013764886 -0.023400078 -0.027856275 -0.006614893 -0.029552193 0.021506125 -0.013687048 0.018375117
-0.017686393 0.0715832 -0.012914136 -0.058235895 -0.023301188 0.027011055 -0.02327757 0.05492871
0.10766322 -0.0066249603 0.022098524 0.11467989 0.0042736237 -0.040159654 0.06874242 -0.025151173
-0.051411685 0.015090357 -0.037991352 -0.04926621 0.01095654 0.007276478 -0.0009537674 -0.07580724
-0.006947922 -0.03888223 -0.013823392 -0.035071902 0.043983698 0.04561007 -0.021249194 0.038939685
-0.034071974 -0.055480685 -0.02177737 0.017225549 0.030818721 -0.008954394 -0.030949373 -0.009927853
0.03177051 0.0132642975 -0.043119214 -0.033708315 0.086999215 -0.06436069 0.044873286 -0.040232435
-0.073863626 -0.038555812 -0.07613122 -0.11609017 -0.07218789 -0.034555484 -0.04702602 -0.025388025
-0.012191079 -0.050691094 -0.041140668 0.0520964 0.044898447 0.05551183 -0.023259807 -0.02766905
-0.011181036 0.004508775 -0.021754146 0.020711625 -0.052550822 -0.028076163 -0.01229939 0.01162801
-0.05451975 -0.06848576 0.018886006 -0.024793765 -0.04989581 0.022387365 -0.026335713 -0.059980042
0.015992105 0.025392361 -0.024951678 0.008071448 -0.0016866215 -0.048821297 0.009284618 -0.016205033
-0.014359254 -0.037632037 -0.03275484 0.050491616 0.005613067 -0.003267299 -0.005447626 0.051584594
0.04710847 0.08388886 0.013193337 0.037612803 0.09204755 0.03989736 -0.0033926289 -0.01662868
0.08470979 0.0569764 -0.022193754 -0.0018885641 -0.036652617 0.0014415433 -0.007101111 -0.012381781
-0.010737083 -0.012583432 -0.012739074 -0.07307019 0.12698306 -0.028637601 0.043718573 0.042916335

bias f4 [32]
00000000: cf2e 3c3a 7c0c 943c 2c7b fabc b736 0b3d
00000010: 7427 a7bc 3893 99bc a6a3 a23b 10a6 253d
00000020: 32a6 6a3d 65aa 7cbd f012 813d 2a8b e93c
00000030: 940c a5bc 2ccb 933d df6d 59bd 9241 4f3c
00000040: 084d 373d 8c1e f23c 9012 92bc 268d 32bd
00000050: b39c a8bc 89ac 21bd aa85 ca3c 8ca0 9f3b
00000060: 9f4f 0ebc a242 23bc 3805 183d 879a 833d
00000070: b77f c4bc 376b 3d3c d87d 37bd 3d9e 9d3d
0.0007178606 0.01807236 -0.030576311 0.033987727 -0.020404555 -0.018746957 0.004963356 0.040441573
0.057287402 -0.06168594 0.0630244 0.028508741 -0.0201476 0.07216486 -0.053083297 0.0126499105
0.044751197 0.029555582 -0.017831117 -0.04359164 -0.020582533 -0.039471183 0.02472194 0.0048714336
-0.008685975 -0.009964617 0.037114352 0.06425958 -0.02398668 0.011561207 -0.04479775 0.07696197

weight f4 [32]
00000000: 55aa 723f a874 953f b034 6e3f ea5c 683f
00000010: 5c23 633f 7ffe 7b3f ad4f 803f aba5 613f
00000020: 2e56 873f 9c9c 7e3f e056 823f 3560 683f
00000030: 232e 753f 7659 7e3f 8bdc 853f e7c9 713f
00000040: cccc 713f 90ef 863f a7ad 683f 4f62 603f
00000050: fb62 6d3f 33dc 723f e7ff 643f cbe6 713f
00000060: 961c 843f 043e 703f 9e74 803f 8516 713f
00000070: 4d9f 7a3f a099 633f 155b 853f 8129 6e3f
0.94791156 1.1676226 0.93049145 0.90766776 0.8872583 0.98435205 1.0024315 0.88143414
1.0573175 0.99457717 1.0182762 0.907718 0.95773524 0.99355257 1.0457929 0.94448704
0.9445312 1.0541859 0.9088997 0.87650007 0.9272916 0.9486725 0.89452976 0.9449279
1.0321224 0.9384463 1.0035589 0.9417499 0.97899324 0.8890629 1.0418421 0.9303208

bias f4 [32]
00000000: dd25 223f 1b83 7e3e ddf0 f93c 3bce 0a3f
00000010: 771b d93e 36e0 023e 0be9 a03e e0e0 c13e
00000020: 8e88 e93e 3bae 083f 4abd eb3d b031 ed3e
00000030: 57b3 843e 36f9 423e 6046 65bc 4bad d63e
00000040: ec51 0e3e 2178 d83d 0cfd a53e fca4 e93e
00000050: 4a87 943e db80 f73e 15dd 213f 4c8a b9bc
00000060: b638 a23e 8150 5d3e a1ce 493f a8b3 d53e
00000070: eed4 a23e a2ef 073f 16a4 af3e 0d89 3d3f
0.63339025 0.248547 0.03051036 0.5422093 0.42403767 0.12780842 0.31427798 0.37866879
0.45611995 0.53390855 0.115107134 0.4632697 0.25918075 0.19040379 -0.0139938295 0.41929087
0.13898438 0.10569788 0.32419622 0.45633686 0.29009467 0.48340496 0.6322797 -0.022648953
0.31683892 0.21612741 0.78830916 0.4173863 0.31803077 0.53100026 0.34304875 0.7403725

running_mean f4 [32]
00000000: 16aa 7ebe 4f93 2b3f c64e 433e de93 413f
00000010: 1ef2 9b3e eaa9 0dbf 5850 453f 1d32 443f
00000020: 0975 623e 14a5 e03e fd42 dc3e 09c2 0dbf
00000030: e650 33bf b06a 21bf f6c4 5a3c 31ff 403f
00000040: cb41 ac3e 0754 a0be eb96 bb3f 892e 203f
00000050: 517a 263f 8bf8 eebe 0294 ec3e 696e 4e3d
00000060: 44b1 ba3e 72ce 40be 11de ba3e 2dd3 fabe
00000070: 257a a13f b81a 07bf 1dd0 18bf 40ea 183f
-0.2486957 0.6702165 0.19073018 0.7561625 0.30458158 -0.55337393 0.7707572 0.76638967
0.22114958 0.43875945 0.43019858 -0.553742 -0.70045316 -0.6305342 0.013352623 0.7538939
0.33643946 -0.31314108 1.4655432 0.62571007 0.6503039 -0.46673998 0.4620667 0.050398264
0.36463368 -0.18828753 0.36497548 -0.4898924 1.26154 -0.52775145 -0.59692556 0.5973244

running_var f4 [32]
00000000: 4086 e23d 609d 603e 4388 523e da40 e53e
00000010: 2ae7 433e 57f5 fa3d b34f 753e cc4c 8a3e
00000020: f5c6 273e e125 5c3e f497 633e 96a6 b83e
00000030: 27c1 a63e 6547 853e 4940 5d3e bd67 3d3e
00000040: a6b6 133e 38f5 f53e 7083 e53e 06ca 253e
00000050: 6aac 803e 9455 743e 30c7 3c3e ebd7 363e
00000060: 0816 0b3e 7264 583e 2473 153e b7a7 433f
00000070: 4616 953e 4730 053e 7292 113f ff79 4f3e
0.110607624 0.21935034 0.20559792 0.4477604 0.19131151 0.12253826 0.23956184 0.27011716
0.1638449 0.21498825 0.22225934 0.36064595 0.3256924 0.26031032 0.21606554 0.18496604
0.14425144 0.4803865 0.4482684 0.16190347 0.25131541 0.2386077 0.18435359 0.17855804
0.13582623 0.21132067 0.14594704 0.7642779 0.29118556 0.13006698 0.5686408 0.20261382

weight f4 [32, 32, 3, 3]
00000000: 2e83 28bc 1485 46bc 3cd0 ee3b 8e91 ef3b
00000010: b049 d03b b0f3 fcba 0c55 bdbc 007d bbbc
00000020: 37f8 0dbc e011 30bd 4c2f 64bc 4cd6 62bd
00000030: e3c2 fa3c 01ab b4bb 806a 0b3d 8f8a 533d
00000040: c1cb 2b3d 10ac 703c 3d9d 6ebd ab16 eabc
00000050: 9e60 81bd 75ec 84bd be7b 48bc c0ed 4fbd
00000060: 8c3b c0bd 1ea5 1f3b 950b 7dbd 8d73 81bd
00000070: 6d7a 01bc 207f e3bc c9a2 46bd e157 60bc
00000080: d365 6fbd 0d0a 41bd aaed 67bd 134d c4bd
00000090: abf3 933c fc74 0dbd f425 99bb 3c75 183c
000000a0: f1fa 183c 4c25 973b 6652 09bc 3460 113c
000000b0: 9151 033d b61f 9e3d 0272 443d f5a9 ab3c
000000c0: 02f1 033c b1ec 853c b7ab 47bc e187 793d
000000d0: 28eb 1e3d 7ed9 553c 0ace c53c 8f82 683c
000000e0: 4854 56bc b13a 75ba f103 a0bc 6d6a 20bb
000000f0: 2a46 1abb b289 b2bc 54dd 20bd fa3f 3dba
00000100: 3033 11bc b4f1 68bd 36cb fc3c 42c7 593c
00000110: dfa3 6cbc 0e47 92bc 64cb 29bd cb23 7fbd
00000120: a61c 8fbd 1ba1 a7bc b91e a6bc 9e5d 623c
00000130: 92eb b63c 009d 323d b832 e33c 282f ad3b
00000140: c8c5 483d 8e64 c4bd 563c 8bbd fd69 abbd
00000150: 9818 89bd 7e29 5fbd 8d83 3dbc 2638 84bd
00000160: 49be 09bd 3825 86bd 023f c53c 664e 46bc
00000170: 1aec 64bd 6d7f 403d cc4b 033d 16dd 213c
00000180: abbb c33d 05e2 fa3c 67c5 98bc 95e9 34bd
00000190: 006c b53c c15c 983d 6a3a be3b adf8 393c
000001a0: e232 543c d58e c73c d7d5 7c3c 3919 a3bc
000001b0: 6f50 85bd 8c46 10bd 533b a2bc 7fe1 94bd
000001c0: 9e39 10bd 364a 93bd 9127 0fbd bd42 71bd
000001d0: 83dc d3bd a1d2 2abc c593 11bd 16cd 563d
000001e0: c0a5 cfbc ecfe a63a f94d dd3c 61c8 4a3c
000001f0: 7a17 a33c 4110 553c 7efd 453d 94f1 7b3b
00000200: dd9c dfbc e82c a63d 8ef7 783d 76d8 c93c
00000210: b45f 1c3c 75e5 053d c54b 04bc 305d 753d
00000220: 4dbd 1a3d 1035 833d 87f6 3d3d 28ad 0c3d
00000230: 376d 963a 7882 90b9 5bc8 23bc ec81 eebc
00000240: 651d 09bd 503f d4bc 0294 aabc 628c 443d
00000250: 99b5 f53c 39cf fbbb 60ef d13b 12f3 fc3c
00000260: 149b afbc 00bd 4ebd d60b e5bb c02d 42bc
00000270: ab03 383d c973 853c 2dc1 d03c 3557 1e3d
00000280: fb8b 273d da83 383c 7e44 ba3c 40b2 583c
00000290: d265 e1bb a99d d7bc 86ef a3bc 4aa5 4bbd
000002a0: 4f07 a8bb a249 35bd c4bf 9ebc dabb 833c
000002b0: fa1c 553b b08d e33c 1402 44bc 13f3 9c3c
000002c0: a07f a13d 7b0b 7fbc e348 e0bc 0e2e eebc
000002d0: 5b00 793c 91a1 0b3d 2882 aabc 6571 543c
000002e0: 0a81 063d 78ba 073c 5bb4 143c d10f c53c
000002f0: bd30 573d 9ebf 6abd d1d4 07bd 7337 693d
00000300: 6271 9abd 4ac5 3dbd cc4c ffbc 3ab4 ccbd
00000310: 65e0 26bd f5f9 e0bc ee14 b8bc dcd3 d6bc
00000320: 0105 1fbd b80f a3bb e93e 82bb f0b3 f6bb
00000330: 3a2c a7bc f33b d9bc 85d6 853c 52a8 e23b
00000340: b4f0 89bb fbff 8ebd 0c4d 18bc 6862 4fbb
00000350: bbf7 9cbb 2ad1 04bb 17d7 1b3c 8b37 ef3c
00000360: 78fa 56bc 8154 3ebd 8d22 61bc 8c67 9e3b
00000370: a93d b93c 0540 46bc 271a 38bb 0ad8 39bd
00000380: fd47 55bd abcf 403b 81b8 1aba 7bec 1a3d
00000390: 68c9 7c3c 825e b53c 51fb 6f3c 0a8d 30bd
000003a0: 9158 25bb 17c6 e53c 51b1 033d f1cb 4b3c
000003b0: e4d7 66bc fdb1 2cbc aca9 9e38 4e6d 6d3c
000003c0: a649 8e3c 897a 173d 5258 223d aade 3fbd
000003d0: af13 b7ba 8a51 bbbc 2d11 62bc fb61 04bd
000003e0: 5787 61bd 62a7 cbbc 087b fbbc 89dc 0cbd
000003f0: c0ff b1bc 6376 6cbc 64e9 6dbd f46a 76bc
-0.010285182 -0.012116689 0.007288007 0.0073110526 0.0063564405 -0.0019298699 -0.023111843 -0.022886753
-0.008665136 -0.042985797 -0.013927292 -0.05538015 0.030610507 -0.0055135493 0.034037113 0.05164581
0.04194236 0.01468946 -0.058255423 -0.028575262 -0.063172564 -0.06490413 -0.012236534 -0.050763845
-0.09386358 0.0024359892 -0.061778624 -0.06320868 -0.007902724 -0.027770579 -0.048495088 -0.013692827
-0.058446717 -0.047128726 -0.05662314 -0.09585013 0.018060526 -0.034535393 -0.004673714 0.009305295
0.009337173 0.0046126004 -0.008381462 0.008873034 0.03206021 0.07720892 0.04796029 0.020955065
0.008053066 0.016348215 -0.012186936 0.0609206 0.03879848 0.013052342 0.024146099 0.014191284
-0.013081618 -0.0009354754 -0.01953313 -0.0024477497 -0.0023540356 -0.021794174 -0.039273575 -0.0007219311
-0.008862302 -0.05687113 0.030858617 0.013292136 -0.014443367 -0.017856147 -0.041453734 -0.062289994
-0.06987886 -0.020462563 -0.020278322 0.013816265 0.022329126 0.043606758 0.027734146 0.0052851625
0.049016744 -0.09589492 -0.067986175 -0.08369825 -0.06694144 -0.05448293 -0.011567009 -0.06456022
-0.033628736 -0.06550068 0.024077896 -0.012103653 -0.055889226 0.046996523 0.032054707 0.009879371
0.09557279 0.030625353 -0.018648816 -0.044168074 0.022146225 0.074395664 0.0058053033 0.011350793
0.0129515845 0.0243601 0.015431843 -0.019909488 -0.06509482 -0.03522353 -0.019803679 -0.072695725
-0.035211198 -0.07191889 -0.034949843 -0.058901537 -0.10344794 -0.010426194 -0.035541315 0.05244168
-0.02534759 0.0012740768 0.02701472 0.012376876 0.019908655 0.0130043635 0.048337452 0.0038443552
-0.027296478 0.08114034 0.06078296 0.02463935 0.009544302 0.03268953 -0.0080747055 0.059903324
0.037778188 0.06406605 0.046377685 0.034344822 0.001147664 -0.00027563027 -0.009996499 -0.029114686
-0.0334753 -0.025909096 -0.020822529 0.047985442 0.02999382 -0.007684615 0.0064067096 0.030877624
-0.021436252 -0.050473213 -0.0069899363 -0.011851728 0.044925373 0.016290562 0.025482738 0.038657386
0.04090498 0.011261905 0.022737738 0.013226092 -0.006878593 -0.026320295 -0.020011675 -0.04971818
-0.0051278244 -0.044259675 -0.01937855 0.016080786 0.0032518492 0.027777523 -0.011963386 0.019158876
0.07885671 -0.015566702 -0.027378505 -0.029074695 0.015197839 0.03408963 -0.020814016 0.0129664885
0.032837905 0.008284204 0.009076203 0.024055393 0.052536715 -0.057311647 -0.033161942 0.056937646
-0.07541157 -0.046330728 -0.03116455 -0.09995313 -0.040741343 -0.027462939 -0.022470918 -0.02622407
-0.03882313 -0.004976239 -0.0039747846 -0.0075287744 -0.020406831 -0.026517844 0.016337642 0.006917038
-0.0042096023 -0.06982418 -0.009295713 -0.0031644348 -0.004790274 -0.0020266273 0.009511731 0.02920129
-0.01312124 -0.046467308 -0.013741148 0.004834121 0.02261241 -0.012100224 -0.002809176 -0.045372047
-0.052070606 0.0029420655 -0.0005902127 0.03782318 0.015428878 0.022139791 0.014647321 -0.043103255
-0.0025229792 0.028048558 0.032151524 0.01243876 -0.014089558 -0.010540483 7.565631e-05 0.014491392
0.017369103 0.036982093 0.03963501 -0.04684321 -0.0013967658 -0.02286603 -0.01379804 -0.032320004
-0.05506071 -0.024860088 -0.030698314 -0.034390006 -0.021728396 -0.0144325225 -0.058083907 -0.015040148

bias f4 [32]
00000000: 0802 acbc 9db9 8c3d bef0 19bd 61e5 bc3c
00000010: e0d6 08bd 9de3 d1bd 5fd9 8abd 82b8 933a
00000020: f89f d7bc d4d6 9aba f436 4d3c 94c9 05bd
00000030: da83 91bc 78bc 90bd bbd3 b1bc 628e 21bc
00000040: e924 9d3a 4c2a 823b acc8 59bc ba1d 14bc
00000050: 0a64 99bc 3d31 633d 9fc9 62bc 6341 0dbd
00000060: d1ff 72bd f4a8 4ebd c509 28bd 91a6 aabd
00000070: 2cfe 8cbb f3a6 973d 4ff5 843b 3410 723d
-0.020997062 0.068713404 -0.037583105 0.023058595 -0.033408046 -0.10248492 -0.067797415 0.0011270198
-0.026321396 -0.0011813291 0.012525309 -0.032662943 -0.017763067 -0.070671976 -0.021707406 -0.009860607
0.001198915 0.0039723273 -0.013292473 -0.0090402905 -0.01872446 0.05546688 -0.0138420155 -0.034486186
-0.059325997 -0.050454095 -0.041024942 -0.08332551 -0.0043027606 0.0740489 0.0040575634 0.059097484

weight f4 [32]
00000000: ed50 823f 78a6 8f3f 71ac 7a3f fc5f 813f
00000010: 70b6 8f3f 9e05 833f ce2e ae3f 5e9a 713f
00000020: 99c2 9f3f 0cda 683f 2589 8c3f 7890 823f
00000030: 0e5b 7d3f 04e7 843f 696d 8b3f e0a2 963f
00000040: 1feb ad3f bace 813f 0fc5 833f 356d 0340
00000050: 18ff 8d3f 8030 7e3f 2ff2 793f dd07 603f
00000060: 708e 843f 9eed 803f f849 843f 931c 803f
00000070: f3ac ad3f cd80 873f 4066 853f d7eb 7f3f
1.0180947 1.1222677 0.97919375 1.0107417 1.122755 1.0236089 1.3608034 0.9437617
1.2481261 0.90957713 1.0979353 1.0200338 0.98967063 1.0383 1.0892764 1.1768456
1.3587378 1.0141213 1.0294513 2.0535405 1.1093473 0.99292755 0.9763517 0.87512
1.0355968 1.0072515 1.0335073 1.000872 1.3568405 1.0586182 1.0421829 0.9996924

bias f4 [32]
00000000: 9d18 28be 402d bc3d 7053 bebe 2e13 d5bc
00000010: 7b91 b4bd 95d6 3ebd 09e0 083e 1a9e e2bd
00000020: 4418 813e 84c7 243f c126 abbb 1f1a 8c3d
00000030: 3cd5 b33d 07e6 97bd 26dc d3bc 3de9 cebe
00000040: b1fe 673d 2bba b33d 46a2 203c e50a 503e
00000050: d4ad fb3d f63f 70bd 0531 273e 9812 b8be
00000060: bc92 1a3e 00c3 b73d 95cd 74be 31b8 323e
00000070: d0f8 063e dd4a e23b 1c0d 2f3e 071b 2fbd
-0.16415639 0.09188318 -0.37173033 -0.026010122 -0.08816811 -0.04659136 0.13366713 -0.11065312
0.25213826 0.64366937 -0.0052231257 0.0684092 0.087809056 -0.07416921 -0.02586181 -0.40412322
0.056639377 0.08775743 0.009804314 0.20316656 0.122890145 -0.058654748 0.16327293 -0.35951686
0.15095037 0.0897274 -0.23906548 0.17453076 0.13180852 0.006905897 0.17094845 -0.042750385

running_mean f4 [32]
00000000: d029 98bf d1e4 403e 6fb0 973e ca71 223f
00000010: 340c 99be 0acb e93e 786e 93be 62ce 32bf
00000020: dcef f43e 016d a1be 3434 03be 3916 63be
00000030: e0ef c53d 6bc2 5b3e ba10 ba3d 49ab d6be
00000040: 4b4d 86be 6dab b73d f543 e5bc 3723 423e
00000050: 0786 023e e063 2d3d d714 5e3f 2da4 003e
00000060: 8db8 63be 6823 b73d 7233 07be 309c cdbe
00000070: a7a4 0a3e 0b15 ac3e 5247 74be 9882 e9be
-1.188776 0.18837287 0.29626796 0.6345488 -0.29892123 0.4566272 -0.28795218 -0.69846165
0.47839248 -0.31528476 -0.12812883 -0.22176446 0.09664893 0.21460883 0.090852216 -0.41927555
-0.26230845 0.08968244 -0.027986506 0.18958746 0.1274644 0.042331576 0.8675055 0.12562628
-0.2223837 0.089423 -0.13203219 -0.40158224 0.13539372 0.33609805 -0.23855332 -0.45607448

running_var f4 [32]
00000000: 2ea0 c33e 9e05 e13e 9416 e53d a2a9 193e
00000010: 9d1e 233e 07d5 733e dcfe ce3d 05e6 833e
00000020: d216 403e aa9a 0e3e f640 623e acc2 5b3e
00000030: 93c2 d93e f2ae c83e 551c 1e3f 4d6c 5f3d
00000040: 58b7 8a3d 2a5e 8d3e c0be fc3d 041e 6f3d
00000050: f13c a73e 6f7e 133f 6a12 993e ff4c 8c3e
00000060: 414a 143e e8d3 d63e 5483 363d 716b 6e3e
00000070: e6fc 393d b52f 7f3e ee4f 023e 9b01 0c3e
0.38208145 0.43949598 0.11185947 0.15006116 0.15929647 0.23811732 0.10107204 0.25761428
0.18758705 0.13926187 0.22095093 0.2146098 0.4253126 0.39195973 0.6176198 0.054546643
0.06773251 0.27610904 0.1234107 0.058378235 0.32663682 0.576148 0.2989686 0.27402493
0.1448145 0.41958547 0.044558838 0.23283173 0.0454072 0.24920543 0.12725803 0.13672487

weight f4 [1, 32, 3, 3]
00000000: 4faa dcb9 df5d 91bb 24aa b1bc 3e17 0abd
00000010: f883 0ebd 0dc5 76bd d680 7dbd c2a5 fbbc
00000020: f317 63bd 3c9e c5bd af25 d6bd 014f f8bd
00000030: 8aa9 d1bc f20e beba 7c6b 7bbc 58ea 1fbd
00000040: 84f6 20bd 9d95 2dbd 43c7 37bc 5bcc 553d
00000050: 51d0 f5ba ec71 1ebd d69d 7c3d 9453 c13b
00000060: d732 8abd c7ff 4d3d 1e55 5abc 3b07 083d
00000070: 8fbf 373d a216 8d3d 9bfa 323d 6232 553d
00000080: bd04 d13c ae33 403d 98d4 683c f4b9 5f3d
00000090: e1b1 a0bc 0b2b 8fbb 8cbf 983d 98fe 85bd
000000a0: cf37 0e3d 42f4 a03c ba8e 86bd 8f5a 373c
000000b0: f27f e73c dadc 1bbd d191 99bd f209 7bbd
000000c0: 5dd8 27bd 694f bfbc 6a95 31bd 39c6 86bd
000000d0: ae87 0ebd a6b3 b9bc 8b05 fd3d 935d cebc
000000e0: d2b6 cd3c 06d1 f83d 2698 3cbd 4c06 87bc
000000f0: 4c50 de3c 7652 a4bd 092e 81bd 1f4b 1fbd
00000100: 7497 f839 64f2 7dbc 0ba6 6f3c f264 b23c
00000110: 2e52 103c 4fb8 b13c 6ff0 d3bc 109e 823b
00000120: 0222 2dbc 0f79 ba3d b702 033e c7a6 6fbd
00000130: 5085 303d 4021 713d 44e4 e0bd 06e5 59bd
00000140: a96b 99bc 8d78 8e3b d67f 50bc 2947 a7bd
00000150: 569f a03d 9078 953c dbfd a33b 5620 aa3d
00000160: 3540 3b3d 65b2 123d 704d e33d 4bae e93d
00000170: 412a cd3d ebf5 a73c 5c91 003d 966b 1f3d
00000180: cbe3 9a3c 5451 e63c 84ac b23c 9c74 593d
00000190: 5ce0 373d 85c2 a4bc 8144 173d 00bd aa3d
000001a0: 8c96 6ebb d460 bc3c 0d1f 573d ff17 c43c
000001b0: 19e3 61bd d5a4 e2bc 9d69 efbc 3c86 be3c
000001c0: afbc 333d 2866 fc3b 6e42 463c 93e1 13bc
000001d0: 3415 bd3c cd31 82bc d8c8 123d 8df6 0f3d
000001e0: 3c5f b5ba 330b 653d f8db 5e3d 1665 3cbd
000001f0: 138a cf3b ac32 0d3d 36e2 d13d f7ee c33c
00000200: 0523 093c 57a0 f23d b4d2 3c3d 6994 183d
00000210: 7569 c23c 1fce 2bbd 74e4 5bbd f035 7c3d
00000220: 5b43 1dbd fe1b 39bd 96b1 303d b2b1 92bd
00000230: c24c cabd 44e6 e73d 9344 043d 77f2 1c3b
00000240: a4d7 6ebd 5691 903d 5955 de3d 6474 8fbd
00000250: b65d 4b3d d62c 383d 82ce 08be f5e5 d9bc
00000260: 0cf5 16bc ccf2 95bd 874a 87bd ad71 31bd
00000270: 0bd9 19bd fdfe dcbc 4dc0 adbc 9b7f 3ebd
00000280: 4847 94bb 71cf 87bc da23 b53b eb5a c53b
00000290: ebf0 853c b6c0 61bb 1a37 17bd 98ea f03b
000002a0: 6c4e 2cbc 4cde 3ebd 9edd 55bc 8225 db3d
000002b0: 5f74 af3d 4c46 a4be 2fc8 383e d0bb a63d
000002c0: 7678 98be 5a8b 533e 5c00 493e 6060 70be
000002d0: 21e7 02bd 59ca 5bbd 8d7b e7bd 0c25 ba3c
000002e0: f148 b13c d4f0 1bbd ec78 843d e091 693c
000002f0: 527c 033c 9b2b 12bc 525e 9abb 9aab 1abd
00000300: 5832 483c e781 2fbd 7725 20bd a5e5 68bd
00000310: 31a7 1ebc d7a9 253b e019 283b 60fb 63bc
00000320: 4cb3 f9bc 8604 a8bc 3cdd 3abc 1180 11bd
00000330: 0f21 01bc 5c25 4f3d bcdd edbc 9bab 61bd
00000340: a30c 22bc 4b4e 38bd d258 99bc 17fa a2bc
00000350: b273 90bd c91b 0a3a 865c 1dbd ea96 a4bc
00000360: 035a 1b3d 23a4 0c3c c36b 5b3b f309 213c
00000370: 0e45 f5bc faf9 68bd ea23 3cbc ead1 fcbc
00000380: 8167 03bd c277 59bd bbdc 43bd dd4c 43bd
00000390: e101 4b3d 3b9f 55bc 6a3c a23b 2ef4 0ebb
000003a0: bf84 e33c 4031 2d3b 849e 95bc 395c a43c
000003b0: bdb0 09bd f5a1 b2bc 1c23 113d 1bf5 ccbc
000003c0: d623 0fbc 1649 3c3d 406b ae3b a1aa 29bd
000003d0: 9993 ccbc 61fd a73c ee2e 6ebc aa24 d4bc
000003e0: 757d ca3b 0198 acbd a61f edbc e130 21bc
000003f0: a104 963d 5896 8a3c 2577 99bd e62d d63d
-0.0004208856 -0.004436239 -0.021687575 -0.03371357 -0.034793824 -0.060246516 -0.061890446 -0.030718688
-0.05544276 -0.096493214 -0.10456406 -0.12124444 -0.025593538 -0.0014500304 -0.0153454505 -0.039041847
-0.039297596 -0.04237901 -0.011216941 0.05219684 -0.00187541 -0.038682863 0.06167396 0.005899856
-0.06747978 0.050292756 -0.013325958 0.03321002 0.04486042 0.068890825 0.043696027 0.052050002
0.025514955 0.046924286 0.014210843 0.054620698 -0.01961607 -0.004369145 0.0745841 -0.065427005
0.034721192 0.019647721 -0.06570192 0.011191024 0.028259251 -0.038052417 -0.074985154 -0.06128878
-0.040977824 -0.023353295 -0.043355383 -0.06580777 -0.034797363 -0.02266867 0.12354573 -0.025191104
0.02511159 0.12149243 -0.046043538 -0.016482495 0.027137898 -0.08023541 -0.06307609 -0.03889
0.00047415087 -0.015499685 0.01462699 0.02177665 0.008808656 0.02169433 -0.025871484 0.0039861277
-0.01056719 0.09105121 0.12794004 -0.05850866 0.043095887 0.0588696 -0.10981038 -0.05319693
-0.018728094 0.004347867 -0.012725791 -0.081678696 0.07842891 0.018245965 0.005004627 0.08306949
0.04571553 0.03581466 0.110987544 0.11410197 0.10017825 0.020503005 0.031388626 0.03892096
0.018907448 0.028114952 0.021810777 0.053089723 0.0448917 -0.020112285 0.036930565 0.0833683
-0.003640565 0.02299539 0.052519847 0.023937223 -0.055148218 -0.027666489 -0.029225165 0.023257367
0.043881115 0.0077026077 0.012100799 -0.009025949 0.0230814 -0.015892887 0.03583607 0.03514724
-0.0013837586 0.055918884 0.054408997 -0.04599484 0.0063335984 0.034472153 0.102482244 0.023917658
0.008370166 0.11846989 0.04609938 0.03725091 0.023731926 -0.04194462 -0.053684667 0.061574876
-0.038394313 -0.04519271 0.04313811 -0.07162799 -0.09877922 0.113232166 0.03229196 0.0023948231
-0.05831112 0.07058971 0.108561225 -0.070046216 0.049649917 0.044964634 -0.13360026 -0.02659891
-0.009213697 -0.073217005 -0.06606012 -0.0433213 -0.037560504 -0.026977057 -0.02120986 -0.046508413
-0.004525099 -0.016578408 0.0055279555 0.006022801 0.01635023 -0.003444714 -0.036917783 0.0073521845
-0.010516744 -0.046598718 -0.013053326 0.107005134 0.08567118 -0.32084882 0.18045114 0.08141291
-0.29779404 0.20658627 0.19629043 -0.23474264 -0.031958703 -0.05365977 -0.11302862 0.022722743
0.021641226 -0.03807147 0.064683765 0.014255971 0.008025246 -0.008921529 -0.004710951 -0.03776131
0.012219034 -0.042848494 -0.03909823 -0.05685963 -0.009683416 0.0025278234 0.0025650188 -0.013914913
-0.030481003 -0.02050997 -0.011405285 -0.035522524 -0.007881417 0.050572738 -0.029036395 -0.055095296
-0.009890708 -0.04499654 -0.01871911 -0.019894643 -0.07053317 0.00052684225 -0.038418315 -0.020091493
0.03792764 0.008584055 0.003348098 0.009829032 -0.029940154 -0.05687902 -0.011483172 -0.030861814
-0.03208113 -0.053092726 -0.047817927 -0.047680724 0.04956234 -0.013038452 0.0049510496 -0.0021813023
0.02777326 0.002642706 -0.018264063 0.020063506 -0.033615816 -0.021805743 0.035433874 -0.02501922
-0.008736571 0.045968138 0.005322844 -0.04142249 -0.024972724 0.020506563 -0.014537556 -0.025896389
0.0061795064 -0.0842743 -0.028945755 -0.009838314 0.07325102 0.016917393 -0.07493428 0.10457973
