TuiGAN/models/horse2zebra/ab0.pth (torch, 233612 bytes, 46 tensors)

weight f4 [32, 3, 3, 3]
00000000: af33 f639 c721 283d b149 19bd 65f5 c53b
00000010: d59e debc fa29 19bc f6d0 cfbc 8b6e f8bc
00000020: 5c81 693d 8a67 9e3c 354a 7a3d 48bb 08bd
00000030: 8a4c 053c b8bb 8fbc 5c9e ad3c 8e5e 02bc
00000040: 6d8f 08bc f6b4 983d dd1a b53c f051 5c3d
00000050: a153 2ebd ed2f a1bb a700 19bd 70e4 823b
00000060: d458 09bc b180 f0bc 72d7 3a3d d37e e83a
00000070: 29ee 463d 0afe 70bd 7f85 b9bc 5d26 cd3c
00000080: 9a71 ae3c badf 993c 6db1 d5bc 9c32 df3c
00000090: e608 b13b c516 403d a581 6cbd ad30 eabc
000000a0: bc00 423d 1484 583d da75 a13a 106b c5bc
000000b0: ccbb 303c 7659 13bc 7450 a93c 25c8 72bd
000000c0: 472d babc e724 533d be79 623d ffad 78bc
000000d0: e734 45bd 578d 4cbc 0bee 0b3c 1314 bfbc
000000e0: 5309 d63d 4181 ce3b 3909 393c 62a8 f53b
000000f0: 3832 5cbc 677c 11bd ac2b 89ba 1ded d33c
00000100: 30f2 9dbc a877 ba3d edb5 fe3b 2967 02bc
00000110: 06c5 95bc d113 72bb 0324 1dbd fa74 02bc
00000120: 7533 963c 7b31 50bc 43ff 903d d221 113c
00000130: ec17 853b b9df a2bc 3ae0 bf3a 4c9b 04bd
00000140: c038 4dbc 2c90 7b3c 9407 d53c 74e1 033c
00000150: b296 7d3c 9038 a73a 5321 bc3c 7f9f 283d
00000160: 057e ef3a b7a8 18bc 33fe 21bd 44e5 89bc
00000170: 42be 8ebc 5f85 52bd 384b 5abd 3440 3c3c
00000180: bf6c 22bc 249f 2ebc e8c9 02bd d2fa d23b
00000190: 6c0f 643d 11df 913c 3b69 edbc b71b 93bb
000001a0: 20ef 5b3d 477b aa3c 078e 073d 4b8f dfbc
000001b0: acd4 f63c 12f9 e838 bb93 1e3d 015d aa3b
000001c0: 2498 e53c 79c7 8ebb 356b 153c 432e d43b
000001d0: dfec cd3c 46a2 ac3c 32a9 a83c c3f9 843c
000001e0: 13ed 033d 40c9 ee3c 505e 653b febe 5f3d
000001f0: e0f6 013d 4db8 3a3c 5ab2 2ebd 17bc 47bd
00000200: 735d 14bc 3aca acbc c78c 9bbc ad85 38bc
00000210: 408b 02bc cb4f 08bd 5150 00bd 8a52 d53c
00000220: 40a3 363d 0d86 fd3c 1977 b53c f36c a03d
00000230: a3bb 0abc 3b75 053d 2135 6abb 9683 c53c
00000240: c5f5 fd39 80cc 803c 4862 af3c d9ff 893b
00000250: 9fde 7f3d 6e44 ac3b 4c75 403a 0b37 26bc
00000260: 5728 cd3c 6e12 7dbc ed3b 0fbd 8743 eebb
00000270: 9a71 41bb 5724 803b e333 2abd a6de 93bb
00000280: 0a03 7bbd 11bf e3bc 8a75 a83c e3f0 fc3b
00000290: fb55 e63c e1dd e9bb b32f 003d 22bd 6b3d
000002a0: 6983 18bd 0fef b9bc 311d 58bd e70e 0e3c
000002b0: ee6e 203c 1c73 083b d58a 353b 7bbf 033d
000002c0: 9a6a a03d cb8c 703c b157 02bd 3a08 0fbd
000002d0: c844 9f3d 9530 c7bc 8810 e2bc a864 373d
000002e0: 29d1 293d d739 7b3d e4ce 793c 3ea7 84bc
000002f0: befc 15bb 1cd1 923c ac0d 113d 9ecf a83a
00000300: ac2d 94bc f377 f63c 62e5 7d3c f5ac 303d
00000310: 2d24 2d3d 7ede 27bd 6c17 143d 4626 1e3d
00000320: 4fa4 1d3b cfd6 7b3b 86b3 f53c 525a 543c
00000330: c22e 113d 626b 383d cbd8 6cbd 07dc 2fbc
00000340: 7bb9 22bc 3e9a 28bd 0446 82bd 413e 7fbc
00000350: 6856 22bd b380 54ba 701b de3c 33f6 08bd
00000360: 3f9c 823d b96c 25bc 7c88 adbc d355 e53b
00000370: c1f2 7dbd fa6d 533c e162 02bd 06c4 7abc
00000380: bc16 cf3c 8620 813d 12c3 54ba 7149 acbc
00000390: 8de8 5d3a 0d30 1bbd 2b00 ff3b a917 1cbd
000003a0: 5112 deb9 bc80 cd3c 46ca d03d 9074 fe3c
000003b0: 5f31 383c 1582 b33c 41ab 1bbd 77c7 6f3c
000003c0: 3c55 12bd 6592 b3bb bcef 2c3d 4e8d d93c
000003d0: afbf e13b 40ea 66bd f2a5 253d 54a8 7cbb
000003e0: c6be 333a 3819 a93c 21b1 ff3c c268 043d
000003f0: 0d28 abba 6e1b ac3c f2a0 89bd ce49 1a3d
0.00046959284 0.041047838 -0.037423793 0.006041216 -0.027175346 -0.009348387 -0.025368195 -0.030326148
0.057008132 0.01933648 0.061105926 -0.03338173 0.008135924 -0.017545566 0.021193676 -0.007957114
-0.008334977 0.074563906 0.022107536 0.05378908 -0.042560223 -0.0049190433 -0.037354138 0.003994517
-0.008382995 -0.02935824 0.04561562 0.0017737992 0.04856697 -0.05883602 -0.022646664 0.025042707
0.021294404 0.018783439 -0.02608558 0.027245812 0.005402672 0.046896715 -0.057740826 -0.028587664
0.04736398 0.052860335 0.0012318448 -0.024098903 0.010786962 -0.008993497 0.020668246 -0.059272904
-0.022726668 0.051548865 0.055291884 -0.015178203 -0.048146155 -0.01248487 0.008540641 -0.023325002
0.10450997 0.0063020294 0.011293703 0.0074968794 -0.013439707 -0.03551903 -0.0010465286 0.0258699
-0.019280523 0.09104854 0.007773152 -0.007959166 -0.018282425 -0.003693808 -0.03836442 -0.00796246
0.018335083 -0.01270711 0.07079937 0.008858161 0.0040616896 -0.01988207 0.0014638968 -0.032374665
-0.012525737 0.0153541975 0.02600459 0.008049358 0.015477823 0.0012757946 0.022965109 0.041167732
0.001827181 -0.0093175685 -0.039549064 -0.016832955 -0.017424706 -0.051396724 -0.05329439 0.011489917
-0.009913622 -0.010658059 -0.031930834 0.0064385915 0.05567877 0.017806562 -0.028980842 -0.004489388
0.053694844 0.020810736 0.033094432 -0.027290007 0.030130707 0.00011109015 0.038715106 0.005199075
0.028026648 -0.004357275 0.009119798 0.0064752414 0.025137363 0.021073472 0.020588491 0.016232377
0.032208513 0.029148698 0.0034998842 0.054625504 0.03172958 0.01139648 -0.042650558 -0.04876336
-0.009055483 -0.021092523 -0.018988026 -0.01126234 -0.00796777 -0.03327922 -0.031326596 0.026040334
0.04458928 0.03094771 0.022151517 0.078332804 -0.008467588 0.032582503 -0.0035737234 0.024110597
0.00048439033 0.015722513 0.021409169 0.0042114076 0.062468167 0.005257181 0.00073416973 -0.010144959
0.02504365 -0.0154462885 -0.03496926 -0.0072712335 -0.0029517175 0.003910582 -0.04155339 -0.0045126257
-0.061282195 -0.027801068 0.02056386 0.0077191456 0.02811717 -0.0071370457 0.03129549 0.057553418
-0.037234697 -0.022697 -0.052762214 0.008670545 0.009792073 0.0020820564 0.0027701159 0.032165032
0.07832833 0.014682005 -0.03182191 -0.034919955 0.07776791 -0.024315158 -0.027595773 0.044773728
0.041459236 0.061334457 0.0152470805 -0.016193029 -0.0022886242 0.017921977 0.03541343 0.0012879258
-0.018088184 0.030086493 0.015496584 0.043133695 0.042270828 -0.04098367 0.03615515 0.03861072
0.0024054234 0.0038427596 0.02999283 0.012960987 0.035444982 0.045024283 -0.057823937 -0.010733611
-0.009931917 -0.04116272 -0.06361011 -0.015578807 -0.039633185 -0.0008106336 0.027112693 -0.03343792
0.06377458 -0.010096722 -0.021183245 0.0069987564 -0.061999086 0.012904638 -0.03183258 -0.015305525
0.025279395 0.063050315 -0.0008116226 -0.021031113 0.0008465134 -0.03788762 0.0077820024 -0.0381085
-0.00042356786 0.0250858 0.101948306 0.03106144 0.01124224 0.021912614 -0.038005117 0.0146349585
-0.035725817 -0.005480098 0.042220816 0.026556637 0.0068893055 -0.056375742 0.04044146 -0.003855248
0.00068567356 0.020641908 0.031212391 0.032326467 -0.0013058201 0.021009173 -0.06720151 0.037668042

bias f4 [32]
00000000: d90f 90bd bc16 5dbd 66f6 313e c5db 743c
00000010: 828c 16be 1493 eb3d 2f7d 2ebd 5f8e 803d
00000020: 55be 9bbd 2e7e dbbd cddb 66bc e0b7 183e
00000030: 5c96 e43c 3678 d23d b91f a6bd 6ac6 1fbe
00000040: 7924 313e a301 263e 5fa5 6a3a fd5f 04bd
00000050: 5542 2a3e cbf6 fdbc 9887 90bd 7c12 67bb
00000060: 1bd1 113c b7a9 81bd 5807 0a3d d2b9 bb3d
00000070: f889 90bd 8dbf 1abe 4c17 213e 8b18 4a3d
-0.07034273 -0.05397676 0.1737915 0.014944975 -0.14702037 0.11502662 -0.042599853 0.06277155
-0.07604662 -0.10717426 -0.0140904905 0.14913893 0.027903728 0.10276835 -0.08111519 -0.15603033
0.1729907 0.16211562 0.0008951034 -0.032318104 0.16626866 -0.03100147 -0.070571125 -0.003525882
0.008899952 -0.06331199 0.03369841 0.09166302 -0.070575655 -0.15112133 0.15731543 0.049339812

weight f4 [32]
00000000: c148 7d3f af3f 7f3f 093f 7b3f 8b92 643f
00000010: e931 753f a23f 7c3f cd4c 713f cb1d 6e3f
00000020: 0474 813f 07c5 853f 3607 7c3f b7dd 733f
00000030: dfca 7c3f eadf 883f 2aff 823f 3cb5 7c3f
00000040: 10b1 7d3f 2181 7d3f 517a 823f e889 763f
00000050: 243b 813f 7d1f 763f 4f0a 863f b5d0 893f
00000060: 3609 7f3f 3920 6a3f af3e 823f 683f 853f
00000070: 2204 803f 04a1 843f 07e6 8b3f 4536 843f
0.9893914 0.9970655 0.9814306 0.89286107 0.9577928 0.98534596 0.94257814 0.9301421
1.011353 1.0450753 0.98448503 0.95260185 0.98747057 1.0693333 1.023412 0.9871404
0.990983 0.9902516 1.0193578 0.9630418 1.0096173 0.961418 1.0471896 1.0766817
0.9962343 0.9145542 1.017538 1.0409975 1.0001261 1.0361638 1.0929574 1.0329062

bias f4 [32]
00000000: e5cd a0bd 7119 28be f902 9cbd f115 9bbe
00000010: 55ee 91bc ef0c 04bd 22ae 2cbe f416 f03c
00000020: 018f 61bd 7896 c7bd 871e 0ebe a6f0 86bd
00000030: 1179 a0bd bfc6 8dbe 95dc 5ebe 2af1 f23b
00000040: 92f6 173d a3f6 5cbe 42c0 1ebe 4f50 03be
00000050: 62b4 e1bd c61c 033e 7d10 12bb 3e3a 69be
00000060: e1c5 b8bc 79b7 073e bf71 4ebc 9c2c 52be
00000070: 32bb cfbd fc13 da3d b3ba 213d 3319 2abe
-0.07851771 -0.16415955 -0.076177545 -0.30290177 -0.01781384 -0.032238897 -0.16863301 0.02930782
-0.05506802 -0.097454965 -0.13878833 -0.06588869 -0.078355916 -0.27690694 -0.21763833 0.007414003
0.037100382 -0.2157846 -0.15503028 -0.12823604 -0.110207334 0.12803945 -0.002228766 -0.22776124
-0.022555294 0.13253583 -0.012600361 -0.2052483 -0.101431265 0.10648343 0.03948469 -0.16611175

running_mean f4 [32]
00000000: c991 a0bd c197 43bd 7faf 2c3e b8ae 2d3b
00000010: f9c4 d4bd 32a1 233e 77eb b1bd 098b d03d
00000020: 7483 e1bd 6f80 6dbd d4dd febc eccd 443e
00000030: 7d25 8d3c f55b d63d 0398 8fbd e99e 29be
00000040: 64ab ea3d 06ea 203e 3b10 83bc a360 603b
00000050: 66ae 103e 033b 9fbd 8b55 abbd 7054 b6bc
00000060: 9fe4 fa3b ce80 6dbc 9296 993d f892 893d
00000070: ae72 04be 27aa 04be 0870 1b3e adf6 2e3d
-0.07840306 -0.047752146 0.16863821 0.0026501846 -0.10389132 0.1597946 -0.086874895 0.10182769
-0.11011401 -0.057983812 -0.031111635 0.19219178 0.01722979 0.10466758 -0.07011416 -0.16564526
0.114584714 0.15714273 -0.01599895 0.0034237287 0.14129028 -0.077749275 -0.083659254 -0.02225706
0.0076566483 -0.014496041 0.07499422 0.06717485 -0.12934372 -0.12955533 0.15179455 0.042715717

running_var f4 [32]
00000000: 8a17 7d3b 62e9 723b 50fe da3b 8a8a a73a
00000010: 1f8a 9b3b aa41 ff3b e66a 703c 582b 983b
00000020: ab07 b53b 0bfb c73b 33c6 ad3b 498a cf3b
00000030: 12ff 373c 5e35 193b 5eee a53b a3be d93c
00000040: 76d9 513d 3918 763b 7375 373b b0a0 603b
00000050: 756d 973b 45bd 833c 8f28 233d 1c54 633b
00000060: c010 b13b 8171 0d3c 347a d93b 7474 773b
00000070: 54b5 833b 0587 643b a2fd d13b 1710 543b
0.0038618767 0.0037065377 0.0066831484 0.0012782377 0.00474669 0.00778981 0.014673924 0.004643839
0.0055245957 0.0061029247 0.005303168 0.0063336235 0.011230247 0.0023377757 0.005063816 0.02658016
0.051232778 0.003755106 0.002799359 0.0034275465 0.0046212026 0.016081462 0.0398336 0.0034687584
0.005403608 0.0086330185 0.006636882 0.003775862 0.0040194187 0.0034870517 0.006408409 0.0032358223

weight f4 [32, 32, 3, 3]
00000000: f650 b8bc eee4 1dbc 26c4 26bc 0995 27bd
00000010: de0d a9bc 1110 8e3c 4404 6fbc 5699 0abc
00000020: 5f39 663d 8068 84bc 093a 2f3c 978d 0abd
00000030: 5d3c 0f3c e19e 023c dde3 07bc 6fa5 053d
00000040: 1ff0 62ba 50fc d8bc 159e ab3d 84c8 bf3d
00000050: 4304 e53c 2fbf 213d 79cc 963c 74f9 b53a
00000060: 541c 13bd 0b00 fc3c f316 1f3b a197 453d
00000070: 715c 4cbb 9267 363d 7881 e5bc 9761 83bc
00000080: a7a3 953b 9997 cabc af75 43bd 3504 1cbd
00000090: 018f 97bd 0a9b f3bc 3b06 9d3c 966d a93b
000000a0: b94a 11bd 4afd cfbc 683a bcba 657b 3dbd
000000b0: 8222 0f3b 1a04 96bc ba80 62bc b4b6 f63c
000000c0: 3e3b 82bd 3c1c 9abc dc59 7f3b ed23 eabc
000000d0: dbb1 c3bb f751 03bd 12dd f1ba e2e1 063b
000000e0: ef98 8ebb 86e7 acbb 04f7 e13b f0f2 d13c
000000f0: fe51 a03c d2d0 503d e72f b4bb 73c9 4dbd
00000100: 3f64 e23c ab8a 2bbb 1035 3cb9 9c7b 213d
00000110: 8f93 08bd cf2e debc 7780 1a3c 4b93 13bd
00000120: c3f2 393c 072a 8e3c 12ab a8bc 686f da3c
00000130: b977 48bd 5a3f 133c 6111 4ebc 588e 0b3c
00000140: b777 4d3d de0e 87bc 837c eabc e40f 87bd
00000150: b058 fabc e832 d13c 3dc9 9abc b68e e9bc
00000160: 41a9 3f3d 3caf 60bd d268 053d 56cd 5c3c
00000170: 8df9 aabc 289a 173d bc56 0d3c de03 d6bc
00000180: 0904 053c e661 193d 4d9c 093d 6f67 c43c
00000190: dc68 07bc 1fd5 5dbd d37b 8bbc b232 933c
000001a0: b73c 1aba 7933 a53c 0670 0e3d 4b2b d43c
000001b0: 180c 17bd bf51 0b3d 2bc8 e5bc 373a a139
000001c0: d59f 513c 82b5 a0bb 844e be3b 94f2 0a3c
000001d0: 79ca 863d 94d1 763d c462 6dbd 2485 33bc
000001e0: 1cb7 3b3d ad5f 4d3d 479a febc 215d 443c
000001f0: 7ae0 c13b 0956 913d 5c4f 693c 0f27 3fbc
00000200: a888 8cbc 6d7d 1fbd d9c9 e9bc c1f4 013d
00000210: 56fe 993c 6220 bfbc 2950 28bb d12e c63c
00000220: d563 53bc 3bcd 723d 3d98 a8bc 5134 a6bb
00000230: f720 363d 52db ea3c 0875 903c 0850 363d
00000240: 676a ed3b e931 1f3d 3914 e23c 9a7a 003b
00000250: c7ae 8f3d b77e 303d 4e47 963d 0139 3b3d
00000260: 23ce 923d b0f5 a7bb 499c 173c 0f5f 86bd
00000270: d0c2 c2bc aa07 cebc fe7b 7c3d f1f1 df37
00000280: 354c 1c3d 2280 d33c 7d30 7d3c 85cd 23bd
00000290: 1e4e 683d 59e3 893d 0e7e 32bd 9638 1e3d
000002a0: 2d31 943c 2be5 a43d 6481 9cbc 4afa ea3d
000002b0: 0eec b83c 6249 64bb 9771 c13d fcbb 2c3c
000002c0: 94f8 90ba 844e 883d fee6 19bd b6d7 9f3d
000002d0: bf2c 7a3d be4c ac3b 5e72 9fbc 82dd c5bc
000002e0: e8a0 41bc c424 3e3d 0dcd 5dbd e25d 8e3b
000002f0: f105 0dbd 9549 223d 0f6d 19bc a931 1f3c
00000300: 840c 6a3d d07d b53c 3f04 b33c 45b1 e23b
00000310: bf17 943c f123 283d 06ce 083a a5ad cfbb
00000320: 2bde ec3c 6869 10bd 7d2a 223c 4b77 34bd
00000330: 2796 0bbc c667 03bd 1c8f 923b 7aa9 03bd
00000340: 08dd 693c 3b10 88ba 5a25 4e3c 4d1c eabc
00000350: b99d e73c 0c28 85bc 2557 073d ef3e eebc
00000360: 5ff0 5a3d cb8b 593c c1a6 4a3c 07bf c8bc
00000370: ac18 1fbd b7cd 47bd 7298 ecbc 3950 153d
00000380: cb04 a8bc dc16 a63b c75b 423c c0aa ac3c
00000390: 6a99 d3bb 8ac6 103d 631d a63c 7834 40bd
000003a0: 68b3 a53c c615 383c 19b9 443d 8b62 723c
000003b0: 1230 01bd 6439 8ebc c667 2cbb 56d4 cdbc
000003c0: 38a0 d53c 3616 093c 6396 923b 0213 1c3d
000003d0: 0009 63bc 421e 233d c149 41bd 5e92 9abd
000003e0: 3d99 023d 7bb6 313d 6307 8b3c 8315 bdbb
000003f0: 4caa 7f3d b5b7 213b 8b18 083b 7221 22bd
-0.022499543 -0.009637101 -0.010178601 -0.040913615 -0.020636495 0.017341645 -0.014588419 -0.00845941
0.056207057 -0.01616311 0.010694989 -0.033826437 0.008742419 0.00797245 -0.008294073 0.032628473
-0.00086569967 -0.0264875 0.08379761 0.09364417 0.027956134 0.039488968 0.018408047 0.0013883547
-0.035915688 0.03076174 0.0024275153 0.048240308 -0.003118303 0.044532366 -0.028015837 -0.016037745
0.004566628 -0.02473049 -0.047719654 -0.03808995 -0.07400323 -0.029737014 0.01916801 0.0051705344
-0.03547165 -0.025389332 -0.0014360668 -0.046260256 0.0021840637 -0.018312503 -0.013824636 0.030116417
-0.06358956 -0.018812291 0.0038963472 -0.028581584 -0.0059721298 -0.03206059 -0.0018452725 0.0020581414
-0.004351727 -0.005276623 0.0068959016 0.025628537 0.019570347 0.050980397 -0.0054988745 -0.050240945
0.027635692 -0.0026175182 -0.00017948844 0.039424524 -0.033343848 -0.02712193 0.0094300425 -0.03602914
0.011349383 0.017354025 -0.020589385 0.02666445 -0.0489423 0.008987272 -0.012577386 0.008517824
0.050162997 -0.016486581 -0.028623825 -0.06594828 -0.030559868 0.02553697 -0.018894786 -0.028510433
0.046792272 -0.054854617 0.032570668 0.01347669 -0.020870948 0.03701225 0.008626636 -0.02612489
0.008118638 0.03744688 0.033596326 0.023975102 -0.0082647465 -0.054158326 -0.017026817 0.01796851
-0.0005883681 0.020166146 0.034774803 0.02589955 -0.036876768 0.034013506 -0.02804955 0.00030751686
0.012794455 -0.00490445 0.0058076996 0.008480687 0.06581587 0.060258463 -0.05795552 -0.010957036
0.045828924 0.05014007 -0.031079425 0.011985094 0.0059166523 0.07096488 0.014240112 -0.011667027
-0.017155007 -0.038937975 -0.028538631 0.031727556 0.018798035 -0.023330871 -0.0025682545 0.024192246
-0.01290222 0.059277754 -0.020580405 -0.0050721546 0.04446503 0.028669033 0.01763393 0.044509917
0.00724535 0.038865957 0.027597534 0.0019604326 0.07015758 0.043089595 0.07337819 0.04570866
0.07168224 -0.005125724 0.00925357 -0.065611 -0.023774534 -0.025150139 0.061641686 2.6696334e-05
0.038158614 0.025817934 0.015453455 -0.03999092 0.056715123 0.06732816 -0.043577246 0.038628183
0.018089855 0.08051523 -0.019104667 0.1147352 0.022573497 -0.0034833779 0.09445494 0.010542866
-0.001106041 0.06655601 -0.037573807 0.078048155 0.06107783 0.005258172 -0.019463714 -0.024153475
-0.011818148 0.04642178 -0.05415063 0.004344688 -0.034429494 0.039620955 -0.0093643805 0.00971643
0.057140842 0.022154719 0.02185261 0.006918105 0.01807773 0.0410499 0.0005218688 -0.0063378387
0.028914532 -0.035256773 0.009897825 -0.04405908 -0.008519686 -0.032081388 0.0044726264 -0.032144047
0.014273889 -0.0010380814 0.0125821475 -0.028577948 0.02827345 -0.016254447 0.033042092 -0.029082743
0.053451892 0.013277958 0.012368859 -0.024505151 -0.03884189 -0.04878017 -0.028881285 0.03645346
-0.020510098 0.005068643 0.011862702 0.021077514 -0.0064574974 0.03534559 0.020277685 -0.046925038
0.02022715 0.01123566 0.048028085 0.014794002 -0.031539984 -0.01736135 -0.002630697 -0.025125664
0.026077375 0.008367112 0.004473494 0.038104065 -0.013857126 0.039823778 -0.047189478 -0.075474486
0.03188442 0.043386918 0.016971296 -0.0057703867 0.062418267 0.0024676148 0.0020766582 -0.039582677

bias f4 [32]
00000000: 3311 bb3c 237c b7ba 3fcb 253d 317e e0bc
00000010: 4652 10bc abd2 2d3d 5c2a 7cbd 2527 343c
00000020: b796 53bd eef6 d6bc 1144 86bb 7339 03bd
00000030: cc20 58bd 5cb6 b8bb 3109 30bd b9e9 09bd
00000040: efca 3cbd 637f 973c d66f e9bc 7655 243c
00000050: dad0 ee3c 09c6 113d d631 5b3d 036c 5e3d
00000060: fc33 8a3b ad66 aa3c d574 203d 004e 3fbd
00000070: 1f1d 893b 1e03 f1ba 9259 6ebd 53a1 ae3c
0.02283535 -0.0013998788 0.040477034 -0.027403923 -0.008808678 0.042437237 -0.061563835 0.010995661
-0.051657405 -0.026240792 -0.0040974696 -0.03203721 -0.052765653 -0.0056369733 -0.042977516 -0.03367016
-0.04609197 0.01849336 -0.02849571 0.010030141 0.029152323 0.03558925 0.053514324 0.054302227
0.004217623 0.020800913 0.03917392 -0.046705246 0.0041843797 -0.001838777 -0.05819089 0.02131716

weight f4 [32]
00000000: ea2a 7c3f 3201 843f b9c6 843f 2888 853f
00000010: f30f 7d3f 41b5 833f 59aa 793f 0195 823f
00000020: d542 7c3f 1768 843f fa78 883f def5 833f
00000030: eb5c 7e3f 697a 813f 7bfb 7d3f 0f46 7b3f
00000040: 189e 783f b228 7e3f 57fd 743f f665 773f
00000050: 777e 6f3f 4241 7f3f 1d56 763f 2478 7c3f
00000060: b8a3 863f 3ffe 6d3f f751 873f 6c74 733f
00000070: 3756 7e3f 3491 773f 2c87 863f fe8c 843f
0.9850298 1.0312865 1.0373145 1.0432177 0.9885246 1.0289689 0.97525555 1.0201722
0.9853948 1.0344266 1.0661919 1.0309408 0.9936053 1.0115482 0.99211854 0.98153776
0.9711623 0.99280846 0.95699066 0.96639955 0.93552345 0.9970895 0.9622515 0.9862082
1.0518713 0.92966074 1.0571889 0.9509952 0.99350303 0.9670594 1.0510001 1.0355527

bias f4 [32]
00000000: 7cb5 6dbe 528f bebd a40d 3cbe 07d7 19be
00000010: a080 55bc ca22 34ba 100a a4bd 0caf 34ba
00000020: 4def 05bd af9b 2ebe 1902 80bc 7d2a 183e
00000030: 0069 72be 3113 7bbd 9b56 1fbe 2a54 c4bd
00000040: 03f5 2ebe 41db 58be 6990 98be 8706 26be
00000050: ebc8 52be cf19 90bd 21cb 0abd 7a61 51be
00000060: 83e7 b5bd 7704 19be 2f61 d5bd 2ffe 42bd
00000070: dfa5 1ebe ef0f ffbd 978d 26bd cd58 30bd
-0.23213762 -0.0930468 -0.18364578 -0.15023433 -0.013031155 -0.0006871639 -0.08009732 -0.0006892539
-0.032698918 -0.17051576 -0.015626 0.14859958 -0.23672867 -0.0612976 -0.15560381 -0.095863655
-0.17085652 -0.21177389 -0.29797676 -0.16213427 -0.20584457 -0.070361726 -0.033885125 -0.2044734
-0.08882048 -0.1494311 -0.10418927 -0.04760569 -0.15492962 -0.12454211 -0.040662374 -0.043053437

running_mean f4 [32]
00000000: 3004 023f 3acb 5fbf 60f2 0bbf 3b90 11be
00000010: bab9 7bbe 605a cfbc 78d9 00bf 5756 39be
00000020: 6425 fd3c 5e46 08bf ba4e c4be 7824 36bf
00000030: aeb6 ec3d b74e d03e 2bbd df3d abe6 be3e
00000040: 8dda 01bd 91e4 3f3f 2e66 ac3d b474 333d
00000050: accc dcbe 2375 17be 975c 6fbe 1e9d 493f
00000060: 374d 19bf 06f3 b53c f26d d8be f573 8a3c
00000070: 86fe 21be e6e8 db3e 0d9f 6dbf 3057 d33d
0.5078764 -0.87419474 -0.5466671 -0.14215176 -0.24582568 -0.025311649 -0.5033183 -0.18099342
0.030901618 -0.5323237 -0.38341314 -0.71149397 0.11558281 0.40685055 0.10924753 0.3728536
-0.031702567 0.7495814 0.08417927 0.04381247 -0.43124902 -0.14790778 -0.23375164 0.78755367
-0.59883446 0.02221061 -0.42271382 0.016900996 -0.15819749 0.42951125 -0.9282082 0.10319364

running_var f4 [32]
00000000: 8b17 4e3e 744a 7e3e 7be8 5d3e 584a 0d3e
00000010: 808a 9f3e 1e22 863e 8fc0 893e 6a33 1b3e
00000020: 3eb5 543e af75 0a3e a6b7 803e 8d97 7d3e
00000030: 80a9 6d3e 9b71 9a3e 05c7 2c3e 1ecc 1d3e
00000040: 00be 433e de95 b13e 235d 0c3e 72cc 023e
00000050: 2288 fe3d 0b92 1a3e 6723 553e b31b 703e
00000060: 5638 583e 707b 143e 25a4 4c3e e29d 353e
00000070: 9836 203e 3479 783e e035 913e 6434 523f
0.20126168 0.24833089 0.21670716 0.13797891 0.31160355 0.26197904 0.26904723 0.15156332
0.20772263 0.13521455 0.25140113 0.24764843 0.2320919 0.301648 0.16872795 0.15409896
0.19115448 0.34684652 0.13707404 0.12773302 0.12428309 0.15094773 0.20814286 0.23448066
0.2111524 0.14500213 0.19984491 0.17736009 0.15645826 0.24264985 0.28361416 0.8211119

weight f4 [32, 32, 3, 3]
00000000: 1fd6 29bc 18b7 933c 87c8 343c e3ee 53bc
00000010: 6206 02bd fdaa 943c 519d a23b bd0d b237
00000020: da02 1c3d b44b 23bc 3bdc 59bc 668b 3fbc
00000030: 0fb1 6e3c 16b5 5c3d f152 0fbd efa0 f4bc
00000040: 29ae 6abc 95df 263d 7769 fabc 4872 1c3c
00000050: b121 193d 499d 5ebd b469 c1bd 7f6e b1bc
00000060: ee9c 51bd 948d 4ebd 36be 343d ce8f 1bbd
00000070: 78ad de3d dec8 83bd c9fe d03c d159 bc3c
00000080: 78be 78bd d34e bb3d 994e c73b d761 0e3d
00000090: e60f 903d e9e8 233d f123 46bd 43e7 09bd
000000a0: 1137 063d dce1 393b 72bd 08bd 30be 303d
000000b0: 6e7a 30bd 5a34 6aba 54ed e6bc c945 6a3b
000000c0: bc47 00bb 5027 35bb c652 d63b 5f0d edbc
000000d0: 1ffe 31bc 3a34 fe3b 5daa 7f3c d8e8 2bbd
000000e0: 4479 d2bd 78cd 143a 5b62 503d 53e0 783c
000000f0: 5c27 1e3d 51de e7bc 81d9 263d 0562 89bc
00000100: 67c1 433c d5e0 0fbc 54d4 04bd 940b b9bc
00000110: 4349 57bd de89 85bc 1b71 113d ae01 34bd
00000120: 0229 5bbc 5a68 033c 7ac4 b03c d89f 62bd
00000130: 7783 963c 77b2 d63c c942 efba 139e adbb
00000140: e14f 31bd c4ec ceb9 3f6e 0d3d 846a 24bc
00000150: 5398 b73b 9ba1 693b 62fa 573d b448 fa38
00000160: 6baf 5f3c c2a1 00bd ad6a 8d3d 7db0 b23c
00000170: d8a3 393c 0ede fc3b 4fc5 1f3d 4eb0 093c
00000180: 561a 42bb 9749 143c cd43 a83d 03c4 0cbc
00000190: 0863 133d 1fa1 aabd 3a77 3c3b ec0d dc3c
000001a0: f3de 663c 97a8 86bc 5f37 603d a90d 333d
000001b0: 56bd b5bc f74f 26bd 8daa dbbc 2288 01bc
000001c0: bb2e d3bb 8dc8 823c 2237 ec3b caca 7ebd
000001d0: 3e4d 053d a80f 5d3b b581 ba3b 74c3 4e3d
000001e0: f46b 343d 683a 3e3b 5cbf ef3c 607f fe3c
000001f0: 129b 22bd 0dbe 033d 10c0 38bd 37e2 1c3d
00000200: 5554 1c3d 783e 34bd 966d b13c b43c 1bbb
00000210: 62a6 6e3c fac0 f6bc 8aa2 cb3c 5e35 573c
00000220: 73bb 2e3d 2ff9 f3bc c38a 323d ad87 eb3c
00000230: 36e8 9bbc 33bc dcbc accd 853b 5580 0fbd
00000240: b279 8ebc 5e0a 46bd 5fff f53b a430 a4bd
00000250: 83a8 203c fd52 c3bc 5f93 33bd 6d17 593d
00000260: 1203 533b f875 563d f0c9 4cbd bdce c4bb
00000270: d622 c23c 93ab f4bc 9746 f3bc 9cde a43c
00000280: 3615 abba 1e7c a1bc 3a60 b33a 2523 dbbc
00000290: 73d2 103d a2bf 6e3a 771c 06bd ca47 f7bb
000002a0: afd7 7e3d ac82 e13c 35d6 4dbd 97c9 56bd
000002b0: 787b 49bc 2e2f e03b 1fa6 9abb 2540 143d
000002c0: b598 38bd c0a5 533b d254 40bd 5900 4dbd
000002d0: 4b8c 7739 b761 d43c f724 f0bc 71a1 08bd
000002e0: c767 a33c 3927 ed3c 11e7 2f3c 54db 3c3b
000002f0: b85f 843d 1430 4fbd 12f7 863d 191e 973c
00000300: 6535 0dbd 27a0 a03d e6e6 e93c 6b47 b7bd
00000310: 2255 0a3d 0cb6 94bd acd0 e73c 1aa9 c6bc
00000320: 06fe 33bc 861c 48bc 2551 013d 74d1 b0bb
00000330: ee12 21bd 664c bc3b 38c1 a6bc 455c 1ebd
00000340: 1a45 ab3c 3f01 433b cefb c43c ca8c 5d3c
00000350: a84f 03bd 3c18 0c3d 9986 a63b 1059 243d
00000360: 63c1 9ab9 3c13 cd3c d545 ec3c c97d 363c
00000370: 6356 0abc 81eb 3bbd 9fba 21bd 2d73 8f3d
00000380: c2da 823d 277c 13bd 7898 573c 452f a23b
00000390: 33d9 04bd e71c b4ba a840 c63c 2d92 ff3c
000003a0: cb21 213c a086 84bc d231 27bd 9373 cf3c
000003b0: 29de c23b 11f6 443d fc7f e3bc 11a1 15bd
000003c0: 0eb1 6d3d 93f8 9abb 86ea 48bd 8aec 953b
000003d0: d665 32bc 5a79 5a3b 2cc9 023d 23cb 013c
000003e0: 6a83 863b 1cb5 98bc f902 973c 92ad a3bd
000003f0: 3590 bfbc f8a1 de3b e317 42bc e3ce 3dbd
-0.010365992 0.018031642 0.011034138 -0.012935373 -0.03174437 0.01814794 0.0049626012 2.1225651e-05
0.038088657 -0.0099667795 -0.013297136 -0.01169095 0.014568581 0.053883635 -0.03499121 -0.029861895
-0.01432375 0.04074057 -0.030567868 0.009548731 0.037385646 -0.054349218 -0.094439894 -0.021659134
-0.05117505 -0.05042799 0.04412671 -0.03797894 0.1087293 -0.06434797 0.025512116 0.022992047
-0.06072852 0.09145894 0.0060823676 0.034761276 0.070342824 0.040017042 -0.04837412 -0.033667814
0.03276736 0.0028363382 -0.033383794 0.043150127 -0.043085508 -0.00089341926 -0.028189339 0.0035747162
-0.0019574007 -0.002764184 0.006540629 -0.02893704 -0.01086381 0.0077576907 0.015604583 -0.041970104
-0.10277036 0.0005676369 0.05087505 0.015190202 0.038611755 -0.02830425 0.04073477 -0.016770372
0.011947966 -0.0087816315 -0.032429054 -0.022588529 -0.052560102 -0.016301092 0.035508256 -0.043946914
-0.013376476 0.008020485 0.021578062 -0.05532822 0.018373234 0.026208146 -0.0018254156 -0.005298385
-0.04328907 -0.00039467786 0.034528967 -0.010035161 0.0056028753 0.0035649303 0.052729018 0.00011934471
0.013652663 -0.031404264 0.069051124 0.021812672 0.011330567 0.0077169007 0.039006528 0.008403851
-0.0029617748 0.009050748 0.08216057 -0.008591655 0.035983115 -0.08331513 0.0028757588 0.026862107
0.014091241 -0.016437812 0.054740306 0.0437142 -0.022185009 -0.040603604 -0.026814723 -0.007905992
-0.0064447797 0.01596477 0.007208721 -0.062205113 0.032544367 0.0033731256 0.005691732 0.050479367
0.044048265 0.0029026512 0.029266052 0.031066597 -0.039698668 0.03216367 -0.04510504 0.038301673
0.038166363 -0.044004887 0.0216587 -0.0023687305 0.014566036 -0.030121315 0.024857778 0.013135282
0.042659234 -0.029781906 0.043589365 0.028751219 -0.019031625 -0.02694521 0.004083356 -0.035034496
-0.017392013 -0.04834973 0.0075072492 -0.0801709 0.009805801 -0.023843283 -0.043841716 0.053000856
0.0032197875 0.052358598 -0.04999727 -0.0060060904 0.023698252 -0.02986697 -0.029696746 0.02012568
-0.0013052586 -0.019712504 0.0013685294 -0.026750157 0.03535695 0.0009107535 -0.03274199 -0.0075463997
0.06221741 0.02752813 -0.050253112 -0.052438345 -0.012297504 0.0068415618 -0.00471951 0.036193985
-0.045067508 0.003229484 -0.04695589 -0.05004916 0.00023608019 0.0259255 -0.029314501 -0.033357088
0.019946946 0.028949367 0.010736243 0.0028817253 0.064635694 -0.05058296 0.06590094 0.018446969
-0.03447475 0.07843047 0.028552484 -0.08949169 0.033772595 -0.07261285 0.028297745 -0.024250556
-0.010985857 -0.012213832 0.031571526 -0.0053960625 -0.039324693 0.005746412 -0.020355806 -0.038662214
0.020906974 0.0029755381 0.024045851 0.013522336 -0.032058388 0.0342028 0.0050819633 0.040124
-0.00029517253 0.025033586 0.028841892 0.011138388 -0.008443448 -0.04587889 -0.039484616 0.0700439
0.06389381 -0.036007073 0.01315891 0.0049494826 -0.0324337 -0.0013741524 0.024200752 0.031197632
0.009834717 -0.016177475 -0.040818997 0.025323665 0.0059468937 0.04808623 -0.027770989 -0.036530558
0.05803018 -0.0047293394 -0.049051784 0.004575317 -0.010888537 0.0033336491 0.031930134 0.007921967
0.0041050212 -0.018641047 0.018434035 -0.0799209 -0.023384193 0.0067942105 -0.011846515 -0.04633988

bias f4 [32]
00000000: fee5 5dbd e7c1 36bd 1dcc 103d df16 6fbd
00000010: 74aa 223b a328 bfbc 6272 0abc de4e b6bc
00000020: 4e2a dc3b 151b 993c 8060 26bd 1007 14bd
00000030: 0446 5cbd dea9 26bd 511a f0bc a1ed d93c
00000040: ea5a 113d b87b b9bb 20f7 bcbc 59ad 74bd
00000050: 6351 263d 61d4 863d e5e6 a6bc ab3c f53c
00000060: fc36 453c 1bed 673c cce2 acbc da02 543d
00000070: 955e 863b 8711 8f3d c867 19bc da85 603d
-0.054174416 -0.044618513 0.035350908 -0.05837142 0.0024820836 -0.023334807 -0.008450123 -0.022254404
0.0067189103 0.018689672 -0.040619373 -0.036139548 -0.05377771 -0.04068934 -0.029309424 0.026602568
0.035487093 -0.0056605004 -0.023067057 -0.05973563 0.04060496 0.06583477 -0.020373771 0.029936155
0.012037035 0.014155651 -0.021104239 0.051760532 0.0041006305 0.06985765 -0.009363122 0.05481515

weight f4 [32]
00000000: c62b 7a3f 3505 7d3f 2dfa 843f 30b2 803f
00000010: 5a66 7e3f 4655 803f 4fb2 7c3f ce51 763f
00000020: 0930 7e3f 9e2d 7a3f 6643 7e3f b1cc 733f
00000030: 3c2c 743f 66e9 7a3f 0203 863f 08fc 733f
00000040: a968 803f a536 833f fd00 843f b3e2 813f
00000050: 00e9 7c3f 355d 8c3f 464c 753f 2b9e 743f
00000060: 470a 7c3f f7ac 813f 3a4b 7f3f 6f40 7d3f
00000070: 0d2b 803f dede 7c3f 55f6 813f 251c 823f
0.9772304 0.9883607 1.0388848 1.0054379 0.99374926 1.0026023 0.9870958 0.96218574
0.99292046 0.97725856 0.9932159 0.9523421 0.95379996 0.9801239 1.0469668 0.95306444
1.003194 1.0251051 1.0312802 1.0147308 0.9879303 1.0965945 0.9581951 0.95553845
0.9845318 1.013091 0.9972416 0.9892644 1.0013138 0.9877757 1.01533 1.0164839

bias f4 [32]
00000000: 6710 c1bd 7929 07be bb00 ecbd dc35 5fbe
00000010: 8301 00be bf42 debe ca4b 8abd 9793 79be
00000020: 88f5 71be f95f ffbd 0ed6 24be 6836 10bd
00000030: 2e38 02be 0420 0bbe 53d1 9bbd 853e 9abe
00000040: 69af 28be a92a db3c d529 b4bd 9363 e4bd
00000050: 63ab 25be b083 4b3d 3368 12bf 0b94 3abe
00000060: bfc1 8dbd 695b c9bb 4d6a 36be 42dd cdbd
00000070: 4361 3ebe 87b6 98bd b6b9 47be e759 df3c
-0.094269566 -0.13199414 -0.11523577 -0.2179789 -0.12500577 -0.43410298 -0.06752737 -0.24372707
-0.23628819 -0.12469477 -0.1609728 -0.035208136 -0.12716743 -0.13586432 -0.07608285 -0.30125824
-0.16473164 0.02675374 -0.08797041 -0.11151805 -0.1617866 0.049686134 -0.57190245 -0.18220536
-0.0692172 -0.00614493 -0.17813988 -0.10051967 -0.1859179 -0.07456689 -0.19504437 0.027264548

running_mean f4 [32]
00000000: 6cc1 f1bd 7ac4 963e 729d 513c ff62 273e
00000010: b940 1f3e c7a1 7f3e 1fc4 b4bd f6d9 7b3e
00000020: dd89 32be fdb4 a5bd 1510 85be eda0 81be
00000030: 8573 9a3b 5f29 4bbd 9970 6fbe aa43 bebd
00000040: 4043 05bd 1019 8bbe 094a 9ebe bf99 f1bd
00000050: 5feb 96bd 77d6 c63d 7be0 863e 8e80 3d3e
00000060: 450e 2b3c 6f2f 9abc d7e9 36be b0ce 7b3e
00000070: 9241 d2bd 750c 1abd 8d48 19be 6ddd 52be
-0.118044704 0.29446775 0.012793886 0.16346358 0.15552033 0.24964057 -0.0882647 0.24594864
-0.17435403 -0.080911614 -0.25988832 -0.2531809 0.004713478 -0.0496 -0.23382796 -0.0929025
-0.032534838 -0.2716756 -0.3091586 -0.11796903 -0.07369112 0.09708875 0.2634314 0.18506071
0.010440414 -0.018821446 -0.1786264 0.24590564 -0.10266413 -0.037609536 -0.14969082 -0.2059228

running_var f4 [32]
00000000: 412b f13d 71a2 0a3e b44b 8c3e 3b7e e33d
00000010: e0bd f53d b4d9 c73d ae2d 223e 2403 963e
00000020: 03b4 323e 1f50 073e b0ae 0f3e 79b2 543e
00000030: 8b82 dd3d a77c 383e af3a 163e 8744 ed3d
00000040: d5f7 c43d 46cd 903f acd0 d53d 053a e73d
00000050: d3fc 953e e9a5 983e 4148 c93d f384 a93d
00000060: b12a bb3d 425e 303e 87aa 463e 57af 1a3e
00000070: 79ed 1f3e 195a c13d 8479 013e 7bc1 063e
0.11775828 0.13538529 0.27401507 0.11108061 0.119991064 0.097583205 0.15837738 0.2929927
0.17451482 0.13214158 0.14031482 0.20771207 0.10815915 0.18016301 0.14670824 0.11585336
0.09617583 1.1312644 0.104401916 0.11290363 0.29294452 0.2981408 0.098282345 0.08277311
0.09139002 0.17223457 0.19400989 0.1510595 0.15617932 0.09441013 0.12644011 0.13159744

weight f4 [32, 32, 3, 3]
00000000: 51f5 5abc a55a 90bc 5abb 40bc d161 a7bc
00000010: 2ba7 90ba f58d ddbc 85da 3dbd 20a5 0dbc
00000020: fc91 bb3c c599 4a3c 0fd0 733d 2475 0c3d
00000030: 227b 26bc 268e 653c ac96 17bd 8db6 653d
00000040: 60b7 0dbd 17c8 a33c 3c6d c7bc db27 313c
00000050: fc53 4a3c 0d52 a73c cda2 68bd cab3 9bbc
00000060: 8a15 41bc 9ae2 24bd 7076 53bc 286b e0bc
00000070: 5811 5cbd e42c e0bb 56bf 4bbc df6f e03c
00000080: 69f0 b5bc 319a 2fbc 78f4 3fbc be58 ba39
00000090: 2467 f3bc 9236 d13c 671c 7cbc ee69 41bb
000000a0: 739d 7ebc b168 bcbc 4356 12bc 73cb 48bd
000000b0: 8316 62bc 4f8d a23d 85ea a33c c736 d03c
000000c0: f09e 383d 9eae b13d 650c 0ebd c1e6 563d
000000d0: 6456 9f3d 041d 97bd c544 20bd 6ef1 6bbd
000000e0: 1517 c0bd b807 e1bc bc7e 41bd 172f 43bd
000000f0: 0883 7bbb 716e 37bc 9ec9 5bbb faf7 3fbd
00000100: 7c81 bdba e22e 2dbd 04f8 bdbc 6755 e73b
00000110: 423e ddbc b43d 36bd 13e4 e43a 8129 13bd
00000120: de61 32bd 04e1 23bc 5134 833c c816 41bd
00000130: 5d7d f7bc c997 003c 191f 44bd b11e b53c
00000140: 99b0 4dbd 409c 78bc 238b 97bc a82d 6dbd
00000150: 090a 5cbc 67e5 ddbc b6e8 04bd 8c38 9abd
00000160: 7553 30bd ff9e 82bd 7757 8fbc dceb 85bd
00000170: a9ff cdbd cd05 f93b c7f5 06bd e802 17bd
00000180: 2d98 ddbc cf94 adbd e7a0 29bd afb3 b0bb
00000190: 7c13 46bd ef5a 64bc fe19 a9bc 2e03 e3b9
000001a0: 1e0b 1abd 3aff 13bd f5fd 033b 20b3 b7bb
000001b0: ba09 18bb 0270 50bd 90f3 3bbd cd43 2dbc
000001c0: dd35 20bd d478 b2bc 6eb3 79bd b50f a0bc
000001d0: f9b8 d0bc e9f8 13bc 002c 2abd 0fef 9fbc
000001e0: 3231 b7bc 8d2b ca3c a724 97bb c485 13bc
000001f0: ce93 71bc 0951 68bc aeab 4dbd 5047 b0bc
00000200: 1c7d 753a c4a2 38bd ff30 04bd c012 1b3d
00000210: aeb9 7fbd a3b1 e2bb bb81 e4bc 810e 37bd
00000220: f93f 8a3c 312a a8bc 7827 7bbb d43b 9ebc
00000230: a7f0 e9bb 1c36 52bd 1a44 46bc eb33 ecbc
00000240: bde0 15bd 81df 14bd d613 a13c 9984 18bb
00000250: 0f93 c5bd c495 1e3d cebb bc3c e0ef d8bc
00000260: 3592 dabc 32d4 bc3c dd57 e2bc 7e1a 413b
00000270: e8e6 bcbb 785e f03c 7a88 823b d177 da3b
00000280: 0de3 bfbc e2f2 ac3c 931a 9b3c 7328 41bd
00000290: cfd3 46bd 8c1d 5b3c 22b5 023b 85c7 1abd
000002a0: adfd 9fbc 00ec 0c3c 4ff5 4dbd 7f7e 31bd
000002b0: 0142 2fbd b372 6c3c 980b 423b 526f 4ebd
000002c0: 604d 243d 9477 a13b 59b1 a23c 1425 7c3a
000002d0: 25b2 a73c e2e4 563d d419 91bc 0efa 273d
000002e0: b450 20bb 4f1d be3c c38b 87bb 7b29 9b3c
000002f0: 6508 5f3c 5259 523d a71c dc3c f58f 143c
00000300: b80d 403d 67bb a23c a77a 5e3c bd7a a63c
00000310: 1ffb 0bbc 838f bd3b 7622 80bb 4a93 65bd
00000320: b708 25bc dcdb 93bd 10de c4bc 392f a4bc
00000330: ef62 60bd 67b0 42bc 0815 b43c 4bd0 51bd
00000340: a7c8 f5bb 97e4 60bc fe30 2fbc c1c0 ccbc
00000350: dd33 323d 40ee 85bd 721a 543d b410 9a3c
00000360: cbe0 e03d d79e 493d 908f 39bc 0221 9c3d
00000370: 0cd5 873c 1b38 02bb 2d5a 8c3d ae53 263d
00000380: 21e1 a5bc d79a e23c 8b0e 4d3b 1f14 02bd
00000390: 0727 59bd 47d5 59bb 2082 9abd ca19 5abd
000003a0: 25c6 30bd eb9c 05bd 5c1a a4bc 2fb4 32bc
000003b0: be1b 133d 5f07 e3bb 236a 5b3d a0fe f93c
000003c0: 084c 613b 682d dbbc cb13 afbc 6171 25bb
000003d0: fbfd ba3c e44d 1a3c 224e 4fbb 8b59 003d
000003e0: d593 5e3b 6f30 813c 84b6 26bb ff61 00bb
000003f0: ada7 233c 036b 3a3d 5865 8dbb eb1a f03b
-0.013364152 -0.017621348 -0.011763418 -0.020432385 -0.0011036148 -0.02704523 -0.046350975 -0.008645326
0.02289676 0.012365763 0.059524592 0.0342914 -0.010161193 0.014010942 -0.037008926 0.056082297
-0.03459871 0.019992871 -0.02434408 0.010812725 0.012349125 0.020424867 -0.056795884 -0.019006629
-0.0117849205 -0.040255167 -0.012906656 -0.027394846 -0.053727478 -0.006841289 -0.012435755 0.027397094
-0.022209363 -0.010717914 -0.011716001 0.00035542803 -0.029712267 0.025538716 -0.015387631 -0.0029512602
-0.0155404685 -0.02299914 -0.008931699 -0.04902215 -0.0137993125 0.07937109 0.020009289 0.025416745
0.04507345 0.08675884 -0.03467979 0.052466158 0.077801496 -0.07378581 -0.039128084 -0.057603292
-0.093794025 -0.0274695 -0.047240004 -0.04765233 -0.0038377661 -0.011195765 -0.0033536921 -0.04686735
-0.0014458145 -0.04228104 -0.023189552 0.0070597413 -0.027007226 -0.04449244 0.0017462991 -0.035928253
-0.043550365 -0.010002378 0.016016157 -0.047140867 -0.030211145 0.007848688 -0.04788122 0.022109361
-0.050217245 -0.015173972 -0.018498963 -0.05790487 -0.013430127 -0.027086927 -0.032448493 -0.07530317
-0.04304834 -0.06377982 -0.017497761 -0.06539127 -0.10058529 0.0075995685 -0.032949235 -0.036868006
-0.027050102 -0.084756486 -0.041413214 -0.0053925137 -0.048358425 -0.013937696 -0.020642277 -0.00043299183
-0.03760826 -0.036132075 0.0020140384 -0.00560607 -0.0023199157 -0.05088807 -0.045886576 -0.010575247
-0.039113868 -0.021786131 -0.060962133 -0.01953874 -0.025478827 -0.009031513 -0.041545868 -0.019523172
-0.022362325 0.02467897 -0.0046125236 -0.00900406 -0.014744712 -0.014179477 -0.050212555 -0.02151838
0.0009364651 -0.0450771 -0.03227329 0.03785968 -0.062432937 -0.0069181486 -0.027893892 -0.044691566
0.016876208 -0.02052793 -0.0038323086 -0.019315638 -0.0071392837 -0.051321134 -0.012101198 -0.02883335
-0.03659128 -0.036345962 0.019662779 -0.0023272394 -0.0964719 0.038717046 0.023038771 -0.026481569
-0.026681045 0.023050401 -0.027629787 0.0029465253 -0.005764831 0.029341921 0.0039835544 0.0066671153
-0.023423696 0.02111191 0.01893357 -0.047157716 -0.04854184 0.013373744 0.001994439 -0.037787933
-0.019530142 0.008601189 -0.050282773 -0.043333527 -0.042787556 0.014431643 0.0029608961 -0.050399132
0.040112853 0.004927585 0.019859957 0.0009618562 0.020470688 0.052464373 -0.017712511 0.041009955
-0.0024462165 0.023207335 -0.004136534 0.018940678 0.013612841 0.051354714 0.026869131 0.009067525
0.046888083 0.019864751 0.013579047 0.020322198 -0.008543759 0.00578493 -0.003910358 -0.05604867
-0.010072879 -0.07219669 -0.024031669 -0.020042049 -0.05478185 -0.011882878 0.021982685 -0.051224034
-0.0075007263 -0.013726375 -0.010692833 -0.024994256 0.043506492 -0.06539583 0.051783033 0.018806793
0.10980376 0.049223747 -0.011325732 0.07623483 0.01658108 -0.0019869867 0.06853137 0.040607147
-0.020248951 0.027661724 0.0031289186 -0.03175747 -0.053015735 -0.0033238695 -0.075443506 -0.05324725
-0.043157715 -0.03262035 -0.0200321 -0.010907217 0.03591513 -0.006928369 0.053568017 0.030516922
0.0034377594 -0.02675505 -0.021371743 -0.002524458 0.022826185 0.009417985 -0.0031632264 0.031335395
0.0033962626 0.015770165 -0.0025438378 -0.001958966 0.0099887075 0.04551221 -0.0043150596 0.0073274276

bias f4 [32]
00000000: ccff c63c bcb1 1fbd e343 3a3b fa9e 0ebd
00000010: 330f bdba 3743 e83c e74d 513a f1d3 ac3c
00000020: 8216 9fbb de26 003d e532 4dbd 0525 343d
00000030: aada 6fbc 8d39 533d 0324 3abd e5fd 3fbd
00000040: 70ec a93c 1bd4 38bc d599 2f3d 2f0e ebbc
00000050: 18fc 35bd 84b2 c2bc e912 3bbd 5ec9 ccbc
00000060: 7085 0e3c 9f76 6ebd e292 96bc 2b32 4bbd
00000070: 4962 403d 7200 953b f4ab ffbc 8bfa 323d
0.024291895 -0.03898786 0.0028421811 -0.03481958 -0.0014424085 0.028352363 0.00079843256 0.021097155
-0.004854978 0.031287067 -0.050097365 0.043980617 -0.014639536 0.051568557 -0.0454445 -0.046872992
0.020742625 -0.011281039 0.042871315 -0.028693287 -0.04442987 -0.023766764 -0.04567233 -0.024998363
0.008698806 -0.058218595 -0.018380586 -0.04960839 0.046968732 0.004547172 -0.031209923 0.043695968

weight f4 [32]
00000000: b72b 8e3f a586 a13f 15df 8f3f 3f3c 8e3f
00000010: b9f6 843f 4bea 853f f078 863f d338 853f
00000020: ef37 8e3f 5589 b03f ce5e 9d3f ac62 843f
00000030: a723 9f3f e030 af3f e9a9 863f fcba 873f
00000040: ab29 a03f 047e 833f 2e49 863f 12de af3f
00000050: 10d4 a83f 617f a43f b229 a03f 3a46 843f
00000060: 8df9 893f 2847 8c3f 3a43 9e3f 69c5 813f
00000070: ad5f a43f 8743 863f ff9d 9d3f cecf 8b3f
1.1107091 1.2619215 1.1239954 1.1112136 1.0387794 1.0462126 1.0505657 1.0407966
1.111082 1.379191 1.2294557 1.0342612 1.2432755 1.368679 1.0520602 1.0603938
1.2512716 1.0272832 1.0491083 1.3739645 1.3189716 1.2851373 1.2512724 1.0333931
1.0779282 1.0959215 1.2364266 1.013837 1.2841698 1.0489358 1.2313842 1.0922792

bias f4 [32]
00000000: cbc9 71bd 262a adbe 45b4 babc 9b57 74bb
00000010: efa8 b9bd 6b51 2cbd 900d fbbd 7f98 aabd
00000020: 51fe be3c 7eb3 f3be 5071 debd 092e e1bc
00000030: 8740 65be f1df 7cbe de29 2fbc 4b98 b1bd
00000040: 42a5 61be 102e b0bd a4f0 0c3d 32ab 14be
00000050: d578 1abe 38dc b9be c740 51be 7d39 afbd
00000060: 9d57 b4bd 8417 9f3c da83 68bd d51c 30bd
00000070: 8ced 71bd 7087 79bd 4e11 3fbe 7c4d babd
-0.059030335 -0.3382122 -0.022791037 -0.0037283662 -0.09065425 -0.042069834 -0.12258446 -0.083298676
0.023314627 -0.4759788 -0.108614564 -0.027487772 -0.22387896 -0.24694802 -0.010691134 -0.08671626
-0.22035697 -0.08602536 0.03440918 -0.14518431 -0.15085156 -0.36300826 -0.20434867 -0.08555887
-0.088057734 0.019420393 -0.05676637 -0.042996246 -0.059064433 -0.06092018 -0.18658945 -0.0909681

running_mean f4 [32]
00000000: afb3 e3be 8957 23be 82b8 053c 4eaf 04bf
00000010: 6b58 17be 0be0 45be 7cff c63e 4ca5 02be
00000020: b64f dabe 4987 343e 7972 e13c 3934 2cbe
00000030: f7e5 6fbd 987b c23c c737 eabe 5d89 dcbd
00000040: 88c5 8e3d e263 1abc 9c1e 05bf cd71 a3bd
00000050: b7e7 92be e466 b7be a62d 47bd 3d0c b5be
00000060: 29e3 823e a71f 38bf 2342 303d 1b54 8abc
00000070: 7c43 a4bd 8f6e 423d 89dd 1e3e 612c c83a
-0.44473025 -0.15951361 0.008161666 -0.51829994 -0.14779823 -0.19323747 0.38866794 -0.12758368
-0.4263894 0.17629732 0.027520405 -0.16816796 -0.05856892 0.023740575 -0.4574568 -0.107683875
0.0697127 -0.009423228 -0.5199983 -0.0798069 -0.2869241 -0.35820687 -0.048627518 -0.353609
0.25563934 -0.719233 0.043031823 -0.016885808 -0.08020684 0.04746872 0.15514196 0.0015272015

running_var f4 [32]
00000000: d2c3 593e 1704 963d 66f0 d53d 0956 df3e
00000010: f76b 3e3e 8bf1 473e db96 853e 6da6 7a3e
00000020: 9799 b13e 2f0e 053e 786e 003e b00c 313e
00000030: 1e11 363e 1eb7 b83d cd57 b43e fc70 cf3d
00000040: d8c0 8d3d 6b16 3a3e 1a0e a53e 5271 9f3d
00000050: a908 cf3d 7f25 093e 113e 133e de0d 283e
00000060: 620e 903e 648f 083f 5752 753e 309f 653e
00000070: 5fa6 dc3d ec61 183e 25ea ac3d 0523 1e3e
0.21266106 0.07324999 0.10446243 0.43620327 0.18595873 0.19525735 0.26091656 0.24477549
0.34687492 0.12993692 0.1254214 0.17289996 0.17779967 0.09019302 0.35223237 0.10128972
0.06921548 0.18172614 0.3223732 0.07785286 0.10109074 0.1339321 0.14379145 0.1641154
0.28135973 0.53343797 0.23957191 0.22424006 0.1077392 0.14881104 0.08443097 0.15443046

weight f4 [3, 32, 3, 3]
00000000: 9104 f5bc 79a9 7e3c efbf 3ebd 25f1 65bd
00000010: 909f 30bc 92ee f8bc caad 89bd 09aa c5bb
00000020: f090 b0bd 29e0 ba3d 6f10 16be 9f42 43bd
00000030: b37c 6a3c b9d5 11bc 0290 7e3d ad61 143d
00000040: 10b4 02bd 4e9f 6e3d 27e3 cf3c 7e84 fe3c
00000050: b57e d73c de98 933d 388d dbbc 208e b6bd
00000060: c27f e63c d3cf 9abc 14c6 6cbd dbae e6bc
00000070: 4733 db3c 28ca 66bd 6984 f1bc 69ad 14bd
00000080: 7017 4cbd 41fc 4b3b 2418 88bb 47a6 ccbc
00000090: bef9 d7bc 0185 09bd f845 a63c 8092 28bd
000000a0: 8840 c9bd c8e6 15bd 7dc5 e6bc c06d 56bd
000000b0: 8a27 28bd fd13 87bd ad5a 69bd 31eb e1bc
000000c0: c4d0 76bc 3c90 74bc ae8f aebc 8123 66bd
000000d0: a85c dfbd 8248 2fbd 9fb1 afbd ccf1 1ebc
000000e0: f36f b1bc 7d76 9fbd 1f7d 39bd 1276 57bc
000000f0: 8138 e8bc cac3 793b b56b a7bd c176 323d
00000100: 2a15 1ebd 034d 42bd 035d 53bd 37fc d9bb
00000110: 1d2a 67bc 3d2a 7cbd c7e6 23bd e557 d8bc
00000120: d9ee c0bb 24d6 23bc b1ad 00bd 027c e7bc
00000130: 947f 25bc a153 9dbc 645d 3dbd 0da1 85bd
00000140: a2f1 92bc 5112 7cbd c02f eebd b7d8 203c
00000150: 597e d23c 84c8 2bbd ba70 0fbd aa0c 683d
00000160: ce1a 5e3d dd0d d43d 8080 84bc a865 14be
00000170: 6a94 0bbd 9e82 773d f011 47bd 8511 64bc
00000180: e418 873d 6b54 d4bb 17ea 9a3d 7e65 bfbc
00000190: 5451 63bd 4894 c2bc 1530 03bd 4732 4cbc
000001a0: a4f6 c1bd 42dd 2abd c70f 393c 85f4 b3bd
000001b0: ca26 41bd d19a 913c 70ba 223d f13d 6abc
000001c0: 2ceb 14bc c769 573d 7777 03be ed88 afbd
000001d0: 1011 df3c 5ef8 c4bc 4218 8fbd 907f 233a
000001e0: 09e2 af3d 328b 2dbd b72e 733d 2ec6 083e
000001f0: 280a 843d 2b92 17bd fc3c 9fbc bf26 dbbc
00000200: 9d52 8dbc 494a 8ebd ff6d 95bc 0b95 97bd
00000210: c6d9 1ebc a8da f13b 736e ddbc f4ab 6dbd
00000220: 7102 99bc 8602 b03c b56a 57bd d5ac 04bd
00000230: b59b e2bb 7aac a7bd 8a9e 943c 864a 823d
00000240: 9661 b03d 78f3 29bd 00f0 b43c 5c28 333d
00000250: 3710 8abd 63b3 a4bd 5715 2dbc c1ee 8a3d
00000260: e12d b4bd e39b b73d 779b 903d b15a 0b3d
00000270: 0e6a 483d d731 0d3c cb64 bc3d d084 fe3c
00000280: 9da4 0cbc 40d0 f53c 65f8 30bd 8ba2 3cbd
00000290: 17a2 29bd 6430 5cbc 5661 2ebd 9726 78bc
000002a0: 523d 50bd ac5f 323b 8a7e ecbc c4a2 19bd
000002b0: 5712 523d 97f0 8cbd cb49 123d 67cf c5bc
000002c0: 5c07 0f3e 5f09 93bd 5fcc 89bb e2f4 2cbb
000002d0: bbe7 25bd 78ba 6dbd 1d9f 053e 2d9e ca3a
000002e0: 4dd6 a83d 62a6 24bc 6f59 5ebd 3068 87bc
000002f0: 5574 dc3d f17a 033d 8ed9 17bd daea d23d
00000300: b3ec e1bc 9973 22be 0e15 f33d dd7a 9dbc
00000310: 2c61 6fbd 9ad1 a03d f360 313d 4a0f 033d
00000320: 68d9 de3d 1329 c4bd e82f 733c 4498 893d
00000330: bb5e 873b 5cb4 60bd fa85 6abc 9c0b 7e3c
00000340: 592b 393d b339 7b3d 97bb 0b3d 5b3d 383c
00000350: b0e3 24bd 8d75 74bc 4162 b4bc 88a5 693d
00000360: c580 543d 8865 57bd f63c 41bd 4bcf cd3b
00000370: d961 15bd 1163 f53c af1d 42bd 5bbf 23bd
00000380: 9408 32bc 5a19 97bd 56ef e9bb 364b d9bc
00000390: 7ada e5bd 3c87 75bc 336a d2bc dc83 91bd
000003a0: aefe 5abd abe0 a9bc 7790 953d e049 d7bc
000003b0: 1444 073d 13cb 463d 1570 c5bb e434 bdbd
000003c0: 32d8 d63c 2f92 64bc c5d5 223d 7419 903a
000003d0: c173 f23c c47f 93bd bc74 2f3b 1356 65bc
000003e0: c0c5 0abd 8dfa a93c b5af b9bc e0ea 643d
000003f0: 903a 87bd df41 8fbd ddc3 1a3d e1b0 1f3a
-0.029909404 0.015543335 -0.04656976 -0.056138176 -0.01078023 -0.030387197 -0.06722601 -0.0060322327
-0.08621395 0.091247864 -0.14654706 -0.047670957 0.014311957 -0.008901053 0.062149055 0.036225963
-0.031910002 0.058257394 0.02537687 0.031069037 0.026305536 0.072068915 -0.026800737 -0.08913827
0.028137092 -0.018897926 -0.05780609 -0.02815955 0.02675785 -0.056345135 -0.029482083 -0.03629819
-0.04982704 0.0031125697 -0.0041532684 -0.024981631 -0.026364204 -0.033574108 0.020297036 -0.04115534
-0.098267615 -0.036597043 -0.028170342 -0.05235076 -0.041053332 -0.06595609 -0.05697124 -0.027577968
-0.015064422 -0.014926966 -0.021308746 -0.056186203 -0.10906345 -0.04279376 -0.085788004 -0.009701204
-0.021659827 -0.07786272 -0.04528534 -0.013150709 -0.028347256 0.0038111084 -0.0817484 0.043570284
-0.038594402 -0.047436725 -0.051602375 -0.006652381 -0.014109162 -0.06156372 -0.04001501 -0.026409099
-0.005887848 -0.009999786 -0.031415645 -0.028257374 -0.010101218 -0.019204916 -0.046231642 -0.065248586
-0.017937485 -0.061540905 -0.11630201 0.009817294 0.025695013 -0.041939273 -0.035019614 0.056652702
0.05422478 0.10354207 -0.016174555 -0.14491904 -0.034077086 0.0604273 -0.04860109 -0.013920193
0.065965444 -0.00647979 0.0756418 -0.023363825 -0.055497482 -0.023752347 -0.032028276 -0.012463159
-0.09470871 -0.041714914 0.0112952655 -0.08786873 -0.047156133 0.017774018 0.039728582 -0.014296995
-0.0090892725 0.05259111 -0.12838541 -0.085710384 0.027229816 -0.024044212 -0.06987049 0.0006236965
0.08588035 -0.042369075 0.059370723 0.1335685 0.0644725 -0.03700463 -0.01943826 -0.026751874
-0.017251307 -0.069477625 -0.018240927 -0.074014746 -0.009695476 0.007380802 -0.027030205 -0.058025315
-0.018677922 0.021485578 -0.052591998 -0.032391388 -0.0069155344 -0.08187194 0.018142004 0.063618705
0.08612363 -0.041491956 0.022087097 0.04373966 -0.06741374 -0.08042028 -0.01056417 0.0678382
-0.08797813 0.0896528 0.070609026 0.034022037 0.048929267 0.00861784 0.09198912 0.03106919
-0.008584169 0.030006528 -0.043205637 -0.04605345 -0.041414347 -0.013439272 -0.042573296 -0.015145919
-0.05083973 0.002721767 -0.028868932 -0.03750874 0.05128702 -0.06881826 0.035714906 -0.024146749
0.13967651 -0.07179522 -0.004205271 -0.0026391079 -0.0405042 -0.05803916 0.13048978 0.0015458517
0.08244 -0.010049434 -0.05428451 -0.016529173 0.10764376 0.032099668 -0.03707271 0.10298701
-0.027578687 -0.1586441 0.1186925 -0.019223625 -0.05844228 0.07852478 0.04330535 0.031997003
0.10881311 -0.09578147 0.014842965 0.067184955 0.004131166 -0.054859504 -0.014314169 0.015505698
0.045207355 0.061334323 0.034114446 0.011245097 -0.040256202 -0.014920604 -0.022019507 0.05704263
0.051880617 -0.052587062 -0.047177278 0.0062808148 -0.036470268 0.029954465 -0.04739159 -0.039977413
-0.010866303 -0.07377882 -0.007139127 -0.026525121 -0.11223312 -0.014985856 -0.025685405 -0.07105228
-0.053465538 -0.020737013 0.07302945 -0.026280344 0.03302391 0.04853351 -0.006025324 -0.09238604
0.026226137 -0.0139508685 0.039754648 0.0010993914 0.029596211 -0.07202104 0.002677246 -0.0139975725
-0.033879995 0.020749355 -0.022666791 0.055888057 -0.06602967 -0.06994986 0.037784446 0.00060917257

bias f4 [3]
00000000: 0836 a93c b7d5 8cbc d860 82bd
0.020655647 -0.01719175 -0.06366128
