TuiGAN/models/horse2zebra/ab3.pth (torch, 233612 bytes, 46 tensors)

weight f4 [32, 3, 3, 3]
0.0043988964 -0.015299724 -0.018736124 0.00097419997 0.015833993 0.015055393 0.049146585 0.05086114
0.06395289 -0.04480274 -0.06877631 -0.04413785 -0.014210567 -0.018232215 0.0065062996 -0.009821444
-0.00032746553 0.011845572 -0.003459169 -0.033599917 -0.0536399 -0.008648506 0.01898828 0.016936993
0.046982974 0.02886297 0.049851775 0.0024507463 0.057959292 -0.041723125 0.03127571 0.031680357
0.019625312 -0.01679695 -0.006447299 -0.013804868 -0.015830122 -0.0013063326 -0.036462698 -0.020524474
0.009882331 -0.0367562 -0.020801036 -0.012841648 -0.016547501 0.0036933944 -0.025247833 0.012369833
-0.004713316 0.04832231 0.010576886 -0.015910476 0.011378278 0.02630894 0.04623787 0.02481973
0.031454556 -0.0076425113 0.03573461 -0.009172508 -0.08800214 -0.032486226 -0.056803685 0.029804846
0.048914406 0.028304687 0.015368538 0.03297204 0.029666128 -0.030697837 -0.022347914 -0.021603568
-0.003660229 0.0014950956 -0.024759477 -0.012159586 -0.040197574 0.027498107 -0.05425317 -0.0409876
-0.015083764 0.0010633691 -0.017768975 0.0035903552 0.00517937 -0.024643589 0.018661756 -0.043408208
-0.016857559 0.08349064 0.0024604844 0.02260276 0.0111938445 -0.011625914 -0.008660652 0.001440253
-0.037639696 -0.012167039 0.07075903 -0.03946153 -0.016781703 0.004564406 -0.04172448 -0.026145272
0.017955916 -0.051688295 -0.018205864 0.05690886 -0.012062456 0.009073755 0.02303111 0.04994529
-0.024906488 0.04835364 0.048538473 -0.008428613 -0.009876179 -0.02211484 0.011267625 0.0017509074
0.0022774271 -0.08676205 -0.0075614783 -0.016894497 -0.021812981 -0.01897331 -0.024785634 0.05151969
0.039276637 0.07216892 -0.06788508 0.017851645 0.025416471 0.03125588 0.071517386 -0.04469641
-0.0055915983 0.006658473 -0.032819998 -0.0029692762 0.0077031218 -0.08908888 0.039256543 -0.017434893
0.016696677 0.0033203852 -0.04530597 0.022091256 0.017091913 0.0373994 0.024258967 0.060401633
0.04995704 -0.034075204 0.005333706 -0.08102692 0.02389335 0.008839 -0.016761145 -0.040218055
-0.014903726 -0.02972374 0.010563303 0.012411722 0.0099999625 0.046642464 -0.10436261 0.019779949
0.033072878 -0.004509847 0.0047634393 0.0013446166 -0.014060205 -0.00560007 -0.00127041 -0.013886082
0.09186183 -0.018834816 0.0022378762 -0.038242817 -0.0211657 0.05125345 -0.041419 -0.039412502
-0.03876598 -0.010846602 -0.018440787 0.051306598 -0.025026456 -0.03311765 0.016603516 0.0017800103
0.03557941 0.0072605205 0.04956943 0.045291256 0.047167726 0.06172506 -0.04760933 -0.013540765
-0.0050985846 0.030176155 0.03271076 -0.0010730235 -0.0013301912 -0.014429311 -0.024637295 -0.04244197
-0.026696738 -0.020367362 -0.03981477 -0.022020195 -0.02084606 -0.034883104 -0.04633304 -0.024017991
-0.05151726 -0.034858365 -0.13909167 0.012645681 -0.013682305 -0.070709586 0.013084297 0.016930705
0.021908436 0.009442618 0.014360876 -0.010022023 0.012191322 0.023661613 0.0063871234 0.017302593
0.015451016 0.018480292 -0.020507613 0.0045886734 -0.059426382 0.013731614 -0.023220446 -0.0035340996
0.025223065 0.019481987 0.021805143 -0.081052035 -0.022428231 -0.050069377 -0.051149633 -0.04097322
0.02043513 -0.06965747 -0.010295322 0.02438 -0.004237835 0.009693895 0.014646276 -0.0050323424
00000000: 9e24 903b b2ab 7abc 807c 99bc 7461 7f3a
00000010: 4ab6 813c e5aa 763c ee4d 493d c553 503d
00000020: bcf9 823d 1483 37bd 98da 8cbd e4c9 34bd
00000030: 70d3 68bc ba5b 95bc cc32 d53b 1fea 20bc
00000040: aeaf abb9 ee13 423c 3ab3 62bb 11a0 09bd
00000050: 83b5 5bbd 77b2 0dbc 4f8d 9b3c 73bf 8a3c
00000060: 3871 403d 0972 ec3c 6031 4c3d b39c 203b
00000070: b966 6d3d dee5 2abd f51a 003d 43c3 013d
00000080: 43c5 a03c c299 89bc dd43 d3bb d02d 62bc
00000090: 2cae 81bc 4039 abba e959 15bd f122 a8bc
000000a0: 80e9 213c ab8d 16bd ef66 aabc c765 52bc
000000b0: a08e 87bc e00c 723b 8bd4 cebc d7aa 4a3c
000000c0: 2972 9abb 9ded 453d ad4a 2d3c b056 82bc
000000d0: f56b 3a3c d985 d73c ec63 3d3d bf52 cb3c
000000e0: 7ed6 003d 086e fabb 745e 123d 4948 16bc
000000f0: 773a b4bd 4710 05bd fbaa 68bd 4b29 f43c
00000100: 795a 483d 3bdf e73c 52cc 7b3c b10d 073d
00000110: 6106 f33c 087a fbbc f912 b7bc f7f9 b0bc
00000120: 74e0 6fbb 15f7 c33a 63d4 cabc 0039 47bc
00000130: 36a6 24bd b643 e13c 9238 5ebd 9de2 27bd
00000140: e421 77bc bf60 8b3a 3e90 91bc 2a4c 6b3b
00000150: b4b7 a93b 5ae1 c9bc 8ae0 983c cecc 31bd
00000160: dd18 8abc 24fd aa3d 1440 213b 6c29 b93c
00000170: 6366 373c 9e7a 3ebc 68e5 0dbc dfc6 bc3a
00000180: 152c 1abd 4358 47bc 1cea 903d 6aa2 21bd
00000190: c879 89bc 0391 953b 4ae7 2abd 9c2e d6bc
000001a0: 4918 933c 1bb7 53bd 7724 95bc 4419 693d
000001b0: 9ca1 45bc 16aa 143c bdab bc3c 6f93 4c3d
000001c0: b108 ccbc 770e 463d 47d0 463d 2a18 0abc
000001d0: b2cf 21bc 2e2a b5bc d89b 383c b47e e53a
000001e0: e340 153b 4db0 b1bd 47c6 f7bb 5466 8abc
000001f0: 23b1 b2bc ea6d 9bbc 3e0b cbbc 4f06 533d
00000200: 8ae0 203d 4ccd 933d 5507 8bbd 9d3d 923c
00000210: 3436 d03c 2a06 003d b577 923d 9513 37bd
00000220: ba39 b7bb 522f da3b 436e 06bd 3098 42bb
00000230: 786a fc3b 3b74 b6bd 78cb 203d 9fd3 8ebc
00000240: 78c7 883c d29a 593b c192 39bd b9f8 b43c
00000250: 5704 8c3c 1d30 193d beba c63c b467 773d
00000260: c19f 4c3d 7192 0bbd 5ec6 ae3b 71f1 a5bd
00000270: fdbb c33c 74d1 103c ab4e 89bc b0bb 24bd
00000280: c22e 74bc 337f f3bc b411 2d3c 895a 4b3c
00000290: e2d6 233c 2b0c 3f3d 10bc d5bd 8f09 a23c
000002a0: 6d77 073d 57c7 93bb a016 9c3b d93d b03a
000002b0: c65c 66bc cb80 b7bb e383 a6ba 7382 63bc
000002c0: 0e22 bc3d 794b 9abc 55a9 123b 80a4 1cbd
000002d0: b163 adbc 23ef 513d f8a6 29bd 016f 21bd
000002e0: 14c9 1ebd f2b5 31bc 2211 97bc de26 523d
000002f0: 4804 cdbc 5fa6 07bd 1904 883c 3c4f e93a
00000300: b7bb 113d a9e9 ed3b 5109 4b3d 5383 393d
00000310: f232 413d 6bd3 7c3d 0002 43bd 16da 5dbc
00000320: 0712 a7bb fc33 f73c b8fb 053d b2a4 8cba
00000330: cf59 aeba eb68 6cbc 27d4 c9bc a2d7 2dbd
00000340: 1eb3 dabc 74d9 a6bc d014 23bd b263 b4bc
00000350: 5bc5 aabc 96e1 0ebd b7c7 3dbd 61c1 c4bc
00000360: c303 53bd a5c7 0ebd 0c6e 0ebe d52f 4f3c
00000370: bf2b 60bc 30d0 90bd 855f 563c 43b2 8a3c
00000380: 5279 b33c 36b5 1a3c e149 6b3c 6933 24bc
00000390: 1cbe 473c 00d6 c13c 134b d13b 2bbe 8d3c
000003a0: 4226 7d3c fb63 973c 95ff a7bc 955c 963b
000003b0: 1469 73bd 90fa 603c ce38 bebc 5a9c 67bb
000003c0: 9aa0 ce3c b098 9f3c b3a0 b23c 9cfe a5bd
000003d0: 69bb b7bc 8c15 4dbd 4782 51bd 89d3 27bd
000003e0: 9367 a73c 93a8 8ebd b6ad 28bc 91b8 c73c
000003f0: 89dd 8abb 24d3 1e3c eff6 6f3c 59e6 a4bb

bias f4 [32]
-0.00016522553 -0.018503986 0.03204051 0.16767451 0.0606844 0.10703659 -0.002132003 0.123223685
-0.07074255 0.06139943 -0.11607741 0.030048722 -0.1961605 -0.17002285 -0.11565899 0.1158142
0.06734355 -0.09904553 0.071536325 -0.057746336 -0.0057635363 0.1804366 0.044636134 0.00732978
-0.033865295 0.22562154 0.17043987 -0.08927341 -0.047803223 0.025484651 0.00340557 -0.094003685
00000000: 6440 2db9 ac95 97bc e93c 033d deb2 2b3e
00000010: 3590 783d 0036 db3d 13b9 0bbb b35c fc3d
00000020: 78e1 90bd f87d 7b3d feb9 edbd bd28 f63c
00000030: 4cde 48be 781a 2ebe 9fde ecbd ff2f ed3d
00000040: 6aeb 893d 62d8 cabd a381 923d 6c87 6cbd
00000050: 0cdc bcbb 5fc4 383e 61d4 363d a72e f03b
00000060: 56b6 0abd 5509 673e ca87 2e3e fad4 b6bd
00000070: 50cd 43bd 30c5 d03c fc2f 5f3b 0185 c0bd

weight f4 [32]
0.9982437 0.94635195 1.0379168 1.037336 0.98531306 0.9861786 0.97517794 0.9596697
0.9708582 0.9995271 0.99994934 1.0054883 0.95055187 1.009549 1.0068945 1.0209205
1.0390186 1.0097919 0.94554 0.99772644 0.9686075 0.9414185 1.0018195 1.0360786
0.98186487 1.1018808 0.93959427 0.9584757 1.0226016 0.97845143 0.9680391 0.96509224
00000000: e68c 7f3f 1f44 723f 75da 843f 6dc7 843f
00000010: 7a3d 7c3f 3376 7c3f 43a5 793f eaac 753f
00000020: 2a8a 783f 02e1 7f3f aefc 7f3f d7b3 803f
00000030: 5e57 733f e738 813f ebe1 803f 86ad 823f
00000040: 90fe 843f dc40 813f e90e 723f 006b 7f3f
00000050: a9f6 773f ce00 713f 9f3b 803f 399e 843f
00000060: 7f5b 7b3f 6e0a 8d3f 4089 703f aa5e 753f
00000070: 9ce4 823f cb7b 7a3f 69d1 773f 4910 773f

bias f4 [32]
-0.030397186 -0.16788124 -0.20649725 -0.22608326 -0.005892945 -0.10641143 -0.06577226 -0.083927095
-0.02967654 -0.5272773 -0.1179443 -0.05828374 -0.057705387 -0.0424146 -0.051348623 -0.17998612
0.00787744 -0.004736798 -0.06535299 0.018782934 -0.06581897 0.004527983 -0.014227291 -0.07147822
-0.20578569 -0.32653943 -0.121553846 0.18367231 -0.0020496293 -0.19115381 0.050030217 -0.1002791
00000000: 8503 f9bc 0fe9 2bbe 0474 53be 5f82 67be
00000010: 9b19 c1bb 3cee d9bd 9bb3 86bd f8e1 abbd
00000020: 371c f3bc a5fb 06bf c88c f1bd eeba 6ebd
00000030: 7c5c 6cbd eeba 2dbd ef52 52bd 484e 38be
00000040: 6110 013c 2437 9bbb cad7 85bd abde 993c
00000050: 19cc 86bd 795f 943b 9519 69bc 2c63 92bd
00000060: 7cb9 52be 2d30 a7be 39f1 f8bd 9814 3c3e
00000070: 1353 06bb d3bd 43be 7cec 4c3d 215f cdbd

running_mean f4 [32]
0.0016974767 -0.021854807 0.05890067 0.19020069 0.027104564 0.13014084 0.018470578 0.19142784
-0.0789638 0.0017558873 -0.15409783 -0.0025870858 -0.22971517 -0.11603365 -0.058623727 0.13384768
0.09015065 -0.050094094 0.08193308 -0.12684426 -0.02977995 0.22195908 0.061285786 -0.00393184
-0.08801624 0.24641074 0.17643788 -0.086425565 0.010206717 0.021439033 0.04493337 -0.09724107
00000000: de7d de3a da08 b3bc d441 713d f8c3 423e
00000010: 640a de3c a443 053e 9c4f 973c a905 443e
00000020: c6b7 a1bd cd25 e63a d2cb 1dbe 198c 29bb
00000030: 743a 6bbe 0da3 edbd 6f1f 70bd 5e0f 093e
00000040: e7a0 b83d 772f 4dbd 88cc a73d 76e3 01be
00000050: 15f5 f3bc 3e49 633e ce06 7b3d aad6 80bb
00000060: dc41 b4bd 1953 7c3e 22ac 343e e3ff b0bd
00000070: 133a 273c e9a0 af3c 0e0c 383d 5326 c7bd

running_var f4 [32]
0.003275924 0.0006189754 0.004328926 0.0038940602 0.0046140826 0.002794278 0.0010174555 0.0029109728
0.006208868 0.0028961133 0.011522694 0.018335551 0.005738723 0.0021577151 0.0062956437 0.003751581
0.004266731 0.029492915 0.0015486839 0.007182583 0.0087963 0.0082567455 0.013790488 0.00031632534
0.006648092 0.004193918 0.0033109237 0.0002377488 0.0027821383 0.00033442688 0.005104953 0.00033335344
00000000: e2b0 563b bc42 223a aad9 8d3b 7d33 7f3b
00000010: bb31 973b 3520 373b 245c 853a 05c6 3e3b
00000020: c373 cb3b b8cc 3d3b aec9 3c3c 7034 963c
00000030: e60b bc3b 7468 0d3b b04b ce3b 16dd 753b
00000040: efcf 8b3b 209b f13c 35fd ca3a e05b eb3b
00000050: 5b1e 103c 4d47 073c 80f1 613c 78d8 a539
00000060: 3dd8 d93b 226d 893b 15fc 583b 354c 7939
00000070: 8954 363b 0456 af39 7347 a73b f1c5 ae39

weight f4 [32, 32, 3, 3]
0.027411027 0.015310018 0.012521852 0.03029065 -0.015551698 -0.0011325736 0.021448188 0.009252851
0.0049712453 0.027380493 -0.03740595 0.0072965673 -0.0037335332 -0.021909578 0.0349237 -0.0173035
0.010701469 -0.005641197 0.004972252 -0.012227539 -0.05883715 0.035548937 -0.0347533 -0.020057766
0.030304203 0.07740577 0.052211944 -0.032591816 -0.025577463 0.031986106 -0.042974655 -0.020800324
0.036078386 -0.028220655 -0.010440108 0.011213859 0.010114893 -0.011968531 0.029037105 0.010183298
0.0151575245 0.0134523595 0.053996466 0.021839397 -0.0026393342 -0.029995244 -0.027885891 0.06321245
0.03648649 -0.019936534 3.78798e-05 -0.016106946 0.015787125 0.029231824 0.007728792 0.040775668
-0.017409332 0.0030108776 0.0059737014 0.028105225 -0.01056972 0.017277675 -0.026535379 0.01792328
0.0290716 0.06546347 -0.033020657 -0.036590256 -0.023357116 0.029135702 0.058258533 0.047848903
0.017457781 -0.0030423044 -0.021275781 0.03010585 0.023938326 0.015973322 0.042126533 -0.032348804
-0.009131828 0.029880852 0.07974253 0.01951851 0.02997293 0.03985975 0.004409327 0.06974779
0.048067693 -0.044825636 0.052578207 0.014880042 0.043995306 0.033226267 0.029359668 0.057613935
0.009752729 0.00034408426 0.039434448 -0.027314007 -0.013539131 0.0009059596 0.004929809 -0.014547585
-0.01873413 0.0403545 0.024949353 0.024426963 0.027626147 0.006646939 0.017382704 0.0095524965
0.056621358 0.02896468 -0.008869058 0.0146049 0.018283462 0.0021410608 0.023559513 -0.04262583
0.0021869284 0.015227441 -0.030535985 0.03161611 0.020477625 0.009864423 0.02880384 0.053633574
-0.013931027 -0.011091391 0.088227004 0.04997608 0.069498144 0.016909957 0.028768044 0.028859984
-0.026208432 -0.062323723 0.026041422 0.050503165 -0.0022512178 -0.026581625 -0.019323273 0.046798717
-0.012419342 -0.008097386 0.010765801 -0.027420955 -0.027982619 -0.00881064 0.016751587 0.015922591
0.012014334 0.0045444234 0.019043261 -0.014749808 0.016749378 -0.017289743 -0.01056269 -0.027096486
-0.011875332 0.00674868 0.0026497021 -0.029997362 -0.040364806 0.017825352 0.008204518 0.009517917
-0.0010232644 0.046312626 0.05865339 0.02700723 -0.03994743 -0.024634758 -0.025523884 -0.012792226
-0.0027975983 -0.009144516 0.018083874 0.007422851 0.011047699 0.037202165 -0.023161333 0.00093962555
0.04688828 -0.0065040044 0.036522694 0.021507785 4.9280978e-05 0.008661986 0.003133855 0.047744863
0.014535452 0.013189184 0.006575546 -0.01291023 -0.0012960429 0.043465935 -0.008669107 0.006283827
-0.0015647901 -0.050534878 -0.0012749105 0.010650086 -0.024394639 0.023887675 -0.013159554 0.049900528
0.043603145 0.03662719 0.02034208 0.02392732 0.024379808 0.019946339 0.041585978 0.03682364
0.07315817 0.0009664347 0.004442864 0.035777844 0.010591634 0.07429473 -0.004224445 0.015873015
0.026497088 0.095526755 -0.007815354 -0.027928518 -0.012474424 0.0051122103 -0.019035928 0.04366182
-0.017413935 -0.027729753 0.022534894 0.0017328035 -0.006430029 0.013451324 -0.014871042 -0.011550195
0.012365586 -0.01058631 -0.01907627 0.026739687 0.033593766 -0.008515364 0.009174757 0.0011128543
-0.0012800749 0.034961168 -0.017957248 -0.005635478 0.10059741 0.06760193 0.0034340317 0.09026883
00000000: 178d e03c dfd6 7a3c 7428 4d3c 1924 f83c
00000010: 8dcc 7ebc dd72 94ba 1cb4 af3c 4599 173c
00000020: d4e5 a23b 0e4d e03c fb36 19bd 0b18 ef3b
00000030: 4bae 74bb b77b b3bc 270c 0f3d 12c0 8dbc
00000040: 3755 2f3c cad9 b8bb 46ee a23b 0456 48bc
00000050: 39ff 70bd c39b 113d 7a59 0ebd 2f50 a4bc
00000060: 8540 f83c eb86 9e3d 31dc 553d ff7e 05bd
00000070: d487 d1bc dd03 033d 3106 30bd 7165 aabc
00000080: eec6 133d 012f e7bc fd0c 2bbc 55ba 373c
00000090: f0b8 253c a817 44bc 39df ed3c d9d7 263c
000000a0: 4457 783c 4967 5c3c 662b 5d3d 89e8 b23c
000000b0: aef8 2cbb 96b8 f5bc f470 e4bc 8775 813d
000000c0: dc72 153d f151 a3bc 20e1 1e38 b7f2 83bc
000000d0: 0054 813c 9477 ef3c ce41 fd3b 6304 273d
000000e0: 049e 8ebc 2552 453b 0abf c33b ee3c e63c
000000f0: 9e2c 2dbc e989 8d3c b960 d9bc d8d3 923c
00000100: 9027 ee3c b611 863d ab40 07bd aadf 15bd
00000110: 6c57 bfbc ffad ee3c 80a0 6e3d 36fd 433d
00000120: 9f03 8f3c 6661 47bb 8c4a aebc 8ba0 f63c
00000130: 4f1a c43c 7cda 823c df8c 2c3d 2e80 04bd
00000140: aa9d 15bc b0c8 f43c 0d50 a33d 48e5 9f3c
00000150: ca89 f53c fa43 233d 1e7c 903b eed7 8e3d
00000160: a1e2 443d 169b 37bd 3f5c 573d 6bcb 733c
00000170: 6c34 343d 4418 083d b083 f03c 97fc 6b3d
00000180: e9c9 1f3c 3566 b439 0486 213d a0c1 dfbc
00000190: 3bd3 5dbc eb7d 6d3a 3c8a a13b fe58 6ebc
000001a0: 5178 99bc c34a 253d 9662 cc3c 0e1b c83c
000001b0: 3b50 e23c 91ce d93b 2c66 8e3c 1382 1c3c
000001c0: cceb 673d 5647 ed3c 874f 11bc 6449 6f3c
000001d0: 33c7 953c 0a51 0c3b e1ff c03c 6c98 2ebd
000001e0: 9252 0f3b 847c 793c 9a26 fabc e57f 013d
000001f0: b1c0 a73c 649e 213c 08f6 eb3c e1ae 5b3d
00000200: f63e 64bc aab8 35bc 5cb0 b43d b8b3 4c3d
00000210: 0b55 8e3d c086 8a3c f6aa eb3c c66b ec3c
00000220: 11b3 d6bc 2947 7fbd d254 d53c 68dc 4e3d
00000230: 2b89 13bb b5c1 d9bc d74b 9ebc 03b0 3f3d
00000240: 7f7a 4bbc e6aa 04bc 0b63 303c e9a1 e0bc
00000250: ce3b e5bc 815a 10bc a03a 893c 1870 823c
00000260: c5d7 443c 63e9 943b 9d00 9c3c 2ea9 71bc
00000270: fe35 893c 38a3 8dbc 220f 2dbc 73f9 ddbc
00000280: c190 42bc 0824 dd3b a0a6 2d3b 07bd f5bc
00000290: 9155 25bd 7906 923c 3e6c 063c 0af1 1b3c
000002a0: 0e1f 86ba 4fb2 3d3d 893e 703d 443e dd3c
000002b0: eb9f 23bd d5ce c9bc 7717 d1bc 7c96 51bc
000002c0: e957 37bb e1d2 15bc a224 943c 633b f33b
000002d0: 6801 353c 4c61 183d d6bc bdbc 3451 763a
000002e0: ed0d 403d 8b1f d5bb d298 153d 1831 b03c
000002f0: 0cb3 4e38 01eb 0d3c 5d61 4d3b 1e90 433d
00000300: 1b26 6e3c 7217 583c ae77 d73b 6e85 53bc
00000310: fcdf a9ba 5609 323d df08 0ebc 90e8 cd3b
00000320: a519 cdba a9fd 4ebd e61a a7ba b37d 2e3c
00000330: 44d7 c7bc 16b0 c33c 2c9b 57bc 7f64 4c3d
00000340: 3699 323d 6406 163d 6fa4 a63c 3a03 c43c
00000350: 2ab8 c73c 8166 a33c 0f56 2a3d 63d4 163d
00000360: f3d3 953d 5658 7d3a 7295 913b ca8b 123d
00000370: 8888 2d3c d627 983d 376d 8abb 2008 823c
00000380: 6c10 d93c 88a3 c33d f80b 00bc 59ca e4bc
00000390: 8761 4cbc 5484 a73b 3cf1 9bbc bdd6 323d
000003a0: aba7 8ebc 8229 e3bc 199b b83c 3d1f e33a
000003b0: feb2 d2bb f162 5c3c aca5 73bc 073d 3dbc
000003c0: 0799 4a3c 3472 2dbc d645 9cbc 300d db3c
000003d0: 9e99 093d 0684 0bbc b851 163c 32dd 913a
000003e0: 30c8 a7ba 7133 0f3d 141b 93bc d1a9 b8bb
000003f0: 0406 ce3d e172 8a3d 7e0d 613b ddde b83d

bias f4 [32]
0.010544711 -0.0050997273 -0.06513204 0.02047878 -0.004757923 -0.0037008496 0.025573097 0.007369048
-0.045947276 0.014211108 -0.024831288 -0.040646065 -0.020174397 -0.03279346 0.039132226 0.031847585
-0.052024852 -0.008981593 0.05216763 -0.018614106 0.05410705 -0.020078206 -0.017815806 0.04500542
-0.03898255 0.0381421 0.013321526 0.0034465087 -0.028741013 -0.037939597 -0.04220366 -0.0500869
00000000: b9c3 2c3c 9d1b a7bb f263 85bd 1dc3 a73c
00000010: 5ae8 9bbb f489 72bb ac7e d13c 0e78 f13b
00000020: 3633 3cbd b5d5 683c fc6a cbbc 7d7c 26bd
00000030: c744 a5bc 6f52 06bd 1d49 203d 9d72 023d
00000040: 0318 55bd 8827 13bc baad 553d 9c7c 98bc
00000050: 5b9f 5d3d 0d7b a4bc 74f2 91bc 9a57 383d
00000060: 2bac 1fbd e43a 1c3d 8842 5a3c d2de 613b
00000070: 4672 ebbc 8d66 1bbd bfdd 2cbd ec27 4dbd

weight f4 [32]
0.9885949 1.0433689 0.9925665 1.0463129 1.0273498 0.99146867 0.94880277 1.008437
0.96428764 0.96223074 1.0162054 0.9863609 0.9748155 0.9865961 1.0257832 0.9960199
0.9849743 0.99750906 0.97111815 1.0105027 0.9481918 1.0026656 0.9657769 1.0172648
1.0301208 1.0023115 0.9368156 0.96324646 0.931324 1.0088961 1.0199232 0.9643525
00000000: 8e14 7d3f 1d8d 853f d718 7e3f 95ed 853f
00000010: 3380 833f e4d0 7d3f bde4 723f 7714 813f
00000020: 8edb 763f c154 763f 0513 823f 2682 7c3f
00000030: 828d 793f 9091 7c3f dd4c 833f 29fb 7e3f
00000040: 4727 7c3f c15c 7f3f 339b 783f 2758 813f
00000050: b3bc 723f 5957 803f 283d 773f bc35 823f
00000060: 00db 833f be4b 803f 26d3 6f3f 5297 763f
00000070: 406b 6e3f 8223 813f d88c 823f cedf 763f

bias f4 [32]
-0.2884513 -0.23887648 -0.33068696 0.05583739 0.016825803 -0.3955303 -0.3507886 -0.06606667
-0.15411031 -0.05822958 -0.160865 -0.06859097 0.07849391 -0.24388558 -0.040768426 -0.24124764
-0.22806971 0.024114178 -0.094820745 0.090773515 -0.046295706 -0.24104874 -0.15082358 -0.12600462
-0.24826394 0.19014077 -0.48050922 0.078625135 -0.13193692 -0.08923957 -0.22609584 -0.2214789
00000000: e4af 93be 099c 74be cd4f a9be bfb5 643d
00000010: 44d6 893c f382 cabe 909a b3be f64d 87bd
00000020: 18cf 1dbe 2482 6ebd cbb9 24be 6c79 8cbd
00000030: 6ac1 a03d 24bd 79be cbfc 26bd 9f09 77be
00000040: 1b8b 69be 198b c53c 6131 c2bd 77e7 b93d
00000050: 91a0 3dbd 7bd5 76be 7f71 1abe 5b07 01be
00000060: e738 7ebe 43b4 423e 4e05 f6be 3706 a13d
00000070: 791a 07be 3cc3 b6bd ab85 67be 5dcb 62be

running_mean f4 [32]
0.7740209 -0.79863876 0.18997546 -0.19662333 -0.7341238 0.23571669 0.4755982 -1.1756196
-0.07451092 0.030158576 0.25878677 -0.51528156 -0.59682643 0.060249913 -0.6991476 0.8862664
-0.5678056 -0.28620222 0.547716 -0.49254158 0.019214787 0.39527848 0.59028435 0.29391664
1.0202154 -0.23226959 0.2064631 -0.008648067 -0.32948664 0.65154606 0.31803626 0.85979444
00000000: 3c26 463f 9773 4cbf ed88 423e a057 49be
00000010: 8aef 3bbf b75f 713e 9b81 f33e b47a 96bf
00000020: 2e99 98bd 1e0f f73c b37f 843e 7ee9 03bf
00000030: 9ec9 18bf 9dc8 763d 56fb 32bf 5be2 623f
00000040: b55b 11bf 1989 92be 1e37 0c3f 692e fcbe
00000050: 5468 9d3c f161 ca3e e01c 173f 3e7c 963e
00000060: 6b96 823f 14d8 6dbe 106b 533e 9fb0 0dbc
00000070: 79b2 a8be b9cb 263f a6d5 a23e 7d1b 5c3f

running_var f4 [32]
0.2776739 0.34924293 0.10551728 0.85914785 0.84707314 0.17868559 0.21567541 0.47566116
0.2220518 0.1716297 0.14064208 0.18687688 0.27245075 0.10146071 1.0219578 0.3233914
0.2666198 0.22710733 0.46404257 0.397002 0.28758493 0.15383726 0.20836236 0.27806887
0.5344279 0.42227483 0.19263947 0.15586312 0.1811037 0.46402934 0.2159533 0.41528332
00000000: 462b 8e3e f8cf b23e 7219 d83d 1df1 5b3f
00000010: c9d9 583f 5bf9 363e 04da 5c3e dc89 f33e
00000020: 8c61 633e b2bf 2f3e 7a04 103e a75c 3f3e
00000030: aa7e 8b3e a2ca cf3d 83cf 823f 8f93 a53e
00000040: 6482 883e d38e 683e fd96 ed3e d943 cb3e
00000050: 553e 933e 8487 1d3e f15c 553e 0b5f 8e3e
00000060: 44d0 083f 6834 d83e 4843 453e 959a 1f3e
00000070: 4073 393e 4195 ed3e dd22 5d3e 04a0 d43e

weight f4 [32, 32, 3, 3]
-0.047279436 0.00807416 0.004002194 -0.030315647 -0.08718942 -0.02035034 -0.0035527411 -0.024186485
-0.0046241335 -0.057605904 -0.007253828 0.041959256 -0.042696882 0.0518994 0.050027497 -0.028853623
0.010745136 0.05581575 0.013496639 -0.025744084 -0.009937778 0.029985026 0.012567244 0.0047172797
0.057955943 0.027618041 0.025767203 -0.011344771 0.057025656 -0.00071871706 0.018516151 -0.014046763
0.0018927731 0.030120235 -0.042388536 0.026788913 -0.06365689 -0.0062545124 -0.050398964 -0.044847354
-0.040340234 -0.04969964 -0.025040241 -0.025493393 -0.08067925 0.031826623 -0.023242757 0.022652898
-0.018995048 -0.012523164 0.038888596 -0.012286439 0.011923316 0.007843564 0.004179538 0.01054462
-0.073628835 -0.025852941 0.010545959 -0.08611291 0.046241153 0.012376276 -0.03778651 0.08516661
0.07508546 0.019109199 0.099084474 0.03218044 -0.0108755175 0.052481353 0.05991882 -0.021697454
0.0394818 0.035816472 -0.03459579 0.042444125 0.059988543 0.010447924 0.024438456 0.047626708
-0.0041322517 -0.00067083054 0.010866552 -0.014226587 -0.005509515 0.04725104 -0.00485859 0.0072362847
0.003093685 0.017101234 -0.012889286 0.08382775 0.0067003667 0.055697463 0.052323185 0.009673245
0.08563972 0.053085078 0.0601131 0.0020218876 -0.036522534 -0.04741854 0.034799032 0.004960726
-0.053447694 0.0155310305 0.010914876 -0.043941475 0.050775584 -0.0110085495 0.0034463047 0.01849202
0.039907448 0.04737462 -0.033268385 0.015328215 0.023678644 0.050715983 0.05145968 0.07443936
0.0062130047 0.05444493 0.05634111 -0.005342476 0.0750806 0.022568092 0.012034737 0.0006373722
0.020373909 0.0023295756 0.03956199 0.0068121254 0.0023272627 0.020597532 -0.025085405 -0.014964159
-0.02031366 0.008239094 -0.040632967 -0.039233796 -0.0011355822 0.022028547 0.0007719754 0.02267464
0.027341614 0.04486633 -0.056627035 0.04709387 -0.004442942 -0.03766674 0.036203854 -0.02451132
-0.06417618 -0.0024012723 0.005672737 0.020925874 -0.017983906 -0.019226743 -0.018799301 -0.045112275
0.003832951 0.012096999 0.005426932 0.014509352 -0.031264406 0.014290106 -0.0021480157 0.009456816
-0.0390228 0.00027733587 0.0042426903 -0.0060707116 0.03141761 -0.040606674 0.035664614 0.039234154
-0.040784784 0.023959108 -0.007146761 -0.06919887 -0.025638523 -0.07015639 0.0009489846 0.022494953
-0.031486675 0.023879532 0.020854242 0.027366078 0.053735696 -0.027181057 -0.060181558 0.002687606
0.0032434778 -0.011340925 0.0015493603 0.014290384 0.02073908 -0.011758364 0.026826402 0.00014022988
0.00081285427 -0.026590144 0.022495449 0.04716951 -0.030817667 0.0015413536 0.040307265 0.023485878
0.03597307 -0.0080254935 0.0038234007 0.024910605 0.0057956805 0.013080849 0.03837587 0.017304758
4.6857007e-05 0.064726494 0.022200804 0.0835959 0.03490136 0.06218751 0.045191035 0.062184196
0.06885653 -0.006239816 -0.040156312 0.0066503463 0.025114257 0.02501257 0.0010742373 0.019449065
-0.019140279 -0.039240547 0.06798284 0.020689266 -0.023579622 0.027394384 -0.022100985 -0.02453216
0.050215803 -0.03689786 -0.041492444 -0.009970054 0.0010642702 0.03129958 -0.024708971 0.00744318
-0.024022628 -0.070396714 0.0060841637 0.013440147 -0.0131590115 0.036431987 -0.0024540161 -0.027445799
00000000: 15a8 41bd 7b49 043c d624 833b 8558 f8bc
00000010: 5e90 b2bd c2b5 a6bc 1bd5 68bb bc22 c6bc
00000020: 0b86 97bb 2bf4 6bbd 85b1 edbb 78dd 2b3d
00000030: ede2 2ebd 7794 543d a2e9 4c3d 6f5e ecbc
00000040: 5e0c 303c 0e9f 643d 0221 5d3c 42e5 d2bc
00000050: 10d2 22bc 28a3 f53c d7e6 4d3c 6993 9a3b
00000060: 3663 6d3d 3b3f e23c be15 d33c 6bdf 39bc
00000070: bc93 693d 4968 3cba 2faf 973c 6524 66bc
00000080: ed16 f83a b6be f63c 9a9f 2dbd 6c74 db3c
00000090: 8b5e 82bd a7f2 ccbb 256f 4ebd dcb1 37bd
000000a0: cd3b 25bd da91 4bbd 3121 cdbc 85d7 d0bc
000000b0: 2a3b a5bd a25c 023d 9867 bebc 9292 b93c
000000c0: 819b 9bbc f52d 4dbc a649 1f3d 0f4d 49bc
000000d0: 035a 433c 4b82 003c 82f4 883b 58c3 2c3c
000000e0: b7ca 96bd 8cc9 d3bc f5c8 2c3c f75b b0bd
000000f0: 5d67 3d3d ddc5 4a3c 07c6 1abd d56b ae3d
00000100: 68c6 993d e58a 9c3c cdec ca3d a3cf 033d
00000110: 3a2f 32bc b0f6 563d 706d 753d dcbe b1bc
00000120: abb7 213d 4bb4 123d 51b4 0dbd e4d9 2d3d
00000130: 8cb6 753d c52d 2b3c 2833 c83c 3914 433d
00000140: d767 87bb adda 2fba 9f09 323c a116 69bc
00000150: 2989 b4bb 4e8a 413d cf34 9fbb 5b1e ed3b
00000160: 6cbf 4a3b e317 8c3c 952d 53bc e2ad ab3d
00000170: c08e db3b 0623 643d d650 563d 887c 1e3c
00000180: e163 af3d bd6f 593d 2739 763d a581 043b
00000190: a798 15bd f139 42bd 6e89 0e3d 968d a23b
000001a0: f8eb 5abd dd75 7e3c 4fd4 323c fafb 33bd
000001b0: 0ffa 4f3d 345d 34bc 66db 613b 947c 973c
000001c0: fe75 233d e40b 423d 6e44 08bd 3223 7b3c
000001d0: b7f9 c13c 90bb 4f3d 63c7 523d aa73 983d
000001e0: 7696 cb3b a601 5f3d f0c5 663d f00f afbb
000001f0: dcc3 993d b8e0 b83c 582d 453c 5315 273a
00000200: 2fe7 a63c cbab 183b c10b 223d 4038 df3b
00000210: fd84 183b 28bc a83c e87f cdbc 3b2c 75bc
00000220: d568 a6bc 44fd 063c c16e 26bd 9eb3 20bd
00000230: d1d7 94ba 3675 b43c 645e 4a3a 2bc0 b93c
00000240: 85fb df3c c2c5 373d c0f1 67bd 80e5 403d
00000250: 1996 91bb 7148 1abd 7e4a 143d f7cb c8bc
00000260: cd6e 83bd aa5e 1dbb 5ee2 b93b bd6c ab3c
00000270: fc52 93bc 6781 9dbc fe00 9abc a6c7 38bd
00000280: 3f32 7b3b 7e32 463c 68d4 b13b a2b8 6d3c
00000290: 1b0f 00bd 0c21 6a3c b9c5 0cbb c3f0 1a3c
000002a0: 5fd6 1fbd 6467 9139 4406 8b3b d2ec c6bb
000002b0: c0af 003d 2f53 26bd 0f15 123d feb3 203d
000002c0: f20d 27bd e445 c43c 602f eabb 23b8 8dbd
000002d0: e107 d2bc 27ae 8fbd 47c5 783a 5647 b83c
000002e0: 2cf8 00bd 029f c33c 84d6 aa3c d32e e03c
000002f0: f619 5c3d cfaa debc f080 76bd 8c22 303b
00000300: 8790 543b 49cf 39bc e813 cb3a 3722 6a3c
00000310: 01e5 a93c 27a6 40bc 0bc3 db3c ac0a 1339
00000320: ba15 553a 93d3 d9bc 6048 b83c d134 413d
00000330: 5575 fcbc 3f07 ca3a 3b19 253d 7565 c03c
00000340: 7f58 133d 5c7d 03bc 0592 7a3b 5311 cc3c
00000350: b1e9 bd3b 0f51 563c 0430 1d3d b5c2 8d3c
00000360: 5488 4438 538f 843d 76de b53c 5434 ab3d
00000370: baf4 0e3d 55b8 7e3d 3c1a 393d dbb4 7e3d
00000380: a704 8d3d 5f77 ccbb f27a 24bd 26eb d93b
00000390: 6abc cd3c 29e7 cc3c 6ccd 8c3a a553 9f3c
000003a0: 13cc 9cbc b2ba 20bd 963a 8b3d 897c a93c
000003b0: 0d2a c1bc 306a e03c 200d b5bc abf7 c8bc
000003c0: 16af 4d3d 3622 17bd fbf3 29bd 7059 23bc
000003d0: fb7e 8b3a fd33 003d 786a cabc ebe5 f33b
000003e0: 1acb c4bc 272c 90bd aa5d c73b 1034 5c3c
000003f0: e598 57bc b539 153d 8fd3 20bb 03d6 e0bc

bias f4 [32]
-0.0367158 -0.0377694 -0.004856017 0.05338917 -0.032060888 -0.05318135 -0.022392662 -0.050992094
0.040345866 0.014223569 0.026405172 -0.0199811 -0.060455788 0.032634944 -0.022302976 0.0449476
-0.042914003 0.0142507395 -0.017073205 0.022361733 0.03772113 0.020852266 -0.019128928 -0.04428068
-0.017232843 -0.02542053 0.04747567 0.046659913 -0.003789146 0.018743007 -0.020691963 -0.049200024
00000000: 4f63 16bd 16b4 1abd 391f 9fbb 9aae 5a3d
00000010: 4752 03bd b0d4 59bd d170 b7bc 16dd 50bd
00000020: b541 253d f909 693c a94f d83c 67af a3bc
00000030: 7da0 77bd 38ac 053d bbb4 b6bc fa1a 383d
00000040: 98c6 2fbd ef7b 693c 1bdd 8bbc f42f b73c
00000050: 7981 1a3d 5fd2 aa3c 45b4 9cbc a95f 35bd
00000060: e42b 8dbc b73e d0bc d975 423d 771e 3f3d
00000070: 5253 78bb ef8a 993c 3182 a9bc f785 49bd

weight f4 [32]
0.96693355 0.9740694 1.0047169 0.98508877 0.9924079 0.90922266 0.9955569 1.0851884
0.98387325 0.9516483 1.0220586 1.0300164 1.0221931 1.0117327 0.9574364 0.96027446
0.9587412 1.0014741 0.95555294 1.0366204 0.98846453 1.0185244 0.93938994 0.95563895
0.9943099 1.0042427 1.0610821 0.94864273 1.0252709 0.95297015 1.0072005 0.9706898
00000000: f588 773f 9d5c 793f 909a 803f c72e 7c3f
00000010: 720e 7e3f d1c2 683f d1dc 7e3f 74e7 8a3f
00000020: 1edf 7b3f 399f 733f d1d2 823f 94d7 833f
00000030: 39d7 823f 7580 813f 8d1a 753f 8cd4 753f
00000040: 1070 753f 4e30 803f 1e9f 743f faaf 843f
00000050: 030c 7d3f 025f 823f dc7b 703f c1a4 743f
00000060: 188b 7e3f 068b 803f 8ad1 873f 40da 723f
00000070: 143c 833f daf5 733f f2eb 803f 207f 783f

bias f4 [32]
-0.18843846 -0.016667398 0.07519883 -0.037646707 -0.18037455 -0.31818065 -0.42219865 -0.49571857
-0.15022846 -0.052591488 -0.09128639 0.02274887 -0.049856853 0.24468021 -0.025425564 -0.5411886
-0.1603344 -0.19399427 -0.018210288 -0.3692848 0.16651472 -0.29923373 -0.20280981 -0.20676629
0.1685819 -0.15692537 -0.101381004 -0.2559067 -0.2513887 -0.21723077 -0.3026084 -0.38832256
00000000: 03f6 40be 118a 88bc d801 9a3d 6f33 1abd
00000010: 1bb4 38be 93e8 a2be 6c2a d8be d3ce fdbe
00000020: 7dd5 19be 2c6a 57bd 5cf4 babd d75b ba3c
00000030: b336 4cbd 738d 7a3e 4649 d0bc 568b 0abf
00000040: b32e 24be 6fa6 46be be2d 95bc e612 bdbe
00000050: d682 2a3e 2a35 99be 60ad 4fbe 8bba 53be
00000060: bca0 2c3e 0bb1 20be d8a0 cfbd 3406 83be
00000070: 05b6 80be be71 5ebe 7def 9abe 37d2 c6be

running_mean f4 [32]
0.2949714 -0.51697 -0.5232133 0.41607848 -0.10319617 -0.151282 -0.36404353 0.040256567
-0.10543506 -0.16081034 0.15790689 -0.119935706 0.32337514 -0.4002217 -0.57222176 0.21771225
0.45921543 0.08761366 -0.27647704 -0.0648074 -0.1883362 0.25661108 0.59358126 -0.17544593
-0.15438764 -0.022244284 0.29717138 0.09698293 0.085286476 -0.05076513 -0.0855763 0.4785785
00000000: 7e06 973e 2558 04bf 4ff1 05bf 3d08 d53e
00000010: 8358 d3bd abe9 1abe ea63 babe 12e4 243d
00000020: 56ee d7bd 77ab 24be 58b2 213e daa0 f5bd
00000030: 6d91 a53e dce9 ccbe 207d 12bf f6ef 5e3e
00000040: 491e eb3e ca6e b33d 668e 8dbe beb9 84bd
00000050: 34db 40be 8762 833e f1f4 173f 19a8 33be
00000060: cb17 1ebe a539 b6bc d926 983e fd9e c63d
00000070: adaa ae3d 19ef 4fbd a142 afbd 3e08 f53e

running_var f4 [32]
0.32198817 0.15894131 0.48816165 0.7469366 0.16984108 0.16560268 0.23820165 0.08137721
0.12861134 0.17641167 0.49920177 0.736908 0.26543263 0.13758396 0.6573805 0.07814744
0.40337822 0.3730251 0.54514307 0.22408444 0.43132555 0.17896773 0.14081116 0.19162437
0.14373747 0.10170521 0.18881471 0.117222324 0.14409284 0.1109899 0.1675723 0.39390928
00000000: a2db a43e 83c1 223e 53f0 f93e 3d37 3f3f
00000010: d2ea 2d3e c093 293e 22eb 733e 18a9 a63d
00000020: b1b2 033e 43a5 343e 6097 ff3e 01a6 3c3f
00000030: c9e6 873e cfe2 0c3e 174a 283f c40b a03d
00000040: 9787 ce3e 25fd be3e 7f8e 0b3f 6476 653e
00000050: b4d6 dc3e 5143 373e cd30 103e 2e39 443e
00000060: ea2f 133e d24a d03d a558 413e 4212 f03d
00000070: 138d 133e ac4e e33d 1398 2b3e 7aae c93e

weight f4 [32, 32, 3, 3]
0.0705392 0.037604697 0.028189296 0.054045096 0.043387648 0.020254342 0.025167607 0.01815325
0.023832174 -0.004419694 0.024787413 -0.03539507 0.05257824 -0.0013509489 -0.005684605 0.056613214
0.005495069 -0.046447814 0.009246756 0.05077857 0.094332 -0.0061960137 0.01644781 0.07448206
0.011755558 0.064829625 0.08754743 0.011605375 0.0015796891 0.003435929 0.0036466143 0.03573461
0.04556432 -0.016771417 0.0160082 0.0041448665 0.061867256 0.07575509 0.059452128 -0.008592062
0.01995345 0.014660997 -0.011272991 -0.0068913754 -0.025859475 -0.037840687 -0.03642253 0.04523692
-0.0065239263 -0.01618822 0.051665995 -0.015237496 0.0394116 0.07718595 -0.025903482 -0.04153564
-0.0186451 -0.020580858 -0.016003529 0.03209965 -0.031938143 0.026898561 0.015753793 -0.02235899
-0.03843004 -0.028774459 -0.018357782 -0.07879062 -0.016160676 -0.042454094 -0.042150937 0.039825957
-0.01770728 0.021398034 0.043911505 -0.020582844 -0.0011150619 0.019530155 0.0067751496 0.0050868713
0.034987606 -0.017745072 -0.009526969 0.018666942 0.013732531 0.013743104 0.041578785 -0.010047302
0.037729748 0.061271064 0.027610723 -0.0037919101 0.01465789 0.016030656 0.065910526 0.035613455
0.022096429 0.020199118 0.009960613 -0.0028996826 0.041251387 0.056541335 -0.011013433 -0.017116634
0.02387216 -0.0068385615 -0.04290368 -0.036425162 -0.019447273 -0.016220368 -0.05216021 0.008938212
-0.04271431 -0.06748594 0.017556855 -0.02689486 -0.053371496 -0.012724972 -0.016185123 -0.009221042
0.025460815 -0.009445304 0.028341629 0.046939846 0.015007325 0.017043168 -0.04268651 -0.0113900155
0.049117077 0.010315974 0.04317331 0.027965173 0.057716597 0.012819264 0.053350434 0.03225358
-0.00076752494 -0.024182104 0.010638532 -0.006488687 -0.034731966 -0.017508361 -0.036568068 -0.02801666
-0.017720541 5.114315e-05 -0.05509316 -0.015827768 0.030464532 -0.03412107 -0.029109964 0.030469831
-0.0018551206 0.016690945 -0.02700867 -0.068203926 -0.013945223 0.013315857 -0.050522737 0.063208945
-0.014717629 -0.0053292643 0.016603665 -0.039148107 0.045359027 0.017803356 0.019006498 0.052954443
0.00035595807 -0.003607225 -0.016525442 0.05087498 0.052638233 0.04951156 0.016850451 -1.1661874e-05
0.019820558 0.020143917 -0.0375655 -0.028867641 0.039187625 0.007112026 -0.00963192 0.019880023
0.0011086237 0.013647158 -0.009336578 0.03294011 -0.021076338 0.03577253 0.04638704 0.060488213
0.06982546 0.02456237 0.09413966 -0.0059944396 0.0514558 0.05390448 -0.026095957 -0.022681674
-0.04220612 -0.0050122337 -0.01963978 -0.019712321 -0.0026357903 -0.040739972 -0.008903982 0.014851268
0.017191863 -0.0010185025 -0.03253086 0.018444693 0.0025972032 -0.018581608 -0.0051834737 -0.014840415
0.019609079 0.049510658 0.008661648 -0.013846491 0.0057226974 -0.0031593326 -0.048589148 -0.0008784124
-0.026105383 -0.035095885 -0.0023984734 -0.0007403161 -0.05149405 -0.032782465 0.045501485 -0.015232779
-0.011088819 -0.0039225314 -0.027538639 -0.06455951 -0.019490533 -0.016848627 -0.0036706408 -0.059991214
-0.03928984 -0.0039040942 -0.044249244 -0.05300757 -0.01085164 0.010410937 -0.04840309 -0.0013326454
0.058995973 0.011725857 0.058901355 0.075047895 0.012561083 0.0031417827 0.0048525054 0.013715714
00000000: db76 903d 6207 1a3d 3ded e63c 645e 5d3d
00000010: 3fb7 313d 6fec a53c 4c2c ce3c 20b6 943c
00000020: b13b c33c 15d3 90bb f90e cb3c 6cfa 10bd
00000030: 485c 573d 5312 b1ba ec45 babb 42e3 673d
00000040: fb0f b43b 1040 3ebd b57f 173c 31fd 4f3d
00000050: 2331 c13d ee07 cbbb 8fbd 863c 0d8a 983d
00000060: 629a 403c 65c5 843d 114c b33d 7924 3e3c
00000070: 920d cf3a 532d 613b 09fc 6e3b 745e 123d
00000080: a7a1 3a3d 3664 89bc a123 833c a9d1 873b
00000090: 8568 7d3d 7c25 9b3d 1384 733d b8c5 0cbc
000000a0: 6b75 a33c ae34 703c 5ab2 38bc 0cd1 e1bb
000000b0: 40d7 d3bc d6fe 1abd ca2f 15bd 594a 393d
000000c0: a9c6 d5bb 289d 84bc b99f 533d b1a6 79bc
000000d0: 0f6e 213d ab13 9e3d 8a33 d4bc 4621 2abd
000000e0: 9cbd 98bc 3099 a8bc d519 83bc ec7a 033d
000000f0: 92d1 02bd 5f5a dc3c 190e 813c 332a b7bc
00000100: d168 1dbd 6ab8 ebbc 0f63 96bc fa5c a1bd
00000110: 6563 84bc 58e4 2dbd 76a6 2cbd 8b20 233d
00000120: dc0e 91bc ee4a af3c 8ddc 333d 5a9d a8bc
00000130: 4527 92ba b4fd 9f3c 1302 de3b c5af a63b
00000140: 2a4f 0f3d 1d5e 91bc 0117 1cbc 6aeb 983c
00000150: 69fe 603c c22a 613c 844e 2a3d 709d 24bc
00000160: 828a 1a3d 5ef7 7a3d e22f e23c b281 78bb
00000170: a627 703c b952 833c 19fc 863d 6adf 113d
00000180: 9203 b53c 9f78 a53c d731 233c 9a08 3ebb
00000190: 37f7 283d e397 673d b071 34bc 2f38 8cbc
000001a0: 8c8f c33c 0316 e0bb c5bb 2fbd 8d32 15bd
000001b0: e34f 9fbc 94e0 84bc f2a5 55bd 9471 123c
000001c0: 33f5 2ebd 1236 8abd 65d3 8f3c 9c52 dcbc
000001d0: 129c 5abd 677c 50bc aa96 84bc da13 17bc
000001e0: 3393 d03c 7ac0 1abc b42c e83c ff43 403d
000001f0: 49e1 753c 1d9e 8b3c 0dd8 2ebd 309d 3abc
00000200: fd2e 493d 5504 293c 7fd6 303d 3817 e53c
00000210: 3d68 6c3d e407 523c fc85 5a3d 541c 043d
00000220: ba33 49ba 8c19 c6bc 3d4d 2e3c 0d9f d4bb
00000230: 1b43 0ebd b26d 8fbc 66c8 15bd 3283 e5bc
00000240: ab2a 91bc 8a82 5638 5ea9 61bd 3ca9 81bc
00000250: c190 f93c 89c2 0bbd 0578 eebc de9b f93c
00000260: 8527 f3ba 73bb 883c 4941 ddbc 80ae 8bbd
00000270: 817a 64bc c12a 5a3c eef0 4ebd b173 813d
00000280: 3622 71bc 1ca1 aebb 6904 883c c459 20bd
00000290: 63ca 393d 58d8 913c 84b3 9b3c c2e6 583d
000002a0: e29f ba39 3167 6cbb 5d60 87bc 4862 503d
000002b0: 309b 573d a2cc 4a3d f509 8a3c 5ea7 43b7
000002c0: b95e a23c db04 a53c 48de 19bd d57b ecbc
000002d0: 3483 203d 000c e93b 33cf 1dbc 6edb a23c
000002e0: 3d4f 913a 5498 5f3c 72f8 18bc 35ec 063d
000002f0: 49a8 acbc 3786 123d 5600 3e3d 7dc2 773d
00000300: a700 8f3d 0637 c93c 4bcc c03d 016d c4bb
00000310: 51c3 523d f2ca 5c3d 30c7 d5bc ebce b9bc
00000320: 53e0 2cbd aa3d a4bb 9be3 a0bc bc7b a1bc
00000330: 39bd 2cbb f5de 26bd 02e2 11bc bc52 733c
00000340: f3d5 8c3c 467f 85ba 143f 05bd 5319 973c
00000350: d735 2a3b 7538 98bc 21da a9bb 3625 73bc
00000360: 38a3 a03c b0cb 4a3d 96e9 0d3c 65dc 62bc
00000370: 7785 bb3b ce0c 4fbb 6a05 47bd 4245 66ba
00000380: f5da d5bc b4c0 0fbd b52f 1dbb c611 42ba
00000390: 6deb 52bd e846 06bd c45f 3a3d e892 79bc
000003a0: e1ad 35bc 9488 80bb b698 e1bc c737 84bd
000003b0: 9caa 9fbc 2206 8abc 228f 70bb 59b9 75bd
000003c0: 62ee 20bd d5db 7fbb b23e 35bd 771e 59bd
000003d0: 14cb 31bc a292 2a3c 5242 46bd 29ac aeba
000003e0: c3a5 713d cf1d 403c 8c42 713d b6b2 993d
000003f0: 00cd 4d3c 5ee6 4d3b c401 9f3b e0b7 603c

bias f4 [32]
0.031405054 -0.026826018 -0.0586765 0.038682435 -0.06567902 -0.025138475 0.036701865 -0.021274548
-0.059649896 0.016888788 0.030539239 -0.015371351 -0.04150334 -0.049166225 0.0062182005 0.05161721
0.023429913 -0.041862894 0.012965638 0.03259971 0.05248978 0.036152087 0.040794462 0.049595896
-0.0473409 0.016466867 0.0431625 0.032850772 -0.022863017 -0.056137383 0.04706358 -0.031081364
00000000: 96a2 003d 3dc2 dbbc c556 70bd 7971 1e3d
00000010: b982 86bd 34ef cdbc b254 163d f647 aebc
00000020: 7353 74bd 5b5a 8a3c 6d2d fa3c 1ed8 7bbc
00000030: 68ff 29bd 8662 49bd 0cc2 cb3b 916c 533d
00000040: 17f0 bf3c 6d78 2bbd d46d 543c 4687 053d
00000050: 86ff 563d 3614 143d 1818 273d 1125 4b3d
00000060: 88e8 41bd 86e5 863c 29cb 303d 888e 063d
00000070: 394b bbbc 50f0 65bd bec5 403d 589e febc

weight f4 [32]
1.0167347 1.036997 1.0017178 0.99655974 1.00556 1.0519693 1.146964 1.0215096
1.0049597 0.98910415 0.96305275 0.9491912 0.98011595 1.0272654 0.9993795 0.9436546
1.144979 1.0521522 0.9758616 1.0061051 0.99941725 0.94843113 0.98061895 1.0743406
0.91299516 1.1424041 0.94245934 1.0648192 0.96832085 0.98939586 0.99601376 0.9984453
00000000: 5d24 823f 51bc 843f 4a38 803f 8a1e 7f3f
00000010: 31b6 803f eea6 863f b7cf 923f d4c0 823f
00000020: 85a2 803f ee35 7d3f a08a 763f 32fe 723f
00000030: e1e8 7a3f 6f7d 833f 56d7 7f3f 5993 713f
00000040: ac8e 923f ecac 863f 11d2 793f 0dc8 803f
00000050: cfd9 7f3f 62cc 723f d809 7b3f fe83 893f
00000060: 0dba 693f 4c3a 923f 0445 713f ff4b 883f
00000070: e0e3 773f 0c49 7d3f c2fa 7e3f 1c9a 7f3f

bias f4 [32]
-0.11635478 -0.6652114 0.055543926 -0.15353265 -0.063004054 -0.06301515 -0.15503062 -0.39281452
0.11802622 0.05726152 -0.08806053 -0.078742646 -0.04892452 -0.018861929 0.06673783 -0.063356854
-0.6973334 -0.20638274 0.024502821 0.043554127 -0.12280763 -0.028745221 -0.110500716 -0.11903282
-0.016411688 -0.3915321 -0.033898976 -0.13482495 0.040732384 -0.28209043 -0.021511322 -0.09955477
00000000: 6a4b eebd 4b4b 2abf 0782 633d aa37 1dbe
00000010: 4508 81bd 160e 81bd 59c0 1ebe fc1e c9be
00000020: bbb7 f13d 0e8b 6a3d 1459 b4bd d343 a1bd
00000030: 1465 48bd 5584 9abc d8ad 883d 3dc1 81bd
00000040: 7184 32bf ff55 53be 24ba c83c d065 323d
00000050: 9182 fbbd 197b ebbc 334e e2bd 7bc7 f3bd
00000060: ce71 86bc e576 c8be a7d9 0abd 8d0f 0abe
00000070: 00d7 263d 286e 90be 8338 b0bc 5fe3 cbbd

running_mean f4 [32]
0.4395751 -0.28221875 -0.6566239 0.11645716 0.09012741 0.00784279 0.055500045 -0.15330334
0.06244772 -0.16285785 0.34936064 0.10359682 -0.35284773 -0.22387773 -0.07667368 -0.370168
0.026402239 0.2700682 0.072270766 0.1095152 0.07846387 0.053066127 0.17362252 0.19316219
-0.0005813638 -0.07028085 -0.2245703 0.40473416 0.18507707 0.052995704 0.3017252 -0.0063498737
00000000: fd0f e13e fa7e 90be 8118 28bf 1781 ee3d
00000010: b894 b83d 0c7f 003c 0454 633d 8dfb 1cbe
00000020: 2ec9 7f3d 35c4 26be 66df b23e 922a d43d
00000030: 75a8 b4be 3440 65be 1707 9dbd a986 bdbe
00000040: 8249 d83c 6146 8a3e b202 943d 8149 e03d
00000050: aab1 a03d de5b 593d 1aca 313e 4fcc 453e
00000060: aa66 18ba 68ef 8fbd c2f5 65be 5139 cf3e
00000070: d884 3d3e 0612 593d ba7b 9a3e 9a12 d0bb

running_var f4 [32]
0.36542857 0.08065463 0.6753209 0.19425786 0.47927427 0.33766103 0.06548913 0.14014499
0.25237024 0.43446097 0.26552513 0.4785335 0.45241523 0.26162818 0.12844038 0.77082753
0.10152161 0.18132505 0.23899488 0.31168818 0.251288 0.2306609 0.13683896 0.2515541
0.41897288 0.13015957 0.143058 0.56795615 0.2529868 0.2223612 0.6501079 0.32278967
00000000: 7419 bb3e 412e a53d d5e1 2c3f 88eb 463e
00000010: 7063 f53e e8e1 ac3e 2a1f 863d 2b82 0f3e
00000020: ac36 813e ab71 de3e e9f2 873e 5802 f53e
00000030: f8a2 e73e 21f4 853e e085 033e f454 453f
00000040: 90ea cf3d 46ad 393e 13bb 743e 9895 9f3e
00000050: d2a8 803e 5f32 6c3e 831f 0c3e b3cb 803e
00000060: 9d83 d63e 8d48 053e cc7d 123e 9365 113f
00000070: 7c87 813e a8b2 633e 796d 263f b044 a53e

weight f4 [3, 32, 3, 3]
-0.009047996 0.018109767 0.0101934625 0.013878084 0.03038251 0.047224857 0.025066093 0.025188709
0.054788046 0.06283982 0.036562882 -0.044892084 0.06439971 -0.004019228 -0.058619358 0.024289515
-0.063283086 -0.028428635 0.018032013 0.012732959 -0.024238583 -0.00082670024 0.0043013245 -0.028070588
0.0013884974 -0.045064386 -0.038754337 0.037431307 0.028669665 0.034057677 0.05152415 0.01737467
-0.01001365 0.030177722 -0.012033638 -0.05920993 -0.038971197 -0.035379257 -0.009187962 -0.037669666
-0.039810892 -0.0152946655 -0.060421277 -0.04697731 -0.03315409 0.06551979 0.025935188 -0.02119199
0.042847104 0.04676697 0.02154184 0.073249325 0.04151052 -0.007789038 -0.00087961263 0.028496107
-0.009205796 0.003260295 -0.103749834 -0.023374366 0.04744188 0.010036866 -0.010451641 -0.04572252
-0.057904772 0.02326151 -0.051268455 0.0067243595 0.023453051 0.008407279 0.03460659 0.027392307
-0.013196709 -0.021208318 0.053266853 -0.019973591 -0.0112096295 -0.007018025 -0.009599947 -0.0012586695
-0.025492013 0.03902704 -0.06264084 0.0024239542 0.012387124 0.016895238 0.0118576735 -0.010353212
0.008001571 -0.010492315 0.0046605184 -0.016366865 0.013687225 0.0048783366 0.009107371 -0.008181754
-0.016704855 -0.0019892897 -0.020593774 0.04078407 0.012720654 0.047458675 -0.003214345 0.0014555632
0.029557023 0.033904526 -0.0075627672 0.044094928 0.00523024 -0.026185215 -0.02942652 -0.01939305
-0.021285463 -0.012238458 -0.01902216 -0.071715124 -0.032129686 0.0078090425 0.060341056 -0.00798512
0.04989019 0.06441155 -0.027543025 -0.014391312 -0.011129366 -0.002214261 -0.01654321 -0.014696916
0.03710753 -0.032202158 0.0046206214 0.032420576 -0.05671598 0.017304346 0.05062248 -0.019961482
0.02017358 -0.017646272 -0.004522657 -1.05518775e-05 -0.0130126 -0.006345453 0.017662335 0.0073232995
-0.017016325 0.017486269 0.06885616 -0.04138396 -0.042909764 0.070757255 -0.06378246 -0.034403414
0.058077533 -0.012712712 0.07941735 0.084048755 -0.0138872005 0.007827576 0.019633133 0.00052270957
0.009330992 -0.028615803 -0.033686142 -0.048439577 -0.04644086 0.0074006813 -0.001407238 -0.038246404
0.0030187836 -0.006773489 -0.0071697156 -0.041663505 0.021729015 -0.05335498 -0.05217183 -0.012304034
-0.01337554 -0.01664355 -0.01810761 -0.0057205753 -0.008175417 -0.012429539 -0.0024962795 -0.03910825
-0.025860274 -0.044876236 -0.0051897625 -0.002379629 0.022270469 -0.019340841 -0.010701707 -0.00794194
-0.023364434 -0.02672379 -0.021470657 -0.04171329 -0.010661702 -0.024933912 0.028204888 -0.05381028
0.005438494 -0.022184229 -0.034227885 -0.0076453355 0.022391055 -0.052569583 -0.012327523 0.04652032
0.0044073253 -0.0011906448 0.062966704 0.039597858 0.035974495 0.034284547 0.078970335 0.034283508
0.03936253 0.019605197 0.027199829 0.034089338 0.010676301 -0.0009636617 0.0095254285 -0.0171399
-0.004137424 0.006838839 -0.06193878 -0.040321868 0.011152909 -0.048670378 0.042988617 -0.026320228
0.055058714 0.054363128 -0.014894735 -0.00740141 -7.738618e-05 0.008681321 0.000901325 0.0053296597
0.009957035 -0.06504291 -0.03352577 0.07938052 0.058627903 0.0108836945 0.061641175 0.0067120343
0.0013815006 0.047284942 0.0035874087 -0.0055784886 0.019281385 -0.023378197 -0.035544023 0.0064796535
00000000: 0c3e 14bc ef5a 943c 7b02 273c e760 633c
00000010: bee4 f83c da6e 413d 6857 cd3c 8d58 ce3c
00000020: 6e69 603d 2ab2 803d f6c2 153d c3e0 37bd
00000030: ffe3 833d bab3 83bb da1a 70bd cefa c63c
00000040: 909a 81bd 2be3 e8bc dfb7 933c e79d 503c
00000050: fe8f c6bc eab6 58ba 20f2 8c3b 4af4 e5bc
00000060: 3efe b53a 6f95 38bd debc 1ebd 9251 193d
00000070: a5dc ea3c 1080 0b3d fd0a 533d 5355 8e3c
00000080: 4b10 24bc 4537 f73c bc28 45bc 1d86 72bd
00000090: 43a0 1fbd d7e9 10bd 1b89 16bc 824b 1abd
000000a0: bf10 23bd 7a96 7abc 4d7c 77bd 486b 40bd
000000b0: 95cc 07bd 3d2f 863d 0876 d43c d39a adbc
000000c0: 7280 2f3d b98e 3f3d 8378 b03c be03 963d
000000d0: ef06 2a3d 303b ffbb ce95 66ba ab70 e93c
000000e0: e8d3 16bc acaa 553b cb7a d4bd 997b bfbc
000000f0: 6b52 423d ab71 243c 5c3d 2bbc 8a47 3bbd
00000100: 8e2d 6dbd ec8e be3c dffe 51bd 0458 dc3b
00000110: 9d20 c03c afbe 093c a4bf 0d3d d565 e03c
00000120: 0237 58bc 11bd adbc 582e 5a3d a89f a3bc
00000130: 98a8 37bc 76f7 e5bb 1949 1dbc f1f9 a4ba
00000140: a0d4 d0bc d1da 1f3d d749 80bd 34db 1e3b
00000150: 5df3 4a3c e267 8a3c b046 423c 85a0 29bc
00000160: 0519 033c f5e7 2bbc 43b7 983b ce13 86bc
00000170: 6240 603c 74da 9f3b 1537 153c c30c 06bc
00000180: 9fd8 88bc be5e 02bb 46b4 a8bc 320d 273d
00000190: 4a6a 503c 0764 423d c3a7 52bb 99c8 be3a
000001a0: 9221 f23c 79df 0a3d 17d1 f7bb e29c 343d
000001b0: 6f62 ab3b 6082 d6bc e30f f1bc 2cde 9ebc
000001c0: da5e aebc d083 48bc 5cd4 9bbc 61df 92bd
000001d0: 6b9a 03bd ffe2 ff3b 2f28 773d 05d4 02bc
000001e0: a859 4c3d 34ea 833d e9a1 e1bc 8ac9 6bbc
000001f0: f257 36bc 231d 11bb a085 87bc 55cb 70bc
00000200: 11fe 173d 69e6 03bd 9568 973b 70cb 043d
00000210: 044f 68bd d8c1 8d3c 8559 4f3d 4386 a3bc
00000220: 1043 a53c ea8e 90bc cc32 94bb f807 31b7
00000230: cd32 55bc 85ed cfbb 9ab0 903c 4af8 ef3b
00000240: d265 8bbc 5d3f 8f3c 7504 8d3d 3a82 29bd
00000250: 26c2 2fbd 2ee9 903d 61a0 82bd 98ea 0cbd
00000260: b5e2 6d3d fb48 50bc 90a5 a23d c121 ac3d
00000270: 2487 63bc 3c3f 003c aad5 a03c 7206 093a
00000280: 04e1 183c b06b eabc 7bfa 09bd 9468 46bd
00000290: c538 3ebd 6a81 f23b 1273 b8ba 43a8 1cbd
000002a0: c9d6 453b 25f4 ddbb efef eabb 5aa7 2abd
000002b0: 0c01 b23c c08a 5abd 21b2 55bd dc96 49bc
000002c0: 1525 5bbc 0e58 88bc 6956 94bc aa73 bbbb
000002d0: 2ff2 05bc 44a5 4bbc 9f98 23bb f92f 20bd
000002e0: edd8 d3bc 25d0 37bd e20e aabb 8df3 1bbb
000002f0: 8f70 b63c af70 9ebc 3656 2fbc e91e 02bc
00000300: c566 bfbc daeb dabc 3be3 afbc 8edb 2abd
00000310: 6bae 2ebc 3442 ccbc f00d e73c 2b68 5cbd
00000320: 6535 b23b b3bb b5bc 8a32 0cbd b985 fabb
00000330: 726d b73c 3453 57bd 61f9 49bc 178c 3e3d
00000340: 536b 903b 690f 9cba b0f4 803d 5d31 223d
00000350: fe59 133d f46d 0c3d 33bb a13d dd6c 0c3d
00000360: 9b3a 213d 149b a03c 2dd2 de3c 43a1 0b3d
00000370: a7eb 2e3c 3e9e 7cba 8b10 1c3c fa68 8cbc
00000380: 3a93 87bb 5718 e03b 85b3 7dbd 8b28 25bd
00000390: b1ba 363c 975a 47bd d514 303d 859d d7bc
000003a0: 3f85 613d dfab 5e3d 0c09 74bc 8787 f2bb
000003b0: 644a a2b8 193c 0e3c e646 6c3a 6da4 ae3b
000003c0: d522 233c 3835 85bd 5152 09bd 4192 a23d
000003d0: d023 703d 8651 323c 757b 7c3d a0f0 db3b
000003e0: 7813 b53a dbad 413d bb1a 6b3b c1cb b6bb
000003f0: fff3 9d3c a283 bfbc 9c96 11bd 4653 d43b

bias f4 [3]
-0.013585724 -0.016363429 0.0062195025
00000000: a896 5ebc 990c 86bc f8cc cb3b
