TuiGAN/models/horse2zebra/b0.pth (torch, 131453 bytes, 25 tensors)

weight f4 [32, 3, 3, 3]
00000000: 483f 2b3a 44f1 7abd f0c7 e53c c28b 403d
00000010: 27c2 d9bc ffe9 f0bc c7a9 b13d 3e7f c63c
00000020: cd99 89b9 dada 113c caee 54bd 065d 013d
00000030: 66ad 513d c967 96bc 46f6 2abd f625 9a3d
00000040: 4f16 893c ff6a 28bc 5c2d 213c 602e a6bd
00000050: 6118 5f3c 7a8a 293d 7450 f8bc b6fe 23bd
00000060: 0873 763d 9f1e 123c 3981 82ba 7cdd 593c
00000070: ba64 03bc 9a65 403d f189 113d 6733 a53c
00000080: a1bf 14bd 87a2 863c 50e3 373d eff5 a7bd
00000090: 2a81 8d3c 6daa 24bc e59f 3d3d 8dd5 ea3c
000000a0: 8deb c53b 4ae3 17bd 58fb 903c 8744 443d
000000b0: dd31 a2bd e12b bb3c 75a7 283b ab54 143d
000000c0: 5f57 443d 819c b43c 836b 24bd bfd8 9e3c
000000d0: 4d1d 3e3d 1a4c b0bd 1707 6ebd 01b8 f0bc
000000e0: d04b 593d e5c2 733c 8cbe d43c 3296 723d
000000f0: 62b1 55bc 3c1d 40bc 6928 843d 43c7 26bd
00000100: 05a1 29bc 0b2a 813d 5c08 a53c 56e8 b63c
00000110: f759 693d f57e 9bbb 171e 94bc b2f5 833d
00000120: 419b 02bd c08c eebc 55b3 943d 12f5 5d3c
00000130: 7d28 b43c 79a8 7a3d 5359 a5bc d080 6cbb
00000140: 1aaa a83d 4064 59bc 86f0 b7bb 3f7a 533c
00000150: 7b2a bfbc d5d4 0a3b 3249 453d 9c61 e1bd
00000160: 36bf 59bd 3ac6 6b3c b594 ebbc 6bdb 95bc
00000170: 5cd9 193c 521e b2bc b42e 63bc a31a 313d
00000180: a842 c9bd 4565 89bd 7812 753c cbf8 753c
00000190: b5cc 9b3a fae3 283d 91ba 003c 73ef 293c
000001a0: 8143 703d 3a81 9cbd 10a9 19bd d10e f93c
000001b0: 565b 1e3d 6677 da3c 6b0d f5ba 7b04 acbb
000001c0: 726b 0b3d f796 893d 88ff 58bb 65e9 993c
000001d0: 1320 423d 340f 333d 2de1 9f3c 280e 7ebc
000001e0: 818d 103c 43f8 af3c ff0a 2d3d 699c 18bc
000001f0: da4d 033c 464c a83c 6ade d03d b31f f83c
00000200: df5d 153d 0d47 983c 8de4 163d aeab 893d
00000210: c040 e23c dc29 243d baf3 6a3d 215d 593d
00000220: 329a 1bbd 967c 3b3c 3766 a13d a96c 873d
00000230: 1c04 4a3d bf00 d7bb 6de4 1c3d 736b 803d
00000240: 8654 933d d170 28bc d995 993b 1bed ab3d
00000250: ddd3 2c3d 4d9f 0f3d 893f 01bc 68b7 d33b
00000260: e57e 283d cb0f a4bc deab 7abc ae26 97bc
00000270: 25c4 aa3c f271 783d 5584 133d edb0 7cbc
00000280: aa7f 1d3d a23c 323c 3f23 15bd 5ef0 a1ba
00000290: c500 b03b 4068 65bd 247f 0cbd d39f cbbc
000002a0: 275e 64bd 7aac f13c 83cc 7ebc 0597 f7bc
000002b0: 96e7 233c f4a9 b73b 39f1 61bd 753a 03bd
000002c0: 14e9 c6bc d6f4 93bd c80b c4bb 2e3a e5bc
000002d0: 8fb0 52bd a8c9 133c 0343 5c3c 644f a4bd
000002e0: 53f5 9dbc d4c3 5ebc db11 c7bd 5e8f 973c
000002f0: bc8c 2dbd d6bb 443d 915c 883d e4ce 133c
00000300: 8816 a1bc 13d4 cbbc 67dc f13b f290 983b
00000310: e0a9 d73c 8ac4 ab3c 0380 7f3d ee9c c33d
00000320: 1d4f 233d 2fa3 b5bb d1ee babb 990c 653c
00000330: 33be 553c e9a7 5a3d 068d 213d c3c0 1c3d
00000340: d819 903d bc83 c23c 7593 c5bc 820e 68bc
00000350: dbb4 43bc 88e8 4fbc e034 8a3c f767 d03b
00000360: 2444 97bd ce0a 4ebc d3e9 3abd 56a4 95bc
00000370: 58d0 44bc 7370 a4bd bf34 113c 82e1 bf3b
00000380: 7016 a5bd 4fd2 8abd 367c 1fbc 862a 35bd
00000390: cc67 66bc fb7a fdba d601 4ebd c7cb 813c
000003a0: 60f6 9f3c cb89 79bd a099 4fbd ff34 2f3a
000003b0: 73ee 7cbc b199 fc3b d40d d5ba dedd 29bc
000003c0: cfd2 393d b2ea 893c 00cf 80bc eb9d cbbc
000003d0: d931 573d b9be 96bb 2feb e6ba 7c3e 883d
000003e0: 7d9b bfbc f6cc 0c3c b00c cd3c 0da4 1bbd
000003f0: 9a62 c6bc 1f20 393d 7aef 8cbc f759 bebb
0.0006532562 -0.061265245 0.02804944 0.047008283 -0.026581837 -0.029408453 0.086749606 0.024230596
-0.00026245267 0.008902276 -0.05198554 0.031582855 0.051190756 -0.018360035 -0.04173877 0.07526772
0.01673427 -0.010279416 0.009837475 -0.08114314 0.013616652 0.041391827 -0.0303118 -0.040037833
0.060168296 0.008918433 -0.0009956724 0.013297435 -0.008019621 0.046971895 0.03553194 0.020166112
-0.036315564 0.016434921 0.044894516 -0.08201205 0.017273504 -0.010050398 0.046295065 0.028666282
0.0060400427 -0.037081994 0.017697975 0.047916915 -0.07919667 0.022848072 0.0025734578 0.03621356
0.047934886 0.022047283 -0.040141594 0.019390462 0.046414662 -0.08608265 -0.05811223 -0.029384615
0.053050816 0.014878009 0.025969766 0.05922527 -0.01304278 -0.01172572 0.0645302 -0.040717375
-0.010353331 0.06306847 0.020145588 0.022327583 0.056970563 -0.004745359 -0.018080754 0.06443347
-0.031886343 -0.02911985 0.07260767 0.013547199 0.021991963 0.061195824 -0.020184195 -0.003608752
0.08235569 -0.01326853 -0.0056133894 0.012907564 -0.023335686 0.0021183987 0.048165508 -0.11004946
-0.05316087 0.014390523 -0.028757432 -0.018293103 0.009390201 -0.021742973 -0.013866115 0.043238293
-0.09827167 -0.06708769 0.014958017 0.01501293 0.0011886569 0.04123304 0.007856981 0.010372031
0.058658127 -0.076418355 -0.037514746 0.030402573 0.038661323 0.026668262 -0.0018696015 -0.0052495576
0.034038015 0.067182474 -0.0033111293 0.018788049 0.04739387 0.04371567 0.019516552 -0.015506305
0.0088228 0.021480685 0.042246815 -0.009314635 0.008014167 0.020544183 0.10198672 0.030288553
0.036466476 0.018588567 0.036839057 0.067221984 0.027618766 0.040078983 0.057361342 0.05306733
-0.03798885 0.011443278 0.07880824 0.06612522 0.049320325 -0.0065613682 0.03830378 0.06270494
0.07193856 -0.010280804 0.0046870527 0.08394834 0.042194236 0.03506403 -0.007888683 0.0064610727
0.04113664 -0.020027062 -0.015299765 -0.018451061 0.020845482 0.06065554 0.036014874 -0.015423042
0.038451828 0.010878714 -0.036410566 -0.001235496 0.0053711855 -0.056007624 -0.03430094 -0.024856484
-0.055753853 0.029501189 -0.015551689 -0.030223379 0.010003945 0.005604977 -0.05516169 -0.03203817
-0.024281062 -0.07224433 -0.0059828497 -0.027981844 -0.05143791 0.009020247 0.013443711 -0.08022955
-0.019282019 -0.013596494 -0.097202025 0.01850098 -0.042370543 0.048030697 0.06658281 0.009021495
-0.019664064 -0.024881398 0.0073810103 0.0046559507 0.02632612 0.02096774 0.06237794 0.09551416
0.03987037 -0.0055431346 -0.0057047387 0.013980054 0.013045835 0.053382788 0.03944113 0.03826977
0.07036179 0.023744456 -0.024118165 -0.014163615 -0.011944975 -0.012689717 0.016870916 0.00636005
-0.07386044 -0.012575818 -0.04563315 -0.018266838 -0.012012564 -0.080292605 0.008862673 0.00585574
-0.0806092 -0.067783944 -0.009734204 -0.044230007 -0.014062833 -0.0019339019 -0.05029472 0.015844239
0.01952666 -0.060922425 -0.050683618 0.0006683617 -0.01543771 0.007708751 -0.0016254731 -0.010367839
0.04536706 0.016835544 -0.015723705 -0.024855575 0.052537773 -0.0046003726 -0.0017617698 0.06652543
-0.023389572 0.008593788 0.025030464 -0.037998248 -0.024216939 0.04519665 -0.017204035 -0.0058090645

bias f4 [32]
00000000: 29f8 9fbe 28ad 763d 4a2b 353e 25fa 98be
00000010: e5b7 0d3e e991 0abe 3c5f 52bd b06d 173e
00000020: deab 1b3e 9d36 293e 93be 143c 1812 f33d
00000030: 8714 dfbd dc03 a7be 34af 4dbe b729 cebd
00000040: 3639 c63d 8dce 2cbd 661c 50bd 167e 41be
00000050: 4b12 b9bd 44a3 083e c7db 443f 07ef bd3c
00000060: 2b5f bd3d f194 0a3e 1164 ec3e ef48 a33d
00000070: 88d0 853d f543 b33e 29ab 8fbe 09d3 01bf
-0.3124402 0.06022373 0.17692295 -0.29878345 0.13839681 -0.13532223 -0.051360354 0.14787936
0.15202281 0.1652474 0.00907864 0.118686855 -0.10892587 -0.32620132 -0.20086366 -0.1006655
0.09678881 -0.04218917 -0.050808333 -0.18895754 -0.09036692 0.13343531 0.76897854 0.023185266
0.092466675 0.13533379 0.46170095 0.07972895 0.06533915 0.35012785 -0.28060272 -0.5071264

weight f4 [32]
00000000: 8232 803f f6a2 693f 9046 7b3f f883 763f
00000010: 8af5 573f 6559 643f 646d 653f ceaf 7f3f
00000020: c26a 843f 7253 813f 09de 653f 239a 803f
00000030: 389c 6e3f a683 523f 0534 6f3f 933f 833f
00000040: 8c4d 893f 0b7b 723f c28f 783f 983d 823f
00000050: fe76 803f 36cc 7a3f b2f7 603f f202 713f
00000060: 1281 833f 8b04 763f 54ff 733f fb33 563f
00000070: 6dbc 6d3f 343b 4d3f 5711 6b3f ec43 5d3f
1.0015414 0.91264284 0.98154545 0.9629512 0.8435904 0.89198905 0.8962004 0.9987763
1.034508 1.010359 0.89791924 1.0047039 0.9320712 0.8223213 0.9343875 1.0253776
1.072679 0.94719 0.97094357 1.0175047 1.0036314 0.9796785 0.87877953 0.9414512
1.0273764 0.9610068 0.95311475 0.83673066 0.9286564 0.8016846 0.91823334 0.86431766

bias f4 [32]
00000000: 3a7c dd3d f19d c33e fab0 003f 4bb5 723e
00000010: 5b6c 093f d4f6 043f 55e5 3c3f a290 933e
00000020: 1b3c f23e 9536 8b3d f667 153e cf63 2d3e
00000030: 1131 1e3d a615 263f 8ec3 f33e a424 d23e
00000040: 9a26 f43d bc45 a93e 464f 9f3e 4839 c33e
00000050: 5a28 5bbc 7970 753e 7ddd fb3e f685 063f
00000060: e7da 1f3e 87be b13e ebb4 cd3e 8e60 e73e
00000070: f993 4c3d 80a5 1b3f f2c7 6c3e 86b0 003f
0.1081471 0.38206437 0.50270045 0.2370197 0.5368096 0.5193913 0.7378743 0.28821284
0.47311482 0.0679752 0.14590439 0.16932605 0.038621012 0.6487678 0.47610134 0.4104358
0.11921425 0.33061016 0.31115168 0.3812964 -0.01337632 0.23968686 0.4919242 0.5254816
0.15610848 0.34715673 0.40177092 0.45190853 0.049945805 0.6079941 0.23123148 0.50269353

running_mean f4 [32]
00000000: 2c13 a6be bce5 d13c 2d4d b83d 6068 89be
00000010: f1cf 15bd 663b 80be 2bef b23d 767e 5a3d
00000020: 0e26 723e 4979 2a3e d88c 2d3c ba44 4a3e
00000030: ab1c 47bd 4d5a c7be 9714 80be 24c0 8fbd
00000040: c233 4fbd 6acd d4bc 7b80 903d 98cb 16be
00000050: 32d5 dbbd 76b6 f43d 0b2f 303f 0de2 5e3e
00000060: 8cb4 683d 0bb6 043e 1d5c f63e 2078 3abd
00000070: b667 4d3d 02e6 983e dd1f a0be d7d8 07bf
-0.32436502 0.025622241 0.08999095 -0.26837444 -0.03657526 -0.25045317 0.08737024 0.05334326
0.23647329 0.16647829 0.010592662 0.1975278 -0.048611324 -0.38936082 -0.2501571 -0.0701907
-0.05058647 -0.025976855 0.07055756 -0.14726102 -0.10734023 0.11948864 0.6882178 0.21765919
0.056812808 0.12960069 0.48117152 -0.045524716 0.050147735 0.29862982 -0.3127431 -0.53065246

running_var f4 [32]
00000000: 2cca 0c3c 4b66 e03b c324 5a3c e21e 273c
00000010: f6f5 c13c 09fa 923c 51d2 9f3c aa30 323c
00000020: 595e 563c 12ee c03b 7edf 993b 51e2 333c
00000030: 4260 c93b f051 a63b ba57 183c 1bfd 023c
00000040: 2a71 a93c 516a ef3b 943b 683c 1fd7 c13b
00000050: 4a1c a23b a1e0 a43b 41f9 b83b c1b2 d93c
00000060: bc81 d73b c9c6 be3b c330 7d3b c76c 913c
00000070: c53c a33b 662d 073c 7a8d a53b 3127 8e3b
0.008593123 0.006848132 0.013314429 0.010200234 0.023676854 0.017941492 0.019509466 0.01087586
0.013084018 0.005887755 0.004695832 0.010979251 0.006145508 0.0050756857 0.009298259 0.007994915
0.020683844 0.007306375 0.014174361 0.005915537 0.00494722 0.0050316607 0.0056449478 0.026574494
0.006576745 0.005822037 0.00386338 0.017752064 0.0049816095 0.00825057 0.0050522657 0.004338168

weight f4 [32, 32, 3, 3]
00000000: 48c3 babc 997d f23c f7a4 b4bb f352 273c
00000010: d930 e23c 02fe 2b3b cb29 3dbd f81d 1e3d
00000020: d7d0 093c ab29 86bc a806 8abc c42c 073e
00000030: 0cdf 9dbc f6f7 f43c 4948 053d d4e7 89bd
00000040: 99c7 1abd b251 0dbd c6ad 073d 58e6 6b3a
00000050: 09c8 bebc db18 963c 220a 4c3d 99f2 a5bc
00000060: 474b ddbd 2f15 e63c 4a00 69bd 13c1 043d
00000070: 25b0 cabb 9579 173c 8512 f33b c1b8 753c
00000080: 2081 4f3c 4a1c 0cbd 7156 c23a 779a 20bd
00000090: 8cbd cdba 66d2 1e3d 6b75 953b 63a3 f83b
000000a0: 14a6 e73c 8e49 b0bb 2fb5 8cbc 453f 49bd
000000b0: 0886 35bd 4376 3e3d 7ecc 6e3d 72c1 e3bc
000000c0: 3017 663d ae37 5f3d 6ca1 163d 0c2b 85bd
000000d0: e5f3 25bd 0977 eebd 078a debc f439 fdbc
000000e0: a9d7 cd3b a5a0 803c 8974 38bd 6fae 1e3b
000000f0: 34e0 323c 5bc6 283d 129f 203d 3f5b c53c
00000100: f93c af3c 1d38 b03d 7c70 99bc 3e85 9c3d
00000110: 91ce e5bc edda 05bd c435 c8bc c809 ebbc
00000120: 1b9a ab3c fa04 e93c 14bb 6ebd 6406 c9bb
00000130: 7511 b43c 25d9 59bb 3630 5cb8 ebe6 0dbd
00000140: 3d83 af3c 6d96 c2bc 1dd8 76bc ddbc 9f3b
00000150: 1409 90bc b348 ed3b 8b83 c7bd 4d9d eabc
00000160: 6266 1c3c 476f 15bd 03e9 4e3c 603d 87bb
00000170: 1de1 ad3c 234e 74ba 95fe 50bc fc2b a73c
00000180: c306 693b 7172 54bd 61f2 f43c cab2 c5bd
00000190: f1d5 24bd fe1f 353c 61d8 d43c b57a 7cbd
000001a0: 2e6e 3dbc f505 343d 44e9 903c 13a4 773b
000001b0: aa6f b7bc da64 ffbc d138 1f3d 8e96 8fbc
000001c0: e3fa 9fbd cb2b 3cbb cc88 313c 1910 b93c
000001d0: 6abf eabc dc38 00bd 9cf9 e53c ff2c 953c
000001e0: 8f7e 003d ba80 053d 168f 26bb 41e4 ae3b
000001f0: dac4 c23b 3948 bf3b 0dcf 35bd 5597 edbb
00000200: c719 ffbc 2a39 0fbd 9674 58bb 9812 503d
00000210: 6df8 d7bd 0efb 6b3d 0d9f a33b 8e17 9bbc
00000220: d811 12be c9d4 893b 747c dfbc 0567 143d
00000230: cd31 4d3d 1779 243d da81 863d e60f 873d
00000240: 3ae0 25bc cb0f 853b e85f 083c 4a5e 453c
00000250: 46a8 d23d bdcb 583d c015 a4bd ffa3 1bbd
00000260: a81f 07bd 5e77 593d f296 d3bc 7363 433d
00000270: b688 38bd 5cfe 293c 9b79 6a3c 355d a5bd
00000280: 47e5 3dbd 9eb9 94bc 4697 d53d abb4 5e3d
00000290: 8417 963c 3bc9 b2bc 5dd1 5cbc 722e 3e3d
000002a0: 0af3 1abb b213 53bc adc9 8b3b 961a 0cbd
000002b0: 8dd4 82bd 5362 153d 28e0 5ebd f5d5 a3bc
000002c0: 553e 1d3d 078e 523d 9b2e 5d3d 8505 8d3d
000002d0: 14ad 053d 34b7 f63c be0d 463d c0a6 013a
000002e0: 5256 7bbc 88cc 3d3d 80b6 563c 0099 553c
000002f0: 3f55 2abd 3ee1 1cbd c01e 77bb ea4c 443c
00000300: 7bc2 2cbc 0076 c43b e795 4c3b cf4a f8bc
00000310: ee4a 133d 97fc e8bc 68e6 00bc 679a c3bc
00000320: 2732 563d 4549 a43c 0938 583c 477f b73c
00000330: 0723 82bd d61a 9939 21c1 f7bc 326b cbbb
00000340: 378e a53c 9f4b c83c f4f7 bb3c b68a 293d
00000350: 42e3 683c fbe1 913a 6ef6 bbbb 67b0 313d
00000360: 8e8c 74bb 2a98 493d e70e ba3c b20f 86bd
00000370: 6126 f3bb b3ae 823c 8883 91bc d355 37bd
00000380: 587a aebb ed61 4d3c 9e1a d43c 5526 2b3d
00000390: b66c 2fbd 6c8f e03b 417c 51bd d9dd 283d
000003a0: 8b3a 303c 3745 893c d894 d63c 1bba 043d
000003b0: df1a bc3d 39bb ab3d d67c ee3b 71de 6c3c
000003c0: c33a c13d b498 103c 3fe3 f13c bb2d fabc
000003d0: bec8 533d 27f9 0d3c c977 4e3d fecf 77bc
000003e0: 4e0b 88bb ffb5 e7bd abe1 14bd 71fb 4cbd
000003f0: e53a 083d 1138 e1bb c282 543d 2d07 72bc
-0.022798195 0.029600905 -0.0055128294 0.010212648 0.027611183 0.002624393 -0.046182435 0.0386028
0.008411608 -0.01637729 -0.016848877 0.1320067 -0.019271396 0.029903393 0.03253964 -0.06733671
-0.037788007 -0.03450174 0.033124708 0.00089988625 -0.023288744 0.018322399 0.04981435 -0.020257281
-0.10805374 0.028086273 -0.05688504 0.032410692 -0.006185549 0.009245296 0.007417979 0.014997662
0.012665063 -0.034206666 0.0014826787 -0.03920981 -0.0015696748 0.03877487 0.0045611165 0.0075878366
0.028277434 -0.005379862 -0.017176239 -0.049132604 -0.044317275 0.046499502 0.058300488 -0.027802203
0.056174457 0.05449646 0.036775038 -0.06502351 -0.0405158 -0.11643798 -0.027165426 -0.030911423
0.006281812 0.015701601 -0.04503301 0.0024212857 0.010917712 0.04120479 0.0392142 0.024091361
0.021391379 0.08604453 -0.018730395 0.076426014 -0.0280526 -0.032679487 -0.0244397 -0.028691188
0.020947507 0.028444756 -0.05828388 -0.006134795 0.02198098 -0.0033241 -5.2496987e-05 -0.03464405
0.021424884 -0.02375337 -0.015066174 0.004874809 -0.017582454 0.0072413324 -0.09741887 -0.02863946
0.009545894 -0.036483075 0.0126287965 -0.0041271895 0.021225506 -0.00093195046 -0.01275601 0.020406716
0.0035557009 -0.051866952 0.029900732 -0.09653242 -0.040243093 0.011054991 0.025982084 -0.06164046
-0.011561913 0.043950994 0.017689355 0.0037787005 -0.022392113 -0.03117602 0.038872544 -0.017527845
-0.07811525 -0.0028712626 0.010835838 0.022590684 -0.028655726 -0.031304225 0.028073125 0.018209932
0.031370696 0.032593466 -0.0025414876 0.0053372686 0.0059438767 0.005837467 -0.044386912 -0.007250706
-0.031140221 -0.034966625 -0.0033028475 0.050798982 -0.1054543 0.05761247 0.0049933256 -0.01893213
-0.1426462 0.004206274 -0.027281024 0.03623106 0.05009632 0.040154543 0.06567736 0.06594829
-0.010124261 0.0040607206 0.008323647 0.012046406 0.10286002 0.052928675 -0.08011961 -0.037998196
-0.032989174 0.053092353 -0.025828812 0.047702264 -0.045052253 0.010375585 0.01431122 -0.080744185
-0.046361234 -0.018154915 0.10429244 0.054371517 0.01832176 -0.02182447 -0.0134776505 0.046431012
-0.0023643398 -0.012883114 0.004265985 -0.03420504 -0.06388197 0.036470722 -0.05441299 -0.019999484
0.038389523 0.05140498 0.053999525 0.068858184 0.032635763 0.030116655 0.04835295 0.0004945807
-0.015340405 0.046337634 0.013105035 0.013036966 -0.041585203 -0.038300745 -0.0037707537 0.011981228
-0.010544415 0.005995512 0.0031217278 -0.030309109 0.03596013 -0.028440757 -0.007867433 -0.023877336
0.052293923 0.020054469 0.013196954 0.022399558 -0.06354337 0.00029202428 -0.030243458 -0.006207847
0.020209415 0.024450121 0.022945382 0.04139205 0.014214339 0.001112997 -0.005736164 0.04338112
-0.0037315222 0.04921738 0.022712184 -0.065459624 -0.0074203466 0.015952444 -0.017762914 -0.044759583
-0.005324643 0.012535554 0.025891598 0.041784603 -0.042828284 0.0068530347 -0.05114389 0.041227195
0.010756145 0.016756637 0.026194021 0.032404047 0.09184813 0.08385319 0.007278065 0.014457331
0.09435036 0.00882547 0.029527305 -0.030539384 0.051705115 0.00866536 0.050407205 -0.015125273
-0.0041517382 -0.1131401 -0.036348026 -0.05004448 0.03325929 -0.0068731387 0.051882513 -0.014772219

bias f4 [32]
00000000: 91a9 1cbb 4b7f 923d 0046 e2bc 3498 48bd
00000010: 1856 183d c3f9 52bd 277d 4cbd 4dbd 51bd
00000020: 4309 a93c 3079 abbc 740e 25bd 4d5b 9a3d
00000030: 8d69 ba3c 0803 b93b a4a0 aa3d d674 803d
00000040: 0159 123d 5122 ea39 36fa b5bc a331 13bd
00000050: 3eff 1f3d e472 203d 7a6e 5c3c b986 2cbd
00000060: 2c99 883d 4beb 133c 9fc9 7e3d 5c5a 703d
00000070: 1c9e 183d 4ee0 8a3d fcda c23b 74ff f7bc
-0.002390478 0.071531855 -0.02762127 -0.048973277 0.03719148 -0.051507723 -0.049924042 -0.051205922
0.0206343 -0.02093181 -0.040296987 0.075369455 0.022755409 0.0056461133 0.08331421 0.06272285
0.035729412 0.00044657526 -0.022214036 -0.03593601 0.039061777 0.03917207 0.013454074 -0.04212067
0.0666984 0.009028266 0.062204 0.058679923 0.03726016 0.06781064 0.005946515 -0.030273177

weight f4 [32]
00000000: 0fc5 793f 7ee1 843f eca5 673f 2dd2 763f
00000010: 9b1b 583f 87d5 713f 71ad 743f 53a8 663f
00000020: c4f7 5b3f e518 643f f19d 7f3f df1e 873f
00000030: 9654 733f 0d64 773f 79ea 573f 8733 613f
00000040: 5787 843f 07e4 663f 7f82 623f f09d 613f
00000050: 4054 723f 5162 643f f9f5 843f 07f1 633f
00000060: 9134 743f 96be 633f 6aa6 733f 4152 803f
00000070: 2ddc 803f 737e 713f 521b 553f 0469 753f
0.9756631 1.0381315 0.9048755 0.9641445 0.8441712 0.9446644 0.9557715 0.9010059
0.85924935 0.89100486 0.99850374 1.0556296 0.9505094 0.9663704 0.8434215 0.8796925
1.0353802 0.9019169 0.8848037 0.8813162 0.94659805 0.8921252 1.0387565 0.89039654
0.9539271 0.88962686 0.951758 1.0025102 1.0067192 0.9433357 0.8324481 0.95863366

bias f4 [32]
00000000: 72c3 a23e 0135 a3bd 7e32 083e 075f 093f
00000010: 4a16 1f3f c2fa a33e 228c 983e c490 103f
00000020: 1b56 bf3e 0395 5a3e b2d0 8abb a7fa 973e
00000030: 66c6 013f 24ea 4d3e adbc 143f f7cc f13e
00000040: 08de bc3e 1dce b73e 208b 103f 2135 f33e
00000050: 5060 b33e 9a4b 1d3f 7628 d9bd 695c fa3e
00000060: 3f8c 013f 9154 2b3f 60ba 873e 01d6 a43e
00000070: 7215 c33e 6229 b03e fad0 0d3f 153a ac3e
0.31789738 -0.07969094 0.13300511 0.53660625 0.62143385 0.3202725 0.29794413 0.56470895
0.3737038 0.21345906 -0.004236304 0.2968342 0.50693357 0.20108849 0.58100396 0.47226688
0.36888146 0.3589944 0.5646229 0.47501472 0.35034418 0.61443484 -0.106034204 0.48898628
0.50604624 0.66925913 0.2650938 0.32194522 0.381023 0.34406573 0.55397 0.33638063

running_mean f4 [32]
00000000: 49e9 5c3e 4d66 66be 5020 933e 73a6 99bf
00000010: 30c9 993c 6754 5fbe 7dd2 83be 02e3 0e3f
00000020: d6fa 1abe 35ca 293c f9e1 07bf a666 a7bf
00000030: 3e86 80bf 36bc c43e 280a e5bc 96b1 473f
00000040: 7de3 983d 20ca 343e be9a c6bf 9253 7bbd
00000050: 95ae 01be 8f0b 4f3f a349 753f 14e3 b3be
00000060: 5df7 fabe d1b0 97be 1cdb 8dbf 01fb 77bf
00000070: 3ee8 d83f 5e9d c9bd bf4e 463f f988 0d3d
0.21573366 -0.22499962 0.2873559 -1.2003921 0.018772691 -0.2180954 -0.25746527 0.55815136
-0.15134749 0.010363151 -0.5307918 -1.3078201 -1.0040967 0.38424844 -0.027958944 0.7800535
0.07465265 0.1765523 -1.5515974 -0.061358996 -0.12664254 0.8087701 0.95815486 -0.35134184
-0.49016848 -0.29627088 -1.1082492 -0.96867377 1.6945875 -0.098444685 0.77463907 0.034554455

running_var f4 [32]
00000000: bd77 3f3e c79c a83e b216 e83d d449 ab3e
00000010: 0af6 103e c3ca 063e d871 c43d 797f ef3d
00000020: 412c af3d 72e9 003e fbcc 4f3e 0f0c 523e
00000030: 9172 a83e b79a 273e 1b02 cd3d 652f 1b3e
00000040: 3255 013e a962 4c3e 7d07 d83e b017 ed3d
00000050: f6a7 183e 0293 513e e850 893e a0f0 263e
00000060: 1a1a fc3d 59f6 093e 757e 4b3e b467 843e
00000070: 2c20 db3e 29b5 243e 468d be3d 3ea6 fb3d
0.1869802 0.32932112 0.11332454 0.33454764 0.14156356 0.13163285 0.095920265 0.11694235
0.08553363 0.12589052 0.20293038 0.20512412 0.32899907 0.16367613 0.10010167 0.15154798
0.12630156 0.19959511 0.42193213 0.11576784 0.14907822 0.20466235 0.2681954 0.16302729
0.12309666 0.1347288 0.19872458 0.2586037 0.42797983 0.16084732 0.093042895 0.122875676

weight f4 [32, 32, 3, 3]
00000000: 4b21 a5bd 5258 b4bc 7128 b6bc 39e6 27bc
00000010: 159d e03c 1518 d3b9 4c7e 0cbd 6a2e 90bc
00000020: cfce ebbc 9112 a6bc e7a9 563d 823c 123d
00000030: 3e6e 9bbd 41a3 903c 7591 98bd d11c 63bd
00000040: 8a51 13bd 2006 efbc b754 a5bc 5f93 003d
00000050: b951 913d 2aed 0e3d 11e0 c83c e2e7 47ba
00000060: bec8 3a3d 52f9 513c ba8a de3c d93b 00b9
00000070: 84e9 71bc 066a 5ebd 8d75 34bc 890c 16bd
00000080: 5512 2e3c c545 753c 494b c8bc 08d8 853c
00000090: fa67 09bd a06b 543c 292a 773c 15cf 4ebc
000000a0: 4af5 97bc a369 76bc 1124 8fbd 52cd c3bc
000000b0: 402e a73c 1cf9 41bb 53a3 733d b661 cbbd
000000c0: d94c a0bb a37f 35bd 1cb2 3bbc f7e8 1bbd
000000d0: ce8e e0bb 8eca 4b3d bc2f 5bbd 31f0 13bc
000000e0: 7a72 2abd b969 5a3d 5068 4abc 000f 80bc
000000f0: 6134 8bbc e13c 3e3d bff9 a03c 5b35 bb3b
00000100: a644 cf3b 18a2 1ebd c5aa 6bbc e376 683c
00000110: 3262 acbd 820a 72bd af9b 303d 2b4e 95bd
00000120: 5fe0 64bd 2679 a3bc 5d3a 313d 2a52 773d
00000130: d71d 7b3c fcf2 35bd 7f9a 98bc ebdb a6bc
00000140: 3bd8 943c 10df 89bd c8b4 1e3c f2c2 0e3d
00000150: 46ce af3b abee fa3b c28c 133d f982 9ebd
00000160: ef82 11bd cdd7 7dbd 5f6d 1abc 8184 bb3c
00000170: f753 4a3d 8dd7 863c 788b bdbc 4043 cabc
00000180: 3d49 b3bc c835 413a 2b45 c73c 6810 01be
00000190: 8b90 163c abfe 2abd 0d4c 9abd 0787 033d
000001a0: fa82 9c3c 907b bebc a195 553b fc7a a33c
000001b0: 9a0a d2ba 400f 243c 8fd6 97bd fc8e 213d
000001c0: f619 043c 78e4 4fbd 8eb6 09bd 4763 bbbc
000001d0: 4736 9d3c 7dee e7bb 9d1a 553d 323a 7c3c
000001e0: 9c16 77bd 141b 253d 0f24 0d3d 292c 65bb
000001f0: 1f7e 40bd 3e94 1c3d a686 0bbd c145 573b
00000200: 4ddc 6cbc 1fa1 6bbd 9310 abbc fad9 a33a
00000210: bbf9 243c e9b4 76bc 984a 423d c4bc 283d
00000220: d031 c6bc b531 983d 4919 a3bc 8f8f 20bd
00000230: 93eb a63a b491 fe3b 6516 31bd 4433 243d
00000240: e3a9 da3c 4262 26bd 727b bb3c a91a 833a
00000250: 4e62 2abd 7fe4 bf3a 4eb1 47bb 43a2 20bc
00000260: df73 003d 2941 ec3c 8570 963d 0b92 5c3d
00000270: 9f08 623c 5836 28bc 8771 acbc 2960 44bd
00000280: 986d 0cbd c6ad afbc 90e5 28bc 07db 063d
00000290: a803 ae3c 2ad5 e13c c8e9 8dbc 8bdc 923d
000002a0: 090a 40bd 2cbb 49bc 4050 03bd ba62 05bc
000002b0: 7bd9 1abd 7a9d b83b 5775 e4bc 488e 163d
000002c0: f015 d3bb e6d9 a2bc 9790 70bc 0216 963d
000002d0: c9ec cbbb b82a 1ebc c997 03bd 8cfa 71bb
000002e0: 7088 8d3d 360b acbc 9a76 733d 7e1a 61bd
000002f0: 7585 44bd f268 003d af3e 72bd 56bb 0b3d
00000300: 3d3e 3ebc c129 d4bc e7be 983b dcdb 3a3c
00000310: 8e5b f4bc 78d6 d03d 7a60 003d c664 9cbc
00000320: ffc5 07bc 8bcd 913d 163f bb3c 1247 8ebd
00000330: f841 b4bc abf2 2dbd 35fb 84bd 2afb e83c
00000340: b518 063d 1b08 92bc cccd 173d 1329 763c
00000350: 5e30 ecbb 4663 033c 6ff9 fe3c 75fd c53b
00000360: 8402 dd3c d607 b63c 4c4e deb9 4fba acbd
00000370: 3e52 b8bc 433e 27bd df0e 423c d205 973c
00000380: 9bbc 60bc 9cf5 cbbd af39 11bd 19ea 57bd
00000390: 6d8c 7dbd 1c4f 91bb 41db 03bd 7be4 a0bd
000003a0: 7d20 203d 1736 77ba d282 9abd b667 38bb
000003b0: 01a8 25bc bc74 08bd 34bf 02bd 1231 fc3c
000003c0: bdc9 a9bc aa40 773c 4c4f 54bd dc45 85bb
000003d0: 4bd8 c43c 6a8e 9f3c 8a20 11bc 61ca 9bbd
000003e0: 4042 973c 5b81 373c 88e1 35bd 34fb d8bc
000003f0: 851c ab3d 2817 b6bc d72b f53c b657 b0bd
-0.08062991 -0.02201477 -0.02223608 -0.01024776 0.027418653 -0.00040263 -0.034300134 -0.017600257
-0.028785137 -0.020272525 0.052408125 0.035702236 -0.075893864 0.01765597 -0.07449619 -0.055447403
-0.035966434 -0.029177725 -0.020181997 0.031390544 0.070956655 0.034894146 0.024520906 -0.0007625801
0.0456016 0.01281579 0.02716576 -0.00012229326 -0.014765147 -0.05430033 -0.011014354 -0.03663305
0.010624488 0.014970248 -0.024449961 0.016338363 -0.033546425 0.012965113 0.015085735 -0.012622614
-0.01854958 -0.015039834 -0.06989301 -0.023901615 0.020407796 -0.0029597944 0.05948193 -0.09930746
-0.0048919735 -0.044311177 -0.011456039 -0.03806397 -0.006852961 0.049753718 -0.05351232 -0.009029434
-0.04161308 0.05332348 -0.012353972 -0.015632153 -0.01699275 0.046444777 0.019650338 0.0057131476
0.006325322 -0.038728803 -0.014383976 0.014188501 -0.08417167 -0.059092052 0.04311722 -0.072903
-0.05587804 -0.019955229 0.04326855 0.060381092 0.015326939 -0.04442118 -0.018628357 -0.020368537
0.018169513 -0.06731999 0.009686656 0.034853883 0.005365166 0.007657846 0.03602291 -0.07739825
-0.03552526 -0.06197338 -0.00942549 0.022890331 0.04939648 0.016460204 -0.023137793 -0.02469027
-0.021885509 0.000737038 0.024324974 -0.12603915 0.009189735 -0.041746777 -0.07534037 0.032111194
0.019105423 -0.023252279 0.0032590406 0.019956104 -0.0016024888 0.0100134015 -0.07413971 0.039443
0.00806283 -0.050754994 -0.033621363 -0.022874488 0.01919092 -0.0070779906 0.052027334 0.015394734
-0.060324296 0.040309027 0.034458216 -0.0034968948 -0.04699528 0.038227312 -0.034063958 0.0032847973
-0.014456821 -0.057526704 -0.020881927 0.0012500875 0.010069306 -0.015057781 0.04743442 0.041195646
-0.024193674 0.07431356 -0.019909518 -0.03919941 0.0012735002 0.007768834 -0.043234248 0.040087953
0.026692336 -0.04062105 0.022886012 0.0010002452 -0.041597657 0.0014640241 -0.0030470672 -0.009804311
0.031360503 0.028839665 0.0734568 0.053850215 0.013796001 -0.010266863 -0.021050228 -0.047943268
-0.034284204 -0.021445166 -0.010308638 0.032923725 0.021241978 0.027567465 -0.01732339 0.071709715
-0.04688457 -0.012312692 -0.032058954 -0.008141214 -0.03780506 0.005634007 -0.027887983 0.036756784
-0.006441824 -0.019879293 -0.01468291 0.073284164 -0.0062232953 -0.00965374 -0.032127175 -0.003692302
0.06910789 -0.02100144 0.05943928 -0.054956906 -0.047978837 0.031350084 -0.05914181 0.034114204
-0.011611518 -0.025898816 0.004661429 0.011404958 -0.029828813 0.10197157 0.031342007 -0.019091021
-0.008286952 0.07119282 0.02285723 -0.06947149 -0.022004113 -0.042467754 -0.064932264 0.028440077
0.032738406 -0.01782613 0.037061498 0.015024441 -0.0072079143 0.008019274 0.031124799 0.0060421773
0.026978739 0.022220533 -0.00042401475 -0.08433973 -0.022500154 -0.04083086 0.011844366 0.018435393
-0.013716842 -0.09958956 -0.035455402 -0.052713487 -0.0619015 -0.0044344794 -0.03219152 -0.07856079
0.039093483 -0.0009430362 -0.07544483 -0.0028137988 -0.010110856 -0.03331445 -0.031920627 0.030785117
-0.02072608 0.015091101 -0.051833436 -0.004067166 0.024028918 0.019477088 -0.008857856 -0.0760696
0.018464208 0.011200274 -0.044404536 -0.02648697 0.08355049 -0.022227839 0.029928131 -0.086104795

bias f4 [32]
00000000: 2e49 15bd beb8 50bd bfdc 3a3d 2054 c13c
00000010: 3f23 0bbc f1a7 92bc 50ea 42bd 1f85 333d
00000020: 6c53 d43c 3ae0 8b3d a8f5 cdbc f5ae 05bd
00000030: 3cd3 8d3d 3c65 29bd bd73 92bc 7af0 663d
00000040: f7b6 fd3c dfcf 723d d424 c1bc e8dc d53b
00000050: 7741 6e3c b15f 993c 6aaf 143d 87f7 6bbc
00000060: c7b3 f3bb ef35 aebc 4daf 10bb 54b2 243b
00000070: 530d 4e3d 2e86 543d cf34 0bbc ed23 8cbc
-0.036446743 -0.050957434 0.045620676 0.023599684 -0.00849229 -0.017902346 -0.04758674 0.043828126
0.025918685 0.06829877 -0.025141552 -0.032637555 0.069250554 -0.04135631 -0.017877454 0.05638168
0.030971033 0.059280273 -0.023577131 0.006526578 0.014541975 0.018722387 0.0363001 -0.014402277
-0.0074372026 -0.021265952 -0.0022077144 0.0025130706 0.050305676 0.051885776 -0.008496477 -0.017106974

weight f4 [32]
00000000: f6af 7c3f 54b3 803f 9097 783f 6a5e 6d3f
00000010: 936a 733f c778 6e3f 130b 693f f23f 6a3f
00000020: f0c1 7d3f 5eff 753f aece 823f 2ab2 763f
00000030: d3ce 833f 90b0 763f 2523 683f be3d 843f
00000040: 58ba 833f 4966 803f 323d 7f3f 5902 6d3f
00000050: dbfd 693f 0baf 7e3f 0014 683f 83be 693f
00000060: ef7d 823f 904c 893f 67f4 7c3f 77cb 663f
00000070: c2ee 713f 4670 5f3f dcc8 5e3f 3ba9 7d3f
0.98705995 1.0054727 0.97106266 0.9272219 0.95084494 0.9315304 0.9103252 0.9150382
0.9912405 0.96092784 1.0219324 0.96365607 1.0297493 0.96363163 0.90678626 1.0331342
1.0291243 1.0031215 0.9970275 0.9258171 0.9140298 0.99485844 0.9065552 0.9130632
1.0194682 1.072649 0.9881043 0.9015421 0.9450494 0.8728069 0.8702524 0.9908635

bias f4 [32]
00000000: 222d 613e ae87 2c3e 6654 24be 110f e63e
00000010: 17b2 153e baa2 b43e 9d2a fa3e 216f be3e
00000020: bceb ca3e 2732 313f b2d9 ec3d ef80 f13e
00000030: 6bbe 323e 3fb6 5e3d 405c 053f 079c b93d
00000040: bd9a 793e 7bb6 843e 1394 c73e 5b75 983e
00000050: 5602 adbc 4c75 883e 1ff1 aa3e fe04 1e3f
00000060: 4f73 aa3e bfa2 083e 7099 eb3e 1d65 283f
00000070: 1da1 f33e e651 f53e d445 4b3f 8a46 7b3e
0.21989873 0.16848633 -0.1604782 0.4493337 0.14618717 0.352804 0.48860636 0.3719416
0.39632976 0.6921715 0.115649596 0.4716868 0.17455451 0.054373022 0.5209389 0.09062963
0.24375434 0.25920472 0.3898016 0.29777035 -0.021119278 0.2665199 0.33387086 0.6172637
0.33291098 0.13343333 0.460155 0.65779287 0.47583857 0.47914046 0.79403424 0.24538627

running_mean f4 [32]
00000000: dd3e 74bf 961e a3bf 6d1f 9cbe 8126 9b3d
00000010: c6f5 973e 211d bbbe b69b eabe 7071 f83d
00000020: 43ae a43e d692 60bf 6df2 98be c703 e4be
00000030: dfb1 5fbf 4268 5bbf 97b2 b0bf 054d 2a3e
00000040: c0fa e9bd 528c 763e 784e 4ebf a6f8 97be
00000050: 78d2 7ebe 602e f2be 1d4d ba3d 427b cbbd
00000060: 65a0 a5bf 8734 f63e f484 dfbc 763e 70be
00000070: 1619 d33e 22bd 2abf d7d1 af3d c627 203e
-0.9540842 -1.2743709 -0.30492726 0.075757034 0.29679698 -0.3654566 -0.45821923 0.121310115
0.321642 -0.87724054 -0.29872456 -0.44534132 -0.87380785 -0.8570596 -1.3804501 0.16630943
-0.1142478 0.24076965 -0.80588484 -0.2968189 -0.24884975 -0.47301006 0.090967394 -0.09935619
-1.2939574 0.4808695 -0.027285077 -0.23461327 0.41230077 -0.66694844 0.08584946 0.15640172

running_var f4 [32]
00000000: caa3 293e b3d6 963e e729 143e d207 323e
00000010: e546 6e3e 0ebc 493e 7939 703e 02f2 3b3e
00000020: 853d a93e 896f bb3d 4707 6b3e 84d0 9d3e
00000030: 8839 303e fca6 293e f9d7 af3e f78a 163e
00000040: c647 3b3e 8d8d 533e 138b 353e 40b4 453e
00000050: 99ed 073e 9401 523e 3637 e33d a827 f73d
00000060: 7d47 cf3e 3c27 753e a3b6 173f b122 1e3f
00000070: e19d 513e 9e16 1b3e f28e 243e 5324 3b3e
0.16566387 0.29460678 0.1446911 0.17385796 0.23269232 0.19700643 0.23459424 0.18354037
0.33054748 0.09152133 0.22951995 0.30823147 0.17209446 0.16567606 0.34344462 0.14701448
0.18289098 0.20659466 0.17728834 0.19307041 0.1327423 0.20508415 0.11094515 0.12068111
0.4048423 0.23940748 0.59263057 0.61771685 0.20470382 0.15145347 0.16070154 0.18275575

weight f4 [32, 32, 3, 3]
00000000: fa41 0f3e 3a86 4c3d 7945 313d 941b 0c3d
00000010: 3e3e b23d 455b 9b3d f5f4 743c 8472 d7bc
00000020: 6052 3f3d c602 823b 0079 eb3a eea6 20bd
00000030: 9c8f 19bd e027 d2bc 94f5 2fbd 6fb5 b53c
00000040: b2a3 703d 562b a23c 13af 663d fb36 1a3d
00000050: 6f11 7f3d 1db3 173d a4d6 1cbc 5459 bcbc
00000060: fd89 eb3c 83f9 703d 24f4 f43b dc55 c9bc
00000070: 411b 063d e3a7 d3bc e697 26bd 768f 4a3b
00000080: 3406 363d 707e 80bd a940 d93c 1b00 d63c
00000090: 017a 3fbd 6c0e 15bc 3df3 95bc 7234 ad3c
000000a0: 6f51 85bc fc88 19bc cb29 00bd 4610 1bbb
000000b0: 05dd 17bd 6359 7b3b 5be7 67bd df00 18bd
000000c0: 9d10 4d3d 0302 01bd 3d4e 8dbb 7878 b33c
000000d0: 26cf d5bc 15ab 8abd 337f 373d 9fb8 783d
000000e0: d9cd 243d e548 1a3d d8d6 ae3d e7c3 1b3d
000000f0: ed15 3b3d 111b c73a 4a71 7a3c 38a3 d4bc
00000100: 23e5 6a3d 7e5f cc3d 8eeb b33b 24dd a03c
00000110: 1c04 ff3d 0bb6 84bd 5777 2d3c c109 3abc
00000120: 1358 eabd 9039 99bc 6ce3 40bd 315b 01bd
00000130: 1e5f 09bd 1b63 7dbd a44a 7cb9 b5b9 7abc
00000140: 6587 61bd 4a46 a53c 97ae a3bc 6b06 4cbd
00000150: aca9 1f3d e016 d13b f2ab bf3c 4c6a 1c3d
00000160: 45dc 933d 9acc 893d 1a59 b6bd 6b1a 50bd
00000170: 00b7 be3b 690f b33c 3677 03bd abeb 0dbd
00000180: 73cb f33c 3f31 423d 0d03 163d a22a 173d
00000190: 74c3 38ba 5913 953c df16 663d bc6d 873c
000001a0: be1f 2f3d 0818 763d 4fb7 063d a923 413d
000001b0: 338e 7d3d a308 6b3b a863 c63c 46aa 16bd
000001c0: ed1e 0dbd 7746 15bd 70c3 4cbd 784e 5cbd
000001d0: f43f 12bd fee1 7f3d cf30 c23b 6c58 d1bb
000001e0: dc9c 7d3c 89f8 733d 364c 643c 8d16 e9bb
000001f0: 0db4 75bc e77f 65bd f224 9b3c 2e81 65bd
00000200: af60 ba3b 6e70 d73c af08 3abd aae5 14bd
00000210: 7e7f e73c 8507 3bbd 7b5e 94bd f291 65ba
00000220: 435d 64bd a569 a53c 986e ef3c e2eb 2d3c
00000230: 753b b23d ff86 f53b 6ab9 4abd e6a2 da3d
00000240: 793d 98bc 7a81 8ebd 71c3 c2bc 299d ecbc
00000250: f7c1 79bd b756 91bd 6e52 953d 77f8 873c
00000260: 2c5a 1b3d 0740 b03c 9eb3 5e3b 9ddf 29bd
00000270: 3ff0 f73b 0b6f 533c 063e 763c da6c 40bb
00000280: a56d 77bd 2331 4c3d d4d1 0bbd 5035 a8bc
00000290: fdb5 09bd bc04 33bd 864a debc abd6 1f3c
000002a0: 3bd8 3dbd 46ab 9bbc fbdb 55bd 7e26 d4bd
000002b0: a292 9b3c 68a1 2cbd 858c 7f3c 3901 ac3a
000002c0: affa 83bd 6841 5a3d 8cba 5f3d 9451 803d
000002d0: 4986 b13b 3de5 b8bc 8c99 56bd 390c cdbc
000002e0: 7d53 73bd 6a68 71bd a227 e2bc 0b15 98bd
000002f0: d598 bbbd c5c3 03bd 630b 88bd 7f59 ffbc
00000300: daab 123d 1668 173d fe9f 5a3c ddae e6bc
00000310: cef4 d3ba 65f3 f63c 953b 903c 606c b13d
00000320: f982 343d 6494 97bd 6d27 5a3b 5f96 533d
00000330: cfd5 a0bc 3053 90bc be32 b93c 2e93 05bd
00000340: 5587 723c 748d 37bc 7cb3 8bbd ef49 423d
00000350: 884b 61ba f9b1 60bd aa22 82bc fe63 a33c
00000360: 72c3 7ebc 596e 8bbd b0f3 51bd 451f b4bb
00000370: 96d6 fbbc 9fe9 433c 720b 6b3c e2f0 6ebd
00000380: 28c7 a83c fd67 66bc 31d2 cbbd e5a5 5ebd
00000390: 570c 64bd 4e3b aabd fb0e 543c a213 1f3d
000003a0: 06e0 28bd 6559 723c 63a0 753d 52cf 763d
000003b0: 96d5 5cbc 983b 263d c9fc de3c 64bf 1c3d
000003c0: dc9e 123d 37d4 163d 9e90 0f3d 3e4f 08bc
000003d0: 1002 263d cb9d 033d 18f1 91bc 9924 503d
000003e0: 5868 af3d 1b99 2abd 171f f33c 3b72 0b3d
000003f0: d969 edbc fb54 7c3c 2f25 a53d 900e bdbb
0.13990012 0.049932696 0.043279145 0.034205988 0.08703278 0.07585768 0.01495098 -0.026299722
0.04670942 0.003967616 0.0017965138 -0.039221697 -0.037490472 -0.02565378 -0.04295881 0.02218124
0.058749862 0.019796055 0.056319308 0.03765009 0.062272485 0.03703605 -0.009572659 -0.022991814
0.028752321 0.058831703 0.007475393 -0.024577074 0.032740835 -0.02583689 -0.040672205 0.0030908263
0.04443951 -0.06274116 0.02652009 0.026123097 -0.04674721 -0.009097677 -0.018304462 0.021143172
-0.016274182 -0.0093710385 -0.031289857 -0.0023660823 -0.037076015 0.003835284 -0.056617122 -0.037110206
0.05006467 -0.03149606 -0.0043123052 0.02190803 -0.026099753 -0.067709126 0.04479904 0.060722943
0.040235374 0.037667174 0.08537072 0.038028624 0.045675207 0.0015190562 0.015285799 -0.025956735
0.057347428 0.09979151 0.005490727 0.019636698 0.12451956 -0.064800344 0.010587535 -0.011354865
-0.1144258 -0.018704206 -0.047091886 -0.031581108 -0.033537976 -0.061862092 -0.00024060399 -0.015303065
-0.055060763 0.020175118 -0.019980712 -0.04981081 0.03898017 0.0063809007 0.02339742 0.03818731
0.072197475 0.06728478 -0.089037135 -0.050806444 0.005820155 0.021857934 -0.03209611 -0.03464858
0.029760098 0.047410246 0.036624003 0.036905892 -0.0007048168 0.018197702 0.056174155 0.016531818
0.04275488 0.06008151 0.03288966 0.04715315 0.06190319 0.0035863302 0.024217442 -0.03678348
-0.03445332 -0.036444154 -0.04999107 -0.05378577 -0.03570552 0.062471382 0.0059262286 -0.0063887145
0.015479293 0.059563193 0.013934186 -0.007113284 -0.014996541 -0.05603018 0.018938515 -0.0560314
0.005687795 0.026298728 -0.045418438 -0.036351837 0.028259035 -0.045661468 -0.07244583 -0.0008757404
-0.055753004 0.020191977 0.02922754 0.010615321 0.08702747 0.0074928994 -0.04949323 0.10675602
-0.018584 -0.069582894 -0.023774834 -0.028883534 -0.060975995 -0.07096618 0.07291113 0.01659797
0.03792779 0.021514906 0.0033981572 -0.04147302 0.0075664814 0.012904893 0.015029436 -0.0029361756
-0.0604073 0.049851548 -0.034135655 -0.020533234 -0.033620823 -0.043705687 -0.027135145 0.009755771
-0.04634879 -0.019002568 -0.052211743 -0.10358904 0.018990818 -0.042146116 0.015597467 0.0013122923
-0.064442985 0.053285033 0.054621264 0.0626556 0.0054176194 -0.022570247 -0.052392527 -0.025030242
-0.059405793 -0.058937468 -0.027606789 -0.07425889 -0.0916001 -0.032169122 -0.06642797 -0.031170605
0.03580842 0.0369645 0.013343809 -0.028159553 -0.001617098 0.030145356 0.017606536 0.08663249
0.044070218 -0.0740135 0.003328766 0.051657077 -0.019633202 -0.017617792 0.022607204 -0.032611065
0.0148027735 -0.011203159 -0.06821343 0.04743379 -0.0008594324 -0.054857228 -0.01588567 0.01994514
-0.0155495275 -0.068081565 -0.05125779 -0.0054968917 -0.030741971 0.011957555 0.0143459905 -0.058335193
0.020602778 -0.014062879 -0.099522 -0.054357428 -0.05567583 -0.08312093 0.012943025 0.038837083
-0.04122927 0.014791821 0.05996741 0.06025631 -0.013478657 0.040584177 0.027220147 0.03826846
0.03579603 0.036823478 0.035050027 -0.008319674 0.04052931 0.032132905 -0.017815158 0.050816152
0.08564824 -0.04164992 0.02967791 0.034044486 -0.028981136 0.01540112 0.08063733 -0.0057695583

bias f4 [32]
00000000: 3d24 28bc 89d7 5c3d a716 103d f5f4 843d
00000010: 0f53 22bd edea 0b3d bd8f cf3c b31e 663d
00000020: 7c89 893d dbdb d4bb 9028 573d 5840 f23b
00000030: d637 853d 030e 7f3d 27c8 ff3c 0b4a a63b
00000040: dfe4 573d 5520 1f3c 712d 11be 6151 9a3c
00000050: c8ec 3cbd 90f9 583d 777e e73c 68eb 033d
00000060: 24b4 413d f852 a03d ba3f 40bc 4793 3c3c
00000070: c04d 813d e258 983d b966 42bd 1c0b d2bc
-0.010262546 0.053916488 0.035177853 0.06492034 -0.039629992 0.03415959 0.025337094 0.05618162
0.06715676 -0.0064959354 0.052528918 0.0073929243 0.065047905 0.062269222 0.03122337 0.0050747446
0.052708503 0.009712298 -0.14177491 0.018837633 -0.04612425 0.052972376 0.028258545 0.032206923
0.047290936 0.07828325 -0.011733944 0.011509723 0.06313658 0.07438828 -0.047461245 -0.025640063

weight f4 [32]
00000000: 2596 8f3f 1c84 693f 0733 833f 0d57 a33f
00000010: 583f 773f 8b68 973f 9ddd 8b3f a566 4a3f
00000020: 5b8e 8e3f c2b7 7a3f 3f31 803f cf30 4e3f
00000030: fa63 0540 b212 ac3f bdca 843f e408 0540
00000040: 5dee 843f 833f 623f 8161 3140 046a 843f
00000050: 7782 1f40 10a4 b13f 7e19 af3f d1c5 803f
00000060: 03eb 853f bcf5 ac3f ae7d 893f 0ab3 833f
00000070: 0d13 883f c946 643f 9ae4 823f 4275 863f
1.1217695 0.9121721 1.0249947 1.2760941 0.9658103 1.1828779 1.0927006 0.79062873
1.1137193 0.9793664 1.0015029 0.80543226 2.084227 1.3443205 1.0374371 2.0786676
1.0385243 0.8837816 2.7715762 1.0344853 2.492338 1.3878193 1.3679655 1.0060369
1.0462345 1.3512492 1.0741479 1.0289013 1.0630814 0.8917051 1.0226014 1.0504534

bias f4 [32]
00000000: 6ade 883e 9180 12bf 6e48 ebba a9fe 3f3e
00000010: 0b42 2dbf 5c3d 9d3e 7635 783e 1cf3 5d3f
00000020: 1d6b 993e 69a8 2c3f ff58 b83e 1252 393f
00000030: b56e 1a3f 71fa 7bbe 6877 b2be 3374 52be
00000040: 0287 f03e cf3a 133f f63f 10be 3682 ccbe
00000050: fc3f 603f 13b7 3d3e da59 30be f45c 803d
00000060: 5453 4c3e a7e2 453f e675 81be f2c6 cabd
00000070: 5ebf a63e 6290 153f 4c8b 83be 0ce9 863e
0.26732188 -0.57227427 -0.0017950663 0.18749489 -0.676789 0.30710876 0.24239144 0.8669908
0.29964533 0.67444474 0.360054 0.72390854 0.60325176 -0.24607255 -0.34856725 -0.20552139
0.46978003 0.5751161 -0.14086899 -0.39943093 0.8759763 0.18526869 -0.17221776 0.062677294
0.19953662 0.7729897 -0.25285262 -0.09901227 0.32567877 0.58423436 -0.25692213 0.26349676

running_mean f4 [32]
00000000: 98ae b43e a058 263e 2807 81be 329a 143f
00000010: 221d 043f 7a9e f0be b35e dd3e 2266 6a3e
00000020: a360 33bc 75c7 f7bc 3b76 8f3e 6d35 7d3e
00000030: b1d1 21bf 5b69 37be f6e7 fcbe c413 8cbc
00000040: 02f1 b2be 8f4c ec3d 5aa0 803e 21ae 5ebd
00000050: cf63 d83d 2c76 a4be 3089 863f 69cd 813e
00000060: 8f2a 2b3f 595b 473c 9143 3fbe 00ad 423e
00000070: 4525 183f 3d80 363e 5220 613f 150b 67bf
0.35289454 0.16244745 -0.25200772 0.58047783 0.51606953 -0.46995908 0.43236312 0.22890523
-0.010948333 -0.030246476 0.2801989 0.24727412 -0.6321059 -0.17911284 -0.49395722 -0.017099269
-0.349495 0.1153804 0.2512234 -0.05436528 0.10565912 -0.32121408 1.0510616 0.25352028
0.66861814 0.012167775 -0.18678118 0.19011307 0.5943187 0.17822357 0.8793994 -0.90251285

running_var f4 [32]
00000000: fb5d 0b3e b091 f83d f39e 643d 15ae 0d3e
00000010: 13a5 8c3e 92a0 543e 68f6 ee3d 6103 033e
00000020: 8752 1e3e 9136 143e 507f 0d3e 1194 1b3e
00000030: dbdf 6a3d 3329 8f3e 1a7c 913d 946d a13d
00000040: a5a0 763e 6149 063e 2b37 b13d c497 c83d
00000050: 98c9 9d3d 8e2f 143e 6051 b53d ab55 a33d
00000060: 1e37 e83d f18c 143e 2d11 693e 577d ba3d
00000070: 58a7 dc3d c92c 0e3e c66a c13d 0b9b b83d
0.1361007 0.12137163 0.05581565 0.13835938 0.27469692 0.20764378 0.11668092 0.12794258
0.15461169 0.1447394 0.13818097 0.15193202 0.05734239 0.2796112 0.071037486 0.078822285
0.24084719 0.1311393 0.086531006 0.09794572 0.077044666 0.14471266 0.08853412 0.07975324
0.11338638 0.1450689 0.22760458 0.09105938 0.10774106 0.13884272 0.094441935 0.09013947

weight f4 [1, 32, 3, 3]
00000000: 6c90 c4bd 9ddb c5bd 5364 af3d 5253 a9bd
00000010: 6f1a b4bd 7471 dc3d 3cd0 f7bd 2327 a1bd
00000020: 0d39 9e3d 2dde e03b db2d b03c fc8d 8a3c
00000030: a014 93bb 11f2 c8bc 3660 843d f3bf 63bc
00000040: d55b 383d 80d8 2b3d 9019 18bc a7e7 8cbc
00000050: 0e3d 23bc b518 e03b c4f2 15bc 1757 b9bc
00000060: e291 b6bb 24f2 47bd 21bb 1ebd 8fee f5bd
00000070: 5301 9bbd 6c7f 203e c846 16be 4c1d e6bd
00000080: 1b92 2c3e e761 1fbe fe5d 0dbe 6369 333e
00000090: 379d 643d d815 0a3e 817c ac3d 7e91 a73c
000000a0: 2c25 233d 7155 143d 8766 8e3c 54e9 883d
000000b0: bf2f 073d 98f7 013e 6438 cc3d db65 babd
000000c0: 2c14 a73d 7c1f bd3d 1ad1 b1bd 74dc 283c
000000d0: f518 3abd 85eb 26be 4d58 00be 73be 2dbd
000000e0: 313c 223d dd41 5ebd 3e07 aabd 0dd0 c33d
000000f0: 10c5 b8bd e7cd bdbd d31a 773d 9293 603d
00000100: 800f bb3c 004e 9d3c f186 243d b2d6 bd3c
00000110: b056 2a3d ef99 d53b aa58 d63c 04bf 34bd
00000120: e37a ed3d d9db 313d 5a42 87bd 700f ad3d
00000130: cc57 7a3d 1b70 58bd 350f ce3d 6138 dd3c
00000140: 6266 6abd 5e26 ee3d c615 6a3d 2c69 05bd
00000150: 2a43 b33d dbcc 583d 0957 61bd 1406 e83d
00000160: 2980 fb3c 8454 bbbd 8f58 e43a e30e 943d
00000170: 6ab6 983d d7bb 923c 62bd aebb 7c1b 5b3d
00000180: 3919 a5bc d23b a13a 2337 033d f2c8 373b
00000190: ab03 62b7 a249 763c 9d6c a93d 5c9b 193d
000001a0: 3919 763d 84f4 a83c 074f e53b baa0 123d
000001b0: d720 ffbd 7d51 823e 9b16 403e 7f97 83bd
000001c0: d0c7 a63e b86c 843e c435 d1be a5e4 45be
000001d0: f7d0 65be b51b 5b3e c54a 99bc 6aff cfbb
000001e0: f079 2f3e 4b05 51bd df8b b0bd cf55 3a3e
000001f0: 1f73 19bd 86f9 acbd 06cb 5bbd 89ba 3ebd
00000200: 4b92 4bbd d63e 07bd 5975 3d3c 4ee8 6ebd
00000210: b562 20bd ee6a 91bc a736 27bc 8653 d5be
00000220: 3e20 f9bc 15bc c5bc fb01 91be e445 993e
00000230: 3f48 643e 7fe8 82be ce5a 893e 2c63 853e
00000240: 29f6 be3d 04bc 153c c035 12bc ed20 eb3d
00000250: 2681 6dbc ef82 fe3b b26d cf3d 4a2d b03c
00000260: c715 5a3d 625a f2bc 2707 f7bb 1952 0dbd
00000270: 1e26 65bc 7ee9 0eba e1bd 3f3c cd58 2dbd
00000280: 77b2 c53b d214 fabc 77b6 823e 1dd8 9f3e
00000290: 68ec babe 204f 943e 27b7 be3e fce0 98be
000002a0: 0a81 86bc 61bf 883d f219 10bf 4d79 b9bd
000002b0: ffa7 fdbc d646 62bd 94a8 c2bd a2eb 4ebd
000002c0: 8492 98bd fe2e b43c c578 293d 2d70 213d
000002d0: fe5f 723e 0b12 823e 7aa0 a7be 9dff c53e
000002e0: a593 cd3e 11b1 61be 7396 dbbd ab60 66bd
000002f0: 58c4 0ebf 2aae 553e 0713 233e 8940 e6bc
00000300: a55d 583d 959b cb3c 2179 cebd 5135 50bd
00000310: 2f3c 0abe f334 7cbe 1df0 e3bd a954 08be
00000320: 1c82 253e b2fe d1bd c878 c5bd deda 433e
00000330: ad88 99bd 178d 7cbc 3b7b 693e 0b93 b23c
00000340: a1ea fdbc 9ac8 803a 2fc4 c5bc 7396 18bd
00000350: 294c a0bc 3292 5b3c d412 95bc b336 8b3b
00000360: 8c83 abbd a544 cbbd e121 353c 98bd b4bd
00000370: 3746 8fbd a338 ec3c 5dff c9bd c8d5 90bc
00000380: c265 583d f10e a9bd f3e6 3d3e 2465 623e
00000390: a45c 05be d550 113e 7848 453e 0f07 8dbe
000003a0: 7a80 4bbd d762 ad3c 66f3 f53d c6c2 ac3d
000003b0: 9e7f be3d 75ff 17bc 2d0f 0dbd 4f2c 23bd
000003c0: 0582 d839 9abd eebc 99a1 b7bb ec32 32bc
000003d0: 7c12 bdbb 922e 65bd 22ec 56bc 6434 0cbd
000003e0: d1fa 57bd dd4f dc3c c84e a7b9 a0cd 6fbd
000003f0: b9c4 1b3c a984 28bd 29a4 3e3c e55e 74bd
-0.09597859 -0.096610285 0.08564057 -0.08267845 -0.08794104 0.10763827 -0.121002644 -0.07868793
0.07725725 0.006862423 0.02150624 0.016913407 -0.0044885427 -0.024529489 0.06463663 -0.013900745
0.045009453 0.041954517 -0.009283438 -0.017200304 -0.009963287 0.006838883 -0.009152118 -0.022624535
-0.00557159 -0.048814908 -0.03875268 -0.12008392 -0.07568612 0.15673608 -0.14675438 -0.11236057
0.1685261 -0.1556469 -0.13805386 0.1752067 0.055813994 0.13484895 0.08422185 0.020455118
0.03983037 0.036214296 0.017382873 0.06685129 0.03300452 0.12692106 0.09971693 -0.09101459
0.08158144 0.09234521 -0.08682461 0.010306466 -0.045433957 -0.16300781 -0.12533684 -0.042417955
0.039608184 -0.05426203 -0.083021626 0.09561167 -0.09021962 -0.092677884 0.060328316 0.054828234
0.02283454 0.019202232 0.040167753 0.023173664 0.041586578 0.0065185945 0.026165325 -0.04412748
0.115957044 0.043422554 -0.066044524 0.0845021 0.061118886 -0.052841287 0.10061494 0.027004423
-0.057226546 0.11628412 0.05714967 -0.032571003 0.08753045 0.05292974 -0.055014644 0.11329284
0.03070076 -0.091469795 0.0017421412 0.07229402 0.07456668 0.017911835 -0.005332635 0.053493008
-0.020153629 0.0012301153 0.032035004 0.0028043357 -1.3471504e-05 0.015032204 0.082726695 0.037501678
0.060082648 0.020624407 0.006997946 0.035797812 -0.124574356 0.25452796 0.18758623 -0.0642538
0.3257432 0.25864196 -0.40861332 -0.19325502 -0.22442995 0.21397288 -0.01871241 -0.0063475864
0.17136359 -0.05103044 -0.08620428 0.18196796 -0.037463304 -0.0844603 -0.053660415 -0.046564613
-0.049700063 -0.03301891 0.011563622 -0.05832701 -0.039156634 -0.017751183 -0.010205901 -0.41665286
-0.030410882 -0.024137536 -0.28321823 0.29936135 0.22293185 -0.25568005 0.2682709 0.26052225
0.09324295 0.009139065 -0.008923948 0.114808895 -0.014496123 0.0077670733 0.101283446 0.02150597
0.053243425 -0.029584114 -0.0075386944 -0.034502123 -0.013986139 -0.0005451663 0.0117029855 -0.042321015
0.0060332376 -0.030527506 0.25529835 0.3121957 -0.3650849 0.28966618 0.3724911 -0.2985915
-0.016418952 0.06677128 -0.5628959 -0.090563394 -0.030963896 -0.055243336 -0.0950481 -0.050517686
-0.07449821 0.021995064 0.04137494 0.03941362 0.2366943 0.2540439 -0.3273962 0.3867158
0.40151706 -0.22040202 -0.10722055 -0.056244534 -0.55768347 0.2086722 0.15925227 -0.028106945
0.05282368 0.02485446 -0.10081697 -0.050832096 -0.1349952 -0.24629574 -0.11129782 -0.13313545
0.16162914 -0.102536574 -0.09642178 0.1912646 -0.07496772 -0.015414498 0.22800915 0.021798631
-0.030995669 0.0009825409 -0.0241414 -0.037252855 -0.019567566 0.013401555 -0.018197455 0.004248464
-0.083747 -0.09925202 0.011055441 -0.08825225 -0.06995814 0.0288356 -0.0986316 -0.017680064
0.05283142 -0.08254803 0.18545131 0.22108895 -0.13023621 0.14190991 0.19265926 -0.27544448
-0.04968307 0.021165295 0.12009315 0.084355876 0.09301685 -0.009277214 -0.0344383 -0.039837178
0.00041295603 -0.029143143 -0.0056039807 -0.0108763985 -0.005770026 -0.055952616 -0.013117822 -0.03422965
-0.05272943 0.02689355 -0.0003191142 -0.05854571 0.009507352 -0.04114214 0.0116358185 -0.05966081
