TuiGAN/models/horse2zebra/b3.pth (torch, 131453 bytes, 25 tensors)

weight f4 [32, 3, 3, 3]
000000 b6 8d 2f 3d 8b b5 00 bd b7 08 55 bd 5c bd 1b 3d
       0.042859755 -0.031423133 -0.052010264 0.038022384
000010 11 91 80 3d f1 3c 5c bd 7a 3a fa bc ff 42 27 3d
       0.06277669 -0.053769056 -0.030545462 0.040835377
000020 7e 60 31 3b 7c 97 5c 3c ea 7e 45 bd b1 82 d1 bc
       0.002706557 0.013463851 -0.048216738 -0.025575014
000030 e2 68 f3 3c 17 14 9c 3d f1 46 b0 bc 20 ea 0a bd
       0.029713098 0.07621019 -0.021518202 -0.033914685
000040 55 33 63 3d d6 3a 1d 3d 3c 48 a1 3c e4 15 47 bd
       0.055468876 0.03838619 0.019687764 -0.04860486
000050 0b 29 2c bd 68 2b f7 3c 91 22 9d 3d 3a 59 8a bc
       -0.04203133 0.030172065 0.07672609 -0.01688825
000060 dc 56 29 bd 36 d2 26 3d b6 b3 8b 3c ed b3 17 3d
       -0.0413426 0.040727817 0.017053466 0.037036825
000070 b8 5f 0f 3d 33 08 a3 b8 a3 8e 88 bc 65 4c 26 bc
       0.035003394 -7.773973e-05 -0.016669577 -0.01015005
000080 d8 eb f1 3c 12 13 06 3c 42 61 7f 3c c7 1b 1e 3d
       0.029531404 0.008183258 0.015587153 0.03860071
000090 15 8a c7 3d b4 8f 7d 3d f0 a5 1c 3d 50 65 bb bc
       0.09743134 0.061904624 0.038244188 -0.022875458
0000a0 eb 08 35 bc 17 11 5d 3d be cb d2 3c 2e c0 dd 3c
       -0.0110494895 0.053971376 0.025731917 0.027069177
0000b0 35 57 26 3d 61 4f a1 3d 6d 2e 1d 3d a2 b0 2d b8
       0.04061051 0.078764684 0.038374353 -4.1410916e-05
0000c0 2b a3 e1 bc 8f 96 02 bd 86 f1 da ba 84 45 3a 3c
       -0.027543625 -0.031881865 -0.001670406 0.011369113
0000d0 c3 8b 13 bc 0f 63 15 bc 40 3f 05 3d 9b 9c b4 3c
       -0.00900549 -0.009117856 0.032531023 0.022047332
0000e0 54 8f 3e 3d b3 c4 78 bc 72 0a c7 bb 61 7a eb bc
       0.046523407 -0.0151836155 -0.006074243 -0.028744878
0000f0 c3 8f e4 bc b4 dc 66 bd 94 9b 82 bd 26 0b 2d 3d
       -0.027900582 -0.056362823 -0.063773304 0.04224696
000100 eb 10 1b 3d f2 b4 5f 3d ff d7 01 3c 29 fa 14 3c
       0.03785793 0.054615922 0.007925033 0.009092846
000110 9c 86 21 bc e2 1f 08 bc 0a e1 09 bd c8 b3 f8 bc
       -0.0098587535 -0.008308383 -0.03366188 -0.030359164
000120 60 c8 c3 3c 36 e0 15 3d 4f bc 8a 3d eb 99 80 bc
       0.023899257 0.036590777 0.06774198 -0.015698394
000130 de 41 4b 3b 14 b6 4a bc 3a 5f e9 bc 24 55 30 bd
       0.0031014602 -0.012372512 -0.02848779 -0.043049946
000140 b0 0a 05 bd 52 f2 c8 3b 4c 54 23 3d ae 0d 8c 3c
       -0.032480896 0.0061324025 0.039875314 0.017096367
000150 3d f4 13 bd 54 f7 45 bd ba 3a 82 3b 06 87 49 3d
       -0.036121596 -0.048331574 0.003974286 0.049201034
000160 aa d3 3e bc 32 f0 5c bc b1 bf 03 bc 9e 7a 21 3d
       -0.011647144 -0.013485001 -0.008041308 0.039423577
000170 db 95 9e 3c c4 f4 76 bd 87 d5 76 bd 42 b3 d8 3b
       0.019358566 -0.06029202 -0.06026223 0.006613166
000180 27 f7 3e 3d 3a df 60 bb 30 ea 77 bc 03 b1 f7 3a
       0.04662242 -0.003431274 -0.015131518 0.0018897358
000190 f0 90 2c 3d 7f e2 a6 3c 2a b6 31 bd af b1 43 bd
       0.04213041 0.020371674 -0.043386616 -0.047776874
0001a0 03 24 de 3b d1 7d 44 3d 58 57 1c bb 7d 28 fa bb
       0.0067791953 0.04797155 -0.0023855772 -0.007634221
0001b0 13 1b 23 3d f0 4f da 3c 87 81 b8 3c 12 6c 8c 3c
       0.03982074 0.026649445 0.022522701 0.017141376
0001c0 79 d6 a9 bb 43 ab 60 bc 7b 95 fd 3c dc 7f f6 bb
       -0.005183038 -0.013712707 0.030955067 -0.0075225662
0001d0 18 33 3d bc 8c 84 77 3d 2d 5a ff 3b bb 1f 35 bc
       -0.011547826 0.06042914 0.007792732 -0.011054928
0001e0 8f 6c 90 3c ea a4 ca ba 52 2a 97 bc b3 e2 89 3d
       0.01762989 -0.0015460525 -0.018452797 0.067326926
0001f0 1a 30 8d 3c 0c c9 3f 3c c3 41 7e 3d dc ee 10 3a
       0.01723485 0.011705648 0.062074434 0.0005528757
000200 43 53 1b 3c ec fe 1a 3b ff 08 ee bb bb ff 85 bc
       0.0094803 0.002365048 -0.007264256 -0.016357293
000210 16 20 c0 3d 5a 1f 9e 39 31 f4 29 3d 74 6d 8f 3b
       0.0938112 0.00030159467 0.041492645 0.0043770615
000220 b3 21 1c 3c 76 c9 41 3d 11 82 7e bd c1 91 c4 3c
       0.009529519 0.04731127 -0.06213576 0.023995282
000230 f7 93 dc 3c 45 28 72 bd 36 da 42 3d 4d b4 13 3c
       0.026926024 -0.059120435 0.047571383 0.009015155
000240 44 44 3e bb 5f a5 02 3c ac d1 4f 3d 49 16 56 bd
       -0.0029032389 0.007973998 0.050737068 -0.052267347
000250 06 86 2e 3d 89 53 35 3c 87 5c ba bd 00 ba 11 3d
       0.042608283 0.01106728 -0.090996794 0.035577774
000260 bb 44 7f 3c aa e9 02 bd 3b 3d fd bc 0f 28 91 bc
       0.015580351 -0.03196112 -0.030912986 -0.017719297
000270 32 23 87 bd 9c ec 21 3d 4f c9 7f bc b9 55 a4 bd
       -0.0659851 0.03953229 -0.015611961 -0.08024163
000280 63 27 a3 bb 9d b1 86 bd 9e c7 9b bc 2d 62 43 bd
       -0.0049790605 -0.06576846 -0.019016083 -0.04770105
000290 92 b7 ed ba 64 02 39 3c 36 f7 d9 bc 0a e9 c5 bb
       -0.0018136373 0.011292074 -0.026607137 -0.0060397433
0002a0 0c 20 41 3d e8 48 db 3c fa 2d 5b 3c 1d 91 a4 bc
       0.047149703 0.026768163 0.013377661 -0.020088727
0002b0 38 cd 5e bd 94 20 df bb 8c 88 2b 3b ca b5 17 bd
       -0.05439493 -0.0068093035 0.0026173918 -0.037038602
0002c0 db c4 3e bc 4c a6 50 3d b7 d5 00 3d 23 cc 88 3c
       -0.011643614 0.050939843 0.031453814 0.016698902
0002d0 97 74 79 3b eb 40 4c bd 9f 39 c7 bc 11 57 a7 3c
       0.0038063878 -0.049866598 -0.024319468 0.020427259
0002e0 04 0e 0c bd 13 29 9b bc 97 66 be 3d 90 27 36 3d
       -0.034193054 -0.018940484 0.09296911 0.044471323
0002f0 cc 07 63 3b 62 50 a2 3d e6 31 20 3d 8a 3e 9f 3d
       0.0034642098 0.07925488 0.039110087 0.077756
000300 77 9a 93 3c 52 aa 52 bc 1d 73 7b 3c 61 10 88 3d
       0.01801799 -0.01285799 0.015347269 0.06643749
000310 7b 22 82 bb e8 aa bb 3d 15 90 4f 3d 9b 05 fb 3c
       -0.0039713955 0.09163457 0.050674517 0.030642321
000320 57 9a fd 3c 1f 5b c0 3c 40 cf 50 bc 69 25 3a bc
       0.030957384 0.02348095 -0.012744725 -0.011361458
000330 d9 11 2d 3d 6d a9 30 bc a6 ad 14 3d 72 f1 48 3b
       0.04225335 -0.010782582 0.036298417 0.003066149
000340 7d 32 80 bc ff 61 46 3d 28 cc 16 bc 1d 6c 20 bd
       -0.015649075 0.0484333 -0.009203948 -0.039165605
000350 81 99 2a bc 62 54 87 3c c4 98 b0 bc c6 6b 92 3d
       -0.010412575 0.016519729 -0.02155722 0.071494624
000360 1a 66 00 bd 56 22 0f 3c be 61 94 3d e8 77 06 bd
       -0.03134737 0.008736214 0.07245205 -0.032829195
000370 ec fb a2 3c 7b 11 30 3d 43 03 98 3a 4c ef 5a 3d
       0.019895516 0.04298542 0.0011597652 0.053450868
000380 51 8a 0e 3d 65 65 99 bd a4 9e 66 bc 80 42 f3 3c
       0.034799878 -0.074900426 -0.014075909 0.029694796
000390 de db 38 bd 9f b1 ac 3c ed c6 05 3d c8 dd 24 bd
       -0.045131557 0.02108079 0.032660414 -0.04025057
0003a0 dc cc 01 3d ef fb 97 bc 26 18 6a bd 1b 03 b7 bc
       0.03168951 -0.018552748 -0.057151936 -0.022340348
0003b0 0a 06 7e 3d f9 16 55 bd 33 41 b5 bb b3 8b 18 3d
       0.062017478 -0.05202386 -0.005531454 0.037242603
0003c0 73 57 a7 bc 9c 2f ae 3c ad 9e b2 3c fc f3 f8 3c
       -0.020427441 0.021262936 0.021804178 0.030389778
0003d0 89 22 41 3c d4 2d fd bc 80 f8 71 3d cc 13 8c 3a
       0.011788019 -0.030905642 0.05907488 0.0010687052
0003e0 0a 95 33 bc 62 d7 83 bd 05 8a 86 bd ae 5d 73 bb
       -0.010960827 -0.064375654 -0.06569294 -0.0037134695
0003f0 0b 47 e4 3c 91 b3 6e 3b 8a 24 70 bd b6 ac 4b 3d
       0.027865907 0.0036422948 -0.058628596 0.049725257

bias f4 [32]
000000 32 0b 4d 3e db 15 0c be 7e 14 40 3e 9f 28 63 3e
       0.20023802 -0.13680212 0.18757817 0.22183464
000010 c9 93 4e be a5 dd cd 3d 6d 0d dc bb ae 6d 74 bd
       -0.20173563 0.10052041 -0.0067154677 -0.05967491
000020 08 af 65 bd 66 6c 5b 3d 07 96 82 3d 23 b3 b1 bd
       -0.056075126 0.053570174 0.06376272 -0.08676746
000030 9f 85 f6 bd b0 58 29 3e 86 b8 04 bc 25 dc 14 3e
       -0.12037205 0.16537738 -0.008100634 0.14537103
000040 82 50 61 bc 80 1f 30 be 2c 7e f9 3d 1f b3 a8 bd
       -0.013752105 -0.17199516 0.121822685 -0.0823729
000050 fa 9c c7 3d 2c ec 63 bb 5d d2 d3 bd 45 2f c1 bd
       0.09746738 -0.003477822 -0.10342858 -0.09432844
000060 04 49 98 3e cf 41 63 3e c0 0f f1 bd 31 84 c5 bd
       0.29743207 0.22193073 -0.11770582 -0.09644354
000070 a5 5e 63 be 80 a5 2c 3e fa 02 d9 bd cd 82 f5 3d
       -0.22204073 0.16860008 -0.10596271 0.11987839

weight f4 [32]
000000 1e 4f 7d 3f d9 91 6c 3f 3d 68 73 3f 8e 0c 72 3f
       0.9894885 0.92410046 0.9508093 0.94550407
000010 fd db 6d 3f cc 87 56 3f e1 b2 82 3f 10 83 6b 3f
       0.929138 0.8380096 1.021084 0.9199686
000020 b6 73 73 3f d2 c4 7f 3f 2f 51 78 3f cd 2e 76 3f
       0.95098436 0.999097 0.96998876 0.9616516
000030 eb 03 84 3f c8 1a 6a 3f 63 d5 73 3f 64 e5 6b 3f
       1.0313696 0.91447115 0.9524748 0.921469
000040 34 ea 54 3f fc ff 7d 3f bf cc 8d 3f 1b bc 78 3f
       0.83169866 0.99218726 1.1078109 0.97162026
000050 0d 7c 42 3f ec 41 90 3f 29 f2 7c 3f 52 27 6a 3f
       0.75970536 1.1270118 0.9880701 0.9146625
000060 77 e9 67 3f da ba 44 3f 14 c3 6a 3f fe 7b 88 3f
       0.90590614 0.7684761 0.91703916 1.066284
000070 34 96 78 3f 6a be 45 3f 31 f7 7a 3f 00 43 6a 3f
       0.9710419 0.77243674 0.98033434 0.91508484

bias f4 [32]
000000 f4 ee 82 3d f8 9f 5e 3e 7d 0c 25 3d 29 f2 eb bc
       0.06393233 0.2174071 0.040295113 -0.028801994
000010 7d c9 b6 3e 6c d0 31 3f 9f a7 ae 3d c4 bf ed 3e
       0.35700598 0.6945865 0.08528065 0.46435368
000020 11 c7 04 3f ca ba 86 3e 46 94 88 3e 88 07 00 3f
       0.5186625 0.26314384 0.26675624 0.5001149
000030 bf 16 32 3e 60 88 7a 3e 78 14 99 3e 98 bc a5 3c
       0.1739149 0.24466085 0.2989843 0.02023153
000040 d2 70 ed 3e e3 44 01 3f 61 48 9b bd 6a 12 87 3e
       0.46375138 0.5049574 -0.075821646 0.26381236
000050 75 42 14 3f 73 10 7b 3c cd d7 f5 3e db 84 0d 3e
       0.57913905 0.015323746 0.48016205 0.13820212
000060 c7 0f f8 3e 19 43 35 3f af f1 24 3e 0b c2 85 3e
       0.48449537 0.7080551 0.1610782 0.26124606
000070 f2 4e dc 3e b4 f5 09 3f 58 b4 83 3e 21 69 ae 3e
       0.4302898 0.5389054 0.2572353 0.34064582

running_mean f4 [32]
000000 02 62 33 3e d2 b6 5b be 95 ca 42 3e db 51 62 3e
       0.17517856 -0.21456459 0.19022591 0.22101538
000010 fb c5 93 be 01 ea 2a 3e 65 8c 45 bc 1b 30 17 be
       -0.28861985 0.16690828 -0.012057398 -0.14764445
000020 c4 a6 81 bd f7 34 b3 3d 9a 94 44 3d 1e 91 84 3c
       -0.06330636 0.087503366 0.04799328 0.016182479
000030 11 c9 08 be 33 12 32 3e aa a1 ab bd d4 42 c4 3d
       -0.13357951 0.17389755 -0.08380444 0.09583059
000040 ac f1 5b bd f6 7e 16 be 75 90 85 3e 6d 79 3c be
       -0.053697273 -0.14696869 0.26086774 -0.18405695
000050 3c f1 0d 3e a3 78 8f 3d 46 b6 02 be bc b4 c0 bd
       0.13861555 0.070054315 -0.12764844 -0.09409472
000060 2e c7 99 3e 8f a3 52 3e 24 72 e4 bd f2 05 e5 bd
       0.30034775 0.20570205 -0.11154583 -0.111827746
000070 d1 a6 45 be 3c 2b 0b 3e 2f f8 92 bd 1f de b5 3d
       -0.19301917 0.13590711 -0.071762435 0.08880257

running_var f4 [32]
000000 a8 ef a0 3b 65 4a 2a 3c 1b 85 8f 3b af 70 c6 3a
       0.0049113818 0.010393714 0.004379881 0.0015139783
000010 8c 29 21 3c bb ed 06 3c 52 05 89 3b 2e 06 61 3c
       0.009836566 0.00823539 0.0041815424 0.0137343835
000020 8e aa ef 3b 50 b6 b0 3b 78 0e ac 3b 5e a5 90 3c
       0.007314033 0.005392827 0.0052507482 0.017656978
000030 59 c3 b6 3b b5 da 32 3b c0 d9 13 3c d4 02 08 3c
       0.0055774865 0.0027291004 0.009024084 0.0083014555
000040 4a ed a1 3b 2e 68 72 3b a3 ca d5 3c b5 2a 0c 3c
       0.004941617 0.0036988365 0.026097601 0.008555104
000050 1b 20 05 3b 4d 13 4f 3c 13 c4 d9 3b 7b 8a 0f 3b
       0.0020313326 0.012638879 0.0066456883 0.002190261
000060 18 66 90 3b 6e c6 8f 3b ac d3 75 3b 9d 34 c9 3b
       0.004406702 0.0043876683 0.00375102 0.006140305
000070 f5 0a b5 3b 4e 0d 99 3b b4 83 95 3b 02 63 a4 3b
       0.005524988 0.0046707755 0.0045628194 0.0050166855

weight f4 [32, 32, 3, 3]
000000 fc 54 3e bc 3a a5 80 bb a5 b9 26 3c a8 62 e7 3c
       -0.011616942 -0.0039259465 0.010176097 0.028245285
000010 4b 68 74 bd a5 8a 4c bc a9 02 8a 3d e3 38 a0 bb
       -0.059669774 -0.012484227 0.06738789 -0.004889594
000020 97 2c 7b bb cd 88 69 bd f9 48 3f bc 4e 35 d7 3c
       -0.0038326138 -0.05701523 -0.011675113 0.026270535
000030 0c b5 29 3b 05 31 8c 3c 0f 21 ea bc c9 25 58 3d
       0.0025895266 0.017113218 -0.028580217 0.05277041
000040 ae 08 de 3c 82 53 43 3c bf 38 1b 3b c7 fa 38 3d
       0.027103748 0.011921765 0.0023684946 0.045161035
000050 72 6b 90 3c ef 5c 61 bc 7e 51 0e 3d 6b 33 97 3c
       0.017629359 -0.013755067 0.034745686 0.018457135
000060 99 95 88 bd 82 bf e6 bc 40 a2 39 bd 8e 8a d2 3c
       -0.066691585 -0.02816749 -0.04532075 0.025700834
000070 71 7d 49 3d a5 bd 90 3d f8 b2 03 3d b0 90 d2 ba
       0.049191896 0.07067422 0.0321531 -0.0016064849
000080 ef d0 28 3d 2f 51 86 3c 16 a8 18 bd f7 92 73 bc
       0.04121488 0.016396133 -0.037269674 -0.014866582
000090 2e e9 45 bd c9 f2 7e bb 00 5c 38 3d 72 ba 5d bd
       -0.04831808 -0.0038902035 0.045009613 -0.054132886
0000a0 27 26 f6 bc b1 3b 8f bb 69 e3 00 be f4 3c 96 bd
       -0.03004749 -0.0043711294 -0.1258675 -0.07335845
0000b0 e0 ee ce bc 34 2f 59 bd 61 04 e1 3a ee 11 c3 3b
       -0.025260389 -0.053023532 0.0017167443 0.005953065
0000c0 0c 52 34 bc 23 69 3e 3b 75 be 8d 3d 57 96 a4 3b
       -0.01100589 0.0029054366 0.069210924 0.0050228047
0000d0 94 2e 8f 3c 3b 0c 7e 3d 74 a5 07 3e 29 df 7d bb
       0.017478265 0.062023383 0.13246709 -0.003873775
0000e0 e9 c1 81 3d 95 24 29 bc 38 e1 4c 3c 15 33 14 3d
       0.063358136 -0.010323663 0.012504868 0.036181528
0000f0 18 c3 21 bd 8e 80 92 bc 68 dc 0b bd 64 b0 00 3c
       -0.039492697 -0.017883565 -0.034145743 0.007854555
000100 96 b0 47 3d 24 e1 bc 3c fa de 31 bc 25 48 dc 3c
       0.04875239 0.023056574 -0.010856384 0.02688987
000110 e6 c8 b8 bc 3d 0c b9 bc 39 5a 12 bd 4c fa 7f 3c
       -0.022556733 -0.022588843 -0.035730574 0.01562364
000120 28 f5 52 3d 1f dd c9 bb 77 49 6c 3d 3e 13 03 3c
       0.05150333 -0.006160393 0.05768725 0.008000193
000130 f1 cf 19 bd f5 4d dc 3c ad 64 a8 3c ed 51 6e bd
       -0.037551824 0.026892642 0.020555818 -0.0581836
000140 0d 94 c9 3b 0c 28 84 bd 85 ac 20 bb c3 ae ac bb
       0.006151682 -0.06452951 -0.0024516892 -0.0052698567
000150 3a b2 72 b8 6a 4e 03 3c 8c fc c2 3c b9 7f dc bc
       -5.7863283e-05 0.008014301 0.023802064 -0.026916372
000160 f9 a6 0a 3d 84 bc 17 3a 44 12 b2 3d 27 9d a5 3c
       0.033850644 0.0005788284 0.0869489 0.020216538
000170 da 11 d9 3c 82 e1 b2 3c fb dc f1 3b 01 a4 81 bc
       0.02649777 0.021836046 0.0073810793 -0.015825273
000180 6d 07 6f 3d 6f de 64 bd de 7f 8e bc 8a 3b aa bc
       0.05835669 -0.05587619 -0.017394956 -0.020780344
000190 74 50 0c bd 2b cb 0b 3d a1 3f db bc 86 f4 1a bc
       -0.034256414 0.034129303 -0.026763739 -0.009457713
0001a0 11 ee 02 3a 4c fd f2 bc 2d ac af bc 07 4c ae 3a
       0.0004994581 -0.029661797 -0.021444404 0.0013297804
0001b0 75 35 57 3d 74 79 97 3c 33 2b de 3b 1e 04 18 3d
       0.052541215 0.01849053 0.006780052 0.0371133
0001c0 02 e7 bc 3b 1f 66 25 3c 27 99 a8 3d 75 6d 8c bc
       0.005764843 0.010095148 0.082323365 -0.017142037
0001d0 49 78 23 bd 5c 78 2f bd ec a7 b5 bd b9 21 15 bd
       -0.039909635 -0.042839393 -0.08869919 -0.036409114
0001e0 e9 a1 03 bc b1 c8 42 bc 31 eb d6 3b b1 13 a8 bc
       -0.008034208 -0.011888669 0.0065587987 -0.020517202
0001f0 bd 0c 0b 3d 77 cf 59 bb c0 d4 e7 bc 09 2c 0a 3d
       0.033947695 -0.003323523 -0.02829969 0.0337334
000200 e7 2e 24 bc be f3 fa bc f7 8a 32 3c 59 6a 42 3c
       -0.010020948 -0.030633803 0.01089739 0.011866176
000210 61 48 c5 bc dc 4f d6 3c 31 4c 89 bc 7d c1 fa bc
       -0.024082365 0.026161127 -0.016759964 -0.03060984
000220 65 e2 b8 ba c7 95 78 3c ee a5 26 3d 6f f1 46 3c
       -0.0014105557 0.015172428 0.040685587 0.012142523
000230 f9 94 04 3c 56 c5 81 3c 94 2e 24 3d 55 86 14 3d
       0.0080921585 0.015841167 0.040083483 0.03626092
000240 f6 2c 7f bc 78 f0 81 bc ef d6 fc bc 1b c5 3e bd
       -0.015574684 -0.015861735 -0.030864207 -0.046574693
000250 97 42 56 bc f8 85 5e 3c 67 b1 61 bd ca 90 a3 3c
       -0.0130774 0.013581745 -0.055100825 0.019966502
000260 0e 63 1b 3d d3 49 6e 3d 2c 33 86 bc d5 75 62 3d
       0.037936263 0.058175873 -0.016381823 0.055288155
000270 51 8c e7 3b 1d 66 60 bd 56 02 dd 3c fe f7 ed 39
       0.0070662876 -0.054784883 0.026978653 0.0004538893
000280 d9 46 8e bc e7 1e 53 bd 2b 8a 78 bd e1 00 88 bc
       -0.017367767 -0.051543143 -0.060678642 -0.016601982
000290 70 47 d5 3b 75 7f f3 bc 6b 88 9b bc a7 95 ff bc
       0.00650876 -0.029723862 -0.018985948 -0.03119929
0002a0 4b b8 5c bd 35 fe 91 bd 2d bf 9c bd ea 0b 91 bd
       -0.053886693 -0.07128564 -0.076536514 -0.070823506
0002b0 8e eb df 3c 37 1b 4b bc a2 a6 c8 bc d0 84 6b 3d
       0.027334 -0.012396625 -0.02449352 0.057499707
0002c0 08 85 46 3b 01 05 24 bd f1 e2 10 bc 22 c6 16 bd
       0.0030291695 -0.040043835 -0.00884317 -0.036810048
0002d0 a2 38 8f 3d 0f d6 16 3d c0 ae 80 3d 4f 2a 85 3b
       0.06993224 0.036825236 0.06283331 0.0040638815
0002e0 63 8b af ba 7a ea 51 3c 3e 39 00 3d 6c 95 9d 3c
       -0.0013392981 0.012812251 0.03130459 0.019236289
0002f0 0a 49 04 3c 99 47 35 3c 08 90 f9 bc 09 3a 82 3d
       0.0080740545 0.0110644335 -0.030464187 0.063587256
000300 b4 bd 01 3d 0c 33 cf bc 99 e0 e1 3c db 6d cf 3c
       0.031675056 -0.025292896 0.027572917 0.025320938
000310 4a 35 36 3c 11 ae 10 3c ca 43 32 bd 7f 2d 6a bd
       0.011121104 0.008830563 -0.04352168 -0.057172295
000320 19 57 90 bd 6d 93 e6 3b 3f 01 d4 bc 23 0d 5e bd
       -0.070478626 0.0070366175 -0.0258795 -0.054211747
000330 3f ad 18 bc b3 13 f8 3b 01 c2 56 bd c1 a0 9d 3d
       -0.009318649 0.0075707077 -0.05243111 0.07696677
000340 7f 84 51 bc 57 f9 56 bc 12 84 9e 3c 5d 7e d7 bc
       -0.012787937 -0.013120971 0.019350085 -0.026305372
000350 18 08 41 bd 95 6a bc 3c 3c 55 39 3d 96 b3 ca bc
       -0.04712686 0.023000041 0.0452473 -0.024743836
000360 41 84 58 3d 58 91 93 bc 65 91 1b bd 65 23 7a 3d
       0.052860502 -0.018013641 -0.037980456 0.06106891
000370 a9 db 13 bb 70 9a 2b bd b2 23 3f 3d 7c 41 fb 3b
       -0.0022561348 -0.04189533 0.0466649 0.0076677185
000380 5b c5 5f bd c8 5e 4c 3d b6 b6 95 3d 2a a8 65 3d
       -0.054631572 0.049895078 0.0731024 0.056068577
000390 81 63 ac 3d c4 f5 71 3d 18 46 ea 3c 27 49 a5 3d
       0.08417416 0.05907227 0.028597876 0.08070593
0003a0 6f 0d 48 3d e9 6b bf 3c 63 e3 8b 3c c8 97 8b bb
       0.048840936 0.023366885 0.0170762 -0.004260037
0003b0 1c c4 3e 3d 43 5f ff 3c 17 e9 24 bb 0d 98 f8 3c
       0.046573743 0.031173354 -0.0025163346 0.030345941
0003c0 01 c0 67 bc 1b f2 10 3b f7 76 0b 3d 72 14 96 bd
       -0.014144898 0.0022116962 0.034049 -0.073281184
0003d0 96 c9 fb bc f5 2b 23 bd 7d 64 1a 3b 2e 76 36 3d
       -0.030735772 -0.039836843 0.002355843 0.0445463
0003e0 55 62 31 3d 66 5f 55 3d f7 58 71 3c e1 85 e3 bc
       0.043306667 0.052092932 0.0147306835 -0.0277738
0003f0 dd 18 23 bc 81 3b c5 3c b0 a7 33 3d 93 6b 2f bd
       -0.009954658 0.024076225 0.04386109 -0.0428272

bias f4 [32]
000000 86 66 63 3d b8 24 60 39 d7 4e a7 bb d0 53 18 bd
       0.055517696 0.00021375983 -0.005105834 -0.037189305
000010 d9 be 62 3d 9d 8b 02 3b ba 9e f8 bb 1e ce d7 bc
       0.055357788 0.0019919642 -0.007587281 -0.026343402
000020 1a 5b 35 bc 70 9b c8 bc 72 8b 56 bd 2e 5f 97 3d
       -0.011069084 -0.02448818 -0.05237908 0.07391201
000030 1a 6a 26 bd 01 c6 91 3c 20 0f 53 bd 81 cf 19 3c
       -0.04062853 0.017794611 -0.051528096 0.009387852
000040 b8 1a 0b bd 10 ce 10 3d 25 1d 31 bc 06 b7 b4 3d
       -0.033961028 0.035352767 -0.010810171 0.088239715
000050 ed 9d 7b bd ac cd d5 bc 58 7b 33 3d e4 29 85 3c
       -0.061429907 -0.026099049 0.0438188 0.016255327
000060 db 23 aa 3b e8 03 00 3d ab 6f 5c 3c fd 2b 1f bd
       0.0051922626 0.031253725 0.013454358 -0.03886031
000070 7a 3e 30 3d b3 21 f9 3a df 36 2a bd 4c 80 2a bc
       0.043028332 0.0019007236 -0.041556235 -0.010406565

weight f4 [32]
000000 a4 cc 67 3f c4 71 85 3f 65 05 83 3f 50 97 75 3f
       0.9054663 1.0425344 1.0236021 0.9593401
000010 a1 11 83 3f 6a 26 78 3f 84 68 64 3f 8b 61 88 3f
       1.0239755 0.96933615 0.8922198 1.0654768
000020 0a 63 68 3f c2 0c 7e 3f f9 05 68 3f 13 b4 6c 3f
       0.9077612 0.99238217 0.90634114 0.9246227
000030 eb fb 82 3f c6 52 74 3f 34 7f 73 3f 61 32 71 3f
       1.0233129 0.954388 0.9511597 0.942175
000040 34 31 6f 3f 0f 7d 6c 3f e9 ac 78 3f 3e 89 74 3f
       0.93434453 0.92378324 0.9713884 0.95521915
000050 7f 28 70 3f 4f f0 62 3f 1d 47 79 3f 81 e7 5e 3f
       0.9381179 0.8864793 0.97374135 0.87071997
000060 e2 02 7a 3f e1 ed 77 3f 4f 99 76 3f 2f 9e 57 3f
       0.9766065 0.9684735 0.9632768 0.84225744
000070 a0 26 61 3f 7e 92 78 3f e1 7e 69 3f d6 e4 82 3f
       0.8794956 0.9709853 0.91209227 1.0226085

bias f4 [32]
000000 1f f5 d6 3e 71 52 a6 3d c7 f6 88 3e 05 86 64 3e
       0.41983888 0.08121193 0.26750776 0.2231675
000010 0e c4 01 3f 23 43 fc 3e f1 60 0a 3f 52 3b 68 3e
       0.5068978 0.4926997 0.5405417 0.22678879
000020 7b 02 a2 3e 3a 9b d9 3e 3b fd 10 3f 41 3b ff 3e
       0.31642517 0.4250124 0.566364 0.49849895
000030 f9 43 23 3d 36 c7 c9 3e 4f b0 f1 3d 8d 7c e1 3e
       0.039859746 0.39409798 0.11801206 0.44040337
000040 6f 08 98 3e 75 c7 f2 3e 0e bf c9 3e 6f 82 9d 3e
       0.29693934 0.474178 0.39403576 0.30763575
000050 34 8a f0 3e 0a 84 a3 3e f3 80 f1 bd d3 b8 32 3f
       0.4698044 0.31936675 -0.11792173 0.6981327
000060 a3 a8 8d 3e 67 74 e5 3e a8 21 23 3e 89 50 fe 3e
       0.27667722 0.4481537 0.15930808 0.49670818
000070 9f 5a 11 3f 44 32 23 3e 89 e8 c5 3e d4 b9 01 3f
       0.567789 0.15937144 0.38653973 0.50674176

running_mean f4 [32]
000000 a1 a4 ac 3e 3d e8 fe bd 80 98 86 bf a3 1a 8b bf
       0.33719352 -0.1244664 -1.0515289 -1.0867504
000010 3e dc af bf 77 84 67 3d 1e 9c 4f 3f 3c 3b 94 3e
       -1.3739088 0.056522813 0.8109759 0.28951442
000020 04 11 24 3e e9 67 08 3f 78 51 70 3f d7 da f1 bf
       0.16022116 0.53283554 0.9387431 -1.889491
000030 99 18 65 3f 17 5c 88 3f ea 24 d8 be f7 ec 82 be
       0.8949066 1.0653104 -0.42215663 -0.25571415
000040 34 17 ae bd 91 bd 8a bc f3 bb 39 3f a8 33 44 3f
       -0.085005194 -0.016936095 0.7255241 0.7664132
000050 91 20 90 3e c1 28 1a 3c d7 9e 12 3c 92 5b f0 bf
       0.28149846 0.009409131 0.008949003 -1.8777945
000060 be 4e ae 3f 21 83 1a 3f 04 03 85 3d a9 e9 16 3e
       1.361778 0.60356337 0.06494716 0.14737572
000070 0a a2 f3 bc 8f 75 69 bb 20 59 bf bf 5d ea dc 3e
       -0.029740352 -0.003562305 -1.4949074 0.43147555

running_var f4 [32]
000000 f6 cd c4 3e 71 4c 99 3e f1 07 d7 3e 9f f3 e6 3e
       0.38438386 0.29941133 0.41998246 0.45107743
000010 ab 34 2f 3f 8c bd 89 3e 66 ca 2c 3e 91 ed b8 3e
       0.6843974 0.26902425 0.16874084 0.3611875
000020 58 a7 bd 3e d2 ad 0b 3f 3e 95 d9 3e a2 17 c2 3e
       0.37041736 0.54562104 0.42496675 0.37908655
000030 67 4a 3e 3e 83 33 5a 3e 07 12 a5 3e 8f 93 a8 3e
       0.1858307 0.21308713 0.32240316 0.32925078
000040 10 eb 6e 3e bc 3f 90 3e 4f ed 83 3e 1e 34 a0 3e
       0.23331857 0.28173625 0.2576699 0.31289762
000050 6c 80 69 3e 76 89 32 3e 4a 26 49 3e 62 3e 1a 3f
       0.22802895 0.1743525 0.19643512 0.6025144
000060 35 bc 6c 3e 83 2c af 3e 6a f0 8e 3e bc 04 98 3e
       0.2311867 0.34213647 0.27917796 0.29691112
000070 be 15 60 3e 30 2c 73 3e 88 66 9e 3e 82 3a a4 3e
       0.21883294 0.23747325 0.309376 0.32075888

weight f4 [32, 32, 3, 3]
000000 e5 f7 9c bc 89 e2 cd 3c 71 88 39 bc c3 e8 43 3a
       -0.019161174 0.025132434 -0.011324034 0.0007473344
000010 9c 1b c2 3b 5f 43 28 bd 41 46 9d bd bf 14 df bc
       0.0059237015 -0.041079875 -0.076794155 -0.027231572
000020 d0 28 cd bd 7e b4 1e 3c 42 7a 04 bd 25 7e c4 bc
       -0.1001755 0.009686587 -0.032343157 -0.023985932
000030 3f 41 cf bc fe 70 7e bc 14 45 61 bd 7a 8f 96 bd
       -0.025299666 -0.015529869 -0.05499752 -0.07351585
000040 ad 30 91 bd ac c4 94 bd 38 33 be 3c 77 73 92 bc
       -0.07089362 -0.07264075 0.023217782 -0.017877324
000050 75 29 27 bd 54 dd 7d bd cd 01 08 bd 0f 5f 42 bc
       -0.04081102 -0.061978653 -0.033204842 -0.011863484
000060 5a f2 05 3c a0 9c 94 bc ae 9f 37 bc 61 98 90 bd
       0.008175457 -0.01814109 -0.011207504 -0.07060314
000070 56 36 9d bc dd 4f 6d bd c3 56 4b 3c 37 13 95 3b
       -0.019190948 -0.05793749 0.012410822 0.0045494097
000080 4d c2 cc bc 89 f6 5d 3c 44 10 66 3c fb d3 6a 3c
       -0.024994994 0.013547548 0.014041964 0.014332767
000090 93 d3 89 bd ff 35 3e bd fc 8d b4 bd 8c a5 8b bd
       -0.06729808 -0.046438213 -0.08816144 -0.06818685
0000a0 cb bb 8f bc 25 0f 1d bd ed 63 03 be dc d6 9e bd
       -0.017545601 -0.03834452 -0.12831087 -0.07755825
0000b0 cf 85 bb bd c6 86 55 3d fd 2c 08 bd e2 de 29 bc
       -0.09156381 0.052130483 -0.03324603 -0.010368081
0000c0 72 ec 88 3a 2c e4 25 bd 75 6c f9 bc d0 ce 53 3c
       0.0010446443 -0.040500805 -0.030447224 0.012927726
0000d0 dc a5 2f bd e7 de 3a bc 95 4d e8 3c 41 be 25 3d
       -0.042882785 -0.011405683 0.028357306 0.040464643
0000e0 6b aa 21 3b 1d 68 ba 3b b8 eb 10 3d e4 3b 83 3d
       0.0024668227 0.005688681 0.03538105 0.064079076
0000f0 df 2f 2a 3d c7 2a 7f bb 10 4f 19 3b 74 13 64 bd
       0.04154956 -0.003893541 0.0023393072 -0.055682614
000100 d6 11 45 bd 30 7a a1 bd c1 63 e7 bc 3d 00 6a bc
       -0.048112713 -0.078846335 -0.028245809 -0.014282283
000110 ed 4f bb bc a4 89 c7 3a f3 0f 27 3c 36 2e 53 bd
       -0.02286526 0.0015223515 0.010196674 -0.051557742
000120 30 14 53 bd 50 f5 fb 3c 95 8e 11 3d 0f c7 3f bd
       -0.051532924 0.030756623 0.035536367 -0.046820696
000130 8d 61 c1 3b 1a 27 59 3d 9b 79 d2 bd b2 91 52 bc
       0.0059015215 0.053015806 -0.10277101 -0.012852119
000140 d0 91 b1 bc 81 29 85 bb 61 0b 1f bc d0 96 d5 3c
       -0.021675974 -0.0040637855 -0.009707303 0.02607289
000150 2b 1a 42 ba 5c 85 42 3c bd 9c 53 bb a3 29 3f bd
       -0.0007404412 0.011872616 -0.0032289468 -0.046670567
000160 49 3d 11 bd 40 d0 fd bb ba 15 a1 bb 16 a5 4a 3a
       -0.035458837 -0.0077457726 -0.00491592 0.0007730288
000170 fe a9 6e bd 02 97 9c bc 3c e3 ad bc 69 6a 4b bd
       -0.058267586 -0.019114975 -0.021226518 -0.049662028
000180 ec 60 38 bd 2d 99 71 bc 64 1f 31 bd be af c6 bb
       -0.045014307 -0.014745993 -0.043242827 -0.0060634306
000190 a7 c2 e8 bb 63 16 57 3c 97 23 1c bd 73 87 81 bc
       -0.0071032825 0.013127896 -0.03811988 -0.015811658
0001a0 4c 80 e6 3c 72 1b 15 bd ac 3b 8d 3b 3e 7d 9d 3c
       0.028137349 -0.036403127 0.004310092 0.01922476
0001b0 49 e7 cf bc a3 cc 7d b9 0e ef 15 3c 48 67 52 bc
       -0.02537884 -0.00024204193 0.009151233 -0.012842007
0001c0 c0 60 82 bc 28 5d d9 3c 49 1a 4c bd 68 28 4d 3c
       -0.015915275 0.026533678 -0.049829755 0.012521841
0001d0 b6 1a 9f bc 85 54 8b 3c ea 9e c2 3b 1e 6c f5 bc
       -0.019421916 0.017008075 0.005939354 -0.02995878
0001e0 27 97 52 bc 58 1d f1 bc 57 7b cb bc 8a ca 9c 3c
       -0.01285342 -0.029432938 -0.024839086 0.019139547
0001f0 ff 80 1d 3c 0e 23 96 3c 59 3f dc bc f3 5c 75 3c
       0.009613275 0.018327262 -0.026885675 0.014975774
000200 49 bf 1e 3b 0f f2 d8 bb 9a cc e2 bc 71 cf 84 bc
       0.0024222902 -0.0066206525 -0.027685452 -0.016212197
000210 11 76 96 bd 6d 09 88 bd 0b a8 8f bd 64 da de 3c
       -0.07346738 -0.06642423 -0.070144735 0.027203746
000220 c8 86 fb 3c 5a e4 06 3b 33 ba 20 3d 46 9e 2a 3d
       0.030703917 0.0020582885 0.039240073 0.041654848
000230 e2 14 16 3b b5 73 06 bd 11 7e 9a bc 0d ec 10 bd
       0.002290063 -0.03282519 -0.018858941 -0.035381366
000240 de db ac 3c fa 62 00 3d 0a 2c 82 3c c0 54 18 3d
       0.021100935 0.03134439 0.01589014 0.0371902
000250 7a 25 37 3d 30 cc 48 bc b2 0d 11 3d 04 77 f6 3c
       0.044713475 -0.012255713 0.03541345 0.030086048
000260 b6 ee 40 3c 2c 73 d3 3c 55 3b e2 3c 84 ad 0c 3d
       0.011775663 0.025811754 0.027616182 0.034345165
000270 a6 a4 05 3d 51 21 0a bc ab e1 26 bb 58 fb fd bc
       0.032627724 -0.008430795 -0.0025464098 -0.03100364
000280 1b b5 d4 bc 99 9a bc bc dd 43 bb bb ec ed be 3c
       -0.025965264 -0.023022937 -0.005714877 0.02330681
000290 e3 cd 8a 3c 6d 44 ae bc fb ea 7a bc 96 ab 86 3c
       0.016943878 -0.021272862 -0.015314813 0.01643924
0002a0 80 53 06 3d 7e b1 6e bd c4 a8 87 bc ac a5 0e bd
       0.032794476 -0.05827474 -0.016559966 -0.034825966
0002b0 22 a7 21 bd 8e a8 a9 ba a3 fb a9 bc f6 ca 88 3a
       -0.03946603 -0.001294391 -0.020749873 0.0010436464
0002c0 80 89 15 bb 44 9b 21 bd fc d2 d0 3c f1 5f e1 3c
       -0.0022817552 -0.039454713 0.02549123 0.027511569
0002d0 ca 56 35 bd f5 bb 4e 3d eb 1c 88 3c 3a 49 e2 bb
       -0.04427222 0.05047222 0.016615352 -0.006905702
0002e0 ab 31 5c 3d 5c 71 3c bd 89 4b 9b 3c 4b 25 af bc
       0.053758305 -0.046006545 0.018956916 -0.021380087
0002f0 28 2d 7f bd 11 e4 f9 bb 57 9d 00 bd fa 65 9f bd
       -0.062298924 -0.0076260646 -0.03140005 -0.07783122
000300 e1 41 d6 3c ef 02 d7 38 68 dc 4b 3a 6d 8d 24 3d
       0.02615446 0.00010252545 0.00077766785 0.040173937
000310 67 e4 df 3c 14 0f 5b 3d b6 fe 3e 3c cb ab 05 3c
       0.02733059 0.053481176 0.0116574075 0.008158634
000320 df 07 86 3d 12 31 df bc 7d 5c 65 3d c1 43 30 3d
       0.0654447 -0.027245078 0.055996407 0.043033365
000330 cf 86 b1 b8 4c 2d 05 3d ba c5 65 3d bb 3f 5a 3c
       -8.465128e-05 0.0325139 0.05609677 0.013320859
000340 0a c3 a7 3c 38 99 c6 3b d0 58 96 3c ce f1 20 3d
       0.020478744 0.0060607456 0.018352896 0.039293103
000350 de f5 d1 bc 07 70 5a bc a4 ef 34 bd 07 14 a0 bd
       -0.025629934 -0.013332373 -0.04417385 -0.0781632
000360 cc 50 c6 bd 45 1a 38 bd bb db b1 bd 5a 77 02 bd
       -0.096833795 -0.044946928 -0.086844884 -0.031852104
000370 de bf 78 bd a9 59 4e bd f6 a8 92 bd 56 1c 1b bd
       -0.060729854 -0.050378475 -0.07161133 -0.03786882
000380 c4 1a 8e 3c 11 ea 62 bd 31 c6 cd bc 90 47 96 bc
       0.017346747 -0.055399004 -0.02511892 -0.01834467
000390 5a dd 16 3d 14 3d 27 3b 86 9d 2e bd 12 4a 43 3d
       0.03683219 0.0025518583 -0.042630695 0.04767806
0003a0 22 31 60 bb 01 4a 1a bd d1 f8 bd bc 91 d5 6c 3c
       -0.0034208973 -0.037668232 -0.023189934 0.014455215
0003b0 83 c9 49 3d 00 29 4f bd 9f c8 94 3c 43 eb 44 bd
       0.049264442 -0.05057621 0.01816207 -0.048075926
0003c0 04 9d 0b be 2b 5e d1 bc ed 6a 97 bc 77 5b aa bc
       -0.13634115 -0.025557598 -0.018483603 -0.020795567
0003d0 48 bb 04 bd 03 17 40 3d 50 92 2a bd ef 49 d4 bc
       -0.032405168 0.046896946 -0.04164344 -0.02591416
0003e0 bb e7 c0 3c a1 38 63 bc 22 b2 a2 3c af dc 3d bc
       0.023547998 -0.013868482 0.019860331 -0.01158826
0003f0 ba 5c 79 3c b5 52 e7 3c ce 30 e1 3a bb 2a 8e 3c
       0.015219862 0.02823768 0.0017180683 0.01735436

bias f4 [32]
000000 14 fe f8 bc 0c 9d 2e bd 50 c1 52 bc d2 82 3d bd
       -0.030394591 -0.04263024 -0.012863472 -0.046267338
000010 fb 5e 4b 3c 47 e3 5b bd f8 47 bb 3c b6 30 df 3c
       0.012412782 -0.053683545 0.022861466 0.027244907
000020 5f da 8c 39 1a 60 02 3d e0 01 01 3d 6e ed 33 bd
       0.0002686558 0.03182993 0.03149593 -0.043927602
000030 23 bf 51 bd 83 82 1a 3d d3 a2 56 bc a8 b1 25 3c
       -0.051207673 0.037722122 -0.013100344 0.010113157
000040 fc c8 b1 bc a8 e5 86 3b 84 c1 dd 3c 91 f7 58 bd
       -0.021702282 0.0041167326 0.027069815 -0.052970473
000050 88 e3 5f bd d2 f2 73 3d 1c 59 8e bd 13 47 34 3d
       -0.05466035 0.059557743 -0.0695059 0.044013094
000060 dc d0 1f bd 1a 53 20 bb 66 88 56 3d 04 ec 6b bd
       -0.039017543 -0.0024463595 0.052376173 -0.05759813
000070 37 7b 66 bc f5 02 85 3a c9 2d 4e bd fa 4e be 3b
       -0.014067463 0.0010147976 -0.050336633 0.0058077546

weight f4 [32]
000000 55 86 67 3f 86 29 74 3f 7b 86 89 3f 08 72 7f 3f
       0.9043935 0.9537586 1.0744165 0.9978337
000010 2e 79 71 3f 9b 7e 7f 3f 9b 55 5d 3f 6b 60 77 3f
       0.9432553 0.9980256 0.8645875 0.966315
000020 cb 14 6e 3f c4 3d 85 3f 94 fd 58 3f 9d 97 79 3f
       0.9300048 1.0409474 0.8476193 0.9749697
000030 8c ab 61 3f bd 2d 62 3f 98 fd 6c 3f 29 88 64 3f
       0.88152385 0.8835104 0.92574453 0.89270264
000040 dd 2f 6c 3f c4 62 81 3f 73 90 70 3f ce e6 7e 3f
       0.92260534 1.0108266 0.9397041 0.9957093
000050 6e b2 7c 3f 5c c6 6b 3f c2 92 6a 3f 08 36 59 3f
       0.9870976 0.9209955 0.91630185 0.8484807
000060 72 2d 7c 3f ff 9a 75 3f 01 f4 77 3f ff 44 68 3f
       0.98506844 0.9593963 0.96856695 0.9073028
000070 3e 38 83 3f 60 83 7b 3f f4 5f 69 3f 98 d4 67 3f
       1.0251539 0.9824734 0.9116204 0.9055877

bias f4 [32]
000000 6f 6c 03 3f 6b f5 1f 3f 61 7a 7e be 64 d8 d5 3e
       0.5133733 0.62483853 -0.24851371 0.41766655
000010 1d 62 ae 3d c5 b7 53 bd 47 ae d1 3e 2a 82 c7 3e
       0.085148074 -0.05168893 0.40953276 0.38966495
000020 3a 17 de 3e 32 bf 1b 3e 33 a0 6b 3f 6a 46 fa 3e
       0.43377095 0.15209654 0.9204132 0.48881847
000030 57 02 12 3f 6d 04 1d 3f 01 80 60 3e 0f 07 0a 3f
       0.5703482 0.6133488 0.2192383 0.5391702
000040 1c 6a 20 3f 25 f8 80 3d 2e e3 06 3f 6c d0 5a 3e
       0.6266191 0.0629733 0.526904 0.21368569
000050 4c c7 b4 3d c7 96 1b 3f df c9 29 3f 86 e8 0a 3f
       0.08827075 0.6077694 0.66323656 0.5426105
000060 c8 ac 7e 3d 50 83 bf 3e db 90 0b 3c 5d 81 b4 3e
       0.062176496 0.3740487 0.008518423 0.35254946
000070 37 eb a2 3e 5f b5 c6 3e dc 52 20 3f b2 bd 9c 3e
       0.3182008 0.3881025 0.62626433 0.30613476

running_mean f4 [32]
000000 37 d7 e1 bf 7e 4d 64 be 2e 5d 0c bf 64 e6 d7 bf
       -1.7643803 -0.22295186 -0.5482968 -1.6867185
000010 fd 95 0c bf e5 5d e3 be f6 3e 3f 3f fa 25 8b bf
       -0.54916364 -0.44407573 0.74705446 -1.0870965
000020 56 bc 84 bf 90 e7 5e 3f 94 b0 03 bf 62 b0 21 bf
       -1.0369976 0.87072086 -0.5144131 -0.63159764
000030 06 cd 66 3f 0f 4f 8f bf e2 7e 3e bf b7 65 1e bf
       0.9015659 -1.1196002 -0.7441236 -0.61873955
000040 d0 cc c6 be b5 d2 90 3d 24 9c db 3f d6 a9 c8 3d
       -0.38828135 0.07071439 1.7157025 0.09798019
000050 e8 3f 74 bf 99 ff d1 bf 35 7a 76 bf 6f 74 e5 be
       -0.95410013 -1.6406127 -0.96280223 -0.44815394
000060 61 60 c5 3e 0c 31 cc 3e 90 6a 84 be 11 35 19 be
       0.38550094 0.3988117 -0.2586255 -0.1496165
000070 87 03 8e 3f 10 ba 13 bf cf 91 e7 be 8d 5e 06 be
       1.1094826 -0.57705784 -0.4522843 -0.13122006

running_var f4 [32]
000000 7f 32 84 3e 3b dd a9 3e 52 af 95 3e 98 ad 05 3f
       0.25819775 0.33176598 0.2923532 0.5221801
000010 72 6d 5c 3e fb 9c a8 3e dc 48 c4 3e 17 6c 2f 3f
       0.21526125 0.32932267 0.38336837 0.68524307
000020 4d e9 33 3e a9 74 ca 3e d0 8c f3 3d 1e a8 92 3e
       0.17569466 0.3954213 0.11892092 0.28643888
000030 d0 b6 9d 3e 45 0d a2 3e 13 3a 97 3e 12 3e 49 3e
       0.30803537 0.3165075 0.29536495 0.19652584
000040 15 52 8d 3e 72 66 8b 3e 3a 82 0b 3f 04 e5 76 3e
       0.27601686 0.27226597 0.54495585 0.241108
000050 b5 e4 62 3e 81 1b e8 3e c6 58 14 3f f3 0b 49 3e
       0.22157557 0.45333484 0.5794796 0.19633465
000060 33 d1 37 3e e6 b8 88 3e 6e 9b 03 3e 4d b9 fe 3d
       0.17950897 0.26703566 0.1285226 0.12437687
000070 ca 5c c3 3e 75 cd af 3e bd 8b 2f 3e bb 72 c1 3e
       0.3815673 0.3433644 0.1714315 0.37782845

weight f4 [32, 32, 3, 3]
000000 98 4b ae 3c ac 75 a7 3c dc 83 32 3d 9d ea 09 3c
       0.02127628 0.020441853 0.043582782 0.008417753
000010 58 c3 22 bb b5 dd 4e 3c b4 97 b3 bc 71 8a 1b bc
       -0.0024835672 0.012626101 -0.021922924 -0.009493456
000020 7d 48 67 3d 66 8b 1e bb 19 3e ce bb c7 be c1 bb
       0.056465615 -0.0024191975 -0.0062940237 -0.005912635
000030 84 b7 3b bd c6 05 4a bd bf 6e 7a bc 06 5e 31 bc
       -0.04582931 -0.049321912 -0.015285193 -0.01082564
000040 5e 9b 02 bd 22 97 ce bb 6b 9a 2d 3d 5c 4f f4 ba
       -0.03188645 -0.0063046375 0.042383593 -0.0018639374
000050 87 ac 87 3d be 4c a3 3b e2 0c 4d 3c bd 03 a8 3d
       0.06624704 0.0049835136 0.0125152785 0.08203838
000060 e8 af a5 3d ad 1d 07 3c c7 55 c3 3d 07 bc e9 3d
       0.08090192 0.008246821 0.09537845 0.114128165
000070 f8 10 dc 3d cf b4 a2 3d 52 88 61 3d 44 18 a8 3c
       0.10745424 0.07944643 0.055061646 0.020519383
000080 4c a7 c1 bb 40 6b 3e bc 33 58 ae bc 73 d3 d7 bb
       -0.005909836 -0.01162225 -0.021282291 -0.006586486
000090 d3 ee 1b bd 88 75 36 bd 60 a7 bf bd fa 44 3f bd
       -0.038069557 -0.04454568 -0.09358096 -0.04669664
0000a0 31 9c ed bc ed d6 88 bd 19 21 21 bd 0b 25 8b bc
       -0.029005142 -0.06681619 -0.039338205 -0.016985437
0000b0 7a 6f 8d bc a3 24 ac 3d 8b f6 47 3d 9b 18 d5 3c
       -0.01726507 0.084054254 0.048819106 0.02601271
0000c0 a7 10 40 3d 90 f8 c2 3c b3 87 09 3d a7 19 cc 3d
       0.04689088 0.023800164 0.03357668 0.0996583
0000d0 bf be b0 3d 7d 55 1b 3d 35 4c 5c bd 4a 08 6c bd
       0.08630132 0.037923325 -0.053783614 -0.057625093
0000e0 ff 79 12 3d 71 fc 91 bd 1e c3 de bc 9a ae 20 bc
       0.035760876 -0.071282275 -0.027192649 -0.009807253
0000f0 e4 f5 9d 3b 25 71 8c bd dc 32 94 bd ce 9d 5b bd
       0.004820572 -0.06857518 -0.07236263 -0.05361729
000100 24 8e db bc c0 82 f9 ba c5 d4 3f bd f3 9a 86 3b
       -0.026801176 -0.0019036159 -0.046833772 0.004107827
000110 81 12 23 bb ca 5b d4 bb 4d 9a 15 bd 9f ea c2 3c
       -0.0024882855 -0.0064806687 -0.036524106 0.023793517
000120 78 cf b2 bb 1e 64 02 ba 0f 9e ec bc 0b 93 db bc
       -0.005456861 -0.0004974025 -0.028883962 -0.026803514
000130 bc 1c 14 bd 6e b0 f3 3b 61 55 69 bd 92 bf 22 bd
       -0.036160216 0.0074368035 -0.05696619 -0.039733477
000140 a3 aa 82 3d 95 79 0b 3d 48 f4 0b 3c 89 a9 43 3d
       0.063802026 0.034051497 0.008542128 0.047769103
000150 72 6f b4 3d ac a9 22 3d 36 01 83 3d 50 d9 ff 3d
       0.08810319 0.039712593 0.06396715 0.12492621
000160 e4 ea 91 3d 2b ad c6 3d dd d2 27 3d b7 cd 24 3d
       0.0712488 0.09700998 0.04097258 0.040235247
000170 ea 8c 14 3d e5 5e c9 3c 3d cf 9a 3c 08 07 6b 3d
       0.0362672 0.024581382 0.018897647 0.057379752
000180 8f 3c 9d 3d 5c 69 2b 3d a3 dd cc 3d a8 c8 26 3d
       0.07677566 0.041848525 0.10003211 0.040718704
000190 17 c9 09 3d a1 d8 73 3d 3b 46 e9 3c 4d fe ac bb
       0.03363904 0.059532765 0.028475871 -0.0052793385
0001a0 f3 e5 94 bb 9e 74 fe 3c f5 38 06 3a c5 fc 04 bc
       -0.0045440136 0.031061467 0.00051201816 -0.008116906
0001b0 3d 57 2b bc 97 a1 4b bd 04 40 d1 bc 3b 55 82 bc
       -0.010457811 -0.04971465 -0.02554322 -0.015909782
0001c0 7c ea 41 bd 76 3c 94 bc 26 18 a2 bc 43 32 a0 3c
       -0.047342762 -0.018095236 -0.019786905 0.019555217
0001d0 1c 2b 50 3d 7b 48 dd 3b a1 6d 32 bc b9 98 f2 bb
       0.050822362 0.006753025 -0.010890395 -0.00740346
0001e0 44 87 10 bc f3 1c cc 3c 5c 29 4f 3b 4d 5d 93 bd
       -0.008821312 0.024916148 0.0031610345 -0.0719553
0001f0 5d 87 3f bd 14 16 d8 3c 7a d8 0c bd a1 33 67 3c
       -0.04675995 0.026377715 -0.034386136 0.01411143
000200 d3 80 35 3d 06 e1 7e 3c dd 5a 83 39 5d 1b 42 3c
       0.04431231 0.015556579 0.00025053966 0.011847344
000210 12 e9 11 3c 03 80 ee bc 5d 84 78 bd 23 39 5a 3c
       0.008905666 -0.029113775 -0.060673106 0.0133192865
000220 a4 c4 80 bc ed 77 42 bd 4a 47 f9 3c 61 aa 65 3d
       -0.015718766 -0.04747765 0.030429501 0.05607069
000230 c6 c9 c8 3c ad ee c0 bc 78 96 79 3c 05 f7 f7 3b
       0.024510276 -0.02355131 0.015233628 0.007567289
000240 d1 6c e7 bc 6b 0f a5 bc 46 0b 84 bb fd df f0 bc
       -0.02825013 -0.020148953 -0.004029664 -0.029403681
000250 3a 8d 08 bd c2 8b dc 3c 7d 63 a2 bd aa 78 aa bd
       -0.03333781 0.02692211 -0.07929132 -0.08323796
000260 8a 81 80 bd 13 16 84 bd a1 2f f9 bc d3 f0 34 bd
       -0.062747076 -0.06449523 -0.030418219 -0.04417498
000270 5c 9b 73 bd 4f f8 cf ba eb e2 d7 3b dd ae 90 bd
       -0.059474334 -0.0015866848 0.00658833 -0.070646025
000280 f0 31 1b bd ed 25 e6 bb 57 5b 64 3d 18 02 e4 3c
       -0.03788942 -0.007023564 0.05575117 0.02783303
000290 09 5b 91 3d 88 2f 94 3c ac 76 13 3c 50 05 59 3b
       0.07097442 0.01808907 0.009000462 0.0033114739
0002a0 6a 91 d8 3d b7 1f 2e bb 84 43 21 3c 26 60 5e bc
       0.105746105 -0.0026569196 0.009842757 -0.013572728
0002b0 2b ed 51 bc 90 45 8b bd 1b ae cf bc 5c f2 74 3b
       -0.012812893 -0.06800377 -0.025351575 0.0037375903
0002c0 01 56 80 bc fd 16 a9 bc ba 5f 10 bd 2b b3 97 bd
       -0.01566601 -0.020640844 -0.035247542 -0.074072205
0002d0 17 cb b3 3c bb bf 86 3c 82 04 d7 ba 5e 39 73 bc
       0.021947427 0.016448846 -0.0016404542 -0.01484522
0002e0 18 f6 cc 39 15 f0 cb bc 08 34 ba bc 0e 9a 8b bc
       0.00039093266 -0.024894753 -0.022729889 -0.017041232
0002f0 8d fe 3e bd d0 35 08 bd 15 63 79 bc de 11 58 bd
       -0.046629477 -0.033254445 -0.015221377 -0.052751414
000300 2c aa 68 3c c3 94 a0 3c 3c 37 99 bc 4f 89 3b 3c
       0.014200728 0.019602185 -0.018703096 0.011446311
000310 fa 50 93 3c 82 41 4e 3c 9a ce 13 bb 63 e5 f9 3a
       0.017982949 0.0125888605 -0.0022553564 0.0019065555
000320 91 28 a5 3c fa 22 75 3c 21 3a e5 3c c3 39 7d 3c
       0.020160945 0.014961952 0.02798182 0.015455666
000330 30 a4 0e bb b7 10 77 3c a8 ae e5 3c 0a 86 c7 bc
       -0.0021765344 0.015079669 0.028037384 -0.024355907
000340 3e 6a 8b bc 94 6a 31 bd 4a d0 ac 3c 7e df 3c bc
       -0.017018434 -0.04331453 0.021095414 -0.011527894
000350 e5 63 c5 3c 2f cf 71 3a 30 5f 4b 3d e5 62 6c 3d
       0.024095485 0.0009224293 0.049651325 0.0577115
000360 6c b0 8f 3c 0b 27 00 bd c2 0a 86 bd d3 67 b8 3c
       0.01754018 -0.031287234 -0.06545021 0.022510445
000370 7d ad 16 3b 99 84 fd 3a 2e 07 e8 3c a7 ec 83 bc
       0.002299159 0.0019341885 0.028323736 -0.016104056
000380 f5 c5 5e 3d 49 70 cd 3c a6 85 3b 3d 70 9b 60 bc
       0.054388005 0.025077956 0.045781754 -0.013708934
000390 ce b8 13 3d 18 b3 96 3c 87 04 b5 bc 67 97 91 3d
       0.036064915 0.018395945 -0.022096885 0.07108956
0003a0 78 93 56 3c ca 17 53 3c 7b ba c2 bc d5 08 dc 3c
       0.013096683 0.01288409 -0.023770561 0.02685968
0003b0 b2 2c 8f bc ee 50 81 bb e2 ed 2a bc 5c 74 be bc
       -0.017477367 -0.003946415 -0.010432692 -0.023248844
0003c0 ff 24 7b 3c 90 e2 89 3c 6e cd a9 bc 70 88 ae bc
       0.015328645 0.016831666 -0.02072784 -0.021305293
0003d0 60 c1 1c bd 30 fe 39 bd e8 7b c9 3b 30 5b 8d 3a
       -0.038270354 -0.045408428 0.006148804 0.0010784622
0003e0 14 13 64 bc 5c e4 52 3d 9c 02 8d 3a 15 90 2c bd
       -0.013920564 0.05148731 0.0010758224 -0.042129595
0003f0 11 5a 2c 3c cd 34 81 3c 9a ac 3e 3d 94 79 20 bd
       0.01051952 0.015772248 0.046551324 -0.039178446

bias f4 [32]
000000 20 81 66 3d de 09 9f bd 46 b1 97 bd 55 d5 67 3d
       0.056275487 -0.07765554 -0.07406859 0.056599934
000010 5d 47 43 3d dd d8 70 3b b0 7c 25 bb 51 c8 59 bd
       0.04767548 0.0036750354 -0.0025251321 -0.053169552
000020 e0 5a 6b 3c d6 8a 9e bd 74 f1 42 bd f5 4d ad 3d
       0.014364928 -0.077413246 -0.04759355 0.08462135
000030 7c 70 97 3d 1d f1 88 bd 5b c9 77 bd 78 f8 3a bc
       0.073945016 -0.06686614 -0.060494762 -0.011411779
000040 57 14 ec bc 6b 4c a3 bc 10 29 bb bc 53 73 b3 3d
       -0.028818293 -0.0199339 -0.022846729 0.08762231
000050 e7 c5 92 bd 71 a9 08 bd 81 27 2e bc 59 77 12 3d
       -0.07166653 -0.033364717 -0.010629536 0.03575835
000060 2c 6d 18 3d 64 f2 cd 3c 8b 6d 2e bd 44 87 1d 3b
       0.03721349 0.025139995 -0.042584937 0.0024036923
000070 e2 94 66 bc 60 21 57 3d 0f 51 9c bc 69 61 ec bc
       -0.014073582 0.052522063 -0.01908162 -0.028855043

weight f4 [32]
000000 c9 b0 7a 3f a4 a3 99 3f fe 8a a0 3f 59 92 87 3f
       0.97926 1.2003064 1.2542417 1.0591537
000010 55 42 6c 3f ca f3 75 3f 05 73 69 3f 80 6b 70 3f
       0.92288715 0.9607512 0.9119113 0.9391403
000020 dd 58 79 3f bb 7a 83 3f cf 7a 87 3f cc ba 6d 3f
       0.9740122 1.0271829 1.0584353 0.92863154
000030 a2 95 20 40 66 0e a6 3f bb e0 73 3f 23 a9 92 3f
       2.5091329 1.2973144 0.95264786 1.1457866
000040 98 12 74 3f a8 00 7f 3f 9b a9 7d 3f e2 be 74 3f
       0.9534087 0.99610376 0.9908692 0.95603764
000050 2b 8f 77 3f 42 e6 82 3f ee b5 7a 3f 14 1d 7b 3f
       0.9670283 1.0226519 0.9793385 0.98091245
000060 8f c6 81 3f fd 94 a4 3f 4f b8 67 3f fa 2c 7d 3f
       1.013872 1.2857968 0.9051561 0.98896754
000070 21 bf 6f 3f 1e 34 80 3f 9a 06 7e 3f d5 04 79 3f
       0.93651015 1.0015905 0.99228823 0.97273

bias f4 [32]
000000 8b 43 a1 3e 91 bc d2 3d 03 48 1d 3e cc c5 6a be
       0.31496844 0.102898724 0.15359502 -0.22927016
000010 90 8a b7 3d 79 59 29 3e d0 0d 43 3f cb 9d 01 bf
       0.089619756 0.16538037 0.7619295 -0.506314
000020 3b 61 3d 3e d2 c2 aa 3d 99 b9 04 bd 01 28 db be
       0.18494122 0.0833794 -0.032403562 -0.42803958
000030 d8 ec 25 bf 4d a6 43 3e 55 0b 25 3e 4e 33 6a 3e
       -0.6481452 0.19106407 0.16117604 0.22871134
000040 4a d1 41 be 17 48 dc bd a6 0a 12 be 6b 98 11 be
       -0.18927494 -0.107559375 -0.14261875 -0.14218299
000050 ee a1 3b 3e c5 1b 10 3e 11 20 a8 3e 0c e5 c6 be
       0.1832349 0.14073093 0.32836965 -0.38846624
000060 50 21 ae 3e 7a 97 e7 bd 12 06 d9 3e cc d6 28 be
       0.3400979 -0.11308189 0.42387444 -0.16488189
000070 49 e3 1a bf 5e 34 c0 3d 7e ee 1a 3e 5f 0a 4d be
       -0.6050306 0.09384988 0.1513004 -0.20023488

running_mean f4 [32]
000000 fc f3 28 3f 60 b8 87 be 91 80 78 be 2c 6f 4f 3e
       0.6599729 -0.26507854 -0.24267794 0.20257252
000010 62 d5 d9 3e 63 dd 75 be f6 21 14 bf 90 d9 05 be
       0.4254561 -0.24010234 -0.5786432 -0.13071275
000020 da 8d 8d 3e 87 11 11 be 16 4c 89 be c8 e0 9f 3f
       0.27647287 -0.14166842 -0.2681586 1.2490473
000030 81 20 0f 3f 26 8b 84 bf 10 87 ce 3e 5b a4 35 3d
       0.5590897 -1.0354965 0.4033742 0.044346195
000040 d6 de 8f be 01 ff 1b 3d 31 d7 61 3d 65 f2 4d 3e
       -0.28099698 0.038084988 0.055136863 0.20111997
000050 ce e8 31 bd c9 67 ef 3b 00 ed 26 3e 77 78 68 bf
       -0.04343491 0.0073060733 0.16301346 -0.90808815
000060 32 61 55 3e 40 f3 3c bf 45 d7 91 3e 6f a2 7e 3e
       0.20837858 -0.7380867 0.2848455 0.24866651
000070 08 7d 71 3e b4 46 8d be d4 39 45 3d 59 af fe bd
       0.23582852 -0.27593005 0.048150852 -0.12435789

running_var f4 [32]
000000 e4 86 4d 3e d5 71 35 3e 2a 73 12 3e e3 15 8f 3e
       0.20070988 0.17719205 0.14301744 0.27946386
000010 e5 5d ff 3d 39 3c 3e 3e 3d 6a 18 3e f5 49 11 3e
       0.12469081 0.1857766 0.14884277 0.14188369
000020 ab af d4 3e 9c 90 48 3e a5 21 40 3e 30 26 6a 3e
       0.41540274 0.19586414 0.18762834 0.2286613
000030 73 0c c8 3d 8e 5d b2 3d d8 28 67 3e e9 06 41 3e
       0.097679995 0.087092504 0.22574174 0.18850292
000040 fb 22 96 3d f9 b6 2a 3e 83 4e 29 3e 0d d7 dd 3d
       0.07330891 0.16671361 0.16533856 0.10832033
000050 dc 63 82 3e 89 b2 11 3e a9 d1 e1 3d d2 cb 3b 3e
       0.25466812 0.14228262 0.110263176 0.1833947
000060 a4 2d 48 3e 9b f0 d9 3d ac 27 59 3e ba 0e 04 3e
       0.1954866 0.10641595 0.2120654 0.12896243
000070 75 f7 6c 3e a5 54 48 3d 6d ef 7b 3e 6a e5 2d 3e
       0.23141272 0.04890885 0.24603052 0.16982046
