TuiGAN/models/horse2zebra/ba2.pth (torch, 233612 bytes, 46 tensors)

weight f4 [32, 3, 3, 3]
00000000: dd55 b23c ee16 acbc 69d8 06bd 12cf 6dbc
00000010: fdb3 083d 4755 60bc fe89 123d 3d04 4f3d
00000020: 9137 553d 5421 edbc f909 b8bb d5db cabc
00000030: 854c 0f3b 1784 1c3c ce3d 55bc 92b1 99bb
00000040: 0c13 bdbc befb d1bc 52a7 b53c e107 27bd
00000050: bd23 88bd a206 1f3d 28eb 0cbd d021 59bc
00000060: 980c 053d 2ca1 c83c 0678 3fbd de9f a0bd
00000070: aeec 5cbd 0788 eabb c449 12bd 372e 68bb
00000080: 0f10 babc 10e6 333c b998 af3d c868 783c
00000090: 8372 5cbc e255 8ebb 403b 4f3d a9c2 e83c
000000a0: 9d00 d63c 162a dc3c 472b 113d eb26 fe3d
000000b0: f325 703d e021 09bd 9670 90bc 842a 09bc
000000c0: 87d6 873c 564d a63c 8d4a 673c 5ca4 333a
000000d0: f8da 803d 1860 963c 341b d23c 7697 9ebc
000000e0: 6f7a f03c e251 d23c e6dd 6f3c 3299 e93c
000000f0: f911 133d 4695 933c 3b81 283d 44c8 263c
00000100: 7f13 80bc f304 6c3d 72a4 903c b35a 47bc
00000110: ee97 413d 9231 283c 4ac9 773c 166a ce3c
00000120: 9707 7e3d 1abf 63bc 50f0 403d c756 9e3c
00000130: b652 0dbd 1788 213d c7ea 0d3d c9d6 50bc
00000140: 278a 053c c585 19bd b650 f8bb d4ba 393c
00000150: a75f df3c 95a8 80bc 72fc 9abc 5c09 2abd
00000160: a2c5 eabd 8f32 21bd 114b b0bb 4461 6cbc
00000170: 3da1 8e3d 6894 df3b 5b2f 1b3d 32e6 8f3d
00000180: eb7f a9bc dc6b 06bd 22b2 b43c eac7 7e3b
00000190: d184 d83b 290b d7bc 3c18 0c3d f144 553d
000001a0: 868b 013c 52b5 1dbb f67d 7abb c246 06bd
000001b0: cda2 a03c 0d7f a6bc e10a 8ebc aab3 a8bb
000001c0: ddc9 d23c 9202 b43c 4935 48bc 6183 803b
000001d0: 81aa ae3c ebe8 0dbd a558 fbba 237a 9abd
000001e0: 6afa c0ba 37df 613c f7ce 5e3b 496c d6bc
000001f0: 99d4 30bd 7a0b a2bc f6e7 323d e9ae c2bc
00000200: e2df 46bb 2d25 39bc 39b7 0abc b095 e83c
00000210: 5a00 f3bc 0f35 efbc b53c 8f3d 41a7 823b
00000220: aebe 5fbc 5eb0 fbbc aa65 0c3b eb73 7e3a
00000230: a01b febc 41d2 493d 9a82 e6ba f3bd 81bc
00000240: 1123 793b 4ac6 0f3c fcb8 05bd 4149 9c3c
00000250: 33ac 463d 6d10 abbc 6ed5 643d 6f24 813c
00000260: 5014 cfba a9b9 233d 99ae 243d aec7 183c
00000270: a36e e23c cf8f b33d 246c 853b 7cb0 823d
00000280: 668b 9a3c 47c9 eb3c 01c0 b23c 19f8 203d
00000290: 8c54 313d 18a8 023d 9529 b43c c2cc 08bb
000002a0: 0819 823d 76c3 283d f206 fa3c 86cc a23d
000002b0: 6dcf 653d c60f bc3d c560 063d 29fb c73c
000002c0: bbe3 213d 1648 b13d 0839 d53c 37c4 ba3d
000002d0: 3917 b23c a057 f7bb 8669 ecbc ec26 f83b
000002e0: 390d c5bc 239a 17bc 802f de3b 0776 9a3b
000002f0: 6afd f7bc bdbf 1b3c c33b b1bb c542 573d
00000300: 62a2 303c eecf 503a fceb 82bc fc1f 2f3b
00000310: b660 6b3d 957c 1bbd e418 e9bc 1b41 d2ba
00000320: a684 843d c515 253c 56e8 943b 112e 94bc
00000330: bc9e ff3b 8f94 4c3d 5e85 a0bc 2e07 bcbc
00000340: 0b52 39bb 0847 763d 624c 323c f775 0e3c
00000350: 6209 3ebd b3dc adba e94a 913c 32c9 38bd
00000360: 647e 833c 51e7 143d 0f99 9a3b 51fa 003d
00000370: e537 6d3d d224 d63c ae72 b4ba b860 4ab8
00000380: 730b 8c3c feca 0f3c bcf3 883b ba08 dbbc
00000390: d5b4 a83c b037 0bbd 33e8 363c d7de 8cbd
000003a0: c1ba 15bc 24f6 e9bc c7fd b53b 4291 69bd
000003b0: 9b69 853d e45d 75bc 9c83 803d 632e bc3c
000003c0: fa1b 43bc f70e 94bd fa65 08bd 2e76 9438
000003d0: 3780 e4ba b191 2a3b f013 6c3c b35d 3bbd
000003e0: d4fd 82bd ae25 1e3d 7003 87bc cfc5 16bd
000003f0: 5d7a b03b 4603 b4bc 9060 28bc 37e1 0e3d
0.021769458 -0.021007027 -0.03292123 -0.014514701 0.033374775 -0.013692207 0.03577613 0.05054115
0.052054945 -0.028946556 -0.005616423 -0.024763027 0.0021865678 0.009552977 -0.013015224 -0.0046903575
-0.023080371 -0.025632735 0.022174511 -0.040779 -0.066474415 0.038824685 -0.03440395 -0.01325269
0.032482713 0.024490915 -0.046745323 -0.07842992 -0.053936653 -0.007157329 -0.03571488 -0.0035427937
-0.022712735 0.010980144 0.085740514 0.015161701 -0.013455036 -0.004343734 0.050593615 0.028413134
0.02612334 0.026875537 0.035441663 0.12409767 0.05862994 -0.03347957 -0.01763181 -0.008371953
0.016581787 0.020300549 0.014116895 0.00068527996 0.06291765 0.018356368 0.025647737 -0.019359332
0.029355256 0.02567381 0.014640307 0.028515432 0.035905812 0.018015515 0.04113887 0.010179583
-0.015634296 0.057621907 0.017656539 -0.0121676205 0.047264032 0.010265725 0.015123675 0.02519707
0.062018957 -0.013900543 0.04710418 0.019328488 -0.034502707 0.039436426 0.03464773 -0.012746521
0.008150614 -0.03748109 -0.007577981 0.011336047 0.02726729 -0.015705386 -0.018919203 -0.041512832
-0.11463477 -0.039354857 -0.0053800424 -0.014427487 0.069643475 0.0068231113 0.03788696 0.07026328
-0.020690879 -0.032817706 0.022057597 0.0038876482 0.00660763 -0.026250439 0.0342028 0.0520677
0.0079068 -0.0024064374 -0.0038222051 -0.032782324 0.01960888 -0.020324254 -0.017339172 -0.0051483708
0.025731022 0.021973882 -0.012219735 0.0039219116 0.021321537 -0.034645956 -0.0019176198 -0.07542827
-0.0014723067 0.013786129 0.0033997872 -0.026174681 -0.0431715 -0.019780863 0.043678246 -0.023765044
-0.0030345847 -0.011300367 -0.008466535 0.028391689 -0.029663254 -0.029200105 0.06994001 0.0039872234
-0.013656301 -0.030723747 0.0021422901 0.0009706604 -0.031019032 0.04927278 -0.001758653 -0.015837645
0.0038015286 0.008775303 -0.032647118 0.019077899 0.048504066 -0.020881856 0.055867605 0.015764443
-0.00157989 0.03997198 0.04020557 0.009324951 0.027640646 0.08767664 0.0040717293 0.06381318
0.018865298 0.0287825 0.02182007 0.039299104 0.04329352 0.031898588 0.021992484 -0.0020873998
0.063524306 0.04120203 0.03052089 0.07949166 0.05610602 0.09182696 0.03280713 0.024411755
0.03952382 0.086563274 0.026028171 0.09119456 0.021739589 -0.0075482875 -0.028858911 0.007572999
-0.024054157 -0.009253058 0.006780565 0.004713777 -0.030272204 0.009506163 -0.0054087355 0.05255391
0.010780903 0.0007965554 -0.015981667 0.0026721945 0.057465278 -0.037960608 -0.028454252 -0.0016041131
0.06470613 0.010075991 0.004544298 -0.018088372 0.007800905 0.049946364 -0.019594844 -0.022952642
-0.0028277661 0.060126334 0.010882469 0.008695117 -0.046395667 -0.0013264626 0.017735915 -0.04511375
0.016051479 0.036353413 0.004717953 0.03148872 0.057914633 0.026140604 -0.0013767087 -4.825063e-05
0.017095303 0.008776424 0.004179446 -0.02673756 0.02059404 -0.033988655 0.011163759 -0.06878441
-0.009138764 -0.028559752 0.0055539343 -0.057023294 0.06514283 -0.014975999 0.062751025 0.022971338
-0.011908526 -0.07229417 -0.033300377 7.0792026e-05 -0.001743323 0.002602678 0.01440905 -0.045743655
-0.0639607 0.038610153 -0.016481131 -0.03680974 0.0053856806 -0.021974217 -0.010276929 0.03488275

bias f4 [32]
00000000: e3be 6d3d 5a42 bebd 5f19 403e 94a6 39bd
00000010: e001 afbd 95a8 cc3d 76e2 2e3e ed8d 1b3e
00000020: ef64 ab3d ea58 2dbe a41f 2fbe 5fa7 f73c
00000030: 94a0 afbd 8212 053e 209b 1abd 45c8 cbbd
00000040: 32fb 153c c74b b8bd c15b 203e 2661 19bd
00000050: 2bae 1dbe 72e9 5d3e 0693 953a cef1 773d
00000060: c978 d4bd c4c2 c8bc 9ceb 383e f265 25be
00000070: 54d6 e3bd 16e9 853d 0995 14be c456 49be
0.058043372 -0.09289999 0.18759678 -0.045324877 -0.085452795 0.09993092 0.17078575 0.15190859
0.08368861 -0.1692845 -0.17101914 0.030231176 -0.0857555 0.12995341 -0.037745595 -0.09950308
0.009154128 -0.089988284 0.15660001 -0.037446164 -0.15398471 0.21671084 0.0011411614 0.060533337
-0.103746004 -0.024506934 0.18058628 -0.1615217 -0.11124864 0.06538598 -0.14509977 -0.19662005

weight f4 [32]
00000000: ad72 7a3f 3f46 853f 5ba3 813f 5b2c 723f
00000010: 535d 823f 6cc6 803f 728f 843f 73c8 8c3f
00000020: 5a3e 713f dbaf 823f 1e25 823f 86ff 813f
00000030: 6b0c 753f 48ab 8a3f f102 853f be30 833f
00000040: d970 893f bb5c 643f 7daa 803f 0874 7a3f
00000050: f1a4 7f3f 5b76 753f 3464 7e3f 7965 813f
00000060: dedc 7a3f 7387 833f 3e43 6a3f 6497 8b3f
00000070: c3bf 6e3f edcc 7f3f c519 7f3f d884 7f3f
0.9783123 1.0412062 1.0127977 0.9459893 1.018473 1.0060554 1.0356276 1.0998672
0.94235766 1.0209917 1.0167577 1.0156105 0.95722073 1.0833521 1.0391523 1.024925
1.0737563 0.89203995 1.0052029 0.978333 0.99861056 0.9588372 0.9937165 1.0109092
0.97993267 1.0275711 0.91508853 1.0905576 0.93261355 0.99922067 0.99648696 0.9981208

bias f4 [32]
00000000: f2b0 83bd 79de f0bd 5bae debd e1a8 95bd
00000010: 63fc edbd 7ad5 c1bb 6235 9fbd 3b01 463d
00000020: bdcf 823e e85d 763d dd1e 6d3d e6b2 39bd
00000030: dd24 52bd b831 933d c887 9bba d130 1a3d
00000040: 767e 433c 521f 833e c453 8bbd 92a9 ccbd
00000050: abd1 a5bd 7094 56bd b050 d1bc d7ab 85bd
00000060: c10e abbd 9a47 bd3d 7009 5cbd d223 05bd
00000070: b37d bb3d 4ba9 ee3c f112 a8bd 3d8a 6e3e
-0.06430234 -0.11761183 -0.108730994 -0.07307602 -0.116204046 -0.005915341 -0.07773854 0.048341017
0.25549117 0.06014815 0.05789076 -0.045336626 -0.051304687 0.071872175 -0.0011866027 0.03764421
0.011932006 0.25609833 -0.068030864 -0.099932805 -0.080966316 -0.052387655 -0.02555117 -0.065269165
-0.083524235 0.092421725 -0.053719938 -0.032504864 0.091548346 0.02913346 -0.08206738 0.23294921

running_mean f4 [32]
00000000: c934 a93d 6db6 0dbe cd63 fe3d 9694 5dbd
00000010: 9525 9fbd f0ae 853c c5b5 e73d 9dc2 143e
00000020: 2a58 bc3d 0ed3 29be 9965 8dbd 56dc 7a3d
00000030: 19c0 08be 3f06 003e 0873 88bc 1e51 d7bd
00000040: 2124 b23c d5eb cfbd 86b0 933d 798d 2cbd
00000050: e158 28be 7048 803e b45e 16bd c852 b53d
00000060: 9f60 2dbd d647 9ebc d758 103e 3fa7 1dbe
00000070: 0d90 96bd 9588 943d d0d0 7abd 68cf 33be
0.08262021 -0.13839121 0.12421379 -0.05409678 -0.0777084 0.016318768 0.11313967 0.14527364
0.091965035 -0.16584417 -0.06904144 0.061245285 -0.1335453 0.12502383 -0.016656414 -0.10513519
0.021745743 -0.10152403 0.072114035 -0.042127106 -0.16440155 0.25055265 -0.03671141 0.0885368
-0.042328473 -0.019321363 0.1409639 -0.1539583 -0.07351694 0.072526135 -0.061234295 -0.17559588

running_var f4 [32]
00000000: f240 2e3b 5352 5e3c 11cd ac3c d929 0e3b
00000010: a708 053b 7820 753c 793a 493d e99e 3f3b
00000020: 3146 c43a 9633 a33b aafc 1e3d b0db ef3b
00000030: 3923 173c 8f66 823b 7f7f cf3a 9a6d 5e3c
00000040: cb69 4d3b 51f4 913a ccb5 de3c 185b f63a
00000050: c4a1 033c 0d68 093b cad9 613c ab4a c13b
00000060: 4b05 213d d6b3 543b 68a1 c03a cc7b 7d3b
00000070: 7912 0b3b 5cbd ce3a dd0b bd3b fb49 033b
0.0026589003 0.013569432 0.021093877 0.0021692424 0.0020299347 0.014961354 0.04912803 0.0029239005
0.0014974532 0.0049805148 0.038815178 0.00731989 0.009224706 0.003979511 0.0015830843 0.013575936
0.0031343575 0.0011135434 0.027186297 0.0018795459 0.008034173 0.002096656 0.013784835 0.0058987937
0.03931169 0.0032455823 0.001469654 0.0038678525 0.0021220727 0.0015772986 0.0057692365 0.002003311

weight f4 [32, 32, 3, 3]
00000000: 16c3 ab3c e151 4d3c 8000 573d 190c 42bc
00000010: 08cd 0a3d 460f 113c ab28 a13c bc22 bc3c
00000020: 14ff 683d ba92 0fbc b553 3e3d 6256 753d
00000030: 7a8d b8bc 534f dcbc bb1c 93bb 2b4b 1abd
00000040: c7b4 a3bc 575c 14bd 52d4 a73c 8e2e 63bb
00000050: 370d 293d 44e3 aa3c 765e 89bd c090 633d
00000060: 7651 aa3b aafb 99bd 17d7 103c 1750 5fbc
00000070: 4486 cabc e3c3 173d 380b 5fbd 5306 7abd
00000080: b680 46bc 8488 8dbb d949 41bc 1e2e 6d3c
00000090: b5ba a639 b818 003d 891e 743d 7b1f 97bc
000000a0: 2c82 f03c 80d2 243d 3876 093c 5fd1 5d3b
000000b0: 52ec b63c 7022 513d 8919 063d 7840 3fbd
000000c0: de75 273d 6119 fe3c fcac 20bd 6067 3f3d
000000d0: 146d b03c f6d0 b43c 6e14 33bd c743 19bb
000000e0: 1f10 4e3d 1a9a 78ba 5adb 5c37 e632 943c
000000f0: 4192 adba f688 a1bd 30b0 eebc d833 3bbd
00000100: e4d5 6c3c 7185 18bc 49aa d0bb 045e b2bc
00000110: 1495 943c d671 493d d5ec 833c e9f8 8bbc
00000120: 539f 00bd 3633 94bc 4544 e9bc 6d18 443b
00000130: 9d2b ac3a d9f0 dbbc b1c9 b1bc 356c 27ba
00000140: a0cc 11bd c1de a4bc 36af 7abc 530d 00bd
00000150: 555c bcbc 50e9 59bc 2c4d 22bd 945e 083a
00000160: 70ba 88bc eaaf dc3c e3fa 493d 9271 3c3d
00000170: fdb3 6f3d 9aa8 1a3d 9826 c2bc 14b9 c03c
00000180: 0113 2fbd e6e2 43bc c1f9 e43a e877 3cbc
00000190: 2993 e13c 5eb8 8e3d 301a 8cbc d8d2 0d3c
000001a0: bfd0 5f3d 68e4 d7bc e436 273d e0ea bf3c
000001b0: 3e22 99ba 8b33 44bd bddb 123a 1884 54bc
000001c0: 38fd aa3c 8581 88bd 16db 95bb 087e 783b
000001d0: f8af 74bc 78fd 213d 7eb0 533c 55aa fb3c
000001e0: 6be1 46bb dd88 1abd dbb9 d3bd 4b86 dd3c
000001f0: 983b f2ba a3a7 56bc e7d1 37bd d527 d1bc
00000200: 17b9 a7bc 8b62 80bd c8f6 4cbc 1203 9fbd
00000210: d686 e5bc 1f2b 3a3b 4b63 29bc 0d48 823c
00000220: 05ac 353c 2164 0d3d a493 0fbc e6e6 01bc
00000230: ba28 923c ff8f 1bbc 993c 50bc ab32 1cbb
00000240: 9864 053d d098 99bc 72f4 283c f3f0 163d
00000250: fc3d f3b9 699e 8b3d 9e61 0fbd d521 c23a
00000260: d72e c23c 3f2c 69bd 1140 8c3c 4f4b 203d
00000270: 236d 493b 9e93 04bb 660b 033c 4400 a5bc
00000280: 5855 db39 19cc 52bd 8e02 813c 1103 b6bc
00000290: 7715 583d 602d 2d3d c072 dabb c5b1 493d
000002a0: f576 b23d 9f85 eebc 9d40 e23c 34de fcbb
000002b0: 0340 25bc bebf b13b 34a4 eb3c 976f 143d
000002c0: ff92 333d 631a f13b 4c83 643d afb0 8d3c
000002d0: b472 38bd cbb1 42bd ec6a 1dbd f224 f7bc
000002e0: 78a2 b4bc cb9d 33bd 46ca d8ba acca 773c
000002f0: 6dbb 98bc d09a b83c af66 943b a84b a73d
00000300: 40af 293c 3bec 673c c1c3 593d 6258 10bc
00000310: c32f 6fbc 4cde 663d b7a8 363d 7ced dabc
00000320: b834 423b 798c 183c 2c25 953b 2d88 c03c
00000330: 9ce3 b83c 310e d03c 7baf 98bc 5fa7 2e3d
00000340: 03f4 fcbc 8d98 7c3c c505 43bc ecdb 82bc
00000350: f1bb 65bd b4cd 98bc 35ca f1bc 2a0a b2bd
00000360: 6544 0abb 249b 063d 9cff 0c3d 5146 0cbd
00000370: b9b3 063d 63b9 7b3d 3f35 063d dd45 44bd
00000380: 9098 943c 3be4 a0bd 23a1 f43b b20b 8f3d
00000390: 6b90 2ebd 78b8 fd3b 6fe0 a1bc 3921 6ebd
000003a0: 4062 083d ffa7 3abc 8c4f 773b 7f1e cf3c
000003b0: 929a 243d 7805 903c 7f31 ff3a 27bc 813c
000003c0: a013 523d 7062 5e3d 65a5 59bc 839e 193d
000003d0: e31d 303d 2334 003d dd75 19bd 6872 94bc
000003e0: 55f3 8d3c 6a6c dbbc 67cc 30bd e71e 28bd
000003f0: f82e 683c 88f7 e13c 6a21 3b3d 0852 d23c
0.020967048 0.0125317285 0.05249071 -0.011843705 0.03388694 0.008853739 0.019672712 0.022965781
0.056883886 -0.00876301 0.046466548 0.059896834 -0.022528399 -0.026893293 -0.004489509 -0.037669342
-0.019983662 -0.036220875 0.020486984 -0.00346652 0.04127237 0.020860322 -0.0670747 0.055557966
0.005197699 -0.07518704 0.008840344 -0.013629935 -0.024722226 0.037052047 -0.05445406 -0.061041187
-0.012115648 -0.0043192524 -0.011797392 0.014476327 0.00031801095 0.031273574 0.059599433 -0.018447628
0.029358946 0.04023981 0.008390002 0.0033846719 0.022329483 0.051058233 0.032739196 -0.04669234
0.04088389 0.031017961 -0.03922747 0.046729445 0.021536388 0.022072297 -0.043720655 -0.0023386346
0.050308343 -0.0009483412 1.3164094e-05 0.018090677 -0.001324244 -0.07887451 -0.029136747 -0.04570374
0.014455292 -0.009309159 -0.006367956 -0.021773346 0.018137492 0.049180828 0.016104141 -0.017086463
-0.031401943 -0.018090826 -0.028474936 0.0029921785 0.0013135556 -0.026848244 -0.02170262 -0.00063866685
-0.035595536 -0.020125749 -0.015300563 -0.031262707 -0.022993246 -0.013300255 -0.039624378 0.00052020815
-0.016690463 0.026939351 0.04931153 0.046006747 0.05852126 0.037758447 -0.023700044 0.023525752
-0.042742733 -0.011955952 0.0017469452 -0.011503197 0.027535992 0.06968759 -0.01710233 0.008656226
0.054642435 -0.02635403 0.040823832 0.023427427 -0.0011683179 -0.047900718 0.00056022016 -0.012970947
0.020872697 -0.06665329 -0.004573236 0.0037916917 -0.014934532 0.039548367 0.012920497 0.03072087
-0.0030346762 -0.03772818 -0.103381835 0.027041575 -0.0018480895 -0.013101491 -0.044877913 -0.025531689
-0.020474 -0.062687956 -0.012510009 -0.077642575 -0.028018396 0.002840705 -0.010338615 0.015903497
0.011088376 0.03451932 -0.008763228 -0.007928586 0.017841686 -0.009494781 -0.01270976 -0.0023833911
0.032566637 -0.018749624 0.010312187 0.03685088 -0.00046394754 0.06817324 -0.035005204 0.0014811108
0.023703976 -0.056926962 0.017120393 0.03913432 0.0030735217 -0.0020229588 0.007998323 -0.020141728
0.0004183452 -0.051464174 0.015748288 -0.022218259 0.052754845 0.0422796 -0.0066665113 0.0492418
0.087140955 -0.02911645 0.0276187 -0.0077169184 -0.010086062 0.005424469 0.028764822 0.036239233
0.04384136 0.007357882 0.055789277 0.017296163 -0.045031264 -0.047532838 -0.038432047 -0.030168984
-0.022050127 -0.043851655 -0.0016539774 0.015124004 -0.01864406 0.022534758 0.0045288424 0.08168727
0.010356724 0.014155443 0.0531652 -0.008810135 -0.01459879 0.056364343 0.044594493 -0.02672457
0.0029633474 0.009310835 0.0045515504 0.023502434 0.02256947 0.025397392 -0.018638363 0.042640086
-0.030878073 0.01541723 -0.011903231 -0.015974008 -0.056087438 -0.018652774 -0.029515365 -0.08693345
-0.0021097895 0.032862797 0.034423456 -0.034246746 0.03288624 0.061456095 0.032765623 -0.04791819
0.018139154 -0.078560315 0.007465498 0.069846526 -0.042618196 0.0077429377 -0.019760339 -0.058137152
0.033296824 -0.011392592 0.0037736623 0.025283096 0.040186472 0.017580733 0.0019469707 0.015836788
0.051288247 0.054293096 -0.013284062 0.037504684 0.042997252 0.03129972 -0.03746592 -0.01812096
0.017327944 -0.026785094 -0.043163683 -0.041045096 0.0141713545 0.027583852 0.045686163 0.025673881

bias f4 [32]
00000000: a8b3 da3a 9349 e03c 1d85 673c 531a 393d
00000010: 5bf8 1fbd 09ac 54bd 138c 7a3c a29f 583c
00000020: ff3d 5d3d b99d 323d 3d03 683d f62c 5abd
00000030: 6713 d53c 8e03 41bd 1a40 c0bc 4d70 39bd
00000040: 47f3 f63c 3dae 78bc ab60 33bd 5cb6 79bc
00000050: e257 fabc 4719 32bc 88e1 13bd f992 4d3d
00000060: 7d65 1ebd a281 1e3d fb9a 263c 335a 0bbd
00000070: 575a e03b a6a1 973b b855 483b fb66 2ebd
0.0016685622 0.027378833 0.014130858 0.04519112 -0.03905521 -0.051921878 0.015292185 0.013221653
0.054014202 0.043607447 0.056643713 -0.053265534 0.026010228 -0.04712253 -0.023468066 -0.045273114
0.0301453 -0.01517826 -0.04379336 -0.015241232 -0.030559484 -0.010870284 -0.036103755 0.050188992
-0.038671006 0.038697846 0.010168786 -0.034021568 0.006846707 0.0046274243 0.003056867 -0.04257868

weight f4 [32]
00000000: c8dd 7b3f 7cd1 6c3f 61b4 833f 29e6 713f
00000010: c3d0 803f 7ba8 7d3f 3e22 743f 2856 783f
00000020: dfec 833f fff4 773f be8a 7c3f edc9 803f
00000030: d0fb 7a3f e6e3 813f f199 843f 2668 823f
00000040: 7312 813f 565d 843f b371 823f 66a9 763f
00000050: acf5 733f 5d68 783f ff22 723f 9744 7a3f
00000060: 29cd 833f 47b8 853f 1560 803f 70fa 783f
00000070: fcf8 823f d3de 7b3f 9bea 7f3f 4e07 743f
0.98385286 0.9250715 1.0289422 0.9449182 1.0063709 0.99085206 0.9536475 0.97006464
1.0306662 0.9685821 0.98649204 1.0061623 0.98040485 1.0147674 1.0359479 1.0188034
1.0083755 1.0340984 1.0190948 0.9635223 0.9529674 0.97034246 0.9458465 0.9776091
1.0296985 1.0446862 1.0029322 0.9725714 1.0232234 0.9838688 0.99967355 0.95323646

bias f4 [32]
00000000: 9e6d cdbd d55a 11be ed99 d0bd 901b 55bd
00000010: c5bc 51be e250 78bc 3ec9 80bd ef5d e1bd
00000020: d0e1 fb3d 4692 4a3d 2e51 c9be 6e2b 813d
00000030: 4901 a2bd 2511 f9bd b7f3 68be aca3 7abd
00000040: a353 bdbd a10c 4c3e e633 9abd b948 c4bd
00000050: eb05 39bd 03b1 a1bd 2d27 bebd 9ed6 1bbd
00000060: 4537 cebd f6e2 94be a98e a4bc fed8 fbbd
00000070: 195a ce3d f93a cfbd 06d6 5cbd 567f 8abb
-0.100306734 -0.14194806 -0.10185609 -0.05202824 -0.20482166 -0.015156003 -0.06288384 -0.110042445
0.1229893 0.049455903 -0.39319748 0.06307112 -0.079104014 -0.12161473 -0.2274922 -0.061191246
-0.09244468 0.19926693 -0.0752943 -0.09584183 -0.04517166 -0.078950904 -0.09284816 -0.03804647
-0.100691356 -0.29079407 -0.020087557 -0.12297247 0.100757785 -0.1011867 -0.053915046 -0.0042266054

running_mean f4 [32]
00000000: 2197 aa3d 60c4 83be f27d aebd ce72 853e
00000010: 72b4 2c3c cc8b 07bf a98c 44be d36a 0cbe
00000020: 7d76 a23c fb4c 5e3d 5b25 a23d cef2 49be
00000030: c199 d8be 930a 833e 139f 00be e211 81bf
00000040: f955 b93e 6ac9 23bf d247 debe 4248 6f3d
00000050: e391 2abf 8da9 823c 1856 53be a515 3abf
00000060: 32d8 4abe 329c 27be 0645 febe 981b 073f
00000070: 809b 81be c20b b2be 0c2d abbe fef2 b33e
0.08329607 -0.2573576 -0.08520116 0.26064152 0.010541068 -0.5294769 -0.19194283 -0.13712625
0.01983189 0.054272633 0.07917281 -0.19721529 -0.42304805 0.25594005 -0.12560682 -1.0083582
0.36198404 -0.6397921 -0.4341417 0.05841852 -0.66628855 0.015949989 -0.20638311 -0.72689277
-0.19809034 -0.16368178 -0.49662036 0.5277648 -0.2531395 -0.34774595 -0.33432806 0.35146326

running_var f4 [32]
00000000: 3d95 2f3e e33e 823e 22a8 1b3f 9fe7 ae3e
00000010: a76a f23d 9c79 a23e 41c9 353e 6086 013e
00000020: c9a3 f33d 8640 5f3e c21a 873d 7e7d 8c3e
00000030: 5e17 513e 90d9 873e 81f9 3b3e d0d6 803f
00000040: f419 1f3e 9e68 a03e 5c86 cb3e c374 1b3e
00000050: 5b33 d23e 70b2 943e 349c c73e d463 c73e
00000060: 10aa 943e 6ae1 483e b880 7e3e 6e7b ca3e
00000070: 2915 8a3e f2cc b53e d428 623e b610 3e3e
0.17146774 0.25438604 0.60803425 0.34161088 0.118367486 0.31733406 0.17752554 0.12648916
0.11896474 0.21801957 0.065969005 0.27439493 0.2041907 0.26533175 0.18356897 1.0065556
0.15537244 0.31329817 0.39750946 0.1518126 0.41054806 0.29042387 0.3898636 0.3894335
0.29035997 0.19617239 0.2485379 0.39547294 0.2696927 0.35507923 0.22085887 0.18561062

weight f4 [32, 32, 3, 3]
00000000: 8885 f93c a8af 8d3b 61a2 1fbd a6e3 e73c
00000010: fb47 93bc c453 94bb 8872 fa3c 8129 f33c
00000020: 206c 6b3d 2863 a83c cd0e 613d 3d49 52bd
00000030: a794 5bbb 38d3 b93c fa2f 13bd 285b 1fbb
00000040: cfe7 593d af29 19bd 526e eebb b310 34bd
00000050: 3b4c 9abd 1cb6 b2bc da54 61bd 447b f9bb
00000060: 83b3 53bd 16ae b93c 1c7c 2bbc a7cd dc3d
00000070: 6503 d1bc 8708 063d 1109 843d 2e8a ddbc
00000080: d464 ab3c 21eb bdbb 31bf 1e3c cea0 dbbb
00000090: c47b 403c 7f8a 7ebd 1d50 353c b2f8 bdbd
000000a0: 5d4b 2f3c c47c fabb e5eb bbbc 1e69 073d
000000b0: 9e3d 00bd bb40 543c 30f0 2dbc 72b4 14bc
000000c0: bfdc 333d 833d 83bc 4307 fd3c 1086 c13b
000000d0: 6427 373d daa8 c33c c1fc 343b 667c 21bd
000000e0: 85b3 57bd 07fa 473c 3569 2abc d580 4abd
000000f0: 434b 5a3d edc5 87bc af0e b3bc e193 f0bc
00000100: 4389 0d3d f896 4bbd 3934 24bb 3912 113d
00000110: 2e32 9dbc 555b 2abd 9f27 01bd 1eab dabc
00000120: 0f66 34bd 9607 e93b 3f07 1fbc 37f5 623c
00000130: aca5 303d eacb 813d cf5d 133d fad0 0dbb
00000140: 9dde 293d 1169 633d 1698 8d3d 13e4 8e3c
00000150: 74db dc3b cb79 4cbd 4751 6c3c cd9f 87bc
00000160: 952d b7bc 5ae6 dd3c 505c a2bb cef7 5bbd
00000170: 558e 67bd db6e 5bbc 5c70 813c 1d98 15bd
00000180: 93d0 25bd 4e86 f0ba 90e4 f9bc 0d19 4fbc
00000190: b03d 20ba 8b17 69bd 044c 653b 523e 2cbd
000001a0: 535e 0bbd 900f 183c 0bb0 27bc 502e 4ebd
000001b0: 7b18 2f3d f2d6 cabc 6b13 c7bc 0300 663c
000001c0: 33f0 d8bc fce4 2cbc 0921 c13c b7e1 713c
000001d0: b7bf e2bb 5ed5 063d 273c c4bc 3979 2e3c
000001e0: 433d 823d d0bd 06bd 483c 453c 0673 253d
000001f0: 57e6 0b3c 4c92 9abc c1f5 333c cd91 e13c
00000200: e3b3 103d 0fb3 9939 2cda a13a 4d2e 02bd
00000210: d1d8 f73c cee6 013b 99e0 b5bb 3c39 af3c
00000220: 4d33 993c 9226 8e3c bb53 993d e6e3 d93c
00000230: 7264 d53b 38d1 453d a556 db3c e177 1bbc
00000240: 3c62 62bb 4f47 ccbc 29db 37bd ba8f 63bb
00000250: 16c0 87bc e193 efbb df91 80bc 5897 ff3c
00000260: 8622 853c 5f3f 5fbd cbf9 3bbb d2d7 cf3c
00000270: dc72 d1bc b518 103d c225 12bb 422d 343c
00000280: f49a 57bd 7d84 f339 bc68 7a3d cba6 4e3d
00000290: c73e 163d 9af6 05ba e3d1 1d3b f89c 833b
000002a0: d3d0 c83c da51 f5bc 8c4b 43bc 09e9 82bd
000002b0: b107 57bc f52c 6a3b 6956 82bc 7d16 f63c
000002c0: bf05 b9bb 5be7 fd3b ce3f 0ebd 26ca 9abc
000002d0: 115c 23bd 2bea 963b be9e 883c f1e7 1ebd
000002e0: 66f9 843c 47f5 6d3c b6e3 44bd 5cae debc
000002f0: e4c4 9f3c 4f32 25bc e2e5 8a3d c5c3 4dbd
00000300: 682d 613d c0cb 05bd e0be 2cbc 9c9a 80bc
00000310: 5345 b33c b860 72bd cf6d 5cbd a148 87bd
00000320: f308 b1bc 7f98 ff3c 7782 a4bd 34ce f9ba
00000330: 57d3 033b 8761 f93c e91e 993d 3020 8c3b
00000340: 902d bbbb 826e 36bd 6da5 21bc fb46 933c
00000350: bcf1 0ebc 3663 3dbd 0f6a bf3b 03d3 32bd
00000360: 37c9 4fbc 315e 70bd f504 d83c e782 b43b
00000370: 36a7 b23c 0fa6 493d f451 1e3c 9ca7 9e3d
00000380: 8fef 6f3d 6be5 bd3c c672 4b3b 9d57 f73c
00000390: b5dd 4d3d d8f7 853c b710 793d a484 813d
000003a0: 1307 dd3c cd68 f4ba 80ca a23d 1205 96bc
000003b0: 496f 243d 38a7 223c 7072 e53c e5d1 fe3c
000003c0: 506a a7bc d778 233d 01ff 07bd bd59 463d
000003d0: cafe 61bd 2386 3cbc 1a4b f53a 5f9d 2fba
000003e0: 7089 10bd 824a e63c 9572 713d 4d57 00bc
000003f0: 47a7 cebc 6247 10bc 4545 2bbd 9604 003c
0.03045918 0.0043239184 -0.038973216 0.028306793 -0.017978659 -0.004526587 0.03057219 0.029682877
0.057476163 0.020555094 0.054945756 -0.051339377 -0.0033505352 0.022683725 -0.035934426 -0.0024315808
0.053199586 -0.03739327 -0.007276335 -0.043961238 -0.07534071 -0.021815352 -0.05501256 -0.0076135714
-0.051684868 0.022666018 -0.010466602 0.107814126 -0.025514314 0.032722976 0.06447042 -0.027043428
0.020922102 -0.005795852 0.009689138 -0.006702519 0.011748258 -0.0621438 0.011066464 -0.092759505
0.01069912 -0.0076442678 -0.022939632 0.033059232 -0.031308763 0.012954886 -0.010616347 -0.009076225
0.04391169 -0.016020542 0.030887252 0.005905874 0.0447153 0.023884226 0.0027616473 -0.039425276
-0.052661438 0.012205607 -0.01040106 -0.04943927 0.05329443 -0.01657387 -0.021857588 -0.02936739
0.03455473 -0.049704522 -0.0025055541 0.03541777 -0.019188967 -0.041591007 -0.031531926 -0.026692923
-0.044042643 0.0071115 -0.009706317 0.013852409 0.043126747 0.06337722 0.035978135 -0.0021639452
0.041472066 0.05552012 0.06913774 0.017442739 0.006740028 -0.04992084 0.014423675 -0.016555691
-0.022360602 0.02708738 -0.004954852 -0.05370312 -0.056532223 -0.013393129 0.015800647 -0.03652202
-0.040482115 -0.0018350573 -0.030504495 -0.01264025 -0.0006112708 -0.056907218 0.0034987936 -0.04205162
-0.0340255 0.009281054 -0.010234843 -0.050337136 0.042747956 -0.024760697 -0.024301251 0.014038089
-0.026481723 -0.010552641 0.023575323 0.014763287 -0.006919827 0.032918327 -0.023954464 0.010649019
0.06359341 -0.032895863 0.012038298 0.040392898 0.008538804 -0.018868588 0.010983885 0.027535344
0.035327803 0.00029315843 0.0012348345 -0.031782437 0.030254753 0.0019821408 -0.005550456 0.021389596
0.01870122 0.017352376 0.074866734 0.026597928 0.006512218 0.04829523 0.026774714 -0.009489031
-0.0034543416 -0.024936346 -0.04488674 -0.003472312 -0.016571086 -0.0073113297 -0.015694557 0.031200096
0.016251814 -0.054503795 -0.0028682824 0.025371466 -0.025567465 0.035179812 -0.0022300337 0.010997118
-0.05263801 0.00046447283 0.06113504 0.050452035 0.036680963 -0.0005110294 0.00240814 0.004016515
0.024513638 -0.029946256 -0.011919867 -0.06392104 -0.013124392 0.0035732363 -0.015910344 0.03004002
-0.005646437 0.007748527 -0.034728818 -0.01889522 -0.039882723 0.0046055517 0.016677257 -0.038795415
0.016232204 0.014523811 -0.048068725 -0.02718275 0.019503064 -0.010082795 0.06782128 -0.05023553
0.054974943 -0.032665014 -0.010543555 -0.015698723 0.021883642 -0.05917427 -0.05381566 -0.0660565
-0.021610713 0.031200645 -0.08032697 -0.0019058646 0.0020114982 0.030442012 0.07476599 0.004276298
-0.0057122186 -0.044538982 -0.009866101 0.017978182 -0.008724626 -0.046237193 0.0058415006 -0.043658268
-0.012682251 -0.058683578 0.026369551 0.005508769 0.021808248 0.04923063 0.009663094 0.07746813
0.05857807 0.023180684 0.0031043752 0.030193144 0.050260264 0.016353533 0.060806956 0.06324127
0.026980912 -0.0018646956 0.0794878 -0.018312965 0.040145192 0.009927563 0.02800867 0.031105945
-0.020436436 0.039910164 -0.033202175 0.048425425 -0.055174626 -0.01150659 0.0018714399 -0.00066991703
-0.03528732 0.0281117 0.058947165 -0.007833314 -0.025226248 -0.0088060815 -0.041814107 0.007813593

bias f4 [32]
00000000: 50fc 2abd 5227 f33c 2ad7 2b3d d398 1e3b
00000010: 5bf2 de3c e0eb 50bd accf 74bc b6e7 56bd
00000020: 581b 2dbd 5a0c 5abd 4166 71bd 43ac 98bb
00000030: 03e2 703c 2ef9 1abd 4e43 c9ba 8907 c6bc
00000040: 8504 c23b 4fd6 b43c 016f bfbb 42a5 65bd
00000050: 65c5 8c3c 5b56 61bd c7f2 23ba 0c1b 3abc
00000060: 2a7d b7bb f33e 993c 5cd8 f0bc df26 39bd
00000070: 0383 713d 2ccc f2ba 825c d2bc 55cd efbb
-0.04174453 0.029681835 0.041953243 0.0024199977 0.027215173 -0.051006198 -0.014942091 -0.05246707
-0.042262405 -0.053234436 -0.058935408 -0.004659207 0.014702323 -0.037835293 -0.0015355141 -0.024173515
0.005920949 0.022074847 -0.00584209 -0.056065805 0.017183969 -0.055013996 -0.0006254133 -0.011358988
-0.0055996375 0.018706774 -0.029400043 -0.045203086 0.058962833 -0.0018523983 -0.025678877 -0.0073181787

weight f4 [32]
00000000: c8b5 883f e4bc 7d3f 0fc5 7c3f d0d8 7b3f
00000010: cd8b 7b3f a8f9 753f 815a 823f c3f2 863f
00000020: 1704 7b3f f4e6 843f bd17 7b3f 9ea1 763f
00000030: b58e 823f 49ba 863f 3cb9 7f3f c886 7f3f
00000040: f0cf 813f 7a2b 863f 3f04 713f 3a7d 7b3f
00000050: 9e06 7e3f a1f7 813f 5d23 7d3f d4f4 7c3f
00000060: deb2 793f cdac 833f 7e28 813f 7e03 813f
00000070: 2fff 793f 10e3 813f bce6 833f 1910 823f
1.0680475 0.9911635 0.9873819 0.98377705 0.98260194 0.9608407 1.018387 1.0542835
0.98053116 1.0382981 0.98083097 0.9634036 1.0199801 1.05256 0.9989202 0.99815035
1.0141582 1.0482018 0.94147104 0.98237956 0.9922885 1.0153695 0.98882085 0.9881108
0.97538555 1.028711 1.0090482 1.0079191 0.97655004 1.0147419 1.030479 1.0161163

bias f4 [32]
00000000: dcda 133d c7c6 e5bd 4bb1 8abd d17a 95bc
00000010: 70b2 03be c22a c8bc 58aa 39be 1cca 903d
00000020: 138c 46bd 660b 90bd 7046 4f3c 4bba dabd
00000030: af60 b63b 13cc 82bb 9d40 f93d df2a 99bd
00000040: 029b 3fbe 6ee1 bfbd 4efe d6bd 6c27 2abd
00000050: 86dc efbd 1483 383d 9352 c23d cf28 0ebe
00000060: a0b0 e8bd 2aa3 8abd b799 95bd 6497 33be
00000070: ed08 f43b 8851 34be aa48 8dbd df3e bd3c
0.036097392 -0.112195544 -0.06772097 -0.01824704 -0.12861037 -0.024434451 -0.18131387 0.07069799
-0.04847343 -0.07033424 0.012651071 -0.10680064 0.005565725 -0.0039916127 0.12170527 -0.0747888
-0.18711475 -0.09369169 -0.104977235 -0.041541502 -0.117119834 0.04504688 0.09488406 -0.13882755
-0.113618135 -0.06769402 -0.073047094 -0.1753822 0.007447353 -0.17609227 -0.06898625 0.023101268

running_mean f4 [32]
00000000: b2b4 0bbc fee5 103f a26b cc3c 8b27 2b3e
00000010: 1868 9d3d afc7 b3bd d0aa 04bf fd6b 07bf
00000020: 6d57 febe 2ccc cbbe b2ec c4be 543c 05be
00000030: c663 20bc 8109 05bc 42da f2be 68c3 c43d
00000040: 99a5 b9be 7295 2dbf 4cec a93d 0b93 463e
00000050: 8fe0 2ebe 07dd 56bd c2a6 68be 6db4 e73d
00000060: 74ed ea3e 7e37 14be db91 69be 6a07 f3be
00000070: a4ac 6abc 5485 04bf 62dd 79bd 0fe8 53bf
-0.008526968 0.5660094 0.024953667 0.16714303 0.0768587 -0.08778321 -0.5182314 -0.5289915
-0.49676076 -0.39804208 -0.38461834 -0.13011295 -0.009789413 -0.008119942 -0.47432142 0.09607583
-0.36259153 -0.6780616 0.08297023 0.1939203 -0.1707785 -0.05245688 -0.22719863 0.1131371
0.45884287 -0.14474294 -0.22809546 -0.47466594 -0.014323387 -0.5176594 -0.061002143 -0.8277597

running_var f4 [32]
00000000: 7c96 303e 4753 a63e f0f0 b13e 61bb ad3e
00000010: 655e 3f3e 7d94 9c3e 4457 0d3f 00ce aa3e
00000020: 7ba5 143f b3fa 8c3e da1a dd3d be1f 7f3e
00000030: fab5 033e ff84 843e a7bc 753e 35c5 ed3e
00000040: 0d9c 033f 0834 a63e ec95 063e 5bf7 773f
00000050: 89d7 563e 45f2 803e c357 743e e824 bd3e
00000060: 56ec ca3e 17ec 703e 277f 233e 2965 fd3e
00000070: 2b98 243e a9bc 073e 0bb7 003e 118f ce3e
0.17244905 0.3248541 0.34754133 0.3393202 0.18688352 0.30582038 0.5521128 0.3336029
0.58065003 0.27535018 0.10796137 0.24914452 0.12862387 0.25882718 0.23997746 0.4643952
0.5140999 0.32461572 0.13143128 0.9686181 0.20980658 0.25184837 0.23861603 0.3694222
0.39633435 0.23527561 0.15966474 0.49491242 0.16073672 0.13255562 0.12569825 0.40343526

weight f4 [32, 32, 3, 3]
00000000: f945 2b3c c592 9fbb d5cf db3b fc6c fabc
00000010: fe94 04bd a935 ebbc fefd 973c a059 a9bd
00000020: d8ab 9ebc b8ee 7abc 0248 a0bd 2d04 56bd
00000030: 706f d8bc 9176 68bd 1953 8abc 2b29 cb3c
00000040: ddcf aeb9 2bca 03bd f2d6 d3bc 2134 7cbc
00000050: 1b1c abbc 5005 96bc 3329 d7bc 9321 823c
00000060: 61cb 88bb 0437 97bc c67c d7bb 01e1 48bd
00000070: d839 c73a 071e 123c 4cd4 05bd 6b79 1abd
00000080: ae88 16bd f691 adbb fc37 1d3b 42f3 13bd
00000090: 7bfb c0bc bb83 8abc 7498 86bb d5cc f23c
000000a0: 2758 06bd 4fa2 7abd 3547 443c 44be 0ebc
000000b0: a34d 8fbc 6e5b d9bc a228 40bd 7b49 d5ba
000000c0: 023c 9abc f8d5 7fbc 18fc 9eba 5e1d 263c
000000d0: d907 a2bc 799a 03bc 49ee 05bb b1e1 9d3c
000000e0: 0b1e f6bc b684 073d d9da 403d 776c 7c3c
000000f0: 2875 633d 028e d03b 8c40 943c f7ed 8a3c
00000100: 9205 413c 2cea a83c e98e b4bb 57f4 04bd
00000110: d82a 70bd 2589 70bc 4819 7bbc df5d f9bc
00000120: b0c2 4cbd 902c f03c 5926 88bb 7a35 a0bb
00000130: 44f5 af3c a50a aa3c bb65 873b c76c d53b
00000140: 798a 38bc a640 d3ba c363 84bb 306c 433d
00000150: 2c3d a1bc 6717 583b 93f6 f5bb d8c5 50bc
00000160: 249b bb3c 05ce 72bb f135 06bc 40cb cabc
00000170: f3cb ef3c 97c6 30bc 20de 953c 0077 a6ba
00000180: c014 30bb d7f0 d53c 4e21 4cbc 3c7d cbbc
00000190: 9c90 7f3c ae97 773d a03b 423c 9edf 883b
000001a0: 0735 8c3c aac9 dd39 71cf 363d e158 c33c
000001b0: eb5f b4bc 58a1 9abc a625 2f3b 8909 39bc
000001c0: e9c9 683d b172 7bbd 9396 363c a9a7 843b
000001d0: ba57 10bc 3f66 e73c 7678 56ba d2ba 2bbd
000001e0: 9ae4 aebc 54bd ddbc 8ac4 0ab9 b527 083c
000001f0: ff37 84bb ccd9 8b3c 5b59 13bc a7d7 bbbc
00000200: 1291 0abd 602e 713c a0bd 0c3d f830 b63b
00000210: 181e 70bc 129f 333b 6246 253c 0e78 10bc
00000220: 9712 1a3d 6939 cdb8 7dff b13b 9b4c d7bc
00000230: 45b7 6a3c b250 c03c 4968 57bc 9cf9 4abc
00000240: 74df e23c 351b 3a3b ad3a d33b a450 20bd
00000250: 449d 60bd 0b13 563a eb8f be3c e879 a53b
00000260: dabd 1ebd b7b6 a8bc fc2e 82bd 961b c7bb
00000270: 9623 04bd f3ae 153c b7e9 09bc 114f 17bd
00000280: 5f2b 70bc ed79 78bb ed4c 8fbc 5448 99bc
00000290: e810 59bd ddee 003d 96e9 513c 5139 6e3c
000002a0: d82e a1bc 4258 0abc 426e ba3c 44c4 c23c
000002b0: d7be 4d3d bb97 b13c dc9e 623c e555 c6ba
000002c0: 3176 8bbc 3c1c a2ba 1b37 b23c 299c 77bc
000002d0: 6791 e63c f4b7 48ba 6771 76bc 739e 5c3c
000002e0: 2c45 103d da89 52bc 2bc1 d6bc 6be0 1bbd
000002f0: 550f 923c 4270 293a 0ce2 0c3d 5ecd e73c
00000300: 29dd 383b 61e1 9c3c badc 713b 6c0d 2fbc
00000310: 284a b2ba c5c2 b7bb 5be1 49b9 b0ea 013d
00000320: 1243 7fbc 124d 8d3c 0adf c33b b29e 163d
00000330: 2047 d23b 59b8 9f3c 4bad 4a3d 9d7f 1dbd
00000340: 8d76 32bc bda5 edbc 0386 883a 309f 2fba
00000350: d3c0 a0bc 9d91 bfbc 4ec7 943c b7bf f93b
00000360: cb60 4cbd fb1a 1d36 f17f 803c 206a 37bc
00000370: 3438 d3bb 6d38 053d d173 2f3d afab c5bc
00000380: 54d7 7b3c 2064 3f3d b3b5 3c3c 0c16 403d
00000390: dc09 ab3c 43b4 56bd 7417 f4bc fab0 223c
000003a0: 8e48 25bd 7ff6 1cbd c5c4 0fba a25c 7cbc
000003b0: 6a83 40bc 89a7 cc3b 7a24 413d 994a 683c
000003c0: 061f 02bd bbdf cbbc 4706 0cbd 0b48 8cbc
000003d0: aa0a 5ebc ef81 90bc 6e6f 983c 10dc 05bb
000003e0: 64a3 a8bc 2a0b 103d 0d8c 783d 8ab4 dc3a
000003f0: 6fe9 30bc 764d 37bd ef59 bfbb 4c8a 0fbd
0.0104536945 -0.004869791 0.006708125 -0.030569546 -0.032368653 -0.02871211 0.01855373 -0.08269048
-0.01936905 -0.015315704 -0.078262344 -0.052250076 -0.026420325 -0.0567537 -0.016885327 0.024799904
-0.00033342736 -0.032175224 -0.02585933 -0.015393288 -0.020887425 -0.01831308 -0.026264763 0.01588515
-0.0041746353 -0.01845885 -0.0065761534 -0.049042705 0.0015199734 0.008918292 -0.032673165 -0.03771345
-0.03675144 -0.005296941 0.0023989668 -0.03612066 -0.023557415 -0.016908517 -0.0041075293 0.029638687
-0.032798912 -0.061189946 0.011979868 -0.008712355 -0.017493075 -0.026532855 -0.04691375 -0.0016272509
-0.018827442 -0.015614979 -0.0012129573 0.010138838 -0.019779133 -0.008032435 -0.0020436218 0.019272657
-0.030043622 0.033085547 0.04708371 0.015406719 0.05553165 0.006364585 0.018097185 0.016959174
0.011781113 0.020619474 -0.0055102003 -0.032459583 -0.05863461 -0.014681135 -0.015325852 -0.030440269
-0.049990356 0.029318124 -0.004154962 -0.0048891874 0.021479256 0.020757029 0.0041320003 0.0065132114
-0.011263483 -0.0016117289 -0.004040213 0.047710598 -0.01968249 0.0032972933 -0.0075062006 -0.012742482
0.022901125 -0.0037049067 -0.008191572 -0.02475512 0.029272055 -0.010789535 0.018294394 -0.001270026
-0.0026867837 0.026115818 -0.012459112 -0.02483999 0.015598442 0.060447387 0.011855036 0.004177048
0.01711513 0.00042302656 0.044631425 0.023846092 -0.022018394 -0.018875763 0.002672532 -0.011293777
0.05683318 -0.061388675 0.011144298 0.004048307 -0.008809978 0.028246997 -0.0008181402 -0.041926213
-0.02134924 -0.027067818 -0.00013233922 0.008310248 -0.0040349956 0.017071627 -0.008993472 -0.02292998
-0.033829756 0.014720529 0.034360528 0.0055600367 -0.014655612 0.0027408046 0.010087581 -0.008817686
0.037615385 -9.785855e-05 0.005432068 -0.026281646 0.014325921 0.023475979 -0.013147422 -0.012388613
0.027694441 0.0028397564 0.0064462037 -0.039139405 -0.05483748 0.000816629 0.023261985 0.0050499327
-0.038755275 -0.020594938 -0.06356618 -0.0060762865 -0.0322605 0.009135949 -0.008417538 -0.036940638
-0.014658778 -0.003791447 -0.017492736 -0.018711247 -0.05299464 0.031477798 0.012812039 0.0145400325
-0.019675657 -0.008443894 0.022757653 0.023775227 0.050230827 0.021678796 0.01383182 -0.00151318
-0.017024131 -0.0012368034 0.021754792 -0.015112915 0.028145505 -0.00076568057 -0.015041686 0.013465512
0.035222217 -0.012850249 -0.026215157 -0.03805582 0.017829577 0.0006463566 0.034395263 0.028296169
0.0028207994 0.019150438 0.0036905245 -0.010684352 -0.0013602423 -0.005607935 -0.00019252805 0.031717956
-0.015579956 0.017248664 0.005977516 0.036772437 0.00641717 0.019497084 0.04948167 -0.03845178
-0.0108925225 -0.029009694 0.0010415915 -0.0006699441 -0.019623196 -0.023384864 0.018161442 0.007621731
-0.049896996 2.3410528e-06 0.015686007 -0.011194736 -0.006445909 0.032524515 0.04283506 -0.024129717
0.015371162 0.046726346 0.01151793 0.046896026 0.020878725 -0.052418005 -0.02979634 0.00992989
-0.040352397 -0.038321014 -0.0005484338 -0.015402945 -0.011750082 0.0062455577 0.047153927 0.014177942
-0.031767868 -0.024886956 -0.034185674 -0.017124197 -0.013552347 -0.017640082 0.018607821 -0.0020425357
-0.020585723 0.035166897 0.060680438 0.0016838473 -0.010797842 -0.044751607 -0.0058395783 -0.035044

bias f4 [32]
00000000: 2da1 dbbb 559b 183d a799 6b3d b9c6 343d
00000010: d3a9 31bd 5558 73bc fcf5 4fbc 57f5 903b
00000020: dac8 e83c 306c 233c 5f0b c6bc 8a65 ec3c
00000030: 7696 2abd 6b46 823c 1560 5ebd b109 d83c
00000040: 2b83 623d 09cb 04bd 8b98 413c 5581 693c
00000050: fee0 0c3d 63fb c6ba be78 5d3d ce3e 60bc
00000060: c4b2 8a3c 3a72 54bc 084d 7bbd 0465 35bd
00000070: ad82 083d c7ef 703d 7b4f cabc 83cd 59bd
-0.0067025633 0.03725751 0.05751958 0.04413483 -0.043374848 -0.014852603 -0.012692925 0.004423778
0.028416086 0.009974524 -0.024175344 0.028857011 -0.041647397 0.015902719 -0.05429085 0.026371809
0.055300873 -0.032420192 0.011816154 0.014252027 0.034394257 -0.001518112 0.054070227 -0.013686849
0.016930945 -0.012966687 -0.06135276 -0.04428579 0.033327747 0.05882242 -0.024696102 -0.053174507

weight f4 [32]
00000000: cc8c 803f 3700 8c3f 9505 803f 8608 823f
00000010: 85b9 773f bc13 803f d48f 893f de37 813f
00000020: bcaa 853f 4cc9 843f 5352 783f c143 853f
00000030: cf70 753f 129d 783f 2750 7e3f 766d 793f
00000040: ecc8 783f c9ca 783f 6753 7e3f 8b07 813f
00000050: f9d4 803f 7803 823f 0bed 813f 2719 873f
00000060: ad07 8b3f ef6c 813f 8a49 823f 370b 873f
00000070: 9528 7b3f a485 823f 0dea 773f f5d4 7a3f
1.0042968 1.0937566 1.0001704 1.0158851 0.96767455 1.0006022 1.0747018 1.0095174
1.0442729 1.0373931 0.97000617 1.0411302 0.9587526 0.9711467 0.9934105 0.9743265
0.9718158 0.97184426 0.9934601 1.0080427 1.0064994 1.0157309 1.0150465 1.0554551
1.0861717 1.0111369 1.0178692 1.0550297 0.981088 1.0197034 0.9684151 0.97981197

bias f4 [32]
00000000: 0c7a 0fbd 8131 84be d470 89bd e01d b4bd
00000010: be0e a3bd 3377 19be a317 31bd d88e 87bd
00000020: 6e69 2c3c d258 05be 9984 cdbd eab8 20be
00000030: 52ad 94bd 3e23 ffbc 3907 96bd f35d 86bd
00000040: 64c7 cabd 8fbf 4dbe 1a98 f1bd 3849 b9bd
00000050: d2ab c3bb 6550 1cbe eb8f 83bd 9ff1 d5bd
00000060: 4e4f 20be 525a 9ebd fe2a a4bd 9caa 09bc
00000070: c0eb b5bd e7ee 1ebd e1b2 b8bb db83 0ebd
-0.035028502 -0.25819018 -0.067109734 -0.08794761 -0.07961796 -0.14986877 -0.043235432 -0.06619042
0.010523183 -0.13022164 -0.100350566 -0.15695539 -0.07259621 -0.031144734 -0.07325596 -0.06560888
-0.09901312 -0.20092605 -0.11796589 -0.090471685 -0.0059714103 -0.15265043 -0.064239345 -0.10446476
-0.15655252 -0.07732071 -0.080160126 -0.008402493 -0.08882856 -0.038802054 -0.0056365584 -0.034793716

running_mean f4 [32]
00000000: 52ad 8cbe 4fa3 5abe 6ce4 fdbe 388f dcbe
00000010: d520 523c 1032 b9be e7df c03c 847f 14be
00000020: 6b15 76bd 8884 e83d cdc9 3ebe 7452 89be
00000030: 118d 1cbe a5cb 93bc bb04 acbe 852a b4be
00000040: f0af 42bf 3b4d 9ebe 711e 48be 4927 a8be
00000050: 93ec b73e 8e3a c53d eec1 95bc 6f22 92be
00000060: 88b1 21be 61e3 01be 65cd 2bbf dba6 2bbe
00000070: 131f 83be e3dd eebe 3e70 0fbf a1ea 873e
-0.27475983 -0.2135136 -0.49588335 -0.43078017 0.012825211 -0.36171007 0.023544265 -0.14501768
-0.06007902 0.11353403 -0.18631668 -0.2682072 -0.15288188 -0.018041441 -0.3359736 -0.3518869
-0.7604971 -0.30918297 -0.19542862 -0.32842472 0.3592268 0.09630309 -0.01828095 -0.28541896
-0.15790379 -0.12684394 -0.6711028 -0.16762869 -0.25609645 -0.4665366 -0.56030643 0.26546195

running_var f4 [32]
00000000: 8dd9 e93d 815d 8c3e 64d0 0f3e 9c0b 243e
00000010: 5e0d 4f3e 40e3 593e d5e0 553e 8719 583e
00000020: 4ff8 d83d 6fc8 813e bfa8 603e a580 833e
00000030: 4673 043e 129b 1a3e 6fb5 c03e 93f4 dc3e
00000040: 3031 b13e f864 c73d dd5f 333e 94c0 823e
00000050: efe0 f03e 0169 f73e 2f5e fa3e 72a6 cd3e
00000060: e5e0 ec3d 0af8 7b3e edd3 6f3e 1454 033e
00000070: bbb0 cb3e 600a af3d f8fb 703e 6bdf 963e
0.11418448 0.27415088 0.14044338 0.16020054 0.20219943 0.21278095 0.20886548 0.21103488
0.10594236 0.2534823 0.21939372 0.25684085 0.12934598 0.15098217 0.37638423 0.43155345
0.3460784 0.09736055 0.17517038 0.2553755 0.4704661 0.483223 0.4889998 0.4016605
0.11566333 0.24606338 0.23420687 0.12825042 0.39783272 0.08546901 0.23533618 0.2946733

weight f4 [3, 32, 3, 3]
00000000: 94b0 b7bb 89e8 12bd 4faf 9f3c 200c 8fbd
00000010: 1321 bcbd 77d3 f03b 8513 0f3d 920d 86bc
00000020: 704b 813d 1043 9e3b 4a86 7f3c 9955 913c
00000030: 34e7 7fbc c690 78bb be38 d23c 6af2 03be
00000040: 4792 9dbd f329 1cbd 451c 13bd 3370 76b9
00000050: 916e 103d 1bc8 b7bc 6856 4ebc 5a89 ed3c
00000060: 958a 58bd e416 963c e72a 043d 9e07 1d3d
00000070: 9752 dc3c 4698 fe3c 9143 c73b f516 2e3c
00000080: 2237 5fbc 8219 143d 0a57 f33c 28ff 0a3d
00000090: 97e0 57bd 06da 11bd 65fa 05bd 2fcb a6bc
000000a0: 74d6 b83b 596c 083c f584 47bd 40a1 2abd
000000b0: 30af 24bd 835f fcbc d653 94bc c34b b13c
000000c0: 4101 84bd 862c 88bc a304 4cbd 816f c7bd
000000d0: 9887 2bbd 8407 03bd 1d23 d93c 74dc 2bbc
000000e0: c8d1 1abd a9b5 773d 21fd 65bd 2b95 71bd
000000f0: 8556 393d bb92 0b3d e797 9ebc 0a03 a13c
00000100: ef96 8dbc 8c13 983c 5a7e 59bc 7fe8 0ebc
00000110: 1d95 2ebd 13f1 2a3c 125b 6fbd 0f15 00bd
00000120: 9bf2 d8bc d56c 2bbc 14ee 473b ce05 8fbb
00000130: 83f5 25bb 3c9f b93d 971b 0c3d fad1 3fbc
00000140: 19a0 eebc 37e6 72bb 11b1 8cbc fe57 0cbd
00000150: ede6 b93b 465c 73bc 62cf 94bc 54d3 adbc
00000160: 37c0 d9bc 6aeb 093b de1a 44bd 5e41 84bd
00000170: f5cc aebc a5e5 4cbc d35e b7bc 325c 133b
00000180: d957 e3bb 7b27 5f3c 05e6 d1bc 7ba1 a9bd
00000190: 1a23 80bd d9cb b8bd ee2c febc 410f 50bd
000001a0: e8d6 4cbd 88f9 4bbc b6c1 ddbc cfc4 be3b
000001b0: df4b 893c d082 b73c 89b4 50ba 99a6 333d
000001c0: f17d 443c 4d26 183c 55b0 6539 9ac3 1a3d
000001d0: 8319 2c3d ebea 9a3c 03b6 1a3b 5db0 db3c
000001e0: 13d9 a63d e89a 7f3c 3623 33bc b2f2 0a3d
000001f0: dd4e 173a f5bf b4bc c274 2d3d 7ebe d43b
00000200: 3e48 6a3c 0eb7 963c dbd2 fd3b d23b d33b
00000210: 5508 433d 215a 1a3d 0635 833c 997e 123d
00000220: afae 0e3d 9d5f f23c fdb9 b53c d706 c43b
00000230: f393 563d 2f89 9c3d a680 843d 3961 1a3d
00000240: b54a e73b bab2 bc3b 6510 75bc faf2 cdbb
00000250: 1109 e6bc 7252 cc3b 859e ec3b 0de9 6d3c
00000260: c886 023d 5833 843d 36b3 8a3d 82b9 7a3d
00000270: 0427 243d 6877 e7bc 257d 30bc 004e 913c
00000280: dc28 b6bc 3f0e ffbb 0186 b1bc 431c f839
00000290: b81f d03c 7471 f73b e173 133b f60b 253d
000002a0: 9341 a3bc fd18 013d 7104 ee3d e315 263c
000002b0: 1e4a fa3a d174 d83b 9bfd ad3b d3e4 023d
000002c0: 7bbc bd3b 256c 5f3d b83f e73c 27eb 313d
000002d0: bcfb 25bc 6aba 7f3b e647 573d 7f60 613c
000002e0: 3ddd 753c 601b 0c3d 6efc e83c 4dd9 d43c
000002f0: 3e01 923d e4c3 3fbd bffa e9bc 0667 903b
00000300: f7e7 1c3c 33c7 2bba 0cb6 4fbb a12e 733c
00000310: 5f9f 033b c430 1c3d f539 0b3d 4c3c 6a3a
00000320: cabc 06bd 7b40 663d 373b d03b b64d 55bd
00000330: 994e f33c 410d ccbb 5576 68bd 29a8 66bd
00000340: fd0e dbbc 75c4 cbbc 805f 20bd fc33 423b
00000350: b8e9 30bc 7cff 32bd 6fed 91bc dfa0 4abd
00000360: 3bba c63b bc5c 06bc 6009 3ebd 2b56 dc3c
00000370: 5a1b b33d 95f0 94bd 1737 843d e000 523d
00000380: 9562 cdbc 62a1 51bd 7348 89bc 8c46 a9bc
00000390: 154e 40bd fe4f 8e3d bcc1 e63c 252a 1b3d
000003a0: 96a8 0a3d 4baf 783c e46d b33d b619 403d
000003b0: 8994 893d ac91 4e3d b157 13ba cc72 6f3d
000003c0: 2099 3c3d 8ffe 043d 213d 003d 8f77 e7b8
000003d0: d981 abbd ae43 863d 4d84 93bc 9b2e dbbc
000003e0: 8688 4ebb 7e4e 62bb a3e3 55bc 364a 843c
000003f0: 0152 cb3c 95e3 b2bb f995 053d 300e a6bb
-0.0056057665 -0.035866294 0.019492773 -0.069847345 -0.09185996 0.0073494273 0.034930725 -0.016363893
0.06313217 0.004829772 0.015595982 0.017741011 -0.015619088 -0.0037928089 0.025661822 -0.12885442
-0.07693916 -0.038125943 -0.03591563 -0.00023502186 0.035261694 -0.022434285 -0.012593843 0.028996158
-0.052866537 0.018321462 0.032267477 0.038337342 0.02689485 0.031078469 0.0060810526 0.010625591
-0.0136239845 0.03615714 0.02970459 0.033934742 -0.05270442 -0.035608314 -0.032709498 -0.020360557
0.005640799 0.008326613 -0.048710782 -0.041657686 -0.040206134 -0.030807262 -0.018106382 0.021642571
-0.06445552 -0.016622793 -0.04980911 -0.097380646 -0.04187736 -0.03198959 0.026506001 -0.010489572
-0.03779772 0.06047598 -0.056149606 -0.05898015 0.045248527 0.03407548 -0.019359542 0.01965477
-0.017283885 0.018564008 -0.0132747535 -0.008722424 -0.042622674 0.010433453 -0.05843646 -0.031270083
-0.02648287 -0.010462959 0.0030506896 -0.0043647056 -0.0025323338 0.09063575 0.034206 -0.011707777
-0.029129075 -0.0037063488 -0.017174276 -0.034263603 0.0056732805 -0.014853543 -0.018165294 -0.021218933
-0.026580913 0.0021044859 -0.047877185 -0.0645778 -0.021337966 -0.012505923 -0.022384083 0.0022485373
-0.0069379625 0.013620253 -0.025622377 -0.08282753 -0.06256695 -0.09023256 -0.031027284 -0.050795797
-0.050009638 -0.01244963 -0.027069908 0.0058218013 0.016759811 0.022401243 -0.0007961472 0.04386005
0.011992917 0.009286475 0.0002190483 0.037784196 0.042016517 0.018910846 0.0023607023 0.026817495
0.08146872 0.015600897 -0.010933688 0.03392286 0.00057719444 -0.022064188 0.042347677 0.006492435
0.01429945 0.018397834 0.007746083 0.00644634 0.047615368 0.03768361 0.016016494 0.035765264
0.03483456 0.029586608 0.022183413 0.0059822607 0.05238719 0.07643353 0.0646985 0.037690375
0.0070584663 0.0057586106 -0.014957522 -0.0062850686 -0.028080495 0.006235414 0.0072210454 0.014520896
0.03186682 0.064551055 0.06772463 0.06121207 0.04007627 -0.02825518 -0.010772024 0.017737389
-0.02223628 -0.0077836807 -0.021670343 0.00047323303 0.02540575 0.0075513665 0.002249949 0.04029461
-0.01992873 0.03151797 0.11621941 0.010137054 0.0019095575 0.0066057225 0.005309773 0.031956505
0.005790291 0.054546494 0.028228626 0.04343715 -0.010130819 0.0039021024 0.052558802 0.013755917
0.015006361 0.034205794 0.02844068 0.025982523 0.07129143 -0.046817675 -0.028561948 0.0044068126
0.009576789 -0.00065528153 -0.0031694202 0.01484266 0.0020084006 0.038132444 0.03399082 0.00089353765
-0.032894887 0.056213837 0.006354715 -0.052076064 0.029700564 -0.006227166 -0.056753475 -0.056312714
-0.026740545 -0.024873951 -0.039153576 0.0029633036 -0.01079791 -0.04370068 -0.017813412 -0.049469825
0.006064681 -0.008200821 -0.04639566 0.026896557 0.08745451 -0.0727245 0.0645582 0.051270366
-0.025071422 -0.051179297 -0.01675818 -0.020663522 -0.046949465 0.06948851 0.028168552 0.03788199
0.033852182 0.015178512 0.08761194 0.04689952 0.06717784 0.050431892 -0.0005620672 0.05845909
0.04604447 0.03246933 0.031308297 -0.00011037208 -0.08374376 0.065558776 -0.018007422 -0.026755622
-0.003151448 -0.0034531648 -0.013054761 0.016148668 0.024819376 -0.005459259 0.03261373 -0.0050676093

bias f4 [3]
00000000: 93ab 43bd 9bc2 1dbd f0f1 dbbc
-0.047771048 -0.03851567 -0.026848763
