TuiGAN/models/horse2zebra/ba4.pth (torch, 233612 bytes, 46 tensors)

weight f4 [32, 3, 3, 3]
000000 24 46 a2 bc 6e f5 4e bd 18 80 2b bc 69 4e 10 3b
       -0.019808836 -0.05052703 -0.010467552 0.0022019392
000010 38 0c 29 3d de b0 74 bb 45 9c a4 3a da 2a a5 bc
       0.04127142 -0.0037336866 0.0012558779 -0.020162035
000020 48 49 9c 3a b8 8a d5 bc e4 93 0b 3d 91 98 f2 3b
       0.0011923695 -0.026067123 0.034076586 0.0074034412
000030 ea c9 63 3c 9c 1b 28 bd 74 7d 93 3c 3c 96 52 bc
       0.0139031205 -0.041041955 0.018004157 -0.0128532015
000040 e8 5a 76 3d ab 85 5c bd 14 62 07 3d cb 4c 32 3d
       0.06014529 -0.053838413 0.03305252 0.043530267
000050 0d 99 11 ba a8 91 8e bc cb 80 34 bd 8e ae be bc
       -0.00055541174 -0.017403439 -0.04406814 -0.023276594
000060 fd b8 e9 3c 20 55 0d bd 39 3a 4a 3d ff d3 ae bc
       0.028530592 -0.03450501 0.04937193 -0.021341322
000070 3c d7 04 bd a2 56 fa 3b 5e cd f9 3c 16 00 27 bd
       -0.032431826 0.007639722 0.030493435 -0.040771566
000080 27 b8 08 bc de be 31 3d 00 1d 5e 3d d0 c8 94 3c
       -0.008344687 0.043394916 0.054226875 0.018162161
000090 cc 82 9d bc 6c ba 8b bc fa 0d 4e bd 4a c8 98 3c
       -0.019227408 -0.017056666 -0.050306298 0.018650193
0000a0 21 fa 24 bd fe 89 d4 bc fb aa 76 3c 5e 45 66 3b
       -0.040277604 -0.025944706 0.015055413 0.003513656
0000b0 a2 b9 98 bc 77 ce 25 3d 1a 43 81 bc d1 d7 1b bd
       -0.018643204 0.040480103 -0.015779067 -0.038047615
0000c0 f0 b1 ed 3c 72 dd a6 bc b0 78 bf bc 45 4c 60 3c
       0.029015511 -0.020369265 -0.023372978 0.013690059
0000d0 25 48 64 bc d6 a5 72 ba cd 44 c5 bb e9 b1 5c 3d
       -0.013933216 -0.0009256279 -0.0060201646 0.053880606
0000e0 d2 5e 52 3c dc f8 9f 3c 80 65 f1 3d 2e b6 8a 3d
       0.01283999 0.019527845 0.11786938 0.06773029
0000f0 26 4f 99 39 8f 64 4c 3d e0 9c 69 3d ab 25 82 bd
       0.00029241404 0.049900588 0.057034373 -0.06354841
000100 71 18 f7 bc 62 da b1 bc cf a2 ac bb e3 81 4b 3d
       -0.030163022 -0.021710578 -0.0052684317 0.049684417
000110 68 ec 3a 3d 3e a0 2c bd 88 1f 05 bd ba 35 a3 3c
       0.04563561 -0.042145006 -0.032500774 0.01992308
000120 78 30 b3 bc af f1 76 bc 65 de 1a bc b5 56 e2 ba
       -0.021873698 -0.01507227 -0.009452437 -0.0017268272
000130 83 27 0e 3d 29 c5 ef 3c 2c 75 39 bd cd bb e7 bb
       0.03470565 0.029268818 -0.04527776 -0.007071948
000140 11 94 1f 3d 52 b7 c1 bc 57 de ed bc 1e 27 7a 3b
       0.038959567 -0.023646984 -0.029036684 0.0038170288
000150 5c d1 66 bc 7c a7 dd bc ac a6 85 3c 95 dd d6 3c
       -0.014088001 -0.027057402 0.016314827 0.026228705
000160 05 65 02 3b 1c 5c c8 3c df 38 99 bc fb 5c e5 3c
       0.0019896638 0.024457984 -0.018703876 0.027998438
000170 d6 71 75 3d 0b 7b f3 bc ba f9 0f bd 7a 6d 14 bc
       0.059923016 -0.029721757 -0.035150267 -0.009059304
000180 a0 de 70 3d e8 6e da 3c f1 5e 13 3c 0d d8 68 bd
       0.05880606 0.026664212 0.008994804 -0.056846667
000190 58 70 72 bd ae 4c 58 bb d5 25 3c 3c 94 31 c3 3b
       -0.05918917 -0.003300469 0.011483629 0.005956838
0001a0 66 be 63 bc 3c 0f 69 3d f5 ee 7e 3d e0 fa 10 3c
       -0.013900375 0.056899294 0.062239606 0.008848876
0001b0 53 5d e9 3c 09 9f e7 bb d0 7a 5a bc 01 09 1e 3d
       0.028486883 -0.007068519 -0.013334945 0.038582806
0001c0 14 a6 9c bc 3f f3 d4 bc 5f fe 18 3d f3 62 d5 3c
       -0.019122161 -0.025994895 0.037351962 0.02604816
0001d0 b3 e1 21 bc 82 c9 0f 3d 1a 6c c8 3c 2e f8 17 3d
       -0.009880471 0.035104282 0.02446561 0.037101917
0001e0 07 d1 c0 3c bd 45 f7 bc 6f 99 ee bb 4f 43 90 3b
       0.023537172 -0.030184621 -0.0072814743 0.004402555
0001f0 7c 26 03 bd 81 bc 5f bc f1 73 b8 3c df 3c 31 bd
       -0.032019123 -0.013655783 0.022516223 -0.04327094
000200 f2 58 f6 bc 94 e9 57 3d 99 6f 30 3c 59 68 5b bb
       -0.03007171 0.05271299 0.010768794 -0.0033478944
000210 06 50 a4 bb e5 b7 3a bd 63 ca 09 bd a8 df 03 3b
       -0.0050144223 -0.04558553 -0.033640277 0.0020122323
000220 24 4d c7 3c f1 00 9c bb 57 0d d3 bc 17 8f cb bc
       0.024328776 -0.0047608544 -0.025763197 -0.024848504
000230 1e bb 01 bd e9 28 57 3d cf 54 1e 3c 55 73 03 bd
       -0.03167259 0.05252925 0.009663775 -0.03209241
000240 b2 df 0e 3b 43 da 11 bd 47 3f e2 3c f1 fe cf bb
       0.0021800813 -0.03560854 0.027618064 -0.00634753
000250 73 de fe 3d 0d e6 c9 ba b8 f1 5b bd ba 1c ee bc
       0.124447726 -0.0015403643 -0.053697318 -0.029066432
000260 3d 5b f5 3c fc 87 24 3c e6 d7 2b bc fb cf 3e ba
       0.029950732 0.010042187 -0.010488486 -0.00072789163
000270 7e 3e bd 3c ed 52 72 bd 87 52 fc 3b 3f 33 82 3c
       0.023101088 -0.059161115 0.0077002677 0.015893577
000280 7e c6 7e 39 67 9f e6 3c de a8 73 3c 8b 91 fd 3c
       0.00024297272 0.02815218 0.014871804 0.03095319
000290 bf 87 de bc 68 26 fc 3c c9 0c 05 3c b2 c6 80 3a
       -0.027164338 0.030780032 0.008120724 0.0009824841
0002a0 77 2b be bb a4 f0 4b bc b0 6b c9 3c 50 87 08 bd
       -0.0058035213 -0.01244751 0.024587482 -0.03333217
0002b0 2b f5 2b 3c b5 81 0b bd a2 0c d9 bb 86 f1 d9 ba
       0.010495464 -0.034059245 -0.0066238204 -0.0016627766
0002c0 9c 67 ed bc 4e 21 c0 bc ad 3b 81 bd 7b c4 df 3c
       -0.028980069 -0.02345338 -0.063102104 0.027315369
0002d0 4c 39 ab 3c 50 f5 bb 3b 28 0c 05 bd a2 7d 24 ba
       0.020901345 0.0057360306 -0.032482296 -0.0006274824
0002e0 ce c6 f8 3b e3 48 6d 3c 2e e1 b4 bc d6 b6 37 bd
       0.0075920587 0.01448271 -0.02208003 -0.0448521
0002f0 02 e8 81 3d c7 f2 3a bc 2c 2c cc bc 0d af 18 3c
       0.0634308 -0.011410422 -0.024923407 0.009319079
000300 14 de 49 bd d9 08 bd 3c 43 47 32 3d c8 11 a5 bc
       -0.049284056 0.023075508 0.04352499 -0.02015008
000310 dd f2 5c bd a6 92 10 bd b8 6c 8a bb 47 34 2d bc
       -0.05394255 -0.035296105 -0.004224386 -0.010571546
000320 3e 1e 2e 3d 5f e8 34 bb f4 31 e8 bb f8 43 9e 3c
       0.04250931 -0.0027604324 -0.007086033 0.01931952
000330 8e 63 93 bb 7a ee f8 bc 4c ab 89 bd 80 1a eb 3c
       -0.004497952 -0.030387152 -0.067221254 0.02869916
000340 9d 18 d4 3b a7 ec 3c bb 30 68 4c bc d6 d7 3f 3d
       0.0064726607 -0.002882758 -0.012476012 0.046836697
000350 d1 b1 bd 3c c4 75 12 3d bd df 0e bd 7e 11 04 bc
       0.023156079 0.03575684 -0.034881342 -0.008060811
000360 3f 54 9f bc db 29 5e bb 40 04 39 3c 06 16 21 3c
       -0.019449351 -0.003389946 0.011292517 0.009831911
000370 cd c2 b2 3d d0 57 76 bd 4f 4f a7 3b 25 68 93 bc
       0.087285616 -0.06014234 0.00510589 -0.017993996
000380 2c 2d 00 bc a7 24 06 3d fb de 19 bc 1a 0d b5 bc
       -0.00782327 0.0327498 -0.009391542 -0.022100974
000390 88 f2 94 bc 81 c5 35 bd a9 fc 94 bb 4e e8 f5 3b
       -0.018182054 -0.044377808 -0.004546721 0.0075044995
0003a0 cb a2 82 bd 04 ca a3 3c af 71 1f bd 13 62 ea bb
       -0.063787065 0.01999379 -0.038926776 -0.0071528046
0003b0 94 a3 15 3d 8f e4 d0 3c d2 08 32 bc dd a6 08 3d
       0.036532953 0.02549961 -0.010866361 0.03336226
0003c0 3c d0 36 bc 7b a1 08 3d 6c 46 36 3c 32 61 eb 3c
       -0.011158045 0.033357125 0.011125188 0.02873287
0003d0 cc 78 3f bb e0 ba 35 bd 15 fc ca bb e8 b1 cc 3c
       -0.0029216288 -0.04436767 -0.0061946013 0.024987176
0003e0 85 8e 60 bd 5c 11 84 bd 22 07 1d bd a2 7d eb bd
       -0.054823417 -0.064486235 -0.03833688 -0.11498572
0003f0 82 bb 82 3c 61 60 3f bc f6 bd e0 bc ae f3 bb bc
       0.015958551 -0.011680693 -0.02743433 -0.022943344

bias f4 [32]
000000 ef 58 06 3f 71 71 07 3f a5 7b 04 3f b6 1b 57 3f
       0.5247945 0.5290747 0.51751167 0.8402666
000010 29 96 37 3f 1c 60 ff 3e af 9d 03 3f c4 b0 39 3f
       0.717135 0.49878013 0.5141248 0.7253535
000020 95 40 0f 3f d6 eb 28 3f af ec 08 3f 8a 28 2f 3f
       0.5595792 0.6598486 0.5348615 0.6842123
000030 b8 e0 00 3f 86 b9 53 3f b9 28 32 3f 65 86 34 3f
       0.50342894 0.8270496 0.6959339 0.7051757
000040 2b f4 f8 3e 45 d5 2d 3f 53 be 16 3f 12 37 22 3f
       0.48623785 0.6790355 0.5888416 0.6336528
000050 48 6a 2b 3f 25 72 36 3f d5 9f 58 3f 76 d4 e7 3e
       0.6695905 0.7126792 0.84618884 0.45279282
000060 c1 40 f5 3e b6 da 52 3f b0 6d 5b 3f 75 b3 17 3f
       0.47900966 0.82364976 0.85714245 0.59258205
000070 ad 6a 0f 3f b8 2e 30 3f ff d9 23 3f 93 89 42 3f
       0.5602215 0.6882129 0.6400451 0.7599117

weight f4 [32]
000000 00 77 69 3f 93 5b 77 3f af 08 79 3f 04 2d 80 3f
       0.91197205 0.96624106 0.97278875 1.0013738
000010 4c 10 83 3f b4 fd 84 3f 7a 3e 81 3f 9b b6 78 3f
       1.0239348 1.0389924 1.0097191 0.97153634
000020 73 6a 7b 3f 85 c4 78 3f a9 32 7d 3f bf 99 7b 3f
       0.98209304 0.97174865 0.98905426 0.9828147
000030 c9 ed 83 3f e6 72 82 3f ad ed 7e 3f 41 66 7b 3f
       1.0306941 1.0191314 0.99581414 0.982029
000040 74 50 83 3f d7 35 84 3f 66 5d 7c 3f f6 50 81 3f
       1.0258927 1.0328931 0.98580015 1.0102832
000050 00 dc 80 3f 8a 3f 74 3f af e1 75 3f 4b 30 84 3f
       1.0067139 0.9540945 0.9604749 1.0327238
000060 59 7b 77 3f d2 0c 7b 3f 9d 39 80 3f 19 9d 86 3f
       0.9667259 0.9806644 1.0017582 1.0516692
000070 ff 92 83 3f 45 33 84 3f b7 bc 84 3f 57 b6 5d 3f
       1.0279235 1.0328146 1.0370091 0.86606354

bias f4 [32]
000000 9b 4c 07 bd 8b fa 00 3d be 67 c3 3c 73 38 2a 3e
       -0.03303204 0.031488936 0.023853179 0.16623096
000010 58 35 55 3d 82 05 f8 3d e7 d9 ea bd d5 95 a5 bd
       0.052052826 0.121104255 -0.11467343 -0.08085219
000020 57 4b a3 bd 0a 6d 4a bc 74 79 bf 3c 8c 60 bc bd
       -0.07973354 -0.0123550985 0.023373343 -0.09198102
000030 ce 1b 1e 3d 96 eb ea ba 6c ff a3 bd d8 fe 05 3d
       0.038600735 -0.0017922993 -0.08007702 0.03271374
000040 81 44 1d 3d 8c 94 18 3d e9 1f 86 3d d4 0b bb bc
       0.03839541 0.03725104 0.06549055 -0.022832789
000050 dc 42 db 3d bd 5d 5a 3d 8e 9b a9 bd d8 ce 0b be
       0.10706112 0.053312052 -0.08281623 -0.13653123
000060 41 7e 27 bd a9 69 52 3d f7 79 68 3d 6d 6f 9a 3c
       -0.04089189 0.051370297 0.05675694 0.01885196
000070 2e 01 94 3d 2d b6 30 ba 67 b6 a2 bd a5 6c f6 3e
       0.072267875 -0.00067410135 -0.07944947 0.48129764

running_mean f4 [32]
000000 c7 1a 05 3f e8 4c 0d 3f 5a 2d fe 3e 33 8c 53 3f
       0.51993984 0.55195475 0.49643975 0.826358
000010 1f 65 3a 3f ad 8a fa 3e a1 c8 06 3f 6e 72 38 3f
       0.7281055 0.48933926 0.52649885 0.72049606
000020 ec 91 0d 3f c7 26 3b 3f 3f 15 1b 3f 65 b2 20 3f
       0.55300784 0.73106045 0.60579294 0.6277221
000030 30 54 f4 3e b6 f8 5a 3f 68 9b 30 3f b6 ae 1d 3f
       0.4772048 0.8553575 0.6898713 0.6159471
000040 69 9d 0e 3f ad c8 31 3f 31 fb 11 3f e4 27 00 3f
       0.5570894 0.6944683 0.5702391 0.5006087
000050 c7 e5 23 3f 56 37 37 3f 73 4a 55 3f 48 0c ed 3e
       0.6402249 0.7156881 0.83316725 0.46298432
000060 21 5c 00 3f 99 ad 52 3f 00 11 58 3f 51 ce 1c 3f
       0.5014058 0.8229614 0.8440094 0.61252314
000070 f2 de 25 3f dc 3c 1b 3f 02 3f 30 3f 04 c8 40 3f
       0.6479331 0.6063974 0.6884614 0.753052

running_var f4 [32]
000000 c0 7f 83 39 c2 01 83 3b 02 5e 72 3c 51 73 3a 3b
       0.00025081448 0.0039980123 0.014792921 0.0028450082
000010 72 6d 1f 3b b4 e6 ad 39 9d 35 cc 3a f3 81 2c 3b
       0.002432671 0.0003316902 0.0015579943 0.0026322573
000020 3c 77 d0 39 e6 ef 1d 3d fe 73 d6 3c 5c e7 7b 3b
       0.00039761688 0.038558863 0.026178356 0.0038437461
000030 86 5e ba 3c 59 7f 64 3b c5 d4 4f 3b 7a b2 0a 3c
       0.02275015 0.0034865944 0.0031712514 0.008465404
000040 4d 40 9f 3b 90 d7 15 3b ad 2b a8 3a 18 01 46 3d
       0.00485996 0.002286408 0.0012830399 0.048340887
000050 dd dc 8e 3b 02 a9 fc 3b 87 64 e4 3a a2 f7 06 3b
       0.004359825 0.007710577 0.0017424979 0.0020594378
000060 bd 43 fd 3b 14 92 61 3a 2c 7d 98 3b ca 90 e7 3b
       0.0077290223 0.0008604836 0.0046535935 0.0070668207
000070 61 08 2c 3c f7 1a e0 3c 2a 6d 1c 3b 3a ec 61 39
       0.010500045 0.027356608 0.0023868778 0.00021545673

weight f4 [32, 32, 3, 3]
000000 f2 2e f9 3a 1e 62 6a 3c 50 61 52 3b 42 df 0c 3d
       0.0019011183 0.0143056195 0.003210146 0.034392603
000010 03 18 cf ba 5a 4b aa bc b7 bf 6c 3c f8 51 8e 3c
       -0.0015800003 -0.020787884 0.014450005 0.01737307
000020 ce 1f dc bb 7f 64 c1 3c 20 5b 00 bc 10 e1 a6 bb
       -0.0067176586 0.02360749 -0.007834226 -0.0050927475
000030 c7 db 34 3d ba 5d db 3c de 1f b1 bc 5b 23 ce 3b
       0.04415491 0.02677809 -0.02162164 0.006290836
000040 2a e4 67 bc a8 2d 39 3a 8a 0f 10 3c ff 1e 8f 3c
       -0.01415352 0.0007063993 0.008792767 0.017470835
000050 d9 a1 58 bc fd 8d 94 3c 45 85 4c 3b 8b b8 95 bb
       -0.013222181 0.018134112 0.0031207365 -0.0045691184
000060 e4 2c 07 bd c4 1c f1 bc b4 7c 5c bc 08 04 f2 bb
       -0.033001795 -0.029432662 -0.013457466 -0.0073857345
000070 68 43 20 bd ba 97 19 bd c1 1b bd 3c f6 96 19 3d
       -0.039126784 -0.037498213 0.023084523 0.037497483
000080 b2 aa 31 3d 53 b6 27 3d 30 ff a2 bb f4 29 59 bd
       0.04337568 0.040945362 -0.0049742684 -0.053018525
000090 09 75 9f bc e4 bf 4a bd f2 36 c0 bc 53 2a 85 bc
       -0.019464986 -0.049499407 -0.0234637 -0.016255533
0000a0 7a 30 d0 3c ea 31 aa bb 87 79 73 3c 72 1b aa bb
       0.02541374 -0.0051939385 0.014860517 -0.00519126
0000b0 3d 9f 33 3d a8 8d a5 3c 9a b2 44 3b db e3 c1 3a
       0.043853033 0.020209149 0.0030013681 0.0014792638
0000c0 33 59 bd 3c 2b 9c eb 3b ee c9 53 bc bb 11 0c 3d
       0.023113823 0.0071902475 -0.012926562 0.034196597
0000d0 bb e4 9a bb b5 3b 60 bc 35 c2 24 bd 73 48 98 3c
       -0.004726974 -0.01368611 -0.040224273 0.018589234
0000e0 a0 d5 b3 bc 7f f0 08 3d 08 bf 94 3c da ff 1d 3c
       -0.02195245 0.03343248 0.018157497 0.009643519
0000f0 92 23 a3 3c dd 11 9d bc d5 5c 38 bb 6f 10 f9 bb
       0.019914422 -0.019173557 -0.0028131504 -0.007600836
000100 37 06 02 3c 5a 1a 0f 3c af 06 72 3b 96 8e b3 3c
       0.007936052 0.00873431 0.0036930253 0.021918576
000110 dd 99 36 bc 44 11 39 3d dd 05 96 3c dd 00 91 bb
       -0.011145082 0.04518248 0.018313343 -0.0044251517
000120 c1 79 3c 3d 17 5f c3 3c c3 ba 7c 3d 13 d7 6b 3d
       0.04601455 0.023849053 0.061701547 0.057578158
000130 5b 4c c2 bb 6d 38 05 3d 7a 90 60 3d c6 15 20 3c
       -0.0059295124 0.032524515 0.054825284 0.009770816
000140 04 47 66 3c de bc 8b bc bd e8 4d bb f8 43 6f bd
       0.014055017 -0.017057832 -0.003141924 -0.05841443
000150 dd ad cf bb 7d 50 36 bd be 06 ac bd ba 49 99 bd
       -0.006337865 -0.044510353 -0.083997235 -0.07484765
000160 a3 7e dd bc ba 89 b3 bd dc 63 68 bc be 23 10 3c
       -0.027037924 -0.08766504 -0.014183965 0.008797584
000170 70 32 39 bd 72 9b 79 bb 7f aa 9a bc fe c6 07 bd
       -0.045214117 -0.0038087037 -0.018880127 -0.033148758
000180 9d b7 24 3d 55 1c 7d bc d2 7b 94 bd 85 6e 4b bd
       0.04021417 -0.015448649 -0.07250179 -0.049665947
000190 de d8 b5 bd cc 72 d6 3c ab 60 ef 3b d9 a2 05 bd
       -0.08879255 0.026177786 0.007305225 -0.032626007
0001a0 97 1a d1 bc 36 7d bb 3c fd 93 0f bd b8 db bc bb
       -0.025525374 0.022886854 -0.035053242 -0.005763497
0001b0 a9 b7 43 3c c9 d4 26 3b 21 19 48 bc 2f 41 8b 3c
       0.011945643 0.002545642 -0.012213022 0.016998855
0001c0 6c 38 97 3c 45 af 4f bc c6 32 4e 3c ba 72 d3 3c
       0.018459521 -0.012676065 0.0125853475 0.025811542
0001d0 38 8b f0 bb 4e 3f 99 3d fb ce 0d bc 9b cb 8a 3d
       -0.007340815 0.074827775 -0.008655305 0.06777116
0001e0 ba 0f 80 3d f7 65 ba 3b 5f 5a 94 3c bc 83 00 3d
       0.062529996 0.0056884247 0.018109499 0.03137563
0001f0 9c 51 0a bc 1b 3b 38 3d 88 85 0d 3d af 6f 70 bd
       -0.008442309 0.044978242 0.034551173 -0.05870026
000200 8d b8 20 3d 81 4c b8 bc 56 b2 a4 bb 2d ac 5e 3d
       0.0392385 -0.022497417 -0.005026142 0.05436342
000210 c4 9b 35 bc c2 d5 1a bd 58 9c e3 3c 20 9f 19 bd
       -0.011084501 -0.03780151 0.027784511 -0.03750527
000220 f0 ca ea bc e2 73 3d bd 1a ba ad bb 5b 61 19 bd
       -0.028661221 -0.046253093 -0.005301726 -0.03744636
000230 82 39 f8 bc 77 5f 8c 3c 50 ba 45 3d c7 c9 8d bc
       -0.03030086 0.017135365 0.048273385 -0.017308129
000240 36 29 3f 3c ee 79 71 bd 2b a8 ad bc c5 94 72 3d
       0.01166754 -0.05895417 -0.021198353 0.05922391
000250 bd a7 82 ba 09 dd 54 3d d9 ae d2 3d 02 32 68 3d
       -0.0009968203 0.051968608 0.10287256 0.056688316
000260 1c b7 80 3d 6f c7 c4 bd 33 92 aa bd 9e 07 02 be
       0.06284925 -0.096083514 -0.083286665 -0.12698218
000270 5b b9 b6 bc 04 c1 96 bd 5a 09 28 bd a3 0c 0a 3d
       -0.022305181 -0.073610336 -0.041024543 0.033703458
000280 c4 2a 2a 3b 92 0b 2a 3d ca 83 3f 3d ff 2a b7 3c
       0.0025965432 0.04151494 0.046756543 0.02235937
000290 a7 d9 48 3c 70 35 23 3d 12 85 55 3c 5d 96 34 3d
       0.012258924 0.039845884 0.013032215 0.04408871
0002a0 4f 22 06 3d 81 18 09 bc 13 34 95 bc ad ed 4f 3d
       0.032747563 -0.008367659 -0.018213307 0.050763775
0002b0 68 3d b4 3b 3a cc 63 bd d2 e9 c8 bc 48 9f 7f 3c
       0.0055004843 -0.055614688 -0.024525557 0.01560194
0002c0 17 2c 8b bb a1 c8 0a 3b 5f 44 9a bd 78 69 1b bd
       -0.0042471993 0.0021176713 -0.07532572 -0.03794238
0002d0 f7 ee 02 3b 23 c5 41 bd 69 78 81 3c c6 9f cf 3c
       0.001997886 -0.047307145 0.015804486 0.02534474
0002e0 65 bc 5d bd 39 c6 b8 3a aa 0e 2e 3d b3 1d bd 3c
       -0.054134745 0.0014097161 0.042494453 0.02308545
0002f0 01 09 fe bb 14 35 df 3c 55 7b db bc 26 01 16 bd
       -0.007752538 0.02724699 -0.026792208 -0.03662219
000300 1c fa ff bc c7 e3 6d bd 53 e8 c6 bd 6b ba c4 3b
       -0.031247191 -0.058078554 -0.09712281 0.006003668
000310 c4 66 73 bc 41 08 3e bd b2 d4 82 3d 3d 88 d4 bc
       -0.014856044 -0.04639459 0.06388225 -0.02594387
000320 78 64 01 3c a6 85 6a 3b 8d b7 24 3d 32 a2 63 3b
       0.007897489 0.0035785227 0.04021411 0.0034734127
000330 54 f3 9c 3d 31 be e3 3c 35 97 33 3d f9 00 e1 3c
       0.07663599 0.027800651 0.043845374 0.027466284
000340 bc dd 3d 3d df 79 bf 3d 4c b9 af 3b 72 93 38 3d
       0.04635404 0.09349417 0.0053626653 0.04506249
000350 2c 74 95 3d 53 5b c9 3d 48 aa 06 3d 9d f0 3a 3d
       0.07297549 0.09831872 0.032877237 0.045639623
000360 9b 85 0f bd 0a c1 28 3c a3 ae bd bc f4 18 57 3c
       -0.035039525 0.01029993 -0.023154562 0.013128508
000370 84 9a 44 3b c7 64 c8 bc 85 d8 91 bc 00 55 47 bc
       0.0029999325 -0.024462117 -0.01780344 -0.012166262
000380 68 4d 91 bc 2f c4 db 3c 66 cc 68 3d a0 85 e0 bc
       -0.017737105 0.026826946 0.056835555 -0.027407467
000390 c2 72 da 3c 22 c4 25 bc f4 7c 5d bc 28 1b 60 3c
       0.026666049 -0.0101175625 -0.013518561 0.01367835
0003a0 49 26 99 3c 5e 61 bd bc 70 22 a4 3a ee b4 a1 bc
       0.018695014 -0.023117717 0.001252247 -0.019739594
0003b0 81 1c 7f bd a4 fb 1c 3c df 53 81 3c 4f 15 ae 38
       -0.062283043 0.00958148 0.015787063 8.3009356e-05
0003c0 ff 59 09 bc 19 b0 a8 3c e6 d0 92 bc 5d 87 a7 3c
       -0.008383273 0.020591782 -0.017921876 0.020450288
0003d0 a4 de 61 bc 26 90 2c 3c 43 de b1 3c 7b 7e e0 bc
       -0.013785992 0.010532415 0.021712428 -0.02740406
0003e0 f3 b6 7f 3c ed 94 e5 3c 06 0a f7 3c 21 d9 ce 3c
       0.015607583 0.028025115 0.030156147 0.02525002
0003f0 82 9f 77 bc 04 5e 92 bc 30 ad 4d bd 75 7e 75 3c
       -0.015113713 -0.017867096 -0.050213993 0.014983763

bias f4 [32]
000000 19 c4 18 3f d6 6f 3a 3f 23 9b 1f 3f 77 1a 3c 3f
       0.5967422 0.728269 0.62346095 0.7347788
000010 9d e0 0f 3f 84 0c 3b 3f 4a 82 1a 3f c1 b7 28 3f
       0.5620211 0.7306597 0.60355055 0.65905386
000020 e3 2e 2d 3f 10 25 28 3f 39 08 43 3f 0c 1d 34 3f
       0.6764967 0.6568155 0.7618442 0.7035682
000030 32 02 30 3f 23 82 17 3f 6d 85 12 3f b4 cc 13 3f
       0.6875335 0.5918295 0.5723484 0.5773423
000040 01 97 2f 3f b7 2e 2a 3f 9e 6a 28 3f 72 4d 24 3f
       0.6858979 0.6647753 0.65787685 0.6418067
000050 98 9d 1e 3f 4a db 0a 3f 19 5f 1c 3f 76 9f 3f 3f
       0.6195922 0.5424086 0.6108261 0.74852693
000060 ba 15 3c 3f d1 93 1f 3f 52 19 12 3f a7 b2 08 3f
       0.7347065 0.62334925 0.57069886 0.533976
000070 e2 a5 15 3f 76 ee 1c 3f 65 aa 18 3f f7 64 0c 3f
       0.5845624 0.6130136 0.59635 0.5484156

weight f4 [32]
000000 67 14 84 3f b9 c5 7e 3f ab 98 71 3f 15 29 84 3f
       1.0318726 0.9952045 0.9437358 1.0325037
000010 dd e9 76 3f bc d7 76 3f db 1b 80 3f 30 c4 85 3f
       0.964506 0.96422935 1.0008501 1.0450497
000020 c1 a8 85 3f dd 8e 87 3f 38 fe 80 3f b6 f1 7f 3f
       1.0442125 1.0590473 1.0077581 0.99978197
000030 1d 64 85 3f b6 93 70 3f 8f 84 87 3f 96 2a 82 3f
       1.0421177 0.9397539 1.0587329 1.0169246
000040 48 b7 78 3f c5 e3 7c 3f 49 40 7b 3f b8 7c 79 3f
       0.97154665 0.9878505 0.98144966 0.9745593
000050 b0 14 77 3f a1 5a 83 3f 1c b3 80 3f 4c e4 79 3f
       0.9651594 1.0262033 1.005466 0.9761398
000060 08 db 74 3f 54 a7 76 3f 0e 6a 77 3f 73 5c 81 3f
       0.95646715 0.9634907 0.966462 1.0106338
000070 a6 51 7b 3f 88 f5 7c 3f e8 c3 7e 3f 4c e0 75 3f
       0.9817146 0.9881215 0.9951768 0.96045375

bias f4 [32]
000000 b6 41 38 be 6d 93 a6 bd 89 16 74 bc 52 42 6d bc
       -0.17993817 -0.08133588 -0.014897951 -0.014481144
000010 75 e5 09 3d 90 2d d1 bd 63 0d 19 bd fd 29 2a bd
       0.033666093 -0.102137685 -0.037366282 -0.04154395
000020 04 45 d1 bd 77 cd b9 3d 04 8b f0 bd 00 c3 53 3e
       -0.10218242 0.090723924 -0.11745265 0.20679855
000030 3f 28 ba bd 31 e4 0f be b2 cb cf bd df fd e1 bc
       -0.090897076 -0.14051892 -0.10146274 -0.027586875
000040 2d f0 44 bd 65 59 0c be 7f 91 14 be c5 d8 e7 3c
       -0.048080612 -0.13705976 -0.14508627 0.028301606
000050 5a ed 0e bd ef d5 ef bd c2 bf 23 be 78 d6 b1 bc
       -0.034894325 -0.117107265 -0.15991119 -0.021708712
000060 eb f0 c5 be 6f 87 9b 3d 27 52 ad 3c 95 d7 74 3c
       -0.38660368 0.07594191 0.021157337 0.014943977
000070 70 39 e9 bc d1 50 83 bc d4 2c b7 bd 71 9e 88 3e
       -0.028469771 -0.016029747 -0.08944097 0.2668338

running_mean f4 [32]
000000 e6 d3 39 3f a8 d7 41 3f d0 47 1a 3f 03 82 8b 3d
       0.72588956 0.7571969 0.6026583 0.06811907
000010 24 bb 18 bd 28 65 04 3f 31 22 06 3d 5a 39 80 3e
       -0.037287846 0.5171685 0.03274745 0.25043756
000020 62 ce 20 3f c2 fa 77 3e 8b 1a c4 bc f4 f4 5c 3d
       0.62814915 0.2421675 -0.023938438 0.053944543
000030 fd 6f a8 3f 06 f8 ee 3e 65 74 81 3f d1 04 02 3a
       1.3159176 0.46673602 1.0113646 0.0004959824
000040 f0 e8 2f 3f da 14 3d 3f fc e7 92 3f ef 8f 78 bd
       0.6871481 0.7385994 1.1477046 -0.06068414
000050 92 9c 3d 3e 9a 6a 78 3f 83 63 ee 3f db 28 8f 3f
       0.18516758 0.9703766 1.8624119 1.1184343
000060 f5 50 0c 3f 15 37 3f 3e 4d ee eb 3e 30 4f 2f 3d
       0.5481103 0.18673356 0.46080247 0.04280013
000070 89 a2 a0 3f 03 c0 0d 3f e1 27 bc 3f 1e f8 f1 3e
       1.2549602 0.5537111 1.469967 0.4725961

running_var f4 [32]
000000 73 06 8e 3e bc 55 a9 3e 1b 80 1a 3e 06 2b 96 3e
       0.27739295 0.33073223 0.15087931 0.293297
000010 cd 2d 17 3f c3 2e 2c 3e 8a 83 28 3f 66 44 fa 3e
       0.5905426 0.16814713 0.6582571 0.4888031
000020 71 41 c0 3e 91 89 97 3e 06 4d bf 3e 94 d2 64 3e
       0.37549928 0.29597142 0.37363452 0.22345954
000030 a0 4b 86 3e bd 1f 42 3e d0 d6 95 3e 70 df b0 3f
       0.26229572 0.1895742 0.2926545 1.3818188
000040 eb 50 42 3f 65 01 da 3e 02 f1 74 3e 2d 68 ea 3e
       0.7590472 0.4257919 0.23920062 0.45782605
000050 20 cb 0f 3f 9c cb 86 3e e1 4c 0d 3f 14 46 83 3e
       0.5616932 0.26327217 0.5519543 0.25639403
000060 91 ca b2 3d f7 28 15 3e cf 5e 9c 3e df 24 3a 3f
       0.08730043 0.14566408 0.30541083 0.7271251
000070 df 1d 75 3e ed 31 8e 3e 61 9c 6a 3f f4 52 8a 3e
       0.23937176 0.27772465 0.91644865 0.27016413

weight f4 [32, 32, 3, 3]
000000 11 84 e1 bd b1 5f 26 bc 16 ac 21 3d 5a c5 1d bd
       -0.11011518 -0.010154651 0.039470755 -0.038518287
000010 f3 49 ea bc 0b cc 54 3d f8 cf cb bc 18 0a 5e bc
       -0.028599715 0.051952403 -0.02487944 -0.013552211
000020 12 16 39 bd 02 8b c4 bd 7d 99 85 bd 0d 27 de bd
       -0.045187064 -0.09596826 -0.06523416 -0.10847292
000030 a9 2c b6 bd a5 6f f9 bb 3a 25 1d bd 50 91 12 bc
       -0.08895237 -0.007612186 -0.03836558 -0.008945778
000040 8d 1a 67 3b 17 fa 95 bd f1 a3 7b 3c 38 42 18 3d
       0.0035263628 -0.073230915 0.015358911 0.037172526
000050 0f 14 57 bd 3d f2 22 bc 1c a2 37 bc aa 6d a7 bc
       -0.052509364 -0.009945449 -0.0112080835 -0.020438034
000060 ec 3d 7f bc 65 08 04 3d e1 79 a8 bc 9e ac 71 3d
       -0.015578728 0.03223457 -0.020565929 0.05900251
000070 02 63 9c 3b d5 e2 57 bd bb e6 9b bc fa e1 14 bc
       0.004772545 -0.05270656 -0.01903092 -0.00908708
000080 57 96 19 bd 90 d9 d0 bc 56 de 5d bd 75 54 8b bc
       -0.03749689 -0.025494367 -0.054167114 -0.017008046
000090 e2 4c 76 bc 13 22 a1 3d 75 49 55 bc 01 f4 80 3c
       -0.015032979 0.07867827 -0.013018002 0.01574135
0000a0 ef 5b 9f 3d 4d 55 0b bd 59 53 fa ba 61 e4 91 3d
       0.07781207 -0.034016896 -0.0019098326 0.07123638
0000b0 89 e9 7f bb 99 40 0c 3c d3 17 21 3a d8 a5 e4 3c
       -0.003904911 0.008560323 0.00061452127 0.027911112
0000c0 b6 d8 98 bb 47 48 c6 bc a7 b7 19 3d c9 52 30 bc
       -0.004664506 -0.024204386 0.03752866 -0.010761925
0000d0 62 0e 1f 3d b0 d2 1f 3d 13 4e cd bc 40 f9 89 39
       0.038832076 0.039019287 -0.025061643 0.00026316382
0000e0 bf 56 e1 bb c8 de 43 bc c7 08 1e 3d ae 37 44 bd
       -0.006876796 -0.011954971 0.03858259 -0.047904663
0000f0 60 bb 71 3d 1a 91 22 3d e9 5a 2d bc 0b 02 5c 3d
       0.059016585 0.03968916 -0.010580757 0.053712886
000100 8b 2e 9a bc 66 b6 3a 3d ab 11 dd b9 e8 39 f6 3b
       -0.018821022 0.045584105 -0.00042165568 0.007514227
000110 03 c5 0a bd ef aa 0c 3d 2a c4 4c 3c e0 19 92 ba
       -0.03387929 0.034342702 0.012497941 -0.0011146627
000120 24 ad c4 bb f7 38 02 3d 10 5c ad 3b 8d f7 d1 3c
       -0.0060020853 0.031792607 0.0052905157 0.025630737
000130 79 81 16 3b 2f 1b cb bc 42 c0 5d 3b 33 11 c7 3c
       0.0022965355 -0.024793236 0.0033836518 0.024300193
000140 83 35 4a 3d 56 ac 09 bd 47 f9 19 bd fd b5 1e bd
       0.04936744 -0.033611618 -0.037591245 -0.038747776
000150 82 e9 37 bd 62 e6 9a 3b 0f 46 d9 bc 7f db 0a 3d
       -0.044900425 0.004727171 -0.026522664 0.033900734
000160 25 b7 40 3d 79 d1 42 3c 16 9d 2e 3c 6b 12 3e 3d
       0.04704966 0.0118907625 0.010657569 0.046404283
000170 41 be 03 3d 41 76 02 3d 66 d8 12 bc 9a 67 cd bb
       0.032163862 0.031851057 -0.008962726 -0.006268454
000180 79 6f a6 3c 87 c8 e3 3c e1 fb 7b bb e6 75 cc bc
       0.020316826 0.02780558 -0.0038449692 -0.024958562
000190 fd ac d6 bb 53 83 04 bc 9d 27 6e bd 2f 11 2e 3c
       -0.0065513835 -0.008087951 -0.058143247 0.010624214
0001a0 66 82 73 bd 18 4d 39 bc 54 5d 24 3d 72 1a 06 bd
       -0.05945053 -0.0113098845 0.040128067 -0.032740064
0001b0 d1 3e 10 bd 21 f0 b7 bc c6 72 27 bd 2f 04 48 3c
       -0.035216156 -0.02245337 -0.04088094 0.012208029
0001c0 28 a9 6f 3b 65 e3 73 bd 05 a3 00 3c f1 ac 22 bd
       0.003656933 -0.059543032 0.007851367 -0.03971571
0001d0 e7 4c 09 bd f2 4a 59 3c 89 1c 5f 3c 67 32 80 3c
       -0.033520605 0.013262497 0.013617643 0.015649034
0001e0 54 e9 6f bc 0e dc 84 3d c0 76 dd 3c f1 6b fd bb
       -0.014643032 0.064872846 0.027034163 -0.007733815
0001f0 20 cb 11 3d 90 82 ad 3c b4 0c ee 3c 1e fb 68 bc
       0.035594106 0.021180421 0.029058792 -0.014220027
000200 00 27 87 3b 44 c7 a7 bb c2 29 d4 bc 21 90 d9 bc
       0.004124522 -0.00512019 -0.025898818 -0.026557984
000210 ab 43 3b bc 3f 53 31 bc c9 20 55 bd 7d fc 76 bb
       -0.0114297075 -0.01082307 -0.05203322 -0.0037687116
000220 df 84 e8 3b ae 9c 97 3c 4b 38 41 3c 67 35 a3 bc
       0.0070959176 0.018507328 0.011793206 -0.019922925
000230 d9 a6 c4 3a ff d2 07 3b c3 2e 00 bd 16 fe 85 bd
       0.0015003338 0.0020725129 -0.031294595 -0.06542604
000240 b0 96 86 bd f8 7b e1 bb 88 66 27 3d d7 c5 61 bd
       -0.0657171 -0.0068812333 0.040869266 -0.055120315
000250 63 84 87 3c b0 66 61 3d 20 11 9e bc 96 4b e4 bb
       0.01654262 0.05502957 -0.019295275 -0.0069670184
000260 00 a7 43 3d f9 c2 86 3d 21 41 c2 3a d7 b4 43 bd
       0.047766685 0.06580157 0.0014820435 -0.047779884
000270 6b 05 3d 39 17 86 9e bb 07 14 08 bd e7 2c c0 3c
       0.00018026463 -0.004837762 -0.033222225 0.023458911
000280 03 8c 0c 3c 81 00 26 3d aa a3 90 bb 70 4a fc 3c
       0.008578303 0.040527824 -0.0044140415 0.030797213
000290 b7 71 06 3c 44 0a 3f 3c d8 fe 74 bb 08 85 46 bd
       0.008205823 0.011660162 -0.0037383344 -0.048466712
0002a0 fd 92 bf 3c 2b 8f 4a bc 27 5f 0f bd 7a d0 b5 3b
       0.02338552 -0.0123632355 -0.035002854 0.005548534
0002b0 46 4a c7 3b 16 87 99 bc 46 67 12 3d 79 cc 3b 3b
       0.006081852 -0.018741172 0.03574302 0.002865581
0002c0 90 9f e1 3c 9c d8 9c 3c dd e3 fb 3b 26 8c c1 3c
       0.027541906 0.019146256 0.0076870755 0.023626398
0002d0 db 25 14 bd 99 36 a7 3c af 0a 54 3d 94 98 4d bc
       -0.036168914 0.020411776 0.051768 -0.0125485845
0002e0 4f 6c f3 bb 4e 00 fd 3c 5c d8 15 3d f6 c8 02 3d
       -0.007428683 0.030883934 0.03658329 0.031929933
0002f0 c1 d3 33 3d 13 c5 50 bc 01 33 9c bb 98 77 6a bd
       0.043903116 -0.012742299 -0.0047668223 -0.05724296
000300 9d b8 99 3c 88 1a 12 3d ff 15 0a bd cc 85 0e 3d
       0.018764788 0.035669833 -0.033712383 0.034795567
000310 b7 f7 4e bc 61 e1 00 bd a6 f4 a4 3c 72 b0 09 3d
       -0.012632302 -0.031464938 0.020136189 0.033615537
000320 21 7f c0 bc 65 5f ad 3c 7d b8 1a 3d e3 87 e4 3b
       -0.02349812 0.021163652 0.037773598 0.006974207
000330 93 20 43 3c ee 0a b0 3d c5 84 77 3c 15 aa 3a bc
       0.011909622 0.08595835 0.015107338 -0.01139309
000340 0c 91 93 bc 10 d5 46 3b 06 da 4a bc 6d 69 2f bd
       -0.0180135 0.0030339397 -0.012381082 -0.04282515
000350 86 2f ad bc 9b 09 4d 3b 71 02 93 ba f6 f3 93 bc
       -0.021140825 0.0031286243 -0.0011215938 -0.018060666
000360 b4 45 0a bd 69 fa c2 bc 6b a2 ed 3b 57 02 88 bd
       -0.03375788 -0.023801045 0.0072520277 -0.06641071
000370 ba de 2f bd 53 e8 db bc f4 df 26 3c a3 fb 4b 3d
       -0.042937018 -0.02684418 0.0101852305 0.049800526
000380 b3 02 f0 b9 e7 b2 41 3c bb 8e 0f 3d bc 41 a0 3c
       -0.00045778378 0.011822439 0.035048228 0.019562595
000390 31 b8 b9 3c 2a 66 05 bd a3 66 94 bc c8 f2 7a 3d
       0.022670837 -0.032568134 -0.018115347 0.06126669
0003a0 36 dd dd 3c ae 2b 11 bc 6f cf 62 bd a9 48 8d bc
       0.02708302 -0.008860512 -0.055373605 -0.017246561
0003b0 b3 80 a4 3c 3b e3 73 bd 7b 9f 2b bc 71 61 d0 bc
       0.0200809 -0.059542876 -0.010475035 -0.025437089
0003c0 28 b0 df 3c 35 9e 49 bb f0 9d 06 bd 59 43 b7 3c
       0.027305678 -0.0030764465 -0.032865465 0.022370981
0003d0 93 cf 8e 3c 4c 4b 05 bd 38 a4 b3 ba c6 c2 cc bc
       0.017432963 -0.03254251 -0.0013705557 -0.024995219
0003e0 b9 63 ae bc a4 f3 c9 bc cc be 21 bd 9f b5 6a bd
       -0.021287786 -0.02465231 -0.0394886 -0.057302114
0003f0 76 1b ed b5 2b 71 4e b9 14 91 c3 3c a8 d5 37 3b
       -1.7665868e-06 -0.00019687849 0.02387289 0.0028050933

bias f4 [32]
000000 8e a5 2f 3f 84 66 15 3f 60 62 25 3f 8b c7 19 3f
       0.6861199 0.5835955 0.64603233 0.60070103
000010 fb 96 1b 3f de 28 36 3f 3f 05 1d 3f ef 43 30 3f
       0.6077725 0.7115611 0.6133613 0.6885366
000020 a8 f1 27 3f 76 7c 15 3f ce 51 1e 3f b7 b6 27 3f
       0.65603113 0.5839304 0.61843574 0.65513176
000030 a6 60 1e 3f 88 9f 1f 3f 6a f7 3a 3f 9c 84 2b 3f
       0.61866224 0.623528 0.73033774 0.6699922
000040 2d d3 18 3f ed 57 34 3f 77 6d 11 3f 02 2e 38 3f
       0.5969723 0.70446664 0.56807655 0.719452
000050 c5 d9 2b 3f d1 cc 3e 3f 1e 8d 2d 3f fd 29 20 3f
       0.67129165 0.74531275 0.6779345 0.6256407
000060 85 8e 27 3f 94 cb 24 3f 30 0c 19 3f 6d 93 30 3f
       0.6545184 0.64373136 0.5978422 0.68974954
000070 f9 aa 1a 3f f2 8e 21 3f 01 73 10 3f 60 96 23 3f
       0.60417134 0.6310874 0.5642548 0.6390133

weight f4 [32]
000000 47 4e 73 3f 52 6c 75 3f d3 a0 7f 3f da c1 86 3f
       0.95041317 0.9586841 0.99854773 1.0527909
000010 35 2e 7f 3f 02 41 81 3f c4 4e 88 3f 6e 39 74 3f
       0.9967988 1.0097964 1.0649037 0.9540013
000020 7e 28 7a 3f d2 b3 6e 3f 86 4f 75 3f 65 b3 86 3f
       0.97718036 0.93243134 0.9582447 1.0523497
000030 7b f6 86 3f 24 1e 81 3f be 18 82 3f 07 e3 78 3f
       1.054397 1.0087323 1.0163801 0.97221416
000040 71 31 79 3f 2f 2d 82 3f 12 35 7b 3f 34 1c 86 3f
       0.97341067 1.0170039 0.98127854 1.0477357
000050 1b 81 88 3f 3d a0 7d 3f c4 69 73 3f f7 63 7c 3f
       1.06644 0.9907263 0.9508326 0.98590034
000060 2f 73 80 3f 6c 0f 89 3f 10 db 81 3f 16 1e 76 3f
       1.0035151 1.0707831 1.0144978 0.9613966
000070 85 52 7c 3f 94 2c 83 3f e8 cd 7e 3f bf 9c 7d 3f
       0.98563415 1.0247979 0.9953294 0.990673

bias f4 [32]
000000 f1 08 d7 bb 21 57 38 3d ba 23 cd bc 01 e9 98 bd
       -0.006562345 0.045004968 -0.02504145 -0.07466317
000010 c0 20 29 3c 4d 26 4b 3c 32 01 a4 bd 20 ee bd bc
       0.01032275 0.012399268 -0.080080405 -0.023184836
000020 dd 06 47 be d1 4c c3 bd 9a 81 52 be 34 73 a1 3d
       -0.19436212 -0.09536136 -0.20557252 0.078833014
000030 90 8a 07 3c a9 f6 60 3d c1 f0 eb bc 3a 28 80 bd
       0.008272782 0.054922733 -0.028801324 -0.062576726
000040 70 be 29 bd 85 0e 3a bd 58 18 7f bd 76 39 7c 3d
       -0.04144138 -0.045424003 -0.062279075 0.061578237
000050 e9 55 9c 3c ca d1 4f bd b4 f6 15 be be f3 99 3d
       0.019083934 -0.05073718 -0.14644891 0.07517193
000060 ae 8b f4 3d 00 2d c3 be 24 23 59 be db c8 de bd
       0.11940704 -0.3812027 -0.21204811 -0.10878154
000070 6c c8 14 3e f4 4b e2 bd e7 e5 b0 bc 8c 3c c4 bd
       0.1452958 -0.11049643 -0.021594001 -0.09581861

running_mean f4 [32]
000000 c3 98 09 3f 33 2e dd 3a 69 4f 88 3f fe ec 0a 3f
       0.5374872 0.001687473 1.0649234 0.5426787
000010 45 35 45 3f 40 3e 01 3e a0 79 10 3f cb d4 92 3e
       0.7703441 0.12621403 0.56435585 0.28677973
000020 ad 74 96 3f 1e 2f f8 3e 5d 30 43 3f d4 a8 7f 3e
       1.1754357 0.48473448 0.7624567 0.24966747
000030 99 9b b7 3e 1b 43 1a 3f 02 7b d0 3e 2f 7a b3 3e
       0.358609 0.60258645 0.40718848 0.35054156
000040 95 c3 e4 3e f2 ae 91 3f 60 54 0f 3f 6e 07 fb 3e
       0.44680467 1.1381514 0.5598812 0.49029106
000050 6c 0e 3a 3f aa 4c 4a 3f 48 e6 e4 3e bf bf 22 3f
       0.72678256 0.7902323 0.4470694 0.6357383
000060 15 91 21 3e 42 c0 a2 3f e8 41 a0 3f 08 4f 47 3e
       0.15778 1.2714922 1.2520113 0.19463742
000070 d2 44 f9 3e 77 8a 56 3f 85 d2 ec 3e 64 ca 60 3f
       0.48685318 0.8380503 0.46254364 0.87808824

running_var f4 [32]
000000 0c 79 5a 3e ec 12 cb 3e aa 36 7c 3f 1b 83 0c 3f
       0.21335238 0.39662874 0.9852091 0.5488755
000010 02 b6 53 3f de 98 3d 3e 31 af 3f 3e d1 4b 60 3e
       0.82699597 0.18515345 0.18719174 0.21903922
000020 cf f8 ba 3e 5f 45 14 3e 62 35 94 3e 8c 90 35 3f
       0.3651795 0.14479588 0.28946978 0.70923686
000030 25 92 a6 3e 38 0d f8 3e 56 ed 87 3e bb f7 ae 3e
       0.32533374 0.48447585 0.2654826 0.34173378
000040 f4 39 56 3e 61 62 10 3f c3 b4 5b 3e 9e f1 97 3e
       0.20920545 0.56400114 0.21455674 0.29676527
000050 70 6a ae 3e ac 6f a3 3e c4 7c 6a 3e 1e a7 da 3d
       0.3406558 0.31921136 0.22899157 0.10676406
000060 19 d5 94 3e 13 5a 2f 3e 9f 26 2e 3e 34 b3 69 3e
       0.2906883 0.17124204 0.1700692 0.22822267
000070 cd b0 8d 3e e6 00 55 3e 49 bf 48 3f 48 4e e8 3e
       0.2767395 0.20801124 0.7841688 0.45372224

weight f4 [32, 32, 3, 3]
000000 6d 8d 8a bb 33 3f a6 3b db bd 46 bc 7b 43 ab 3a
       -0.004228285 0.005073452 -0.012130226 0.0013066375
000010 3b cd 1f 3c 71 bc 6d bd f9 4a f9 bb 9d bf a4 3c
       0.009753521 -0.05804104 -0.0076078144 0.0201109
000020 3b 56 ab bc b1 10 34 bd 50 71 6b bc cc 2e da bc
       -0.020915141 -0.04396123 -0.0143702775 -0.026633643
000030 03 ab db 3c 9a 1d 44 3c 3c 3b cb 3c 37 21 39 3c
       0.026814943 0.011969948 0.024808519 0.011299423
000040 1d 2f f1 bc 0e 00 5e 3c b6 42 1e bd 7c 5d 01 bd
       -0.02944141 0.013549818 -0.03863784 -0.031583294
000050 36 bf 2e bd a2 15 5f 3c 68 61 c7 3b 18 d7 3a bd
       -0.04266282 0.0136159975 0.00608461 -0.045615286
000060 2b e7 0f bc b9 dc c1 bc 92 8c d1 bc bf c3 0d bc
       -0.008783142 -0.02366482 -0.025579724 -0.008652627
000070 65 f8 fc bb ee 5e 85 3c bf 38 7f bc 5f 58 a1 3c
       -0.0077200406 0.016280618 -0.015577494 0.019695459
000080 4f b2 9c bb 90 79 02 3c 60 08 34 3c 9a 63 0d bd
       -0.004781998 0.007963553 0.010988325 -0.034518816
000090 8f bf 61 3c 30 02 d8 bc e8 dd d6 3c 59 4b 77 3c
       0.013778581 -0.02636823 0.02622886 0.015093648
0000a0 b2 c3 a9 3c 69 4e ce 3c a1 14 54 3c af 1f 96 3c
       0.020723198 0.025183873 0.012944371 0.018325655
0000b0 2d 2d a5 3d 61 35 c5 bc 8e bb d5 bc aa ab 47 bd
       0.08065257 -0.024073305 -0.02609041 -0.048747696
0000c0 6f b9 f4 3c 31 15 02 bc 5c 0c 22 bd 74 aa 20 3d
       0.029873578 -0.007939623 -0.039562568 0.039225057
0000d0 9c 3b 9f bc c8 3d 62 bd ef fa 42 bd a6 18 94 bc
       -0.019437604 -0.0552347 -0.04760259 -0.01807816
0000e0 88 b2 86 3b 3a 6c 1d bd 32 19 66 bd fd bc 84 bb
       0.004110638 -0.03843329 -0.056176372 -0.0040508495
0000f0 be d9 45 bd 8e 97 30 bd aa 33 3c bd 3d 30 74 3c
       -0.04830336 -0.043113284 -0.04594771 0.014904079
000100 0b fb 93 3c 59 86 97 3c de 5d 0c bc 0a 30 60 3c
       0.018064043 0.01849668 -0.008567302 0.013683328
000110 5b 84 82 bc 42 c0 2e bd b5 64 fe 3a 83 50 b8 bb
       -0.015932253 -0.04266382 0.0019408675 -0.005624832
000120 af db 73 3d 75 3c 9d 3c 9c e6 7c 3a db 24 82 bb
       0.05953568 0.019193867 0.00096474006 -0.0039716787
000130 41 60 12 3c 94 a3 74 3c 1c ae 85 3c f1 3b b0 ba
       0.0089340815 0.014931578 0.016318373 -0.0013445598
000140 31 61 f0 3b 63 24 15 3c 8c 72 cb bb fc cd 37 bc
       0.007335805 0.009102914 -0.0062087234 -0.011218544
000150 f9 65 cd bc 47 3b af bc 83 d1 8d 3c 7b 9d b7 ba
       -0.025073038 -0.02139057 0.017311817 -0.0014008725
000160 6d 05 3a 3c f1 8e 10 3d d7 99 39 3d 86 84 89 3c
       0.011353833 0.03529257 0.04531273 0.016786825
000170 70 12 2c 3d 03 de 0f bc 55 98 6f bc b7 88 30 3d
       0.04200977 -0.008780959 -0.014623721 0.04309913
000180 ce 7b 1f 3d ba 71 a4 bb f9 0d 2d 3d 9a 57 0d bd
       0.03893643 -0.00501844 0.042249653 -0.03450737
000190 3d a7 7d 3c e2 0f 48 bd 08 52 85 bd 8b 09 41 bd
       0.015481767 -0.048843272 -0.06509787 -0.04712824
0001a0 8b 53 1c bd 18 ac 0f bd dd 46 1a bd a9 b7 3e bd
       -0.03816561 -0.03507623 -0.037665237 -0.04656187
0001b0 8b 84 c6 bb f4 8e 33 3c 8e ae c8 bc 95 09 c5 bb
       -0.006058281 0.010959376 -0.024497297 -0.006013105
0001c0 85 77 46 bc 93 a5 0f bd 77 74 29 3c 2f 92 03 bd
       -0.012113457 -0.035070013 0.010342709 -0.032121833
0001d0 17 3a 63 bd 8b 1a 63 bc 50 2c 96 3b d9 51 64 bd
       -0.05547532 -0.013861309 0.004582919 -0.05574212
0001e0 39 16 83 3c 60 0a 82 bc a4 8a 49 bd a3 ef 0a 3d
       0.016001808 -0.015874088 -0.049204484 0.03391994
0001f0 d2 cb 56 3d 46 17 52 bb 6a 45 fa 3b c3 dd e8 3c
       0.052440472 -0.003205733 0.0076376693 0.028426057
000200 8d fd db bc f8 ef 10 bc 27 5d 0a 3d 2a c6 b4 bc
       -0.0268543 -0.0088462755 0.033780243 -0.022067148
000210 0b f6 2e bd bf 5f bb bd fa 7d cd bd ff 37 79 3d
       -0.042715114 -0.091491215 -0.10033794 0.060844418
000220 fb 1e 57 3d 74 b2 b9 3d 4d 5a 8c 3c 86 9f e0 bc
       0.05251978 0.0906724 0.017132903 -0.027419817
000230 0a 18 6f 3d 7e 81 7d 3c 87 e3 d4 3b d4 6c dd 3d
       0.058372535 0.015472768 0.00649685 0.10811773
000240 0c 28 78 bc 30 15 1d 3b ce 4e 4b 3d 9d 20 af 3c
       -0.015146267 0.0023968928 0.0496357 0.021377856
000250 5c 3f 4b 3c 64 60 3c 3d 5e 50 e9 39 9b 7d d0 bc
       0.012405243 0.045990363 0.000445011 -0.025450518
000260 11 8b 2d bc c8 78 8d 3c d2 52 ad 3b 95 88 08 3d
       -0.010592238 0.017269507 0.005289414 0.03333338
000270 22 5a e6 bc 78 41 90 bc bf c4 d8 3c 36 51 59 3d
       -0.02811915 -0.017609343 0.026461003 0.053055964
000280 dc 0c 86 bc bd 29 5c 3c 8f f5 1d bd c0 79 1a bd
       -0.016363554 0.013437686 -0.03856426 -0.037713766
000290 3f d3 5c bc 92 39 6a bd f7 4a 95 bd b4 56 7f bb
       -0.013478099 -0.05718381 -0.07289689 -0.0038961591
0002a0 30 04 62 bc a0 9f 22 bd ac 55 1a bd 11 b1 04 3c
       -0.013794944 -0.03970301 -0.03767936 0.008098857
0002b0 4a 86 22 3d cd 2e 2a bc b7 e6 2f 3b 02 24 5a 3b
       0.03967885 -0.010387135 0.0026840398 0.0033285622
0002c0 93 55 e5 3b 39 9a f6 bc 63 3c 9f 3b 76 8e 96 bc
       0.0069987266 -0.030102836 0.0048594936 -0.018378478
0002d0 ad 07 1d bd 15 26 98 bd dc d8 e5 bc 25 40 31 bc
       -0.0383374 -0.074291386 -0.028057508 -0.010818516
0002e0 d8 33 52 bd 58 42 eb bb f6 a0 81 bc 82 8c 06 bd
       -0.051318973 -0.0071795397 -0.015823822 -0.032848842
0002f0 e9 57 3b 3c 23 43 55 3b ba ef 80 3d 08 4f 96 3c
       0.011434534 0.0032541237 0.06295724 0.018348232
000300 f1 f5 3e bc 0f 26 9c bb 07 58 9d 3c 6a 1c e5 bc
       -0.011655317 -0.004765279 0.019207014 -0.02796765
000310 71 64 c3 bb 27 c0 97 bc 8f cd c0 3c 21 39 9c bb
       -0.0059629013 -0.018524243 0.023535518 -0.0047675525
000320 f9 b8 ff 39 83 19 7d 3c 5a aa 4d 3b ca fc 67 bd
       0.00048775206 0.015447977 0.0031382055 -0.056637563
000330 c9 9c 85 3c 20 ef 1c 3d ab 33 59 bd d1 65 19 bd
       0.016310113 0.038313985 -0.05302779 -0.037450615
000340 3e 4c da bc 22 cf 22 bd 3e 59 27 bd e7 92 b3 bb
       -0.026647683 -0.03974832 -0.040856592 -0.0054801586
000350 a3 c1 39 bd 46 a8 3f bd b8 44 ca bb 7d 13 44 bd
       -0.045350682 -0.046791337 -0.0061727427 -0.047870148
000360 cc bf 6e bc 52 e5 fc ba 8c 6d 42 bd 98 4d 4a 3c
       -0.014572095 -0.0019294417 -0.047467753 0.012347601
000370 ba 26 88 3d 59 ea 86 bc 47 72 2e 3c c9 fe 12 3d
       0.066480115 -0.016469168 0.010647363 0.035887513
000380 d7 79 bd bc ad b7 c8 bd 6e eb fa bc 22 ce 9f bc
       -0.023129387 -0.098006584 -0.03062984 -0.019507471
000390 45 ad 52 bd de 98 05 bc d8 dc f5 bc ff 97 b6 bd
       -0.051434774 -0.008154122 -0.030012533 -0.0891571
0003a0 38 b6 d6 bc e6 06 7e bc ee d9 25 bd 80 30 15 bc
       -0.026209936 -0.015504574 -0.040491037 -0.009105802
0003b0 7a 64 ec bc 01 a5 92 bd 61 4c 35 bc 25 bd e0 bc
       -0.028856505 -0.07160378 -0.011065573 -0.027433941
0003c0 00 12 57 bd 3c bd 5c bd d2 7e 76 bc 87 cc 10 bd
       -0.0525074 -0.053891405 -0.015044885 -0.035351302
0003d0 9c c3 36 3b 11 02 81 bd 0e 21 80 bd 1f 48 f5 bc
       0.0027887588 -0.06299222 -0.06256305 -0.029941617
0003e0 ca f3 99 bd 6f a0 2f bc 02 95 52 3c e0 0d 83 bd
       -0.07517202 -0.010719403 0.012852909 -0.06399131
0003f0 53 33 52 bd cf 10 a6 3c 11 99 53 3c 64 1b 92 bb
       -0.051318478 0.020271687 0.012914912 -0.0044588316

bias f4 [32]
000000 62 34 fe 3e f7 00 1d 3f 3a 36 16 3f e7 5b 21 3f
       0.4964934 0.613296 0.58676493 0.63030857
000010 31 60 29 3f 56 6f 0d 3f 3c 4d 01 3f 6a 0a 0b 3f
       0.661624 0.5524801 0.50508475 0.54312766
000020 6d d4 15 3f d2 0e 2a 3f ce 5f 09 3f 61 fb 2d 3f
       0.5852726 0.66428864 0.5366181 0.679617
000030 8c 19 23 3f e9 37 29 3f ec e0 0c 3f d6 18 24 3f
       0.63710856 0.6610094 0.55030704 0.64100397
000040 5a 81 2a 3f ec af 18 3f 77 0b 0f 3f c1 16 1f 3f
       0.66603625 0.59643435 0.5587687 0.62144095
000050 6e a6 30 3f 51 6b 2c 3f 55 42 f4 3e e3 69 1b 3f
       0.6900395 0.6735125 0.47706857 0.60708445
000060 29 d5 19 3f db 75 12 3f 71 e6 23 3f ab f6 05 3f
       0.6009088 0.57211083 0.640235 0.5232951
000070 d0 ae 23 3f a6 09 34 3f 3c f2 17 3f f8 12 0d 3f
       0.6393862 0.7032722 0.59353995 0.5510707

weight f4 [32]
000000 06 05 6d 3f 26 8e 7d 3f 7d d0 81 3f 48 17 80 3f
       0.9258579 0.99045026 1.014175 1.0007105
000010 20 61 77 3f dc 9a 85 3f 49 df 75 3f 51 54 84 3f
       0.96632576 1.0437884 0.9604383 1.0338231
000020 26 ed 82 3f ca 26 8c 3f f2 44 7f 3f 7f 06 7d 3f
       1.0228622 1.0949337 0.9971458 0.9883804
000030 12 86 7c 3f 71 fe 6b 3f 8a 2f 82 3f e8 37 81 3f
       0.98642075 0.9218512 1.0170758 1.0095186
000040 d6 56 82 3f 98 dc 89 3f 46 42 86 3f 6a c4 7f 3f
       1.018275 1.0770445 1.0488975 0.9990908
000050 ab 44 89 3f d8 78 93 3f b2 37 70 3f 56 79 71 3f
       1.0724081 1.1521254 0.93834984 0.9432577
000060 89 97 7d 3f db 00 76 3f 28 8c 82 3f b2 45 7e 3f
       0.9905935 0.96095055 1.0199022 0.99325097
000070 f6 44 82 3f fa 6d 84 3f 74 d3 73 3f a5 b8 7f 3f
       1.0177295 1.0346062 0.95244527 0.9989112

bias f4 [32]
000000 0b 3f d5 bd 73 89 1e bb cd 82 1a bd b7 d9 c5 3c
       -0.10412415 -0.0024190813 -0.037722398 0.024151666
000010 64 bb e6 bd 1c 57 d1 bd d0 61 9f bd 5d 2c f5 bd
       -0.11266211 -0.10221693 -0.07782328 -0.11971352
000020 ed f0 ee bd b4 ec a0 3d 72 88 f2 3a fd e8 ba bd
       -0.11667047 0.078576475 0.0018503799 -0.0912647
000030 c2 e2 0c 3c 20 6d e9 bc 3f bd 59 bd 48 d4 04 be
       0.008598985 -0.028494418 -0.053158995 -0.12971604
000040 03 38 13 be 81 41 a0 bd 54 67 12 bd 4d 2f 41 3d
       -0.14376836 -0.07824994 -0.035743073 0.04716425
000050 7f 8d 5e be 85 76 24 bd 79 be 37 bd ef 06 68 bd
       -0.21733664 -0.04015209 -0.044859383 -0.056647237
000060 cc f8 0f bc bd 64 5d 3a f7 c7 8f 3d 60 ff af bd
       -0.008787345 0.0008445492 0.07020562 -0.08593631
000070 a5 05 c8 bd 07 6c 5b 3d 23 d7 16 be bb a8 56 bd
       -0.097667016 0.05356982 -0.14730506 -0.052407008

running_mean f4 [32]
000000 82 45 80 be a9 12 8a be 95 55 25 3f 9b 2e c8 3e
       -0.2505303 -0.26967362 0.6458371 0.39098057
000010 82 30 e9 3e 0b 95 05 3f 98 a6 53 3e cd 03 9b 3e
       0.4554482 0.52180547 0.20669019 0.30276337
000020 f1 1d 01 3f 9a cb fb 3e 15 4c 39 3e 5d 3c 14 3f
       0.5043631 0.49178773 0.18095429 0.5790461
000030 35 f1 cc 3e 33 fd ad bd 9e d3 8d 3e 53 ea b2 3e
       0.40027776 -0.084955595 0.27700514 0.349444
000040 d5 0e 2f 3f ba 48 00 3f 19 bb 82 be 58 7c 1a 3f
       0.68382007 0.5011097 -0.2553337 0.60345984
000050 f0 56 12 3f 03 6a e5 3e 9b a5 68 3d 10 5d 5b bf
       0.57163906 0.44807443 0.05679856 -0.8568888
000060 69 be 26 be 36 d6 9e be 35 55 58 3e be 78 c4 3e
       -0.16283573 -0.31022805 0.21126254 0.3837337
000070 36 ea 65 3c 24 9f 04 3e 41 0f 30 3b 7c 8f b9 3e
       0.014032891 0.12951332 0.002686456 0.36242282

running_var f4 [32]
000000 81 bb 00 3f 1a 28 32 3f 5f ba c2 3e 7b 55 8b 3e
       0.5028611 0.6959244 0.38032815 0.27213654
000010 ca bd 6b 3e e1 cc 60 3f 50 39 a5 3e a8 43 e9 3e
       0.23021618 0.8781262 0.32270288 0.4555943
000020 b9 23 a8 3e 49 0c 29 3e ce 62 3d 3e 55 a4 37 3e
       0.32839754 0.16508593 0.18494722 0.17933781
000030 cb 02 e0 3e b0 71 93 3e 3a 3c 27 3f ba 7b 5b 3e
       0.4375213 0.28797674 0.65326273 0.21433917
000040 fb 36 6c 3e 64 09 34 3f bb 9c 0b 3f 70 51 14 3e
       0.23067848 0.7032683 0.54536027 0.14484191
000050 fe 0a d0 3d f6 18 50 3e cf 09 c7 3e ef 00 44 3f
       0.101583466 0.20322022 0.3887467 0.76563925
000060 04 20 fa 3e dd 97 17 3f 57 1f 54 3f 2f d7 f3 3e
       0.4885255 0.592161 0.8286032 0.4762511
000070 fe bc bc 3e 3f 59 f4 3e e8 82 49 3e 85 59 39 3f
       0.3686294 0.4772434 0.19678843 0.7240222
