TuiGAN/models/apple2orange/a1.pth (torch, 131453 bytes, 25 tensors)

weight f4 [32, 3, 3, 3]
0	0x3ce5cff2	0.028053258
1	0x3cc32b23	0.02382428
2	0x3d1de358	0.03854689
3	0x3c356ccc	0.0110733025
4	0xbba44ab5	-0.0050137886
5	0x3c625cfc	0.0138161145
6	0xbd0ea388	-0.034823924
7	0xbd016e6e	-0.031599455
8	0xbc69e2a6	-0.014275229
9	0x3c9a2c1d	0.018819863
10	0xbb61beaa	-0.003444592
11	0xbd21c9f5	-0.03949924
12	0xbcf1b76d	-0.02950641
13	0xbd3d06c8	-0.046149045
14	0xbce79025	-0.028266976
15	0xbc0fb4bb	-0.008771117
16	0xbc85ac36	-0.016317468
17	0x3c45e7b7	0.012079171
18	0x3d9c92d8	0.07645196
19	0x3ca1562a	0.019694407
20	0x3d1d71cd	0.038438607
21	0x3d254887	0.04035237
22	0x3cd8e0f8	0.026474461
23	0x3cf22c69	0.029562192
24	0x3da3da91	0.080006726
25	0x3d0dbddc	0.034604892
26	0x3daab5cf	0.083354585
27	0x3c89a0fd	0.016800398
28	0xbc9951ef	-0.018715827
29	0xbd3b45aa	-0.045720734
30	0x3b13da3b	0.0022560495
31	0x3c4306a3	0.011903438
32	0xbc9d5045	-0.019203315
33	0x3d90ae97	0.0706455
34	0x3c932f81	0.017966988
35	0xbd277061	-0.040878657
36	0xbdd25da3	-0.10271766
37	0xbced2061	-0.028946104
38	0xbd924e5a	-0.071438506
39	0xbc1e0be0	-0.009646386
40	0x3d0335ee	0.032033853
41	0x3c1e1394	0.0096482225
42	0xbd521f2b	-0.051299255
43	0xbd1c2ffd	-0.038131703
44	0xbd91c47f	-0.07117557
45	0xbcef36bb	-0.029200902
46	0xbc7511fb	-0.0149579
47	0xbccfb026	-0.025352549
48	0xbc1b5ad3	-0.009482103
49	0x3c9e4604	0.019320495
50	0x3bc31044	0.0059528667
51	0x3b833cb6	0.00400504
52	0x3bc1eeb4	0.005918348
53	0xbcb93fb6	-0.022613388
54	0xbd44ee3e	-0.048078768
55	0xbd06a429	-0.0328714
56	0xbd80b056	-0.062836334
57	0xbc5484c4	-0.012971107
58	0xbc3ecdf5	-0.011645784
59	0xbb5bd094	-0.003354107
60	0xbd582098	-0.05276546
61	0xbce79da1	-0.028273406
62	0xbe194fa1	-0.14971782
63	0xbc348255	-0.011017402
64	0xbbf4f500	-0.0074754953
65	0x3ca4182f	0.020031063
66	0x3c8b828d	0.017030025
67	0x3c177cd7	0.009246073
68	0xbc297509	-0.010342845
69	0x3d541cdf	0.051785346
70	0x3d36a623	0.044592034
71	0x3c22b604	0.009931091
72	0xbd01bb27	-0.031672623
73	0xbcb1dd4f	-0.021711973
74	0x3b684f56	0.0035447679
75	0xbcb2379f	-0.021755038
76	0xbb2d201e	-0.0026416848
77	0xbbdc124e	-0.0067160493
78	0x3c12d447	0.008961744
79	0x3c7e5c1a	0.015524888
80	0xbce9e0b2	-0.028549526
81	0xbc859158	-0.016304657
82	0x3c597ded	0.013274652
83	0x3d498710	0.04920107
84	0xbc4b811d	-0.01242092
85	0x3c1d2f46	0.00959379
86	0x3c8774cd	0.016535187
87	0xbd3c9ac7	-0.046046045
88	0xbc286e98	-0.010280274
89	0x3d118351	0.035525624
90	0xbd71935f	-0.058978435
91	0xbd9298c5	-0.07158045
92	0xbda8d344	-0.08243421
93	0xbc60fc8e	-0.013732089
94	0xbcedfb9f	-0.029050646
95	0xbce74a0f	-0.028233556
96	0xbd12c883	-0.035835754
97	0xbce1a236	-0.027543169
98	0xbcb491e5	-0.022042224
99	0x3d0767df	0.033058044
100	0x3c7020ca	0.014656255
101	0x3d67dcab	0.05660693
102	0x3d333ef5	0.043761212
103	0x3bbd55ec	0.005778065
104	0x3cee71d4	0.029107012
105	0x3bbbfd65	0.005736994
106	0xbc1e5208	-0.009663112
107	0x3ca9f602	0.020747188
108	0x3d31b9b6	0.04339
109	0x3c05eb0a	0.008173713
110	0xbdcd0d25	-0.10012273
111	0xbaf6ef75	-0.0018839674
112	0xbca77e18	-0.020445868
113	0xbd76e752	-0.060279198
114	0xbb693109	-0.0035582206
115	0xbbc2e861	-0.005948112
116	0xbc10e18c	-0.008842837
117	0x3db0c686	0.08631615
118	0x3ce5f503	0.028070932
119	0xbd0af016	-0.03392037
120	0x3c7d0f60	0.01544556
121	0x3b90fea8	0.0044248886
122	0x3a8ab7f2	0.0010583384
123	0xbd32ae8b	-0.04362349
124	0xbcf6a360	-0.0301072
125	0xbcb55db2	-0.022139404
126	0x3cc00261	0.023438634
127	0x3c8724bf	0.016497014
128	0xbd14a551	-0.03629047
129	0x3bc5e8c7	0.006039712
130	0x398739fd	0.0002579241
131	0xbc930b1d	-0.017949635
132	0xbd49c597	-0.049260702
133	0xbca31b62	-0.019910518
134	0xbc69f592	-0.01427974
135	0x3c74dfa8	0.014945902
136	0x3b9a5108	0.0047093667
137	0xbcaa0ef6	-0.020759087
138	0x3c7baf06	0.015361553
139	0x3c8c66c4	0.017138846
140	0xbc930b35	-0.01794968
141	0x3bfe6046	0.0077629415
142	0xbbeef6d6	-0.0072926087
143	0xbd858818	-0.065200984
144	0x3db7b888	0.089707434
145	0x3d899314	0.06717506
146	0x3da420a0	0.08014035
147	0x3d2b69aa	0.041848816
148	0x3ca1a5a3	0.019732302
149	0x3c59714b	0.01327164
150	0x3ac51263	0.0015035387
151	0x3c215236	0.009846261
152	0xbbc816db	-0.00610624
153	0x3dae4387	0.085089736
154	0x3cfe99b4	0.03107915
155	0x3ce8a79e	0.028400239
156	0x3d0e6142	0.03476072
157	0xbca8fd4d	-0.020628596
158	0xbc8eff07	-0.01745559
159	0x3d464267	0.04840317
160	0xbcc070ae	-0.02349123
161	0xbce6a81b	-0.02815633
162	0x3d8d346e	0.06894766
163	0x3d794587	0.060857322
164	0x3d24d21a	0.04023943
165	0x3d730721	0.05933297
166	0x3d489191	0.048966948
167	0x3b3d0bf3	0.0028846234
168	0xbc762006	-0.015022283
169	0xbc9e2430	-0.019304365
170	0xbd36bf18	-0.044615835
171	0x3ba90fdc	0.0051593613
172	0xbc2eeee3	-0.010677072
173	0x3c45ca4d	0.012072158
174	0x3c4a9ff8	0.012367241
175	0xb9aa5861	-0.00032490774
176	0xbcb7125d	-0.022347623
177	0x3b6e4db1	0.0036362226
178	0xbbf42a1c	-0.007451309
179	0xbc92dd55	-0.017927805
180	0xbc99ecf2	-0.018789742
181	0xbc914fd3	-0.017738258
182	0xbca0ff60	-0.019653022
183	0xbc840a42	-0.016118173
184	0xbc4d4a1f	-0.012529879
185	0xbd35c531	-0.04437751
186	0xbd32ba21	-0.043634538
187	0xbd398fa4	-0.045303002
188	0xbd8ff15a	-0.07028456
189	0xbd32d62b	-0.043661278
190	0xbd87dd04	-0.06633952
191	0xbc71351b	-0.014722134
192	0x3c899b6a	0.01679774
193	0xbd1b81f0	-0.037965715
194	0x3d41a487	0.047276046
195	0x3d0ba0bd	0.03408884
196	0xbcbe3560	-0.02321881
197	0x3d8f0501	0.06983376
198	0x3d9da05a	0.076966
199	0x3d5880e3	0.05285729
200	0x3be04de4	0.006845223
201	0xbac6a4e0	-0.0015155338
202	0xbc738ff7	-0.014865867
203	0xbcc74c2f	-0.02432832
204	0x3d0a9e6b	0.033842485
205	0x3d2f7b4d	0.0428422
206	0xbb2130f1	-0.0024595822
207	0x3d313dfc	0.043272004
208	0x3c04a93c	0.008096989
209	0x3d1a711c	0.037705526
210	0xbc74f490	-0.014950886
211	0xbc3bbe02	-0.011458876
212	0x3b253188	0.0025206525
213	0x3ce74179	0.028229462
214	0x3d4aa405	0.049472827
215	0x3d506b93	0.05088384
216	0xbd9ab945	-0.075548686
217	0xbb8c195b	-0.0042754835
218	0xbcf5d0f8	-0.03000687
219	0xbd44cc34	-0.048046306
220	0xbc8968b5	-0.016773561
221	0xbcc8c6cf	-0.024508862
222	0xbd9cb3f0	-0.07651508
223	0xbc266a48	-0.010157175
224	0xbc87ded4	-0.016585745
225	0x3d8b0167	0.06787377
226	0x3c9fbe76	0.019499999
227	0x3d36d059	0.04463229
228	0x3d3bbb9b	0.04583321
229	0x3cb98910	0.022648364
230	0x3bfbdb28	0.0076860376
231	0x3da16e13	0.07882323
232	0x3c809f4f	0.015700964
233	0xbc7bacdc	-0.015361037
234	0x3c7d0251	0.015442447
235	0x3a977522	0.0011555294
236	0x3c96f209	0.018425958
237	0x3c242e44	0.010020796
238	0x3c4b7643	0.0124183325
239	0x3b924750	0.0044640675
240	0x3c5b3a87	0.013380653
241	0x3c216fed	0.009853345
242	0xbbb2e7a7	-0.005459744
243	0x3d2e17c2	0.042503126
244	0x3cb8ce0a	0.022559185
245	0x3b4ae736	0.0030960566
246	0x3707e580	8.100062e-06
247	0xbc2e298d	-0.010630024
248	0xbc118f3d	-0.008884248
249	0xbd581082	-0.052750118
250	0xbd175a6a	-0.03695146
251	0xbc819a69	-0.015820699
252	0x3cae264e	0.0212585
253	0x3d309845	0.043113966
254	0x3d2d9515	0.042378504
255	0xbcc8b678	-0.02450107

bias f4 [32]
0	0xbdc2541e	-0.094887
1	0x3dd1fa9b	0.10252877
2	0x3d0bac9f	0.03410017
3	0xbd18a191	-0.037263457
4	0xbd79f3cb	-0.061023515
5	0xbdbb2452	-0.09137787
6	0xbda92b9f	-0.08260273
7	0xbbbf859c	-0.005844785
8	0x3d905d18	0.07049006
9	0xbe4120d5	-0.1886018
10	0xbdc6397b	-0.09678932
11	0xbd321637	-0.043478217
12	0xbdca32ed	-0.098729946
13	0xbd4256f2	-0.0474462
14	0xbdaee879	-0.085404344
15	0x3dcfa614	0.10139099
16	0xbdf794b6	-0.12088911
17	0x3e0768c2	0.13223556
18	0x3e05c7c6	0.13064489
19	0x3de2ed2d	0.11080394
20	0x3e3dd6f5	0.18539031
21	0x3d806c17	0.062706165
22	0x3e2f54be	0.1712217
23	0xbe76f623	-0.24117331
24	0xbdccc438	-0.09998363
25	0x3cea37c1	0.028591039
26	0x3c58899a	0.0132164005
27	0x3c2cd118	0.010547899
28	0xbde24b50	-0.11049521
29	0xbe4a9433	-0.19783096
30	0x3d9013eb	0.07035049
31	0xbce0c416	-0.027437251

weight f4 [32]
0	0x3f6f728a	0.9353415
1	0x3f82997a	1.0203087
2	0x3f6198bc	0.8812368
3	0x3f623e42	0.8837625
4	0x3f6eef38	0.9333377
5	0x3f8099cb	1.0046934
6	0x3f6818db	0.90662926
7	0x3f7bd9ac	0.98379016
8	0x3f7d701e	0.989992
9	0x3f6fb055	0.93628436
10	0x3f7de88e	0.99182975
11	0x3f8387b2	1.0275786
12	0x3f53044a	0.8242842
13	0x3f602812	0.8756114
14	0x3f60fdb0	0.87887096
15	0x3f56ec6d	0.8395451
16	0x3f636d2d	0.88838464
17	0x3f61985a	0.88123095
18	0x3f58df7b	0.84716004
19	0x3f5f7a45	0.87295943
20	0x3f65517c	0.8957746
21	0x3f3350f6	0.7004541
22	0x3f64cfa8	0.8937936
23	0x3f70e987	0.94106334
24	0x3f52a5e7	0.82284397
25	0x3f6de3c2	0.92925656
26	0x3f726e9a	0.94700015
27	0x3f6e1ca2	0.9301244
28	0x3f5e73a3	0.868952
29	0x3f6947d1	0.9112521
30	0x3f85f5bc	1.0465617
31	0x3f4b9f9e	0.7954043

bias f4 [32]
0	0x3de9f839	0.11424298
1	0x3f00920b	0.50222844
2	0x3f70432f	0.93852514
3	0x3ebd5b6d	0.36983815
4	0x3ecb0004	0.3964845
5	0x3dd49173	0.10379305
6	0xbc6723c0	-0.014107645
7	0x3e50bb1d	0.20383878
8	0x3edc72e1	0.43056396
9	0xbe402514	-0.18764144
10	0x3eb52a9c	0.3538407
11	0x3efc383d	0.49261656
12	0x3f06e679	0.52695423
13	0x3ef8dd9c	0.48606575
14	0x3ef7425d	0.4829282
15	0x3f0c09fc	0.54702735
16	0x3e67678d	0.22598095
17	0x3f21b64c	0.6316879
18	0x3efb9921	0.49140266
19	0x3f0b4224	0.543978
20	0x3f2c6cf3	0.67353743
21	0x3f5d885d	0.865362
22	0x3f2b34ce	0.6687745
23	0x3efae8d1	0.4900575
24	0x3eac556d	0.33658925
25	0xbe4ce03a	-0.2000741
26	0x3ebb0711	0.3652883
27	0x3e85ac30	0.2610793
28	0x3ee6bfef	0.4506831
29	0x3f2163e9	0.63043076
30	0x3ed66bfd	0.41879264
31	0x3f30f526	0.69124067

running_mean f4 [32]
0	0xbdd6b1b2	-0.104831114
1	0x3e240b71	0.1601999
2	0xbe170678	-0.14748561
3	0x3c93299a	0.017964173
4	0xbdebffe8	-0.115234196
5	0xbe35f719	-0.17770042
6	0x3d209583	0.039205085
7	0xbd7d5eb6	-0.0618579
8	0xbde651c9	-0.11246068
9	0xbe5c1742	-0.21493247
10	0x3c4d90dd	0.012546745
11	0xbdea8ba7	-0.11452418
12	0xbd2b6e11	-0.041853014
13	0xbdb993f7	-0.09061425
14	0xbd323307	-0.043505695
15	0x3de114c1	0.109902866
16	0xbe1d3c02	-0.15354922
17	0x3eca7ecb	0.3954986
18	0x3e0996c5	0.1343642
19	0x3e370ba7	0.17875539
20	0x3e35b543	0.17744927
21	0x3e09eb7d	0.13468738
22	0x3e2a5e78	0.166376
23	0xbe83c3f8	-0.2573545
24	0x3c2a2d06	0.010386711
25	0x3e554855	0.20828374
26	0x3e3132d9	0.17304553
27	0x3d15cfd1	0.036575142
28	0xbd8f2eb8	-0.06991333
29	0xbe538b1a	-0.20658532
30	0xbd54a748	-0.051917344
31	0x3d800f9f	0.062529795

running_var f4 [32]
0	0x3c2e4110	0.010635629
1	0x3cb58932	0.022160146
2	0x3c92775b	0.017879179
3	0x3c166c4c	0.009181093
4	0x3c03a73e	0.008035479
5	0x3cd119e1	0.025525035
6	0x3b93b757	0.00450794
7	0x3c6eb1aa	0.014568726
8	0x3c137007	0.008998877
9	0x3b6d7c13	0.0036237284
10	0x3c94a1cf	0.018143563
11	0x3cf2dcaa	0.029646236
12	0x3b65f714	0.0035089897
13	0x3b7eb6e4	0.0038866336
14	0x3ca7efbe	0.02050006
15	0x3ba2f932	0.004973554
16	0x3b6bcc86	0.003598006
17	0x3d6a3969	0.057183657
18	0x3bd9f054	0.006650964
19	0x3be68c7c	0.00703579
20	0x3c05438d	0.008133781
21	0x3be7b08a	0.0070706056
22	0x3bc1e66a	0.00591736
23	0x3bd18719	0.0063942787
24	0x3bc9ddf9	0.0061604944
25	0x3c516993	0.0127815185
26	0x3d0103cb	0.031497758
27	0x3ba304ca	0.004974936
28	0x3bbefae4	0.0058282483
29	0x3ca5e382	0.020250086
30	0x3c73d7f6	0.014883032
31	0x3b89f931	0.004210614

weight f4 [32, 32, 3, 3]
0	0x3cd560cb	0.026047131
1	0x3c84b67c	0.016200297
2	0x3d10b281	0.035326485
3	0x3b3d184d	0.0028853596
4	0x3c60cac2	0.013720216
5	0x3cc88cb5	0.024481157
6	0x3d427311	0.047473017
7	0x3c890e6c	0.01673051
8	0xbb814eb5	-0.00394615
9	0x3d6a893d	0.057259787
10	0x3d8f3e23	0.069942735
11	0x3dc74c72	0.09731378
12	0x3dba8757	0.09107845
13	0x3cef042e	0.029176798
14	0x3d9241f8	0.07141489
15	0x3daf7e76	0.085690424
16	0x3c8f9921	0.017529072
17	0x3d6ecd23	0.058301102
18	0x3bff6753	0.0077942996
19	0xbbb1f116	-0.005430351
20	0x39ddacdc	0.00042281195
21	0x3d863f38	0.06555027
22	0x3d8a48b3	0.067521475
23	0x3d66d1b5	0.056352336
24	0x3ce8436e	0.028352465
25	0x3cc72459	0.024309324
26	0x3d8e9bf4	0.069633394
27	0xbc40033f	-0.011719524
28	0x3ce318b5	0.027721742
29	0x3cdee903	0.027210718
30	0x3ca5b7cd	0.020229245
31	0x3c8f9e85	0.017531643
32	0xbc74b342	-0.0149353165
33	0x3d4d19b6	0.050073348
34	0x3c6a427b	0.014298077
35	0x3c63aa02	0.0138955135
36	0xbd08be34	-0.033384517
37	0x3b68e99a	0.0035539628
38	0xbcb7161f	-0.022349415
39	0xbcbef547	-0.023310317
40	0xbbe0369e	-0.0068424484
41	0x3c808cb7	0.015692098
42	0x3baff596	0.0053698523
43	0x3c010129	0.007873812
44	0x3cb9b06f	0.022667138
45	0x3db2113f	0.08694696
46	0x3d6a19a2	0.05715335
47	0x3d7b36c1	0.061331514
48	0x3d019cde	0.03164374
49	0x3d0c1729	0.034201775
50	0x3c1331bd	0.0089840265
51	0x3d3feda1	0.04685748
52	0xbc57798f	-0.01315154
53	0xbc9f965b	-0.019480875
54	0xbd313cdf	-0.04327094
55	0xbbc6b88d	-0.0060644806
56	0xbc11f8df	-0.008909433
57	0xbd4556cf	-0.04817849
58	0x3c3087ee	0.010774596
59	0x3baf7b5f	0.005355283
60	0xbb8bbe04	-0.004264595
61	0xbcd52c02	-0.026021961
62	0xbc8415af	-0.01612362
63	0x3d4e0997	0.050302114
64	0x3d3b9b7e	0.045802586
65	0x3ce2714a	0.027641911
66	0x3da0fe43	0.078609966
67	0x3c4086d4	0.0117508955
68	0xbcebf9d3	-0.028805649
69	0x3c5fa44f	0.013650014
70	0xbc0ac03a	-0.008468682
71	0x3d0e0424	0.034671918
72	0xbd0f5efa	-0.035002686
73	0xbd457727	-0.048209336
74	0x3bd41941	0.006472737
75	0x3bcfcc1c	0.0063414704
76	0xbc4b381a	-0.012403512
77	0xbc5024e6	-0.01270411
78	0x3ad1e8ae	0.0016014779
79	0xbc571e61	-0.0131298015
80	0x3cf1d3f1	0.029520007
81	0x3d22fdb8	0.039792746
82	0xbc74b046	-0.014934605
83	0xbdb53afc	-0.08849141
84	0xbbedbea2	-0.007255391
85	0xbcfb7e29	-0.030699806
86	0xbd28ec22	-0.04124082
87	0x3cb63d0c	0.022245906
88	0x3c880236	0.016602617
89	0xbca7369d	-0.020411784
90	0x3d846eb8	0.064664304
91	0x3d4b180d	0.049583483
92	0x3d0f412c	0.034974262
93	0x3d6e180c	0.0581284
94	0xbc70c486	-0.014695292
95	0xbd3d821d	-0.046266664
96	0x3d1a4f8a	0.03767351
97	0xbd132e4a	-0.035932817
98	0xbd976f64	-0.07394293
99	0x3d288715	0.04114445
100	0x3c82462c	0.015902601
101	0x3d2cd9f0	0.04220003
102	0xbc0ebcd4	-0.008712012
103	0xbaa36e98	-0.0012468873
104	0x3d0d9124	0.034562245
105	0x3ba528dd	0.0050402717
106	0xbd058bbe	-0.03260397
107	0x3d073bef	0.03301614
108	0x3ae5b087	0.0017523923
109	0xbc437e46	-0.011931961
110	0xbbdbe0c9	-0.006710146
111	0x3d0f7985	0.035028
112	0x3cc8fc0d	0.02453425
113	0x3c95249e	0.018205937
114	0x3d7098e7	0.05873957
115	0x3d616d85	0.055036087
116	0x3c68b1d7	0.014202557
117	0x3dd983d1	0.10620845
118	0x3cff5535	0.03116856
119	0x3d2c49a1	0.042062405
120	0x3d2d42dc	0.04230009
121	0x3b18f32e	0.0023338306
122	0x3c22e766	0.009942865
123	0xbc9df3b6	-0.01928125
124	0xbc32faa4	-0.010924015
125	0x3c82a717	0.015948815
126	0x3da15b89	0.07878787
127	0x3d2379b2	0.03991098
128	0x3d96310a	0.07333572
129	0x3c2d7ea1	0.010589273
130	0x3c1c8bcc	0.009554815
131	0x3c8c3c38	0.017118558
132	0x3d11595a	0.035485603
133	0x3cfd65ad	0.030932272
134	0x3d4dc09a	0.050232507
135	0xbd3cc338	-0.046084613
136	0x3c9aee43	0.01891244
137	0x3b3f313b	0.002917363
138	0x3cb16fe6	0.021659803
139	0x3c8ff42f	0.01757249
140	0x3cd232cd	0.02565899
141	0x3cfa22c0	0.030534148
142	0x3cd8c78d	0.02646234
143	0x3c59efb1	0.013301776
144	0xbc1c436b	-0.009537558
145	0xbc4677b5	-0.012113501
146	0xbcb7205e	-0.022354301
147	0xbc19baed	-0.0093829455
148	0x3c97bfc2	0.018524054
149	0xbc5f9ace	-0.013647748
150	0xbc0970de	-0.008388726
151	0x3c4b39f5	0.012403955
152	0xbb86edc8	-0.004117701
153	0x3ceb0e3a	0.028693307
154	0x3d2f392e	0.04277914
155	0x3d82cb16	0.06386392
156	0x3d1fefbb	0.039046984
157	0x3ccee0f3	0.025253749
158	0x3d2d385a	0.04229007
159	0x3a6e6cb5	0.0009095178
160	0xba134c8e	-0.00056190125
161	0x3b9cece7	0.004788983
162	0xb8363db6	-4.3449654e-05
163	0xbd4003d3	-0.046878647
164	0x3b871f30	0.004123591
165	0xbc98d81c	-0.018657736
166	0xbb9b059c	-0.0047308933
167	0x3bd25e23	0.0064199134
168	0xbd182745	-0.037146825
169	0xbc540b2f	-0.0129421195
170	0x3cf23190	0.029564649
171	0xbd80f9ef	-0.06297671
172	0xbcf578cf	-0.029964833
173	0x3e0a1cf9	0.13487615
174	0xbb765082	-0.0037584607
175	0xbc5e90f7	-0.013584367
176	0x3d48803d	0.048950423
177	0xbc3158df	-0.010824411
178	0xbd1fd89d	-0.039024938
179	0x3c8239f3	0.015896773
180	0xbc02da4f	-0.007986619
181	0x3d09d0e1	0.033646468
182	0xbcd2ecb3	-0.025747633
183	0xbc1fa085	-0.009742861
184	0x3ae21127	0.0017247543
185	0x3cb3e2dc	0.02195876
186	0xbb6633f0	-0.0035126172
187	0x3d095821	0.033531312
188	0x3d9c7943	0.07640316
189	0xbcc624a7	-0.0241874
190	0x3b4b3a5f	0.0031010134
191	0xbd374d32	-0.044751354
192	0xbc6eee43	-0.014583173
193	0x3cabe457	0.020982904
194	0x3d36e243	0.044649374
195	0x3ca238b5	0.01980243
196	0x3d2b0fe1	0.04176319
197	0x3d32ecc4	0.04368283
198	0xbbd40751	-0.0064705987
199	0xbcf6a3dd	-0.030107433
200	0xbaaf8127	-0.0013389931
201	0x3cd3a529	0.02583559
202	0x3c8e73cc	0.0173892
203	0x3cc8b66e	0.024501052
204	0x3d4ca541	0.049962286
205	0x3c9229b3	0.01784215
206	0x3d042ff7	0.032272305
207	0x3cdefd74	0.027220465
208	0xbbe76128	-0.0070611425
209	0x3cf48bf6	0.029851895
210	0x3d58df9e	0.052947633
211	0x3d0d2ef4	0.034468606
212	0x3c60e8e1	0.013727398
213	0x3dd39689	0.10331447
214	0x3d867ae7	0.065664105
215	0x3c710bb1	0.01471226
216	0x3c95af51	0.018272074
217	0x3c925174	0.017861106
218	0x3b00bd03	0.001964391
219	0x3c917860	0.017757595
220	0x3cc25dfd	0.023726458
221	0x3d31838d	0.043338347
222	0x3d10b516	0.035328947
223	0x3cbd87cf	0.023136048
224	0xbd3bb779	-0.04582927
225	0xbcf996f6	-0.030467492
226	0xbcfd2c6b	-0.03090497
227	0xbd25052b	-0.04028813
228	0xbc06c6d2	-0.008226113
229	0x3d4d7a24	0.05016531
230	0x3cc78669	0.024356084
231	0x3a01dfcd	0.00049543084
232	0x3d097f9a	0.033568956
233	0x3b9ee1ea	0.0048487084
234	0x3d19a77e	0.03751325
235	0x3d2a74cd	0.041615296
236	0x3d723304	0.059130684
237	0x3c336f06	0.010951763
238	0x3bd5f7d5	0.006529788
239	0x3cdeb438	0.027185544
240	0x3d85a493	0.06525531
241	0x3c0633c9	0.0081910575
242	0x3ca0d58d	0.019633079
243	0x3cc9afd4	0.024619974
244	0xbc20a16c	-0.009804111
245	0xbd34f764	-0.044181243
246	0x3c92040e	0.017824199
247	0x3a4f7867	0.00079143647
248	0xbd5f7607	-0.05455592
249	0x3c7b620b	0.0153431995
250	0xbd36e90f	-0.044655856
251	0xbcb5d26b	-0.022195062
252	0x3cbf9fd0	0.023391634
253	0x3d16d2b7	0.036822047
254	0x3d14b5cf	0.0363062
255	0x3c7c5aed	0.015402538

bias f4 [32]
0	0xbd386e5a	-0.045027114
1	0xbd0c8e26	-0.03431525
2	0xbaaf628b	-0.0013380809
3	0xbd1b0c98	-0.037853807
4	0xbd399e9f	-0.04531729
5	0x3c5c6a92	0.013453143
6	0xbd0bce02	-0.03413201
7	0x3c0499c0	0.0080932975
8	0xbc1d7d98	-0.009612463
9	0x3c0a6265	0.008446311
10	0xbc5099fe	-0.012732027
11	0xbd0ad021	-0.033889893
12	0xbd597ef5	-0.05309959
13	0x3c42a22f	0.011879488
14	0x3c6c8c55	0.014437755
15	0xbcf5d6ae	-0.030009594
16	0x3b69982e	0.0035643685
17	0xbd11da8b	-0.03560881
18	0xbb951ce7	-0.0045505646
19	0xbadb0cfa	-0.0016712241
20	0xbd39eaef	-0.045390066
21	0xbca42c30	-0.020040601
22	0xbcc435b3	-0.023951387
23	0x3d1aa124	0.037751332
24	0x3d22b63a	0.039724566
25	0xbc8c15e8	-0.01710029
26	0xbd10b0e2	-0.03532494
27	0x3becfc26	0.007232207
28	0xbba837a1	-0.0051335846
29	0x3d72316b	0.05912916
30	0x3d308f37	0.04310533
31	0xbad17cb6	-0.0015982601

weight f4 [32]
0	0x3f5c1df4	0.85983205
1	0x3f4a891a	0.7911545
2	0x3f634fac	0.88793445
3	0x3f48706f	0.7829656
4	0x3f62f45d	0.8865412
5	0x3f7ca1cf	0.986844
6	0x3f81f26f	1.015211
7	0x3f83382e	1.025152
8	0x3f5fe1c0	0.8745384
9	0x3f66c889	0.9014974
10	0x3f83004a	1.0234463
11	0x3f564598	0.8369994
12	0x3f764ea0	0.9621372
13	0x3f702728	0.9380975
14	0x3f588c67	0.84589237
15	0x3f7e37ac	0.993037
16	0x3f453644	0.7703593
17	0x3f716ba7	0.9430489
18	0x3f6e994d	0.9320267
19	0x3f5eec84	0.87079644
20	0x3f64ede9	0.8942552
21	0x3f74bd52	0.9560138
22	0x3f70f0b4	0.94117284
23	0x3f7e6b65	0.9938262
24	0x3f703812	0.93835557
25	0x3f77f6a3	0.9686071
26	0x3f516d9d	0.8180788
27	0x3f80f04c	1.0073333
28	0x3f678782	0.90441144
29	0x3f621425	0.8831199
30	0x3f504e46	0.81369436
31	0x3f7a36e2	0.97739995

bias f4 [32]
0	0x3f10d1e8	0.5657029
1	0x3f187ec6	0.5956844
2	0x3f21b97e	0.63173664
3	0x3f4083d5	0.7520116
4	0x3ecfc6ba	0.40581304
5	0x3eb8eb4e	0.36117023
6	0x3eeef564	0.46671593
7	0x3caca40d	0.02107432
8	0x3ee1d486	0.44107455
9	0x3ee14b7c	0.44002903
10	0x3eb30ef7	0.34972355
11	0x3f238b39	0.6388431
12	0x3e9116c2	0.28337675
13	0x3ede6d47	0.43442747
14	0x3f223930	0.6336851
15	0x3eff0a25	0.49812427
16	0x3f337d8a	0.7011343
17	0x3ec5f1b7	0.38660976
18	0x3f1fe47a	0.62458
19	0x3f115cd4	0.5678227
20	0x3e583875	0.21115287
21	0x3ec3e0cb	0.3825744
22	0x3f06e566	0.52693784
23	0x3e2305fd	0.15920253
24	0x3f08c156	0.5342001
25	0xbe32b6c9	-0.1745254
26	0x3f48de8f	0.784646
27	0x3df70b16	0.12062661
28	0x3f153d4b	0.5829665
29	0x3f1a0b8c	0.6017387
30	0x3f426ce9	0.75947434
31	0x3ec56bae	0.38558716

running_mean f4 [32]
0	0x402d9e6e	2.7127948
1	0xbf549b18	-0.83049154
2	0xbee329c0	-0.4436779
3	0xbf0e51df	-0.55593675
4	0x3f8e722d	1.1128594
5	0xbfa43a59	-1.2830306
6	0xbeccbbaf	-0.3998694
7	0xbff01e12	-1.8759177
8	0x3db31606	0.08744435
9	0xbff8edd3	-1.9447578
10	0xbed3bbba	-0.41354162
11	0xbdd35fde	-0.103210196
12	0xbf548dde	-0.8302897
13	0x3e6fefd5	0.23431332
14	0xbf629dfc	-0.88522315
15	0xbfc61b07	-1.5476998
16	0xbd516779	-0.05112407
17	0x3ee0ecf1	0.43930772
18	0x3f5c2800	0.85998535
19	0xbeab0f8c	-0.334103
20	0xbeb2fc83	-0.34958276
21	0xbe9b842f	-0.30374286
22	0x3d9986c3	0.07496407
23	0xbe0eacb0	-0.13933063
24	0xbfedaed0	-1.8568974
25	0x3e3be33d	0.18348403
26	0xbfcc45ec	-1.5958838
27	0xbf846e61	-1.0346185
28	0x3da50774	0.08058062
29	0xbfb8ec58	-1.4447126
30	0xbf719f13	-0.94383353
31	0xbeedb0a6	-0.46423835

running_var f4 [32]
0	0x3e80aa9e	0.2513017
1	0x3e55555b	0.20833342
2	0x3e60f065	0.21966703
3	0x3e1eb244	0.1549769
4	0x3e1dc6a9	0.15407814
5	0x3e907932	0.28217465
6	0x3edd830b	0.4326404
7	0x3ea61152	0.3243509
8	0x3e18c6ae	0.1491954
9	0x3e4fb6e9	0.20284618
10	0x3ea9545b	0.3307217
11	0x3e1c9775	0.15292151
12	0x3e126c85	0.1429921
13	0x3e498bc5	0.19682224
14	0x3e0319c5	0.12802799
15	0x3e610677	0.21975122
16	0x3e00a0cc	0.12561339
17	0x3e5e11bf	0.21686457
18	0x3e9bbc8d	0.3041729
19	0x3e2026b5	0.15639766
20	0x3e801067	0.25012514
21	0x3ed27dc8	0.41111588
22	0x3f23e9dc	0.64028716
23	0x3e92e064	0.2868682
24	0x3ea1ae16	0.3157813
25	0x3e8af17e	0.2713737
26	0x3e549fa7	0.20764028
27	0x3e6f722f	0.23383401
28	0x3e8fadf2	0.28062397
29	0x3ed4b852	0.41546875
30	0x3e695faf	0.22790407
31	0x3e987455	0.29776254

weight f4 [32, 32, 3, 3]
0	0x3cba474e	0.022739079
1	0x390ee195	0.00013626211
2	0xbd389b2e	-0.045069866
3	0x3ca9ecc8	0.020742789
4	0x3ba14863	0.0049219592
5	0xbc9ecb2d	-0.019383991
6	0xbb00716d	-0.0019598857
7	0xbbc17b00	-0.0059045553
8	0xbcf7f258	-0.030266926
9	0x3c70c86b	0.014696221
10	0xbcfcb092	-0.030845914
11	0xbd81fe1c	-0.06347296
12	0x38f699b4	0.000117588235
13	0x3ceb81b0	0.028748363
14	0x3aea26f1	0.0017864389
15	0x3cd10845	0.025516639
16	0x39929c3c	0.00027963694
17	0x3d25a75b	0.040442806
18	0xbd99a5d0	-0.07502329
19	0xbd7e42c7	-0.062075403
20	0xbdbffd8f	-0.09374534
21	0xbd62fc10	-0.055416167
22	0xbbfcd5e4	-0.0077159274
23	0xbd2cce92	-0.04218919
24	0xbc878184	-0.01654125
25	0x3d213014	0.03935249
26	0x3c49c8b8	0.0123159215
27	0xbd08b790	-0.033378184
28	0xbcc36082	-0.02384973
29	0xbcfdb715	-0.03097109
30	0xbcf01730	-0.029307932
31	0x3d0b1125	0.033951897
32	0xbb8425bb	-0.004032818
33	0xbd8d01c7	-0.068851046
34	0xb98712ae	-0.00025763124
35	0xbc3eca98	-0.011644982
36	0x3d0ba585	0.0340934
37	0xbcb18eaf	-0.021674482
38	0x3af67351	0.0018802678
39	0xbc078b25	-0.008272921
40	0xbd2788c7	-0.040901925
41	0xbd85e136	-0.06537096
42	0x3b86aaad	0.0041097016
43	0xbd5bdef5	-0.053679425
44	0xbdb81c51	-0.08989776
45	0xbbdbc9a1	-0.0067073856
46	0x3c898a53	0.016789591
47	0x3cfe3d9e	0.03103524
48	0xbd493c66	-0.049129866
49	0xbc87cd3a	-0.016577352
50	0xbd4351d4	-0.04768546
51	0xbcc722a2	-0.024308506
52	0xbd360629	-0.04443947
53	0x3bc91ca4	0.0061374474
54	0x3c0cd023	0.008594546
55	0x3d323804	0.043510452
56	0x3ce62987	0.028095974
57	0xbd05ae23	-0.032636773
58	0x3ca88432	0.020570848
59	0x3cdc5d2b	0.026899895
60	0xbd128210	-0.03576857
61	0x3c3a6ea3	0.011378917
62	0x3cce2e56	0.02516858
63	0x3d936c26	0.07198362
64	0x3cf44b53	0.029821074
65	0x3dbc737e	0.09201716
66	0xbcf6380b	-0.03005602
67	0xbc8dcfe8	-0.017311051
68	0xbc30340e	-0.010754598
69	0xba550ebc	-0.0008127501
70	0x3b791644	0.0038007656
71	0x3c45172e	0.012029452
72	0xbcd0c060	-0.025482357
73	0xbbf3bd95	-0.0074383714
74	0xbc69830f	-0.014252438
75	0xbc5e7f0e	-0.013580097
76	0xbc84df70	-0.016219825
77	0xbca86b51	-0.020558985
78	0xbd376dad	-0.04478233
79	0xbc0ee5cd	-0.008721781
80	0xbd10c594	-0.035344675
81	0x3cab488b	0.020908615
82	0xbbdf31bb	-0.0068113483
83	0xbc24f2b6	-0.010067632
84	0x3bd7c603	0.006584884
85	0x3c94e82f	0.01817712
86	0xbc5a846d	-0.013337237
87	0x3c13cb9d	0.009020713
88	0xbbc60da5	-0.006044107
89	0xbbc07709	-0.005873565
90	0x3d5d037f	0.053958412
91	0x3ca043e2	0.019563619
92	0xbc033611	-0.008008496
93	0x3d08d335	0.033404548
94	0x3b71df8c	0.0036906926
95	0xbbfd638a	-0.0077328132
96	0x3db47f4a	0.08813341
97	0x3d0ef6fa	0.034903504
98	0xbc11d2b9	-0.008900338
99	0x3cf621d4	0.030045427
100	0xbc9921c5	-0.01869286
101	0xbc3612b8	-0.011112861
102	0xbb647cc4	-0.0034864405
103	0xbb9715b4	-0.0046107415
104	0xbc89ecfc	-0.016836636
105	0x3bcb9a79	0.006213483
106	0x39add6ab	0.0003315707
107	0xbd05ccfa	-0.032666184
108	0xbaa0e388	-0.0012274841
109	0x3ce550a1	0.027992548
110	0x3bf5d050	0.0075016394
111	0xbb4c6080	-0.0031185448
112	0x3b99a428	0.0046887584
113	0x3b083211	0.0020781795
114	0xbcb9f791	-0.022701057
115	0xbb868b53	-0.004105964
116	0xbc93024d	-0.017945433
117	0xbd1daeee	-0.038496904
118	0xb96f34ef	-0.00022812535
119	0x3ca1c833	0.019748783
120	0xbd1fc182	-0.039002903
121	0x3b0d7802	0.0021586423
122	0x3c5a86a7	0.013337768
123	0xbce02afd	-0.027364248
124	0x3cd3a8c3	0.025837308
125	0x3d711630	0.05885905
126	0xbdc0bd19	-0.094110675
127	0xbd1347ff	-0.035957333
128	0x3d997bfc	0.07494351
129	0xbd562386	-0.05227997
130	0xbc61c351	-0.013779477
131	0xbc61c269	-0.013779261
132	0xbb0c4bf4	-0.0021407576
133	0xbd15c25d	-0.036562312
134	0xbb4da4f2	-0.0031378833
135	0xbbe54ce3	-0.006997691
136	0x3d238879	0.039925072
137	0x3d93dd14	0.07219902
138	0xbc97a4fb	-0.018511286
139	0x3c6b8dc8	0.014377065
140	0xbb300633	-0.0026859164
141	0x3cb06314	0.02153162
142	0x3ca78942	0.020451192
143	0x3d37e984	0.044900432
144	0xbd22cd04	-0.0397463
145	0x3ca94324	0.020661898
146	0x3d309568	0.043111235
147	0xbdb44846	-0.088028476
148	0x3b22d394	0.0024845349
149	0xbbe2a3c6	-0.006916496
150	0xbd98e873	-0.07466211
151	0xbb303007	-0.0026884095
152	0xbbfd52b9	-0.0077308086
153	0x3d1456d2	0.03621561
154	0xbcdd76ca	-0.027034182
155	0xbda35489	-0.07975108
156	0xbb5e0a7e	-0.0033880766
157	0x3a99caee	0.0011733451
158	0xbbdf476d	-0.0068139345
159	0x3c3b2d59	0.011424386
160	0x3c957eea	0.018248994
161	0xbc08dbbb	-0.008353169
162	0xbc767bba	-0.015044147
163	0xbc59b7a0	-0.0132884085
164	0xbdda9b3f	-0.10674142
165	0x3c88e910	0.016712695
166	0xbb7a43dc	-0.003818742
167	0xbc853039	-0.016258346
168	0x3cec3dff	0.028838156
169	0x3c0eb0b9	0.008709126
170	0x3c5167b6	0.012781074
171	0x3cb049d8	0.021519586
172	0xbd86c449	-0.06580407
173	0xbd72b5fa	-0.059255578
174	0xbb6bd0c8	-0.0035982598
175	0xbca18fcc	-0.019721888
176	0x3c8bf3d0	0.017084032
177	0xbd856192	-0.06512751
178	0xbd2ce482	-0.04221011
179	0x3d10e221	0.035371903
180	0xbd85f2c6	-0.06540446
181	0xbd5f03ef	-0.05444711
182	0xbe07c45c	-0.13258499
183	0xbd22d742	-0.039756067
184	0xbceeca30	-0.029149145
185	0xbd514991	-0.05109555
186	0xbd5fdab2	-0.054651923
187	0xbd108957	-0.035287227
188	0xbd4b48bd	-0.049629916
189	0xbccd7adb	-0.025082996
190	0x3cb8791e	0.02251869
191	0x3b95cd3c	0.004571585
192	0x3af9831a	0.0019036264
193	0x3b5796fd	0.0032896393
194	0x3926c612	0.0001590478
195	0x3cc5ebc1	0.024160268
196	0x3bf56800	0.0074892044
197	0x3d19c1fe	0.03753852
198	0xba4580e2	-0.00075341586
199	0xbd5567fe	-0.052101128
200	0xbda9a48e	-0.082833394
201	0xbc90dad7	-0.017682476
202	0xbce7f7e5	-0.028316448
203	0xbcd1be09	-0.025603311
204	0x3c8acbc4	0.016942866
205	0xbbc584d0	-0.0060277954
206	0x3d0f9324	0.035052434
207	0xbd7f0b96	-0.06226691
208	0xbd1b2135	-0.037873466
209	0xbc149cae	-0.0090705585
210	0xbd1d431a	-0.03839407
211	0xbb7902ce	-0.0037996056
212	0xbc43347a	-0.011914367
213	0xbd58cd7b	-0.052930336
214	0x39979337	0.00028910648
215	0xbd11b8bb	-0.035576563
216	0x3bd867f5	0.0066041895
217	0x3b30b50a	0.0026963376
218	0x3dcd5663	0.100262426
219	0x3bc61a31	0.0060456027
220	0xbbbd91bb	-0.0057851947
221	0x3bdcdfe6	0.006740558
222	0xbc07af26	-0.008281505
223	0x3d402d77	0.04691836
224	0x3d2508c9	0.04029158
225	0xbce91c28	-0.028455809
226	0x3d6893b9	0.056781504
227	0x3d09b382	0.033618458
228	0xbd14e5eb	-0.03635208
229	0xbc82a664	-0.015948482
230	0x3c352b5a	0.011057699
231	0xbd18d019	-0.037307832
232	0x3ba64366	0.0050739525
233	0xbc4abe40	-0.012374461
234	0xbcabb0e5	-0.020958373
235	0xbd45f10d	-0.048325587
236	0xbb16ebf7	-0.002302883
237	0x3c7b5fbb	0.015342648
238	0xbd2b449b	-0.041813474
239	0xbbb39c4c	-0.0054812785
240	0x3c4e8378	0.012604587
241	0x3c001040	0.007816374
242	0xbbbd14b6	-0.005770291
243	0xbc9c6528	-0.019091204
244	0xbcb90895	-0.0225871
245	0x3cebf7ac	0.028804623
246	0xbcaa75c5	-0.02080811
247	0x3b35f8ea	0.0027766773
248	0xbbea897d	-0.007157503
249	0x3ce57211	0.028008493
250	0x3d29b07a	0.041428067
251	0x3d66a0ef	0.056305822
252	0xbd2ee5e5	-0.042699713
253	0xbbfcc38b	-0.00771374
254	0xbadebddc	-0.0016993838
255	0xbc88c4e9	-0.016695457

bias f4 [32]
0	0x3d042d4c	0.03226976
1	0x3d4ad770	0.049521863
2	0xbd522e1c	-0.051313505
3	0xbaee7e1b	-0.0018195541
4	0x3c80a7e6	0.01570506
5	0xbbfa63a2	-0.0076412717
6	0xbd3d6d46	-0.04624679
7	0x3d168094	0.036743715
8	0xbafce322	-0.0019293765
9	0x3c414485	0.0117961215
10	0x3cdb8316	0.026795905
11	0x3d71e09b	0.05905209
12	0xbba79e24	-0.0051152874
13	0x3bb13221	0.005407587
14	0xbb9e8c5b	-0.004838509
15	0xbd159a6e	-0.03652423
16	0xbd785365	-0.060626406
17	0x3cb9d8c1	0.022686364
18	0x3d065520	0.032796025
19	0x3d6e22bf	0.058138605
20	0x3d3ca3be	0.046054594
21	0x3d39529e	0.045244806
22	0xbc1a972c	-0.009435456
23	0xbc891745	-0.016734729
24	0xbd399c03	-0.0453148
25	0xbc34ce02	-0.011035444
26	0xbcbf0b48	-0.023320809
27	0x3c7f0beb	0.015566806
28	0x3cc38105	0.023865232
29	0x3d0eae64	0.03483428
30	0x3cb75246	0.022378098
31	0x3d27e85a	0.040993072

weight f4 [32]
0	0x3f752075	0.9575265
1	0x3f74f854	0.9569142
2	0x3f6f0a1f	0.9337482
3	0x3f7b48e9	0.9815813
4	0x3f6a1916	0.9144453
5	0x3f75211e	0.9575366
6	0x3f728c24	0.9474509
7	0x3f600823	0.87512416
8	0x3f6735ca	0.9031645
9	0x3f72b628	0.948092
10	0x3f59dd8f	0.85103697
11	0x3f71bbb7	0.94427055
12	0x3f6520db	0.8950326
13	0x3f76c369	0.9639192
14	0x3f617340	0.8806648
15	0x3f7fe53a	0.99959147
16	0x3f65180f	0.89489836
17	0x3f4cce49	0.80002266
18	0x3f6a233c	0.91460013
19	0x3f84d654	1.0377908
20	0x3f86717b	1.0503381
21	0x3f7e4f2e	0.9933957
22	0x3f49f97f	0.78896326
23	0x3f7fb760	0.99889183
24	0x3f5b985b	0.8577935
25	0x3f5d629d	0.86478597
26	0x3f78f103	0.97242755
27	0x3f7d356a	0.9890963
28	0x3f5e07fa	0.8673092
29	0x3f81bf75	1.0136553
30	0x3f6f9fe1	0.9360333
31	0x3f588f37	0.8459353

bias f4 [32]
0	0x3eeeaf8c	0.46618307
1	0x3ee85286	0.4537546
2	0x3ecadacb	0.3962005
3	0x3f0c17b2	0.54723656
4	0x3ea2265f	0.316699
5	0x3ead420d	0.33839455
6	0x3eeb9229	0.4600995
7	0x3f04e58b	0.51912755
8	0x3f0a8871	0.54114443
9	0x3dd84b59	0.105612464
10	0x3efecd0b	0.4976581
11	0x3ed1d3fd	0.40982047
12	0x3f1c472b	0.61046094
13	0x3f01f194	0.50759244
14	0x3eb8d8d0	0.36102915
15	0x3e9db569	0.30802467
16	0x3ec4ea52	0.38460022
17	0x3f059f93	0.52196616
18	0x3edf10c8	0.4356749
19	0x3e932bce	0.28744358
20	0x3e36c06e	0.17846844
21	0x3d778c68	0.060436636
22	0x3f3a9ca8	0.7289529
23	0x3ebc72a6	0.3680622
24	0x3ed3c98d	0.4136471
25	0x3f36ea3e	0.71451175
26	0x3e45c395	0.1931289
27	0x3e4129a3	0.1886354
28	0x3f1b1428	0.6057763
29	0x3e862ccc	0.26206052
30	0x3eec1d15	0.46115938
31	0x3f09b8a0	0.5379734

running_mean f4 [32]
0	0xbfb96ef2	-1.4486983
1	0xbf86fa5e	-1.0545156
2	0x3f46c6ca	0.7764708
3	0xbf60e8ad	-0.87855035
4	0xbf10a090	-0.56495
5	0xbf88277e	-1.0637052
6	0xbe70b506	-0.23506555
7	0xbf5807cc	-0.843869
8	0xbed4146f	-0.4142184
9	0x3ddfdc50	0.10930693
10	0xbe279e43	-0.16368966
11	0xbeacc592	-0.33744484
12	0x3f4ab31c	0.7917955
13	0x3f026834	0.5094025
14	0xbec31b2a	-0.38106662
15	0xbf06a7a8	-0.52599573
16	0x3eebacb6	0.46030205
17	0xbf3c7956	-0.73622644
18	0x3ace4a52	0.0015738702
19	0x3f01a999	0.5064941
20	0xbf8b3a08	-1.0877085
21	0xbe2b417b	-0.16724198
22	0x3f46af40	0.7761116
23	0xbf18ab6c	-0.5963657
24	0xbf36b81f	-0.71374696
25	0x3ee11e5c	0.43968475
26	0x3edddb45	0.43331352
27	0xbfac4a46	-1.3460166
28	0xbfb93bae	-1.4471338
29	0x3f6128db	0.87952965
30	0x3ef4f3cc	0.47842252
31	0xbf42b713	-0.760606

running_var f4 [32]
0	0x3ea769a3	0.32697782
1	0x3eb45c0a	0.3522647
2	0x3e9ba7de	0.3040151
3	0x3eae34cd	0.3402466
4	0x3de0b0f9	0.10971255
5	0x3eb884a4	0.36038697
6	0x3e399686	0.18123826
7	0x3e3d2cb3	0.18474083
8	0x3e6a8981	0.22904016
9	0x3e13ec8c	0.14445704
10	0x3e3e89f3	0.18607311
11	0x3e746384	0.23866087
12	0x3e2dfc92	0.16990879
13	0x3e5ffb02	0.21873096
14	0x3da1cf6c	0.07900891
15	0x3e4fb37d	0.20283313
16	0x3e3a919f	0.18219613
17	0x3e151b4d	0.14561196
18	0x3e4f567d	0.20247836
19	0x3f01e12e	0.5073422
20	0x3e70b579	0.23506726
21	0x3ec35a20	0.38154697
22	0x3e055e1e	0.13024184
23	0x3eed2619	0.4631813
24	0x3e098d06	0.13432702
25	0x3e5027d9	0.203277
26	0x3e1c402d	0.15258856
27	0x3eaa389c	0.33246315
28	0x3e10ef4b	0.14153783
29	0x3e8a8a86	0.2705881
30	0x3e4fb03b	0.2028207
31	0x3e3c85b0	0.18410373

weight f4 [32, 32, 3, 3]
0	0xbcd209f1	-0.025639506
1	0xbcd64497	-0.026155753
2	0x3d6c6f3c	0.05772327
3	0x3cd7773e	0.026301976
4	0xbba175b8	-0.0049273632
5	0x3b7272cc	0.0036994694
6	0x3d583f9d	0.05279504
7	0x3b128972	0.0022359756
8	0x3d65cd21	0.05610383
9	0x3d5367ca	0.051612653
10	0xbb4a901e	-0.0030908654
11	0xbcad4b10	-0.021153957
12	0x3d4fdda9	0.0507485
13	0x3ad7a0a1	0.0016451069
14	0x3c56acea	0.013102749
15	0x3d0c463f	0.03424668
16	0x3d13fdd0	0.036130726
17	0xbc8017b0	-0.015636295
18	0x3c31f79a	0.0108622555
19	0xbcbab0ed	-0.022789443
20	0x3c079110	0.008274332
21	0x3d1e7c78	0.03869292
22	0x3b6c5155	0.003605922
23	0x39594e99	0.00020724013
24	0xbaa69d78	-0.0012711724
25	0xbd642792	-0.0557018
26	0x3cd9f1e4	0.0266046
27	0xbc34f2ce	-0.011044217
28	0x3b73a77f	0.0037178693
29	0xbc750689	-0.014955171
30	0x3cea462e	0.028597917
31	0xbc513a9f	-0.012770324
32	0xbd073f59	-0.033019397
33	0x3db28db0	0.08718431
34	0x3d16e126	0.036835812
35	0x3d44a990	0.04801327
36	0x3d5c3857	0.053764667
37	0xbd00e92e	-0.031472377
38	0x3d2bd27c	0.04194878
39	0x3cef982e	0.02924737
40	0xbd4c1118	-0.04982099
41	0x3c7ebc35	0.015547802
42	0x3dc8bffc	0.09802243
43	0xbc85f763	-0.016353315
44	0x3cfd3598	0.030909345
45	0xbd755a7e	-0.059900753
46	0x3b22d48e	0.002484593
47	0xbcfb231c	-0.03065639
48	0xbb2a07e9	-0.0025944656
49	0x3cd0ac1e	0.025472697
50	0xbd23feff	-0.040038105
51	0xbb78ed99	-0.0037983416
52	0x3baebc1e	0.005332484
53	0xbcd634f8	-0.026148304
54	0x3dc5bd16	0.09655206
55	0x3c3ef536	0.0116551425
56	0x3ca018ee	0.019543137
57	0x3ce489b4	0.027897693
58	0xbcb3619c	-0.02189713
59	0xbd552688	-0.0520387
60	0x3d7424ff	0.059605595
61	0x3b95b812	0.004569062
62	0xbd33a602	-0.04385949
63	0xbe005e7c	-0.12536043
64	0x3cbbc786	0.022922289
65	0x3d0856aa	0.033285774
66	0xbd913212	-0.07089628
67	0xbc39fcbe	-0.011351762
68	0x3cc8410e	0.024445083
69	0xbd302489	-0.043003593
70	0xbb888bb7	-0.004167046
71	0x3da2b916	0.079454586
72	0x3d8c0ef0	0.068387866
73	0x3cda79bd	0.026669377
74	0xbbeb6863	-0.0071840747
75	0x3d19ca2f	0.037546333
76	0x3d6685f1	0.05628008
77	0x3d0ddb7d	0.03463315
78	0x3da7f4cb	0.082009874
79	0x3c4933e5	0.012280439
80	0x3da19ba5	0.07891015
81	0x3adef37a	0.0017009818
82	0x3d1baefc	0.038008675
83	0xbb4e6277	-0.0031491795
84	0xbce668ff	-0.028126238
85	0xbc0ed6d6	-0.008718213
86	0xbc6d8015	-0.014495869
87	0x3d199888	0.03749898
88	0x3daf77b1	0.08567751
89	0x3d080c30	0.033214748
90	0x3cbdac7f	0.023153542
91	0xbce8499b	-0.02835541
92	0xbbd694b1	-0.006548487
93	0xbae30237	-0.0017319386
94	0x3cb4ae88	0.02205588
95	0x3d265d1e	0.040616147
96	0xbbf2cdfe	-0.00740981
97	0xbc4e4e9f	-0.012591987
98	0x3cab5c40	0.020918012
99	0xbcb7fc5e	-0.022459205
100	0x3bb1ea90	0.0054295734
101	0x3caca1a1	0.021073164
102	0xbd193502	-0.037404068
103	0x3c9d81cd	0.019226933
104	0x3d5250bd	0.05134653
105	0xbc87442a	-0.016511995
106	0xbd21548c	-0.03938727
107	0x3ba5278b	0.0050401143
108	0xbdb1fa66	-0.08690338
109	0x3a3db8ed	0.0007237334
110	0x3ba9819d	0.005172922
111	0x3c6e6ed7	0.014552793
112	0xbcb46f08	-0.0220256
113	0x3c4ebe18	0.012618564
114	0x3b740758	0.0037235823
115	0xbd274adf	-0.040842887
116	0x3c943292	0.01809052
117	0xbda7ea26	-0.08198957
118	0xbd3fdbaf	-0.046840366
119	0x3c999db0	0.01875195
120	0xbd56a702	-0.052405365
121	0xbd1ea716	-0.038733564
122	0x3ca7e74c	0.020496033
123	0xbd2c4f8d	-0.042068053
124	0xbd85f4e5	-0.065408505
125	0x3c7815b0	0.015141889
126	0x3c6733c9	0.014111468
127	0x3c7ecffd	0.015552518
128	0x3c22f5b1	0.009946273
129	0xbbcb3181	-0.0062009697
130	0xba3f8431	-0.000730577
131	0x3d618969	0.055062685
132	0xbc2f0777	-0.010682932
133	0xbd0664fc	-0.03281115
134	0x3c9f54fe	0.019449707
135	0xbd9fd8d0	-0.078050256
136	0x3c93a7ce	0.018024351
137	0x3d2b2c25	0.041790146
138	0xbd568001	-0.052368168
139	0x3ce07614	0.027400054
140	0x3d101f84	0.035186306
141	0xbd6cccad	-0.05781238
142	0xbc3b9203	-0.011448386
143	0x3cfcfe7d	0.030883068
144	0x3dbb0091	0.091309674
145	0x3b0e3bfc	0.0021703234
146	0xbd2b173d	-0.04177021
147	0x3d3092d8	0.04310879
148	0x3cff7da9	0.03118785
149	0xbd2b6c22	-0.04185117
150	0x3d74c0ae	0.059754066
151	0xbb01e890	-0.0019822456
152	0xbd837107	-0.06418043
153	0xbda36cf2	-0.07979764
154	0xbcb20f66	-0.021735858
155	0x3c9514d9	0.018198417
156	0xbbd0131b	-0.006349934
157	0x3d6743b1	0.05646104
158	0xbc7fad9a	-0.015605355
159	0x3c55228c	0.013008725
160	0x3d05f7dc	0.03270708
161	0xbcc20115	-0.023682157
162	0xbd95d58f	-0.07316124
163	0xbd7e957f	-0.06215429
164	0xbcbf3d1a	-0.023344565
165	0xbbdbaeaf	-0.0067041735
166	0xbca5b075	-0.020225743
167	0x3d864dad	0.06557784
168	0x3c6bedec	0.014399987
169	0xbd36534c	-0.04451303
170	0xbd0a8707	-0.03382018
171	0x3cfd305d	0.03090685
172	0xbd193598	-0.037404627
173	0xbda7bd0a	-0.08190353
174	0x3d8773f5	0.06613914
175	0x3c68ca22	0.0142083485
176	0xbbdae69a	-0.006680322
177	0x3c165643	0.00917584
178	0xbc1c7e8d	-0.009551656
179	0xbc811ada	-0.015759874
180	0x3c5014e8	0.012700297
181	0x3d2f514d	0.042802144
182	0xbbd4aeaa	-0.006490548
183	0xbce0a141	-0.027420642
184	0x3c92f80d	0.017940545
185	0xbba44220	-0.0050127655
186	0xbd6ec522	-0.05829347
187	0xbc1a42ca	-0.009415338
188	0xbdabf90c	-0.08397111
189	0xbd032e71	-0.03202671
190	0xbcb7f1ad	-0.022454107
191	0x3ceddbbc	0.029035442
192	0x3cba2537	0.022722824
193	0xbd097d13	-0.033566546
194	0x3c0bb699	0.008527421
195	0x3d5bf9c1	0.05370498
196	0x3d60bfaf	0.054870304
197	0xbb5c1a9c	-0.0033585196
198	0x3b88e601	0.004177809
199	0x3d03b226	0.032152317
200	0xbd9d54f4	-0.07682219
201	0xbd1e1711	-0.038596217
202	0xbcd05438	-0.025430784
203	0xbc230bf2	-0.009951578
204	0x3ad4008d	0.001617448
205	0xbad66aca	-0.001635873
206	0x3d93fd0d	0.07226
207	0xbd0553c1	-0.032550577
208	0xbd25b129	-0.040452156
209	0x3cb9e714	0.022693194
210	0xbd87f590	-0.06638634
211	0x3c63bf9a	0.013900662
212	0x3d4617d3	0.048362564
213	0xbd752442	-0.05984903
214	0xbc8323a1	-0.0160082
215	0x3dc96b98	0.09834975
216	0x3c0e619e	0.008690266
217	0x3b4de12d	0.0031414733
218	0xbcfc170a	-0.030772705
219	0xbc35685c	-0.0110722445
220	0x3c170b77	0.009219042
221	0xbc4acf9c	-0.0123785995
222	0x3bbe18d8	0.0058013014
223	0x3cf7c02f	0.030243007
224	0x3d50ecf3	0.051007222
225	0xbd3d57e8	-0.046226412
226	0x3bed58b8	0.007243242
227	0xbd2274de	-0.039662234
228	0xbb1a4df4	-0.0023545
229	0x3c9ae38d	0.018907333
230	0xbd1f4ff4	-0.03889461
231	0x3cb3b80c	0.021938346
232	0x3ca4ec5d	0.020132238
233	0xba6d6f1e	-0.000905739
234	0x3b9dc7e1	0.004815087
235	0x3c4a1b37	0.01233559
236	0xbd900f35	-0.070341505
237	0x3c5eebeb	0.013606052
238	0x3d272efd	0.040816296
239	0xbbc5ee5d	-0.006040378
240	0xbc874252	-0.016511116
241	0xbce13881	-0.027492763
242	0xbd53d33e	-0.051715128
243	0xbd0b9ef9	-0.034087155
244	0xbd10a965	-0.035317797
245	0x3d2ee115	0.042695124
246	0x3d2f55ca	0.042806424
247	0x3c2fc227	0.010727442
248	0x3d0b4da1	0.03400958
249	0x3c09b097	0.008403919
250	0xbc35efc1	-0.011104525
251	0xbca01fe3	-0.019546455
252	0xbd5b78b7	-0.05358192
253	0xbced9d57	-0.02900569
254	0xbc20f583	-0.00982416
255	0xbd21eda1	-0.03953326

bias f4 [32]
0	0x3b5685e6	0.0032733618
1	0x3d39fde2	0.045408137
2	0x3d357126	0.04429736
3	0x3cf0388b	0.029323837
4	0x3d1ae44a	0.03781537
5	0xbc2af9fb	-0.010435577
6	0x3cb663ab	0.022264322
7	0xbcf104bf	-0.029421208
8	0xbd473222	-0.048631795
9	0xbd87dae6	-0.066335484
10	0x3da56f4d	0.080778696
11	0xbd4b0875	-0.049568612
12	0xbd7ac662	-0.06122435
13	0xbcd1cd03	-0.025610453
14	0x3d8b4ee7	0.06802159
15	0xbd597fae	-0.05310028
16	0xbd21d4c7	-0.03950956
17	0x3dbda09e	0.09259151
18	0xbcec2739	-0.028827297
19	0x3cf77a4b	0.030209681
20	0x3cb8db76	0.022565585
21	0xbd2731e7	-0.040819075
22	0xbcfdd331	-0.030984493
23	0xbc60ef05	-0.013728862
24	0x3d97c3d5	0.07410399
25	0x3db3e956	0.0878474
26	0x3d13b900	0.0360651
27	0x3d47cfe6	0.04878225
28	0xbd34877d	-0.044074524
29	0xbc02cb8e	-0.0079831015
30	0xbd71f2e1	-0.059069518
31	0x3ce14016	0.027496379

weight f4 [32]
0	0x3f82e510	1.0226154
1	0x3f886352	1.065531
2	0x3f7ffda5	0.99996406
3	0x3fd0cc17	1.6312283
4	0x3fcbdae9	1.5926181
5	0x3f78c8e2	0.9718152
6	0x3f87f84a	1.0622647
7	0x3f7d8f2e	0.990466
8	0x3f82d389	1.0220805
9	0x3f7837f5	0.96960384
10	0x3f8977ea	1.073972
11	0x3fc5efec	1.5463843
12	0x3f7f0d2c	0.99629474
13	0x3f76e2fd	0.96440107
14	0x3f837674	1.0270524
15	0x3f8950b9	1.072776
16	0x3f8a28df	1.0793723
17	0x3f812d4e	1.0091951
18	0x3f862a7c	1.0481715
19	0x3ffc1f0f	1.9696978
20	0x3fe24f48	1.7680445
21	0x3f8264b8	1.0186987
22	0x3f94bd24	1.1620221
23	0x3f9c0f8d	1.2192246
24	0x3f786df4	0.97042775
25	0x4011f0e4	2.2803278
26	0x3f8522fc	1.0401301
27	0x3fc35679	1.5260764
28	0x3f87de9d	1.0614811
29	0x3f828875	1.0197893
30	0x3fadbe9c	1.3573794
31	0x3f8b7917	1.0896329

bias f4 [32]
0	0xbea889ac	-0.32917535
1	0x3eb66734	0.35625613
2	0x3e308dd2	0.172416
3	0x3eb2e1c1	0.34937862
4	0x3ecbfd6c	0.39841783
5	0xbe9de0e9	-0.30835655
6	0xbdd9d569	-0.10636408
7	0x3ec06dae	0.3758368
8	0xbe64b1af	-0.22333406
9	0xbc11dce1	-0.008902759
10	0x3e907d1b	0.28220448
11	0xbe30e8d2	-0.17276314
12	0x3d9e5639	0.077312894
13	0x3e94aed3	0.2903963
14	0x3ef321f8	0.47486854
15	0xbea96ebb	-0.33092293
16	0x3d597ab5	0.05309554
17	0x3ec4abaf	0.38412234
18	0x3e97e35e	0.29665655
19	0x3e30db52	0.17271164
20	0xbe534b69	-0.20634235
21	0x3eabef07	0.335808
22	0x3e85cb23	0.26131544
23	0xbe0cb6be	-0.13741586
24	0x3eafc390	0.3432889
25	0xbe105f9a	-0.14098969
26	0xbeb1b77c	-0.347103
27	0x3eb05c8a	0.34445602
28	0xbda359fe	-0.07976149
29	0x3de83be0	0.11339545
30	0x3f04d8a8	0.5189309
31	0xbe909e7b	-0.2824591

running_mean f4 [32]
0	0x3dbce1e5	0.092227735
1	0xbdda2e14	-0.1065332
2	0xbe569ca2	-0.20958188
3	0xbe2544d0	-0.16139531
4	0xbf1e9516	-0.6194624
5	0x3dae51bc	0.08511683
6	0xbe84d059	-0.25940207
7	0xbdb25d1d	-0.08709166
8	0xbd78c96f	-0.060738977
9	0xbee13e8b	-0.4399303
10	0x3f1b1fd0	0.6059542
11	0x3ec9cda8	0.39414716
12	0xbf609577	-0.87728065
13	0x3eac3775	0.3363606
14	0xbd176a17	-0.03696641
15	0x3e69c65e	0.22829577
16	0x3e2d0a1e	0.1689839
17	0x3eed78e7	0.46381304
18	0x3e812fa4	0.2523166
19	0xbebd3108	-0.3695147
20	0x3cac8f0d	0.021064306
21	0xbe3e630d	-0.18592472
22	0xbeba9dd9	-0.36448553
23	0x3f4227a9	0.75841767
24	0x3e546a39	0.20743646
25	0x3e9c19bc	0.30488384
26	0xbf0b9d05	-0.5453647
27	0xbf2a118e	-0.66433036
28	0x3f5f1186	0.87136114
29	0x3ee1ce1a	0.44102556
30	0xbcf019dc	-0.029309206
31	0x3ed014fc	0.4064101

running_var f4 [32]
0	0x3dae98a4	0.08525208
1	0x3da9b251	0.08285964
2	0x3d764418	0.060123533
3	0x3db3339f	0.0875008
4	0x3e16a447	0.14711104
5	0x3d9fb709	0.07798583
6	0x3de79fa6	0.113097474
7	0x3d83d2dd	0.06436703
8	0x3dc6fb53	0.09715905
9	0x3da2c36e	0.079474315
10	0x3db066d5	0.08613364
11	0x3d9f6efc	0.077848405
12	0x3d86d593	0.06583705
13	0x3d96ef64	0.07369879
14	0x3dc92b3c	0.098226994
15	0x3d88e484	0.06684211
16	0x3da6b71c	0.08140394
17	0x3da3e62e	0.08002888
18	0x3d78f95e	0.06078469
19	0x3da0cf5b	0.0785205
20	0x3dc1cb20	0.09462571
21	0x3dbdb65e	0.092632994
22	0x3d97a84c	0.07405147
23	0x3da84e4e	0.082180604
24	0x3dba82a9	0.09106953
25	0x3d1ba8a0	0.03800261
26	0x3d980b5b	0.07424041
27	0x3d7c2f8a	0.061568774
28	0x3d87c511	0.06629384
29	0x3d9c7326	0.0763915
30	0x3d928db3	0.07155933
31	0x3d853ae6	0.065053746
