TuiGAN/models/apple2orange/a2.pth (torch, 131453 bytes, 25 tensors)

weight f4 [32, 3, 3, 3]
000000 f6 6e 6b 3d 90 20 29 3d 2d 00 43 3d 1d 96 96 3c
       0.057478867 0.04129082 0.04760759 0.018382126
000010 b8 a7 17 bc 37 a4 a6 bc 62 a4 a1 3b 2a ea f2 bc
       -0.009256296 -0.020341976 0.004932926 -0.029652674
000020 66 70 cb bd 4a ef 30 bd cd 89 ef bc bc 5b 87 bc
       -0.09933548 -0.043196954 -0.029240513 -0.016523235
000030 58 d4 d4 bb cb 48 a2 bc b4 eb 76 bb df fc 28 3d
       -0.00649504 -0.019810101 -0.003767711 0.04125678
000040 f7 ac 2e 3d 8f 2d 9e 3c 89 f3 c6 bb 04 d8 50 bc
       0.04264542 0.019308833 -0.006071512 -0.012746815
000050 1c cb b5 3c ce 51 7f bc f5 bb a8 bc e8 2a 05 bc
       0.022191577 -0.015583469 -0.020597437 -0.008127905
000060 8c aa cd bb b2 b6 8b b9 b1 11 3a 3b fa 6c ad bd
       -0.0062764343 -0.00026648265 0.0028391893 -0.08468051
000070 24 90 36 bc 1a 17 ab 3c 69 e7 93 bc 08 3f d5 3c
       -0.011142764 0.02088504 -0.01805468 0.026031032
000080 dc fc dc 3c f2 16 f5 bc 26 fd 6e 3c 46 ce 09 3d
       0.026976041 -0.029918168 0.0145867225 0.033643983
000090 2e 64 2b bd a6 90 1b 3c 1c 3e 3d 3d d0 d7 5f bd
       -0.041843586 0.009494936 0.04620181 -0.054649174
0000a0 4e d6 2c 3c e7 39 31 3c 6e 98 63 bd 53 d7 e3 3c
       0.010549141 0.010817028 -0.05556529 0.027812636
0000b0 99 66 6e 3c e4 c1 9e bd f0 54 d3 bc 93 a9 01 3d
       0.014550828 -0.077518255 -0.025797337 0.03165586
0000c0 c6 8e 5c bd 31 e0 9b 3b 8a 40 d2 3c da 6c 38 bd
       -0.053847097 0.0047569503 0.02566554 -0.045025684
0000d0 fa 43 19 3d d6 5d 4b 3d 04 94 f8 3c 2c 73 fe 3c
       0.037418343 0.049650036 0.030344017 0.031060778
0000e0 69 67 1d 3d 10 44 5e bc b4 c6 03 3d 89 d1 23 bc
       0.038428698 -0.013566032 0.03217192 -0.009998688
0000f0 94 b9 13 be d8 a5 59 3c c5 13 94 3a 41 cf b5 3c
       -0.14426261 0.013284169 0.0011297396 0.022193553
000100 64 b9 87 3c a5 dc be 3c 60 8f ba bb 65 f1 f0 3c
       0.016567893 0.02329857 -0.005693361 0.02941198
000110 77 d7 aa 3b 31 bb d5 bd 49 d8 07 bd b2 a6 00 bd
       0.0052136737 -0.104360946 -0.03316525 -0.031408973
000120 c8 24 c4 3c cf 4a b0 3c e5 71 71 bb a6 e8 7c 3c
       0.02394332 0.021520047 -0.0036841568 0.015436327
000130 c9 dd 03 3d 1c e3 c2 3a 54 b5 e1 bd 4c 3f 14 bc
       0.032193933 0.0014868709 -0.11020914 -0.009048294
000140 1b b4 cd bc 56 83 26 3d fb cd b9 3c 5e 2d 5c 3d
       -0.025110295 0.040652595 0.022681227 0.053754203
000150 00 51 0e bd ed 5c b1 bc b2 e1 04 3d a8 e9 c1 bc
       -0.034745216 -0.021650756 0.032441802 -0.023670986
000160 37 5b 50 bd 1d 72 1e 3d 01 0d b8 3c 01 40 e4 3c
       -0.05086824 0.038683046 0.022467138 0.02786255
000170 cd da cd 3b ca 3d 92 bc b8 2f 3d 3c 8b 89 93 3c
       0.0062821866 -0.017851729 0.011547022 0.018009922
000180 23 93 84 3b 11 1b 65 bc 15 b4 57 3d 0a 1b a9 3d
       0.0040458604 -0.013983504 0.052661974 0.082571104
000190 e2 c6 b7 3d 78 d1 95 3d db 45 0e bb d1 88 38 bd
       0.08973481 0.073153436 -0.0021709118 -0.045052353
0001a0 92 a6 2e 3d 8b cc 07 3d 61 6a 1c bd 34 b0 de 3d
       0.042639323 0.03315405 -0.03818739 0.10873452
0001b0 ee bb 65 3c 97 8d e4 3a 00 1c 78 3d b9 38 97 3c
       0.014021857 0.0017437217 0.060573578 0.018459665
0001c0 27 e9 d3 ba 53 c3 21 3c a0 73 78 3d 5d 26 2b 3c
       -0.0016167507 0.009873229 0.060657144 0.010446158
0001d0 c3 24 0c 3d 7e 8e d7 bd 90 d9 0e bd b3 3a 7b bd
       0.034214746 -0.10525225 -0.034875453 -0.061335277
0001e0 22 c3 72 bd ff eb 47 3c 5b 45 ab bc 1e 35 6b bd
       -0.059268124 0.012202262 -0.020907095 -0.057423703
0001f0 18 3c 88 bc 44 43 0b bd ca 52 60 bc ce a9 da bc
       -0.016630217 -0.033999696 -0.013691613 -0.026692297
000200 0c 47 87 3c 28 5c 74 3c dc 0a 12 bb cd 8b e0 3c
       0.01651337 0.01491455 -0.0022284305 0.027410412
000210 5c 30 00 3d 9a 15 17 3d 8f ab 94 3c cc 81 88 bd
       0.03129612 0.036885835 0.018148212 -0.06665382
000220 ab 3b 38 bd 5f a1 91 bc 23 df 79 ba a1 b5 a1 bc
       -0.04497878 -0.017777143 -0.0009531846 -0.019739928
000230 1a 60 6f bb 25 6d b2 3c 53 40 b6 39 5a 05 73 3c
       -0.0036525787 0.02178056 0.0003476167 0.014832819
000240 d8 b0 14 bd b1 a0 2f bd e0 c8 2f bd c5 5b fc bb
       -0.036301464 -0.042877857 -0.04291618 -0.0077013695
000250 ee 7b 9e bc 1a da 83 bc 9f 8b 8e 3c f6 c5 93 3b
       -0.019346204 -0.01609521 0.01740056 0.0045096828
000260 cf cc d1 3c 28 87 f6 bb e6 42 85 bc c9 1e 2a bb
       0.025610356 -0.007523436 -0.016267251 -0.002595829
000270 7c 8f d1 3c b0 52 9d 3b 37 25 9d 3c d2 3a 99 3d
       0.025581114 0.004801117 0.019182784 0.07481922
000280 53 3b cf 3c 3a 30 80 3d 65 f6 fc bd 62 ef a1 bc
       0.025296843 0.062591985 -0.123516835 -0.019767467
000290 38 47 12 bd 05 f8 9a bd 57 73 f3 3c b3 53 d8 3b
       -0.03571245 -0.07566837 0.029718084 0.0066017746
0002a0 76 2e 1c be a9 c3 7d 3c 10 d7 39 bd 7f 29 9a bc
       -0.15252098 0.015488544 -0.045371115 -0.018818615
0002b0 c0 06 ae bc 7c df e0 b9 e6 90 59 3c 19 e0 76 b9
       -0.021243453 -0.00042891118 0.013279175 -0.00023543871
0002c0 39 ae 13 bc 81 47 02 bd c0 af 89 bc 74 ee 46 bc
       -0.009013706 -0.031806473 -0.016807437 -0.012141813
0002d0 b5 ee be bb 3b ac b4 bc ff 0a 16 bd 34 e8 48 3c
       -0.005826796 -0.022054782 -0.03663158 0.012262393
0002e0 40 e7 fb bb 73 fd e6 3b 7e 35 b9 bb 05 6b b5 bc
       -0.0076874793 0.0070492565 -0.0056521287 -0.022145757
0002f0 20 fd 69 bd ea 50 d2 bc f6 8b 17 3d 32 73 23 bd
       -0.057126164 -0.025673348 0.03699871 -0.03990478
000300 05 af ed bb 12 08 6d 3c 89 40 85 bd 6e 41 a1 bc
       -0.00725353 0.014467256 -0.0650645 -0.01968452
000310 4b 34 e3 bb 53 36 91 bd 7a 91 07 3c ca e1 3d 3d
       -0.006933724 -0.0709044 0.00827443 0.046357907
000320 35 fb ff bd e6 67 83 3b 60 f3 fc 3c 30 04 69 bd
       -0.12499086 0.0040101884 0.030877769 -0.05688876
000330 4a 3e 1f 3c 5b ea 0a bb f9 cf ac bd 51 db c5 bc
       0.009719441 -0.0021196816 -0.08438105 -0.02415243
000340 0a f8 38 3d b2 17 98 bc d6 04 7f 3c 49 5a d0 3c
       0.045158423 -0.018565986 0.015565118 0.025433676
000350 db cc c2 bc 41 9a 9c 3c d6 f3 87 3c 6c 08 d2 bb
       -0.023779323 0.019116523 0.016595762 -0.0064096954
000360 78 cf 75 bc 91 c1 c7 3b 44 9f 3b 3d d0 ad 11 3c
       -0.015003078 0.006096073 0.045806184 0.008891538
000370 06 bb 11 3c 80 48 05 3c cc 40 09 bc 02 12 ab bc
       0.0088946875 0.008134961 -0.008377265 -0.02088261
000380 eb 25 47 bd 85 b9 58 3d d0 62 c1 3c 04 62 ef 3c
       -0.048620146 0.0529113 0.023606688 0.029221542
000390 cb e3 d7 3c 6d f6 bd 3c 52 f6 98 ba f7 a3 16 bd
       0.026353737 0.023188794 -0.0011670089 -0.036777463
0003a0 dc d0 2c bd 6e 16 ab bd 0e 0c ea 3c 51 4b 8f 3c
       -0.04219137 -0.083538875 0.028570201 0.017491968
0003b0 6e d4 0b 3d 3e 07 bd 3c a3 ab 8e 3b 30 62 fb bb
       0.034138136 0.023074742 0.004353957 -0.007671617
0003c0 87 62 2c 3c 13 6d 67 bc 20 dc 52 bd 00 11 25 3d
       0.010521538 -0.014125126 -0.05147946 0.040299416
0003d0 a1 c2 90 bb 67 66 52 3c 2c 31 81 bc ed 5f 51 bc
       -0.004417733 0.012841797 -0.015770517 -0.012779218
0003e0 5a 5b 1d bb 3f c0 0d bb f7 d0 66 3b fd e5 9d 3d
       -0.0024010749 -0.002162948 0.0035219768 0.077098824
0003f0 c0 66 97 3c f0 f8 c1 3c 5d dc 9f bb 67 9e dd 3c
       0.018481612 0.023678273 -0.0048785643 0.027053071

bias f4 [32]
000000 dc 03 57 3d d5 72 91 3d 9d 48 15 3d 86 b8 fa bd
       0.052493915 0.071019806 0.036446203 -0.12242226
000010 c5 d8 ba bc 1d 3b 26 bd b1 2e 28 3e 94 14 ce 3c
       -0.022808442 -0.04058372 0.16424061 0.025156297
000020 c7 e3 11 be f3 a2 e5 3d 5c b7 59 be eb ac 5b bd
       -0.14247046 0.11212721 -0.21261352 -0.053631704
000030 97 9d e9 3c bf c8 e8 bd 9f c4 d7 bd 29 b8 0a 3d
       0.028517528 -0.11366414 -0.10535549 0.033867035
000040 fd 24 90 bc d1 48 e4 bd 35 a4 2a bc 03 a2 f8 3c
       -0.017595762 -0.11146701 -0.010415127 0.03035069
000050 8d 9b b4 3d 1a fb 0d 3e 49 16 e8 bd 04 d1 d8 bd
       0.088187315 0.13865319 -0.113323756 -0.105867416
000060 34 e4 34 3e 3d 26 5e bc 8d b1 2b 3d be ec ec 3d
       0.17665178 -0.013558921 0.041917372 0.115685925
000070 4e e0 86 bc aa 74 24 3e 95 5d 35 bd 42 ee 39 bc
       -0.016464379 0.16060129 -0.0442787 -0.011348309

weight f4 [32]
000000 f7 82 50 3f 0e 75 67 3f 92 54 72 3f a1 7a 7d 3f
       0.81449836 0.90412986 0.94660294 0.9901524
000010 b6 68 80 3f 31 92 6c 3f 60 3d 7f 3f e2 ef 79 3f
       1.0031955 0.9241057 0.99703026 0.9763166
000020 5b 72 6b 3f 3f fa 73 3f 4e 09 58 3f 18 95 63 3f
       0.9197137 0.9530372 0.843892 0.88899374
000030 7c 42 89 3f 68 e1 61 3f 93 4a 6b 3f 67 b4 66 3f
       1.0723414 0.8823457 0.91910666 0.9011902
000040 d6 89 67 3f cf 12 81 3f d2 d7 3b 3f 02 1d 69 3f
       0.90444696 1.0083865 0.7337619 0.9105989
000050 9b 48 63 3f f1 ae 6f 3f 8d bd 58 3f da 35 86 3f
       0.8878266 0.93626314 0.8466423 1.0485184
000060 b9 8b 75 3f c0 e2 70 3f 81 ff 73 3f 13 ed 73 3f
       0.95916325 0.94095993 0.95311743 0.9528362
000070 e3 3d 81 3f 0b 90 5f 3f 2b dc 7c 3f 75 6f 84 3f
       1.0097011 0.8732917 0.9877345 1.0346514

bias f4 [32]
000000 74 87 02 3e 91 06 f6 3e 37 7f ec 3e 4e 4b c0 3d
       0.12746984 0.48051885 0.46190807 0.09389363
000010 51 97 17 3f 61 94 90 3e 61 31 05 3f 29 f2 8a 3e
       0.59215266 0.28238204 0.5202847 0.2713788
000020 f1 07 13 3e ea f0 c2 3e f1 94 21 3f d5 86 b6 3e
       0.14358498 0.38074428 0.6311789 0.35649744
000030 ce 5f 8b 3d 3c 21 97 3e ed 2d ce 3e 3a 7a 90 3e
       0.06805383 0.29517543 0.40269414 0.2821825
000040 10 41 cf 3e 49 9f 8f 3e 67 5e 15 3f 98 41 01 3f
       0.40479326 0.28051212 0.5834717 0.50490713
000050 94 cd 01 3f 34 b1 ba 3e 35 8c c5 3e b8 74 fe 3c
       0.5070431 0.3646332 0.38583532 0.031061515
000060 02 95 ac 3e 58 13 a7 3e ba 8b d3 3e a6 49 d0 3e
       0.33707434 0.32631946 0.4131754 0.4068119
000070 24 56 1b 3e 04 e9 36 3f 3b 7b 91 3e a1 71 a6 3e
       0.15169579 0.71449304 0.2841433 0.32508567

running_mean f4 [32]
000000 8c ba 83 3d eb f4 93 3d 60 71 3d 3d e4 62 1b be
       0.06432065 0.07224449 0.0462507 -0.15174443
000010 ae 74 e4 3d ab db b8 bd 92 39 ee 3c 7b eb ed bc
       0.111550674 -0.09026273 0.029080186 -0.02904295
000020 16 b1 1a be d5 ed 3d 3e 8a 7d ae be 0e 51 d8 bd
       -0.15106615 0.18547757 -0.34080154 -0.10562335
000030 44 e6 c1 bc 2c fa 62 bd 18 1c b0 bd 4f b5 14 3d
       -0.02366937 -0.055414364 -0.085991085 0.03630572
000040 b2 20 d9 bb 51 31 23 be 75 1e 8e 3d 56 bd 07 be
       -0.006626212 -0.15936781 0.06939403 -0.1325582
000050 96 ff 7e 3d cc 60 a5 bb fb 22 e3 bd 00 ab b2 bb
       0.062255464 -0.0050469395 -0.11090656 -0.0054525137
000060 32 8d ca 3e d9 d9 5c 3d 94 6a eb 3d ce c3 2f 3e
       0.39560848 0.053918693 0.114949375 0.17164537
000070 59 38 0d 3c 25 74 85 3e ab 1a c4 bd a8 35 3a be
       0.008619391 0.26065174 -0.09575399 -0.1818453

running_var f4 [32]
000000 06 13 74 3a be 7d ba 3b 73 cf c8 3b ce 7d e3 3c
       0.0009310696 0.005691259 0.0061282455 0.02776995
000010 69 d2 25 3c 90 9b 24 3b e8 22 2b 3d 5d a5 47 3c
       0.0101209665 0.0025117137 0.041781336 0.012185422
000020 5b da ef 3a 57 ec 12 3c 42 c7 b5 3b cb c4 9d 3b
       0.0018299328 0.008967481 0.005547435 0.0048147193
000030 58 c3 d9 3c df fa 83 3b 40 66 5e 3b 7a 39 5d 3b
       0.026582405 0.004027709 0.0033935457 0.0033756183
000040 e5 42 59 3b 80 b9 3c 3d d7 48 11 3b e8 88 d2 3b
       0.0033151445 0.046075344 0.002216866 0.006425012
000050 6f ef ab 3b 89 2e 29 3c 09 ad a9 3b 6b fd 40 3d
       0.0052470486 0.010326036 0.005178098 0.04711668
000060 04 53 7e 3c f8 fb c6 3b 39 af 0a 3d 74 0b e0 3b
       0.015522722 0.0060725175 0.03385851 0.006837303
000070 e6 b5 ff 3b 5b 4f 28 3c d5 16 17 3c 0e d5 b5 3c
       0.0078036664 0.010272826 0.009221752 0.022196319

weight f4 [32, 32, 3, 3]
000000 75 f2 44 3d bf 00 01 3d 58 ec 33 3d 71 e6 4f 3c
       0.048082788 0.031494852 0.043926567 0.012689219
000010 15 ab 28 3c 8d fb 8b 3c ee a4 5a 3c 4c 5c a1 bc
       0.010294695 0.017087722 0.013344986 -0.01969733
000020 21 48 83 3d b9 76 57 ba ad 39 86 3c fe de 69 bc
       0.06410242 -0.000821929 0.016384924 -0.014274357
000030 f0 f8 5b 3d ae f8 19 3d 81 f5 cb bb e7 cf 30 3d
       0.053704202 0.037590675 -0.0062243347 0.04316702
000040 32 d3 80 3d bf f9 76 bc 5d f1 1e 3c 49 e5 d5 3b
       0.06290282 -0.015074193 0.0097011 0.006527577
000050 1c 87 22 3c 31 ce b4 3c 69 e6 a7 3c 62 b9 2e 3d
       0.009919908 0.022070976 0.02049561 0.042657264
000060 cb 29 72 3c 06 4b 0a 3d e7 0a 9a 3d 7a 99 9e 3b
       0.014780472 0.033762954 0.07521611 0.004840073
000070 84 64 aa 3b 2c 1b ca 3c fc 1d ae bb 97 58 b7 bc
       0.0051999707 0.02467116 -0.005313633 -0.02238111
000080 40 20 fa 3c c3 03 6e bc 5e 96 37 bc 7a 19 60 3b
       0.030532956 -0.014527264 -0.011205284 0.0034194873
000090 b0 42 94 3d b2 9a 0d 3d 4e ad 0e 3d ac 3d d3 3c
       0.07239282 0.034571357 0.034833245 0.025786243
0000a0 ff 28 53 3c a1 d1 9a 3b 04 ec 02 3d 96 2c b3 3c
       0.012888192 0.0047246967 0.031963363 0.021871846
0000b0 7f 78 37 bb bf b5 18 bd bb da 5e 3c 27 75 eb 3b
       -0.0027995405 -0.0372827 0.013601954 0.0071855965
0000c0 d7 cb 29 bd 11 ec 02 bc 54 a0 48 bd 71 06 5d bb
       -0.041454162 -0.007990853 -0.048981026 -0.0033725763
0000d0 80 e5 b1 bc 58 c7 3b bc 17 0d 64 3c 31 25 d4 bc
       -0.02171588 -0.0114611015 0.0139191365 -0.02589664
0000e0 95 a3 61 bc 96 3d 19 3c ee 6f 34 bd 95 cb 13 3b
       -0.013771911 0.009353062 -0.044052057 0.0022551764
0000f0 4e 37 dd bb a3 a8 0b bd c0 bf f9 3a 63 12 ca 39
       -0.0067509776 -0.03409637 0.0019054338 0.00038542142
000100 2e c7 bf 3c c3 67 2e 3e 47 c7 9c 3c c9 04 fa 3a
       0.023410406 0.1703177 0.019137992 0.0019074912
000110 5f 61 94 3d 72 0a bc bc 1f 80 91 3b d2 55 97 3d
       0.072451346 -0.0229542 0.004440322 0.07389416
000120 7e 6d 8c bc da 4d 34 bc ca ad 2c 3c b2 72 29 bc
       -0.017142054 -0.011004889 0.010539481 -0.010342287
000130 6d 6e 0e bd 80 6b 68 3d 9f 78 09 3d e0 11 04 3d
       -0.03477328 0.056743145 0.0335623 0.03224361
000140 f4 a4 be 3d 2f b6 13 bd 2e f5 34 3d 41 10 07 3e
       0.09308806 -0.036062416 0.044179134 0.13189794
000150 fd 6b bc 3c 37 17 fe 3b dd 96 04 3d ff 0a 43 3c
       0.023000712 0.0077542323 0.032370437 0.011904477
000160 6e 76 29 3d 06 80 7d 3d 0b 67 b5 3b 90 db c2 bc
       0.04137271 0.06188967 0.0055359653 -0.023786336
000170 43 56 25 3c 88 72 ab bc b2 40 9c bb 0b 88 04 bd
       0.010091367 -0.020928636 -0.0047684545 -0.032356303
000180 3e 1c 06 bb df 55 cc bc e0 ba 4e 3b f3 28 99 3d
       -0.002046361 -0.02494329 0.0031544492 0.074785136
000190 5d 76 eb bc 3f 59 2e bb d2 4e 82 3d 0a d3 5b 3c
       -0.028742963 -0.0026603488 0.0636269 0.013417015
0001a0 78 8f 93 3b 8e 74 7a 3d 21 41 71 3d 6e 75 54 3c
       0.004503187 0.06114631 0.058900002 0.012967451
0001b0 6b bc 81 3d 65 a3 5d 3c 9c ea 5a 3c ff 7e 06 3d
       0.06334766 0.013527726 0.013361599 0.032835957
0001c0 33 c8 b7 3c b6 2b 1a 3d 51 ff 79 3d 60 8b 40 3c
       0.02243433 0.037639342 0.061034504 0.01175198
0001d0 87 e5 61 3c 14 8e 3e bd 93 64 25 bb ed f2 88 bc
       0.013787634 -0.046522215 -0.002523695 -0.016717399
0001e0 9f f3 7f 3a 6a 77 31 bc c1 1a 2d b8 72 57 27 3d
       0.00097637804 -0.010831693 -4.127133e-05 0.04085488
0001f0 ab d3 c9 3c 9b bc 48 3c 12 5d 63 bd c1 7a 37 3d
       0.024637064 0.012251998 -0.05550868 0.0447948
000200 58 67 84 3c 3f bf 40 bc 04 36 e8 3c 19 a7 37 3d
       0.01616256 -0.011764347 0.02834607 0.04483709
000210 59 d3 df 3b b0 ae 39 3d 44 2c 07 3c 22 25 a6 3d
       0.0068306145 0.04533261 0.0082503 0.08112551
000220 06 f2 7e 3c ab 91 9d 3c b3 8a 7b 3c 0b e3 60 bc
       0.015560633 0.019234499 0.015352893 -0.013726006
000230 41 4c 4a 3c e3 f8 55 3d 6b b2 10 3b 63 7f dc 3c
       0.012347282 0.05223931 0.0022079002 0.026916211
000240 06 57 81 bc 0d d8 a9 3b 9c b1 8f 3c cd f7 3a 3c
       -0.015788566 0.005183226 0.017540745 0.011411619
000250 aa 26 82 3b b9 e1 8a 3d db 9a a4 3c 0e a5 7e 3d
       0.0039718943 0.067813344 0.020093372 0.062169127
000260 2c e8 e1 3d 44 a5 17 3d b3 86 be 3c 3f 51 63 3d
       0.110306114 0.037022844 0.023257589 0.055497404
000270 9e b1 e5 3c 28 ac dc 3c f2 90 d5 3c 5e 8d 39 3d
       0.028038796 0.02693756 0.026070092 0.045300834
000280 ad ad 2c 3d 70 0d 04 3d 15 ad d5 3b 16 35 a1 3c
       0.042157818 0.032239377 0.006520877 0.019678634
000290 15 79 73 3c ea dc fd 3b a5 4e 64 3d 87 7f 31 3d
       0.014860411 0.0077472823 0.055739064 0.04333451
0002a0 fc 91 9a 3d 6c 14 37 3d 09 c2 fc 3b c4 37 03 3d
       0.075473756 0.04469721 0.0077135605 0.032035604
0002b0 3e 7a 71 bc 57 12 b8 bd 71 64 66 3c 9f 24 84 3c
       -0.014738617 -0.08987873 0.014062033 0.016130744
0002c0 bd a2 0b bc b0 e7 4a 3c 34 11 15 3d d3 2d 47 3c
       -0.008522687 0.01238434 0.03639336 0.012156921
0002d0 c2 2f ab bc 31 9b c9 3a 6f 36 48 3c 7c 79 c2 bb
       -0.020896796 0.0015381334 0.012220009 -0.005934892
0002e0 24 66 1e 3d c8 f6 c8 bc 3c 0a c8 3d cd a6 34 3d
       0.038671628 -0.024531737 0.09767577 0.044104386
0002f0 b5 e3 0e bd 97 60 49 3d 44 c7 84 3c 6c 59 3d 3d
       -0.034885127 0.04916438 0.016208299 0.046227857
000300 14 bc f7 3c 47 09 5d 3c 74 b7 89 3c df b9 89 3c
       0.03024105 0.013490981 0.01681111 0.016812263
000310 bf c4 0d 3c 46 57 b8 3b 86 8f 74 3d c8 6f a6 3b
       0.008652865 0.005625638 0.059707187 0.0050792433
000320 f2 ff 04 bd f8 fe e7 3c 2c 62 17 3d 71 a1 52 3c
       -0.03247065 0.02831982 0.03695886 0.012855873
000330 78 2d ed 3d 72 d4 4f 3d 08 94 8e bc e9 5e a3 3d
       0.11580938 0.050739713 -0.017404571 0.07977087
000340 30 9f 76 3d 9d 68 cb 3d a2 5e 8b 3d 9c 55 52 3d
       0.060210407 0.09932063 0.06805159 0.051351175
000350 65 98 ad 3d 87 02 49 3d 75 d9 64 3d cd 18 79 3d
       0.084763326 0.049074676 0.055871446 0.060814667
000360 fb 5f 3a 3d c3 37 66 bc a7 6f ba bc c5 19 39 3d
       0.04550169 -0.014051381 -0.022758318 0.04519059
000370 ba ee 15 3b 14 17 f2 3c 29 a1 9d 3d 8c f9 14 3d
       0.0022877888 0.02955202 0.076967545 0.0363708
000380 7b f1 65 3d d9 2e bf bc 5f 11 40 bd 1e 77 8c bd
       0.056138497 -0.023337768 -0.046891566 -0.06858657
000390 da 2e 89 3c 93 be 04 3b bc 6a c8 bc 4a ad b4 3c
       0.016745973 0.0020255193 -0.024464957 0.022055287
0003a0 cc 96 f9 bb f6 0c d9 3a f5 1d 12 3d 0f be 05 3d
       -0.0076168533 0.0016559649 0.0356731 0.032651957
0003b0 8e 9f 91 3d 77 54 67 3d d0 ec 13 3d 86 dd 7a 3d
       0.07110511 0.056477036 0.036114514 0.061246417
0003c0 03 79 0f 3d c1 70 b2 3c 4c 1c 8c 3d 9a 8b f1 bc
       0.035027515 0.02178228 0.06841335 -0.029485513
0003d0 2f 01 9c 3c 55 f0 50 3d 88 86 16 bc 82 1f 36 3b
       0.019043533 0.05101045 -0.009187348 0.0027789776
0003e0 9a 15 19 3d 6e 0e b4 bb 98 78 45 bc 2d 74 df 3d
       0.037374116 -0.005494884 -0.012052678 0.10910831
0003f0 cc 73 0f 3c 3f 05 7d 3c 52 0f 5d 3d 07 f6 90 3c
       0.0087556355 0.015443145 0.05396969 0.01769544

bias f4 [32]
000000 ca 2a 56 bc fc ca 3c 3a d5 00 05 3d ed f3 8e 3c
       -0.013071725 0.0007201878 0.032471497 0.017450297
000010 76 95 dc bc 17 f2 15 bd d2 6a e7 3c 0b 01 b7 bc
       -0.026926737 -0.036607828 0.028249178 -0.022339365
000020 2d 38 08 3d 8d e6 e2 bc 6a 1e 28 bc 5b 65 24 bd
       0.0332567 -0.027697826 -0.0102611575 -0.040135723
000030 ec 49 5d 37 f5 60 12 bc b5 33 c7 3c b1 5e d4 3c
       1.3189838e-05 -0.008934249 0.024316648 0.025924059
000040 26 75 78 3d f1 03 ed 3c 48 6e 5b 3d 34 60 a9 39
       0.060658596 0.028932543 0.05357197 0.0003230587
000050 c2 ae 09 bd db c1 ff 3c b5 85 18 3d d3 72 c3 3c
       -0.033613928 0.031220367 0.037236888 0.023858463
000060 38 df 94 3c 41 35 17 bd d0 48 b1 bc 42 91 00 bc
       0.018172845 -0.03691602 -0.021641165 -0.007847132
000070 f2 83 66 bd 30 24 47 bd 66 01 60 bd fc 68 73 bb
       -0.056278177 -0.048618495 -0.054688834 -0.0037141433

weight f4 [32]
000000 3c a4 7d 3f 0f c9 73 3f b9 a5 61 3f 98 39 74 3f
       0.99078727 0.95228666 0.881435 0.9540038
000010 48 6c 70 3f d1 10 83 3f 7b 66 64 3f 7d ae 79 3f
       0.93915224 1.0239507 0.8921887 0.97531873
000020 88 8e 76 3f 6a ff 77 3f fe 79 76 3f d7 b6 5f 3f
       0.96311235 0.96874106 0.96279895 0.87388366
000030 9e e4 4f 3f 48 6e 78 3f 5d 9d 67 3f d6 74 5d 3f
       0.8120822 0.97043276 0.9047449 0.865064
000040 eb 00 6d 3f e9 33 6e 3f 81 9a 6f 3f 9c ec 67 3f
       0.92579526 0.9304796 0.9359513 0.9059541
000050 89 16 62 3f 59 23 44 3f c3 b6 63 3f d0 f1 70 3f
       0.88315636 0.76616436 0.8895075 0.94118977
000060 68 71 77 3f bd 1f 4c 3f a4 d3 62 3f 02 25 60 3f
       0.9665742 0.7973593 0.8860419 0.8755647
000070 01 0d 5e 3f 76 8c 5b 3f 32 4f 54 3f 72 5e 72 3f
       0.8673859 0.857612 0.8293334 0.9467536

bias f4 [32]
000000 44 62 01 3f cf e2 bd 3e 6f f4 c7 3e 3a 05 c0 3e
       0.50540566 0.37087104 0.39053676 0.37503988
000010 fd a1 e9 3e 0a 1c ff 3e 37 5c b4 3e 37 bb 41 3e
       0.456314 0.4982608 0.35226604 0.18919073
000020 82 1e ae 3e 86 ef 64 3e 03 3d 8d 3e bc 14 0f 3f
       0.3400765 0.22356996 0.2758561 0.55891013
000030 90 97 68 3f e1 91 87 3e 70 bc 06 3f 84 c6 01 3f
       0.90856266 0.26478484 0.5263128 0.50693536
000040 0d 0f 14 3f b5 b0 c0 3e 38 f8 0d 3f 4b ff 24 3f
       0.57835466 0.37634817 0.55456877 0.64452046
000050 75 96 12 3f 7a 9e 60 3f e1 fc a0 3e c3 50 e1 3e
       0.5726083 0.87741816 0.3144293 0.4400693
000060 2c 46 bc 3e 50 a1 20 3f a8 cc 2b 3f f3 b1 17 3f
       0.36772287 0.62746143 0.67109156 0.59255904
000070 4b b1 c2 3e ff b1 1c 3f 8d 03 0e 3f f0 e0 d7 3e
       0.3802589 0.612091 0.5547417 0.421638

running_mean f4 [32]
000000 cb 32 3f 40 4c f2 9b 3f a7 3b c6 bf 13 98 3e bf
       2.9874752 1.2183318 -1.5486954 -0.74450797
000010 1f 83 06 3f 8d 95 b5 3f a4 05 54 3f 3d 41 9b bf
       0.52543825 1.4186264 0.82821107 -1.2129284
000020 c1 d4 b4 bf 05 6d 0a bf b5 a5 e9 bf c2 be e1 be
       -1.4127427 -0.540726 -1.8253695 -0.4409085
000030 9e 67 df be 0d 00 0e be a4 5e 1b bf c3 46 80 3e
       -0.4363374 -0.13867207 -0.60691285 0.25053987
000040 2e b2 ac 3f 3e 04 8f bf be e3 49 bf 7a 47 3b bf
       1.3491876 -1.117317 -0.7886313 -0.7315594
000050 09 c2 81 3f c9 2a a7 be ff 81 de be 91 17 2b bf
       1.013734 -0.3264983 -0.43458554 -0.66832834
000060 f1 80 5e bf 9f e8 4a 3f eb 92 e0 bf 2c 04 2f c0
       -0.869155 0.792612 -1.7544836 -2.7346296
000070 c4 8f d4 bf 14 a3 a9 bf 7d 57 1e bd e0 5a c6 bf
       -1.6606374 -1.3252892 -0.038657654 -1.5496483

running_var f4 [32]
000000 c9 6e 28 3f 82 a5 5e 3e f5 34 4c 3e 38 dd f0 3e
       0.65794045 0.21742824 0.19942077 0.47043777
000010 bf a4 b5 3e 1a 03 5e 3f 0b d3 43 3e 43 fc 63 3e
       0.35477254 0.8672348 0.19123475 0.22264199
000020 35 9e 9d 3e ef d1 cf 3e d1 f1 7d 3e 3a 05 c6 3e
       0.30784765 0.40589854 0.24799277 0.38675863
000030 d8 87 0c 3e d4 88 b7 3e 18 ed 9a 3e 7b 9b 72 3e
       0.13723695 0.3584658 0.30259013 0.23692124
000040 ef 25 e6 3e c0 8f 26 3e 36 34 d7 3e 75 5c c5 3e
       0.44950816 0.16265774 0.4203202 0.38547102
000050 12 a8 79 3e e1 d1 89 3e 68 cc 50 3e 3d 53 79 3e
       0.2438052 0.26917937 0.20390475 0.24348159
000060 d5 f4 88 3f a3 9d 0d 3e 6a eb e9 3e f7 d0 e0 3e
       1.0699717 0.13829665 0.4568742 0.43909428
000070 57 63 2f 3e a5 cb e5 3e 88 bf 64 3e 89 d7 19 3f
       0.17127739 0.4488193 0.22338688 0.60094506

weight f4 [32, 32, 3, 3]
000000 7f 58 27 3d ed ba cc 3c 1e 86 f3 bb 25 ca b2 3a
       0.04085588 0.024991477 -0.0074317595 0.0013640566
000010 8f 72 32 3c c7 46 eb bb 8c 35 89 bd af 22 b8 bb
       0.010891571 -0.007180068 -0.066996664 -0.005619369
000020 55 7f fd 3b a5 59 b5 bc 47 d1 ff 3c da 9a b3 bc
       0.0077361264 -0.022137472 0.03122772 -0.021924425
000030 04 a5 92 bc bd 9e e3 3b 8d f6 90 bd b0 f6 65 bd
       -0.017900951 0.0069464133 -0.07078276 -0.056143463
000040 b3 9b 39 bb 70 12 86 3a ad 04 84 bd b9 35 5c bd
       -0.0028321564 0.0010228883 -0.06446204 -0.05376217
000050 47 4c 28 be 32 9d 2f 3c b8 e9 6f 3c 72 66 2d bd
       -0.16435347 0.010718631 0.014643125 -0.042334028
000060 55 ce 72 3d b4 0d 85 3d e8 2e 01 3d 76 80 b8 bd
       0.059278805 0.06496754 0.031538874 -0.09008877
000070 0a 50 90 bc 04 3a 67 bb 49 11 a1 bd dd 8b 0c 3c
       -0.01761629 -0.0035282383 -0.07864625 0.008578268
000080 c3 ab 38 3d 43 87 08 be 96 cd 97 bc b2 8b 28 bc
       0.04508568 -0.13332848 -0.018530648 -0.010287212
000090 d3 16 aa 3b b2 35 44 bc 8b b8 22 ba ed 72 ce 3c
       0.005190709 -0.011975693 -0.00062073086 0.025201285
0000a0 ac 33 62 3d 3e 1f 82 3d 58 c7 77 3c fa d6 16 3d
       0.05522506 0.06353615 0.015123211 0.03682611
0000b0 46 16 22 3d c7 e5 2f bc 91 8e f4 bc 46 2d dc 3c
       0.039572023 -0.0107359355 -0.029853137 0.026877057
0000c0 83 f9 ff bc d7 af d4 bb e1 e0 6d 3d 67 c9 ed 3c
       -0.031246906 -0.0064906883 0.05807579 0.0290267
0000d0 9f 61 17 3d 8f cd 1c 3d 05 f7 83 3d 41 7c 69 3d
       0.036958333 0.038281973 0.064435996 0.057003263
0000e0 d2 57 7c 3c e4 47 2a 3d cf d0 04 3b ab f9 93 bc
       0.015401797 0.041572466 0.0020266061 -0.018063387
0000f0 60 ca 06 3d 40 ac 84 bc 02 af 53 bd 3f d2 1a bc
       0.032907844 -0.016195416 -0.051680572 -0.009449541
000100 17 69 27 3d 85 9d 99 3d 17 85 f5 3a 5d 7c 7c bb
       0.040871706 0.075007476 0.001873168 -0.0038526275
000110 79 9d 9c 3d 15 d2 15 3d b9 5d 72 3b 27 ee a8 3d
       0.07647223 0.036577303 0.0036982133 0.08248549
000120 bd 93 33 bc 63 e9 ea 3b c3 3a b5 3c 9d d8 45 3d
       -0.0109605165 0.007168935 0.022122746 0.04830228
000130 10 6f 42 3d 96 d0 c6 3d 84 1e a8 3c 66 74 ec 3a
       0.0474692 0.09707753 0.020522363 0.001804006
000140 4a f5 3d 3d 78 f3 d3 bc e0 09 8c 3c cf 0f 64 3c
       0.046376504 -0.02587293 0.017094553 0.013919785
000150 9a 8c 8f 3d 4c 1d c3 3d ec ec e9 3d fd be 82 bc
       0.070092395 0.09527072 0.114221424 -0.015960211
000160 65 fe 3b bc fa ee 96 3a 89 9f 61 3d 37 e5 49 3c
       -0.011474227 0.0011515312 0.055083785 0.0123227155
000170 c9 fa eb bc 24 20 78 3c 6f 5e 01 3d be 8a 31 3d
       -0.028806107 0.015144382 0.0315842 0.043345205
000180 99 3d c8 bb 32 df 49 3d 9e 5b d1 3c 77 5f 93 3c
       -0.0061108586 0.04928512 0.025556382 0.017989857
000190 ca 6b ba bc 80 f7 25 bd b8 40 16 3d e5 79 16 3d
       -0.022756476 -0.040519238 0.036682814 0.03673734
0001a0 fe 81 21 3d 14 61 ce 3a 59 3e bb bc c2 61 52 3c
       0.03943061 0.0015745484 -0.022856878 0.01284069
0001b0 3f 60 96 bd a5 d2 a1 3b d4 e1 ac bb 3e bc 03 3d
       -0.07342576 0.004938441 -0.0052759442 0.032161944
0001c0 31 71 96 3d ba 2b db 3c ac 7c ef 38 92 82 ce 3c
       0.07345808 0.026754249 0.0001141963 0.025208745
0001d0 ed cb 80 bd 7f 20 80 bd 59 e7 f0 bc e0 b7 8e bc
       -0.06288896 -0.06256198 -0.02940719 -0.017421663
0001e0 5b b8 30 bc b8 bc 8e 3a 3b 10 49 bd 0e 5d 1a bc
       -0.010786141 0.0010889983 -0.049087744 -0.0094216
0001f0 30 0f 87 bc 3b 65 7b 3c 91 99 50 bd c8 9c 9d 3c
       -0.016486734 0.015343959 -0.050927702 0.019239798
000200 88 8b 54 bc bd a1 82 3c 27 46 e5 3c 8f dd ad 3c
       -0.01297272 0.015946263 0.027987553 0.021223811
000210 dd c1 c8 3c 6f 2c cc 3c bd 01 70 bc ed d6 db 3c
       0.024506504 0.024923531 -0.014648852 0.026835883
000220 2a da d1 3b 9f 70 f7 3c 93 21 48 bc d9 20 16 bd
       0.006404181 0.03020507 -0.012215036 -0.03665242
000230 0f 21 d8 bc 54 b4 51 3a 39 75 18 bd 82 17 af bb
       -0.026382951 0.0007999588 -0.037221167 -0.0053433785
000240 8a 8a 84 3d 93 de c0 bb 05 22 ef bc e8 d0 92 3c
       0.06471737 -0.005885908 -0.029191026 0.01792188
000250 7d 4e 51 ba 07 95 28 bd 70 06 74 3c 72 08 3e bc
       -0.0007984413 -0.04115775 0.014894113 -0.011598693
000260 23 b7 59 3c 11 b0 83 bd ae 18 04 bd 2a 40 53 bc
       0.013288292 -0.064300664 -0.0322501 -0.012893716
000270 ae 46 eb bc 5c 46 6f bc 49 6e e4 bc 3a 21 99 3c
       -0.028720226 -0.014604177 -0.02788462 0.018692601
000280 65 bf b0 bc f4 5d 19 bd d8 d3 a8 3d 78 6c 81 3d
       -0.021575639 -0.037443116 0.08243531 0.06319517
000290 d3 a1 01 bd 5a 79 16 3d f1 b5 2a 3c 0a c6 1d 3d
       -0.03164847 0.036736824 0.010419355 0.038518943
0002a0 0f 21 a5 3c 4e 50 d2 bc 21 66 34 3d c4 c9 39 bd
       0.020157365 -0.025673058 0.04404271 -0.045358434
0002b0 e5 c4 a9 3c 15 f8 80 bb 00 c6 f3 bc 17 b8 ac 3c
       0.02072377 -0.0039358237 -0.0297575 0.021083875
0002c0 6f e3 6d bc 87 87 d2 ba f7 e6 be bc 46 49 9b bd
       -0.014519556 -0.0016062119 -0.023303492 -0.07582335
0002d0 26 09 8d bd 0f 0d 9c bd 3c 26 8f bb 18 b7 44 bd
       -0.068865106 -0.07619678 -0.0043685716 -0.048026174
0002e0 48 bb 08 3c 00 55 3d 3d 54 c3 1b bd 75 9f 41 bd
       0.008345433 0.04622364 -0.038028076 -0.04727121
0002f0 02 8c 58 3c af 7a 74 bd c1 72 42 bd 44 12 69 bd
       0.013216974 -0.059687313 -0.04747272 -0.056902185
000300 74 93 34 3c 43 ca 1c 3b d6 bc f7 3c d2 c5 ef bc
       0.011021484 0.0023924268 0.030241411 -0.029269133
000310 7f 60 52 bd fb 12 5e bc 8a 2f 32 bd b6 2d b7 bc
       -0.051361557 -0.01355433 -0.043502368 -0.022360664
000320 2d 9b a5 ba d8 22 0c 3d fc dd 1e 3c 44 f9 9a 3c
       -0.0012634747 0.034212917 0.00969648 0.018917687
000330 a3 78 3a 3d 14 2f db 3b 72 80 22 bd ce 75 d1 3c
       0.045525204 0.0066889618 -0.039673276 0.025568869
000340 06 a0 a3 bd 46 41 12 bd b9 f4 80 3b ad 09 52 bd
       -0.079895064 -0.03570678 0.003935423 -0.05127876
000350 cb e7 b6 3b 21 84 63 3d 35 c0 c3 bc 7e 1a b5 3b
       0.005581831 0.05554593 -0.023895362 0.0055268398
000360 34 e6 37 3d 58 ce 76 3d 8c 19 f5 bc 3d 4a 83 3c
       0.044897273 0.06025538 -0.029919408 0.01602661
000370 59 1d 06 3d 8a 8c 2d 3d da d3 2f bd 55 ba cf bc
       0.03274283 0.042370357 -0.042926647 -0.025357405
000380 46 78 00 3c d3 46 22 3c a6 13 c2 3c 90 be 80 3c
       0.007841175 0.009904581 0.02369101 0.015715867
000390 ec 7e 63 bc 3f 1f 32 bc b5 49 60 3c 18 57 2f bd
       -0.013885241 -0.010871707 0.013689448 -0.04280767
0003a0 21 11 03 3c 4a 53 b9 3c 27 32 3a 39 e4 8e 3b 3d
       0.007999689 0.022622723 0.00017757025 0.045790568
0003b0 ca 63 76 bd 40 d7 57 39 13 7b 88 bb a3 9d 32 bb
       -0.06015376 0.00020584185 -0.004165062 -0.0027254603
0003c0 61 70 2a bd c9 db ff 3b 05 f2 95 bd 42 43 92 bd
       -0.04161108 0.007808183 -0.07321552 -0.07141735
0003d0 b0 cf 31 bd 98 62 38 bd e5 f8 e1 ba 5a 63 65 3b
       -0.043410957 -0.0450159 -0.0017240314 0.0035001845
0003e0 a2 90 96 bb 34 cd 64 bc 54 a3 0a bd 23 06 8d bb
       -0.0045948783 -0.01396494 -0.033847168 -0.00430371
0003f0 fd 47 be bb f6 11 1d bc 87 3e a6 bb ba 73 1e 3d
       -0.0058069215 -0.009586802 -0.005073372 0.038684584

bias f4 [32]
000000 05 49 74 bc 5e a1 c9 bc fe ad 25 bd 6a de 1b bc
       -0.014909987 -0.024613079 -0.040449135 -0.009513477
000010 46 86 3b 3d e5 ec 3c 3d 23 9f f4 bc 28 34 0e bd
       0.04578235 0.046124358 -0.029861039 -0.03471771
000020 bf 5e ad 3a 67 fb c8 3b 61 f5 3f 3d 5e 51 9c 3c
       0.0013227089 0.006133485 0.04686487 0.019081768
000030 5f 80 03 3d d2 75 16 bd ae b5 52 3c 9b 03 10 3d
       0.032104846 -0.036733456 0.012860699 0.03515969
000040 e3 c3 dd bb da 55 6b bd 94 cd 92 3d d6 4b ee 3c
       -0.0067677363 -0.05745492 0.07168117 0.029088896
000050 42 25 bc bc e0 a2 df bc 94 5b 25 3d 65 97 03 3d
       -0.022966985 -0.027299345 0.04037054 0.032126803
000060 6b ac 09 bd 2c 83 a3 3c a1 39 33 3c 2c 33 76 ba
       -0.033611696 0.019960009 0.010939033 -0.00093917805
000070 d4 c1 57 bd d1 11 09 3c 19 12 40 3d e0 33 be bb
       -0.052675083 0.008366064 0.04689226 -0.005804524

weight f4 [32]
000000 e1 63 65 3f 40 ee 74 3f 57 d5 7f 3f 02 b0 83 3f
       0.8960553 0.9567604 0.99934906 1.0288088
000010 c3 88 64 3f 29 a2 5a 3f 36 a4 77 3f a4 a6 74 3f
       0.8927118 0.85403687 0.9673494 0.95566773
000020 22 ae 5e 3f 3d 7a 4a 3f 2b 7d 67 3f aa be 80 3f
       0.86984456 0.7909277 0.90425366 1.0058186
000030 9e e5 60 3f 82 1f 59 3f 4d 7a 81 3f 77 f2 6f 3f
       0.8785037 0.848137 1.0115448 0.93729347
000040 27 43 73 3f 81 81 80 3f 33 1b 85 3f 31 a5 86 3f
       0.9502434 1.0039521 1.0398926 1.0519162
000050 df bf 7c 3f dd 1e 84 3f 6c f3 67 3f 37 92 7d 3f
       0.9873027 1.0321919 0.9060581 0.9905123
000060 f0 22 78 3f 75 7e 6e 3f b8 20 63 3f 34 45 79 3f
       0.9692831 0.9316171 0.887218 0.9737122
000070 fa 9c 80 3f 98 33 61 3f f0 67 61 3f 08 1d 83 3f
       1.0047905 0.8796935 0.8804922 1.0243235

bias f4 [32]
000000 0a a9 e5 3e 4a ed 7b 3e b3 bc 2b 3e fe c5 75 3e
       0.4485553 0.24602237 0.16771202 0.2400131
000010 8e 7e 04 3f 5a dc 11 3f 61 ae b0 3e fb d7 c0 3e
       0.5175561 0.56976855 0.3450804 0.3766478
000020 d1 dc 33 3f 95 d4 54 3f ad 5b 04 3f 5b ed 1a 3e
       0.70258814 0.83136874 0.51702386 0.15129606
000030 85 5e 03 3f 08 98 0a 3f b7 64 67 3e 1c f6 80 3e
       0.513161 0.5413823 0.22597013 0.25187767
000040 43 5c ac 3e 33 1d 5a 3e 6f 23 be 3e e7 12 bd 3e
       0.3366414 0.21300201 0.3713641 0.36928484
000050 4b d4 9f 3e 53 77 b1 bd 60 d4 dd 3e 4a e2 39 3e
       0.31216654 -0.086653374 0.43326092 0.18152729
000060 c2 57 4c 3e a8 69 06 3f 40 ad 13 3f 1c 2d d9 3e
       0.19955352 0.5250497 0.57686234 0.42417228
000070 1c 9e 8f 3d 73 3f 25 3f d6 f0 3a 3f 8d 66 17 3e
       0.07012579 0.6454994 0.73023736 0.14785214

running_mean f4 [32]
000000 aa 60 a7 be e5 6d f9 bb 98 52 af be 3e ac 72 3d
       -0.32690936 -0.0076119774 -0.34242702 0.059246294
000010 91 b8 55 be e2 5b ff be 6e 71 00 be 61 f8 80 bf
       -0.20871188 -0.4987479 -0.1254327 -1.0075799
000020 5d 8a ba 3f 71 0a 59 be 1e dc b3 be c6 21 1d bf
       1.4573475 -0.2119539 -0.35128874 -0.6137966
000030 80 be c5 3e fd 53 50 bf 21 92 7e bf e3 1d bd bf
       0.38621902 -0.81378156 -0.99441725 -1.4774746
000040 f5 8e 94 3f 25 40 f6 3d fc 14 ea bf c5 f7 6e bf
       1.1606127 0.12023953 -1.8287654 -0.93346816
000050 99 a1 e2 3e 71 b7 a4 bf 03 82 45 be ec ce 5e bf
       0.44263914 -1.2868482 -0.19287877 -0.8703449
000060 50 95 34 3e cb a7 83 3d 95 2f 6b be 1b e6 53 bf
       0.17635083 0.06428488 -0.2296737 -0.8277299
000070 2e 1a 05 3f b1 64 36 bf 7a cb 05 be 96 8d 14 bf
       0.5199307 -0.7124739 -0.13065901 -0.58028543

running_var f4 [32]
000000 63 87 44 3e 95 a4 08 3e aa a9 35 3e c4 a5 cd 3e
       0.19192271 0.13344033 0.17740503 0.40165532
000010 14 59 37 3e 8b 1a 22 3e d7 7c 67 3e 3c 06 62 3e
       0.17905074 0.15830438 0.22606216 0.2207269
000020 25 71 63 3e 77 7c 3d 3e 7f 5f 22 3e f7 01 32 3e
       0.2221113 0.18504511 0.15856741 0.17383562
000030 80 11 50 3e 8b 29 41 3e ae 54 56 3e e5 64 87 3e
       0.20319176 0.18863504 0.2093074 0.26444164
000040 34 1d 83 3e ae 62 70 3e ac 63 18 3f f6 63 0c 3f
       0.25608218 0.23475143 0.5952709 0.5484003
000050 99 29 62 3e bb 74 b3 3e 29 ea a1 3e bd 84 6d 3e
       0.22086181 0.35049996 0.31623963 0.23195167
000060 28 5b 8d 3e 38 39 4f 3e 67 bd 23 3e e3 59 56 3e
       0.2760861 0.20236671 0.1599022 0.20932727
000070 fe 0c b5 3e c0 13 91 3e 05 07 5b 3e ec b1 84 3e
       0.35361475 0.2833538 0.21389396 0.25916994

weight f4 [32, 32, 3, 3]
000000 8c b4 0f 3d 28 4a e4 bb a9 4b b2 ba 53 72 ae 3c
       0.035084292 -0.006966848 -0.0013602871 0.021294748
000010 3f 84 c8 bc 97 92 c6 bc 80 40 55 3d 71 67 24 bd
       -0.024477122 -0.024239821 0.052063465 -0.040137712
000020 50 7d c4 bc 8d 35 e8 3c ff 56 b4 ba 48 a0 ed bc
       -0.023985535 0.028345848 -0.0013758837 -0.029007092
000030 77 4c 34 3b b8 27 5e 3b 79 b4 88 3b 2b 07 d1 bc
       0.0027511397 0.0033898186 0.0041719046 -0.025516113
000040 fe 24 01 3c 8e 29 c2 3c f0 5c cf 3c 76 c0 b1 bc
       0.007882355 0.023701455 0.02531287 -0.021698218
000050 17 89 1d 3d b5 71 27 3d 8c 43 cf 3c 6a f3 69 3b
       0.038460817 0.040879924 0.025300764 0.0035698065
000060 96 e8 07 3c 9a 36 1f 3d 39 73 e1 3b 7a d6 a4 bc
       0.008295199 0.03887043 0.0068801907 -0.020121802
000070 4f d1 cb bc 52 6a a8 3a 46 22 e9 bb cd 0c f0 bc
       -0.02488008 0.0012849069 -0.0071146814 -0.029302979
000080 42 50 e2 bc 12 a8 fc bc 83 ed 2c bc 84 bd 9c 3b
       -0.02762616 -0.03084186 -0.010554674 0.004783334
000090 93 c7 69 bc 7f b1 c4 bc 0d b9 4d bc 7b cd 6d bc
       -0.014268774 -0.024010418 -0.012556327 -0.014514322
0000a0 ee 4d 7a bc e4 3a b1 bc 72 31 a2 bc 28 4c 89 bc
       -0.015277369 -0.021634527 -0.019798968 -0.016759947
0000b0 77 b9 86 bc da 37 03 bc 1f 11 95 3c 73 21 8b bb
       -0.016445858 -0.0080089215 0.01819664 -0.004245931
0000c0 7f 3c 23 3c db 4f 8d 3b 92 cf 84 bc cd f8 c9 3c
       0.009963154 0.004312498 -0.016212258 0.02465477
0000d0 3c 12 ce bb d7 80 1d 3b a4 d7 31 3d c4 23 fa 3c
       -0.006288795 0.0024033093 0.04341854 0.030534633
0000e0 4a a0 71 3d 2d 74 69 3d 5e 9e 22 3d cb bf a1 3c
       0.058990754 0.05699556 0.039701812 0.019744774
0000f0 09 d9 9b 3d 1c 02 e4 3c 1e ed 8f 3c fc 56 cb bd
       0.076097555 0.027833037 0.017569121 -0.099287
000100 7f 7e 0a bd 9b 2a 25 bd 19 ca 9e bd 15 c3 ce bc
       -0.033812042 -0.040323835 -0.07753391 -0.025239507
000110 77 c9 d8 bb 5f 3a 59 3c a1 e2 19 3d 0b 44 26 3d
       -0.0066158134 0.013258546 0.037569646 0.040592235
000120 cd 87 be bd e5 3a c6 bd b7 f4 90 bc ae da 09 bd
       -0.09303246 -0.09679202 -0.017694814 -0.033655815
000130 4d 37 07 bb 27 38 c4 bc 25 1f dc bd 81 7c b4 3b
       -0.0020632327 -0.023952557 -0.10748128 0.005508006
000140 26 76 21 bc 98 78 00 3d 59 ef 5b 3d 5e ec d2 3c
       -0.009854829 0.031365007 0.053695057 0.025747474
000150 f9 81 36 3d d1 63 44 3d d1 ff 59 3a 77 f9 53 3d
       0.044557545 0.047946755 0.00083160127 0.05175158
000160 d3 b7 04 bd df cf fd bc 9f ed da 3d 01 99 88 3d
       -0.03240187 -0.03098291 0.10689854 0.06669808
000170 f6 e0 05 3d 0c 65 34 3c 5f b8 04 bc 58 be 7f bc
       0.032685243 0.01101042 -0.008100598 -0.015609346
000180 c0 ef a4 3a ed 1c a4 3b 1e b8 91 bd 07 71 20 3d
       0.0012583658 0.005008331 -0.07115196 0.03917029
000190 8d f9 62 3c 88 e6 97 3c 54 68 62 3b 98 6d e3 bc
       0.013853443 0.018542543 0.0034547048 -0.02776222
0001a0 79 d9 90 3b f3 3f 8c bc 14 e5 f4 bc c8 91 5e 3d
       0.004420456 -0.017120337 -0.02989439 0.054338247
0001b0 fc a9 2a 3d 7e 47 84 3c 36 e4 8d 3c ff 4f 0b bc
       0.041666016 0.016147371 0.017320734 -0.008502959
0001c0 ae fc 9c bc 91 0c 5a bc e0 aa 69 bd b3 e9 d0 3b
       -0.019163456 -0.01330866 -0.057047725 0.0063755154
0001d0 13 32 a5 3c ed a1 9f bc 9b aa 45 bc 05 99 41 3c
       0.020165479 -0.019486392 -0.012064601 0.011816268
0001e0 85 8e c4 bc 71 b6 d3 3a 40 6b 1d bc f8 56 a4 3b
       -0.02399374 0.0016152394 -0.00960809 0.0050152503
0001f0 32 26 3d bb 92 d6 cd bc c4 b4 89 bd 32 1a 8a bb
       -0.0028861878 -0.02512673 -0.067239314 -0.0042145485
000200 44 71 38 bd 19 4e 6a bd c0 3e fa bb c0 78 9f bc
       -0.045029894 -0.057203386 -0.007636875 -0.019466758
000210 6a 93 35 bd 91 e0 f0 3c 3f ca 55 3d b7 f0 13 bd
       -0.044330038 0.029403957 0.05219483 -0.036118235
000220 83 cd 72 3d 79 3e a4 3a 78 70 f8 39 3d 18 47 3d
       0.059278022 0.0012530825 0.00047386042 0.0486071
000230 68 2a 5a 3c 8c d4 a6 3d 95 d0 1e 3d ae 21 66 bc
       0.0133157745 0.08146009 0.038773138 -0.014046116
000240 3f a9 24 3d 8d 82 09 3c b9 db 3d 3d 9d 4a 86 bc
       0.04020047 0.008392942 0.046352122 -0.016393
000250 cf 61 dc bc c5 0c 51 bc 8b 75 2a 3d 88 42 c1 3c
       -0.026902108 -0.012759392 0.041616004 0.023591295
000260 e5 c2 b5 3c 26 da 98 3d cb 8c 18 3b 78 64 29 bc
       0.02218766 0.074634835 0.0023277279 -0.010338895
000270 2c 55 10 3b 0b 78 2c bc 14 6e 90 3c 18 c6 73 3d
       0.0022023423 -0.010526667 0.017630614 0.05951509
000280 1e 4a 38 bd f6 eb 21 3c bd 2e 0a 3c 85 e2 c9 bc
       -0.04499256 0.009882918 0.008433995 -0.024644146
000290 91 33 d8 bc e2 a8 46 bc 69 29 03 bd cc ca 9e bd
       -0.026391776 -0.012125226 -0.032021914 -0.07753524
0002a0 d1 2d 19 bd 1e 3b 57 bd ba df a0 bd 43 34 99 bc
       -0.03739721 -0.052546613 -0.078551725 -0.018701678
0002b0 d7 44 9d 3b 40 b3 9e 3d 7e 57 1a bd 6f 28 83 3c
       0.004799466 0.07749033 -0.037681095 0.016010491
0002c0 93 86 eb 3c 8f be c4 bd 4d 39 9c 3c e3 9d 98 3d
       0.028750693 -0.09606659 0.019070292 0.074519895
0002d0 0f 3a 7e 3c 28 c1 0b bd ba ab 02 3d 90 82 09 bd
       0.015516772 -0.034119755 0.031902052 -0.03357178
0002e0 bf fc 14 bd ce f1 d4 3c 88 f0 d7 bc 37 0e 18 bb
       -0.03637385 0.025994208 -0.026359811 -0.0023201832
0002f0 83 63 e3 3c 35 82 c8 3c 68 b0 32 3d 39 9b 97 3d
       0.027757412 0.02447615 0.043625265 0.07402653
000300 c8 1c 36 bc c3 9c b5 bb 45 f6 0d 3a ea e0 a6 bd
       -0.01111526 -0.005542369 0.000541542 -0.08148368
000310 27 59 8d bd c5 c4 27 bd 86 0c 72 bd 79 bb 23 bd
       -0.0690177 -0.04095914 -0.059093975 -0.03997371
000320 3a 26 98 3c fa ff 2c bc fc b3 8b bb 41 cb bf bc
       0.018572915 -0.010559076 -0.004263399 -0.023412349
000330 0c 26 4b bc a3 13 d5 bc 3f d1 57 bc e6 80 fb ba
       -0.012399208 -0.02601034 -0.013172447 -0.0019188195
000340 28 ce c1 3c e0 42 8b bd 76 4c b8 bc ef 82 04 bd
       0.023657873 -0.06799865 -0.022497397 -0.03235143
000350 f6 f9 61 bd a4 ea 8c bd dd 47 02 bd 2c 62 99 bd
       -0.055170022 -0.06880692 -0.031806815 -0.07489428
000360 4e c3 59 3b e1 e8 67 3a f6 b0 92 3c bf 9c b1 bc
       0.0033227983 0.00088466523 0.017906647 -0.021681188
000370 53 ab df 3c a0 2c d3 bb ba 14 cd bc ce ca 06 3d
       0.027303373 -0.0064445287 -0.025034297 0.032908253
000380 95 6d 28 3d b5 c1 6b bd 2a e2 d9 3c c2 02 10 3e
       0.04112013 -0.05755778 0.026597101 0.14063552
000390 7e 62 d6 bc ca f2 86 bc 34 2c 42 3d 5a 3b 65 3c
       -0.026170012 -0.016473193 0.047405437 0.013991201
0003a0 93 a4 48 bc 86 ee 64 3c c6 e2 18 3d 47 53 9a bc
       -0.012246269 0.013972884 0.037325643 -0.018838538
0003b0 03 84 32 3d b3 16 16 3d 1b dc 91 bc 34 5f 80 3b
       0.043582927 0.03664274 -0.01780515 0.003917599
0003c0 6a aa 54 3d 52 29 ec 3c 5d 76 96 3d b2 db 94 bc
       0.051920332 0.028828297 0.07346795 -0.018171165
0003d0 09 d5 87 3d 38 f2 bb 3b 27 1a d9 3c ba d0 12 3c
       0.0663243 0.005735662 0.026501728 0.008960897
0003e0 ae b5 85 bb 9d 57 ea 3d ba 71 b4 3b 06 4d 0d bd
       -0.004080496 0.11442492 0.0055067213 -0.034497283
0003f0 0d e9 14 bd b8 3d 46 3b f9 1d aa bc 2f 27 57 bd
       -0.036355067 0.003024919 -0.020766245 -0.052527603

bias f4 [32]
000000 83 60 d9 bc 45 41 e3 3b 03 36 6f bd e0 ab ac 3c
       -0.026535278 0.006935271 -0.05840112 0.02107805
000010 f7 a1 a9 3d a0 31 37 3d 68 c0 64 3d 35 06 1b 3e
       0.082828455 0.04472506 0.055847555 0.15139087
000020 25 31 b1 3c 6c cb 3f 3c 04 af ab 3d 2f 0c 68 bd
       0.02162988 0.011706214 0.08382991 -0.056652244
000030 f5 b3 70 3d 46 f0 ce bc d3 08 25 bd 87 72 37 bd
       0.05876537 -0.025261056 -0.04029162 -0.044786956
000040 30 78 89 3d 74 3c c2 bc 79 04 16 bd 4f cf e0 3a
       0.06712377 -0.023710467 -0.03662536 0.0017151627
000050 89 21 a6 3b 1e 86 99 bc f1 84 55 bd f1 47 88 3d
       0.0050699157 -0.01874071 -0.052128736 0.06654347
000060 3b 4c 1f bd e1 3f d9 bc 9b 5f 99 3d 8a 59 86 3d
       -0.03889106 -0.026519718 0.074889384 0.06560047
000070 d1 95 c2 bc aa d4 9f bc 69 84 19 bd 97 b2 ab 3c
       -0.023753079 -0.019510586 -0.03747979 0.020959182

weight f4 [32]
000000 be 7e 80 3f c8 ef 81 3f 85 72 a3 3f a4 d1 7e 3f
       1.0038679 1.01513 1.2769324 0.99538636
000010 1b cc f2 3f e4 a0 65 3f f0 b3 82 3f 7d 4c 8a 3f
       1.8968538 0.89698625 1.0211163 1.0804592
000020 09 59 83 3f 4d 17 82 3f 34 ca 80 3f 36 c7 aa 3f
       1.0261546 1.0163361 1.0061707 1.3342044
000030 cd cc 0b 40 9d 58 8c 3f f5 06 83 3f 50 25 84 3f
       2.184375 1.0964543 1.0236498 1.0323887
000040 3f d8 75 3f 0e db 77 3f dd cf 7e 3f 67 f2 84 3f
       0.9603309 0.96818626 0.99535924 1.0386475
000050 19 d5 82 3f c0 5b 8f 3f 42 b4 96 3f 7c 98 9d 3f
       1.0221282 1.1199875 1.177376 1.231216
000060 43 6f 80 3f 03 40 84 3f 84 36 72 3f 8c 9d 80 3f
       1.0033954 1.0332035 0.94614434 1.004808
000070 f2 8a 80 3f fd 23 8b 3f 98 95 85 3f 0d 7d 7f 3f
       1.0042403 1.0870358 1.0436277 0.9980019

bias f4 [32]
000000 4e 7b 93 3e 15 a0 8b be 56 ef 86 be c1 ff 4b 3e
       0.28805012 -0.2727057 -0.26354474 0.19921781
000010 fe c6 9c 3e 3a 8a f2 3e 67 c3 57 3e 01 08 c8 bd
       0.3062057 0.47371083 0.21070634 -0.097671516
000020 06 f2 8e be 83 0d 99 be cb c2 32 3e 48 6e 29 bb
       -0.27919024 -0.2989312 0.1745712 -0.0025853086
000030 52 5d c1 3f 5e 1f 83 3e 13 48 d7 3c 07 c8 55 3c
       1.5106604 0.2560987 0.026279485 0.0130481785
000040 bd 3e d2 3e cf 53 7b be 09 bb 52 3d ea 17 21 3e
       0.4106349 -0.24543689 0.051447902 0.15731779
000050 63 ac da bd 04 cd 00 3e 9a 89 3c 3e 36 55 98 3c
       -0.106774114 0.12578207 0.18411866 0.01859532
000060 ae d7 55 3e 76 d1 16 be bd 7a f4 be d4 0e 8e be
       0.20883057 -0.1472834 -0.47749892 -0.27745688
000070 03 bd 1e 3e fa a5 1d 3e a5 4f 6b 3e 58 c5 01 be
       0.1550179 0.15395346 0.229796 -0.12672937

running_mean f4 [32]
000000 95 fb ab be f8 ea 23 3f 3d e8 19 3e cc 35 00 3f
       -0.3359038 0.6403041 0.15029998 0.5008209
000010 06 5f d4 be 15 48 44 3f d4 84 34 bf f0 aa a7 3e
       -0.41478747 0.7667249 -0.7051518 0.32747602
000020 6d e2 e7 be 99 26 c6 3d aa c6 a9 be 2c 9b d6 3e
       -0.45289937 0.09675331 -0.3315938 0.41915262
000030 b7 df 20 bf db f6 9b 3e a1 b0 db 3d de 19 2e 3f
       -0.6284136 0.30461773 0.10727049 0.6800822
000040 43 ab 5b be 91 a4 cc bd 1a 1a 99 bf 58 c0 82 be
       -0.2145205 -0.09992326 -1.196109 -0.25537372
000050 2c cd f9 3e d5 29 2c be f9 2c b4 be 9a 7b bc 3e
       0.48789346 -0.16812833 -0.3519056 0.3681305
000060 f7 2e da 3d 8d 6a 6e 3f 3e 01 5a be 4e d6 e7 bc
       0.10653489 0.93131334 -0.21289536 -0.02830043
000070 07 61 32 3e 39 a7 0a bf a6 94 6e 3e b9 74 9f bf
       0.17419825 -0.5416141 0.23298892 -1.2457496

running_var f4 [32]
000000 11 a4 cd 3d 61 2d 86 3d 93 2d a8 3d ca 39 a8 3d
       0.10041059 0.06551624 0.082118176 0.082141474
000010 55 12 65 3d ab c6 f2 3d e5 f9 02 3e f4 94 21 3e
       0.055925686 0.11854299 0.1279064 0.15779477
000020 3e e4 86 3d 5a e3 ab 3d 9d bf 9d 3d a6 6f 9a 3d
       0.065865025 0.08392973 0.07702563 0.075408265
000030 c6 6c fb 3c 3a ae 83 3d 93 be b8 3d a8 b0 c1 3d
       0.030691516 0.064297155 0.09020724 0.09457523
000040 18 b1 b2 3d 24 e5 b7 3d 06 0f ec 3d 42 25 91 3d
       0.08725184 0.08979252 0.11526303 0.070871845
000050 93 1e cb 3d 69 96 06 3e c9 99 a0 3d bc 8e b3 3d
       0.09917941 0.13143314 0.07841832 0.08767459
000060 37 92 d7 3d 5c fb 75 3d f5 c7 b9 3d 50 42 89 3d
       0.10525935 0.060054168 0.09071342 0.06702101
000070 b6 89 02 3e 6f b3 87 3d 31 02 9b 3d 6b 1d cd 3d
       0.12747845 0.06626021 0.07568777 0.10015377
