TuiGAN/models/apple2orange/ab0.pth (torch, 233612 bytes, 46 tensors)

weight f4 [32, 3, 3, 3]
000000 d1 eb 8f 3b d7 ce 5e 3c ab 47 00 bc 60 4f 0b 3d
       0.004392125 0.013599119 -0.007829587 0.034011245
000010 6c 38 95 bd 81 c3 eb bc 92 45 81 bd 9e 8b 7b 3c
       -0.07286152 -0.028779747 -0.063120976 0.015353112
000020 bc 4b 5a 3c a8 03 0c ba 1c fc 35 3d f1 71 01 bd
       0.013323721 -0.0005341121 0.044429883 -0.031602804
000030 14 26 1f 3c 5b 1c 9c bc 1a b6 46 3c a9 93 40 bd
       0.009713668 -0.01905649 0.012128377 -0.04701582
000040 da 9c d6 3c da 97 a7 3d 5a 7a e3 3c 47 e8 d4 3c
       0.02619784 0.0818326 0.027768303 0.025989665
000050 59 d6 2d bd 6e 98 9a ba da e1 84 bc 62 67 b7 3c
       -0.042440746 -0.0011794695 -0.016220976 0.022388164
000060 d0 51 a7 bc 1f 90 fb 3c 83 63 19 3d 08 df ec 3a
       -0.020424753 0.03070837 0.037448417 0.001807184
000070 b1 07 67 3d 62 a6 36 bc d2 8a 70 bc dc b3 2d 3c
       0.05640382 -0.011148067 -0.014681535 0.010601964
000080 52 46 c0 bc 69 a2 00 bd 74 ca a4 bc 65 ee f4 3c
       -0.023471031 -0.031404886 -0.020116068 0.029898832
000090 ae 06 4a 3d 08 46 ee 3d 32 98 6b 3d 81 8a 5b 3c
       0.049322776 0.11634451 0.05751819 0.013399721
0000a0 d5 86 73 3d 4a c9 59 3d 23 fd e8 bc fc e8 38 3c
       0.059454758 0.05317048 -0.028441017 0.011286017
0000b0 53 e7 48 ba 76 4f 3a bc d0 b1 1e 3d f3 df 49 3c
       -0.00076638645 -0.011371484 0.038743794 0.01232146
0000c0 ed 98 cc bc 76 d2 2c 3c 7c ed 3c 3c 1e f7 d2 bc
       -0.024975264 0.010548225 0.01153123 -0.0257526
0000d0 4a ff 43 bd 6d a6 cc bc 02 c8 1e 3d 22 94 a7 3b
       -0.047850884 -0.024981702 0.03876496 0.0051140944
0000e0 94 02 38 3d 34 38 46 3c 3e 99 8e 3b e1 1b 91 3c
       0.044924334 0.012098361 0.004351764 0.017713489
0000f0 0d 36 7c bc 5a 8a ac bc 9d d5 ca 3c 98 fc 65 3d
       -0.015393746 -0.021062065 0.024760062 0.056149095
000100 fd c0 8e 3c 6f 0b 33 3d 8f c8 9a 3c 81 36 70 bc
       0.017426008 0.043712076 0.018894462 -0.014661432
000110 03 4c 87 bc e9 0f b0 bc ad 1e 05 bd 7b a3 08 3c
       -0.016515737 -0.021491962 -0.032499958 0.008339758
000120 3d 7a 95 3c 43 d6 34 3c fe 1d 81 3d ce d3 c7 3b
       0.018246764 0.011037412 0.06304549 0.006098247
000130 70 d0 1c bc 72 dc 23 3b 4d ec 88 bd 0b d2 4e bd
       -0.00957118 0.0025003222 -0.06685696 -0.05049328
000140 55 72 67 bb f0 57 4e 3d fb 01 fd 3c f7 41 08 bc
       -0.003531595 0.050376832 0.030884733 -0.0083165085
000150 86 9e a9 3c ab 46 34 3c f9 95 a5 bc aa ae ac 3c
       0.020705473 0.011003177 -0.020213114 0.02107938
000160 9b dd 28 3b 5c 35 75 bc 99 bf 2b bd 0e 3b 19 bc
       0.0025766853 -0.014966335 -0.04193077 -0.009352459
000170 0f 0c 85 3d 84 e3 1e bd a1 1e af 3b 56 76 3d 3d
       0.064964406 -0.038791195 0.0053442274 0.046255432
000180 98 d9 88 bd e9 1e 89 bb 57 02 02 3d 52 9a ad bb
       -0.06682128 -0.004184593 0.031740513 -0.0052979374
000190 ed be 01 bc 7a e6 4a bc 09 f7 3e bc 99 34 2e 38
       -0.007919055 -0.012384051 -0.011655577 4.1533818e-05
0001a0 ca 3e 39 ba d0 59 42 bd f8 3e 85 bc 77 d4 1e bd
       -0.0007066546 -0.047448933 -0.016265377 -0.03877684
0001b0 30 56 44 3d 53 13 e5 3c b7 08 8c 3c 75 2b 52 bb
       0.047933757 0.027963316 0.017094 -0.003206936
0001c0 a7 f4 a5 bc f5 1e 9a bb 4a 1d 3c 3b c2 cd b5 3c
       -0.02025826 -0.0047033974 0.002870398 0.02219284
0001d0 11 44 7a 3c a7 56 d5 bc a1 2b 8d 3b a7 c3 d7 bc
       0.015275017 -0.026042296 0.0043081795 -0.026338411
0001e0 93 3c 03 bc 5a a9 38 bd e7 db ff bb 36 09 e1 3c
       -0.0080100475 -0.04508338 -0.007808197 0.027470212
0001f0 0e 8c bf 3c 2e ea 37 3b d4 f3 a5 bd 3d c8 93 bc
       0.023382213 0.0028063166 -0.08103147 -0.018039817
000200 3a 79 09 3c 2d 0d e3 bd 9a ec 14 bd 07 f9 25 3b
       0.008390719 -0.110864975 -0.036358453 0.0025325434
000210 48 f0 37 bd f6 ac 7d bc 1d b5 4b bc 02 34 bc 3c
       -0.044906884 -0.015483132 -0.0124333175 0.022974018
000220 06 b5 23 3d bb 1d 05 3d fa 32 a7 3c af 04 1e 3d
       0.03996756 0.032499056 0.02041005 0.038578685
000230 18 00 e4 3c 4b e7 1f bb 49 fb 22 3d 10 31 21 3d
       0.027832076 -0.0024399336 0.039790425 0.03935343
000240 53 16 c9 bc 82 f3 3d bc e8 31 de bc 88 ab 8b bc
       -0.024546778 -0.011593701 -0.027123407 -0.017049566
000250 a6 35 a2 3a bd 15 a1 3c 90 6a 83 bd 5b f5 f3 bc
       0.0012375608 0.019663686 -0.064168096 -0.02978008
000260 3c 80 8d 3b 54 61 f3 bc 5e c2 5c 3c d5 19 c7 3d
       0.0043182652 -0.029709496 0.013474075 0.09721724
000270 b9 2a c9 bc 32 0c 61 bc 6e 86 f3 3c 28 d4 62 bd
       -0.024556505 -0.013735818 0.029727187 -0.05537811
000280 a2 90 df bc c6 06 14 3d a4 da bd bb 69 7b 86 bb
       -0.027290646 0.036139272 -0.0057938863 -0.004104067
000290 8e 5c 21 3d a1 e4 b8 bc 53 1a 31 3b 22 8f 03 3c
       0.039394908 -0.022569956 0.0027023747 0.008029731
0002a0 10 16 a2 bd 3f 55 09 bd 34 25 3d bd 46 23 a0 bc
       -0.07914364 -0.033528563 -0.046178058 -0.01954807
0002b0 54 88 0a 3c ab aa 00 bd ff 31 e6 ba d9 64 63 3c
       0.008455355 -0.03141276 -0.0017562507 0.013879024
0002c0 0e b7 9b 3c bf 15 8c bb 99 0c b4 bc 7f a2 bb bc
       0.019008186 -0.0042750533 -0.021978663 -0.022904633
0002d0 5b 14 a1 3d 92 ce 16 3d cc e0 23 3d f1 4e 6f 3d
       0.078652106 0.036818095 0.040009305 0.058424894
0002e0 ff d9 36 3d c0 44 26 3d 04 af 3b 3c b3 e6 2b 3d
       0.04464149 0.04059291 0.011455301 0.04196806
0002f0 bc db e3 3c 99 6e 4d 3d ad cf c9 3c ac 49 cb bb
       0.027814738 0.050154302 0.02463516 -0.0062038507
000300 18 57 ed 3c 6a 4c 14 3d a0 cd 3e 3c 18 46 1b 3d
       0.028972194 0.036205687 0.0116457045 0.037908643
000310 0a 20 78 3d e4 f1 21 3d a5 a7 2a 3d 1b fc d2 3b
       0.06057743 0.039537326 0.041663785 0.0064387447
000320 e1 fe 46 bd cc 24 c8 3c 5d d8 3b 3b ee 0e a3 bc
       -0.048582915 0.024431609 0.0028662898 -0.01990458
000330 e1 f5 09 bc 91 f5 7e bc c3 5a 97 bd 6f 44 b9 3c
       -0.0084204385 -0.015561477 -0.07390358 0.02261564
000340 ad d7 1e bc aa 07 53 bd 22 ef 20 bb 4f a7 9f bc
       -0.009694976 -0.05152098 -0.0024556597 -0.019488959
000350 d1 35 1b bd 5f 04 16 bc 4c 5d 30 bc f0 6c 8a bc
       -0.03789312 -0.009156316 -0.010764431 -0.016897649
000360 9e ba 96 3d e0 a6 1d bb ca 7f e1 bc 70 46 1a 3d
       0.07359813 -0.0024055764 -0.027526755 0.03766483
000370 4c c5 af bd e9 c3 2d 3c 6d dd 2d 3c ce b1 87 bc
       -0.08582553 0.010605791 0.010611874 -0.016564276
000380 4b ba 95 bb e8 e2 83 3d 83 34 4a 3c 60 b1 ab 3c
       -0.004569327 0.06439763 0.012341621 0.020958602
000390 d6 02 4e 3c a6 af 09 bd d9 d0 3b 3d 88 f2 14 bd
       0.012573918 -0.033614777 0.04585347 -0.03636411
0003a0 42 23 33 bd f1 db a6 3c fc 00 cd 3c 92 d6 10 bc
       -0.043734796 0.020368548 0.025024883 -0.00884022
0003b0 ec f5 cb bc b0 16 bb 3c 55 20 2c bd 6c 95 e7 bb
       -0.024897538 0.022837967 -0.04202302 -0.007067373
0003c0 e0 b6 03 bd 9c 49 0b bd 3e fa 1c 3b 28 f5 0e bc
       -0.032156825 -0.034005746 0.0023952867 -0.008725442
0003d0 a4 e2 67 3c 97 44 53 bc 96 32 52 bc 25 13 28 bc
       0.014153156 -0.012894771 -0.012829443 -0.010258471
0003e0 4c 95 cc 3b 85 e1 ac 3b df 74 bb bb 7e 4c 8a 3c
       0.0062433835 0.0052759075 -0.005720719 0.016882177
0003f0 7f 7b 99 3c 5c 88 52 3d 2f fe a4 bc 84 67 43 3d
       0.018735645 0.051399574 -0.020140735 0.047706142

bias f4 [32]
000000 ba d2 93 3c 6b 28 b5 bd 1b f0 ec 3d 99 f7 a9 3d
       0.018044818 -0.088456 0.11569234 0.08299179
000010 00 ac 54 be 37 21 14 3e 55 37 1d bd ce 63 90 bc
       -0.20768738 0.14465795 -0.038382847 -0.017625716
000020 22 96 c1 bd 18 08 1f be 2a 65 24 3c c8 06 2e 3e
       -0.09452464 -0.15530431 0.010033885 0.16994774
000030 a0 d1 2f 3d 92 ba 03 3e 5d 44 2e bc dc 78 53 be
       0.042924523 0.1286414 -0.010636416 -0.20651573
000040 ed b4 2b 3e 16 cd bb 3d 86 a1 e1 bc b5 df c5 bd
       0.16768236 0.091699764 -0.02754284 -0.09661809
000050 e1 cd 1c 3e 36 2a 37 3d 83 e7 e2 bd 37 67 78 3c
       0.15312912 0.04471799 -0.110793136 0.015161327
000060 a1 43 d3 3b 81 78 d9 bd c4 f1 de ba fb 65 0f 3e
       0.006447271 -0.106186874 -0.0017009308 0.14003746
000070 c7 05 a7 bd 28 d1 7f be b1 b1 2c 3e 9f 0d 66 3d
       -0.08155399 -0.2498213 0.16864659 0.056165334

weight f4 [32]
000000 b7 d2 7f 3f 5b 90 6e 3f be a7 85 3f ca 00 7f 3f
       0.999309 0.9318902 1.0441816 0.9961058
000010 71 77 76 3f bf bf 78 3f 04 3b 80 3f 84 6f 81 3f
       0.96276003 0.9716758 1.001801 1.0112157
000020 2b ec 74 3f c1 2e 82 3f 1d 21 7f 3f 3c f9 79 3f
       0.95672864 1.0170518 0.996599 0.97645926
000030 28 1f 8a 3f fb 0c 71 3f 24 2a 87 3f 35 61 6d 3f
       1.0790758 0.9416043 1.0559735 0.9272645
000040 50 f4 74 3f 92 a9 82 3f 82 9f 87 3f 87 33 76 3f
       0.9568529 1.0207999 1.0595553 0.96172374
000050 66 fd 81 3f fa 99 78 3f 0e 5f 84 3f 06 19 8b 3f
       1.0155456 0.9710995 1.0341508 1.0867012
000060 92 15 72 3f bb 4d 72 3f f9 d1 81 3f 37 70 75 3f
       0.94564164 0.9464986 1.0142204 0.9587435
000070 77 06 83 3f 84 17 7d 3f fe a3 82 3f 1e 1b 82 3f
       1.0236348 0.98864007 1.0206296 1.0164526

bias f4 [32]
000000 22 e6 dc bd cb b6 28 be 31 06 f8 3c f1 8d b7 3d
       -0.10786082 -0.1647598 0.03027639 0.0896262
000010 9c ce 8b 3d c4 2b 63 bd 66 e7 12 be be c2 10 be
       0.06826517 -0.05546166 -0.14346084 -0.14136788
000020 89 86 07 be 8e 52 44 3d b0 d6 01 bd 5f 23 9e bd
       -0.13234915 0.047930293 -0.031698883 -0.0772159
000030 72 9d 5d bc d7 bf 8f be c2 00 15 be 69 87 71 bd
       -0.013526307 -0.2807605 -0.1455107 -0.058967028
000040 1d 04 b0 bc 3f bd f6 bc 91 cc af be 9f 41 91 bc
       -0.021486336 -0.030119536 -0.3433576 -0.017731486
000050 2a 81 1c be cf 5b b0 bb 6d 74 3b bd 29 9d 4a bd
       -0.15283647 -0.005382038 -0.04576533 -0.049466286
000060 28 5a 87 be e9 0d 01 be 4b 33 80 3c 02 c1 21 be
       -0.2643597 -0.12602963 0.015649458 -0.15796283
000070 f0 bb ba bd 62 1b a5 bd 7e 33 06 be 7f 71 89 bd
       -0.091178775 -0.080618635 -0.1310558 -0.06711101

running_mean f4 [32]
000000 ee 7b 67 bd d2 5d 1e be 72 30 1c 3e 6e 76 29 3e
       -0.056514673 -0.15465477 0.15252855 0.16549084
000010 f9 ba 67 bd 04 1f 8b 3e a8 87 48 be 13 cb 1e 3e
       -0.056574795 0.271721 -0.19582999 0.15507154
000020 b3 04 a4 bd 1a 2e bf bc 46 09 69 3d 0e 4d 6a 3e
       -0.08008709 -0.023337413 0.05689361 0.22880957
000030 74 c5 a0 bd 8c 6c d3 3d d8 10 4b 3d 81 78 69 be
       -0.07850161 0.10323438 0.04957661 -0.22799875
000040 c0 05 40 3d a6 44 31 3e f2 f6 57 bd fc 46 a4 3d
       0.046880484 0.17311344 -0.05272574 0.08021352
000050 be 6f 9d 3d 67 48 3d bd f9 86 e6 bc 93 43 84 bd
       0.07687329 -0.046211626 -0.028140532 -0.06458201
000060 98 7c 6b 3d ae 32 f4 bd d0 b5 06 3e 2e 10 bc 3d
       0.05749187 -0.11923729 0.13155293 0.091827735
000070 84 b9 8c be 7e 70 a7 be 90 e9 75 3e 8d 26 6b 3d
       -0.27485287 -0.32703012 0.24014878 0.05740981

running_var f4 [32]
000000 f9 32 02 3b 7e 5e 81 3c 6e 21 a8 3b b2 72 25 3b
       0.0019866808 0.015792128 0.0051309383 0.0025245366
000010 76 fa f5 3b 78 45 0f 3c c2 ee ab 3b f1 4b eb 3b
       0.007506664 0.00874459 0.005246968 0.007180684
000020 f8 d0 1e 3b c4 31 66 3c 29 ea 94 3c f3 39 bd 3b
       0.0024233442 0.014049951 0.018178063 0.0057747304
000030 67 9c a0 3b d6 77 1e 3b 75 72 58 3b db 62 bd 3c
       0.004901457 0.0024180315 0.0033027206 0.023118427
000040 96 f7 cb 3b 77 71 a6 3b 7f 04 c4 3a 01 b3 ad 3b
       0.006224583 0.005079444 0.0014954953 0.00530088
000050 cd 19 9a 3b f9 0b af 3c dc 6f a7 3c a3 8f 70 3b
       0.0047027827 0.021368014 0.02043908 0.0036706708
000060 bf 4c 21 3b d8 ed 97 3b be d4 ef 3b 9e d1 f9 3b
       0.0024612395 0.0046365075 0.007319062 0.0076238653
000070 51 ea 36 3c 6c fe 4a 3b 2e 1d 97 3b 1a f4 40 3c
       0.011164264 0.00309744 0.004611633 0.011776948

weight f4 [32, 32, 3, 3]
000000 6b 5c e6 bb 94 eb 08 3b 21 08 3c bd 12 5f ae bb
       -0.00703006 0.0020892369 -0.04590619 -0.005321392
000010 30 e2 28 3d b9 04 cc 3c 39 ed e9 3c 04 70 7d 3b
       0.041231334 0.024904596 0.0285555 0.0038671503
000020 d6 f0 94 bb a3 13 04 bc 79 9c 62 bd cd 8d 18 bd
       -0.0045453114 -0.008061322 -0.055325005 -0.037244607
000030 c0 8a 1a 3c 6d 3a ac bc e5 d7 a8 bc 82 fa 10 bc
       0.009432495 -0.021023953 -0.020610759 -0.008848788
000040 99 16 37 3c 2b 54 53 bc b4 c7 0a 3c d5 2e 8e bc
       0.011174821 -0.012898485 0.0084704645 -0.017356316
000050 2f 59 87 3d 3d 93 00 bb b0 18 1e bd 77 1a f3 3c
       0.06608807 -0.001961901 -0.038597763 0.029675705
000060 0d d3 b1 3c e4 06 08 3d f6 9a 2f 3d cc da 53 3d
       0.021707082 0.033209696 0.04287239 0.051722333
000070 45 4f 97 3c 3e 05 be 3d f1 7f 04 bd cb 29 df 3c
       0.018470416 0.092783436 -0.032348577 0.027241608
000080 70 68 34 3d 2e 60 82 bc 4d f6 08 3d 42 1c 79 3d
       0.04404491 -0.015915003 0.033438016 0.060817964
000090 f0 37 3f 3b 9f 2e 64 3b c6 a3 05 3c a0 46 f8 3a
       0.0029177628 0.0034817827 0.008156722 0.0018941946
0000a0 c3 b3 cf bc af 1a 56 bc 41 95 5c bd a3 bb 81 bd
       -0.025354272 -0.013067885 -0.053853277 -0.06334617
0000b0 c9 a7 dc bb f1 00 29 3d 5f f5 29 bd d3 5a 02 bd
       -0.0067338687 0.041260663 -0.04149377 -0.031824898
0000c0 83 14 6a bd 80 f0 a2 bc 77 f2 3c bc e2 45 36 3c
       -0.057148468 -0.01989007 -0.0115324175 0.01112506
0000d0 34 b3 1b 3d 22 71 5f bc f6 b5 32 3d 05 23 11 39
       0.0380127 -0.013637813 0.043630563 0.00013841323
0000e0 58 52 c3 bb 67 2b ee 3b ed 08 1d bc 48 47 56 bc
       -0.005960744 0.0072683576 -0.009584648 -0.013078518
0000f0 4e 8b ed 3c ca 4a d9 3c 73 6a 05 bd 4b 3f 92 3c
       0.02899709 0.02652492 -0.03257222 0.017852446
000100 9e 6e 0d 3d 1d 64 c2 bd b2 ed 8e 3c 32 6d 00 3d
       0.03452932 -0.09491751 0.017447326 0.031354137
000110 47 cd 33 bd f5 d3 b7 bb 32 b0 58 bb ea 5d 39 bc
       -0.04389694 -0.005609984 -0.0033064005 -0.011313895
000120 19 1e c6 b9 51 11 e2 bb db 79 18 3c b4 1d 3d bc
       -0.00037787927 -0.006899037 0.009306396 -0.011542726
000130 4f bf 9b bc ac da 1c 3d e3 45 5f bd 2b 41 ac 3c
       -0.019012121 0.03829448 -0.05451001 0.021027168
000140 55 74 bc 3c a5 02 f0 bc 42 33 63 bd ad c6 0e bd
       0.02300469 -0.029298136 -0.055468805 -0.03485744
000150 f9 10 2b bd 39 60 23 bd b1 4e b7 bc 57 9d 79 bd
       -0.041764233 -0.039886687 -0.02237639 -0.060941067
000160 97 52 d5 bc 1e 92 16 bd e3 ce 41 3c de 08 6b 3d
       -0.026040358 -0.036760442 0.011829111 0.057381503
000170 3e 3d c6 bc f5 ec ac 3c d2 14 91 3c 78 56 4c bd
       -0.024199124 0.021109084 0.017710123 -0.04988715
000180 8b 7d 5c bd 2f 82 ad bc 95 7d 0f bc d8 22 35 bd
       -0.053830665 -0.02118024 -0.008757968 -0.044222683
000190 96 32 af bc 50 8d a4 bd 4d 5e 62 bd ef 78 02 3d
       -0.021386426 -0.08034766 -0.055265713 0.031853613
0001a0 ed 1b 0d bc 59 75 f9 3c 45 8d 8d 3c e4 a4 c6 3b
       -0.008612615 0.030451464 0.017279277 0.006062137
0001b0 26 84 80 bc 0b 52 aa 3c df 25 e6 3d 72 20 b3 37
       -0.015688013 0.020791074 0.11237692 2.1353571e-05
0001c0 42 90 ec 3a 0d 3d 4b 3d 26 40 29 3c 33 f9 36 bb
       0.0018048363 0.04961877 0.010330236 -0.002791953
0001d0 a6 41 73 3d b1 9e 83 bc e5 96 c2 3c 4d 82 49 bd
       0.05938878 -0.01606688 0.023753593 -0.04919653
0001e0 3b a8 aa bc 04 7f 43 3c 5f 4a 06 bc 2a c2 8b bc
       -0.020832172 0.011932138 -0.008196442 -0.017060358
0001f0 03 c7 29 bd e8 8b 14 bc d0 e6 69 bc df 99 f5 bc
       -0.041449558 -0.009066559 -0.014276221 -0.029980598
000200 4b 78 3b bd 7a 0c f5 bc 09 2f 8a bc 04 b3 8d 3d
       -0.045769017 -0.029913176 -0.016868131 0.0691891
000210 9b dc 77 bc ca 58 fc bc f1 ee e5 3c 68 e8 13 3d
       -0.01512828 -0.030804057 0.028068038 0.03611031
000220 f2 7d c8 bc 07 af 2b 3d e9 64 0a bd 9a 5c d9 bc
       -0.024474118 0.041914966 -0.03378764 -0.026533414
000230 b4 fb c2 3c 92 b2 5b 3c b0 a5 b0 3b 9f 78 e7 3c
       0.023801662 0.013409274 0.0053908452 0.028255759
000240 52 ed e6 3b 3a 1d bd 3c 7e 43 24 bc 40 e2 77 bc
       0.0070473338 0.023085225 -0.010025857 -0.015129626
000250 0b 74 f4 3c bd f7 21 3c 10 00 6d 3d f6 94 24 3c
       0.02984049 0.009885726 0.057861388 0.010045281
000260 a4 32 97 3c fb 42 61 bd 2a 6d 67 bc b9 4a 0f bd
       0.018456765 -0.05499552 -0.014125148 -0.03498337
000270 5c fc a0 3b c4 fd fe 3b 35 f6 30 3c 0d 9b ed bb
       0.004912896 0.007781716 0.010800888 -0.0072511495
000280 86 e6 11 3d 9e d1 c0 bc b4 21 69 3d fc 2e aa bc
       0.035620235 -0.023537453 0.056916907 -0.020774357
000290 00 27 56 bd 96 d4 2f 3d 20 d5 80 3b 92 b7 66 3c
       -0.052283287 0.042927347 0.0039316565 0.0140818525
0002a0 70 5e 66 bc a7 89 ce 3c 3b 6a dd 3c e0 c4 bd 3d
       -0.014060602 0.025212122 0.027028194 0.092660666
0002b0 1b 6f 17 3d 4c 9e 78 bd 2c 5a 5a 3d 1e 78 e4 3c
       0.036971193 -0.06069784 0.05330865 0.027889308
0002c0 2a 86 45 bc dd 8c 55 3d 22 69 ca bc 64 56 e5 3c
       -0.012055913 0.05213629 -0.024708334 0.027995296
0002d0 73 ca e0 bc 0a 2e f6 3c 4f c7 a6 3a 56 28 43 3d
       -0.027440285 0.03005125 0.0012724194 0.04764589
0002e0 fc 58 69 3d 36 fd 97 3d c8 ab 2c bd 9c 45 ba 3c
       0.056969628 0.07421343 -0.04215601 0.02273827
0002f0 0e 42 c5 3b e3 74 bf 3c 2f c2 00 bc 2c e7 9b bc
       0.006019837 0.023371166 -0.007858797 -0.01903113
000300 e3 ef a2 3c e8 b6 8a 3c b4 bd 1f 3b 9b 86 4e bc
       0.019889778 0.01693292 0.0024374546 -0.012605335
000310 76 28 26 3c b0 10 fe 3a 2e 5b bc 3d a9 3e 4d 3c
       0.010141483 0.0019383635 0.09197079 0.012527146
000320 80 ce db 3b bd 75 25 3d 3f d4 41 3d a8 0c f9 bc
       0.0067079663 0.040395487 0.047321554 -0.030401543
000330 91 01 e1 3c e7 89 c3 3c dc da ac 3c a9 72 9d 3c
       0.027466567 0.023869468 0.021100454 0.019219713
000340 a4 e9 bc 3d 10 f1 47 3d 60 72 0a 3d 5f 49 7a 3c
       0.09224251 0.04881388 0.033800483 0.015276282
000350 ab 0e e6 3c 7a 7f 91 3d e0 70 80 3d 48 ce 75 3d
       0.028083166 0.07104392 0.06271529 0.06001118
000360 d9 7c 6c bd df 4d 3f 3c d5 ef c0 3c 15 7d 20 bd
       -0.05773625 0.011676281 0.02355186 -0.039181788
000370 c4 f6 d9 bc 01 09 81 3a f0 ba 4a bd ce 2a e1 bb
       -0.026606925 0.0009844602 -0.049494684 -0.006871558
000380 bc 59 04 3c c6 32 bf bc 2b 03 82 bb 2b 3c e0 3c
       0.008078035 -0.02333964 -0.003967663 0.02737244
000390 01 a4 b3 3b 7a 10 19 3d 37 9d 82 3c e5 ff d9 bc
       0.0054821973 0.03736923 0.015944107 -0.026611278
0003a0 1b f5 07 3d 73 b0 ff 3c 45 53 4b bd 63 c9 bd bc
       0.033192735 0.031212067 -0.04963996 -0.023167318
0003b0 ba 23 1e 3d 08 a1 82 bd e3 72 bc 3b a1 8c 17 3c
       0.03860829 -0.063783705 0.0057510003 0.009249837
0003c0 b1 f5 95 bd 0c b7 fd 3c 9e bb 4d 3d ef 9c f6 bb
       -0.073222525 0.030971073 0.050227754 -0.007526032
0003d0 77 de 4a bd 17 7f da bc 9b 22 8f bc 88 83 ff 3a
       -0.049528565 -0.02667193 -0.017472556 0.0019494155
0003e0 a5 b7 8c 3c f9 60 34 3c 99 49 22 3d cb 62 7a 3c
       0.017177412 0.011009448 0.03962097 0.015282343
0003f0 92 e2 f3 3b 70 66 ee 3b 32 8a 59 bd 3b f3 4d bd
       0.007442781 0.007275395 -0.05311031 -0.05028079

bias f4 [32]
000000 7a 8c cc 3c 0c ba 0e bc dd 8b 22 3d 10 8e 9a bc
       0.024969328 -0.008711349 0.039684165 -0.018866569
000010 eb cc e9 bb f6 96 d8 3c d5 6b 5b bd 42 d1 9d 3c
       -0.007135024 0.026439171 -0.053569634 0.019264821
000020 63 bc 48 bd 9e 24 09 bd 02 ad 97 bc 59 6a c5 bc
       -0.049007785 -0.033482186 -0.018515114 -0.024098562
000030 0c b6 2a bd ca 89 a8 bb fe bb 17 bd 19 2d 1a bd
       -0.04167752 -0.005143379 -0.037044518 -0.037640665
000040 dc b4 33 bd 7d 89 dd 3c 56 50 39 bd 80 d8 f6 3c
       -0.043873653 0.027043099 -0.04524263 0.030132532
000050 99 94 10 3d f6 60 07 3d 5a 0c 7c 3d f9 c8 58 3d
       0.035297964 0.033051454 0.061535217 0.052926037
000060 07 c3 f0 bb ba 8d 13 3c ea a8 38 3d 57 18 65 bd
       -0.007347468 0.009005958 0.045082964 -0.055931415
000070 10 40 92 3c f4 34 0d 3b ff 84 48 bd b6 19 98 3c
       0.017852813 0.0021546455 -0.04895496 0.018566947

weight f4 [32]
000000 d0 65 78 3f 88 1e 71 3f 3f 1d 81 3f 8a ca 84 3f
       0.97030354 0.9418721 1.008705 1.037431
000010 97 a2 7e 3f a3 c8 81 3f b1 3e 76 3f 16 68 85 3f
       0.9946684 1.0139354 0.9618941 1.042239
000020 3f bb 84 3f d6 13 7e 3f a6 89 87 3f 20 b6 7a 3f
       1.0369643 0.9924902 1.0588882 0.9793415
000030 7a 7d 84 3f 3b 04 77 3f f9 14 79 3f d5 f7 86 3f
       1.0350792 0.9649083 0.97297627 1.0544382
000040 8a 8d 81 3f 8f db 83 3f 83 26 7a 3f e8 b0 83 3f
       1.0121319 1.0301379 0.97715014 1.0288363
000050 6e 35 7a 3f 3c df 85 3f dc 29 83 3f 7e d3 78 3f
       0.9773778 1.0458751 1.024715 0.9719771
000060 73 08 80 3f 53 73 7d 3f be c1 87 3f 80 84 7d 3f
       1.0002578 0.99004096 1.0606 0.99030304
000070 fc 20 74 3f d6 67 80 3f 82 6a 82 3f 05 08 82 3f
       0.9536283 1.0031688 1.0188754 1.0158697

bias f4 [32]
000000 d2 49 d0 bd a1 c0 17 be 6e c2 78 bd 77 91 37 be
       -0.1017033 -0.14819576 -0.060732298 -0.17926584
000010 05 91 55 3d 34 de 5b bd 22 65 2e be f9 bb 8b bd
       0.052140255 -0.053678706 -0.17030767 -0.06822962
000020 94 23 25 bd 8b 99 06 bd 50 28 98 bd fe 73 f5 bd
       -0.040317133 -0.032861274 -0.07429564 -0.119850144
000030 f5 f1 2d be 0a 82 e4 bd 2f c8 a2 bd 05 a3 43 bd
       -0.1698683 -0.111576155 -0.07948338 -0.04776289
000040 e9 a7 f3 3c 48 bf 10 be 5d f5 18 be 5a d6 8c bd
       0.029743152 -0.14135468 -0.14937349 -0.06876822
000050 75 6f 91 bd f3 68 a6 ba 83 df de bd eb db b4 bd
       -0.07101337 -0.0012696072 -0.10882475 -0.088310085
000060 ab 8f ba bd e0 83 03 bd d0 7d 03 bd 8a 83 72 bd
       -0.09109434 -0.032108188 -0.032102406 -0.059207477
000070 ef e9 29 bd 97 ed f4 bd fd 18 8d bd 2d ea 7e bd
       -0.041482862 -0.11959379 -0.06889532 -0.062235046

running_mean f4 [32]
000000 09 fc 8b 3e 44 4b 3a bd 11 10 e8 be df 46 29 be
       0.27340725 -0.045481935 -0.45324758 -0.16530941
000010 ff 98 e1 be d9 ae b8 be 49 44 f4 3d 15 bf 9b bb
       -0.4406204 -0.36070898 0.11927087 -0.0047530034
000020 c4 89 f1 be 54 56 c4 be ab e9 bd 3d 40 56 64 bf
       -0.4717542 -0.38347113 0.09273084 -0.8919411
000030 70 d5 94 bc d5 d1 b0 be b8 11 c2 bd 5e 80 c7 3d
       -0.018168181 -0.3453509 -0.09476036 0.09741281
000040 db 63 40 be 90 c2 40 be 98 1c 0e bf c8 7a 30 bd
       -0.18788092 -0.1882422 -0.5551238 -0.043085843
000050 93 8c e9 3e 4e 0e 01 bf 4d 9d 21 bf f8 d3 1b 3e
       0.45615062 -0.5041245 -0.63130647 0.15217578
000060 ff 85 9f 3d 39 d6 5c 3d 81 1d cd be 45 e5 03 bf
       0.077892296 0.053915236 -0.40061572 -0.5152171
000070 81 7c 22 bd 86 9c bc be 5b 0b b0 be fe 2b 26 3e
       -0.039669517 -0.36838168 -0.34383664 0.16227719

running_var f4 [32]
000000 57 a6 78 3e bd 9e 10 3e 77 b5 69 3e a8 ac 1d 3e
       0.24282204 0.14123054 0.2282313 0.15397894
000010 d8 d4 50 3e 77 7e 87 3e a9 61 59 3e 68 0d 46 3e
       0.20393693 0.26463673 0.2122866 0.19341052
000020 3f 33 bc 3e 28 37 b8 3e 6e 4a e3 3d 79 78 be 3e
       0.36757848 0.3597958 0.11098181 0.37201288
000030 18 a7 70 3e d1 40 4a 3e a0 af 10 3e 99 f8 51 3e
       0.23501241 0.19751288 0.14129496 0.20504989
000040 90 85 82 3e f0 bc d9 3e c2 98 90 3e a6 18 6b 3e
       0.25492525 0.4252696 0.28241545 0.22958621
000050 5a dd a3 3e 54 85 c1 3e 4b dc 0a 3f 3f f9 ca 3d
       0.32004815 0.37797034 0.5424239 0.09910821
000060 bc f8 8b 3e d4 33 cd 3e f7 e9 8c 3e 2d 62 83 3e
       0.27338207 0.40078604 0.2752225 0.2566084
000070 e1 7d 28 3e a0 92 14 3e 2e e0 7a 3e 4b 42 e7 3d
       0.16454269 0.14509058 0.2449958 0.11291941

weight f4 [32, 32, 3, 3]
000000 16 58 b1 3c 08 33 18 3b 2f 6e 6f 3b 2f e6 05 3d
       0.021648448 0.0023223776 0.003653418 0.032690223
000010 c5 a4 c3 bc 84 3f 36 3c 27 a6 0b 3d 52 72 82 bc
       -0.02388228 0.011123542 0.034094002 -0.015923653
000020 12 e0 86 bc f7 74 8f 3c 0e 4d 03 3d 70 44 ff 3c
       -0.016464267 0.017511828 0.032055907 0.031160563
000030 a7 63 48 b9 cd 75 ee ba ba 49 48 bc 28 c5 08 3d
       -0.0001911061 -0.0018193066 -0.012224609 0.033391148
000040 89 42 26 3c e3 bb 43 3d bf 14 08 3d dc 03 69 bc
       0.010147699 0.047786605 0.03322291 -0.014222112
000050 10 3e 54 3c bb 8e 89 3d ac ee 59 bc 6a 1a 57 bc
       0.01295425 0.06716677 -0.013301533 -0.013128856
000060 c2 f3 24 3d a3 53 cc bb f2 ea b5 bc e6 93 1a 3d
       0.040271528 -0.006235556 -0.022206757 0.037738703
000070 60 e2 d6 3c ad e3 b6 bc 6d 4d 92 3d cd b7 ef bc
       0.02623099 -0.022325361 0.07143674 -0.029262448
000080 e8 f2 a1 bc 9f 17 e6 3d 80 e9 fe 3c 32 d5 37 3d
       -0.019769147 0.11234974 0.0311172 0.044881053
000090 a0 ad 54 3d cd 6e ba 3d 9e cc c2 bc 76 0f 27 bc
       0.051923394 0.09103165 -0.02377921 -0.010196557
0000a0 42 24 f1 3c 73 6b 41 bc bc 97 df 3a 67 6a 1c 3d
       0.029436234 -0.011805403 0.001705877 0.03818741
0000b0 2e f5 7d 3d e0 2a 91 3d ac 9d 52 3c 26 71 3a bd
       0.0620014 0.07088256 0.012854975 -0.045518063
0000c0 cb c9 a5 3d f8 be aa 3c 80 90 31 bd fc 8c ee 3d
       0.080951296 0.020843014 -0.043350697 0.116479844
0000d0 b8 31 1a 3d 39 76 26 bd 3d fa b4 3b 14 d8 9a bb
       0.03764507 -0.04064009 0.005522995 -0.0047254656
0000e0 c1 f5 83 bd 56 b3 98 b8 8f ec b5 bc 74 83 87 bc
       -0.06443358 -7.281329e-05 -0.022207526 -0.016542174
0000f0 a5 4c fd 3c 88 0b 93 bc fe 5f 79 bc 17 79 8e bc
       0.030920336 -0.017949834 -0.01522064 -0.017391725
000100 34 4a 31 3c 35 8f 16 bd a4 96 97 bc a1 73 a0 3c
       0.010820914 -0.036757667 -0.018504448 0.019586386
000110 6e 1b 4c bd 2f c8 41 bb fc 31 8b 3d c0 0d 87 ba
       -0.049830846 -0.0029568782 0.06796643 -0.001030378
000120 91 38 37 3d 76 61 3a 3d 0a 38 a7 3c cc 65 8c 3c
       0.04473168 0.045503102 0.020412464 0.017138384
000130 df bb 02 3d 03 c8 cc bb 44 fd 1f 3c 1b 7f 60 3c
       0.03191745 -0.006249429 0.009764973 0.013702179
000140 ae c6 f5 bb 9f 0a 62 bc 70 57 4c 3d 05 c0 b1 3c
       -0.007500491 -0.013796478 0.049888074 0.021698007
000150 a5 b8 65 bd 37 b0 98 3c ee c9 9f 3c 9d 33 fa bb
       -0.056084294 0.018638713 0.019505467 -0.0076355473
000160 17 bc 0f 3d a6 50 84 3d 14 02 0e 3d 14 40 d5 3a
       0.035091486 0.06460695 0.03466995 0.0016269707
000170 27 04 94 3c f3 b4 a1 3d 69 c3 12 bc 56 9e 6c bd
       0.018068386 0.078958414 -0.008957722 -0.05776819
000180 26 3d fb 3c ad a7 67 3b 00 31 75 3d 1d 39 a8 bc
       0.030668806 0.0035347745 0.059861183 -0.020535046
000190 46 b3 33 bd a3 c7 8a bc 3d 9f ed bc 82 19 73 bd
       -0.04387214 -0.016940897 -0.029006595 -0.059350498
0001a0 dc 07 b1 3c 7a f4 e2 bc ff 6c a0 3b 21 b9 31 3d
       0.021610193 -0.027704466 0.004895806 0.043389443
0001b0 83 09 02 bd d0 35 da bc e1 07 31 bd a4 d1 b0 bc
       -0.031747352 -0.026636988 -0.043220405 -0.02158434
0001c0 41 a7 49 bc 91 b4 98 bd 37 91 97 3c 82 d6 14 bd
       -0.012307943 -0.07456315 0.018501861 -0.036337383
0001d0 06 40 06 bc 9d 18 9d bc 8b fa bd bb 02 a4 52 3d
       -0.008193975 -0.019176776 -0.0057976893 0.05142594
0001e0 d4 a1 c2 bc 57 ae 68 3a 88 8b f2 ba 04 75 d2 bc
       -0.023758806 0.00088760763 -0.0018504718 -0.025690563
0001f0 08 5f aa 3c df d8 15 3d d2 4a fb 3c 39 60 01 3d
       0.020797268 0.036583778 0.030675326 0.031585906
000200 98 f0 29 3d 9b cd 16 bd dd d7 e5 bc 8f 0d 07 bc
       0.041489214 -0.036817174 -0.028057033 -0.008242979
000210 43 18 93 3c 6f 78 d8 3c 7d 7c c0 bb be 0a 6f bb
       0.017955905 0.026424615 -0.005874215 -0.0036474909
000220 08 a1 56 3d 58 5f c4 3c fe c5 d2 bc 14 25 79 3d
       0.052399665 0.023971245 -0.025729176 0.060826376
000230 4a 07 d8 3c e5 d3 95 bc 4b a0 86 3c 0d e3 8b bc
       0.026370663 -0.018289516 0.016433856 -0.01707604
000240 de cc 75 3c df cd ac 3c 8f 2b e4 ba 07 12 99 3b
       0.015002457 0.02109426 -0.0017408001 0.0046713385
000250 7e 27 1a bb f2 83 fa bc dd d3 4c 3d be 44 83 3c
       -0.0023522074 -0.030580495 0.050006736 0.01602399
000260 c7 a5 4d 3c 5e 1c 23 bc b3 57 34 bc 27 58 3b 3d
       0.012551731 -0.009955494 -0.011007237 0.045738366
000270 4f 3b 88 bc 39 90 60 3c 7d 4c 8a bd 2d 3e 0c 3c
       -0.016629843 0.01370626 -0.0675287 0.008559746
000280 7f 66 86 bd 8d 17 3e bd 37 3f 1e 3d 0e 55 0a 3c
       -0.06562518 -0.04640918 0.038634505 0.00844313
000290 92 56 de bc fa 27 1b 3c 18 da 74 bc a5 52 38 bd
       -0.02714089 0.00946998 -0.014944576 -0.04500069
0002a0 92 e4 5c bc ef 6b ef bb 9e 33 9d bd 1c fa 06 bd
       -0.01348223 -0.007306568 -0.07675861 -0.032953367
0002b0 65 20 d3 3b 64 3f 00 bd ec f8 f8 3b 6b dc c4 3c
       0.0064430707 -0.031310454 0.007598033 0.024030885
0002c0 8b 39 db bb 0d 1e 18 bc 68 a0 cf 3a d2 0c 07 3d
       -0.0066902093 -0.009284508 0.0015840651 0.03297121
0002d0 ae 38 fa 3c fb a4 82 3c 02 1a 2a bd ef fc 01 3d
       0.030544605 0.01594781 -0.04152871 0.031735357
0002e0 3a a0 13 bc 16 d9 44 3c 55 c1 6a 3d 6a c2 1d bc
       -0.009010369 0.012014648 0.057313282 -0.009628871
0002f0 dd 5b f3 bc 35 27 01 3d 5e b5 6e bd 39 31 13 bd
       -0.02970689 0.03153153 -0.058278434 -0.035935614
000300 f1 59 98 3b b1 9f 24 bd f0 cf f2 bb 88 1e 2b 3b
       0.0046493937 -0.040191356 -0.007410042 0.0026110727
000310 69 d3 d4 bc fb a0 25 bc c8 e6 05 bd 79 a8 52 bd
       -0.025979714 -0.0101091815 -0.032690793 -0.0514302
000320 09 59 8a bc d9 d6 5f bd 74 08 9a bc e9 c6 98 3a
       -0.016888158 -0.054648254 -0.018802859 0.001165596
000330 be 48 0e bd 1b d8 78 3c 7e 41 27 3d 31 a2 f8 b9
       -0.03473734 0.015188242 0.040833943 -0.00047423088
000340 13 fc 3a 3d 93 b5 04 3d 68 7b 1f bc d0 e0 53 3d
       0.045650553 0.032399725 -0.009734012 0.05172807
000350 4f ee 83 bb 3e d4 c4 3b 80 20 5d bc 08 89 d3 ba
       -0.0040262113 0.0060067466 -0.013496518 -0.0016138861
000360 49 03 36 3c 98 3a 0a 3c 55 ed 85 bd 24 fb 35 3d
       0.011109182 0.008436821 -0.06539408 0.04442896
000370 2f 97 bb bb c1 33 86 bd f1 c8 32 3b a2 4a 93 3c
       -0.0057248096 -0.0655284 0.0027280415 0.017979924
000380 d9 d9 95 bd eb e1 b5 3b 78 85 f6 bb 58 91 2b bc
       -0.07316942 0.005550613 -0.007523235 -0.010471664
000390 14 5f bc 3b 20 5d f7 bc 3f 43 6f bc 61 0c 04 bd
       0.005748639 -0.030195773 -0.014603435 -0.032238368
0003a0 78 77 42 bc 75 0c 41 3c 99 ac 5e 3d 34 87 72 3d
       -0.011869304 0.011782755 0.05436382 0.05921097
0003b0 11 3a 3b bd d6 60 a4 3c aa 5a ed 3c de a6 ea bc
       -0.045709673 0.020065706 0.028973896 -0.028644022
0003c0 4a f9 4d 3d eb 69 d1 3b 0e ee 15 bd d8 b0 07 3c
       0.05028657 0.0063908002 -0.03660398 0.008281909
0003d0 ee ee ae bc f1 34 10 bd 4f 90 8c 3c 08 e0 d3 bc
       -0.021354165 -0.03520674 0.017158655 -0.025863662
0003e0 22 d3 ac bd 94 ed ff bc 0b 98 82 bc 14 2e 99 bd
       -0.08438708 -0.031241216 -0.01594164 -0.07479492
0003f0 c4 0e 8c 3d a2 5f 79 3d 2e 8f 7a bb 92 2e cb b9
       0.06838754 0.06088222 -0.0038232314 -0.00038753875

bias f4 [32]
000000 f3 ab 2b bd 4e 28 08 bd 04 2f 4d 3d 5d f1 6e bd
       -0.04191203 -0.033241563 0.050093666 -0.05833565
000010 98 b8 a1 3c 53 4d b4 bc 55 5d 95 bc 10 75 a1 bc
       0.019741341 -0.022009527 -0.01823298 -0.01970914
000020 86 2f b5 3b 91 72 d1 3c 02 75 06 bd ba b3 54 bd
       0.005529347 0.025567325 -0.03282643 -0.051929213
000030 01 8d 27 bd 11 5b 73 bd fd d8 b3 bc 76 68 1d 3d
       -0.040905956 -0.05941302 -0.021954054 0.0384297
000040 a6 e4 21 3d 24 19 a8 bc 5e a7 e0 bc 0b 56 54 bd
       0.039524697 -0.0205198 -0.027423557 -0.05183987
000050 d3 aa 7b 3d 8a 38 60 3d 3d 14 47 bc 63 78 e2 3c
       0.061442208 0.05474142 -0.012150821 0.027645295
000060 10 f1 79 3c 27 e7 63 3c 79 37 d5 bc 51 9a 59 3d
       0.015255228 0.0139100915 -0.026027428 0.053125683
000070 01 a6 f7 3b ca b9 56 3d 65 04 71 bc 51 47 3a 3d
       0.007557631 0.052423276 -0.01471052 0.04547817

weight f4 [32]
000000 22 61 7c 3f 99 91 7e 3f d7 7c 83 3f b9 76 80 3f
       0.9858571 0.99440914 1.0272473 1.0036231
000010 7a 3b 87 3f 4e 3f 86 3f 4c 70 71 3f 1f e3 77 3f
       1.0565026 1.0488069 0.94311976 0.96830934
000020 f0 4d 7f 3f cc e7 7f 3f 15 b4 80 3f 78 b4 79 3f
       0.997283 0.9996307 1.0054957 0.97541
000030 b4 d7 74 3f 05 b6 77 3f 93 22 83 3f 33 28 83 3f
       0.95641637 0.96762115 1.0244926 1.0246643
000040 d3 a6 7d 3f 77 5c 7e 3f 7b 79 81 3f 66 27 83 3f
       0.9908268 0.9935984 1.0115198 1.0246398
000050 3d 8e 80 3f dd f9 82 3f 08 62 82 3f c3 c5 86 3f
       1.0043408 1.0232502 1.0186167 1.0529102
000060 33 06 83 3f 32 2c 7c 3f f0 22 80 3f e8 2c 82 3f
       1.0236267 0.98504937 1.0010662 1.0169954
000070 7a 94 89 3f 7d 68 7d 3f db 6a 82 3f 95 29 81 3f
       1.0748436 0.9898756 1.018886 1.0090815

bias f4 [32]
000000 a8 4a 24 be b4 b7 f3 bd 81 a8 10 be 54 d2 5e be
       -0.16044104 -0.11900273 -0.14126779 -0.21759921
000010 e3 e9 30 be 0c b7 13 be e3 36 07 be 42 e6 14 be
       -0.1727672 -0.14425296 -0.13204531 -0.14540961
000020 ba 7d 1b be ba fb ec bd a9 c1 e2 bd 71 32 8c bd
       -0.1518468 -0.115714505 -0.11072094 -0.068455584
000030 cf fb c9 bd a4 e9 4d be ca 8e 3f bd 71 7b e8 bd
       -0.09862482 -0.20108658 -0.046767034 -0.113516696
000040 a9 28 a6 bd a8 c4 73 bd 30 0a 92 be 6a ed f4 bd
       -0.08113224 -0.059513718 -0.28523397 -0.11959346
000050 f6 85 c9 bd e2 04 b0 bd 5c 3c 8f bc 2f 15 8d 3d
       -0.09840004 -0.08594681 -0.017484836 0.06888806
000060 67 6b b1 bd a0 38 66 bd 16 df 4e be 58 be 0e bd
       -0.086630635 -0.056206346 -0.20202288 -0.034849495
000070 2d 2d 24 bc 37 f8 0f be ac ca 11 bd f1 43 58 bc
       -0.010020536 -0.1405953 -0.035593674 -0.013199792

running_mean f4 [32]
000000 1d fc 4a 3e 84 b8 96 be 10 33 68 3e 3e 68 2f be
       0.19822736 -0.2943765 0.22675729 -0.17129609
000010 5d f1 c4 bd 90 bb ae 3b af 61 96 be cc 64 6a bd
       -0.09616349 0.005332418 -0.29371402 -0.057225034
000020 7d 30 fd bd 34 80 0f 3f 39 18 3d be 97 e0 9c bd
       -0.12362764 0.56055 -0.18466271 -0.076600246
000030 9e ba 61 3c 4c d2 83 3e 92 6a cb be be 29 4f 3d
       0.013777403 0.2574638 -0.39729744 0.050576918
000040 b8 8e 88 be aa 6e 48 be e4 cd 1d be b8 d3 23 be
       -0.26671386 -0.19573465 -0.15410572 -0.15998733
000050 b5 57 e0 be 33 77 35 bf 53 38 df 3d bc d9 07 be
       -0.43816915 -0.7088501 0.10899415 -0.13266653
000060 1c c4 b0 bd 8a cc 85 ba 9a 89 04 be 1d aa b2 bd
       -0.08631155 -0.0010208052 -0.12943116 -0.08723853
000070 81 1c e6 be 60 6e cc bd 87 49 a1 bd a5 d9 01 be
       -0.44943622 -0.0998199 -0.07875352 -0.12680681

running_var f4 [32]
000000 c7 2f 81 3e e0 58 46 3e c1 25 64 3e 6a 1e 25 3e
       0.25231764 0.1936984 0.22280027 0.16124883
000010 99 b0 2e 3e ec 7c 41 3e 71 de 77 3e e2 35 8b 3e
       0.17059554 0.1889531 0.24205948 0.27189547
000020 f3 b9 10 3e 74 d3 0f 3e bd ac 0e 3e 13 76 49 3e
       0.14133434 0.14045507 0.13933082 0.19673948
000030 eb 9f ef 3e 22 40 1d 3e a2 1e 39 3e b3 98 84 3e
       0.46801695 0.15356496 0.18078092 0.2589775
000040 3f 5c 0a 3e 0a 46 71 3e d9 9e b2 3d d8 cb 3a 3e
       0.13511752 0.23561874 0.08721704 0.18241823
000050 fa 39 26 3e 72 38 a3 3e 75 19 d2 3d 40 c5 d6 3d
       0.16233054 0.31879002 0.10258762 0.10486841
000060 a5 2f 24 3e 0d 54 40 3e 81 07 3d 3e 99 95 8c 3e
       0.160338 0.18782063 0.18459894 0.27457884
000070 46 93 30 3e 7b 9c 69 3e 1a 8e 23 3e a1 5b 00 3e
       0.1724368 0.22813599 0.15972176 0.12534954

weight f4 [32, 32, 3, 3]
000000 2e a8 95 3c d4 57 a1 bc dc 29 f2 bc 17 eb da 3c
       0.01826867 -0.0196952 -0.029560976 0.026723428
000010 dc 79 b3 bc ca 6b 2b bd 83 75 b4 3d 16 a6 6f 3d
       -0.021908693 -0.041850843 0.08811476 0.058508
000020 d9 5d 30 3c b6 5e 2c bc 5b 25 54 3a 55 83 50 bd
       0.0107645625 -0.010520628 0.00080927246 -0.050906498
000030 cc db 30 3d 43 8e 6e 3a d9 b1 de bd 53 e4 a8 3d
       0.043178365 0.0009100178 -0.108737655 0.082466744
000040 58 17 f4 bb 97 2e 77 bd 7d ce 96 bb b6 f8 a1 39
       -0.007449072 -0.060347166 -0.004602252 0.00030893617
000050 f2 f4 78 3b eb 8c 6d 3d 6f ca 1c bd 12 5c a1 bc
       0.0037987796 0.057995718 -0.038278993 -0.019697223
000060 af 33 5f 3c d7 e9 23 3d 56 41 35 3c 2e 9f 8c bd
       0.013623162 0.04001793 0.011062941 -0.068662986
000070 1f 88 8d bd 40 11 b4 bc 25 ab 30 bd ad f9 2e bc
       -0.06910729 -0.021980882 -0.043131966 -0.0106796445
000080 83 94 62 bc 55 f1 e5 3a d3 22 69 bd 5b 67 6e 3c
       -0.013829353 0.0017543236 -0.056917977 0.014551009
000090 8b 58 71 bd de 78 28 3c 72 1b b2 3a 3d a9 32 bb
       -0.05892233 0.010282723 0.0013588502 -0.0027261518
0000a0 33 c8 41 bc 8a f8 d7 bc d5 d4 3a bd de c7 2f bd
       -0.011827516 -0.02636363 -0.04561313 -0.042915218
0000b0 b9 6e 48 bb 4e b8 20 bb 89 01 3b bd e0 92 b5 3c
       -0.0030583574 -0.0024523917 -0.04565576 0.022164762
0000c0 9c 0d 1b 3d ca 52 fb 3c e6 6f 02 bd 2b 4a ae bb
       0.037854776 0.030679125 -0.031844996 -0.0053189
0000d0 59 4c 17 bd 65 f5 37 bb f1 90 97 bd 61 d2 2f bd
       -0.036938045 -0.002806985 -0.07400692 -0.042925242
0000e0 13 b3 ce bc db bc 84 bd e9 c9 19 bd 95 2c 0e bc
       -0.025231874 -0.06481334 -0.037546072 -0.008677621
0000f0 f6 8d 54 bd 61 19 57 bd 87 5c 32 bc a9 ab 1c bd
       -0.051893197 -0.052514438 -0.010886318 -0.038249645
000100 04 84 77 bc d4 81 4b bc 46 f9 55 bd be b8 f8 bc
       -0.015107159 -0.01242109 -0.05223968 -0.03036153
000110 b8 2d 2f bc c6 41 8d bd 36 2c 92 bc f5 c7 4d bc
       -0.010692053 -0.06897311 -0.017843347 -0.0125598805
000120 c8 c4 1a bd 07 41 c5 bc a9 f7 05 bc bd 38 32 ba
       -0.03778532 -0.024078859 -0.008176723 -0.0006798616
000130 d9 c6 f7 3b 14 6e 4f 3c b7 49 b2 bd 92 28 5c 3b
       0.0075615463 0.012660522 -0.08705466 0.0033593518
000140 30 a8 4b bb 92 03 1f bc 8a f8 ff bb 3a 3f f9 bc
       -0.003107559 -0.009705441 -0.0078116106 -0.030425657
000150 f1 52 62 3c 1a e4 f8 bb ce d8 b9 bc bb 11 af 3c
       0.01381372 -0.007595551 -0.022686388 0.02137076
000160 50 62 18 bd fb 5a 18 bd 3b bb b2 bb 6f fb 8e bc
       -0.037203133 -0.03719614 -0.0054544485 -0.017453877
000170 56 e8 06 3d 16 73 9d bb 8e 21 30 bd dc d4 28 3d
       0.032936417 -0.004804979 -0.04300075 0.041218624
000180 67 71 01 bd 66 a5 56 bd 9e 60 0e 3d b2 a1 4d 3c
       -0.03160229 -0.05240383 0.03476011 0.012550758
000190 a6 87 36 bb 3f f5 44 bd f2 5c 23 bc 0c c1 bb 3d
       -0.002785185 -0.048085447 -0.00997089 0.0916768
0001a0 bf b9 80 3c 00 16 28 3c b1 87 82 3d 12 48 27 3d
       0.01571357 0.010259151 0.06373537 0.040840216
0001b0 5e 22 8b bd 02 93 a0 3a 7f 12 1b bd d1 16 84 3c
       -0.067936644 0.0012250843 -0.037859436 0.016124161
0001c0 4d 02 b2 3c 9f d7 bf bc 9f 20 4f bc 1d 47 cd 3b
       0.021729613 -0.023418246 -0.012642055 0.006264581
0001d0 c6 a9 0f 3c b8 39 df bb ab 8d a9 bd 1f 9d 3f bd
       0.0087685045 -0.0068123005 -0.08278974 -0.0467807
0001e0 2a 0d 50 bb ba bd 0d bc b0 a4 9c 3b fb 98 80 bd
       -0.0031746128 -0.008651191 0.0047803745 -0.06279179
0001f0 b0 df f7 b9 f4 04 69 3d 6e bb de bb 46 a6 77 bc
       -0.0004727817 0.05688949 -0.0067972457 -0.015115326
000200 72 40 f1 3c 1a b2 2f 3d ea 36 35 3c 2b 8e 8d 3d
       0.029449675 0.04289446 0.011060456 0.06911882
000210 a7 af 91 bd 90 dc 4f 3c 01 b7 ac 3b df cc 2e bd
       -0.07113581 0.012686864 0.005270839 -0.04267585
000220 ae f7 59 3d 58 e0 30 bc 82 51 79 bd 63 27 dd bc
       0.05321472 -0.010795675 -0.060868748 -0.02699632
000230 e6 fe 34 bd 5f e5 a0 bc 94 8c e4 bc ec ad 83 bd
       -0.044188403 -0.019640623 -0.027899064 -0.06429657
000240 2e 2c c2 3c d6 f0 49 3d e6 97 a3 3d d5 17 0a 3d
       0.023702707 0.049301945 0.07987957 0.033714134
000250 61 33 0d bd 5b 29 88 3d e9 71 70 bb 9f 63 8a bc
       -0.034472827 0.06648513 -0.003668899 -0.016893206
000260 ac 25 e4 bc 86 d4 1d 3d 25 fa 97 bc da b5 8b bb
       -0.027849995 0.038532756 -0.018551895 -0.0042636218
000270 7d ff 9b 3c 7d 78 63 3d ec 01 63 bc 1b c3 09 3d
       0.019042725 0.05553483 -0.013855439 0.033633333
000280 6f 17 7b 3c 2e 60 d4 3b ae 12 d9 3d 5c a4 ee bc
       0.015325411 0.006481192 0.10599266 -0.029131107
000290 7a 02 e9 bc 9b aa 69 3d 0f 31 61 3c 12 d3 8a bb
       -0.028443564 0.057047468 0.013744607 -0.0042365873
0002a0 9c 62 5c 3d da c3 c9 3a 0d 2a 73 3d 06 b1 01 3d
       0.05380498 0.0015393451 0.059366275 0.031662963
0002b0 b3 24 1e bd 63 0e ab bd 13 4f 22 3d 14 4b 98 bd
       -0.038609218 -0.083523534 0.039626192 -0.07436195
0002c0 28 3e 0a bd cf c2 ae 3c e7 03 f0 ba 64 92 0b b9
       -0.033750683 0.021333126 -0.001831171 -0.00013310608
0002d0 10 47 10 bc 58 72 46 3c c0 58 2e bd 21 7d 14 3c
       -0.008806005 0.012112223 -0.042565107 0.009063036
0002e0 38 a4 d6 bc 33 91 04 bc d7 72 8f 3b e0 60 54 3c
       -0.026201352 -0.008091259 0.0043777036 0.01296255
0002f0 24 d0 da bc 77 d6 79 bc dc c4 87 39 0d 65 91 bd
       -0.026710577 -0.015248886 0.00025895878 -0.07099352
000300 00 af 85 3b b7 bf 63 bc d6 92 34 bc 8e 44 bd 3a
       0.0040796995 -0.013900689 -0.011021337 0.0014439987
000310 4a 7a 5a 3b 89 ca 37 3c 79 d7 07 3c 5c a5 7e 3a
       0.003333705 0.011217722 0.008291119 0.00097139715
000320 bb 10 b2 3d 63 7c 85 bc 19 8b 05 3d e8 eb 2e 3c
       0.08694597 -0.016294664 0.032603357 0.010676362
000330 03 18 bf 3c be ef e2 3b ef 31 d8 bb af e1 b7 bc
       0.02332688 0.006925552 -0.0065977494 -0.022446482
000340 8e 53 fd bc 01 ed e9 bc 6b 51 e3 bc b3 66 a0 3c
       -0.030923631 -0.028555395 -0.027748784 0.01958022
000350 f6 17 1a 39 44 bf 22 bc cd 0e d7 3c f3 7c b7 3c
       0.0001469551 -0.009933297 0.026252175 0.022398448
000360 c3 0f 17 3d 92 42 49 3d 29 f2 a6 3a 5f e5 73 3c
       0.036880266 0.049135752 0.0012736964 0.014886229
000370 be a0 a4 bc cc 9f 8c bb ad 2c f5 bb c6 df 37 bd
       -0.02009618 -0.00429151 -0.0074821324 -0.04489114
000380 b7 a1 1b bd 57 e8 1e bd 48 37 c1 bc 28 b0 0f 3d
       -0.03799602 -0.038795795 -0.02358593 0.035080105
000390 f7 a0 40 bc 0c 39 0c bb a7 3b 06 bd f2 a3 c0 bc
       -0.011757127 -0.0021396307 -0.032771733 -0.023515675
0003a0 98 06 82 bc 30 10 0b 3c ee dd 23 bd d0 b7 91 bb
       -0.015872285 0.008487746 -0.04000657 -0.004446961
0003b0 c8 49 7c bb a1 7c e7 bc 9e 05 0b 3d 5f 94 ad 3c
       -0.0038496125 -0.02825767 0.033940904 0.021188913
0003c0 c4 53 92 bc d6 9d 64 3c 91 e0 8e bd 56 08 71 3c
       -0.017862208 0.013953647 -0.069764264 0.01471146
0003d0 96 02 75 3c 9f 2a 23 3b c8 4a eb 3c 7e 52 3f 3c
       0.01495423 0.002489723 0.028722182 0.0116773825
0003e0 9b e1 c6 3b 8a 29 47 3d 3d a2 48 3c 75 22 6a 3c
       0.0060693747 0.0486236 0.012245712 0.014290442
0003f0 8d bb b1 3c e9 9e e3 39 eb 73 49 3c 50 92 e8 3c
       0.021695876 0.0004341521 0.012295703 0.02839008

bias f4 [32]
000000 91 93 a0 3c c2 d4 0f bd 94 57 26 3c 85 3c c2 bc
       0.019601615 -0.03511501 0.010152716 -0.023710499
000010 42 6d da 3b a2 d2 df 3c 44 9c ab 3c 09 76 cd 3c
       0.0066658566 0.027322117 0.020948537 0.025080698
000020 56 2a 07 3b ce 64 53 3d d4 fb 2c bd f4 f4 2e 3d
       0.00206246 0.051609807 -0.04223235 0.042714074
000030 bc d3 7e bb 46 4b 5a 3d d8 d7 04 bd 16 b2 6d bd
       -0.0038883528 0.053294443 -0.032432407 -0.058031164
000040 3b c1 c1 3c e1 3b 48 bb 40 fd 44 3d 5c f7 e0 bc
       0.02365171 -0.0030553269 0.04809308 -0.0274617
000050 7a bd 24 bd 4c b5 9e bc 6c bc 26 bd 96 90 53 bc
       -0.04021976 -0.019373558 -0.040707037 -0.01291289
000060 52 ad a1 3c 07 81 39 bd 89 7e 1b bc bc 58 41 bd
       0.019735966 -0.045289066 -0.009490618 -0.047203764
000070 75 7e 21 3d d9 9c 26 3c 7a 2c d9 bc 21 a8 5e 3d
       0.03942724 0.010169231 -0.026510466 0.05435956

weight f4 [32]
000000 38 0a 8c 3f bc 16 a9 3f cb 31 92 3f d2 c7 9d 3f
       1.0940619 1.3210063 1.1421446 1.2326605
000010 a4 ce 8b 3f cf 10 8e 3f 35 a8 93 3f 9a 93 91 3f
       1.0922437 1.109888 1.1535708 1.137317
000020 86 c9 8e 3f 27 f4 9c 3f bc 01 94 3f 82 82 95 3f
       1.115525 1.2262009 1.1563029 1.1680453
000030 8a 3a 90 3f be e8 9a 3f 1f d0 91 3f c0 53 92 3f
       1.1267865 1.2102277 1.1391639 1.1431808
000040 e2 79 9d 3f c2 76 8a 3f c0 79 8a 3f 72 a9 8a 3f
       1.2302821 1.0817492 1.0818405 1.0832961
000050 32 d1 95 3f 57 a2 8c 3f f2 73 91 3f fe f0 93 3f
       1.1704466 1.0987042 1.1363509 1.155792
000060 57 18 8e 3f b3 ec 93 3f 18 d4 90 3f b1 7d 88 3f
       1.1101178 1.155661 1.1314726 1.0663358
000070 dc d7 91 3f 86 12 91 3f 5b 7c 95 3f 49 4e 8c 3f
       1.1394 1.1333778 1.1678575 1.0961391

bias f4 [32]
000000 dc 06 09 3d 5a ea 49 3d 8c b8 50 3b 38 84 6f 3d
       0.033453807 0.04929576 0.003184828 0.058475703
000010 28 da 58 bd ec cd 8d 3c 63 df c3 bc b5 c6 cd bc
       -0.052942425 0.017310105 -0.02391023 -0.025119165
000020 df b4 1f bc 8b 7e 6a 3c a2 e6 1b bd c3 ce 9e 3d
       -0.009747713 0.014312397 -0.038061745 0.077542804
000030 92 2c 90 3c 16 cf 8f bc 81 79 23 bd 30 d5 b9 bd
       0.017599378 -0.017554801 -0.039910797 -0.090738654
000040 a7 58 67 bc d9 c1 60 3d d4 c8 28 bd 8b fd c8 bc
       -0.014120257 0.054872368 -0.04120715 -0.024534961
000050 df ab da 3b a7 0b 16 3d 26 62 b1 bc 94 75 66 ba
       0.0066733207 0.036632206 -0.021653246 -0.0008791324
000060 58 a4 a8 3c f0 9b a0 3c fe c1 13 3c dd 2e 84 3c
       0.020586178 0.019605607 0.009018419 0.016135627
000070 26 90 ca bc 48 e9 dd 39 d8 d0 2d 3c 2c eb 3c bc
       -0.024726938 0.00042326213 0.010608874 -0.011530679

running_mean f4 [32]
000000 48 fd 8c be 7e 47 4d be f6 29 e3 bc 69 6d f7 bd
       -0.27536988 -0.20046803 -0.02772997 -0.12081415
000010 70 dc ce be cf ba a2 be ad 3b f5 3e 3b 1c 59 be
       -0.40402555 -0.3178315 0.47897092 -0.21202175
000020 e6 05 3e be df 79 da bd 68 93 81 be 72 7b 76 3e
       -0.18556938 -0.10667776 -0.25307775 0.24070528
000030 a1 29 33 be 94 b7 2e be 74 da 23 bf ed 6b b3 bd
       -0.17496349 -0.17062217 -0.6400521 -0.087608196
000040 b5 85 a7 be 51 b7 18 3f 6f a0 83 3c 5e b8 85 3e
       -0.32719198 0.5965472 0.016067712 0.26117224
000050 33 3d 85 bc f1 43 44 bc 4f d7 fb be 19 a5 91 bd
       -0.016264534 -0.011979089 -0.49187705 -0.07111568
000060 c9 ce 8d be 70 15 be bd f7 0f aa 3e 66 05 19 be
       -0.27696827 -0.09281433 0.33215305 -0.14943466
000070 dd cc 51 be 54 4e a6 3e 55 14 09 3e ab f1 e7 3c
       -0.20488305 0.32481635 0.13386662 0.028313478

running_var f4 [32]
000000 89 60 40 3e d7 01 04 3e 34 2b 63 3e 4d 34 f3 3d
       0.18786825 0.12891327 0.2218445 0.1187521
000010 03 01 85 3e 47 d8 77 3e 51 41 b4 3e e7 35 7a 3e
       0.25977334 0.24203597 0.35206082 0.24434625
000020 ce d4 1c 3e 7d 80 71 3e 29 c4 7e 3e 20 0e 9c 3e
       0.15315554 0.2358417 0.24879517 0.30479527
000030 16 57 59 3e b1 48 13 3e 98 9a da 3e b6 e9 06 3e
       0.21224627 0.14383198 0.4269607 0.13175091
000040 8d 49 40 3e b3 88 91 3e 66 01 61 3e c4 3a 51 3e
       0.18778057 0.28424606 0.2197319 0.20432574
000050 fa e5 43 3e 00 d4 bc 3e 32 c3 90 3e 4d e3 8e 3e
       0.19130698 0.36880493 0.28273922 0.27907792
000060 d3 59 2e 3e e8 e0 3b 3e 02 a7 b0 3e 59 e0 48 3e
       0.17026453 0.18347514 0.34502417 0.19616832
000070 35 0b 2a 3e c0 b7 76 3e a0 49 20 3e db 59 60 3e
       0.16605838 0.24093533 0.15653086 0.21909277
