TuiGAN/models/apple2orange/ab1.pth (torch, 233612 bytes, 46 tensors)

weight f4 [32, 3, 3, 3]
000000 f1 72 27 bd 7b c8 c2 3b ec 42 94 3c cc 72 1c bd
       -0.0408811 0.0059443093 0.018098317 -0.038195416
000010 00 93 15 bb 52 33 a5 bb c2 fc 80 bd 80 68 40 bc
       -0.0022823215 -0.0050415182 -0.0629821 -0.011743665
000020 b5 cc 2b 3d 04 29 6c bd 84 1a d2 bc 54 c4 1a 3c
       0.04194327 -0.057656303 -0.02564741 0.009446222
000030 44 37 4b bd a6 2c 88 bc fa e7 30 3c 7f 39 01 bd
       -0.049613252 -0.016622853 0.010797495 -0.031548973
000040 86 47 f2 3b 7b 8b 71 3d f5 9f 16 bc 29 64 f1 3c
       0.00739378 0.05897091 -0.00919341 0.029466705
000050 1b 28 6d 3d 3f 7e 32 bb f9 6f 56 3b 65 dd 0f 3d
       0.057899576 -0.0027235893 0.003272055 0.035123248
000060 d5 eb d0 bc f9 b8 c4 3c 3d fa 6b 3d 4f b3 e0 3c
       -0.025503078 0.024013983 0.057611693 0.027429251
000070 f5 8d a6 bb 4a d8 f1 bc fc 33 13 bd 61 5c cd ba
       -0.0050828406 -0.02952208 -0.035938248 -0.001566779
000080 e6 d4 e1 3b 47 16 1d 3d dd a5 f2 3b 43 10 82 bc
       0.0068918345 0.038351323 0.0074050264 -0.015876895
000090 c8 fc a3 39 6d 8e 61 3d b3 2d 8c 3d 42 4a ce bd
       0.0003127812 0.05506747 0.06844654 -0.10072757
0000a0 52 63 02 3d e3 05 15 3b 0b 80 54 bc 41 a6 30 bc
       0.031833 0.0022739104 -0.012969981 -0.0107818255
0000b0 36 e5 98 bc f5 2e cd bb 36 61 91 bb 64 2a 9e bc
       -0.018663984 -0.006261701 -0.0044366373 -0.019307323
0000c0 ae 00 19 bd 4f e4 ff ba 53 36 fe bb 82 42 3e bc
       -0.037354164 -0.0019522997 -0.007757941 -0.011612536
0000d0 b6 41 b0 3c 1f 57 4a 39 3f 00 16 bd 31 31 94 bb
       0.021515708 0.00019296676 -0.03662133 -0.0045224656
0000e0 57 53 74 bc ac 21 00 bd af 03 10 ba 65 e8 b7 bb
       -0.014912448 -0.031282112 -0.0005493713 -0.0056124204
0000f0 df d9 7f bd 6c 26 bf bc b4 32 83 bc 65 20 1d 3c
       -0.062463637 -0.02333375 -0.016015388 0.009590243
000100 06 4b e2 ba 2b fa ea bc 10 2b ce 3b 08 4d bb bb
       -0.001726479 -0.028683743 0.0062917545 -0.00571597
000110 0c c8 80 bb d6 66 b5 bc 0f 77 d0 3c cf 39 b5 3b
       -0.0039300974 -0.022143763 0.025447397 0.005530573
000120 c3 1b 38 3d c9 82 68 3d f8 29 35 3d 9d 21 05 3d
       0.04494835 0.05676535 0.044229478 0.03250276
000130 83 e0 25 3d 46 9f 51 3d ef 5d 5c 3c 64 9e 08 3d
       0.040497314 0.051177286 0.01345013 0.033354178
000140 95 bb 07 3d 9d 35 89 3b 03 c9 05 3d ed d6 d8 3c
       0.033137877 0.0041872994 0.032662403 0.026469672
000150 28 35 c7 bb 69 d4 35 bc c5 a0 76 bc 7e 97 9f b9
       -0.0060793348 -0.011098006 -0.015052979 -0.00030439714
000160 be cb e7 3b d2 95 0e bd 32 bc 71 3c 10 9c 99 bc
       0.0070738485 -0.03481085 0.014754342 -0.018751174
000170 2e 4b f9 bd b7 38 19 3c ee 75 e3 3c a6 f8 00 bd
       -0.121725425 0.009351901 0.027766194 -0.03148713
000180 68 43 75 bc e9 67 55 bc 99 44 d4 bd 93 c0 66 3d
       -0.014969684 -0.013025262 -0.103646465 0.056335997
000190 8b da 05 3d 75 10 77 bd fc 48 d1 3c d5 82 4c 3c
       0.032679122 -0.06031843 0.025547497 0.012482365
0001a0 4d ed 16 bd d3 e2 03 3c 0a 50 a6 3c aa 0e 32 bd
       -0.0368474 0.008049685 0.020301837 -0.043471016
0001b0 43 26 b4 3c 26 40 8b 3b e7 ce 1a 3c 2a 69 b1 3b
       0.0219909 0.0042495904 0.009448743 0.005414148
0001c0 68 58 f8 bb 74 0c 73 bd ea e0 0f bd 7b 3c 3f bd
       -0.007578898 -0.059338048 -0.035126604 -0.046688538
0001d0 a9 60 74 bb 32 a3 61 3d ae 8f 84 3d 28 b6 8a 3c
       -0.003728906 0.055087276 0.06472717 0.016932562
0001e0 65 fc 2f 3d 19 16 5f bc e9 be 2f bd a6 6d 64 bb
       0.04296531 -0.013616108 -0.042906675 -0.0034855395
0001f0 da b0 07 bd 37 bd 43 bd 2c 6c 2d 3d f9 7d 3e 3d
       -0.033127643 -0.04778787 0.04233949 0.046506856
000200 dc fb e8 3c 7a ba d7 3c dd 85 99 bc b4 86 88 bc
       0.028440408 0.026334036 -0.018740589 -0.016665794
000210 cb 34 76 3a 96 a5 46 bd 97 17 61 bb 01 f8 e5 3b
       0.0009392022 -0.04849776 -0.0034346336 0.0070180898
000220 17 95 f3 3c 33 87 b0 bd b6 9f 5e 3d bb 30 2c bb
       0.029734178 -0.08619537 0.05435153 -0.0026274163
000230 11 f3 9f ba 77 f5 c0 bc 0e 82 39 bc 4c 95 06 bd
       -0.0012203177 -0.023554547 -0.011322511 -0.032857224
000240 a7 39 b4 3a 3c 03 fa bc 39 f6 32 3d 4d a0 06 bc
       0.0013750092 -0.03051912 0.043691847 -0.00821693
000250 dc 3f 8e bd 51 24 28 3d 71 cd 4a bc 51 4d b5 bc
       -0.06945774 0.04105026 -0.012378083 -0.022131594
000260 71 ae 90 3c be 63 9c 3b ec be 80 3a 0b 78 4f bd
       0.017661305 0.0047726324 0.0009822524 -0.05065159
000270 e0 59 0d 3c 6f 33 03 bd 40 6e 82 3d 73 5b c7 3c
       0.008627385 -0.032031473 0.06368685 0.024335599
000280 16 ca b1 bc c8 5f 77 3d 91 0b 89 3c ab f9 2e 3c
       -0.021702807 0.06039408 0.016729148 0.010679643
000290 78 06 fe bc 73 d3 be bc 87 b9 c3 bc 1e 66 c0 bb
       -0.031008944 -0.023294186 -0.023892177 -0.0058715483
0002a0 3b a3 60 bd ad bb 11 bd 60 92 83 bd f2 7d 84 3d
       -0.05484317 -0.035579372 -0.06424403 0.06469335
0002b0 fd a0 17 bd 79 04 21 3d f5 37 9f bb 57 6e 18 bc
       -0.037018765 0.039310906 -0.0048589655 -0.009303651
0002c0 67 59 fa 3c d7 ba dd 3c 20 4a 23 bc 29 c6 e3 3b
       0.030560208 0.027066631 -0.009966403 0.0069511128
0002d0 39 c6 e8 3b 92 08 5c bc aa 87 22 3d f9 8f 56 bc
       0.007103708 -0.013429778 0.03968016 -0.013095849
0002e0 2d d8 f9 3c 25 82 36 bc 1f 65 41 bd 83 d5 26 bc
       0.030498588 -0.011139427 -0.047215577 -0.010182741
0002f0 84 97 69 bd fc 61 8e 3c f5 f6 8f 3d 23 88 59 3d
       -0.057029262 0.017380707 0.07029525 0.053108346
000300 cf c2 3a bc b6 4e 29 bd ce 9b 23 bd 5e fa 50 bd
       -0.011398985 -0.04133483 -0.03994351 -0.05102002
000310 d3 e3 c5 3c 0c ae 17 3d fe 9f e4 bb cb 77 72 bc
       0.024156487 0.03703122 -0.0069770804 -0.014799069
000320 15 b3 ae bc 59 4e 9a bc ff 0d 58 3c 52 57 03 bd
       -0.021325627 -0.018836187 0.013186931 -0.032065697
000330 a5 58 8e 3c b6 5f c4 3c 35 89 4a 3d d7 88 b6 3b
       0.017376253 0.02397142 0.049447257 0.005570512
000340 98 81 5a 3d e5 aa e4 3c e0 48 02 3d 4e b4 3f bd
       0.053346246 0.02791352 0.03180778 -0.04680281
000350 97 d2 8e 3c cd f8 f3 3c a7 42 62 3d d5 bb 66 3d
       0.017434401 0.029781723 0.055239346 0.056331474
000360 ea 8b a7 3c 10 a0 e6 bb 1c 1a 38 bc 16 c6 e4 3b
       0.020452458 -0.007038124 -0.011236694 0.0069816215
000370 58 69 77 3d ba 32 36 bc ac 31 40 3d cf f1 3f 3c
       0.060403198 -0.011120493 0.04692237 0.0117153665
000380 ae f0 d3 3c 4a cf fe 3c b2 a1 d0 3b 0c 97 f3 bc
       0.025871601 0.031104703 0.006366932 -0.02973511
000390 39 7c 18 bd 15 82 07 bc 75 b1 72 bd bc bb 67 bc
       -0.037227843 -0.00827076 -0.059251267 -0.01414388
0003a0 b8 81 fb bc c9 f1 d6 bc ad 6c 09 3d 01 9c a1 3c
       -0.030701503 -0.026238339 0.033550907 0.019727709
0003b0 15 49 0d 3b 3e eb 88 3c aa 30 1a 3b f7 18 5c 3c
       0.0021558453 0.016713735 0.0023527541 0.013433686
0003c0 c6 18 5d 3d 80 a1 2a 3d 7a 5c 1c 3d 00 0e 46 3d
       0.053978704 0.041657925 0.03817413 0.048353195
0003d0 c7 3f da 3b 77 35 c4 bb f0 94 9e bb fe ca a9 3c
       0.006660435 -0.005987819 -0.004839532 0.020726677
0003e0 ae 8a fd bb 29 59 77 3c ad a3 93 3b c7 54 24 bd
       -0.007737479 0.015096941 0.0045055957 -0.040119912
0003f0 0a e4 03 3d a5 ee 18 bc dc fa 19 bc 56 48 31 39
       0.032199897 -0.009334241 -0.009398188 0.00016906983

bias f4 [32]
000000 f0 87 b2 bd 18 e1 9e bc 98 06 80 bc f8 f7 7c bd
       -0.08717334 -0.019394442 -0.015628144 -0.06175992
000010 b0 1b 13 bd 31 93 33 be b1 c9 02 3e d3 b0 36 be
       -0.035915077 -0.17536618 0.12772252 -0.1784089
000020 f8 46 b0 3c 2f d3 92 bd ca ca 19 3e ac d7 0b 3d
       0.021518216 -0.07169186 0.15018764 0.034141228
000030 a3 86 01 bd 75 3b 11 3d 64 f3 34 be ef 35 a7 bd
       -0.03162254 0.035457093 -0.17670971 -0.08164584
000040 c9 c0 8d be ad a4 17 be 39 51 3a 3e ae 8c b9 3d
       -0.27686146 -0.14808913 0.18195046 0.09060036
000050 b5 b6 db 3d f1 51 9f 3c 15 64 da 3d 05 03 29 3d
       0.10728208 0.019448252 0.106636204 0.041262645
000060 7e 59 03 3e e6 04 38 3e 12 04 0a be 9c 33 61 3d
       0.12827107 0.17970619 -0.13478115 0.05498086
000070 93 83 de 3c 27 56 18 be 23 ad 20 be ef 11 e1 3d
       0.027162349 -0.14876615 -0.15691046 0.10989749

weight f4 [32]
000000 52 e2 8f 3f 89 c5 71 3f 8f 39 80 3f 3b 84 76 3f
       1.1240942 0.9444204 1.0017565 0.9629552
000010 58 45 8b 3f ef 17 7b 3f c9 37 70 3f bb ac 72 3f
       1.0880537 0.98083395 0.9383512 0.94794816
000020 c7 55 83 3f c7 8e 73 3f e7 7b 7c 3f 2d ef 81 3f
       1.0260552 0.95139736 0.9862656 1.0151116
000030 f8 5b 81 3f b6 e4 7d 3f e5 d2 6b 3f 33 30 7c 3f
       1.0106192 0.9917711 0.92118675 0.98511046
000040 87 1c 83 3f bd ac 86 3f 34 d0 83 3f b1 8a 72 3f
       1.0243081 1.0521466 1.0297914 0.94742876
000050 fa 62 7b 3f a5 49 7d 3f a1 4d 80 3f 87 82 83 3f
       0.981979 0.989405 1.002369 1.0274209
000060 bd 8f 7c 3f 20 91 84 3f ef 50 77 3f b3 60 80 3f
       0.9865683 1.0356789 0.9660787 1.002951
000070 e4 4a 81 3f 63 3f 86 3f 44 89 84 3f a2 37 82 3f
       1.010098 1.0488094 1.035439 1.0173228

bias f4 [32]
000000 a7 15 d8 3d 77 f1 90 3d d6 3e a1 bd e5 3c 8a 3c
       0.10551005 0.07077306 -0.07873313 0.01687474
000010 ba e3 ed bd 4d 81 80 be 02 7f 0b bd e7 0f b2 bc
       -0.11615701 -0.2509865 -0.03405667 -0.021736098
000020 9e 71 43 bd 63 f4 8b bd 63 8a 4d be df 76 20 bd
       -0.047715776 -0.068337224 -0.20072322 -0.039175864
000030 eb 02 c4 3c f6 99 51 bd 7b 32 65 bd 65 c7 fb bd
       0.023927173 -0.05117222 -0.055956345 -0.12293891
000040 4f 26 4f 3b bb 8c 78 bc 70 3d 10 be e4 d1 33 be
       0.0031608527 -0.0151702715 -0.14085937 -0.17560536
000050 b7 e3 90 bd c6 d0 05 3c 91 dd 86 bd fb 7d 72 be
       -0.07074683 0.008167451 -0.06585229 -0.2368087
000060 ee 3a 2a be 4b 51 10 3e ed 8b 53 bd 64 aa 20 bd
       -0.16624042 0.14093511 -0.051647115 -0.039224997
000070 26 86 81 be 05 2c 31 be 90 a1 94 3c 89 8a 67 bd
       -0.2529766 -0.17301948 0.018143445 -0.0565286

running_mean f4 [32]
000000 10 73 1b be b1 cb af bb 5f 6b 47 be 71 62 98 38
       -0.15180612 -0.005364858 -0.19474553 7.266261e-05
000010 61 71 d5 bd 11 f1 54 be 75 d0 39 3d e4 9c 6d be
       -0.10422016 -0.20795085 0.045364816 -0.2320438
000020 5a 80 48 3d e8 0b c8 bd 72 81 0a 3e ff 1d 46 3d
       0.04895053 -0.09767896 0.13525942 0.04836845
000030 19 a4 3d be c9 04 40 3e a2 5a 3c be 13 ce 9c bd
       -0.1851963 0.18751825 -0.18393949 -0.07656493
000040 9e 5b 4e be be 70 be bd 7e c1 2c 3e 3a 40 7c bd
       -0.20152137 -0.092988476 0.16870686 -0.06158469
000050 dd cb 2d 3e 12 2a 37 3e f8 3b 28 3e 25 f6 1a bd
       0.16972299 0.17887142 0.16429126 -0.037832398
000060 60 7b 85 3c 8d bc b5 3e b6 50 4c be a2 90 4f 3e
       0.016294181 0.35495415 -0.19952664 0.20270017
000070 a4 cd 4f 3a 79 15 33 bd 85 0c 05 bd 9c fb fb 3c
       0.0007927066 -0.04372165 -0.032482643 0.030759625

running_var f4 [32]
000000 a9 03 bf 3b 29 b4 8c 3a 67 85 99 3b b7 55 3d 3c
       0.0058292937 0.0010734844 0.0046850923 0.011556081
000010 ea df 70 3b c3 5b b2 3a 22 cd b8 3b 7b b0 02 3c
       0.0036754557 0.0013607669 0.005639688 0.007976647
000020 7c d5 b9 3b 2b f1 a0 3b c5 11 21 3c 07 8b 39 3c
       0.0056712013 0.004911562 0.009830897 0.011324651
000030 ec f0 96 3b 5e ad 13 3c 9d 0d 0c 3b 7b 2b d4 3a
       0.004606357 0.009013502 0.0021370419 0.0016187275
000040 5f 86 d2 3a 37 ab 04 3c 69 92 bf 3b 41 9e c9 3b
       0.0016061774 0.008097461 0.005846311 0.0061528985
000050 e8 b8 fc 3b c6 54 a4 3b 53 cf f6 3b ee 5c df 3b
       0.007712472 0.0050149886 0.007532039 0.006816498
000060 d0 14 da 3b f4 c6 c7 3b 66 bd f4 3a f7 99 ef 3c
       0.006655313 0.006096715 0.0018672168 0.02924822
000070 48 30 b4 3a 5a da f0 3b 8a b5 3d 3c 3e 92 14 3b
       0.0013747299 0.0073502483 0.011578927 0.0022670175

weight f4 [32, 32, 3, 3]
000000 c4 bf 43 3c 5e 20 3e bb 99 1a 6b bd 3a 04 e2 bc
       0.011947576 -0.0029010992 -0.057398412 -0.027589906
000010 cf 4e f2 bc 02 cf a9 bd 74 7b 84 bd a7 eb a8 bd
       -0.029578594 -0.08291437 -0.06468859 -0.08248072
000020 5a cf bc bd 74 f1 88 3c 57 4a ff 3c 00 01 15 3d
       -0.09219237 0.016716696 0.031163378 0.036377907
000030 44 1f 1a 3d ba 78 fb 3c 4e 05 23 3c e5 1b 27 bc
       0.037627473 0.030697215 0.009949995 -0.010199522
000040 33 06 00 bc cf c5 0d 3d ca a5 a8 3c 53 a7 7f 3d
       -0.007813978 0.034612473 0.020586867 0.062415432
000050 ab 96 ea bc 9c 2c c6 3b d9 e3 66 3d 98 c4 1d bd
       -0.028636297 0.0060477983 0.056369636 -0.038517565
000060 9a ef ac bd 43 5c 47 bc f9 66 b0 bd d1 f9 eb 3c
       -0.08444138 -0.012167993 -0.086133905 0.028805645
000070 55 e2 b1 3b 9b 88 5a bc 48 fe 5a 3b 9f 21 04 3d
       0.005428592 -0.013338233 0.0033415724 0.032258626
000080 c9 d7 3c 3d 25 8f 88 3c d2 13 55 3b b3 25 03 3d
       0.046104226 0.01666982 0.0032513035 0.032018375
000090 e7 bd 6d bb 5a 45 e3 bb a9 4f 0d 3d bb 66 6b bc
       -0.003627652 -0.0069357576 0.034499798 -0.014367755
0000a0 04 e6 b5 bc 87 ae a9 bb 0b ee ea bc 78 6d b9 3b
       -0.022204407 -0.005178276 -0.02867796 0.0056588016
0000b0 76 51 8d bc 42 9b 2b bc cc ef fa 3c 20 38 8d 3d
       -0.017250758 -0.010474028 0.030631922 0.068954706
0000c0 f1 ee 8e 3c 20 44 35 3d 72 34 ee 3c ec 73 91 3d
       0.01744792 0.044254422 0.029077742 0.071021885
0000d0 15 c8 c7 3c 05 ff bb 3d 0e 30 a2 3c a8 dc 55 bc
       0.024387399 0.091795005 0.019798305 -0.013053097
0000e0 4f 7e e0 bc 33 a3 28 3d 5b 0d 11 bd 6b 8f 03 bc
       -0.027403979 0.041171264 -0.035413127 -0.008029799
0000f0 51 f6 8d bc 66 51 35 bd da dd a4 bb ae 5b 0d bd
       -0.017329367 -0.04426708 -0.0050313296 -0.03451126
000100 57 45 60 bc a4 b4 7a 3d fd 92 7f 3c 6e 92 00 3d
       -0.013688407 0.06120743 0.01559901 0.031389646
000110 81 55 52 3d 3a 94 0b bc bf c5 11 3d 2e dc 9a 3c
       0.051351074 -0.008519227 0.035588976 0.018903818
000120 52 ac 54 bd 2f a1 60 bb 02 62 b2 3c 0e 5b 50 bd
       -0.05192215 -0.003427576 0.02177525 -0.050868087
000130 07 f7 62 bd 0f de d9 3d d2 ed 98 bd 75 77 a9 bd
       -0.055411365 0.106380574 -0.074672356 -0.08274738
000140 84 cd 38 bc 30 05 d2 3c 8b a2 45 3c c4 4a f5 3c
       -0.0112794675 0.02563724 0.012062679 0.029942878
000150 1a 1f 4f 39 0f dc ee bb a0 6c ea 3b 24 83 0a bd
       0.00019752645 -0.0072894166 0.0071540624 -0.03381647
000160 bd 5c ca 3c 3d 99 ad bc 62 a0 9f bb 32 ad 6d 3d
       0.024702424 -0.021191234 -0.004871414 0.0580265
000170 45 0c 0c 3c e5 b6 f0 3b 72 40 e3 bb eb dd 0e bc
       0.008547847 0.0073460215 -0.0069351727 -0.008719902
000180 64 5b 5e bb 91 6f 0e 3d 9d c4 91 3c 62 46 61 3d
       -0.0033928985 0.034774367 0.017793948 0.054998763
000190 c1 ec f2 3c ff f3 db 3c f3 93 4c 3d 3d c0 36 3c
       0.029653909 0.026849745 0.049945783 0.011154232
0001a0 52 ad cc 3c f6 43 4c bd 6a 9d 1e 3d 58 b9 82 bc
       0.02498499 -0.0498695 0.03872434 -0.01595752
0001b0 00 d0 ba bc 94 55 12 bc 5c b9 89 3b 15 2f 5c bd
       -0.02280426 -0.008931536 0.0042030048 -0.05375584
0001c0 a9 91 a3 bc 93 75 0f bd 10 52 8d bd df 4f 33 bd
       -0.019966917 -0.035024237 -0.06900418 -0.043777343
0001d0 53 78 2d bd 34 26 0e 3d cb ed 3c bd 49 80 d1 3c
       -0.04235108 0.034704402 -0.046125215 0.025573866
0001e0 a4 91 32 3d 95 f8 54 bc b5 c3 84 3b 2e ad 7c 3c
       0.043595925 -0.01299872 0.0040516504 0.015422149
0001f0 70 d4 3b 3c 0e 22 55 3b 84 66 8b bd 36 ae 27 bd
       0.011464223 0.003252152 -0.06806663 -0.040937625
000200 65 7d 66 3c cf c6 a8 3c dd 01 34 3d e3 f1 4a 3d
       0.014067982 0.020602612 0.04394709 0.049547087
000210 57 11 42 bc 79 71 9b 3b 54 1a 0b 3d b0 ec 9f 3c
       -0.011844954 0.0047437516 0.033960655 0.019522041
000220 19 49 17 bd 2e 16 ab 3c 18 24 d1 3b 04 2c bb bb
       -0.036934946 0.0208846 0.0063824765 -0.005712034
000230 8e df 33 3d a8 b7 53 ba c4 66 88 3d 82 30 11 3d
       0.04391437 -0.0008076378 0.06660226 0.03544665
000240 b3 61 fb bc 8d 18 86 bb 59 76 67 bc 93 1d 95 3c
       -0.030686235 -0.004092282 -0.014127337 0.018202579
000250 ee 9b 80 3c 2b 0b e7 3c 04 16 05 3b 60 16 41 bc
       0.015699353 0.028203567 0.0020307312 -0.01178512
000260 f4 c2 89 3b b5 03 cd 3b a2 fa f1 bc d5 a4 40 bd
       0.0042041484 0.0062565454 -0.029538456 -0.047032196
000270 27 cc 13 bd 1b 84 50 bc 63 ee 29 bd d9 92 0b bd
       -0.036083367 -0.012726809 -0.04148711 -0.03407559
000280 99 c3 1e bd 2d 8f 76 bd 82 72 0c bd 08 ef f4 ba
       -0.038760755 -0.060195137 -0.03428889 -0.001868696
000290 55 b2 25 bd 8c 0a e9 bc 88 39 77 bb e6 d0 00 3b
       -0.040453274 -0.028447412 -0.00377235 0.0019655763
0002a0 c9 34 0b bd c7 6a 22 bc 3f ac a9 bb 2a fb 57 3c
       -0.033985887 -0.009913153 -0.005178004 0.013182441
0002b0 18 15 80 3d 16 02 fe 3c a2 65 93 3b 95 3d 91 3d
       0.06254023 0.031006854 0.0044981996 0.07091824
0002c0 ad 8f 83 3d be 36 96 3c f3 68 0a 3d 54 49 6c 3d
       0.06423888 0.01833665 0.033791494 0.05768712
0002d0 48 73 0d bd 3b 4b ed bc dd 46 e5 bc ca 0e 29 bc
       -0.03453377 -0.028966537 -0.027987892 -0.010318467
0002e0 77 5a 44 3c 07 2f 50 3d ea e5 01 3d 27 6e 00 3d
       0.011984459 0.0508261 0.031713404 0.03135505
0002f0 7d d6 5e 3d 19 ac 10 bd b1 45 1a bc 5f 4f 10 bd
       0.05440377 -0.035320375 -0.00941603 -0.035231944
000300 16 e6 d9 bc 58 ed 10 bc 11 d7 3a bd 15 51 2f 3b
       -0.026598971 -0.00884565 -0.04561526 0.002675121
000310 1d 4d b8 bc 6d d1 11 bc a7 71 7c 3d 76 2a 1d 3d
       -0.022497708 -0.008900029 0.061631825 0.038370572
000320 0a b3 d3 3c c7 85 b5 3c 7c d9 24 3d d1 7f 22 bb
       0.025842208 0.022158517 0.04024647 -0.0024795423
000330 6f 20 27 bd 11 f1 3c bd c6 06 0b bd d0 ee d7 3c
       -0.040802415 -0.046128336 -0.033942007 0.026358992
000340 98 c6 56 3d a3 cb d5 3b da 70 a2 bc dd 84 ba 3c
       0.052435488 0.0065245195 -0.019829202 0.022768432
000350 60 10 cf bc da 4e d6 bc f6 b1 07 bd 74 84 31 bd
       -0.025276363 -0.026160646 -0.0331287 -0.043339208
000360 c5 f9 04 3c 2b 9f ee bc 61 01 92 bc 91 67 4d 3c
       0.00811619 -0.029128632 -0.017822923 0.012536899
000370 01 90 fa bc f1 33 95 3c f9 12 a2 3c 9a de 28 bd
       -0.030586245 0.018213244 0.019784437 -0.041227914
000380 3e 6f 29 3d 5a 94 85 3b c5 e6 1c 3d 29 37 fb 3c
       0.041365854 0.004076523 0.038306016 0.03066595
000390 49 f1 5b 3d 9b cc 01 bd 8f 8e 1e 3d 32 1d a3 3d
       0.053696904 -0.031689268 0.038710173 0.07964553
0003a0 dd 6f bd 3c e2 05 9a 3d c7 78 7f 3c 38 6e 0c 3d
       0.02312463 0.07520653 0.01559276 0.0342848
0003b0 02 f5 d0 3b 8b 75 be bc 17 a7 7c 3b 00 e0 e5 bc
       0.0063768635 -0.023249408 0.0038551742 -0.028060913
0003c0 ee f9 4c bd 78 df 91 bd 98 f7 93 bd 67 5b f3 bc
       -0.05004304 -0.071227014 -0.07224959 -0.02970667
0003d0 47 04 3f bd f3 24 15 bd 46 3d 06 3c 4a 0f be bc
       -0.04663494 -0.03641219 0.00819332 -0.02320065
0003e0 05 33 03 bd 9b 74 e9 3c 13 cb 1c 3d 74 3a a7 3b
       -0.032031078 0.028497985 0.038279604 0.0051034037
0003f0 e4 e9 08 3c d7 70 ad 3a 46 9f f0 3c 61 63 17 3d
       0.008356545 0.0013232481 0.029372822 0.03696001

bias f4 [32]
000000 ef 13 c0 bb a4 ed c6 3c 6e 25 9a bb d7 5e de 3c
       -0.0058617513 0.024283238 -0.004704169 0.027144833
000010 2f 85 da bc a9 ce 08 bc 73 0c 42 3d 5e 9d 97 bc
       -0.026674835 -0.008350053 0.047375154 -0.018507656
000020 4c a3 03 3d eb fd c6 3b 0e a2 f6 bc 5d 38 85 bc
       0.032138154 0.00607275 -0.03010657 -0.016262228
000030 47 f2 56 3d 0a 97 bd 3c 8a 65 3d 3d 88 33 49 3d
       0.052477147 0.02314331 0.046239413 0.04912141
000040 e1 bc 1a bd 00 05 20 3d c3 ea 28 3c 1a 82 4f 3d
       -0.037777785 0.03906727 0.010309878 0.050661184
000050 00 c1 57 3d 3b 55 0e 3c db a1 5b bd 40 8a 92 bc
       0.052674294 0.008687313 -0.053621154 -0.017888188
000060 6a 29 56 3c 3e a4 24 bd e9 af 25 bd 51 a9 8e 3c
       0.013071397 -0.040195696 -0.040450964 0.01741472
000070 d9 70 6b 3d 47 7b da bc 30 d3 31 bd 1d 93 51 3b
       0.057480667 -0.026670111 -0.043414295 0.0031978555

weight f4 [32]
000000 e6 f4 86 3f d6 de 84 3f 38 37 75 3f 4a 35 7a 3f
       1.0543487 1.0380504 0.9578738 0.9773756
000010 e6 93 86 3f b7 52 7b 3f 55 16 7f 3f bc fe 7b 3f
       1.0513885 0.9817309 0.9964345 0.9843557
000020 8a 13 80 3f f6 ae 7c 3f b5 a4 7e 3f bd aa 82 3f
       1.0005963 0.9870447 0.99470073 1.0208355
000030 cf 79 7e 3f 12 30 72 3f 18 b3 85 3f a4 18 80 3f
       0.99404615 0.946046 1.044528 1.000752
000040 e9 ed 81 3f d1 35 83 3f 70 a2 6d 3f be 17 7a 3f
       1.015073 1.0250798 0.92825985 0.9769248
000050 be 58 80 3f 4a fb 84 3f 89 24 7f 3f 22 65 88 3f
       1.0027082 1.0389187 0.99665123 1.0655863
000060 1f f2 80 3f 9a f0 7e 3f c6 82 81 3f f4 3a 6e 3f
       1.007389 0.9958588 1.0118034 0.93058705
000070 c1 49 82 3f 7c 0e 7a 3f 08 96 81 3f 4a 68 87 3f
       1.0178758 0.9767835 1.0123911 1.0578701

bias f4 [32]
000000 e7 c1 bf bc ff 02 7f bd 42 0b 12 3d 7c d4 41 be
       -0.02340789 -0.062258717 0.035655268 -0.18928713
000010 3e 76 f6 bd 82 85 04 3c 5e f0 35 be a4 e4 db bd
       -0.12034272 0.008088471 -0.17767474 -0.10736969
000020 ce 7f 4a be 5d db 18 be 4f 3e 57 3c 19 5c e6 bd
       -0.19775316 -0.1492743 0.013137414 -0.11248035
000030 c2 e4 75 3d d5 81 fe bd a1 41 c9 bd 80 bb 9f bd
       0.060032614 -0.12427107 -0.09826971 -0.07799435
000040 e2 8f e6 bd a1 13 07 be eb a9 ad bd 86 88 28 bd
       -0.11257912 -0.13191082 -0.08479675 -0.041145824
000050 99 49 26 be 86 87 1d be ef c9 03 be 93 f1 33 be
       -0.16239013 -0.1538373 -0.1287 -0.17572622
000060 c4 a7 6e be 74 24 53 bc f1 e2 da bd bb 83 39 bd
       -0.23306185 -0.012887109 -0.10687817 -0.045291644
000070 3e 61 bf bd 8a f1 5c bd d9 c9 0c be b9 b8 cd 3c
       -0.09344719 -0.053941287 -0.13748874 0.025112497

running_mean f4 [32]
000000 ba df 8b 3d d3 52 96 be 1c 57 f6 3a c5 e0 ab 3e
       0.06829782 -0.29360065 0.0018794271 0.33569923
000010 b4 7e fd be 29 4d d5 3d 67 62 c8 be 50 9c ab 3e
       -0.4951073 0.10415108 -0.39137575 0.33517694
000020 bb 64 43 be d5 f7 1a be e7 ef 93 be 6c 86 84 bf
       -0.19081394 -0.15133603 -0.28893968 -1.0353522
000030 07 94 ba bd c4 5e b4 bd 1f 95 2c 3f 75 5a 57 bd
       -0.09110265 -0.088071376 0.6741504 -0.0525765
000040 1e bc 1d bf c7 c4 29 bd ac 19 a3 be 0b 11 66 bd
       -0.6161517 -0.041447427 -0.31855524 -0.056168597
000050 1b ac 07 3f c9 62 32 be 92 4e 4f bd c9 5f 50 be
       0.5299699 -0.17420496 -0.05061204 -0.20349039
000060 46 88 28 3e fd e4 fb be fe 6d 54 3e 6a 37 60 be
       0.16458234 -0.49198142 0.20745084 -0.21896139
000070 e1 10 d6 bd d6 c3 9f 3e 23 0d 85 bd 6a 7b 1e bf
       -0.10452438 0.31204098 -0.06496646 -0.61907065

running_var f4 [32]
000000 9f c8 a5 3e d4 46 aa 3e 19 3f 79 3e 5b 34 01 3e
       0.32379624 0.33257163 0.24340476 0.12617628
000010 18 fc 51 3e 7c 54 b3 3e 45 16 3e 3e 2f 7a 2c 3e
       0.20506322 0.35025394 0.18563183 0.16843484
000020 44 f4 91 3e 32 f8 f4 3d 74 b0 32 3e d7 df 8f 3e
       0.28506672 0.11961402 0.17450124 0.28100464
000030 86 72 57 3e 6d 12 78 3e 14 42 36 3e 11 9a 7a 3e
       0.21039781 0.24225779 0.17798644 0.24472834
000040 52 e5 12 3e c6 1e bd 3e 59 22 49 3e 1e d1 62 3e
       0.14345291 0.3693754 0.19642009 0.22150084
000050 30 69 cf 3e db c6 37 3e df 1d 2d 3e ba 7f 1d 3e
       0.4050994 0.17946951 0.16905926 0.15380755
000060 94 96 ed 3d c9 30 cc 3e e3 89 4d 3e ea 8a db 3d
       0.11600986 0.3988097 0.20072131 0.10719855
000070 b8 1b aa 3e 1e 0a 54 3f 58 b0 bd 3e f8 ce fe 3e
       0.33224273 0.8282794 0.37048602 0.4976728

weight f4 [32, 32, 3, 3]
000000 ab 69 29 b7 54 19 7d 3d fd 1d ec bc 1a b9 0f 3d
       -1.0097788e-05 0.061791733 -0.028822893 0.035088636
000010 90 b7 fd 3c 94 02 01 3d ee 7f 36 bc 98 3e 12 3d
       0.030971318 0.0314966 -0.011138899 0.035704225
000020 35 28 a1 3d e3 b4 36 3c 32 dd 70 3c 6a f6 08 3d
       0.07868997 0.011151525 0.014701175 0.033438124
000030 ab c4 84 bb a2 82 c7 3c 6e 23 20 3c 5c 56 9b bd
       -0.004051765 0.024354283 0.009774072 -0.07584831
000040 4a c6 06 bd a3 20 7d 3c c7 8c 0e bd e2 ad 48 bc
       -0.032903947 0.015449676 -0.034802224 -0.012248488
000050 b3 42 54 3b b0 f2 4e bd f6 53 08 3d e1 18 88 3c
       0.0032388389 -0.050524414 0.033283196 0.016613426
000060 a7 ce 06 bd 29 bd a1 3c ba af f2 3c 73 dd 95 bc
       -0.032911923 0.019743519 0.029624809 -0.018294072
000070 04 54 c0 bd 48 3b 8d bc 75 e5 40 3b 26 7e 47 bd
       -0.09391025 -0.017240182 0.0029433642 -0.04870429
000080 6c 43 96 bc a5 4e 33 3d 64 d4 88 ba f1 a4 1f bc
       -0.018342696 0.043776173 -0.0010439274 -0.009743915
000090 07 e5 21 3c 39 07 a3 bc 9a 55 2b 3b fe 2c f3 3c
       0.0098812645 -0.019900905 0.0026143552 0.02968454
0000a0 f6 d7 0b bc 92 97 74 3d e6 72 68 3d 63 0a 44 3c
       -0.008535376 0.05971486 0.0567502 0.011965367
0000b0 bd ec ae bb 4f 5d 14 3a f1 c8 80 ba df e4 17 3d
       -0.00533828 0.0005659656 -0.000982551 0.037083503
0000c0 b0 e0 dc 3c 7d 0f 7a bc 55 b9 81 3c 42 b2 56 bc
       0.026962608 -0.015262482 0.015835444 -0.013104023
0000d0 95 c1 03 ba 7f ee f1 3c ed 14 16 bd 34 2f 8d 3b
       -0.00050260994 0.02953267 -0.03664105 0.0043086056
0000e0 0b c3 11 3c dd 80 11 3d 0c e3 13 3d 6f fb 55 3d
       0.0088965995 0.035523284 0.0361052 0.05224174
0000f0 53 46 b8 bc b8 f8 02 bd 7f b4 ff 3b a2 cc 0e bc
       -0.02249447 -0.031975478 0.0078034992 -0.00871578
000100 4e 3a af bd e7 bb 3a bd 6c e2 4b bd 1b 83 4e bb
       -0.085560426 -0.045589354 -0.04977648 -0.003151125
000110 d0 00 13 3a 93 97 45 bd 89 b1 7d bb f1 75 b4 3c
       0.0005607726 -0.048240256 -0.0038710556 0.022028895
000120 ea fc 90 3c 14 78 d3 3c 74 0e 89 bc 0d f8 33 bd
       0.017698724 0.025814094 -0.016730525 -0.04393773
000130 85 8d 99 bb 73 c1 64 3c fd 0a d9 bb 30 91 18 bb
       -0.00468606 0.0139621375 -0.0066236244 -0.0023279898
000140 97 48 7f bc a8 01 35 bd 6e cc cd bc d8 42 0a 3d
       -0.015581272 -0.044191033 -0.025121894 0.033755153
000150 7f 37 2a bd e4 08 08 3d 2a 3b 03 3d d1 e2 90 bd
       -0.04155683 0.033211604 0.032038845 -0.07074512
000160 76 e7 eb bc b2 60 1d bd 0d 75 b0 3c f9 71 12 bd
       -0.028796893 -0.038422294 0.02154019 -0.035753224
000170 77 17 08 3d d2 12 5d 3c 9d 92 4d bd 45 1e 0e 3c
       0.033225503 0.013493257 -0.05018865 0.008674209
000180 72 33 f3 b9 6c ef d6 bd 3c b0 52 bd 4c 23 02 3d
       -0.00046386902 -0.10494885 -0.0514376 0.031771943
000190 d6 89 76 bc 7f b2 d7 3d de 6c bd 3c 3d e6 05 bd
       -0.015047511 0.10532092 0.023123201 -0.032690275
0001a0 91 05 8f bc 1e 7c 87 3d 5b fb 09 bd 1e 8d 67 3c
       -0.017458709 0.0661547 -0.033686977 0.014132766
0001b0 9b d2 50 bc 6b 63 7f 3c a3 ad 77 bc d7 99 a1 3b
       -0.012745525 0.015587668 -0.015117082 0.004931669
0001c0 1e 29 85 bc fa b6 5a bb 1b c1 21 3c 65 29 47 bd
       -0.016254958 -0.0033373223 0.0098727 -0.04862346
0001d0 c0 0e 3b bd e7 14 88 3c d2 6e fa bc d5 f5 c0 3c
       -0.045668364 0.01661153 -0.030570421 0.023554722
0001e0 0e 99 08 bd 2d b7 19 3b b8 7b 50 bb a1 16 92 3a
       -0.03334909 0.0023455129 -0.0031812023 0.001114566
0001f0 ca df c4 3c f5 36 f2 3c df d2 21 3c 82 57 a8 3a
       0.024032492 0.029567221 0.009876936 0.0012843462
000200 cb 47 1f bc 71 2b 02 bd 90 91 30 3c 1d 09 45 3d
       -0.009721707 -0.03177971 0.010776892 0.048104394
000210 d0 1b bc bc c1 d2 ef bc 17 a9 93 bd c0 9e 3c bd
       -0.02296248 -0.0292753 -0.07209986 -0.046049833
000220 ce 2d 05 bc f2 53 b0 3b 8a 72 9c bc 70 77 41 ba
       -0.0081285965 0.005381101 -0.019097585 -0.00073801633
000230 c2 16 b9 3b 51 75 cf bc b7 9e b2 3c 5d b0 99 bc
       0.005648465 -0.025324496 0.021804197 -0.018760854
000240 f4 8f a9 bc 67 2b f7 3c a2 63 37 bc dd 52 55 bc
       -0.020698525 0.030172063 -0.011193188 -0.013020244
000250 87 7f 5b ba 11 55 17 bd 51 90 03 bd cd c8 ac bc
       -0.000837319 -0.03694636 -0.032120053 -0.021091843
000260 cb d7 86 bc 8a a8 3e bb 2a ab b5 3c fb 27 91 3c
       -0.01646032 -0.0029092156 0.022176344 0.01771926
000270 db a4 7f 3b 25 f2 58 3d 67 f9 49 3c c5 97 65 bc
       0.0039008174 0.052965302 0.012327529 -0.014013235
000280 8c c6 f4 3b 98 bb 86 bb e4 0a 30 bd b9 c9 07 bd
       0.0074699577 -0.0041117184 -0.042979136 -0.033151362
000290 0f 22 ff ba 72 75 93 bc 99 8f 21 bd 54 10 09 bc
       -0.0019465106 -0.018000338 -0.039443586 -0.008365709
0002a0 d9 2c d3 3c 70 4a e4 bc 8e c9 a4 3b 43 b6 55 bd
       0.025778221 -0.027867526 0.00502891 -0.05217577
0002b0 21 c3 33 bd c4 b0 45 bd 6c 47 9c 3b 08 81 c8 bc
       -0.04388726 -0.04826428 0.0047692563 -0.02447559
0002c0 02 c6 b3 bc aa 74 6c bd 90 f0 70 bc d2 a7 8d bc
       -0.021945003 -0.057728447 -0.014705792 -0.017291937
0002d0 23 f6 13 3c a1 6c 43 3c ca 6e 7c bc e3 13 57 bd
       0.009030852 0.011927755 -0.015407274 -0.0525092
0002e0 3d f9 2a 3c d5 66 8c 3c 02 6d 81 bc 2a d1 58 bd
       0.0104354 0.017138878 -0.01579905 -0.05293385
0002f0 da 6d 2a 3c fa 84 9e 3b be 75 c7 bc fb 0d 74 bb
       0.010402167 0.0048376294 -0.024348136 -0.0037239778
000300 9b f7 a3 3b c2 fc 97 3c 16 22 88 bb 17 e9 66 bd
       0.005003882 0.018553142 -0.004154454 -0.056374636
000310 fc 56 ae 3c c2 8d ec ba 00 6a 3c 3d 96 3e 2e 3d
       0.021281712 -0.0018047618 0.045999527 0.042540155
000320 c9 3b 5f bc 0c 95 88 ba a3 03 4e 3d 6a fa bf bc
       -0.013625094 -0.0010420396 0.050296437 -0.023434836
000330 60 c2 c5 3c b6 18 74 3b 75 97 93 bd b8 7e 82 bd
       0.024140537 0.0037246174 -0.072066225 -0.06371826
000340 74 9b 7b bb a1 38 d3 bd 8a 37 94 bb 95 f2 bd 3c
       -0.0038392218 -0.103135355 -0.0045232223 0.023186961
000350 2c fa 8c 3b 03 77 c6 bd 0a 87 da bc 4e 52 1e bc
       0.0043022837 -0.096906684 -0.02667572 -0.009663178
000360 a8 26 5c bd d0 8f 90 bd 63 cb 75 bc 9c 87 ca 3c
       -0.053747803 -0.0705868 -0.015002104 0.024722867
000370 c4 f4 d5 bc 8c 89 01 3c 2a 68 54 3d 14 64 86 3c
       -0.02611769 0.007906329 0.05185715 0.016405143
000380 d4 27 9d bc 48 9c 51 bd 48 66 1e bc ec 72 c3 bc
       -0.01918403 -0.051174432 -0.00966794 -0.02385851
000390 d8 98 87 3c 9c 46 00 3d da 58 cd bc fa f9 9c bc
       0.016552374 0.03131734 -0.025066782 -0.019162167
0003a0 05 c1 5c bc 91 ee aa 3c ab 9d ae bc d4 2d cf 3c
       -0.013473754 0.02086571 -0.021315416 0.025290407
0003b0 20 00 3e 3b 69 be f3 bb 99 67 9f 3c f8 da e4 bc
       0.0028991774 -0.00743847 0.019458579 -0.027936444
0003c0 5e 38 27 3d 6f 64 8b bc e7 ea 77 bd f6 eb 71 bc
       0.04082524 -0.017015664 -0.060526755 -0.01476573
0003d0 58 0b 35 bb fd 7e db bc 7a 9f 5d 3c a5 fa 01 bd
       -0.002762517 -0.026793951 0.013526792 -0.031733174
0003e0 c1 0d 54 bc ec b6 9d b9 fc 27 93 3c ef 78 c3 bc
       -0.012942732 -0.0003008166 0.017963402 -0.023861377
0003f0 ce b5 13 bd 1a 9d 6d bd e2 2a ba bd 55 0a 35 bd
       -0.036062054 -0.05801115 -0.090902105 -0.044199307

bias f4 [32]
000000 73 5c e0 3c 55 56 82 3d 8d 10 07 bd e3 14 22 3d
       0.027387833 0.06364123 -0.03297477 0.0395707
000010 ee d1 1f bd 8f d3 5c bd 0a cb b1 3c e9 a9 bd bc
       -0.039018564 -0.053912695 0.021703262 -0.023152309
000020 dd a3 c9 bc 97 3d 80 bd 60 4c 88 3c 50 55 bf bb
       -0.024614269 -0.06261747 0.016637981 -0.0058390275
000030 f7 30 23 3d dc 6c 14 3d 1f c8 74 bd bb f8 e3 3c
       0.03984162 0.03623663 -0.059761163 0.027828565
000040 94 dc 89 3b 57 a2 01 bd fc ff a6 bc 6a 66 9a 3c
       0.004207203 -0.03164896 -0.020385735 0.018847663
000050 26 88 f3 3b 1d 5a 2f bc 84 30 1d 3c 26 a8 22 bd
       0.0074320016 -0.010702637 0.009594087 -0.03971114
000060 77 2d c5 3a 8d 48 93 3c 64 9e 22 bd 1f b7 48 3d
       0.0015043457 0.01797893 -0.039701834 0.049002763
000070 1e 6c 87 3d 47 b9 ff bc 36 16 45 bd d6 66 54 bd
       0.066124186 -0.031216277 -0.048116885 -0.051855884

weight f4 [32]
000000 68 07 7d 3f 9b 71 81 3f c8 58 83 3f 64 74 6f 3f
       0.98839426 1.0112795 1.0261469 0.93536973
000010 7b 01 86 3f 44 99 85 3f 13 81 7e 3f 10 c5 77 3f
       1.0469202 1.0437398 0.994157 0.9678507
000020 d4 69 7e 3f 0d d4 83 3f 44 c1 7f 3f b3 71 7d 3f
       0.9938023 1.0299088 0.99904275 0.99001616
000030 ed c5 77 3f 04 6e 76 3f 4c c6 79 3f e0 aa 80 3f
       0.96786386 0.9626162 0.975682 1.0052147
000040 da c8 76 3f f0 6e 80 3f e8 a6 82 3f f5 71 85 3f
       0.96400225 1.0033855 1.0207186 1.0425402
000050 8a 44 83 3f 8c 43 80 3f 9e cb 83 3f 67 24 7b 3f
       1.0255291 1.0020614 1.0296514 0.9810242
000060 bf 64 7c 3f c7 bd 81 3f b2 c4 79 3f 97 2b 76 3f
       0.98591226 1.013604 0.9756576 0.9616026
000070 8b 49 81 3f 8a 34 82 3f 04 26 82 3f 09 3c 85 3f
       1.0100569 1.0172284 1.0167851 1.0408946

bias f4 [32]
000000 5f 8b 92 bc 85 01 02 bc cf b8 1b bd 97 aa d4 bd
       -0.017888723 -0.007934933 -0.038018044 -0.103841
000010 43 54 ad be 58 48 5e be d7 0b 46 be e9 60 28 be
       -0.3385335 -0.21707284 -0.19340454 -0.16443218
000020 70 42 27 be 9f 39 94 be dd 1b e6 3b 28 81 48 be
       -0.16333938 -0.2895021 0.0070223645 -0.19580519
000030 4e da 23 be a5 79 9c be f8 b0 1b be f5 5a 41 be
       -0.16001245 -0.30561557 -0.15204227 -0.18882354
000040 42 7f eb bd 1e ea e4 bd da 73 5b be 95 d5 c1 bc
       -0.11498882 -0.11177467 -0.21430913 -0.023661414
000050 4f 04 ce bd 7a dd 58 be 46 02 75 be 34 ac 9a bd
       -0.100594155 -0.21178237 -0.23926648 -0.075523764
000060 25 5d 09 be 40 4b b4 3c f8 4e 27 bd ab fa 0e be
       -0.13414438 0.022008538 -0.040846795 -0.1396281
000070 97 66 19 be 39 cd d8 bd 7d 1b 3c be 6f 44 96 be
       -0.14980541 -0.10586018 -0.18369861 -0.29349086

running_mean f4 [32]
000000 46 dc c8 be 98 a4 ee be 66 13 d9 bd ec f6 10 bd
       -0.39230555 -0.4660995 -0.10599403 -0.035391733
000010 a2 3b db be b8 82 aa be d4 35 ad 3e 29 73 9f be
       -0.42818934 -0.33302855 0.3383013 -0.31142548
000020 40 c4 2e 3e 91 ab b8 be 79 66 8c be 1e 0f 0d be
       0.17067051 -0.36068395 -0.2742193 -0.13775298
000030 bd ec c4 3d 16 24 00 3e c6 38 95 be 91 f8 02 be
       0.09615467 0.12513766 -0.29144877 -0.12790133
000040 82 2c 49 be f8 80 2e 3d 34 a6 f6 bc 69 9c 78 3e
       -0.19645885 0.042603463 -0.030108549 0.24278416
000050 99 ea 01 3e 72 2b 81 3e 3b e5 77 3d 0d 74 9c 3d
       0.12687148 0.2522846 0.060521346 0.076393224
000060 1c 49 29 bf 57 09 83 bd ac 94 26 bd bd a3 91 be
       -0.6612718 -0.06398266 -0.04066913 -0.28445235
000070 24 0f 82 be 51 7b 4b be db c3 7c bd 49 28 a1 3d
       -0.25402176 -0.1987126 -0.06171022 0.07869012

running_var f4 [32]
000000 35 09 0f 3e e7 8f 36 3e db cd 33 3e 25 8a 68 3e
       0.13968356 0.17828332 0.17558996 0.22708948
000010 10 b7 17 3e 6f d5 8f 3e c7 fe 45 3e cb 15 33 3e
       0.14815927 0.28092524 0.19335471 0.17488782
000020 df 15 94 3e ad 44 26 3e 78 c1 a1 3e 15 7c 57 3e
       0.28922936 0.16237135 0.31592917 0.21043427
000030 2e cf 29 3e ab 16 59 3e de 40 9a 3e 47 9a 32 3e
       0.16582939 0.21200053 0.30127615 0.17441665
000040 e6 57 18 3e f8 cd 81 3e 73 96 09 3e d0 24 66 3e
       0.1487728 0.25352454 0.13436298 0.2247498
000050 19 da af 3e f1 3d 8e 3e 2f 5b 5f 3e b2 47 83 3e
       0.34346083 0.27781633 0.21812128 0.25640637
000060 24 30 5e 3e 65 2a 7a 3e 02 e6 b0 3e 75 57 29 3f
       0.21698052 0.24430235 0.34550482 0.66149074
000070 9a f9 5d 3e 4e ad 41 3e 80 4a 28 3e 3a 2e 60 3e
       0.21677247 0.18913767 0.1643467 0.21892634

weight f4 [32, 32, 3, 3]
000000 eb 02 e6 bc 48 64 19 bd 7d 2b 07 3c e3 32 fe bd
       -0.028077563 -0.03744915 0.0082501145 -0.124120496
000010 a5 03 af bb 5a 7e 72 3d dc d1 9a bc 92 51 6c bc
       -0.0053410106 0.05920253 -0.018898897 -0.014423745
000020 bf b9 9d 3d 8e 05 28 3c 8c 89 0b 3c a2 10 88 3c
       0.07701444 0.010255231 0.00851668 0.016609494
000030 e1 98 8d 3c 77 34 bd 3c 8b 4c d7 3c 2d 64 f5 3b
       0.017284812 0.023096306 0.026281616 0.0074887485
000040 6d 40 88 3c a7 f2 37 3d b0 aa 61 ba 0e c5 4c 3d
       0.016632283 0.044909146 -0.0008608503 0.049992613
000050 87 dc 84 3c 71 7a a9 3c 15 2e 55 3c 0b a1 1d bb
       0.016218437 0.020688267 0.013011475 -0.0024052288
000060 f8 36 91 bc 6f f6 b5 bc e3 87 53 bc 65 23 a5 bc
       -0.017726406 -0.022212235 -0.012910816 -0.020158479
000070 90 8c 42 3c fe 6c 8e 3c 94 ee b3 bc 39 04 80 bc
       0.011874333 0.017385956 -0.021964349 -0.015627014
000080 c7 7f 24 3d 56 4b a8 3b 6f 55 f2 bc 25 00 0a bc
       0.04016092 0.005135934 -0.029581754 -0.008422886
000090 b4 04 8e bc f2 01 ac bc 12 56 07 3d 7e fd c6 bd
       -0.017336227 -0.020997021 0.033041067 -0.097163185
0000a0 d1 fc 64 3c af a3 08 bd 26 31 04 bd a5 bf b2 3c
       0.013976292 -0.033359226 -0.032273434 0.021819899
0000b0 ba 3b a1 bb 1f 7f 1b bd 3e 2f 53 bd 5b c9 97 3b
       -0.00492045 -0.03796303 -0.051558726 0.0046321577
0000c0 2e 48 81 bd e6 50 58 bc ff 98 09 bd 05 53 11 bd
       -0.06312595 -0.013202881 -0.033593174 -0.035479564
0000d0 62 7e 6d bc cb fc 17 3c e0 ed a7 3c e5 71 dd bc
       -0.014495464 0.009276579 0.02049917 -0.027031848
0000e0 ce 4c 31 3d 3f a9 63 bc 3d e5 11 bd 06 85 77 3d
       0.043286137 -0.013895332 -0.03561901 0.060429595
0000f0 cd 38 0f bd 42 b0 54 bd b0 f7 23 bc b8 4d e5 bc
       -0.03496628 -0.051925905 -0.010007784 -0.02799116
000100 76 e6 4e bd 97 d9 db 3c 38 5c c1 bc 4d e0 fb bc
       -0.050512753 0.026837153 -0.023603544 -0.030746603
000110 cd 0e 66 3d 07 37 52 3c 40 81 ca 3c 1e fd bf 3c
       0.05616646 0.012830502 0.024719834 0.023436125
000120 32 d5 87 3c 6f d1 76 bc 3b 0f 0b bd f5 66 bd bc
       0.016581152 -0.015064581 -0.03395007 -0.023120383
000130 06 16 07 3c 6e e2 1b 3c 12 19 53 3c 93 58 72 3c
       0.008244997 0.009514434 0.012884395 0.014791626
000140 15 5c 0d bc bb ec 70 bc c2 5c dc bc a8 10 ee bc
       -0.008627911 -0.014704878 -0.0268997 -0.029060677
000150 c6 a2 6f bb 59 00 4d bd d4 67 b7 bb 14 e5 42 3d
       -0.0036565526 -0.05004916 -0.005597094 0.047581747
000160 e9 8e 4a 3c 2d fc d4 3c 39 de 13 3d 1c cb ec bc
       0.012363174 0.025999153 0.0361006 -0.028905444
000170 cc ed 1a bc a7 fa 7b 3c ec 9b 51 3b fc 8d 8e bc
       -0.009456109 0.015379584 0.0031983806 -0.017401688
000180 d0 a3 ea 3a 62 4a 93 3c 5a 40 37 bd 33 d7 4b 3d
       0.0017901603 0.017979804 -0.044739105 0.049765777
000190 aa 76 fe 3c 75 90 bc 3a a1 19 bb 3b a3 a2 36 3d
       0.031062443 0.0014386313 0.0057098423 0.044588696
0001a0 d3 24 8a 3c 45 dc 67 bb ca ca 66 3c 6e b2 24 3b
       0.016863262 -0.0035379094 0.014086435 0.0025130766
0001b0 e8 ea 46 3d de cd 5a 3c 80 9a 59 bd 42 88 2b 3d
       0.048563868 0.013354747 -0.05312586 0.041877992
0001c0 60 56 84 bc fa 3a 39 3d 75 20 6e bd 9c 39 97 3a
       -0.016154468 0.04522226 -0.058136422 0.0011537555
0001d0 0b 3b 12 bc bb 92 9c bc aa 6b e4 bb 1d ee e9 3c
       -0.00892521 -0.019112935 -0.0069708424 0.028555924
0001e0 60 db 19 3d 0f 3b bc bc 0e da 30 bc e7 c5 2f bd
       0.037562728 -0.02297738 -0.010794176 -0.042913344
0001f0 28 72 be 3c 2c 91 60 3b d6 d8 77 bd 68 7d 33 3c
       0.023247793 0.0034266217 -0.060509525 0.010955192
000200 ec 2b f8 bb 14 fa 4a 3d 96 84 4d 3c c4 32 ad bc
       -0.0075735953 0.0495549 0.012543818 -0.021142371
000210 bd ab b0 3c 4d 76 77 3d b8 c8 67 bd bd bb 7a 3c
       0.021566266 0.060415555 -0.056587905 0.015303549
000220 13 81 ff 3c 85 4b 28 3c 89 89 26 bc a0 49 3c 3d
       0.031189477 0.0102719115 -0.010164627 0.04596865
000230 81 61 61 bc ea 2e e6 bc 35 bd 09 bd 3d 15 89 3d
       -0.013756157 -0.028098542 -0.033627708 0.06693504
000240 53 d1 5f 3d 34 e5 1b 3b 25 8c 6b 3d 32 4e 09 3d
       0.054642987 0.0023787739 0.0575067 0.03352184
000250 26 a0 6b 3d fb 85 fc 3c 83 b8 8d 3d d0 2e af 3d
       0.057525776 0.030825606 0.069199584 0.08553851
000260 a2 4c 5a 3d 40 b0 19 bd 68 0f 9f bc 94 0e 72 bd
       0.05329574 -0.0375216 -0.019416526 -0.059095934
000270 24 ba 30 bd d4 56 7d bd cd f3 47 bd 4c 3f 84 bb
       -0.043146268 -0.061850384 -0.04881649 -0.004035866
000280 67 e4 8f bc 78 33 51 bd db 38 3c 3c 48 24 c0 3b
       -0.017564965 -0.051074475 0.011488165 0.0058637
000290 ab 9f 91 3b 0f 03 3b 3a df c5 5c 3d 64 79 07 3d
       0.0044440827 0.00071339397 0.053899642 0.03307475
0002a0 39 7e 42 bd 8f 16 03 bd 74 b0 27 bc db 00 12 3d
       -0.047483657 -0.032003935 -0.010234941 0.035645347
0002b0 d7 96 11 3d 7f 7c f5 3c a7 b7 99 bc 96 8e b6 bc
       0.035544243 0.02996659 -0.01876433 -0.022284787
0002c0 76 22 1d 3d 85 73 10 3d ce c0 ed 3c a9 50 82 3c
       0.038362943 0.035266418 0.0290226 0.015907602
0002d0 87 c9 8b 3c 51 f3 4c bd 04 4f 72 3c 43 43 81 3c
       0.01706387 -0.050036732 0.014789347 0.015779143
0002e0 52 8f 57 bc 9b 51 14 3d 85 86 67 bd d3 d9 1d 3c
       -0.013156729 0.036210638 -0.056524772 0.009634453
0002f0 2f eb c9 3c 78 c4 93 3c 66 37 d0 3c a9 2e ad 3c
       0.024648277 0.01803802 0.025417041 0.021140413
000300 46 af ac 3c f5 e2 d2 3c a0 a3 41 3d ac 65 c5 3c
       0.02107967 0.025742987 0.047275186 0.024096332
000310 6e 1f ce 3b e1 ee 04 3d 73 02 59 bb 4e fa 2b ba
       0.006290368 0.032454375 -0.0033113032 -0.00065604306
000320 da 69 a9 3c 29 59 b2 bc b0 3d c2 b9 e5 02 a3 3c
       0.020680357 -0.02177103 -0.00037048524 0.019898841
000330 94 ff 0a bd fe 31 03 3d 7e 34 3e 3d 2f 6c 45 bd
       -0.033935145 0.0320301 0.04643678 -0.048198875
000340 b7 e7 0b 3d 11 32 af 3c 1c 99 8d 3c e0 66 63 3c
       0.034156527 0.021386178 0.017284922 0.013879508
000350 9b 93 98 3c 2c 11 a9 3c ff f6 8e 3b c4 2f 0d bd
       0.018625071 0.020638071 0.0043629403 -0.03446938
000360 a8 20 e3 3a 78 7b 66 3d 01 63 81 3c 53 8c ca 3d
       0.0017328458 0.056270093 0.015794279 0.09890046
000370 93 de 7b 3d f1 85 10 3d b9 96 26 3d 71 c0 de 3c
       0.06149156 0.035283986 0.040671084 0.027191373
000380 6e 7a 0d bb 84 11 05 bc d1 d1 89 3b 45 a5 33 bc
       -0.0021587866 -0.008121852 0.0042059203 -0.010964696
000390 dd e9 02 3c eb c4 3f 3d dc 6a 66 bc b7 82 12 bc
       0.007990328 0.046818655 -0.014063563 -0.008942298
0003a0 70 2e 26 bb 3f 86 ce bc a0 d8 85 3d ae 00 a0 3c
       -0.0025357269 -0.025210498 0.065354586 0.019531574
0003b0 82 26 ca bc c4 a0 39 bc 7b 4c cb 3d aa 93 fd bc
       -0.024676565 -0.011329833 0.09926697 -0.0309542
0003c0 25 74 b4 bc ed c1 8b bd 11 cd 90 3c 45 51 0a 3d
       -0.022028038 -0.06824098 0.017675908 0.03376891
0003d0 ee c7 c1 3c 82 58 e3 3c 48 eb 1c 3d ed ee 1f 3d
       0.023654904 0.027752165 0.03831032 0.039046217
0003e0 25 75 a9 3b df 06 de 3b 54 a9 21 3c 24 d8 b6 bc
       0.0051714354 0.0067757214 0.009867031 -0.02231986
0003f0 e1 66 83 3c 57 10 1e 3d 1e 67 e1 bc 06 9a 5a 3d
       0.016040267 0.0385898 -0.02751499 0.053369544

bias f4 [32]
000000 ec 9e 20 bc 04 e8 0c 3c 2d a2 cb ba 49 14 08 bd
       -0.009803515 0.008600239 -0.0015536003 -0.03322247
000010 f3 75 3d bd 20 d9 e9 3c 80 3d 0e bc 64 9d 22 bd
       -0.046255063 0.028545916 -0.008681655 -0.03970088
000020 dd 7a 66 3b 4e 1a 21 3c ef a3 06 bd d3 16 6b 3c
       0.0035168447 0.009832932 -0.032871183 0.014348703
000030 6c df 30 3d 4a 2f 52 3c ca f1 2a bd 73 68 dd 3c
       0.04318182 0.012828657 -0.041734494 0.027027344
000040 04 59 60 3d 40 cc 8a bc ec b3 7c bc 5f 21 bb 3c
       0.054772392 -0.016943097 -0.015423756 0.022843061
000050 3e fe 63 3d ec 50 5e 3c 60 2e 28 3d 27 38 59 bd
       0.055662386 0.013569098 0.04105985 -0.053032067
000060 4c be dc 3c aa fa f5 3c 9b 42 1d bd d3 b7 0c bc
       0.02694621 0.030026753 -0.038393598 -0.008588749
000070 15 01 68 3c fd 16 40 3d db 3c 59 bd 95 df 93 bc
       0.014160414 0.046896923 -0.053036552 -0.018050948

weight f4 [32]
000000 19 dd 87 3f a4 62 8b 3f 3b 03 8c 3f 4b 15 95 3f
       1.0614349 1.0889478 1.0938486 1.1647123
000010 4b fc a1 3f 7a 78 8a 3f 66 b3 83 3f 1a 15 8e 3f
       1.2655119 1.0818017 1.0289123 1.110019
000020 d4 26 88 3f 4a c3 81 3f 54 e2 81 3f 68 6b 80 3f
       1.0636849 1.0137722 1.0147195 1.0032778
000030 4e 3b 9e 3f d3 26 88 3f 3b 14 87 3f ea 0e 88 3f
       1.2361848 1.0636848 1.0553049 1.0629551
000040 41 f0 86 3f f6 92 89 3f a3 40 86 3f f3 33 85 3f
       1.054207 1.0747974 1.0488476 1.0406479
000050 18 44 88 3f cd d2 86 3f 0f 44 81 3f b6 cc 80 3f
       1.064578 1.0533081 1.0098895 1.0062473
000060 fe 9a 8b 3f c1 d4 87 3f 42 5e 8a 3f 04 a3 88 3f
       1.0906675 1.0611802 1.0810015 1.0674748
000070 bd 6e 8b 3f db 68 80 3f 36 23 88 3f 52 99 86 3f
       1.089317 1.0031999 1.0635746 1.051554

bias f4 [32]
000000 79 b1 80 3d 34 4c 2a be 23 df 70 bc f7 8c 38 bd
       0.0628385 -0.16630632 -0.014701637 -0.04505631
000010 72 3c b3 bd b3 b4 cf bd 7b 67 75 bd 9f 1d 4f 3d
       -0.087517634 -0.101418875 -0.05991314 0.05056536
000020 3d c9 51 bd dc 71 d1 bc 2a 57 89 3b 39 4d 34 bd
       -0.051217306 -0.025566988 0.004191299 -0.044018958
000030 ae f1 56 be 20 64 2f bc f2 c8 af bd 13 b5 c0 3c
       -0.20990631 -0.010705024 -0.08583249 0.023523843
000040 c7 3f 3e bd 64 df aa bd 0a ed 89 bd 6a 28 7c bc
       -0.04644754 -0.0834339 -0.06734665 -0.015390495
000050 c2 f7 4c bc b5 34 f3 3c 20 7e 91 3c 51 bb 97 bc
       -0.012510242 0.029688219 0.017760336 -0.018521937
000060 34 fc 91 bd 2a 20 85 bd 20 13 25 bd ce c5 d9 bd
       -0.07128182 -0.065002754 -0.040301442 -0.106334314
000070 e7 81 04 3d 71 8c c7 3d 7a 39 02 bd 78 61 bb bd
       0.032350447 0.09743584 -0.031793095 -0.0914945

running_mean f4 [32]
000000 ed c5 7c 3e 16 04 00 3d 04 f7 bc 3d 19 1b e5 be
       0.24684878 0.031253897 0.09226802 -0.44747236
000010 b0 14 6d 3c 8b 14 2e 3e af af 0b bf a0 87 87 be
       0.014470264 0.17000024 -0.54564947 -0.2647066
000020 10 1f d3 bd 2f df 27 be e4 38 03 bd 44 6d 68 3d
       -0.10308659 -0.16393732 -0.032036677 0.05674483
000030 07 d1 09 bd 4f a5 a7 be 49 f3 6c be cd 8b 81 bd
       -0.03364661 -0.32743308 -0.23139681 -0.06325493
000040 4f 2e cf 3d 91 bc 4e be 09 52 88 be c7 82 91 3e
       0.101162545 -0.2018912 -0.26625088 0.28420088
000050 05 ba 0d be 78 0c 01 bf bb 6e 2c bd 6b 9d a4 be
       -0.13840492 -0.5040965 -0.04209779 -0.3215135
000060 71 56 4f bd d3 ba ca be 80 27 44 be 8f d6 b4 3d
       -0.050619546 -0.3959566 -0.19155693 0.08829986
000070 31 85 88 3e 21 f8 c4 bb 1c df b3 be b3 34 4b be
       0.26664117 -0.0060110246 -0.35131156 -0.19844322

running_var f4 [32]
000000 e5 77 3a 3e fa b0 af 3e a4 6d de 3e 26 8c 00 3e
       0.18209799 0.3431471 0.43443024 0.12553462
000010 b2 1d d9 3e 94 09 0a 3f 87 2a 4d 3e b9 83 74 3e
       0.42405468 0.53920865 0.20035754 0.23878373
000020 de 06 4c 3e 1a 52 a2 3e ec 05 67 3e 02 d0 f2 3e
       0.19924495 0.31703264 0.22560853 0.47424322
000030 8e 29 c4 3d 96 f2 ea 3e ad 14 ac 3e 90 11 ca 3e
       0.095782384 0.45888203 0.33609524 0.39466524
000040 f3 db b9 3e 00 4b bc 3e 4f 68 8a 3e 78 be 18 3f
       0.3630062 0.3677597 0.27032706 0.5966563
000050 a2 4b d8 3e e3 a6 f6 3d 58 29 60 3e 7e d7 3b 3e
       0.42245203 0.1204355 0.21890771 0.18343922
000060 fe a8 76 3e 94 a2 bc 3e 45 3e 21 3e af 8f d9 3e
       0.24087903 0.36842787 0.1574641 0.42492434
000070 c4 eb 26 3e 47 d0 e1 3e 42 34 3b 3e 20 5e 3a 3e
       0.16300875 0.44104216 0.18281654 0.18199968
