TuiGAN/models/apple2orange/ab2.pth (torch, 233612 bytes, 46 tensors)

weight f4 [32, 3, 3, 3]
0	0x3d2f76a2	0.042837746
1	0x3cd887bc	0.02643191
2	0xbcafed6b	-0.021475514
3	0x3ce22950	0.02760759
4	0xbc1b569d	-0.009481099
5	0xbd3a54c5	-0.045491
6	0xbd189255	-0.037248928
7	0xbaea8f48	-0.0017895484
8	0x3b208f04	0.0024499306
9	0xbdb7244c	-0.0894247
10	0xbceab5d3	-0.028651154
11	0xbd63a342	-0.055575617
12	0xbd46013a	-0.048341013
13	0xbbeb24b3	-0.0071760057
14	0xbd1fc90a	-0.039010085
15	0xbcf85f6e	-0.030318942
16	0x3ca7f0f1	0.020500632
17	0x3ad26a03	0.0016053322
18	0x3ce50ba6	0.027959656
19	0x3cbfcbe7	0.023412658
20	0xbbd47f5a	-0.006484908
21	0x3b9356ad	0.0044964165
22	0x3d077d7a	0.03307865
23	0xbbe56fad	-0.007001838
24	0xbb91e5c9	-0.0044524414
25	0xbc26b2e7	-0.01017449
26	0x3d4531a3	0.04814304
27	0x3c279f78	0.010230891
28	0xbc78f116	-0.015194198
29	0x3d107cf7	0.035275426
30	0x3d8bb91c	0.06822416
31	0x3cb71d18	0.02235274
32	0x3d8db74c	0.06919727
33	0x3d4352f2	0.047686525
34	0xbb7017f6	-0.0036635376
35	0x3d50384a	0.05083493
36	0xbb6372b0	-0.003470581
37	0xbcb5f393	-0.022210872
38	0x3cfb9bcb	0.030713936
39	0x3ca97aec	0.020688497
40	0x3c983db4	0.01858411
41	0x3c9a37e3	0.018825477
42	0xbc45eb04	-0.012079958
43	0xbc4f6795	-0.012658973
44	0x3ccbe666	0.024890136
45	0xbcf423c2	-0.029802207
46	0xbd37d050	-0.044876397
47	0xbd3aa488	-0.045567065
48	0xbb225f9c	-0.0024776226
49	0xbcb1c767	-0.021701528
50	0xbcdd434a	-0.027009625
51	0xbd26f6c1	-0.040762667
52	0xbd3373a9	-0.043811474
53	0xbd4fd60e	-0.050741248
54	0xbd24d63e	-0.04024338
55	0xbc22797e	-0.009916661
56	0xbc832f05	-0.016013632
57	0xbd0e2c03	-0.03470994
58	0xbced8f54	-0.028999008
59	0x3b961091	0.0045796116
60	0xbcc01440	-0.023447156
61	0xbc326089	-0.010887274
62	0xbc87d14f	-0.016579298
63	0x3a84624e	0.0010100098
64	0x3d65d80f	0.056114253
65	0x3ce7bdc9	0.028288739
66	0x3d0ae58e	0.033910327
67	0x3c4f4bb8	0.01265233
68	0x3d1c5183	0.038163673
69	0x3d8d1a26	0.06889753
70	0x3dbcd8ff	0.09221076
71	0x3c821158	0.01587741
72	0xbd8324da	-0.06403513
73	0xbb16bcd5	-0.0023000736
74	0xbc82befd	-0.015960211
75	0x3c5d28a0	0.013498455
76	0x3d047afe	0.032343857
77	0x3ae5712f	0.0017505045
78	0x3d03e80a	0.03220371
79	0x3c243f19	0.010024809
80	0xbc0d861b	-0.00863793
81	0xbb64ae01	-0.0034893753
82	0xb8bceadf	-9.008287e-05
83	0x3b10d88b	0.0022101726
84	0x3cee4a04	0.029088028
85	0x399654c5	0.00028673388
86	0x3c18f33d	0.009335336
87	0x3cce7dec	0.025206529
88	0x3c48ece2	0.0122635085
89	0xbccb81b9	-0.02484213
90	0x3d519727	0.05116954
91	0x3d31aefd	0.043379772
92	0x3dab2953	0.08357491
93	0xbc922003	-0.01783753
94	0xbcf2c4ff	-0.02963495
95	0x3d6792f7	0.05653664
96	0xbd4735c3	-0.048635256
97	0xbd2d7206	-0.04234507
98	0xba1d3a09	-0.00059977226
99	0x3d463056	0.04838594
100	0x3cb8e55c	0.022570305
101	0x3d2652ba	0.040606238
102	0xbb3b4f2f	-0.0028581133
103	0xbcea3356	-0.028588932
104	0xbce31550	-0.027720124
105	0x3c564169	0.013077118
106	0xbc6f0d80	-0.014590621
107	0xbcc3bc5f	-0.023893533
108	0x3d0858d8	0.033287853
109	0xbb7c375b	-0.0038485143
110	0xbc8b9f86	-0.01704384
111	0x3d1f7a12	0.038934775
112	0xbca65dd8	-0.02030842
113	0xbb22ebc2	-0.002485976
114	0x3cb0fe2e	0.021605577
115	0x3c15e76d	0.0091494145
116	0x3b209ae3	0.0024506382
117	0x3d2e3e88	0.042540103
118	0x3ccc3be4	0.024930902
119	0xbc1dde4d	-0.00963552
120	0x3d24fe59	0.040281627
121	0x3c0bd6bd	0.008535084
122	0x3b479110	0.0030451454
123	0xbba6eb27	-0.0050939503
124	0x3c70b9f2	0.01469277
125	0xbcf3eace	-0.02977505
126	0xbc935c13	-0.01798824
127	0xbd4f2f8a	-0.050582446
128	0xbdc893f8	-0.09793848
129	0x3c52eff7	0.012874595
130	0xbbb39e1b	-0.005481494
131	0xbd96ac20	-0.07357049
132	0xbc84e6d2	-0.016223345
133	0xbcb3585e	-0.021892723
134	0xbda96ee4	-0.08273104
135	0xbd23d20a	-0.03999523
136	0x3c587617	0.013211749
137	0xbc8f7f7f	-0.01751685
138	0xbd561719	-0.05226812
139	0x3cd49917	0.025951905
140	0xbd46c380	-0.048526287
141	0xbd13583e	-0.035972826
142	0x3bf80add	0.0075696544
143	0xbd4bf7c8	-0.04979685
144	0xbc2a26fc	-0.010385271
145	0x3cd4a86e	0.02595922
146	0xbd834386	-0.064093634
147	0xbca88713	-0.02057222
148	0x3d146eca	0.03623847
149	0xbc294542	-0.010331454
150	0xbc8c1de1	-0.017104091
151	0x3d2b2aee	0.041788988
152	0xbd5ce175	-0.05392595
153	0x3c1d1808	0.009588249
154	0x3da2ee5a	0.07955618
155	0x3d00aefc	0.031416878
156	0xbc5e571a	-0.013570571
157	0x3d64c9af	0.055856403
158	0xbc41547d	-0.011799929
159	0xbc33ce16	-0.010974428
160	0x3d85cda1	0.06533361
161	0xbcca943c	-0.024728887
162	0xbd36006a	-0.04443399
163	0xbc3bf6bf	-0.011472403
164	0xbd4099bb	-0.04702161
165	0xbcf7f9dd	-0.030270511
166	0x3c2f2934	0.010690976
167	0xbd7ba48f	-0.061436232
168	0xbd8c29a9	-0.068438835
169	0xbd2095ce	-0.039205365
170	0xbdbee97a	-0.09321876
171	0x3d55578a	0.052085437
172	0x3d00361f	0.031301614
173	0x3c75e85b	0.015009011
174	0x3d04a88a	0.032387294
175	0x3c153c73	0.0091086505
176	0x3c624d70	0.013812408
177	0x3d206a39	0.0391638
178	0x3a99ec47	0.001174339
179	0xbb6ab028	-0.0035810564
180	0x3d3415a8	0.043965966
181	0x3c22430f	0.009903683
182	0xbb3322df	-0.0027334017
183	0x3c9c928b	0.019112846
184	0x3cd0aa81	0.025471928
185	0x3c6ee933	0.014581966
186	0x3b466f65	0.0030278799
187	0xbc758153	-0.014984447
188	0xbba974bf	-0.005171388
189	0x3d78a656	0.060705505
190	0xbdc2c6e9	-0.09510595
191	0xbc9a9e47	-0.0188743
192	0x3c070047	0.008239812
193	0xba97f7d0	-0.001159424
194	0x3c50ca53	0.01274355
195	0xbbc7b27b	-0.0060942746
196	0x3d13c6d6	0.036078297
197	0xbce0adb9	-0.027426587
198	0x3d6278bd	0.055290926
199	0xbc571129	-0.01312665
200	0x3ce6dbff	0.028181074
201	0x3c5206f4	0.012819041
202	0xbd11752c	-0.035512134
203	0x3cc496a6	0.023997616
204	0xbd1a9ddf	-0.037748214
205	0xbd4f8f45	-0.05067374
206	0xbd278c92	-0.040905543
207	0x3d4cad44	0.049969926
208	0xbc935ad4	-0.017987646
209	0x3c6e768e	0.014554633
210	0xba27460f	-0.0006380984
211	0x3b961a99	0.0045808074
212	0x3c47d145	0.01219589
213	0xbc4c34df	-0.012463777
214	0xbc091cd7	-0.008368692
215	0xbd03f4db	-0.032215934
216	0x3c8a067a	0.016848791
217	0xbb6d6309	-0.003622236
218	0x3d143302	0.036181457
219	0xbd6358a4	-0.055504456
220	0x3cf7fcbe	0.030271884
221	0x3d24b454	0.040211037
222	0x3c38266e	0.011239631
223	0xbd10770b	-0.03526978
224	0xbcf6e9c1	-0.03014076
225	0xbc30fbc0	-0.010802209
226	0xbd5330d7	-0.05156025
227	0x3d0b2bdf	0.033977386
228	0xbc9c0f2d	-0.019050205
229	0x3c86d7f8	0.016460404
230	0x3d9b34e3	0.07578447
231	0x3ceec2dd	0.029145652
232	0xbca2771d	-0.019832188
233	0x3ca9b0b5	0.020714143
234	0xbbf2b840	-0.007407218
235	0xbd23d921	-0.040001992
236	0xbd0dbfbe	-0.034606688
237	0xbd48f8ce	-0.049065404
238	0xbd16d2e0	-0.0368222
239	0x3af482c3	0.0018654693
240	0xbb944242	-0.0045245
241	0xbd203274	-0.039110616
242	0xbd5ad2e3	-0.053423773
243	0x3ca9cb9d	0.020726973
244	0xbca276e4	-0.019832082
245	0x3b3188b5	0.002708954
246	0xbc5417d5	-0.012945135
247	0xbd3d0168	-0.04614392
248	0xbd685770	-0.056724012
249	0x3d27d484	0.040974155
250	0xbc855883	-0.016277557
251	0xbd59fe7d	-0.053221215
252	0x3bb195a7	0.0054194513
253	0xbc244c21	-0.010027916
254	0xbcd29cf9	-0.025709616
255	0xbcbe1d94	-0.023207463

bias f4 [32]
0	0xbd21c0e4	-0.039490595
1	0x3e2f5621	0.171227
2	0x3e074530	0.13209987
3	0x3ddb13b8	0.106971204
4	0xbdf95668	-0.12174684
5	0xbd00b4b3	-0.03142233
6	0x3e3b932c	0.1831786
7	0x3e3439ec	0.1760022
8	0xbe2ebc3d	-0.17063995
9	0x3e0b5794	0.13607627
10	0xbe1b08c8	-0.15140069
11	0x3e39cdb5	0.18144877
12	0xbd1972c2	-0.037462957
13	0xbe06f3cd	-0.1317894
14	0xbd8e8401	-0.069587715
15	0x3e143fa0	0.14477396
16	0xbde5d92a	-0.112230614
17	0x3e15e7d2	0.14639214
18	0xbdaba627	-0.083813004
19	0xbd98579c	-0.07438585
20	0x3c1a9fd6	0.009437522
21	0xbe2c178d	-0.16805859
22	0xbdcf5367	-0.101233296
23	0x3e24f939	0.16110696
24	0xbd7b27e2	-0.061317332
25	0xbddd3ca9	-0.10802586
26	0xbd9a6612	-0.075389996
27	0xbe3da10d	-0.18518467
28	0xbd65f0b4	-0.056137756
29	0x3e1782ec	0.14796036
30	0x3dfc38e9	0.12315542
31	0x3d38c237	0.045107093

weight f4 [32]
0	0x3f7ef8dd	0.99598485
1	0x3f7d5f71	0.9897376
2	0x3f764ce0	0.9621105
3	0x3f724cb4	0.9464829
4	0x3f81ecfc	1.0150447
5	0x3f828ad0	1.0198612
6	0x3f823b9f	1.0174445
7	0x3f814f5d	1.0102345
8	0x3f7b5d54	0.9818928
9	0x3f8549d6	1.0413158
10	0x3f7f2cbb	0.9967763
11	0x3f705118	0.9387374
12	0x3f824d8b	1.0179914
13	0x3f834a6c	1.0257087
14	0x3f82654d	1.0187165
15	0x3f77cfd7	0.96801513
16	0x3f7863ca	0.97027266
17	0x3f74d55e	0.9563807
18	0x3f75319d	0.9577883
19	0x3f7f5c88	0.99750566
20	0x3f81e9c9	1.014947
21	0x3f7bfaa6	0.98429334
22	0x3f870c0b	1.055055
23	0x3f76e349	0.9644056
24	0x3f855a5e	1.0418203
25	0x3f6f98da	0.9359261
26	0x3f76c348	0.96391726
27	0x3f8246f8	1.0177908
28	0x3f894e35	1.0726992
29	0x3f70c473	0.9404976
30	0x3f8a3a89	1.0799114
31	0x3f7c25c2	0.98495114

bias f4 [32]
0	0xbd22b220	-0.039720654
1	0xbd569ed2	-0.052397557
2	0xbd9f58b4	-0.07780591
3	0xbe2f6775	-0.1712931
4	0x3dacdc88	0.084405005
5	0xbe535fce	-0.20642015
6	0x3902dfa1	0.00012481074
7	0xbcad93d7	-0.02118866
8	0x3cf2a066	0.0296175
9	0xbd94ed70	-0.0727185
10	0xbdfee4aa	-0.12445958
11	0xbc4eb970	-0.012617454
12	0x3c89390a	0.016750831
13	0xbcb9b2a3	-0.022668188
14	0x3e01b53e	0.12666795
15	0xbd3df246	-0.046373628
16	0x3d4b0857	0.0495685
17	0x3c94d89e	0.018169697
18	0xbd9d24ff	-0.07673072
19	0x3e0b4b15	0.1360286
20	0xbc441668	-0.011968233
21	0xbe3a07b4	-0.18167001
22	0x3e004804	0.12527472
23	0xbcd9ec50	-0.02660194
24	0x3d84a000	0.0647583
25	0xbe5801c1	-0.21094419
26	0xbdcc43b3	-0.0997385
27	0xbe0c1947	-0.13681518
28	0xbcd5ac25	-0.026083061
29	0xbd829172	-0.06375398
30	0xbdb6a64a	-0.08918436
31	0xbd921e75	-0.071347155

running_mean f4 [32]
0	0xbc09de40	-0.008414805
1	0x3eb5c111	0.3549886
2	0xbcb3f950	-0.021969467
3	0x3dbd9b0b	0.09258088
4	0xbc3cd56f	-0.011525496
5	0xbe10e31a	-0.14149132
6	0xbd0f449e	-0.034977548
7	0x3e354429	0.17701782
8	0xbdd398b5	-0.10331861
9	0xbc68378f	-0.014173402
10	0xbd3df9cf	-0.046380814
11	0x3e3e534c	0.18586463
12	0xbe413008	-0.18865979
13	0xbe6738ee	-0.2258031
14	0xbd9c5ee9	-0.0763529
15	0x3e133516	0.1437572
16	0xbe06268e	-0.13100645
17	0x3e15db64	0.14634472
18	0xbe241637	-0.160241
19	0xbd9a4111	-0.07531942
20	0x3e4b74aa	0.19868723
21	0xbe5ea8b2	-0.2174404
22	0xbdf4208c	-0.1192027
23	0x3ea30013	0.31835994
24	0xbdcc7d14	-0.09984794
25	0xbd72aef5	-0.059248883
26	0x3d79f35c	0.0610231
27	0xbe11fad8	-0.14255846
28	0xbc3a2f9b	-0.011363889
29	0x3e4ab134	0.1979416
30	0x3e389032	0.18023756
31	0xbc9a8d3f	-0.01886618

running_var f4 [32]
0	0x3c000202	0.007812979
1	0x3bcdc42b	0.0062794886
2	0x3c28b197	0.010296247
3	0x3b90fb99	0.004424524
4	0x3bc553be	0.0060219457
5	0x3b874140	0.0041276515
6	0x3c1f6f9b	0.009731199
7	0x3ae67e5d	0.0017585267
8	0x3b809b8a	0.0039247917
9	0x3b98a1eb	0.004657974
10	0x3ba3541d	0.0049843923
11	0x3b37d45b	0.0028050158
12	0x3c173e2b	0.009231131
13	0x3b0c7d24	0.0021436894
14	0x3a183624	0.00058064074
15	0x3b0171d6	0.001975169
16	0x3bb7cdef	0.005609266
17	0x3b12b7ac	0.002238731
18	0x3c11aa7e	0.008890746
19	0x3bc3ba16	0.005973111
20	0x3c53533c	0.012898263
21	0x3b2e48f8	0.0026593786
22	0x3a08a48b	0.0005212507
23	0x3ba589c1	0.005051822
24	0x3baf417a	0.0053483816
25	0x3b30793f	0.0026927737
26	0x3cbf8dc8	0.023383036
27	0x3b57dda7	0.0032938512
28	0x3ba77b34	0.0051111225
29	0x3c969d10	0.01838544
30	0x3bf14698	0.0073631518
31	0x3c136e9b	0.008998538

weight f4 [32, 32, 3, 3]
0	0x3b9eca13	0.0048458665
1	0x3bf17113	0.007368216
2	0x3a603e36	0.0008554192
3	0xbba66549	-0.005077992
4	0x3c382288	0.011238702
5	0xbc891de8	-0.016737893
6	0x3cf9dc1a	0.03050046
7	0x39966a79	0.00028689558
8	0xbb8ac4ad	-0.0042348714
9	0xbd4fb5b0	-0.05071038
10	0x3c2cc298	0.010544442
11	0xbbfc1ac8	-0.0076936223
12	0xbcb5f776	-0.022212725
13	0x3c7f1d71	0.015570984
14	0xbd02f14a	-0.031968392
15	0x3cfb896f	0.030705182
16	0x3c4c7ebd	0.012481389
17	0xbcd9e027	-0.026596142
18	0x3c6c02ff	0.014405011
19	0x3c91487c	0.017734759
20	0xbc9a0cc0	-0.018804908
21	0xbac65fdb	-0.0015134768
22	0x3c9777a2	0.018489663
23	0xbd4612d4	-0.0483578
24	0xbc201bbc	-0.009772237
25	0xbcf96cb5	-0.030447343
26	0xbcddd3ae	-0.027078476
27	0xbd0b7423	-0.034046303
28	0xbd16421a	-0.036684133
29	0xba35c3d2	-0.00069337816
30	0x3c89558f	0.01676443
31	0xbb860fda	-0.004091245
32	0xbc6288a2	-0.013826521
33	0x3d24acb8	0.04020378
34	0xbcef0dbc	-0.029181354
35	0xbd44c39a	-0.048038103
36	0xbd125cb1	-0.03573293
37	0x3c6e6972	0.014551507
38	0xbc9b9719	-0.018992947
39	0xbd365733	-0.044516753
40	0x3c89fa2b	0.016842922
41	0xbcc48357	-0.023988409
42	0xbd86470a	-0.065565184
43	0xbc11461b	-0.008866812
44	0x3cece704	0.02891875
45	0xbcc8b0a9	-0.0244983
46	0x3acc743c	0.0015598605
47	0x3d2334a3	0.03984512
48	0xbbdf7d31	-0.006820344
49	0x3c6c518e	0.014423741
50	0x3bcf38d5	0.0063239136
51	0x3c015389	0.0078934515
52	0x3c56bc0a	0.013106355
53	0x3d328b7e	0.04359006
54	0xbc4340c6	-0.011917299
55	0x3a9981e4	0.0011711684
56	0x3c4e5a0a	0.012594709
57	0x3ccfdd7a	0.025374163
58	0xbd36f920	-0.044671178
59	0x3cd2d85a	0.02573793
60	0xbd5f5e91	-0.054533545
61	0x3ca95649	0.020671027
62	0x3bfcb7a1	0.00771232
63	0x3c5b23b3	0.013375211
64	0x3bc0aac7	0.0058797332
65	0x3d171080	0.03688097
66	0x3d197fa4	0.037475243
67	0x3c864e3d	0.016394729
68	0x3c949281	0.018136265
69	0x3c0ffcb6	0.008788278
70	0x3b2bcf04	0.002621592
71	0x3ccab0ba	0.024742473
72	0x3ae21477	0.0017248531
73	0x3cd29479	0.025705563
74	0x3caeaf0c	0.021323703
75	0xbc66ac3e	-0.014079152
76	0xbbae1e17	-0.0053136456
77	0x3c323270	0.010876283
78	0xbbb392bc	-0.0054801386
79	0xbc903b7b	-0.017606487
80	0x3d3a9ca9	0.04555956
81	0x3d9049d2	0.0704533
82	0x3bd93769	0.00662892
83	0x3cbe4864	0.023227878
84	0x3d8cc203	0.06872942
85	0xbc3f29b3	-0.011667657
86	0x3c9deb7d	0.019277329
87	0x3d285f9f	0.041106816
88	0x3d27c44b	0.040958684
89	0x3b0cd949	0.0021491817
90	0xbd65629e	-0.05600225
91	0xbc9061cc	-0.017624758
92	0xbc386e6d	-0.011256796
93	0xbbac1d6d	-0.0052525313
94	0xbc13b643	-0.009015623
95	0x3c82898e	0.015934732
96	0xbd42e360	-0.047580123
97	0xbd33bb35	-0.043879706
98	0xbd8b525a	-0.06802817
99	0xbc642398	-0.013924502
100	0x3a72496a	0.0009242507
101	0xbcf2cd45	-0.029638896
102	0xbcbb6b81	-0.02287841
103	0xbcdf5e10	-0.027266532
104	0xbda61b9e	-0.08110736
105	0xbc0e7b38	-0.00869637
106	0xbd16c882	-0.036812313
107	0xbd41b6e5	-0.047293562
108	0x3d42787f	0.047478195
109	0xbca8c98a	-0.020603914
110	0xbab221be	-0.0013590378
111	0x3d722ebc	0.0591266
112	0xbd8e90ea	-0.06961234
113	0x3cad6bd7	0.021169586
114	0x3cb35533	0.021891212
115	0xbd2518c9	-0.04030684
116	0x3c45a5be	0.012063442
117	0x3bac5333	0.0052589416
118	0xbd37fe7d	-0.044920433
119	0xbbb6e3ee	-0.0055813706
120	0x3abebe36	0.0014552537
121	0xbd65b45f	-0.05608022
122	0x3b72f2d5	0.0037071009
123	0xbce52f48	-0.027976647
124	0xbd813fa9	-0.0631097
125	0xbcec65ca	-0.02885713
126	0xb787c77c	-1.6186146e-05
127	0xbd1302d4	-0.03589137
128	0xbcfbd935	-0.03074322
129	0xbd3bfaec	-0.045893595
130	0x3cbc9e0b	0.02302458
131	0x3d35e85c	0.04441105
132	0xbd381bc4	-0.044948354
133	0xbd2c4c3b	-0.042064887
134	0xbbb9374f	-0.0056523453
135	0x3cb0f19e	0.021599587
136	0x3d2f5214	0.042802885
137	0x3d8e7e32	0.069576636
138	0xbcd7eddd	-0.02635854
139	0x3c98b077	0.018638832
140	0x3d190488	0.037357837
141	0x3d33856a	0.043828405
142	0x3d1cdf24	0.03829874
143	0xbc7d6b45	-0.01546747
144	0xbcff9512	-0.031199012
145	0x3c2309d1	0.009951071
146	0xbc1b282a	-0.009470025
147	0xbcfd8e8c	-0.03095176
148	0xbd755d24	-0.05990328
149	0x3c85ca9d	0.016331965
150	0x3c8a6e14	0.016898192
151	0xbba1c784	-0.004937114
152	0xbc5cc07e	-0.013473628
153	0x3d01f5d8	0.031728595
154	0xbd052acc	-0.032511517
155	0x3a17879d	0.0005780401
156	0x3b41a38f	0.0029546951
157	0x3ca92ee7	0.020652248
158	0x3cea7b6b	0.028623303
159	0xbac91b25	-0.0015343173
160	0xbc96cef3	-0.018409228
161	0x3c94c086	0.018158209
162	0xbca87f21	-0.020568432
163	0xbce7d66f	-0.028300492
164	0xbcd14b2f	-0.025548546
165	0x3cfd28b8	0.030903205
166	0xbcbdc9f4	-0.023167588
167	0x3cea5046	0.02860273
168	0x3d080117	0.033204164
169	0x3cdaaaed	0.026692832
170	0xbcb2b9b8	-0.021817073
171	0xbcef42bc	-0.029206626
172	0xbb063cd3	-0.0020483031
173	0x3ce12f63	0.027488416
174	0x3b81c83d	0.003960638
175	0x3bff944a	0.00779966
176	0x3c9b7c69	0.018980222
177	0x3c125e5f	0.008933633
178	0x3d0dd0a6	0.03462281
179	0x3c05e363	0.008171889
180	0xbc06d6f8	-0.0082299635
181	0x3c7826f8	0.01514601
182	0xbd78d1aa	-0.060746826
183	0xbd25b691	-0.040457312
184	0xbc94bb00	-0.018155575
185	0xbc1c393c	-0.00953513
186	0x3bd3f54a	0.0064684497
187	0xbcdaa99e	-0.026692208
188	0xbc702b4a	-0.014658758
189	0x3d36fe2e	0.044676
190	0x3d29bca2	0.04143966
191	0xbc926116	-0.01786856
192	0xbac218d0	-0.001480842
193	0x3cf60201	0.030030252
194	0xbcb88945	-0.022526393
195	0xbb06821d	-0.002052433
196	0x3d3d68ca	0.046242513
197	0x3d9aa2e0	0.07550597
198	0xbc0f987f	-0.008764385
199	0x3c1732b7	0.0092284
200	0xbbd9ae7b	-0.006643114
201	0xbd0ab86e	-0.033867292
202	0x3d34b0b4	0.04411383
203	0x3ca3f3f6	0.02001379
204	0x3c92b21b	0.017907193
205	0x3d038564	0.032109633
206	0x3d5a16d2	0.05324442
207	0xbc6d79c3	-0.014494362
208	0x3c7769ed	0.015100938
209	0x3b7da75d	0.0038704493
210	0xbb7673e6	-0.0037605702
211	0x3cc62e61	0.024192037
212	0x3d004cde	0.031323306
213	0xbc581868	-0.013189413
214	0xbcb87b45	-0.022519717
215	0xbd79e78b	-0.061011832
216	0xbd837e18	-0.06420535
217	0xbc9d3e4e	-0.019194748
218	0xbc1e356c	-0.009656291
219	0xbd6f0f24	-0.05836405
220	0xbb5ceaa0	-0.0033709183
221	0x3cc05923	0.023480004
222	0xbdd16025	-0.10223416
223	0xbd2721d5	-0.04080375
224	0xbcfa0b03	-0.030522829
225	0xbc9e4a5b	-0.019322565
226	0x3c7d548a	0.01546205
227	0xbda897bf	-0.08232068
228	0xbca3fdf1	-0.02001855
229	0x3bf0fc37	0.007354285
230	0xbc684ff4	-0.014179219
231	0xbc45e0b7	-0.012077502
232	0x3c8beca8	0.01708062
233	0xbd1a10bf	-0.037613627
234	0x3caf392d	0.021389568
235	0x3c4e7aff	0.012602567
236	0x3caede04	0.0213461
237	0x3d0031ea	0.0312976
238	0x3c366f7f	0.011134981
239	0x3d1543db	0.036441665
240	0xbb628a99	-0.0034567474
241	0x3c2534b8	0.01008337
242	0x3cd08ff6	0.02545927
243	0x3d800dc2	0.06252624
244	0xbc855866	-0.016277503
245	0x3d96c76e	0.07362257
246	0x3d251777	0.04030558
247	0x3d7b5c2e	0.061367206
248	0x3ca89264	0.020577617
249	0xbca501be	-0.020142432
250	0x3da3b677	0.07993787
251	0x3d577614	0.052602842
252	0xbd1d976e	-0.038474493
253	0xbdedaaf1	-0.1160487
254	0x3cb1dd40	0.021711946
255	0xbc5124bb	-0.012765105

bias f4 [32]
0	0xbd43488d	-0.04767661
1	0x3b593cfd	0.0033147924
2	0x3cdfeabe	0.027333613
3	0xbd495485	-0.04915287
4	0x3c3802ed	0.011231166
5	0x3d2e6133	0.042573165
6	0x39f0d8dc	0.0004593794
7	0x3d3774ae	0.04478901
8	0xbcd89b6a	-0.026441295
9	0xbcb0de69	-0.021590428
10	0x3d0e0b0a	0.034678496
11	0xbd0daa30	-0.03458613
12	0x3c4bee2a	0.012446919
13	0xbd4382d4	-0.04773219
14	0x3b7b2c7c	0.0038326075
15	0xbd259636	-0.040426455
16	0xbb511f42	-0.00319095
17	0x3cb57ba0	0.022153676
18	0x3b927742	0.004469783
19	0xbd14bfb6	-0.036315642
20	0xbd326ede	-0.043562762
21	0xbbfb1059	-0.007661861
22	0xbd5dddc7	-0.05416658
23	0x3a4381e8	0.0007458017
24	0xbd0a6c29	-0.033794556
25	0x3d1c1607	0.038106944
26	0xbad0018c	-0.0015869602
27	0xbd002085	-0.031281013
28	0xbd3c6ca7	-0.046002056
29	0x3cdf4e05	0.027258882
30	0x3cf6a837	0.030109508
31	0x3bf307d5	0.007416705

weight f4 [32]
0	0x3f83d987	1.0300759
1	0x3f75910d	0.95924455
2	0x3f674b70	0.90349483
3	0x3f85188f	1.039812
4	0x3f7b5867	0.98181766
5	0x3f7ec308	0.99516344
6	0x3f87c885	1.0608069
7	0x3f7fb712	0.9988872
8	0x3f74eedf	0.9567699
9	0x3f82d3dc	1.0220904
10	0x3f80bd3c	1.005775
11	0x3f7b8880	0.9825516
12	0x3f78f543	0.9724924
13	0x3f732121	0.94972426
14	0x3f80cc66	1.0062377
15	0x3f833d79	1.0253135
16	0x3f85e139	1.0459358
17	0x3f86746e	1.0504282
18	0x3f78373e	0.9695929
19	0x3f89e6b2	1.0773528
20	0x3f84c85e	1.0373647
21	0x3f7b2054	0.98096204
22	0x3f7f4954	0.99721265
23	0x3f81fdff	1.0155638
24	0x3f7091be	0.93972385
25	0x3f7f4c25	0.9972556
26	0x3f70e514	0.94099545
27	0x3f7c699d	0.98598653
28	0x3f848b98	1.0355101
29	0x3f75e7df	0.9605693
30	0x3f7d080a	0.9884039
31	0x3f759089	0.9592367

bias f4 [32]
0	0xbd695731	-0.056967918
1	0x3d8b39af	0.06798112
2	0xbe1e37d9	-0.15450992
3	0x3af26034	0.0018491806
4	0xbe15d5b6	-0.14632306
5	0xbdbb33f4	-0.09140769
6	0xbcb1317d	-0.021630043
7	0xbe6df9f6	-0.23239884
8	0xbddff53c	-0.109354466
9	0x3cd15e9c	0.025557809
10	0xbb79711c	-0.0038061803
11	0xbd99fae8	-0.0751856
12	0xbe0ee1fd	-0.13953395
13	0xbd137ef7	-0.036009755
14	0xbea0ebbb	-0.31429848
15	0xbdba5cd7	-0.09099739
16	0xbdc6b638	-0.09702724
17	0xbd99e3ef	-0.07514178
18	0xbe44846a	-0.19191137
19	0xbf11f4c7	-0.57014126
20	0xbe6a8619	-0.22902717
21	0xbdf468f1	-0.119340785
22	0xbe2f8043	-0.17138772
23	0xbe543961	-0.20725013
24	0xbe1074db	-0.14107077
25	0xbe8168c2	-0.25275236
26	0xbe1d1078	-0.15338314
27	0xbe16d728	-0.14730513
28	0xbe0af0f6	-0.13568482
29	0xbd6d8ec0	-0.057997465
30	0xbb857b0f	-0.0040735076
31	0xbe9ada39	-0.30244616

running_mean f4 [32]
0	0xbe4dffdd	-0.20117135
1	0xbedcba9e	-0.43111128
2	0x3da1342a	0.07871278
3	0x3eb29f07	0.34886953
4	0x3f478982	0.77944195
5	0xbe92f5ff	-0.28703305
6	0xbf0ce722	-0.5504018
7	0x3e988b22	0.2979365
8	0x3f10286f	0.56311697
9	0xbeac7246	-0.33680934
10	0x3db63f7d	0.08898828
11	0xbe60f370	-0.21967864
12	0x3ece3b40	0.4027958
13	0xbda5bf8a	-0.08093174
14	0x3e791576	0.24324593
15	0xbf7982b8	-0.97465086
16	0xbf277221	-0.6540852
17	0xbee3d213	-0.4449621
18	0x3f690cec	0.9103534
19	0xbeadcc44	-0.33944905
20	0x3e0c6fe5	0.1371456
21	0x3f144f34	0.57933354
22	0x3d4b5bcb	0.049648087
23	0x3eaba1b5	0.3352181
24	0xbb03d6bc	-0.0020117005
25	0x3e6e481c	0.23269695
26	0xbdd781aa	-0.10522778
27	0x3cf2aaf5	0.029622534
28	0xbe3d6570	-0.18495727
29	0xbedd9497	-0.43277428
30	0xbe41e5ce	-0.1893532
31	0x3dfe169d	0.12406657

running_var f4 [32]
0	0x3ec7fe89	0.39061382
1	0x3f177dba	0.5917622
2	0x3e6005df	0.2187724
3	0x3e79136c	0.24323815
4	0x3e795854	0.24350101
5	0x3e263925	0.16232736
6	0x3e58e22a	0.21180025
7	0x3e66b8c6	0.22531423
8	0x3ebf6cfb	0.37387833
9	0x3e5c70ad	0.21527357
10	0x3e965d4d	0.29368058
11	0x3e7a3bf8	0.24436939
12	0x3e314b03	0.17313771
13	0x3ed7bda6	0.42136878
14	0x3e14f959	0.14548244
15	0x3f39bbe1	0.72552305
16	0x3edd2544	0.43192494
17	0x3f0f93b6	0.56084764
18	0x3eea0491	0.4570661
19	0x3e68d5bb	0.22737782
20	0x3e9e988c	0.3097576
21	0x3ea21c54	0.31662238
22	0x3ea700ea	0.32617885
23	0x3e72aa50	0.23697782
24	0x3db75d5d	0.089533545
25	0x3e0b2b19	0.13590659
26	0x3e76b944	0.2409411
27	0x3e81a427	0.2532055
28	0x3e61ca65	0.22049864
29	0x3eb3c263	0.35109243
30	0x3e9f0d59	0.3106487
31	0x3e0e9607	0.13924418

weight f4 [32, 32, 3, 3]
0	0x3ca72ad7	0.02040617
1	0x3d029b10	0.03188616
2	0x3d88d0f1	0.066804774
3	0xbd70f529	-0.058827553
4	0x3d03b3ec	0.03215401
5	0xbc830186	-0.015991937
6	0xbd1fbf86	-0.03900101
7	0x3d6f1835	0.058372695
8	0xbc921056	-0.017830055
9	0x3aaf58ab	0.0013377866
10	0x3b0f54e6	0.0021870672
11	0x3c20a909	0.009805926
12	0xbcf2335b	-0.029565504
13	0xbc7acc22	-0.015307458
14	0xbb9b1a3d	-0.0047333525
15	0xbb89b137	-0.004202034
16	0x3bcff127	0.0063458863
17	0xbc85f53e	-0.016352292
18	0x3d8dc8a2	0.06923033
19	0xbc12f673	-0.008969891
20	0x3bdcbcf6	0.006736393
21	0x3c828efe	0.015937325
22	0x3d070508	0.032963783
23	0x3be62fe8	0.007024754
24	0x3bcdf4c7	0.0062852832
25	0x3cdf5a3a	0.027264703
26	0x3d038117	0.03210553
27	0x3bf32391	0.0074200113
28	0x3ce9242d	0.028459633
29	0xbd0864f2	-0.033299394
30	0xbb88de56	-0.004176895
31	0x3d7a86ec	0.061163828
32	0x3c58ac7b	0.013224716
33	0x3cd1f376	0.025628787
34	0xbd408fbb	-0.047012072
35	0x3b727625	0.003699669
36	0x3d4525b5	0.048131663
37	0xba938356	-0.0011254351
38	0x3d01b4ad	0.031666446
39	0x3c882c3d	0.016622657
40	0x3bad1fb6	0.0052833213
41	0x3a9880e0	0.0011635087
42	0xbd0a58c3	-0.033776056
43	0xbd7438ac	-0.05962436
44	0xbd5cf851	-0.05394775
45	0xbd5ea746	-0.054358743
46	0xbd3ca1d2	-0.04605276
47	0x3b72b2fc	0.0037032953
48	0xbc4b472f	-0.012407108
49	0x3c19c349	0.0093849385
50	0xbc7ef46b	-0.0155612035
51	0x3d53c3e6	0.051700495
52	0xbd45e839	-0.048317168
53	0xbc12d6cb	-0.008962343
54	0x3d301b9f	0.04299509
55	0xbc99257f	-0.018694637
56	0xbb9700d4	-0.004608253
57	0x3c352abf	0.011057555
58	0x3d63765a	0.05553279
59	0xbbff28d4	-0.0077868495
60	0xbd1b1c61	-0.03786886
61	0x3c82be1f	0.015959797
62	0xbd578fe8	-0.052627474
63	0xbca3e235	-0.020005325
64	0xbd3d296f	-0.046182092
65	0x3d0f4c2a	0.034984745
66	0x3c97740a	0.018487949
67	0xbd05ed3f	-0.03269696
68	0xba196ff4	-0.0005853169
69	0x3c223cbf	0.009902178
70	0x3cd64729	0.026156979
71	0xbc93d62c	-0.018046461
72	0x3bdfe9c0	0.006833285
73	0x3ca435ca	0.02004518
74	0xbda5d5b5	-0.08097402
75	0x3cfdef8d	0.030998016
76	0xb8df1a58	-0.000106383755
77	0x3c9691a7	0.01838
78	0x3bdfba6b	0.0068276427
79	0xbcaaf69d	-0.020869548
80	0x3c8266a0	0.015918076
81	0xbd535aac	-0.051600143
82	0xbc853de2	-0.01626486
83	0xbce0fc87	-0.027464164
84	0xbd0c6f0b	-0.034285586
85	0x3ce86805	0.028369913
86	0xbcd8bd6d	-0.026457513
87	0x3c0bafa3	0.008525762
88	0xbc8b6297	-0.017014785
89	0x3ccaa2fe	0.024735924
90	0xbcfe0def	-0.031012503
91	0xbd0a70a7	-0.03379884
92	0xbcc8fad0	-0.02453366
93	0x3cddcd66	0.02707548
94	0xbb42c13c	-0.0029717227
95	0xbcac7493	-0.02105168
96	0x3d0ee737	0.034888472
97	0xbcfcc901	-0.030857565
98	0xbd0e2692	-0.034704752
99	0xbd0fffa7	-0.03515592
100	0xbd7abc54	-0.06121476
101	0xbd8b8c70	-0.06813896
102	0xbba2781a	-0.004958165
103	0x3bf53270	0.0074828193
104	0x3c64b04a	0.013958046
105	0xbd01feee	-0.03173726
106	0xbd38beaa	-0.045103706
107	0xbd55ad07	-0.052166965
108	0x3b9243a8	0.0044636317
109	0xbd70b5ea	-0.058767237
110	0xbd704b14	-0.05866535
111	0x39a08837	0.00030619066
112	0x3cb0d64a	0.021586556
113	0xbcc7c14e	-0.024384167
114	0x3d2e8447	0.04260662
115	0x3d30f6a3	0.04320396
116	0xbc9a48ff	-0.018833635
117	0xbce3d3ae	-0.027810898
118	0xbc943628	-0.01809223
119	0x3c57a5a7	0.013162053
120	0xbd334e31	-0.04377574
121	0x3ba83c8f	0.0051341723
122	0xbd7b1b4c	-0.06130533
123	0xbca9eaf8	-0.020741925
124	0xbcf44442	-0.029817704
125	0x3c3ed4f8	0.011647455
126	0xbc1085bf	-0.00882095
127	0x3bdde1f2	0.0067713195
128	0x3ca58ffe	0.020210262
129	0x3c091f7a	0.008369321
130	0xbbfccf45	-0.007715138
131	0x3d5aaede	0.053389423
132	0xbc97cb34	-0.018529512
133	0x3beac699	0.007164788
134	0x3cc63458	0.024194881
135	0xbd640422	-0.055668004
136	0xbc596b0b	-0.01327015
137	0x3bc901cb	0.006134247
138	0xbc6edc2b	-0.014578859
139	0xbcbed268	-0.023293689
140	0x3d265378	0.040606946
141	0xbc93aa54	-0.018025555
142	0xbcf48cf8	-0.029852375
143	0x3d8ab904	0.0677357
144	0x3b20b93a	0.0024524466
145	0x3d7edf8a	0.062224902
146	0x3d9e515b	0.07730361
147	0xbc099a4c	-0.008398604
148	0xbc1c1158	-0.009525619
149	0x3d48566d	0.048910547
150	0xbd0ae4d4	-0.033909634
151	0xbcb9888a	-0.022648115
152	0x3cf4fb63	0.029905027
153	0xbcb97891	-0.022640498
154	0xbd0828c8	-0.033242017
155	0x3bfce137	0.0077172774
156	0x3b6243f2	0.0034525362
157	0x3c9d0c10	0.01917079
158	0x3d40d95d	0.047082294
159	0x3ca14735	0.019687274
160	0x3c972827	0.018451763
161	0x3d15ecd7	0.03660282
162	0x3d16066d	0.03662722
163	0x3c9d5e56	0.019210022
164	0xbc38c4bc	-0.011277374
165	0x3bfb7ac6	0.007674548
166	0xbd3cd0c1	-0.04609752
167	0xbce4fb4e	-0.027951863
168	0xbd2fdeb1	-0.042936984
169	0xbb5166aa	-0.0031952062
170	0xbc483dcb	-0.012221764
171	0x3d7d5633	0.061849784
172	0x3d5678ac	0.052361175
173	0x3d43d4fd	0.047810543
174	0x3daf0566	0.085459515
175	0xbbe8ba43	-0.0071022823
176	0xbb264bda	-0.00253748
177	0xbd535285	-0.05159237
178	0xbd1f624f	-0.038912114
179	0xbd4d7e93	-0.05016954
180	0xbcbe9d14	-0.02326826
181	0xbd84f5bb	-0.06492182
182	0xbd39f59d	-0.04540025
183	0x3cb4e3df	0.022081314
184	0xbd4c3083	-0.049850952
185	0xbda3dcc6	-0.080010936
186	0xbd88ec46	-0.066856906
187	0x3b8d6174	0.004314596
188	0xbd78a154	-0.06070073
189	0xbd12bf7b	-0.03582714
190	0xbc4ee43b	-0.012627657
191	0xbda070c4	-0.07834008
192	0x3bde1fd1	0.006778695
193	0x3cf9f62f	0.030512897
194	0x3b9e8ec3	0.004838796
195	0x3ca11caa	0.019666988
196	0x3d1cdda6	0.038297318
197	0xbcf792dc	-0.030221395
198	0x3c9d7aed	0.019223655
199	0x3cd7b2fc	0.026330464
200	0x3c1be2f0	0.009514555
201	0x3c9fb6ec	0.019496404
202	0xbc3daeb2	-0.011577295
203	0xbc940913	-0.018070733
204	0xbd0f94eb	-0.03505413
205	0x3ba0bd57	0.0049053836
206	0x3bfb051d	0.0076605217
207	0x3d847c54	0.06469026
208	0x3d8766a2	0.066113725
209	0x3cf2930a	0.02961113
210	0x3cb8c1b9	0.022553312
211	0x3cf0da41	0.029400947
212	0x3cd459a0	0.025921643
213	0xbbbb6566	-0.0057188747
214	0x3d351a6a	0.044214644
215	0xbd0f0ce4	-0.034924403
216	0xbd0e1ced	-0.034695555
217	0xbd1c6128	-0.038178593
218	0xbd0d6991	-0.034524504
219	0xb8b8d8c7	-8.814182e-05
220	0xbd168d5b	-0.0367559
221	0xbca61dc6	-0.020277869
222	0xbd64d36e	-0.055865698
223	0xbc2c1c98	-0.010504864
224	0xbcb37374	-0.021905638
225	0xbbc79df2	-0.0060918266
226	0xbc0afe6d	-0.008483511
227	0xbd7c8ab4	-0.061655715
228	0x3c2f1c8c	0.010687958
229	0xbd21f791	-0.03954274
230	0x3c637dee	0.013885004
231	0xbceb41f6	-0.028717976
232	0xbd159fd2	-0.03652937
233	0x3c6b5431	0.0143633345
234	0x3b90c168	0.004417587
235	0x3cf817c1	0.030284764
236	0xbd6557c6	-0.05599191
237	0x3c0c0535	0.008546163
238	0x3cc0d954	0.02354113
239	0xbd89daf1	-0.06731213
240	0xbb9a3e95	-0.0047071674
241	0x3ccee79e	0.025256928
242	0xbd1281e5	-0.03576841
243	0xbc7266fe	-0.014795063
244	0x3d411842	0.047142275
245	0xbc3866d6	-0.011254987
246	0x3bd66919	0.0065432903
247	0x3b8daebf	0.00432381
248	0x3d140a99	0.03614292
249	0xbcc74844	-0.024326451
250	0x3cdcd790	0.026958257
251	0x3d569cce	0.052395634
252	0x3cc5fad6	0.02416746
253	0xbd0a333e	-0.033740275
254	0xbd7f3e7f	-0.06231546
255	0x3b8acfd0	0.004236199

bias f4 [32]
0	0x3d3bfcb8	0.04589531
1	0xbd693329	-0.056933556
2	0x3d27c170	0.04095596
3	0xbcfdca1b	-0.03098016
4	0xbd53b7a7	-0.051688816
5	0xbc1be09c	-0.009514
6	0xbc9f36bf	-0.019435285
7	0xbd487c8f	-0.048946913
8	0xbcc93ca8	-0.024565056
9	0x3d7334c0	0.05937648
10	0x3abd15b7	0.0014426027
11	0x3d096b85	0.033549804
12	0xbd4fa2a4	-0.050692216
13	0xbd4030ae	-0.046921425
14	0x3d4d002f	0.050049003
15	0x3cc8b4a0	0.024500191
16	0x3c09e812	0.008417146
17	0x3cb7d232	0.022439096
18	0x3d24763e	0.040151827
19	0x3d6474af	0.05577534
20	0x3d2800da	0.041016437
21	0xbc65b91a	-0.014021182
22	0xbb9b3cd1	-0.0047374745
23	0xbca5215e	-0.020157512
24	0xbd3cd618	-0.046102613
25	0xbd4b90f7	-0.049698796
26	0xbd125678	-0.035726994
27	0x3c90d6cc	0.017680548
28	0x3d0de908	0.034646064
29	0x3c7c8d09	0.015414485
30	0xbc81756c	-0.015803061
31	0x3cbd28e0	0.02309078

weight f4 [32]
0	0x3f7fb688	0.99887896
1	0x3f7aacc5	0.97919875
2	0x3f805b33	1.0027832
3	0x3f73e75e	0.95274913
4	0x3f804831	1.0022031
5	0x3f804bba	1.002311
6	0x3f7ef14f	0.9958696
7	0x3f82a082	1.0205233
8	0x3f75cbf5	0.9601434
9	0x3f7e1f9c	0.9926698
10	0x3f87cc3d	1.0609204
11	0x3f781fa2	0.9692327
12	0x3f7cb48d	0.98713
13	0x3f82cec5	1.0219351
14	0x3f7a9002	0.9787599
15	0x3f7beaa1	0.9840489
16	0x3f72b2e1	0.948042
17	0x3f74e17c	0.9565656
18	0x3f7cf233	0.98807067
19	0x3f739140	0.9514351
20	0x3f7d1eb9	0.98875004
21	0x3f75f13e	0.9607123
22	0x3f7f454d	0.9971512
23	0x3f812ae1	1.0091211
24	0x3f7ee5c0	0.9956932
25	0x3f784b35	0.96989757
26	0x3f779553	0.96712226
27	0x3f87697f	1.057907
28	0x3f8158ce	1.0105226
29	0x3f7b2192	0.980981
30	0x3f80ace3	1.0052761
31	0x3f8403de	1.031368

bias f4 [32]
0	0x3d058624	0.03259863
1	0xbd9b5e97	-0.07586401
2	0x3c6bd107	0.014393098
3	0xbe9e4eb0	-0.3091941
4	0xbe5d6449	-0.21620287
5	0x3ca17544	0.019709237
6	0xbe32c9de	-0.17459819
7	0xbc8503bf	-0.016237138
8	0xbea02e32	-0.31285244
9	0xbdba4723	-0.090955995
10	0xbde9d9d7	-0.11418503
11	0xbd555f24	-0.052092686
12	0xbe4dfd60	-0.20116186
13	0xbe470ebf	-0.19439219
14	0xbdb6e974	-0.089312464
15	0xbd6c6202	-0.057710655
16	0xbd0bb130	-0.034104526
17	0x3cc48623	0.023989743
18	0xbe5dd3af	-0.21662782
19	0xba7666f1	-0.0009399495
20	0xbe844af2	-0.2583843
21	0xbe42c097	-0.1901878
22	0xbe873645	-0.26408592
23	0xbdf1f239	-0.118137784
24	0xbeb2f32f	-0.3495116
25	0xbe034163	-0.12817912
26	0xbea65afb	-0.32491288
27	0xbe671355	-0.22565968
28	0xbd22a2a3	-0.039705884
29	0xbe31c5b1	-0.1736057
30	0xbea45808	-0.32098413
31	0xbddaae66	-0.10677795

running_mean f4 [32]
0	0xbe738cdb	-0.23784201
1	0xbe4af9b9	-0.19821824
2	0xbe4be1b7	-0.19910322
3	0x3d844326	0.0645812
4	0xbe6657d4	-0.22494441
5	0xbe29412b	-0.16528766
6	0xbdf6e565	-0.12055472
7	0xbb9fbde9	-0.004874934
8	0x3e6fdd2e	0.23424217
9	0x3ed91139	0.42395952
10	0x3ee575f5	0.44816557
11	0x3f39cb84	0.72576165
12	0x3e213404	0.15742499
13	0xbe575396	-0.21027979
14	0x3d71fc06	0.05907824
15	0xbe5f6fcf	-0.21819995
16	0xbebe543f	-0.3717365
17	0xbe452ff1	-0.1925657
18	0x3e232b9b	0.15934603
19	0xbd2675e1	-0.04063976
20	0x3e6c3eac	0.23070782
21	0xbdd7562a	-0.10514481
22	0x3f2ef40e	0.6834115
23	0xbf327feb	-0.6972644
24	0x3f135271	0.5754767
25	0x3c09aba4	0.008402739
26	0x3e816f56	0.25280255
27	0xbf109aa2	-0.5648595
28	0x3ce9f887	0.02856089
29	0x3db2fbd8	0.08739442
30	0x3eea009e	0.45703596
31	0xbecb2a2e	-0.39680618

running_var f4 [32]
0	0x3deddd72	0.11614503
1	0x3edee511	0.4353414
2	0x3e691108	0.22760403
3	0x3e3f39f7	0.18674456
4	0x3e44eb60	0.19230413
5	0x3ebe4f74	0.37169993
6	0x3eb3937b	0.35073456
7	0x3e52acb9	0.20573701
8	0x3e558cc1	0.20854475
9	0x3eb1167e	0.34587473
10	0x3efbec80	0.49203873
11	0x3e8bd797	0.2731292
12	0x3ea36088	0.31909585
13	0x3df10073	0.11767664
14	0x3e245a10	0.16049981
15	0x3e5d1d34	0.21593171
16	0x3ee95378	0.45571494
17	0x3eb421c2	0.35182005
18	0x3e19d7f9	0.15023793
19	0x3e88d2d6	0.26723355
20	0x3eed5b86	0.4635889
21	0x3e1891a7	0.14899312
22	0x3ee229df	0.4417257
23	0x3e803518	0.25040507
24	0x3e77b0e2	0.24188569
25	0x3eeea29a	0.4660843
26	0x3e7179ab	0.23581569
27	0x3e2b8fd1	0.1675408
28	0x3e1c4618	0.15261114
29	0x3e203933	0.1564682
30	0x3e9d33cd	0.30703583
31	0x3e9fc02d	0.31201306

weight f4 [32, 32, 3, 3]
0	0xbc2e48f5	-0.0106375115
1	0x3ba83923	0.0051337644
2	0xbd50f65d	-0.0510162
3	0xbd6da9c4	-0.05802323
4	0x3db12d50	0.08651221
5	0xbd6639ad	-0.056207348
6	0xbca6daf4	-0.020368077
7	0x3d5ffff8	0.05468747
8	0x3c87a923	0.016560143
9	0x3bb4c689	0.0055168313
10	0xbbbecf57	-0.0058230567
11	0xbd37ecc5	-0.044903535
12	0x3c83552f	0.01603183
13	0xbb0d64be	-0.002157494
14	0xbce0b482	-0.027429823
15	0x3c0f457c	0.008744594
16	0x3d00bf94	0.031432703
17	0x3c97eb14	0.018544711
18	0x3ccd71ed	0.025078738
19	0xbc7fce54	-0.015613157
20	0xbd9adf56	-0.07562129
21	0x3c041d08	0.008063562
22	0xbcaf89e5	-0.021428058
23	0xbb8aaf75	-0.004232342
24	0xbd3488d3	-0.0440758
25	0x3d346c6b	0.044048708
26	0x3c0b6518	0.008507989
27	0xbd5123ff	-0.05105972
28	0x3ccb7d8b	0.024840137
29	0x3d54e152	0.051972695
30	0xbcf2d4e8	-0.029642537
31	0x3ca75d3d	0.020430202
32	0xbd923177	-0.07138341
33	0x3db45a5c	0.08806297
34	0x3d72a3f2	0.05923838
35	0xbc1a55b6	-0.009419849
36	0x3d40acdd	0.047039855
37	0x3d586a82	0.05283595
38	0xbc558e60	-0.013034433
39	0x3cd4361c	0.025904708
40	0x3ac06a76	0.0014680165
41	0xbbd472fb	-0.0064834333
42	0x3c860486	0.016359579
43	0xbc90e4b0	-0.017687172
44	0x3c65b194	0.014019389
45	0x3ce21a36	0.027600389
46	0x3c421f5e	0.011848299
47	0x3c95806b	0.018249711
48	0x3ceb0468	0.028688625
49	0xbc05c2b7	-0.008164099
50	0x3c04942c	0.008091968
51	0xbcab6247	-0.020920886
52	0x3c153d94	0.00910892
53	0xbc8bc156	-0.017059963
54	0xbd36591f	-0.044518586
55	0xbcaeb670	-0.021327227
56	0xbdac1881	-0.08403111
57	0x3c999399	0.018747138
58	0xbc4b25f7	-0.012399188
59	0x3c12c6ec	0.0089585595
60	0xbc82513f	-0.015907882
61	0xbb9167ea	-0.0044374363
62	0x3d9277c8	0.07151753
63	0x3d328ded	0.043592382
64	0xbc8c02a7	-0.017091108
65	0xbc9ee259	-0.01939504
66	0xbc3ac336	-0.011399081
67	0x3baac48c	0.0052114185
68	0xbd2d3562	-0.042287238
69	0xbad29902	-0.0016067328
70	0xbca81c61	-0.020521345
71	0xbc96f69d	-0.018428141
72	0xbb4dea8d	-0.003142032
73	0xbb2edd7e	-0.0026682313
74	0xbd613704	-0.054984108
75	0x3d0295e9	0.031881247
76	0xbcef8467	-0.029237939
77	0xbb06cf23	-0.002057024
78	0x3dbaf79c	0.09129259
79	0xbd2a1343	-0.041522276
80	0x3d5c2351	0.053744618
81	0x3d4b430c	0.049624488
82	0xbc85edff	-0.016348837
83	0xbd3c191f	-0.045922395
84	0xbc8efc69	-0.017454343
85	0xbd29ee66	-0.04148712
86	0xbdb84e62	-0.08999325
87	0xbd4e34dd	-0.050343383
88	0xbca63dad	-0.020293081
89	0xbd4ea6b5	-0.050451953
90	0xbd066818	-0.032814115
91	0xbc86e30d	-0.016465688
92	0x3c90725e	0.01763266
93	0x3b9d7d1a	0.004806173
94	0x3cbb11ac	0.022835575
95	0xbd0c1707	-0.034201648
96	0xbc0f9118	-0.00876262
97	0xbc08fad9	-0.008360588
98	0xbd8adc50	-0.067803025
99	0x3cf514ea	0.0299172
100	0x3c61e3cd	0.013787222
101	0x3cc6101c	0.024177603
102	0x3bd3b0d5	0.006460289
103	0xbc620556	-0.0137952175
104	0x3d22d0f4	0.039750054
105	0x3d093805	0.03350069
106	0xbcad6845	-0.021167884
107	0xbcdb95cd	-0.026804829
108	0xbd2edfe6	-0.042693995
109	0xbdd96e40	-0.10616732
110	0xbd1dab85	-0.038493652
111	0x3b979c18	0.004626762
112	0x3c8c3f5f	0.017120061
113	0xbc872abb	-0.016499868
114	0x3c99c730	0.018771738
115	0x3c303553	0.010754901
116	0xbc5241c3	-0.012833062
117	0x3ccc6fdc	0.024955682
118	0xbd10ff8b	-0.035399955
119	0xbc3aa3f1	-0.011391626
120	0x3d27baef	0.04094976
121	0xbbc9c92b	-0.0061580143
122	0xbc03b6f7	-0.008039228
123	0x3d3f9e73	0.04678197
124	0x3d70bd24	0.05877413
125	0xbd7d1525	-0.061787743
126	0xbca1a00f	-0.019729642
127	0xbd2e3aba	-0.042536475
128	0xbc880a29	-0.016606407
129	0x3cf6d30f	0.030129937
130	0xbd481a9f	-0.048853513
131	0xbccf7aaf	-0.025327055
132	0xbd488eb5	-0.04896422
133	0xbd0eb9c7	-0.03484514
134	0xbc5c69e4	-0.013452981
135	0x3cdb2d72	0.026755068
136	0xbd0451db	-0.032304626
137	0xbd251d7f	-0.040311333
138	0x3ce51c24	0.02796752
139	0x3cdca54c	0.026934288
140	0xbb770bb1	-0.0037696178
141	0x3d1b8a91	0.037973944
142	0xbce01afe	-0.02735662
143	0xbc802759	-0.015643762
144	0xbd3aa637	-0.04556867
145	0x3c5df901	0.013548137
146	0xbc380200	-0.011230946
147	0xbd4c38f9	-0.04985902
148	0xbcc7201e	-0.024307307
149	0xbc9c879b	-0.01910763
150	0x3bd67234	0.006544376
151	0x3c4deb31	0.012568281
152	0xbd00564a	-0.03133229
153	0xbcc12447	-0.023576869
154	0x3d4a0d78	0.04932925
155	0x3d6c9cf7	0.05776688
156	0xbcaa7030	-0.020805448
157	0x3c6c46b3	0.014421153
158	0xbd293392	-0.041308947
159	0xbd3ca69f	-0.04605734
160	0xbd3ce57f	-0.046117302
161	0x3cf75c1e	0.030195292
162	0xbbb1ac8c	-0.0054221805
163	0x3cb92557	0.022600813
164	0x3d09089f	0.033455487
165	0x3c921743	0.017833358
166	0x3d87f9b3	0.06639423
167	0xbc0c17dc	-0.00855061
168	0xbb73ba6f	-0.003718998
169	0x3ceb5c62	0.028730575
170	0x392c8677	0.0001645329
171	0xbd2f51cd	-0.04280262
172	0xbda9ecfe	-0.08297156
173	0xbd96a191	-0.07355035
174	0xbd308b2c	-0.043101475
175	0x3c85476e	0.016269412
176	0xbbfca43a	-0.007710007
177	0xbda28530	-0.0793556
178	0xbd200227	-0.039064553
179	0xbca01f6a	-0.01954623
180	0x3d83a955	0.06428782
181	0x3ce4a0a1	0.027908625
182	0x3d14ff51	0.0363763
183	0xbb916c42	-0.004437954
184	0xbc8db01d	-0.017295891
185	0xba9647d4	-0.0011465498
186	0x3db2035c	0.08692047
187	0x3d0b5c91	0.034023825
188	0x3bba8817	0.0056924927
189	0xbcf5c8a3	-0.030002898
190	0x3d0fafe0	0.035079837
191	0x3d44ca73	0.048044633
192	0x3caefebf	0.021361707
193	0xbccfe13c	-0.025375955
194	0xbc6c0ad3	-0.014406878
195	0x3cc4ba71	0.024014683
196	0x3d19409e	0.03741514
197	0xbc0fade1	-0.008769483
198	0x3c29ecf8	0.010371439
199	0x3b29fe4e	0.002593893
200	0xbcb2fa38	-0.02184783
201	0xbb3dc661	-0.0028957354
202	0xbcf43b2e	-0.029813375
203	0x3c96cbea	0.01840778
204	0x3d07f15c	0.033189163
205	0x3ce7920c	0.028267883
206	0x3a9aae2d	0.0011801176
207	0xbc12585c	-0.008932199
208	0x3d48a422	0.048984654
209	0x3c9e4336	0.019319158
210	0xbd8abb68	-0.06774026
211	0xbca874f3	-0.020563578
212	0xbd5353ae	-0.051593475
213	0x3bd4505e	0.006479307
214	0xbceff774	-0.0292928
215	0xbcd7a716	-0.02632479
216	0xbc3780d6	-0.0112001505
217	0xbbb5efbb	-0.0055522597
218	0x3d0e9223	0.034807336
219	0xbcbb7baa	-0.022886116
220	0x3a2b8c64	0.0006544052
221	0x3c792e81	0.015208841
222	0xbc2badd0	-0.010478452
223	0x3c669630	0.014073893
224	0xbc34df2a	-0.011039535
225	0x3d093ab2	0.03350324
226	0xbd4b03f7	-0.049564328
227	0xbd8fd7f4	-0.07023612
228	0x3d3390a8	0.043839127
229	0xbd293cd2	-0.04131777
230	0xbd4117c6	-0.047141813
231	0xbc964420	-0.018343031
232	0xbd0345ca	-0.032048978
233	0xbd063213	-0.0327626
234	0x3d42e36a	0.04758016
235	0x3d21ddf4	0.03951831
236	0x3d94e0d0	0.07269442
237	0x3cbcd881	0.023052456
238	0x3d06e038	0.032928675
239	0x3d0e06da	0.034674503
240	0x3c7387fe	0.014863966
241	0xbb53d540	-0.0032323152
242	0x3db0d306	0.086339995
243	0xbdad3ec4	-0.08459237
244	0x3d10ef6f	0.03538459
245	0x3cf4de3a	0.029891122
246	0xbd782924	-0.06058611
247	0x3c26f619	0.01019051
248	0x3d365374	0.04451318
249	0xbc791b1c	-0.015204217
250	0xbcd9fb89	-0.0266092
251	0x3c70cc87	0.014697201
252	0xbc9f22c3	-0.019425755
253	0x3cd54289	0.026032703
254	0xbc5cab33	-0.013468551
255	0xbcbb7493	-0.022882735

bias f4 [32]
0	0xbd5f10b4	-0.05445929
1	0x3ca725c7	0.020403756
2	0x3c932258	0.017960712
3	0x3d69f5e3	0.05711926
4	0xbd40d729	-0.047080193
5	0xbcc1a559	-0.023638414
6	0xbd350bbe	-0.04420065
7	0x3b82a67d	0.003987132
8	0x3ba723ca	0.005100702
9	0x3c919456	0.017770927
10	0x3be0e655	0.006863395
11	0xbc8db3a0	-0.017297566
12	0x3d723f3b	0.059142333
13	0x3c715395	0.0147294
14	0x3d748e3b	0.059705954
15	0x3d684efe	0.056715958
16	0xbb0fda57	-0.002195021
17	0xbd0505ae	-0.03247612
18	0x3d3d0209	0.04614452
19	0xbd59874e	-0.053107552
20	0xbc2df1b6	-0.01061671
21	0xbbf64f28	-0.0075167604
22	0xbcd0da68	-0.02549477
23	0xbc31530b	-0.010823022
24	0xbcae3ff2	-0.021270726
25	0xbd220e67	-0.039564516
26	0x3d0c38fa	0.034234025
27	0x3ce135ed	0.027491534
28	0x3a9fa66f	0.0012180338
29	0x3d21830e	0.039431624
30	0x3d0a4f7c	0.03376721
31	0x3cd9c14d	0.02658143

weight f4 [32]
0	0x3f89b79a	1.0759156
1	0x3f8096b6	1.0045993
2	0x3f878644	1.058785
3	0x3f7c1e5e	0.98483837
4	0x3f804d85	1.0023657
5	0x3f805c93	1.0028251
6	0x3f80da00	1.0066528
7	0x3f6ce5a8	0.9253793
8	0x3f7633ac	0.96172595
9	0x3f844d15	1.0336024
10	0x3f851745	1.0397726
11	0x3f77df1a	0.968248
12	0x3f86428f	1.0489062
13	0x3f81511b	1.0102876
14	0x3f809d24	1.0047956
15	0x3f822db3	1.0170196
16	0x3f840e4d	1.0316864
17	0x3f80067c	1.0001979
18	0x3f74900a	0.95532286
19	0x3f84820e	1.035219
20	0x3f84482d	1.0334526
21	0x3f836ff5	1.0268542
22	0x3f8aead9	1.085292
23	0x3f83d9e4	1.030087
24	0x3f85c178	1.0449667
25	0x3f80f6d6	1.0075328
26	0x3f8845c6	1.0646293
27	0x3f85fb84	1.0467381
28	0x3f865f2d	1.0497795
29	0x3f890f8c	1.070787
30	0x3f8a31f6	1.0796497
31	0x3f85248d	1.040178

bias f4 [32]
0	0xbe04de1f	-0.12975357
1	0xbd3b2db7	-0.045697894
2	0xbdab06d2	-0.0835091
3	0xbe72f484	-0.23726088
4	0xbc4b3ef9	-0.012405151
5	0xbcbd8f39	-0.023139583
6	0x3b1ccdc2	0.0023926352
7	0xbd2eaf11	-0.042647425
8	0xbcb0eabc	-0.021596305
9	0x3db73004	0.08944705
10	0x3d3649de	0.04450404
11	0xbd9e0e5a	-0.07717581
12	0x3dbbc723	0.09168842
13	0x3cd030bf	0.025413869
14	0x3d62b27e	0.055346005
15	0xbb5fd216	-0.003415232
16	0x3d678db2	0.056531616
17	0xbd48127b	-0.04884575
18	0xbdfde14e	-0.12396489
19	0x3d67e3ea	0.05661384
20	0x3a40c18d	0.000735306
21	0x3cdd6718	0.027026698
22	0xbddcd203	-0.10782244
23	0x3cb5ce03	0.02219296
24	0x3d82d61b	0.063884936
25	0x3ccd7865	0.025081823
26	0xbce997be	-0.02851474
27	0x3c1dfd96	0.009642979
28	0xbde3de10	-0.111263394
29	0xbd75a0bb	-0.059967738
30	0x3dadd8f3	0.084886454
31	0x3da65dcc	0.08123359

running_mean f4 [32]
0	0xbe9dd0bb	-0.3082331
1	0xbcbd145b	-0.023080995
2	0xbd93f1cc	-0.072238535
3	0x3dde773e	0.108625874
4	0xbe3d23ef	-0.18470739
5	0xbd662b70	-0.05619377
6	0x3e1d8991	0.15384509
7	0x3ea178f5	0.31537595
8	0x3ea99a41	0.331255
9	0xbecea9a1	-0.40363792
10	0xbebec35f	-0.3725843
11	0x3e4d1f99	0.20031585
12	0x3de763cb	0.11298331
13	0x3e217232	0.15766218
14	0xbe37a38e	-0.17933485
15	0xbe30c390	-0.17262101
16	0xbd65849e	-0.056034677
17	0x3e9b5de9	0.30345085
18	0x3ea720b6	0.32642144
19	0xbed02f88	-0.40661263
20	0xbf2ff460	-0.6873226
21	0xbc121dc8	-0.008918233
22	0xbea6091c	-0.32428825
23	0xbeed1706	-0.46306628
24	0x3e0d63bd	0.13807578
25	0xbe467daa	-0.19383875
26	0x3e8ff6e7	0.2811806
27	0xbf1b9902	-0.60780346
28	0xbe8937f3	-0.26800498
29	0x3e169fdf	0.14709423
30	0xbe88711c	-0.26648796
31	0xbd55da3b	-0.052210074

running_var f4 [32]
0	0x3e198d94	0.14995414
1	0x3ece2880	0.40265274
2	0x3e833a27	0.25630304
3	0x3ee878c0	0.45404625
4	0x3ee75a92	0.45186287
5	0x3ef5dc84	0.48019803
6	0x3e96d173	0.29456672
7	0x3f14da92	0.5814601
8	0x3e4c7004	0.19964606
9	0x3e9f2b0e	0.31087536
10	0x3ee4bac4	0.4467374
11	0x3f2cadfc	0.6745298
12	0x3e973a44	0.2953664
13	0x3e8ee5a5	0.2790958
14	0x3f0b5099	0.5441986
15	0x3ea34a15	0.31892458
16	0x3ee21cc5	0.44162574
17	0x3f0d8d42	0.5529367
18	0x3e810156	0.25196332
19	0x3ef7703e	0.48327821
20	0x3eabf738	0.3358705
21	0x3eba8a98	0.36433864
22	0x3e036e41	0.12835027
23	0x3ebad226	0.36488456
24	0x3e6e3e02	0.23265842
25	0x3e9acd93	0.30234966
26	0x3eeea6b2	0.46611553
27	0x3ecbb36e	0.3978533
28	0x3e93a459	0.28836325
29	0x3e864cba	0.26230413
30	0x3e9ccc9d	0.30624858
31	0x3e2e5727	0.17025433
