TuiGAN/models/apple2orange/ab3.pth (torch, 233612 bytes, 46 tensors)

weight f4 [32, 3, 3, 3]
000000 89 0f 32 3c 84 54 d9 bc 5b 17 15 bd 86 be 53 bc
       0.010867962 -0.026529558 -0.036399227 -0.012923842
000010 16 c3 83 3a 16 06 cc bb 79 ae 3d 3d 18 76 89 3d
       0.0010052647 -0.0062263114 0.04630897 0.06711978
000020 fb 2b 82 3c 00 77 9f bd 58 7a 8c bc da 5f 91 bd
       0.015890112 -0.07786369 -0.017148182 -0.0709836
000030 60 17 57 bd 0b 33 bb 3b 57 1b 28 bc a7 f0 33 bd
       -0.052512527 0.005712872 -0.010260425 -0.043930676
000040 84 5c 15 3d 2a dc aa ba 08 49 40 bd 43 fa 9c bc
       0.036465183 -0.0013035585 -0.046944648 -0.019162303
000050 d4 db 75 bd c9 fc 35 bd 3b 0c 97 3c f9 01 ee 3b
       -0.060024098 -0.044430528 0.01843845 0.0072634188
000060 4e 83 f8 bc f2 7a 04 3c a6 40 3e 3c 2f 7c 5e bc
       -0.030336048 0.008085953 0.011612093 -0.013579412
000070 41 62 a3 3b de 61 81 bc f3 f3 cc bb a0 67 6d bc
       0.004986078 -0.015793737 -0.006254667 -0.014490038
000080 1f 5d 79 3b cc 23 27 bd cd a3 fa bc 09 b2 98 bc
       0.003804989 -0.040805623 -0.030595684 -0.018639581
000090 5c 88 19 bd 99 e4 23 3c f2 cc c6 3c c9 4c 0a bd
       -0.037483558 0.010003232 0.024267647 -0.033764634
0000a0 e6 d5 86 3b b7 6b 82 bc 78 b1 89 bd 60 10 bd bc
       0.004114854 -0.015920503 -0.067233026 -0.023079097
0000b0 dc de 4a bd 78 63 f8 3c e5 cf c3 3c 2b b1 15 3d
       -0.04952894 0.030320868 0.023902843 0.036545914
0000c0 e1 9b 84 3c b3 f6 1b 3d 1e 29 f8 3c b5 aa 42 bc
       0.01618761 0.038077068 0.030293044 -0.01188152
0000d0 45 c2 a9 3c bc 43 18 3d e6 70 ab bc e7 59 21 bb
       0.020722518 0.03717397 -0.020927858 -0.0024620236
0000e0 bd 52 8b 3c 09 f3 11 bd 1e d7 01 3d 4f 29 c1 bc
       0.017007226 -0.035632167 0.031699292 -0.023579268
0000f0 52 0a b8 bd 7c 39 09 bd e2 c8 60 bd 58 26 83 bc
       -0.089863434 -0.033502087 -0.054879077 -0.016009495
000100 ca 18 1e 3d b4 15 d3 3c b8 c3 a8 3b 6f d4 da 3c
       0.03859786 0.025767185 0.0051502846 0.026712624
000110 ad 22 9d 3b f4 37 17 bd cb c0 92 bc 89 36 53 ba
       0.0047953934 -0.036918595 -0.017914196 -0.00080571376
000120 7e d5 30 3d e0 d5 5a 3d de a5 7e 3d 68 b2 26 3b
       0.043172352 0.053426623 0.062169902 0.0025435928
000130 42 3e 67 bc 5e e4 73 3d 6e 32 f4 bc 97 a5 4a bb
       -0.0141139645 0.05954396 -0.029809203 -0.0030921453
000140 e3 1b 54 3d cd 0b ee bb 2f 01 e1 bc 94 34 3b 3d
       0.051784407 -0.0072645904 -0.027466385 0.04570444
000150 c2 3d ac 3b 96 a8 8a bb 21 cb c6 3c 57 17 1c bd
       0.0052563855 -0.004231523 0.024266781 -0.038108196
000160 c7 15 b1 bb 29 e6 15 3d 83 12 f8 3c de 70 c7 3c
       -0.0054042074 0.03659645 0.030282265 0.024345811
000170 aa 0f 08 3d 9d 56 86 bb 69 2b 93 3c 14 57 37 bd
       0.033218063 -0.0040996806 0.017965036 -0.04476078
000180 ed 89 b5 bc a1 f0 4b bc 68 63 0c 3d 82 58 7b bd
       -0.022160495 -0.012447507 0.03427449 -0.061363705
000190 8a c9 66 bd d0 ff 98 bc ec c0 9f bd 45 cb 12 bd
       -0.056344546 -0.018676668 -0.07800469 -0.035838384
0001a0 85 46 e2 3c ac ec d6 bd ca ea 76 bd 4c 16 62 3c
       0.027621517 -0.1049436 -0.060282506 0.013799261
0001b0 28 4a c2 bb 8d 78 43 b9 30 91 9b 3d 3c f2 b8 bc
       -0.0059292503 -0.00018641558 0.07596052 -0.022576444
0001c0 a6 99 0c bc 3f 49 3d 3d 22 c6 36 bc ff d3 9b 3c
       -0.0085815545 0.04621243 -0.011155637 0.019021986
0001d0 e5 0d 7c 3d 96 e5 24 bd bf a5 2b 3b dd 6c 80 3d
       0.06153669 -0.040258013 0.0026191322 0.06270764
0001e0 ed 9f 14 bd 75 e7 43 bc 1d ca d8 3c 01 3d 8e bc
       -0.03628533 -0.011957039 0.026463563 -0.017363073
0001f0 4b d2 35 ba a3 19 ae 3d 1f 79 d5 bc 7f e1 25 bb
       -0.0006935938 0.085009836 -0.026058732 -0.0025311408
000200 46 f3 a0 3c af 1f 08 bd 26 a0 94 bc 0d 5f d1 bb
       0.019647252 -0.03323334 -0.018142771 -0.0063895048
000210 90 95 47 bd 7e 60 75 bc 2b f5 46 3c ae 87 c5 bb
       -0.04872662 -0.014976619 0.012143414 -0.006028137
000220 9e a5 9e 3c b8 2a ed 3b 24 e8 02 bc 35 6c 49 bd
       0.019366082 0.0072377585 -0.007989917 -0.04917546
000230 35 ff 4e bc 5a 62 c5 bc 8e 6c 63 3c e2 d5 0c bc
       -0.012634088 -0.02409475 0.013880862 -0.0085959155
000240 6e ab 23 bc be 16 17 bd c2 8c ad bc 82 42 7d bb
       -0.0099896025 -0.036886923 -0.021185283 -0.0038644378
000250 92 40 b1 bc e1 79 44 3d 17 9e c0 bc ea 0a 3d bd
       -0.021637235 0.047967795 -0.023512883 -0.046152987
000260 59 e9 ef bc 6b 71 d0 bc 96 85 94 3b b0 57 8c bd
       -0.029286074 -0.025444707 0.0045325262 -0.068526626
000270 aa 5d 6b 3c 53 8f a0 3b 64 61 3f bd 0a 6b 22 bd
       0.014365593 0.004899898 -0.04672374 -0.03965286
000280 1b 33 96 bd 88 5a d0 bd 34 4e 7b bb 49 e7 47 bc
       -0.07333966 -0.101735175 -0.0038346173 -0.012201139
000290 99 ba ac b7 1d 2c 1e bc 82 76 5a bd 3e 16 86 3c
       -2.059089e-05 -0.009654072 -0.053335674 0.016368028
0002a0 6b 56 f3 b9 b9 87 78 bc f2 c9 af 3b db 81 0e 3b
       -0.00046412958 -0.015169078 0.00536465 0.002174488
0002b0 16 d8 33 bc d4 4a 13 3c af 93 e0 b9 2b bb 07 bd
       -0.010976812 0.008990008 -0.00042834642 -0.03313748
0002c0 f7 7c 8b 3d 9d 8c 6b 3d 3c a4 52 3d 8c 16 39 3d
       0.068109445 0.057507146 0.051426157 0.045187518
0002d0 3c cd 5d bd c8 66 91 bc 03 87 5a bd e9 d2 4e bd
       -0.054150805 -0.017749205 -0.053351413 -0.05049411
0002e0 22 f3 27 bd ad cb 80 bc f7 78 ce 3b 15 7d e6 3c
       -0.041003354 -0.01572212 0.006301041 0.028135816
0002f0 35 96 58 3c cc 4c 55 bd 74 77 49 bc 3b 59 c0 bc
       0.013219406 -0.052075192 -0.012296546 -0.023480048
000300 f0 4c 83 3c 6b d9 50 3c 82 70 23 3d 64 06 07 3d
       0.016027898 0.012747149 0.039902218 0.03296508
000310 7f 85 6c 3d 1b 29 99 3d 2a fd 10 bd 03 ac c9 bc
       0.0577445 0.07478543 -0.035397686 -0.024618154
000320 11 af de bb 9d b0 05 3d 09 0f 5c 3d 0f 54 93 bb
       -0.006795772 0.032639135 0.053725276 -0.0044961045
000330 4e 43 25 bb 4e e2 6b 3b 26 7b ca bc 0e 91 53 bd
       -0.0025217119 0.0035993042 -0.024716925 -0.051652007
000340 e9 00 c8 bc c9 e1 ad bd aa d9 d1 bc 2b ba b5 3c
       -0.024414496 -0.08490331 -0.025616486 0.022183498
000350 8b 5d 2d bd 8d 4d 1c bc 22 3a d7 3b 8b a0 ea bc
       -0.042325538 -0.009539974 0.0065682093 -0.028641006
000360 c4 08 07 bd 13 30 de bc 24 28 88 bd e9 84 95 ba
       -0.032967344 -0.027122533 -0.06648281 -0.0011407408
000370 26 e7 e2 bc cc 50 4d bd a6 35 41 bd 8a a0 ab bc
       -0.02769811 -0.050125882 -0.047170304 -0.020950574
000380 96 3e e2 bc 5c ad 6d 3d 19 38 12 3d 97 9a ae 3c
       -0.027617734 0.058026657 0.03569803 0.021313949
000390 75 ac 36 3d e2 5b e0 3c b3 af a1 3b dc ea 15 3d
       0.04459806 0.027387563 0.004934275 0.036600932
0003a0 93 73 6b 3c 48 94 4a bc 36 54 64 3c 0b 97 9e 3c
       0.014370817 -0.012364455 0.013936093 0.019359132
0003b0 9e fe f5 bc 28 3c b6 3c c9 81 1a bd 00 28 39 bb
       -0.030028637 0.022245482 -0.03772143 -0.0028252602
0003c0 43 59 fa 3b f6 77 6c bc 03 e8 31 bc 62 1c c5 bc
       0.0076400354 -0.014432898 -0.010858539 -0.024061386
0003d0 3b 9a 81 3d 1f 38 a0 bd cd 18 8c bc 63 80 36 bd
       0.06328245 -0.07823204 -0.01710167 -0.044556033
0003e0 c2 ea 29 3d 02 de f2 bc a7 b0 b8 bb 00 35 91 3c
       0.041483648 -0.029646877 -0.005636293 0.017725468
0003f0 ee d8 cb 3c 2f b5 0e bc 97 f8 f3 ba d0 2c 6f bc
       0.024883714 -0.00871019 -0.0018613514 -0.0145980865

bias f4 [32]
000000 67 08 06 bd 3c ba 93 bd 7e b3 37 3d 87 e8 0e 3e
       -0.032722857 -0.07213256 0.04484891 0.1395589
000010 20 08 95 3d d5 54 e9 3d 85 b7 33 3c f9 c4 03 3e
       0.0727694 0.113931336 0.010969047 0.12868108
000020 8e 43 60 bd e0 bc 15 3d 14 44 c7 bd 1b 98 0f 3c
       -0.054751925 0.03655708 -0.09729782 0.008764292
000030 3c d5 d8 bd 4d 9c 16 be 9c 2c 05 be 7b 37 ff 3d
       -0.10587546 -0.14708062 -0.13005298 0.12461754
000040 c3 32 9f 3d 46 89 e4 bd db 24 7e 3d 1a f5 80 bd
       0.07773354 -0.11158995 0.062046867 -0.062967494
000050 0e a0 82 3b fe ad 03 3e 65 07 58 3d 65 44 83 3d
       0.003986365 0.12859342 0.052741427 0.064095296
000060 c1 d3 7c bc 2a db 39 3e f2 26 cd 3d 36 d8 84 bd
       -0.015431345 0.1815001 0.10017194 -0.064865515
000070 94 bc 91 bd ec a8 01 3e 74 f1 e0 3b 8e 10 e1 bd
       -0.071160465 0.12662095 0.006864721 -0.10989486

weight f4 [32]
000000 c1 60 6c 3f e3 ec 81 3f b0 bd 83 3f af b2 82 3f
       0.92335135 1.0150417 1.0292263 1.021078
000010 b0 4c 85 3f 5a 8b 6b 3f f7 cf 83 3f 87 ba 76 3f
       1.0414028 0.9200951 1.0297841 0.9637837
000020 43 8c 80 3f 77 3a 88 3f 90 d9 71 3f 78 ea 71 3f
       1.0042804 1.0642842 0.944726 0.94498396
000030 51 ee 7d 3f 70 45 7e 3f 99 24 71 3f 5e b7 7e 3f
       0.99191767 0.99324703 0.9419647 0.99498546
000040 a8 75 82 3f 77 f7 80 3f 47 87 7f 3f 52 4a 78 3f
       1.0192156 1.007552 0.9981579 0.96988404
000050 f5 ed 6c 3f 1a 71 7c 3f 76 0d 70 3f fd 3c 8a 3f
       0.92550594 0.9861008 0.9377054 1.0799862
000060 70 53 6c 3f c4 32 8b 3f e0 2e 6c 3f 8d bb 7a 3f
       0.92314816 1.0874867 0.92259026 0.9794243
000070 e9 c2 83 3f 58 84 7b 3f 74 ea 6f 3f 99 6d 80 3f
       1.0293857 0.98248816 0.9371712 1.0033447

bias f4 [32]
000000 10 b6 96 bd 67 30 5c bd 28 dd 1b be a5 18 bb 3d
       -0.073589444 -0.053757098 -0.15221083 0.0913556
000010 60 4b 3c bd 4f 8b 32 3d 01 ba 7a be 22 22 15 3e
       -0.04597032 0.043589886 -0.24485017 0.14563802
000020 62 0e 11 be 74 05 b2 bd 6c 4d fa bd ee 32 93 bd
       -0.14165643 -0.08692446 -0.12221798 -0.071874484
000030 e0 bb 54 bd 05 78 19 3d 68 6e 74 bb 6b 8a 9f bd
       -0.051936984 0.037467975 -0.0037297253 -0.07790073
000040 37 25 99 bd e7 50 24 bd de cc dc bd ed 5d 80 bd
       -0.07477801 -0.040116217 -0.10781263 -0.06267915
000050 94 c5 11 bd 22 8a 24 3c 03 2c 43 bd a4 3a e0 bd
       -0.035588816 0.010042699 -0.047649395 -0.10948685
000060 c3 93 39 be 95 ac c3 bd 11 c7 91 3d 8c 9d 35 3e
       -0.18122773 -0.09554402 0.07118047 0.1773588
000070 72 81 79 3d eb d1 03 be 2b 81 02 be c7 cc eb bd
       0.060914464 -0.12873046 -0.12744586 -0.115136676

running_mean f4 [32]
000000 dd 43 c9 3d b2 6b 11 be 0e 62 e8 bd 03 25 82 3e
       0.09827397 -0.14201239 -0.113468274 0.25418863
000010 91 67 19 3e d7 3d 6c 3e 55 23 f4 bb ca 3a 85 3e
       0.14980914 0.23070465 -0.007450501 0.26021415
000020 bd a9 5e be 54 14 3c bb 5e 37 6c be d5 a7 c1 3c
       -0.21744438 -0.002869864 -0.23067996 0.023639599
000030 88 9f 07 be 17 7f a5 bd be ad 9f 3b 7e 12 a9 3d
       -0.1324445 -0.08080881 0.0048730066 0.0825548
000040 cf 48 2d 3e ab e4 44 3d 96 a7 17 bd 41 04 c8 bd
       0.16922306 0.048069637 -0.037025057 -0.09766436
000050 65 8e 86 3c 3a 4c 0a 3e e0 27 34 3e 98 a0 3e 3e
       0.01642532 0.1350564 0.17593336 0.18615949
000060 fa f5 be bd 20 bb 0d 3d f4 c8 be 3d 4d 5e 9d bd
       -0.0932426 0.034602284 0.093156725 -0.07684002
000070 a7 35 17 3e 97 f8 49 3e 54 00 28 3e c0 59 0c 3d
       0.1476656 0.19723736 0.16406375 0.03426528

running_var f4 [32]
000000 f4 4f 67 3c 1b cd b3 3b 32 d4 8d 3b 29 a2 1e 3c
       0.014118183 0.005487097 0.004328274 0.009682217
000010 12 ba c7 3b 04 80 f3 3c 43 a7 4f 3b ec 7b 57 3b
       0.0060951794 0.029724129 0.003168539 0.003288026
000020 5f e1 01 3c 8b d7 3e 3a 7a 99 1e 3c 51 34 1e 3c
       0.007927268 0.0007280043 0.009680146 0.009656028
000030 48 b4 dd 39 59 f1 c6 3b 4e be 84 3b 0f 31 d6 3a
       0.00042286725 0.0060712514 0.0040510064 0.0016341525
000040 54 94 e8 3b 7a 17 86 3c 27 2c 2a 3c 6a 0c b8 3a
       0.00709776 0.016368616 0.010386503 0.0014041786
000050 33 2b c5 3b f3 98 6c 3a af b0 c3 3b a8 20 e5 3b
       0.0060171126 0.0009025477 0.00597199 0.0069924183
000060 21 00 47 3b ba 0b eb 3b 5b 04 38 3a 41 de fa 39
       0.0030365067 0.007173029 0.0007019692 0.00047849308
000070 b3 43 3c 3c fe 1b 41 3c b0 11 a8 3c 3d 55 87 3b
       0.01149075 0.011786459 0.020516247 0.0041300342

weight f4 [32, 32, 3, 3]
000000 22 ff 9f 3c f6 54 fe bc 17 6c f0 bc 7c be ac 3c
       0.019530836 -0.031046372 -0.029348416 0.021086924
000010 6e 7e 1c bd 05 ab df 3c 43 f1 0a 3d 78 cd 9b 3d
       -0.03820651 0.027303228 0.03392149 0.076075494
000020 0f 2d 7c 3d 12 a9 41 bd 9e 2b 77 3a 61 73 05 bd
       0.06156641 -0.04728038 0.0009428802 -0.032580737
000030 82 88 3b bd 9d 08 74 3a 45 d5 0a 3b 70 02 34 bd
       -0.04578448 0.0009309145 0.0021184247 -0.043947637
000040 7a 8b 24 bb e9 61 95 3b d3 02 89 bc 31 87 02 3d
       -0.0025107549 0.004558791 -0.01672498 0.03186721
000050 f7 9d 16 bd e0 9d 62 3c 7a b8 2b bc f3 87 12 3d
       -0.03677174 0.013831586 -0.010480994 0.035774183
000060 65 45 d1 bc a4 be ca bc 24 9c 88 3c aa 59 45 bc
       -0.025545785 -0.024749108 0.016676016 -0.012045303
000070 ca a8 9f bc 3a 56 47 bc 3d c4 27 3c 53 51 e5 3a
       -0.019489665 -0.012166554 0.010239658 0.001749555
000080 44 9c 8a 3c 67 89 52 3b ee f4 39 bc 98 3b 3e bd
       0.016920216 0.0032125355 -0.0113499 -0.04644355
000090 b0 f9 11 bc 27 18 34 bc 54 a1 3b 3b 39 1d 11 bd
       -0.008909628 -0.0109920865 0.0028630095 -0.03542826
0000a0 f3 e4 6c ba cc 56 51 3c f7 0e 7c bc 9d 0e ac 3a
       -0.00090368016 0.012777042 -0.015384427 0.0013126914
0000b0 b2 88 d6 bc 6a 2e 66 bd 40 35 83 bd 3b 52 3b 3d
       -0.026188228 -0.056196608 -0.06406641 0.045732718
0000c0 64 c2 60 3d 8c 23 d6 3c bb 5b 64 3c 84 5f 39 3d
       0.054872885 0.026139997 0.013937886 0.045257106
0000d0 10 3e 26 3d 14 62 8a 3d 1a 74 c4 3d 5b b2 03 3d
       0.04058653 0.06756988 0.09592457 0.032152515
0000e0 a2 8d 8e 3c 9b 13 4e 3c de 49 68 3c 07 b3 1d 3d
       0.01740152 0.0125779165 0.014177768 0.038500812
0000f0 d0 b1 99 3c bf 52 90 3d 1e 48 db bb a5 35 f1 3b
       0.018761545 0.070470326 -0.0066919466 0.0073611313
000100 e7 ab 9a 3c 85 f3 26 3d a3 c4 21 bd cf c1 74 bd
       0.018880798 0.040759582 -0.039494168 -0.059755143
000110 4e 3d dd bb 02 75 1b bc 4b 7d 8d ba e0 8f e2 3c
       -0.006751693 -0.009488346 -0.0010794787 0.027656496
000120 15 de 5c 3c 46 15 9a 3c 56 bf 12 3c 8f 5b ae 3c
       0.013480683 0.018808972 0.008956751 0.021283893
000130 fc 64 4a 3d 04 34 bf 3c 4c 66 85 3d 5d 64 10 3c
       0.049412712 0.023340233 0.06513652 0.008812991
000140 fe 55 4b bc 83 ab c3 3c dd 29 8c 3d 21 5c c2 3c
       -0.012410639 0.023885494 0.06843922 0.023725571
000150 c9 20 e8 bc 9e 41 d4 3c 81 c1 50 3c 62 e6 31 3c
       -0.028335946 0.025910195 0.012741447 0.01085815
000160 b6 55 f1 3a 67 7a 43 bc 89 cb 09 3d 54 82 b6 3c
       0.0018412385 -0.011931038 0.033641372 0.022278942
000170 f4 92 1d 3d 49 16 a9 3c 9f c7 c3 3c 04 95 15 3d
       0.038470224 0.02064051 0.023898898 0.036519065
000180 4e cc 17 3c f8 5e 87 bc 86 c4 4f 3c f1 90 54 bd
       0.009265019 -0.016524777 0.012681132 -0.05189604
000190 30 59 ac bc 34 b5 2c 3c 27 31 3b bc d4 a4 23 bd
       -0.021038622 0.010541249 -0.011425293 -0.039952114
0001a0 2d f7 5f bc 8a b5 45 3c 4d c2 92 bc 39 f4 69 3c
       -0.013669771 0.012067208 -0.017914915 0.014279419
0001b0 0b fa ff 3c fc be 3a 3c e9 21 87 3b dc 02 fc 3b
       0.03124716 0.011398073 0.0041239155 0.0076907706
0001c0 e1 a2 c8 3c b9 d7 13 3a 30 ad 2d 3c 62 b2 9d 3c
       0.02449173 0.000563975 0.010600373 0.019250099
0001d0 cc 5c 13 bb 75 c8 93 3c ed bf 16 bd 5a d0 a0 bd
       -0.0022485731 0.018039921 -0.03680413 -0.0785224
0001e0 33 7c 83 3b 56 08 bf bc 07 7a ce bc 93 25 66 3d
       0.0040126084 -0.023319405 -0.025204672 0.056188177
0001f0 67 86 79 3c 63 a0 a4 3c 7b ea 48 bc 7d 8b d5 bc
       0.015229798 0.02009601 -0.012262936 -0.02606749
000200 be b7 b6 3c 0b 0c fc bc b7 6d 3a 3d c5 81 7e 3d
       0.022304412 -0.030767461 0.04551479 0.062135477
000210 84 13 88 3c 28 a8 93 3c 0b 92 bd 3c e8 5f 3e bc
       0.016610868 0.01802452 0.023140928 -0.0116195455
000220 6c 42 2b bd e9 f5 96 bc 36 51 ab 3c aa 41 fa 3c
       -0.04181139 -0.018427806 0.020912748 0.03054889
000230 46 81 eb 3b 07 14 0f 3c 0f 06 4d bb c1 1c a1 3c
       0.0071870415 0.008732802 -0.0031284129 0.019667031
000240 1d 02 79 3c 5b f6 b3 bb 6d 84 6e 3b cb 59 ad bc
       0.015198258 -0.0054920143 0.003639485 -0.02116098
000250 da 5f 0f bd ae 85 1f 3b 11 b1 7f bc bd e4 cc bc
       -0.03500352 0.0024341154 -0.015606181 -0.025011415
000260 80 eb 4e bd 1f a1 ed 3b c4 64 12 3d da 4e 9a bc
       -0.05051756 0.007251873 0.03574063 -0.018836427
000270 12 cf 90 3d 0c 8a b2 3c 35 cf f1 3c 2d 8d dc 3d
       0.070707455 0.021794342 0.02951775 0.10769115
000280 0b 43 5c 3d 26 4c 79 3d 0d 5f 09 3b 4a 51 57 bc
       0.053774875 0.060863636 0.0020961196 -0.013141939
000290 be 31 81 bd c6 b1 49 bc b5 27 2b ba 9b 30 af 3a
       -0.06308316 -0.012310451 -0.0006529049 0.0013365926
0002a0 00 20 30 3c ce c3 1a 3d ff ce 91 3c 80 42 38 3d
       0.010749817 0.03778439 0.017798899 0.044985294
0002b0 da e5 11 3d ba eb c3 3c 9e c0 3c 3c 0b 62 e1 3c
       0.035619594 0.023916114 0.011520533 0.02751257
0002c0 45 31 a7 3b 6a 0b 20 3c aa 5e 2e 3d 49 53 b7 bb
       0.005102309 0.009768346 0.042570747 -0.005594645
0002d0 2c a1 d5 bc aa ec 18 bd b9 7f 84 bd 2a 5d 92 bc
       -0.02607783 -0.037335075 -0.06469674 -0.01786669
0002e0 5f 9e 96 bb c3 27 86 bc 5b 27 c8 3c d2 e1 56 bc
       -0.004596516 -0.016376382 0.024432829 -0.013115363
0002f0 b2 d8 dd 37 2f d5 03 3c 1f c4 5a bd 66 d9 eb ba
       2.644616e-05 0.008046432 -0.053409692 -0.0017993867
000300 69 ae a1 3c 72 e1 bf bc ce d3 07 3c 7c ab af 3c
       0.019736486 -0.02342293 0.008290244 0.021444075
000310 94 62 53 3d 11 7e 73 3c a3 8d 69 3d 7d 4a b6 3c
       0.051607683 0.0148616 0.05701984 0.022252316
000320 e7 d1 a6 3b cb 45 23 bc 6b d3 ff 3b 44 cf fc 3b
       0.0050909403 -0.00996537 0.0078071854 0.0077151377
000330 cc 56 b5 bc 43 4d f5 b9 f1 04 9e bc 38 19 0c bd
       -0.022136115 -0.00046787606 -0.019289466 -0.034203738
000340 5f 2f 99 bc cf bd 92 3d c4 d9 bb bc 12 cb 33 bc
       -0.018699346 0.07165109 -0.022930987 -0.010973709
000350 0d ff 1e 3d ef 26 62 bc 43 d9 9b 3b 66 88 cc 3c
       0.038817454 -0.013803228 0.004756124 0.024967384
000360 08 2d 8f bc 7c cb a3 bc 95 66 f7 3b 50 93 72 bc
       -0.017477527 -0.01999449 0.0075500705 -0.01480563
000370 19 3b 35 3d 94 35 fa 3d fc 88 59 bc ae 36 04 bc
       0.044245813 0.122172505 -0.0132772885 -0.008069677
000380 5f 91 ad bc d6 01 cc bc 2c 1b 15 bd bc 28 5c bc
       -0.021187482 -0.02490322 -0.036402866 -0.013437446
000390 a3 db 1f bd f4 1d 30 bc fb 9e e4 bb 73 f0 a4 bc
       -0.03902782 -0.010749329 -0.0069769598 -0.020134186
0003a0 b1 07 54 bd e8 84 36 bd de 66 4e 3b 89 b9 c2 bc
       -0.051765148 -0.044560343 0.003149442 -0.02377011
0003b0 4f 4a 45 bc d0 86 ca 3b 3e 8d 40 3d 0c 8b 51 3c
       -0.012041642 0.0061806217 0.0470097 0.012789499
0003c0 0e 9b 74 3c ea fd 95 ba 1d c0 b1 bc 57 f7 c2 3c
       0.014929546 -0.001144347 -0.021698052 0.023799581
0003d0 4d 9b f5 3c b4 a9 39 3d 5a 42 17 3b e1 67 c5 bb
       0.02998128 0.045327857 0.002308032 -0.006024346
0003e0 27 53 26 3d 0e a2 5b 3c 11 16 26 3c ed 22 b4 bc
       0.040606644 0.013405336 0.010137097 -0.02198931
0003f0 9c 9d ab 3d 09 37 72 3d ed bb 61 3d 71 29 fe 3c
       0.08379671 0.059134517 0.05511086 0.03102562

bias f4 [32]
000000 8d b2 67 3c 0b 35 4a bb 21 8a 6e bd cd 58 94 3c
       0.014141691 -0.003085437 -0.0582372 0.01810875
000010 bd d8 e8 bb 0e fb e6 3a 2e 40 88 3c d9 5e 94 3b
       -0.0071059153 0.0017622428 0.016632166 0.0045279083
000020 d9 6a 46 bd f1 10 c5 3c 22 b5 a5 bc 1e 94 18 bd
       -0.04844174 0.02405593 -0.020227972 -0.03725063
000030 b1 b9 93 bc fa 63 d8 bc a7 a7 07 3d dc 75 e7 3c
       -0.01803288 -0.02641486 0.03311887 0.028254442
000040 71 84 44 bd af 7b 9e bc dd 32 67 3d b8 ba da bc
       -0.04797787 -0.019346086 0.05644499 -0.026700363
000050 fd 28 60 3d 16 fe b9 bc b8 fe 9b bc 66 ce 4d 3d
       0.05472659 -0.022704165 -0.019042358 0.050245665
000060 f5 7d 08 bd c6 34 0b 3d 62 fa 85 3c 54 6e 0f 3c
       -0.033323247 0.033985876 0.016354743 0.008754332
000070 8e 15 3b bd b2 a9 3c bd 23 6f 1e bd 06 83 67 bd
       -0.045674853 -0.04606027 -0.038680207 -0.056521438

weight f4 [32]
000000 e1 fc 84 3f 70 b7 7a 3f 52 5c 89 3f 55 f3 7b 3f
       1.0389673 0.97936153 1.0731299 0.9841817
000010 f0 50 81 3f 75 92 83 3f bd a8 76 3f f9 2a 81 3f
       1.0102825 1.027907 0.96351224 1.0091239
000020 7f ce 6b 3f de 32 6d 3f a9 56 79 3f b5 03 79 3f
       0.92111963 0.9265574 0.9739786 0.9727128
000030 9b c2 71 3f c6 f0 7a 3f 71 fd 83 3f 63 79 80 3f
       0.9443757 0.9802364 1.0311719 1.0037044
000040 39 67 7f 3f 40 be 82 3f 41 34 82 3f af 8c 8a 3f
       0.9976688 1.021431 1.0172197 1.0824183
000050 c1 b5 81 3f 31 5e 80 3f f7 bb 7c 3f e0 30 75 3f
       1.0133592 1.0028745 0.9872431 0.957777
000060 f5 35 76 3f 36 e7 82 3f 1d 68 81 3f 84 75 81 3f
       0.9617608 1.022681 1.0109898 1.0113988
000070 00 4d 86 3f 9e eb 7e 3f fb c5 7e 3f e6 07 74 3f
       1.0492249 0.99578273 0.99520844 0.9532455

bias f4 [32]
000000 f3 31 cf bd e8 a9 45 bc a5 f0 00 3e ec 88 fc 3d
       -0.10116949 -0.012064435 0.12591799 0.12330803
000010 33 1b 83 3d f9 8f 74 bd af 4b b5 be 42 53 18 be
       0.06401672 -0.059707616 -0.35409304 -0.1487551
000020 b8 53 29 3e 36 1d 86 3b bb 64 2f be f8 48 19 bd
       0.16535842 0.0040928377 -0.1712827 -0.037423104
000030 4d 26 73 bd 3c 7e 1d be 4e 5d c1 3c ff f3 0c 3d
       -0.0593627 -0.15380186 0.023604061 0.03441238
000040 6d fc 8b bd 4e 44 66 be c1 20 44 be 01 5c 8a 3d
       -0.06835256 -0.22486994 -0.1915312 0.067558296
000050 3b 91 51 3d 2d 5e 67 be ad 41 44 be 5c f6 c4 bc
       0.051163893 -0.22594519 -0.19165678 -0.024043255
000060 6b 34 5c be a4 3f 9a bc 50 1d 82 be 39 04 22 be
       -0.21504371 -0.018829174 -0.2541299 -0.15821923
000070 49 b0 eb bc 03 f3 16 be 82 2e 5a be 36 48 6b be
       -0.028770583 -0.14741139 -0.21306804 -0.22976765

running_mean f4 [32]
000000 c0 09 e6 3e 72 ce e5 3d c9 0d ca be 89 c1 c8 be
       0.44929314 0.11221017 -0.39463642 -0.39210156
000010 59 2f 57 bf 50 ca 7d bd 2e 92 f3 3e f8 3c 18 be
       -0.8405662 -0.06196052 0.47572464 -0.14867008
000020 6f 1e 0e bf 73 16 31 3e 70 f9 13 3f fe 50 c5 be
       -0.5551519 0.1729372 0.57802486 -0.38538355
000030 11 ed a9 be 93 2f 00 3e 22 50 32 bf 7d 59 f9 3d
       -0.3318868 0.12518148 -0.6965352 0.12175272
000040 4d a9 1d be 72 ea 08 bd 34 78 4a 3e d7 1e 01 be
       -0.15396614 -0.03342671 0.19772416 -0.1260942
000050 e5 41 2c be 16 e7 55 bd 09 21 3d 3f ca 1f c1 bd
       -0.16822012 -0.052222334 0.7387853 -0.094298914
000060 44 f8 1d 3f 2b cb 50 be a1 dc 4c 3e 31 e7 26 be
       0.6170695 -0.20390002 0.20006038 -0.1629913
000070 3d 92 0c bf 00 f8 44 3e 6f dd bd 3c bd 07 52 bd
       -0.5491064 0.1923523 0.023176877 -0.05127691

running_var f4 [32]
000000 4f e1 46 3e ec 3c e8 3d 45 66 dc 3e 5a 50 ac 3e
       0.19421886 0.11339745 0.43046775 0.33655053
000010 da 71 23 3f 4e 5f 88 3e 72 6b 30 3e 42 e6 7b 3e
       0.638456 0.26635212 0.17228487 0.24599555
000020 ae 67 9e 3e f3 84 b4 3d 58 4a 8d 3e f3 21 03 3f
       0.30938476 0.088144206 0.27595782 0.5122368
000030 4a 0b 81 3e fa 59 53 3e 3b a8 9f 3e 4b 8b 48 3e
       0.25203925 0.20639792 0.31183037 0.19584386
000040 4c 13 a1 3e fa 4e 02 3e ee 92 ea 3d 1d 95 af 3e
       0.31460035 0.1272544 0.11453806 0.34293452
000050 58 ae 32 3e 99 b7 0f 3e ff db dc 3e 3f fb bb 3e
       0.1744932 0.1403488 0.43136594 0.36715123
000060 4c be 11 3f 8a 84 3a 3f fb ea 96 3e 0e 3d 7c 3e
       0.56930995 0.7285849 0.2947615 0.24632666
000070 67 7e 69 3e 02 b8 28 3e 0c b6 11 3e 58 40 02 3f
       0.22802125 0.16476443 0.14229602 0.5087943

weight f4 [32, 32, 3, 3]
000000 8c 63 4a bd c6 4d 97 3d 50 3e 2f 3c 5c bc 54 3d
       -0.04941134 0.07387881 0.010696009 0.051937446
000010 67 68 e8 3c 40 0e b1 3b e0 a1 f8 3c 44 ee 37 bd
       0.028370095 0.00540331 0.030350626 -0.044904962
000020 7c a8 14 3d f4 76 c4 3c f6 7a 16 bd 74 22 19 3c
       0.03629349 0.023982503 -0.03673836 0.009346593
000030 d0 39 8e bb b9 77 0f 3d 2c bb 28 3d 13 64 86 bc
       -0.004340388 0.035026286 0.041194126 -0.016405141
000040 06 7d 91 bc 3d 14 01 3d de 5c 21 ba d3 2f 9b ba
       -0.017759811 0.03151344 -0.0006155501 -0.0011839814
000050 04 d2 52 3d 7c ad 43 bb ea 51 e0 bc 89 30 3b 3c
       0.051469818 -0.0029858043 -0.02738281 0.011425146
000060 06 f8 97 3c 6f 45 e1 39 7a d7 25 3d f1 4d 89 3c
       0.018550884 0.00042967076 0.040488698 0.016760798
000070 6b 45 c1 3c 18 3a 19 bd ae e6 50 bc 17 b9 d4 bc
       0.023592671 -0.03740892 -0.012750311 -0.025967164
000080 67 c9 4a bd 8d 00 f5 3c 23 1e 09 3d f3 ec ed 3b
       -0.04950848 0.02990749 0.033476006 0.0072609126
000090 8d 3f 17 3b 0c ac 0a 3d 19 77 87 b9 32 85 01 3c
       0.002307865 0.033855483 -0.0002583794 0.007905291
0000a0 39 70 1b 3c 61 35 5f 3d 38 30 35 3d f4 29 83 3d
       0.009487205 0.054494265 0.044235438 0.06404486
0000b0 2b 58 26 3d f5 f5 af 3c ea 37 e5 bc 46 7e 27 bd
       0.040611427 0.021479586 -0.027980763 -0.040891908
0000c0 e0 ed 1b bc 6a 0a f7 ba 3c 5c 2c bb aa c9 22 bd
       -0.009517163 -0.0018847708 -0.0026300093 -0.039743103
0000d0 c3 2c 59 bc be 67 f2 bb 80 e3 b5 3c a6 6c 36 3d
       -0.013255301 -0.007397621 0.022203207 0.04453721
0000e0 7a 81 98 bc 89 1d 87 3b f5 1c 0d 3c aa 9c 89 bd
       -0.018616427 0.004123394 0.008612861 -0.067193344
0000f0 fd 70 b8 bc d4 b0 00 bd 23 da 22 bd 64 ee 82 bd
       -0.022514815 -0.031418636 -0.039758813 -0.06393126
000100 2b e3 55 3c d6 fc 57 bd a8 96 e4 bc 2f 40 2a bc
       0.013054649 -0.052731358 -0.02790387 -0.010391279
000110 43 80 39 bd c4 c3 ac bd d0 58 27 bd 6f 47 f1 bc
       -0.045288336 -0.08435777 -0.040856183 -0.029453008
000120 a7 25 8a bb 25 f3 c0 b9 1b 94 2e bd 47 d5 ab 3b
       -0.0042159143 -0.0003680225 -0.042621713 0.0052439305
000130 fe 75 09 bc 11 20 15 bd 58 ee e5 bc 0d 17 fc bc
       -0.008389948 -0.036407534 -0.028067753 -0.03077271
000140 15 1e 90 bd 83 a8 3f bc 32 51 18 bd 91 bf 97 bc
       -0.07036988 -0.011697891 -0.03718681 -0.018523963
000150 cb 16 d5 bb 65 bf e9 3c e9 53 b9 bc 6e 1b a3 3c
       -0.0065029613 0.028533647 -0.02262302 0.01991054
000160 1d 7d 7a bd 90 7f b2 bb 73 d4 91 bc 88 ca 5a 3d
       -0.061154474 -0.0054473355 -0.017801499 0.053415805
000170 b3 98 88 3b 18 17 46 3c 55 bf 93 3c ec f6 15 3d
       0.004168594 0.012090467 0.01803557 0.036612436
000180 0a 61 a5 3c 84 37 8b bc 6c d2 ee 3c 3f 63 dc bb
       0.020187873 -0.016994245 0.029153071 -0.0067256982
000190 e7 2d 48 3d 01 d8 1e 3d 39 d1 66 bc a3 b1 9c 3c
       0.0488719 0.038780216 -0.0140879685 0.019127673
0001a0 04 02 ce 3c 00 1c f4 bc 62 ab e8 3c f1 a1 ae 3c
       0.025147445 -0.029798508 0.028402034 0.021317454
0001b0 14 38 2d bc 5c 7b 2f bc 37 ac e1 bc 33 c0 a6 3b
       -0.010572452 -0.0107105635 -0.027547939 0.00508883
0001c0 40 e1 46 3d 0a b5 84 bd 8a a8 63 3a b7 2b c4 3c
       0.04855466 -0.06479843 0.0008684477 0.023946626
0001d0 a4 5d 93 bd 14 7d 47 ba f2 f5 28 bc a0 e0 75 3c
       -0.07195595 -0.00076098857 -0.010312544 0.015007168
0001e0 18 e7 88 3c a7 a6 25 bb ed e4 2c 3d 04 e7 32 3b
       0.016711757 -0.0025276334 0.04221051 0.002729834
0001f0 6a 36 cd bb 50 78 85 bc c4 c2 77 3b 74 7a 74 bc
       -0.00626259 -0.016292721 0.0037805298 -0.014921773
000200 7f 21 14 3d c7 ba bd bb a5 e8 00 bb e4 81 3d bc
       0.036164757 -0.005790088 -0.0019669917 -0.011566613
000210 5c bc 1b 3d 37 d0 b8 39 75 7f 66 bc 2a 77 d3 3c
       0.03802143 0.00035250347 -0.014068474 0.025813658
000220 56 6f 5a bc d8 b9 77 bd 28 3f 9a bc 76 7f 1d 3a
       -0.013332209 -0.06047997 -0.018828943 0.0006008068
000230 76 0d 91 bc 4c 91 ee 3c 4e 05 60 3c 6c c3 94 3c
       -0.017706614 0.029122017 0.01367314 0.01815959
000240 63 9a 52 3d 88 10 79 3d c4 58 6a bd 95 57 a5 3d
       0.051416766 0.06080678 -0.05721356 0.080733456
000250 2f 57 65 3c f2 60 ba bc 5a 8e 60 3d d4 43 ef bc
       0.013997837 -0.022751305 0.054823257 -0.029207148
000260 e4 8a 66 bd ce 95 9e 3c 8d 4c cc 3c 96 98 b2 3d
       -0.0562848 0.019358542 0.024938846 0.0872051
000270 18 9b 54 3d 67 33 07 3d 51 fc 15 3d 02 61 0a 3c
       0.05190572 0.033008005 0.03661758 0.00844598
000280 82 dc 08 3b 3d b3 81 3d c9 bb 17 3c 04 78 9c 3d
       0.0020883386 0.06333015 0.00926108 0.07640079
000290 72 8e 38 3d 6c 51 f4 3c 73 e2 dd 3c 8f 5b 07 3d
       0.04505772 0.029823981 0.027085518 0.0330463
0002a0 7f 1e 08 3d e9 ed 0f 3d 4a 81 31 3d b1 f7 9f bc
       0.03323221 0.035139 0.04333619 -0.019527288
0002b0 97 37 eb b9 69 57 94 bd 53 d2 cf bb 63 f6 e0 bb
       -0.0004486411 -0.07243235 -0.0063422113 -0.006865309
0002c0 99 6e b8 bc c4 f6 2f bd c0 37 0d bd df d3 e9 bc
       -0.022513675 -0.042959943 -0.034476995 -0.02854341
0002d0 83 6a ba bc cb 64 6a bd 5c 0d a1 bb 0b 3a 2e bc
       -0.022755867 -0.05722503 -0.0049149226 -0.010633956
0002e0 c7 ca 84 bd 85 08 ff 3c dc 4a bc bc 25 11 36 3d
       -0.06483989 0.031131992 -0.022984914 0.044449944
0002f0 2d 3c 81 3d 0f af 8b 3c 6e a9 9d bc 6c a7 09 bd
       0.06310306 0.017051248 -0.01924583 -0.03360693
000300 41 e6 a3 bc 3d ba f4 bc 8c 65 72 bc 72 4c 5d 3b
       -0.020007255 -0.029873962 -0.0147947185 0.0033767489
000310 f9 4b d9 3c 4f 1d 25 bc b3 69 12 3d 3b 45 32 bd
       0.026525484 -0.0100777885 0.035745334 -0.043523055
000320 cf 45 fa 3c d4 6a 4f 3b aa 9d 94 bc 69 94 fe 3c
       0.030550865 0.0031649368 -0.018141586 0.031076627
000330 20 c4 a2 bc 62 ad c2 bc d2 f7 cc 3c 48 aa 63 bd
       -0.01986891 -0.023764316 0.025020514 -0.055582315
000340 9a d7 d6 bc 27 9a 80 ba 25 eb 04 bd eb 42 a4 bc
       -0.026225854 -0.0009811566 -0.032450814 -0.02005144
000350 c5 ba a1 bc 33 6d 9f bc a2 26 56 3c fb 2d 05 3c
       -0.019742379 -0.01946125 0.013070734 0.008128638
000360 4e 9d 9f bc 30 30 14 3c 27 b8 b9 bc 65 11 f7 3c
       -0.019484188 0.009044692 -0.022670818 0.030159662
000370 37 37 9d bb 10 fd 09 3c 95 39 54 3d 83 52 2c 3d
       -0.004797842 0.008422151 0.051812727 0.042070877
000380 2d 11 49 3a 55 6e 57 3b a1 2c c4 3c c4 0d 2a bd
       0.0007670101 0.003287216 0.023947062 -0.041517034
000390 0f 65 d2 bc 4e 5f 9a bc e5 b8 46 3c a9 e0 3c bb
       -0.025682954 -0.018844273 0.012129043 -0.0028820431
0003a0 a0 dd d9 3b b5 ae f2 bc f3 a6 65 bb 03 ac e6 bc
       0.006648734 -0.029624322 -0.0035042136 -0.028158193
0003b0 da 22 08 3c 3e 4e a7 bc aa 73 0b bd ff a4 17 3b
       0.0083090905 -0.020423051 -0.034045853 0.0023139117
0003c0 3b 88 33 3d 13 b1 2e bd 03 c7 bd bc 82 a4 02 bc
       0.04383109 -0.04264934 -0.023166185 -0.007973792
0003d0 49 e2 2b bb c7 b1 0d bd ff eb 13 bb 76 af c7 3b
       -0.0026227406 -0.03459337 -0.0022571085 0.0060939146
0003e0 e6 f5 62 bd 5b b0 24 3b cf 15 22 3c 37 a5 6c bd
       -0.05541029 0.002512953 0.009892895 -0.05777475
0003f0 f0 fe 85 3d 6f 9e e2 3d 69 b7 0d bc 81 5d 44 3d
       0.06542766 0.11065375 -0.008649685 0.047940735

bias f4 [32]
000000 f9 db ed bc 6f 41 3a bd f4 2e 73 3a 1d 58 60 3d
       -0.029035555 -0.04547256 0.0009276711 0.05477153
000010 6f 42 0f bd 91 9a 51 bd 68 01 0f bd ae 07 65 bd
       -0.034975465 -0.051172797 -0.03491345 -0.055915527
000020 45 f7 fd 3c b2 65 77 3c 9c a9 b0 3c 4a fb 7e bc
       0.031001696 0.01509993 0.021565251 -0.015562842
000030 6b 4f 69 bd 35 12 13 3d f1 e5 09 bd 04 7e 4d 3d
       -0.056960505 0.035906035 -0.033666555 0.050169006
000040 db 06 31 bd e1 66 6e 3c af 06 b7 bc 5c 42 d0 3c
       -0.04321943 0.014550895 -0.022342054 0.025422268
000050 c3 25 0f 3d f8 9f 96 3c 9d 25 7f bc ee 34 4e bd
       0.03494812 0.018386826 -0.015572933 -0.050343446
000060 53 21 06 bc 53 e6 db bc 57 3f 24 3d 86 71 1d 3d
       -0.008186656 -0.026843226 0.040099468 0.038438343
000070 91 91 fa bb 6d 40 c6 3c ef 89 85 bc 18 00 3b bd
       -0.0076467474 0.024200642 -0.016301123 -0.045654386

weight f4 [32]
000000 28 ae 7e 3f 7a 79 85 3f f7 ba 87 3f 7d 8d 7c 3f
       0.9948449 1.0427697 1.0603932 0.98653394
000010 0c 5b 68 3f a2 16 70 3f a5 aa 83 3f c7 e0 82 3f
       0.90763927 0.93784535 1.0286452 1.0224847
000020 b0 fb 79 3f 57 38 76 3f f8 18 77 3f 50 ea 7e 3f
       0.9764967 0.9617972 0.96522474 0.9957628
000030 03 31 70 3f c2 23 88 3f 1b 5f 73 3f cc a9 76 3f
       0.93824786 1.0635912 0.95066994 0.9635284
000040 db ea 75 3f 52 e2 84 3f 5c e7 7c 3f 26 d0 85 3f
       0.96061486 1.0381567 0.98790526 1.0454147
000050 cb 7e 77 3f 6b fb 81 3f d4 28 81 3f 29 5e 78 3f
       0.96677846 1.0154852 1.0090585 0.97018677
000060 94 b1 7e 3f 24 a9 7d 3f b0 0d 81 3f f8 36 79 3f
       0.9948971 0.99086213 1.0082302 0.973495
000070 a8 55 81 3f 97 e5 7a 3f 82 50 88 3f e8 c5 70 3f
       1.0104265 0.98006576 1.0649569 0.9405198

bias f4 [32]
000000 cd b8 ba be 77 94 dd 39 a8 2a 10 be b5 eb a7 bd
       -0.36469117 0.0004226302 -0.14078772 -0.081992544
000010 41 14 83 be 59 74 8b bd 97 46 8a bd 2e f1 b9 bc
       -0.2560139 -0.06809301 -0.06751745 -0.022698011
000020 ae d2 83 be 18 ce 96 3d fc 27 b8 be 3e 38 4f bd
       -0.25746673 0.07363528 -0.35968006 -0.050590746
000030 7f 23 5b be 3a 76 d4 bc 96 f4 c3 bd eb 67 32 bd
       -0.2140026 -0.025935281 -0.095681354 -0.043556135
000040 23 92 a7 bd 6e 71 44 be ec b8 80 bd 82 df 6c 3e
       -0.0818217 -0.19183895 -0.06285271 0.23132136
000050 c2 d0 c0 bd 76 92 8b be 4b a5 f1 bd f4 fd 92 3d
       -0.094148174 -0.27260178 -0.11799105 0.07177344
000060 9c 5b d8 bd 9c 1e 28 3d c4 d4 8c bd 48 ba d6 bd
       -0.10564348 0.041044816 -0.06876519 -0.10484749
000070 32 be 08 be 07 13 01 be c6 fb 0d be 12 0a 0c be
       -0.13353804 -0.12604915 -0.13865575 -0.13675717

running_mean f4 [32]
000000 ef 1f b1 3d 50 aa 01 bd bf 9c 85 be 12 5f 2c 3f
       0.08648669 -0.031656563 -0.2609615 0.67332566
000010 4d 0c 29 be 49 94 86 3e 52 80 b1 be 98 be 94 be
       -0.16508599 0.26285008 -0.34668213 -0.29051661
000020 ca 66 de 3e 1e e9 85 be ad 0f dc 3e eb 72 12 bf
       0.43437797 -0.26154417 0.4298071 -0.572066
000030 d7 82 72 3e 91 e5 eb be eb 67 e1 3d d8 24 c9 be
       0.23682724 -0.46073583 0.11006149 -0.39285922
000040 fc 7d 1c 3e be 67 bf 3e 96 73 d3 be be a5 e5 be
       0.15282434 0.37383837 -0.41299123 -0.44853014
000050 6a 9a 7d 3b e4 f2 cc be b9 28 ef be b4 d9 37 bf
       0.0038696774 -0.4002906 -0.46710756 -0.71816564
000060 fa 8a bb be f4 c5 68 bc fe 14 b2 be bf 06 36 bd
       -0.36629468 -0.014207352 -0.3478164 -0.044440027
000070 6b 49 58 3e 0e fe a1 ba 3f fd e7 bd e8 b4 80 bc
       0.21121757 -0.0012359039 -0.113276 -0.015711263

running_var f4 [32]
000000 70 88 41 3e 7b 24 23 3e a1 b5 34 3e 7c 52 ad 3e
       0.18899703 0.15931885 0.17647411 0.33851993
000010 cf 28 43 3e a8 00 00 3e 17 52 16 3e 79 a7 3f 3e
       0.19058536 0.1250025 0.14679752 0.1871623
000020 fb 3a 3f 3e d1 02 01 3f 90 87 ab 3e ec 1c 28 3f
       0.18674843 0.5039492 0.33501863 0.6566913
000030 da ee c4 3e 20 6a 60 3e 06 fd 87 3e b0 fa 19 3e
       0.3846348 0.21915483 0.2656023 0.15037036
000040 ee 08 8f 3e 76 23 10 3f 6a b7 82 3e 13 07 59 3e
       0.279365 0.5630411 0.2553056 0.21194105
000050 6b 39 68 3e 88 db eb 3e b2 03 4e 3e ce 85 21 3f
       0.22678153 0.46065927 0.20118597 0.63094795
000060 59 c7 86 3e 33 f8 f7 3e c4 a3 38 3e 12 e7 d8 3e
       0.26323965 0.48431548 0.18031222 0.42363793
000070 09 1e 85 3e 63 9d 46 3e 19 0b 2e 3e 5a 5d 30 3e
       0.25999478 0.19395976 0.16996421 0.17223111

weight f4 [32, 32, 3, 3]
000000 1d d2 d0 3c c0 59 59 3b 12 cd 3c 3b f6 a4 28 bc
       0.025490815 0.0033165067 0.0028808755 -0.010293236
000010 f1 d2 67 3b 8d fd e8 bc 02 6d c0 bc 60 a8 78 bc
       0.0035373534 -0.028441215 -0.023489479 -0.0151768625
000020 98 f1 9a bc 07 7b 31 3c e5 72 36 3d ac 64 a2 3b
       -0.018914029 0.010832555 0.044543166 0.0049558487
000030 ec 68 20 3d a5 71 eb 39 ab 63 64 3d db 8f 84 bc
       0.03916256 0.00044907365 0.055759113 -0.016181877
000040 2f bd f0 bc 99 91 e6 3b 1d c4 08 bd a1 37 37 bb
       -0.029387085 0.0070363996 -0.033390153 -0.0027956741
000050 ca 92 76 bb 0f 02 20 bd 2d c8 74 bd 48 40 64 bd
       -0.0037624114 -0.039064463 -0.059761215 -0.055725366
000060 bb cf 69 bd 8a 6e c1 3b 6c 6c 0a bd d1 74 52 3c
       -0.057082873 0.00590307 -0.033794805 0.012845234
000070 c4 26 84 3c a6 3c 74 3d 4f ff f8 3c 18 2a 74 3d
       0.016131766 0.05962815 0.030395178 0.059610456
000080 23 dc b2 3d f7 30 5f 3c 8f cd 79 3d 4d 1f 7f 3d
       0.08733394 0.013622514 0.06098705 0.06228571
000090 98 fa 08 3b bf bb 03 bb 62 76 d6 bc 8d ef 87 bb
       0.0020901319 -0.002010092 -0.026179496 -0.0041484297
0000a0 92 9a c7 bc 55 cb 9a bc 69 36 28 3c e1 fb d1 bc
       -0.024365697 -0.018895784 0.010266879 -0.0256328
0000b0 c6 d8 4a 3b 3d b3 70 3c 33 99 63 3c 4b 29 38 3d
       0.003095196 0.014691171 0.013891506 0.044961255
0000c0 0a b1 10 3a ed 37 46 3a f1 ec bb 3c a0 cd 8b bd
       0.0005519545 0.0007561434 0.02294013 -0.06826329
0000d0 4d 1c e7 bc 2a 02 20 bd 28 7f 7e bc 56 6e a6 bb
       -0.028211737 -0.039064564 -0.015533246 -0.005079071
0000e0 e7 ea 40 bd e5 85 fc bb 14 06 55 3c 59 45 26 3d
       -0.04709902 -0.007706391 0.013001937 0.04059348
0000f0 b2 40 8d bc 49 67 d5 3c ae 76 0c 3d 09 cb e8 bc
       -0.017242763 0.026050227 0.03429287 -0.028417127
000100 6d ce 42 bc a9 bc b8 3a e2 78 7a 3b c6 f5 f0 bc
       -0.011890036 0.0014094311 0.0038219024 -0.029414069
000110 6b 1c 02 bd 70 11 99 bc fb e7 8f bc 58 ce a9 b6
       -0.031765383 -0.018685073 -0.017566672 -5.060614e-06
000120 a5 a9 74 bd 0d 03 04 bb 7f 5e ca 3b 5c 1b 81 bd
       -0.059732098 -0.002014342 0.0061758156 -0.063040465
000130 1d 6b 4e bd 2d 5a cf bc 1b d9 28 bd 06 99 27 bd
       -0.05039512 -0.025311554 -0.041222673 -0.04091742
000140 9a fb 03 bd 02 32 6b bd dc 89 07 bd 3d b2 d0 3b
       -0.032222368 -0.057420738 -0.033090457 0.006368904
000150 b1 2d 19 bd e7 75 90 bc 75 97 48 3c 0e 98 cd bd
       -0.03739709 -0.017634345 0.012243141 -0.10038768
000160 c6 0e 4b bd d6 1a 6d 3c 78 aa 1c bb 67 33 b8 bc
       -0.049574636 0.01447173 -0.0023905318 -0.022485448
000170 a8 03 44 3b ca a5 20 3a cd fa 82 3d ab 15 13 3d
       0.0029909406 0.000612822 0.06395493 0.035909336
000180 6f 33 31 3d bb f4 d8 3c 31 bb 8a 3b 54 e5 70 bc
       0.04326194 0.026483884 0.0042337407 -0.014703114
000190 ac bf d9 3b ef 41 01 bd 73 9d 92 bc db 26 e6 bc
       0.0066451635 -0.03155702 -0.017897343 -0.0280947
0001a0 2c 1c d2 38 07 e8 39 bc db 54 40 bd 8f 89 24 bd
       0.00010018828 -0.011346824 -0.046955924 -0.04017025
0001b0 5e 32 14 3c a5 14 06 3d 81 a8 62 3b 54 08 d7 3c
       0.009045212 0.032734532 0.00345853 0.026249088
0001c0 b2 7c ab 3a 8b ad db bc 8c 8f 23 3d 49 5b be 3c
       0.0013083427 -0.02681615 0.03993182 0.023236888
0001d0 cf 4a a5 bb d4 15 f6 3c 9b b5 20 bd 35 e5 d1 bc
       -0.0050443183 0.030039705 -0.039235692 -0.02562199
0001e0 81 20 fa bc da f9 53 bd cd 9b c7 bc 9e ba 38 bd
       -0.030533077 -0.05175195 -0.024366284 -0.045099847
0001f0 02 11 d8 bc a1 09 ec bc a8 0c b8 bd 69 0c 68 bd
       -0.026375297 -0.028813185 -0.08986789 -0.05665246
000200 42 93 c9 bc f7 dc 66 bd 3b fe b4 bc 74 c4 89 bd
       -0.02460635 -0.056363072 -0.022093883 -0.067269236
000210 78 c7 0d bd d8 31 a5 bd bf 1d 63 bd 54 65 b0 38
       -0.034614056 -0.080661476 -0.05544829 8.411208e-05
000220 56 00 62 bc 73 f4 b1 3b e2 c8 95 bc 85 12 d3 bc
       -0.013794025 0.005430752 -0.018284265 -0.025765667
000230 3b 28 53 bd 7c 9a 00 3b 27 f6 c5 bc 70 ec 85 bc
       -0.05155204 0.001962333 -0.024165226 -0.016348094
000240 c6 e5 48 bd be b5 20 bd 91 d1 6a bd 38 aa c2 bc
       -0.049047254 -0.039235823 -0.057328764 -0.023762807
000250 2c 82 0f 3a c0 38 52 bd cd c5 ab bc bf bc 04 bc
       0.0005474414 -0.051323652 -0.020968342 -0.008101641
000260 c2 ba 3a bd cf a4 2e 3d 52 77 86 3c d5 8d 44 bc
       -0.045588262 0.042637642 0.016414318 -0.011996706
000270 83 e8 0e 3c 7d bc 7f 3d 6e b4 9b 3c 94 14 3e 3d
       0.008722427 0.062435616 0.019006934 0.046406344
000280 f4 3c be 3c a7 c4 3b 3d b0 72 19 3d 10 8f 0a bd
       0.023222424 0.04584184 0.03746289 -0.03382784
000290 cb 6f be 3c 98 46 13 3d 00 27 8a 3c 75 dc 4a 3c
       0.023246666 0.035955995 0.0168643 0.012381663
0002a0 40 44 24 bb 40 97 15 3b 86 e2 61 bd 62 31 69 3b
       -0.0025065094 0.0022825748 -0.05514767 0.0035582413
0002b0 8b ee 5d bc 4b 31 01 bd 1c e8 40 3c a2 19 8d bc
       -0.013545643 -0.03154115 0.011774089 -0.017224137
0002c0 97 5a d6 bb b7 25 3e 3c eb b1 92 3c 63 76 cc 3c
       -0.006541561 0.011605672 0.017907104 0.024958795
0002d0 74 a5 be 3a 4d 3a 97 bc 7b 7c 86 3a 19 ca d7 bb
       0.0014545158 -0.018460417 0.0010260487 -0.006585371
0002e0 f5 85 ed bc f6 da d2 bb be 34 2f bb 8f ce 40 3c
       -0.02899454 -0.0064347936 -0.0026734318 0.011767997
0002f0 67 bd 49 bd f0 72 b8 3c 18 cf 6d 3c 02 f1 96 3d
       -0.049252894 0.022515744 0.014514707 0.07370187
000300 48 1c 87 3d 83 2e e1 bc 0b 4c 94 3d 38 80 5b 3d
       0.06597191 -0.027487999 0.072410665 0.053589076
000310 df 5d 02 3d 88 f8 c4 3d a4 15 6a 3b e1 83 cc 3c
       0.031827804 0.09617716 0.0035718465 0.024965229
000320 d8 c9 fd bc df 97 e0 bb 86 d1 2d 3c 75 67 f4 3b
       -0.030980036 -0.006854042 0.010609036 0.007458622
000330 cd 6e 72 3c ff bf 0f 3c 75 15 49 bd 05 81 2b bc
       0.014796925 0.008773803 -0.04909273 -0.010467772
000340 9e 45 26 bd c9 9a f0 bd 27 39 2b bd 8f ef c9 bb
       -0.040593736 -0.11748273 -0.04180255 -0.006162591
000350 6f b1 64 bd 5a f8 81 bd f6 ef 83 bd ce a8 e1 bd
       -0.055833276 -0.063461974 -0.06442253 -0.11018525
000360 88 95 03 3d 3f 8d 67 3d 0b fe d0 3c 64 fd b6 3c
       0.032125026 0.056531187 0.025511762 0.022337623
000370 f7 55 c5 3c de 4b b3 3c 25 c5 a0 3c e9 3c 71 3d
       0.024088843 0.021886762 0.019625256 0.05889598
000380 83 09 1a bc fe b0 c9 bc 8c 7c cd 3c cf 2b 4d bc
       -0.009401682 -0.02462053 0.025083803 -0.012522652
000390 01 a4 20 bc bc 28 42 3c a0 ee 84 3d 12 b6 e3 3a
       -0.009804727 0.011850532 0.064908266 0.0017372987
0003a0 c3 79 2b 3c 73 91 f1 bc ff 54 7f bb b1 63 0f bc
       0.010466042 -0.0294883 -0.0038960574 -0.008751796
0003b0 28 10 57 3d 13 c2 ae bc d3 04 9c 3c 40 b0 83 bb
       0.052505642 -0.021332776 0.01904527 -0.0040188134
0003c0 b3 84 ad bc f3 8e ae 3c 3b 38 06 3c 9e f2 eb 3c
       -0.02118144 0.021308398 0.008192117 0.028802212
0003d0 6a 48 a5 3c 96 64 1f 3d 2c 07 5e 3c db 81 ad 3c
       0.020176131 0.038914286 0.013551515 0.021180084
0003e0 c5 e7 80 3d 28 cc 79 3d c5 3e 46 3d 06 94 22 3d
       0.062942065 0.060985714 0.048399705 0.039691947
0003f0 82 47 7a bd 45 78 11 bd 65 1b 05 bd 91 6a 4e bd
       -0.06110335 -0.03551509 -0.03249683 -0.0503946

bias f4 [32]
000000 21 38 c6 3c 3a 67 dd bc 06 f1 43 bd 21 0c 1c 3d
       0.024196686 -0.027026761 -0.04783728 0.038097505
000010 8f c0 3e bd e6 cc eb bc e0 10 12 3d 38 42 da bc
       -0.046570357 -0.028784227 0.035660625 -0.026642904
000020 5e 55 66 bd 13 84 71 3c 17 22 24 3d 9e 87 86 bc
       -0.056233756 0.014740962 0.040071573 -0.01642209
000030 43 67 5c bd c6 1e 4d bd e2 36 ea 3a c8 ec 57 3d
       -0.053809416 -0.050078176 0.001786914 0.052716047
000040 0c 0d 12 3d cb 59 12 bd f2 c0 0f 3c 42 73 3b 3d
       0.035656974 -0.035730164 0.008774029 0.045764215
000050 3c 02 44 3d a0 50 15 3d 7f 26 3b 3d 09 03 65 3d
       0.047853693 0.036453843 0.04569101 0.055911098
000060 82 b7 2f bd bd 2e 79 3c cc 3f 3e 3d a2 37 ba 3c
       -0.042899616 0.015208897 0.04644756 0.022731606
000070 1b 2b ac bc ec 0a 5b bd 4c 30 42 3d 17 9f da bc
       -0.021016648 -0.053477213 0.04740934 -0.026687188

weight f4 [32]
000000 36 b2 7c 3f 3d e6 8d 3f 29 9e 8d 3f 8f e3 70 3f
       0.9870943 1.1085888 1.1063892 0.94097227
000010 ef ab 81 3f 98 6f 82 3f 8d 6e 89 3f b1 95 7d 3f
       1.0130595 1.0190306 1.0736862 0.99056536
000020 fc 5d 81 3f 5a d6 81 3f ae a9 88 3f 35 32 83 3f
       1.0106807 1.014354 1.0676782 1.0249697
000030 77 5c 7c 3f d2 1d 83 3f e9 69 8d 3f 21 00 7d 3f
       0.9857859 1.0243475 1.1047946 0.9882832
000040 5e b2 88 3f fc 91 80 3f e5 49 8b 3f 36 7a 83 3f
       1.0679433 1.0044551 1.0881926 1.0271671
000050 ce d1 88 3f c0 0d 87 3f 38 b4 85 3f 6d 03 7d 3f
       1.0689027 1.0551071 1.0445623 0.9883335
000060 b3 56 7b 3f fd 39 81 3f 05 60 7e 3f bc b3 8b 3f
       0.9817917 1.0095822 0.99365264 1.0914226
000070 d5 c6 86 3f 51 4f 81 3f e6 9b 86 3f 62 23 90 3f
       1.0529429 1.010233 1.0516326 1.1260798

bias f4 [32]
000000 c4 64 aa bd 0d 83 82 3d 93 70 36 bd b2 13 6e bd
       -0.08320001 0.06372652 -0.044540953 -0.05812425
000010 0d 29 b2 bd 4d 6e 62 3c 2b 6b 23 3d ec f4 aa 3d
       -0.08699236 0.013820243 0.039897125 0.083474964
000020 06 5f 5d 3d 76 05 43 3d 92 32 53 bd 57 8f d1 bc
       0.0540457 0.04761263 -0.0515619 -0.025581045
000030 60 78 55 ba da 31 3e 3d 42 2a 70 bd ee 0a 33 3d
       -0.00081432424 0.04643426 -0.05863405 0.043711595
000040 c2 a8 32 3d 62 ed c2 bd d7 10 b8 bd aa 54 0e 3d
       0.04361797 -0.095179334 -0.08987587 0.03474871
000050 37 bf 1c bd 85 e0 19 3d 31 1e af 3c 97 e7 3f be
       -0.038268294 0.037567634 0.021376701 -0.18740688
000060 a5 f9 8d bb 90 04 67 bc 96 a2 40 3d 28 cf 6e bd
       -0.0043327385 -0.014100209 0.047030054 -0.05830303
000070 e9 38 32 3c b4 d0 84 3d 6b fd d2 3a 50 6e 0f be
       0.010877826 0.064851195 0.0016097253 -0.14006925

running_mean f4 [32]
000000 cd 06 f9 be 78 76 be be ba b8 56 be 92 1f a1 3e
       -0.48638 -0.3719976 -0.20968905 0.314694
000010 31 0c a1 be f1 06 bf bd ac 38 0f bf 00 6d 09 be
       -0.31454614 -0.09327496 -0.5594585 -0.13420486
000020 00 a7 3e be 5d 54 50 be a7 16 8e be 08 41 04 bf
       -0.18618393 -0.20344682 -0.27751657 -0.5166173
000030 f9 83 12 bf 5b f2 bd 3c 54 45 ca 3e 5b 0c 0a bf
       -0.57232624 0.023186853 0.39506018 -0.539251
000040 e9 3e 8b be d8 1b 94 bd fc 82 51 3e 90 b6 b5 3e
       -0.27196434 -0.07231873 0.20460123 0.35490847
000050 24 d6 83 3e 70 5e ea 3e 74 73 e1 bd 3a ba ef 3e
       0.25749314 0.45775175 -0.11008349 0.46821767
000060 1c 5e 3b bd 52 af c1 3e 06 e4 b3 be 8a 06 7e be
       -0.045744047 0.3782907 -0.35134906 -0.24807182
000070 2a d1 00 3f ef 59 8d be 3a 63 28 bf 09 3e 8c 3e
       0.5031916 -0.27607676 -0.6577641 0.2739108

running_var f4 [32]
000000 11 41 cc 3e 33 0d 45 3e f6 f5 8d 3f b3 e0 a8 3e
       0.39893392 0.19243316 1.1090686 0.32983932
000010 96 89 07 3f d3 d9 c4 3e 74 b7 2c 3e e5 45 d4 3e
       0.52944314 0.38447437 0.16866857 0.41459575
000020 aa d8 c0 3e a0 f0 e9 3e 11 03 8b 3f 77 9a 4f 3f
       0.37665302 0.45691395 1.0860311 0.8109507
000030 2c ea 86 3e 47 38 2c 3e 59 02 c5 3e c9 6a 3a 3f
       0.26350534 0.16818343 0.38478354 0.7281919
000040 9a 47 57 3e ac 93 86 3e 9c f9 e7 3e 7c da 84 3e
       0.21023408 0.2628454 0.45307624 0.2594794
000050 cd f3 dc 3e 93 ee 0c 3f 33 3e f2 3e 86 79 13 3e
       0.43154755 0.55051535 0.4731308 0.14401826
000060 11 69 64 3f 9b 46 88 3e 95 f3 80 3e 0f b1 2b 3f
       0.8922282 0.26616368 0.25185838 0.67067045
000070 7e 7f 6e 3f e5 6c a8 3e c1 80 a2 3e 0c c8 d9 3d
       0.9316329 0.3289558 0.31738856 0.10633859
