TuiGAN/models/apple2orange/b0.pth (torch, 131453 bytes, 25 tensors)

weight f4 [32, 3, 3, 3]
00000000: 3038 963c a5a7 b73c ba41 3fbc 71dc 1d3d
00000010: 570b eabc 9f09 b23b f3a6 433e 52c7 8e3c
00000020: 27db 123d e747 b93c 3e80 3a3c af76 56bc
00000030: c439 213c 7ae0 a3bd 45c7 b6bc 3892 d13d
00000040: b70f 45b9 bf6d c23c 54c5 673c 96b9 41bc
00000050: 63bc 97bc 9e20 8bbb b769 29bd 4360 d4bc
00000060: dea5 65bc 57c7 87bc b90a 1fbd cfa9 b43d
00000070: 092f ae3d e9cc 9b3d 6381 a93c 3207 fb3c
00000080: 2b47 3a3d 1bb8 1cbd c56b 98bb b081 ccbc
00000090: 6ace 433b 4de8 f53c 55e6 6d3c 281b cabc
000000a0: ec4f 62bc 169a 57bc 276f aebd 3670 d1bc
000000b0: eb59 79bd fe3a 8bbc af22 43bb 4d9e b7bb
000000c0: e764 f1ba 4053 443c f782 47bc 96c7 66bc
000000d0: f774 183c 79cf 50b9 55a5 b4bd a370 45bb
000000e0: 212c c13d 57d3 fcbc 2b3d 21bc fb91 503d
000000f0: 0df8 2abc b9bf 00bc 155c 623c c04b 40bd
00000100: 49af cfbb 0cdc 493d cb60 8dbc fb34 f2bb
00000110: c3aa cc3b b3e3 263d baee 193c bacd d53c
00000120: e28a f63b 4942 e4b5 3dbf fcbb 0ded 253c
00000130: e6bb d4bc 23d7 cdbc 0c48 5d3d 2806 b23c
00000140: af6d 8f3c 54f8 bebb bbfd c23c 2d7c 063d
00000150: 1837 7a3c d974 bb3b 00bd bb3c b257 d1bc
00000160: 18fa 15bd c2bd d63b c9f4 58bd 917f 67bc
00000170: 7e99 a73d d43d e1bc 9bfb 2dbc b831 193d
00000180: 9e1e 4abd fa48 c1bc 33bf 863d a7cb 01bd
00000190: 78a1 23bd c2b1 8c3d 07b7 46bc ec4f e3bc
000001a0: ad30 0e3d a98c a7bc 9ef5 0abc 4af0 ce3d
000001b0: c2cc f03a d816 623c a941 3a3d 1553 41bb
000001c0: 83e9 1e3b 8d3c 28bc b537 213c fb5f 2d3d
000001d0: f391 853c a69d 24bd 76a3 cb3c c7b4 10bd
000001e0: 3da8 6e3c 9f6e ee3c dd90 5fbc 60ad 82bd
000001f0: ddd2 5abc 4b1b ebbd ed0f 553c be08 1d3d
00000200: 4b71 f2bc 6aab 423d d6ce a33d 1440 083d
00000210: b30f 85bd a450 e0bc b554 c9bd d66b 953d
00000220: 2db3 59bb ce0d 25bc fca7 9a3c 44a5 0f3d
00000230: 0877 0f3b 9668 40bc ef61 193d 3561 76ba
00000240: 10b7 db3d 96b6 de3a c456 963c 1db2 9f3c
00000250: 7f92 be3b e436 45bc 6ce8 7f39 0d0c 773c
00000260: 4537 27bc a2e8 d73d fa48 a83c 4245 5d3d
00000270: a043 8d3d 1db8 b83b c95b 883c cdeb c13d
00000280: 2945 c7bc 33f7 983b e9b6 bfbb f440 c83b
00000290: eec8 efbd 9cce b439 53f2 463c 1f4e 6bbc
000002a0: f86a 3b3d 9f2b f03c 3a74 d13c 646f 13bd
000002b0: 83a6 d2bc 92d1 ffbd 6f37 983b 4b48 88bc
000002c0: 9b46 3ebc f745 39bc 33c7 dbbc 9946 3bbc
000002d0: 47cb 12bc c74a 2e3a 0335 d3bc 71df 133c
000002e0: b00a 233c 7a66 173c 8b9a 3ebd 1f05 10bd
000002f0: 2315 54bd 2339 083d f3f2 323d 3580 853d
00000300: 5aa1 0bbc b221 f1bb 6aa6 7ebc 4abe 9f3d
00000310: f531 023d 0b7b d33c b440 e8bc d66d b8bc
00000320: 8382 633d 0d73 46bc 28f1 a6bc ae01 113c
00000330: d195 e33c 4c8a 94bc a48a 133d d466 b2bc
00000340: d060 26bd 2fff 083d 2ab8 9c3b c3d3 5dbb
00000350: 047d 623d f5c3 6f3b 7eac cbbc 64be 653d
00000360: 6218 ebbc 39fa 513d cf63 833c d8b4 4fbd
00000370: e281 003d c5e0 543c fc5b 79bd a669 c03c
00000380: ce03 babc c74e 1e3d 8307 9b3c 3082 12bc
00000390: d3fd ce3c e1a8 a2bc 36d6 1abd f1d7 153d
000003a0: fb47 9b3b 91cf 02bd fc6c 3f3d ab20 00bc
000003b0: 5ac5 c4bc 628c 173d b176 dbbc 718b cabc
000003c0: 198d 853d 008b 223c b13d da3c 37ad 693d
000003d0: 5ac1 653c c53c 563c c190 e23c 75fe 183d
000003e0: dcde a5ba 2290 133d 8622 013d 573c 253d
000003f0: 801e ddbc cc46 06bd d7d3 b4bd 41f1 8d3b
0.01833734 0.022418806 -0.011673385 0.038540307 -0.02856986 0.005433276 0.19106655 0.017429028
0.03585353 0.022617294 0.011383114 -0.01308982 0.009840433 -0.080018 -0.022311816 0.10232967
-0.00018793238 0.023733972 0.014146168 -0.011824032 -0.018522447 -0.0042458316 -0.041360583 -0.025924807
-0.014016597 -0.016574545 -0.038828585 0.08821451 0.08505065 0.07607443 0.02069158 0.03064308
0.045478027 -0.038261514 -0.004651519 -0.024964184 0.002987767 0.030017996 0.0145202475 -0.024671152
-0.013813 -0.013159296 -0.085172944 -0.025566202 -0.060876768 -0.016995903 -0.0029775312 -0.0056035877
-0.0018416912 0.011982739 -0.012177221 -0.014085671 0.00930523 -0.00019913715 -0.08820597 -0.0030126951
0.09432245 -0.030862493 -0.009841244 0.050920468 -0.0104351165 -0.00785821 0.013815899 -0.04694724
-0.0063380343 0.04928212 -0.017258069 -0.0073915697 0.0062459423 0.040744495 0.009395296 0.026099075
0.0075238803 -1.7006615e-06 -0.007713227 0.010127318 -0.025968503 -0.025127 0.054023787 0.021731451
0.017508356 -0.005827943 0.023802629 0.032833267 0.015271924 0.0057207164 0.02291727 -0.025554512
-0.03661546 0.0065533826 -0.05296782 -0.014129535 0.08183573 -0.027495302 -0.010619069 0.03740093
-0.049345605 -0.023594368 0.06579437 -0.03168836 -0.03994891 0.06869842 -0.012128598 -0.02774807
0.03471439 -0.020452814 -0.008481411 0.10104425 0.001837157 0.013799392 0.045472775 -0.0029498984
0.002424807 -0.010268343 0.009839942 0.042327862 0.016304946 -0.040189408 0.024858218 -0.035328653
0.014566478 0.029105483 -0.013645378 -0.06380725 -0.013355938 -0.11479815 0.013004285 0.038338415
-0.029595038 0.047526754 0.07998435 0.033264235 -0.06497135 -0.027382202 -0.0983061 0.07295959
-0.003321837 -0.010074092 0.01887893 0.03506972 0.0021891017 -0.011743685 0.037446912 -0.000939864
0.10728276 0.0016991671 0.01835192 0.01949411 0.0058158035 -0.012037013 0.00024405279 0.015078557
-0.010206048 0.10542418 0.02054261 0.054021128 0.06897664 0.0056371824 0.01664533 0.094688036
-0.02432497 0.0046681403 -0.005850662 0.0061112586 -0.11708246 0.0003448621 0.0121427355 -0.014361887
0.04575631 0.029317675 0.025568116 -0.035994902 -0.025714165 -0.12491144 0.00464528 -0.016636034
-0.011613513 -0.011308185 -0.026828384 -0.011430406 -0.008959598 0.0006648716 -0.025782114 0.009025441
0.009951279 0.009240741 -0.046534102 -0.035161134 -0.05177797 0.033257615 0.043688726 0.06518594
-0.008522356 -0.007358753 -0.015542606 0.07799967 0.031785924 0.025815507 -0.028351165 -0.022513311
0.055544388 -0.012112391 -0.020378664 0.008850498 0.027781399 -0.018132351 0.03602089 -0.021777548
-0.04061967 0.033446487 0.0047826963 -0.0033848144 0.055295005 0.0036585305 -0.024862524 0.056089774
-0.02869815 0.05126402 0.016038803 -0.050709575 0.031373866 0.012993042 -0.06087874 0.023487877
-0.022706892 0.038649347 0.01892448 -0.008942172 0.025267517 -0.019855918 -0.037801944 0.03658289
0.0047388053 -0.031936232 0.046734795 -0.007820289 -0.024019886 0.036999114 -0.026789995 -0.024724694
0.06521053 0.0099208355 0.026640745 0.057049956 0.014023149 0.013076012 0.027656915 0.037352044
-0.0012654918 0.036026128 0.031527065 0.040340748 -0.026992083 -0.03278236 -0.08829468 0.004331738

bias f4 [32]
00000000: 9d90 26be 9353 203e dcce 173e b3f6 68be
00000010: ac36 693e a78c eabd ac64 5f3c 544e 4d3e
00000020: e4bf 4d3e 36c3 7a3e 0df7 acbd 975b 993c
00000030: b8ce 2dbe c14f 00bd e345 3cbd b417 d2bb
00000040: c87d 0f3e 7ca6 f5bd 1366 3f3e 6719 d1bd
00000050: ea19 e3bd 19dd 213e 2feb 4c3e 1da5 103e
00000060: 5105 c03d 1156 943e 9274 b53d 688b e03d
00000070: 3cf6 163e 2b38 b63d b1a4 18be 752c 0abe
-0.16266103 0.15656881 0.14825004 -0.22750358 0.22774762 -0.114526086 0.013634842 0.20049411
0.20092732 0.2448853 -0.08445559 0.018720431 -0.16973388 -0.03132606 -0.045965087 -0.006411517
0.14012825 -0.11994645 0.18691282 -0.10209923 -0.11088927 0.15806998 0.2001159 0.14125486
0.09376014 0.28971913 0.08860125 0.1096409 0.14742368 0.08897432 -0.14906575 -0.13493522

weight f4 [32]
00000000: afc0 643f 3178 763f dcdc 5f3f e5b4 663f
00000010: fd4b 623f c668 883f 78d7 823f aa52 833f
00000020: c138 4b3f b40b 773f 1bff 473f f8dc 8b3f
00000030: d33a 483f ece9 6c3f ae9d 713f 0bd1 7a3f
00000040: 3086 7e3f 0e94 5b3f 5fe5 613f 518b 723f
00000050: d4c7 4e3f bea4 803f 5efb 523f 61f6 7a3f
00000060: 90c3 8b3f 7781 853f eedb 8a3f fe00 763f
00000070: 3e22 683f a17b 5a3f 6d8b 883f 2651 723f
0.8935651 0.9627715 0.8744638 0.90119773 0.883972 1.0656974 1.0222006 1.0259602
0.79383475 0.9650223 0.78123635 1.0926809 0.7821476 0.92544436 0.94381225 0.97975224
0.99423504 0.8577279 0.8824062 0.9474383 0.80773664 1.0050275 0.82414806 0.98032194
1.0919056 1.0430135 1.0848367 0.96095264 0.9067725 0.8534489 1.0667549 0.9465507

bias f4 [32]
00000000: 939a e43e 57e2 463e a57e 133f 0ead a9bd
00000010: 9c26 083f 552e 013e 86c2 743e 0dcd 693e
00000020: 2c2f ad3e 1c62 353e 88f5 063f 9904 6f3e
00000030: b013 c53e 4ea6 1c3f 967c 0c3f 3aed df3e
00000040: 18c1 8e3e 8a9e 193e 2044 58bd aa62 473e
00000050: 7508 823e 457a 533e 6209 e13e 874e 3b3f
00000060: 8a44 af3a 97c2 903e 6f01 c93e 1b81 683e
00000070: 16b9 e33e 9928 f33e f8b1 113e 8df0 393e
0.4464918 0.1942228 0.5761512 -0.08284961 0.53183913 0.1261533 0.2390233 0.22832127
0.33825052 0.17713207 0.527184 0.23341598 0.38491583 0.6119126 0.54877603 0.43735677
0.27881694 0.15001884 -0.052799344 0.19471231 0.25397077 0.20652111 0.4395247 0.731667
0.0013371867 0.2827346 0.39258906 0.227055 0.44477147 0.4749191 0.14228046 0.18158169

running_mean f4 [32]
00000000: 98c3 933c e830 af3e fc8a 913d 52a0 90be
00000010: b953 bf3e 5398 fbbe 0d4d 913e 0201 383e
00000020: 6279 af3d 8019 203f a992 94be 1d47 423e
00000030: 2051 7abe 4548 a9be 73a7 31be fe08 afbd
00000040: 698d 93bc 2454 f1bd 6127 ad3e d05d 133e
00000050: e34b c2bc 3d04 973e ca16 ce3e 82b5 d0bc
00000060: 3799 d23b 0980 793f b7ed 793d e474 bbbd
00000070: 1176 e73d 77f1 0c3d 8a5b d1be e94c 10bf
0.018037602 0.34217 0.07106587 -0.28247315 0.37368563 -0.49139652 0.28379098 0.17969134
0.08568074 0.6253891 -0.29018143 0.1897244 -0.24445009 -0.3306295 -0.17349033 -0.08546637
-0.018011766 -0.11783627 0.33819106 0.14391255 -0.023717826 0.2949542 0.40251762 -0.025477175
0.006426956 0.9746099 0.06101772 -0.091531545 0.11301816 0.034409966 -0.4089015 -0.56367356

running_var f4 [32]
00000000: adde 993c 7367 ff3b 765c 963b 635d b83b
00000010: f197 463b fac7 713c 6b42 293c 48c7 393c
00000020: d0c7 ce3a 19f0 c63b e58d 373b 4b40 003d
00000030: c5c2 303b e0c8 bd3b 99de b53b 1100 e13b
00000040: 8995 183d 2df9 2c3b dee2 283b 4b55 6d3b
00000050: 7b74 2f3b 4be0 be3c edcb 463b 3a70 413c
00000060: 8d8e b63b 855a 1b3c 3314 c33c 35fd 583b
00000070: 61dd c93b 126a 3d3b e683 0f3c 2b45 bd3b
0.018782938 0.0077943145 0.004588659 0.005626367 0.0030302966 0.014757151 0.010330777 0.011339016
0.0015776101 0.0060711023 0.002800816 0.031311315 0.002697156 0.0057917684 0.0055502173 0.006866463
0.037251983 0.0026393638 0.002576999 0.0036214169 0.0026772309 0.02330031 0.0030333952 0.011806542
0.0055711926 0.009482031 0.023813343 0.0033109908 0.0061604236 0.0028902334 0.008759474 0.0057760677

weight f4 [32, 32, 3, 3]
00000000: 1180 45bd 5dd9 a339 29c9 943d ac59 debc
00000010: 25c1 18bd bf2e 093d 88b6 fbbb 88aa 84bd
00000020: a049 523b 53ac b4ba 3456 4cbd 5b7b 2b3d
00000030: 5fed 51bc 6119 0abd dd72 45bd fd6b 2e3c
00000040: 48fc 2bbd 179d 85bd f458 b03d 0a6a 833d
00000050: f79c 0f3c b81f 86bb 6315 6f3a 2050 01bd
00000060: 6fee 22bd 65b6 313d 99e9 033c d363 19bb
00000070: 7ce5 9c3c 9c1d 91bc d1de b6bc e2a4 fb3b
00000080: afa7 1c3b e7f9 78bd b9ab 333d 6ed9 a8bc
00000090: 780b 943b 6647 c73c b09f adbb 14b7 1dbd
000000a0: d6a1 ffbb 2f5f 5fbd 4a1c d7bc 1d66 143d
000000b0: 187a ca3b 1950 c2bc 9fc7 a43b 55f0 95bc
000000c0: 3f61 2fbd 5d5a dab9 fd96 903c f5f8 89bd
000000d0: 9aef 28bc 10e3 29bd 10a5 8c3c 347c c5bb
000000e0: 85e2 a539 e6dc 053d 5a83 28bc 2830 47bd
000000f0: ff1a 6c3c f5e4 423c dcb2 6b3a ee7c 533c
00000100: b161 5b3c 4a1f cc3d 2b34 31bc b13c 323d
00000110: f808 50bc e190 693c b981 1fbd ba22 b0bd
00000120: f803 943b 19d3 3b3d 59d2 d23c 4e51 14bd
00000130: c225 d4bb 3fe2 013c 7354 babb eee0 9cbc
00000140: f4dc fe3c c9eb d43c 86e2 063d 43e0 24bd
00000150: e855 f33c 5202 293d ffc2 1bbc 2b9f 793d
00000160: b9b1 913d 66da d03b b2dd 153d cd8c 1f3d
00000170: f448 17bd 3347 153d e0cc 1fbc 44bb 00bd
00000180: 705b 273c e3d8 c7ba e21b d1bd 56d0 0e3c
00000190: 6d96 2fbc 6b43 0b3c 6980 513d 1da7 0cbd
000001a0: 1a2c 3fbc 738b 2fbc aba6 18bd f0d1 0abd
000001b0: 55de f53b a8ff 3a3d ee7b d5bc d833 3abd
000001c0: 510e 4b3d b5b7 42bd 01e6 5abd 03ba ef3c
000001d0: b882 bf3a d28b c33b 5a76 30bb 4132 92bd
000001e0: 6597 803c 04d5 0fbd ea8a 8fbd 0ab2 d7bc
000001f0: 95ff b53b 20df 053c a664 97bc 6dc9 ccbc
00000200: de00 febc bd99 1b3d 271e a0b9 036f b93c
00000210: ea21 8c3d 840f 2c3d aee8 d43d e027 7abb
00000220: 5291 fbbc 92da 09bc f2c7 07bd 5519 0bbc
00000230: 3311 723d 084a 983c cc61 363d 4b64 213c
00000240: 085e 483d 0608 ba3d e20c 6e3d f6e8 bb3c
00000250: 5e56 b73c 7889 123d e725 ff3b 3174 6fbb
00000260: 5f9e efbc 53e5 443c 2f9b b13c ae55 c63c
00000270: 57cd 14bd b07e dfba f1e5 adbc 92d2 fbbc
00000280: c43e 55bd 5ef2 1ebd 472a 213d fd2b 1f3d
00000290: e930 6bbc 554b 1fbd d9eb 9fbc 1af4 cb3b
000002a0: 756d 2fbc c54e e8bc 99fc 17bd c6d3 1cbd
000002b0: b21b 7cbc e5d0 d03b 8516 d0bb 12bb 3fbc
000002c0: ac25 9c3c ca65 03bd d989 6dbd 794c e0bc
000002d0: 3578 423d d2b4 c43c 1934 78bd c4da c83c
000002e0: 2205 c03b a14f 23bd a6e1 783d 5108 6b3d
000002f0: b8d4 073b 8e0c c1ba e971 b53c 22cd 0b3d
00000300: 0587 ab3c 2c4c 4a3d 512f fe3c 269f 7ebd
00000310: 64f8 1ebd cbd0 46bd 6071 2dbc 8746 613c
00000320: 8615 e23c ed1b 95bc f813 08bb 66b2 4e3b
00000330: 3b4d 2a3d 3e3a b63c 0147 45bd f271 3e3d
00000340: 206d da3b 1b80 0abd 7eb5 3ebc d38d 123c
00000350: fdf1 01bd 97b9 863c 28e7 433d 7240 4abc
00000360: 6558 513b 330f 873d bf26 213c d955 043d
00000370: ba9a 123c 1f60 2339 b006 ab3c b38c d83d
00000380: bf10 cabc 9c1d 18bd 5048 c5bc 153b 44bd
00000390: f05d 60bc 22ad 593d 4edf c7bb 1fb4 a2bc
000003a0: aad8 7d3c a201 2e3b 89ea 303d 34f2 31bc
000003b0: 11ca 4dbd df3e 4a3b 0c95 6cbd 5782 7abd
000003c0: e329 533c 202b 83bd 004a 5fbd 9b7b d4bd
000003d0: 4d04 95ba 9e92 81bc 0d67 fdbb 8cd2 a33b
000003e0: 5bec e5bc e091 7abd aaff 673c 529d f1bb
000003f0: 33ee d13c 0d87 8a3d 6f01 d53c 3190 8e3c
-0.048217837 0.0003125173 0.07264931 -0.027142368 -0.037293572 0.033491846 -0.0076816715 -0.06477839
0.003208734 -0.0013784267 -0.049886897 0.041865688 -0.012812941 -0.03371561 -0.048205245 0.010645864
-0.04198864 -0.06524103 0.086107165 0.0641671 0.008765451 -0.0040931366 0.00091203133 -0.031570554
-0.03977817 0.043386836 0.0080512995 -0.0023405447 0.019152395 -0.017714314 -0.022323044 0.0076795677
0.0023903658 -0.0607852 0.04386494 -0.020611491 0.0045179687 0.024326038 -0.0052985772 -0.038504675
-0.007801275 -0.054534134 -0.026258606 0.036230195 0.0061791055 -0.023719834 0.0050286795 -0.018303076
-0.04281735 -0.00041647526 0.017650122 -0.06736938 -0.010311032 -0.04147631 0.017168552 -0.006026769
0.00031640023 0.03268137 -0.010285223 -0.04862991 0.014410733 0.011895408 0.00089911907 0.0129082035
0.013389991 0.099669054 -0.0108156605 0.04351491 -0.012697451 0.014255733 -0.038942073 -0.086003736
0.0045170747 0.045855615 0.025735067 -0.03621035 -0.0064742276 0.007927476 -0.0056863367 -0.019150224
0.031111218 0.025991337 0.032930873 -0.040252935 0.02970405 0.04126198 -0.00950694 0.06094281
0.07113976 0.0063736914 0.03658838 0.038952637 -0.036934808 0.036444854 -0.009753436 -0.03142859
0.0102146715 -0.0015247132 -0.10210396 0.008716663 -0.010717017 0.00849996 0.051147852 -0.03433906
-0.0116682295 -0.0107144 -0.037268322 -0.03389162 0.0075033107 0.04565397 -0.02606007 -0.0454596
0.0495742 -0.047538478 -0.053442005 0.029263502 0.0014611101 0.0059675956 -0.0026926012 -0.071384914
0.01569719 -0.035115257 -0.07008918 -0.026330013 0.0055541494 0.008170873 -0.01848061 -0.024998391
-0.031006273 0.037988413 -0.00030540043 0.022635942 0.06842406 0.042006984 0.10395943 -0.003817074
-0.030708943 -0.008413928 -0.033149667 -0.008489926 0.059098434 0.018589988 0.04452686 0.009850572
0.0489178 0.090835616 0.058117755 0.022938233 0.02238005 0.03577563 0.0077865007 -0.0036537761
-0.029250322 0.012017566 0.021680443 0.024210777 -0.03632864 -0.0017051306 -0.021227809 -0.030740056
-0.05206181 -0.038805358 0.03934696 0.03886031 -0.014354923 -0.0388902 -0.01952164 0.0062241675
-0.010707249 -0.028357873 -0.03710613 -0.0382879 -0.015387462 0.0063725584 -0.006350341 -0.011702316
0.019060932 -0.032079495 -0.05799279 -0.027380215 0.04747792 0.024012003 -0.06059656 0.024518378
0.005859987 -0.039870862 0.06076207 0.057380978 0.0020726155 -0.0014728473 0.022149043 0.034131177
0.020938406 0.04938905 0.031028422 -0.062163495 -0.038811103 -0.048538964 -0.010586113 0.013749725
0.027598154 -0.018201793 -0.0020763855 0.003153944 0.04157756 0.022244569 -0.048163418 0.046495385
0.0066658407 -0.033813577 -0.011639951 0.008944946 -0.03172492 0.016445918 0.04782787 -0.0123444665
0.0031943556 0.06594696 0.009835898 0.032308433 0.0089480225 0.00015580699 0.020877212 0.10573711
-0.024666188 -0.037137613 -0.024082333 -0.047907908 -0.013694271 0.053143628 -0.006099618 -0.019861279
0.015493551 0.0026551266 0.04319242 -0.010860968 -0.050241534 0.0030860228 -0.05775933 -0.061159458
0.012888405 -0.0640471 -0.05451393 -0.10375138 -0.001136908 -0.015816983 -0.007733232 0.0049994644
-0.028066805 -0.061174273 0.014160076 -0.0073734904 0.025626278 0.0676404 0.02600166 0.01740274

bias f4 [32]
00000000: 5f62 9ebc d37a 853d c00f 25bd d581 c1bc
00000010: 5768 073d 28c8 4abd bd74 42bd c451 5fbd
00000020: e442 b43c 1125 86bb ac1b 07bd 0caf 483d
00000030: e062 8a3c 818c 643c 650e 333d 9581 423d
00000040: 3f9c 5a3d 002a 8abc 0811 2fbd d9e5 81bd
00000050: 88f8 c43c e0d7 363d 026c 863d 84a7 43bd
00000060: 4445 393d f69a c53b 527f 083d 5516 6c3d
00000070: c04d 163d 176b 883d e759 6abc ddac 09bb
-0.019334016 0.065175675 -0.040298223 -0.023621479 0.03305849 -0.04950729 -0.04747461 -0.054521337
0.022004552 -0.004093774 -0.032985374 0.048995063 0.01689285 0.013949514 0.0437149 0.04748686
0.053371664 -0.01686573 -0.04274085 -0.06342668 0.02404429 0.04463947 0.065635696 -0.047767177
0.045232072 0.0060304357 0.033324547 0.057638485 0.036695242 0.06661051 -0.014303661 -0.0021007576

weight f4 [32]
00000000: ec24 6f3f 5230 803f 9b25 383f 8337 643f
00000010: f9a2 693f 0220 8f3f adda 5d3f 2625 703f
00000020: 4e82 843f 3e4a 6d3f f2f7 693f 95a1 6c3f
00000030: 5f33 683f 28c6 833f 17ea 3f3f e19f 7b3f
00000040: cd6f 813f eeac 723f 68ba 793f b6a4 713f
00000050: 236c 5d3f e357 7b3f 143e 433f 1cae 7f3f
00000060: 9d79 693f fb06 6e3f cb21 663f 1f0f 733f
00000070: 2331 893f 151e 7e3f 5a0e 663f 497c 803f
0.93415713 1.0014746 0.7193238 0.89147204 0.912643 1.1181643 0.866618 0.93806684
1.0352266 0.9269141 0.9139396 0.92434055 0.90703386 1.0294847 0.7496657 0.9829083
1.0112244 0.9479512 0.9755006 0.94391954 0.8649313 0.9818098 0.762666 0.99875045
0.9120119 0.929794 0.89895314 0.9494495 1.071812 0.9926465 0.8986565 1.0037929

bias f4 [32]
00000000: ff26 f63e 5d91 953e 45b7 983e d9fb 033f
00000010: 74f2 f83e 20f8 1b3e 909a 093f 9a27 b83e
00000020: ed76 b83e f255 e93e 895c 013f f568 103f
00000030: 0acd b23e 83d5 b63c c9f9 233f 82e9 ca3c
00000040: 8c09 cc3e 5762 dc3e 3c45 21bd 8036 0c3f
00000050: 41c8 e93e 72ad e43e 0db9 db3e bf4e 1f3e
00000060: 0f58 ce3e 7882 083f 7525 843e 404e cd3e
00000070: 2084 353e 31f8 4c3e 9451 a73e ec56 4d3e
0.48076627 0.29212466 0.29827324 0.51556164 0.48622477 0.15231371 0.5375147 0.35967714
0.36028233 0.45573384 0.5053182 0.5641015 0.34922057 0.022318607 0.64053017 0.024769548
0.39851034 0.43043777 -0.039372668 0.5477066 0.45660594 0.44663578 0.4291462 0.15557383
0.40301558 0.5332408 0.25809827 0.40098763 0.17726183 0.20016553 0.32679427 0.2005269

running_mean f4 [32]
00000000: 09ea 1dbe 2819 d7bf 7367 82bf 84cc 8b3f
00000010: 685d 5d3f c617 f63e 9e5e 0bbf 54f4 dfbe
00000020: cfd0 94bf 7097 0c3e 7f3c 95be ba9a 0bc0
00000030: d9a8 173d cb57 dcbf a3a2 c33d eee8 51bf
00000040: 9176 75bf a595 37be f75a fbbf 6951 4d3f
00000050: eede b2bf 8c5b b83f 6bc6 d23e dbfb 8e3f
00000060: f424 cb3f 7cf5 cfbf 9bc7 a2be 40e4 e93e
00000070: a886 683f f5f8 58bf 6646 82bd cff4 70bf
-0.15421309 -1.6804552 -1.018782 1.0921788 0.8647065 0.48065013 -0.5444125 -0.43741095
-1.1626223 0.13729644 -0.29147717 -2.1813188 0.03702626 -1.7214292 0.09552505 -0.8199605
-0.9588404 -0.17928179 -1.9637135 0.8020235 -1.3974283 1.4402938 0.41167006 1.117061
1.5870652 -1.6246791 -0.31792912 0.45681953 0.9083047 -0.8475488 -0.06361084 -0.9412355

running_var f4 [32]
00000000: 6bf0 a83e 0f46 163f bc94 3c3e f4d2 f73e
00000010: c8c3 823e 0327 d53e e6d4 1b3e 8936 e13e
00000020: ff22 173f e853 003f c191 d73e f4f7 0f3f
00000030: 928d 1b3f 69d1 393f 0091 b93e 53df e13e
00000040: 65c1 873e 2132 bd3e d827 313f d682 e53e
00000050: d35b b73e 7088 fc3e cccd 223e 06ba 173f
00000060: fa4a c03e 80a5 023f 2802 943e 1f33 0b3f
00000070: 15f3 853f 2d6f db3e 0012 823e efc6 993e
0.32995924 0.5870065 0.18416113 0.48403132 0.25539994 0.41631326 0.15217933 0.4398692
0.59037775 0.5012803 0.4210339 0.5623772 0.60762894 0.7258516 0.3624344 0.44115695
0.26514736 0.36952308 0.6920142 0.44826382 0.35812244 0.49322844 0.15898818 0.59268224
0.37557203 0.5103378 0.28907895 0.5437488 1.0464808 0.42858258 0.25404358 0.30034587

weight f4 [32, 32, 3, 3]
00000000: 32de d63c 5497 2dbd ed7f 9fbd f45e 0b3d
00000010: 68ca dcbc aa0d 17bd ce96 aebc b75d 55bd
00000020: 39e4 093d ba52 ac3d ed33 303c 8cf8 68bc
00000030: 67dc 5c3b 7df4 c4bc d1b1 a4bd b7bb f5ba
00000040: 2979 b2bd 4188 68bd 814d 42bd 6a30 66bd
00000050: 4eb7 a13c 29f6 b33c de42 6ebb e302 bbbb
00000060: 8496 283d 679d 8fbb e5a8 be3a 9614 503c
00000070: ae76 f5bb a36b 76bd 6f5a b2bc 32ba f93b
00000080: 8ed5 70bb 97d0 66bd 7147 8abd 4ac4 7e3b
00000090: 058c 54bd 26df 5a3c e8fc ab3d ecc6 1d3a
000000a0: 2251 39bc ab1e 863c ff9c ffbc aed1 103d
000000b0: dba8 9dbc cea4 f6bc ab4e 27bb 82cc 86bc
000000c0: 4e85 29bd 8d46 163c dc8b 283d 2528 8abd
000000d0: d323 b13c 5819 8f3d e444 19bd e143 0ebd
000000e0: 3fae a03b 1122 4d3d b571 a93c 7baf ef3c
000000f0: bf5b 29bc 9203 ebbb 9a10 453d 2e23 18bc
00000100: 4112 41bd 5805 81bd 3199 2dbd 3b29 a0bc
00000110: 05e4 4ebc e6d2 78bc 3431 b4bb 4d3d 10bd
00000120: 96e1 b4bc 8bdc 41bc 3af5 10bc 97a6 96bd
00000130: fa73 7c3d 0f3d a8bc 53d8 adbc 341c b33d
00000140: 5489 173c a7cb 8cbd 35e0 91bd fb8c 89bc
00000150: 898f 13bd d5a3 ea3c 7780 3e3d 6210 ecbd
00000160: a1f7 b93c cab8 64bb ecf5 89bd 414f 3abc
00000170: 38a4 653b 91f9 4dbc 2a1d 233c a411 883d
00000180: 3ebf 6ebc 2774 81bc d628 5e3c 9a34 9a3d
00000190: 7357 353d e1e2 ac3b 2f95 42bc 968a 063c
000001a0: dc82 31bc cef3 693b 3778 053d c14d 423d
000001b0: aadc b7bc 62f2 95bc afe3 3bbd 2397 f33c
000001c0: 8ab8 41bc 8381 9bbd 2a7b 2cbc 841e 7fbc
000001d0: d197 88bd a922 573c 246c 99bc b163 c4ba
000001e0: 9f6d 31bc f5aa b0bc 2e25 0e3a af9e 8a3d
000001f0: eedd 823c 0f11 a3bb 0ad1 aabb 0bd7 80bc
00000200: 53bf a6bd d846 ebbc 39eb 9bbc c296 7ebd
00000210: 9308 b5bd 7de1 2d3b 68e8 6fbd e9c4 8f39
00000220: 8c21 d8bb a280 53bd 07a5 243d 5456 12bd
00000230: 8687 8abd 055c 403d 6ed1 5fbd ee29 f7bc
00000240: 6289 b3bc ccda 443d 7f03 943d bcff 0bbd
00000250: ed2d a83c 0f25 3d3d fd23 1dbc 51b8 efba
00000260: 34a1 84bc 9bfa a43d de3b 02bd b92b 4e3d
00000270: 3904 9d3d 3daf 93ba abb8 363c d2c8 053d
00000280: d2ff bc3b 01c3 903a a463 b1bd 6f31 0dbd
00000290: 2afa ac3c bbb7 373d 411c b83a 1b73 553d
000002a0: 8a6a 663d 18a8 843c 5305 58bd a2bd a4bc
000002b0: 9977 45bd 6574 68bd 5b59 a4bd ef56 4ebd
000002c0: b2a8 5bbd 4f7c acbd 2553 c4ba 3f6c 9f3c
000002d0: 18ab cbbc aa57 2d3c 1ca5 8ebd ff5a 393d
000002e0: db6e 9f3c f9de a7bc 8e53 583d 31b0 c9bc
000002f0: 45d5 debc 6c0e 1fbd 689b 74bc b62f d5bc
00000300: dd07 c5bc 4330 c53b faa6 b2bc 965c a0bc
00000310: ab70 023d dcbe 0fbc 914c 9ebd 0c44 8fbd
00000320: fd6e 013c a35a ccbc 93e0 5ebd 0e0b 283d
00000330: bab7 43bd 3433 46bd 93d7 153c 4520 d5bb
00000340: de0e 963c 2ac0 403d 01eb b13a bbc6 1a3d
00000350: 8c8a 963c 48a7 65bc 6004 883b 728c 383c
00000360: d4f3 2e3c c3f8 11bb 9c0f 04bd 29f3 fb3c
00000370: ddab 1d3c 20ed 19bb 4e2e 5d3d 722d 0f3d
00000380: 2931 2bbc 30cf ff3c 7dac 65bd 4ba3 1fbb
00000390: 3213 ffbc e103 b9bd 5205 febc abb0 ebbd
000003a0: a152 74bd 71a7 87bc fae6 4cbd ea3b 313c
000003b0: b991 f4bc 9daf 5fbd d0dc 14bd 0641 0abb
000003c0: 3621 b5bc fa42 c93c 3660 c73d b19f 213d
000003d0: 25f7 ef3c a9d0 28bd 2fd0 91bb aab0 36bd
000003e0: 78bb 47bb 439d 47bc 683d d03c 6884 fd3b
000003f0: 9c61 2ebd 68ac c4bc 7256 3ebd 28ee 16bd
0.026228998 -0.042380646 -0.07788072 0.0340261 -0.026951984 -0.036878265 -0.021312144 -0.052091327
0.033664916 0.08414216 0.010754568 -0.014219414 0.0033700706 -0.024042362 -0.08041728 -0.001874796
-0.08714516 -0.056770567 -0.047437195 -0.056198515 0.019740727 0.021967964 -0.0036355774 -0.0057071312
0.041159168 -0.0043827775 0.0014546184 0.012700221 -0.0074909544 -0.060161244 -0.021771638 0.007621073
-0.0036748382 -0.05635127 -0.067519076 0.0038874322 -0.051891346 0.013358867 0.083978474 0.00060187164
-0.0113108475 0.016372046 -0.031202791 0.035356216 -0.019245556 -0.030107882 -0.0025529067 -0.016454939
-0.041386895 0.009172094 0.041149005 -0.06745938 0.021623528 0.06987256 -0.037419215 -0.034732703
0.0049035843 0.050081316 0.020684103 0.02925848 -0.010336815 -0.0071720565 0.048111536 -0.009285731
-0.04713655 -0.06299847 -0.042382423 -0.01955091 -0.012627606 -0.015187001 -0.0054990295 -0.03521471
-0.022080224 -0.011832367 -0.008847529 -0.07355993 0.06163404 -0.020536928 -0.021221315 0.08745614
0.00924905 -0.06874781 -0.07122842 -0.016790858 -0.036025558 0.028642574 0.046509232 -0.11526562
0.022701086 -0.0034900182 -0.06736359 -0.011371435 0.003504051 -0.012571708 0.009955684 0.0664399
-0.014571963 -0.015802456 0.013559541 0.07529564 0.04427285 0.0052760695 -0.011876388 0.008211752
-0.010834422 0.0035698297 0.03258535 0.047437433 -0.022444088 -0.018304054 -0.045871433 0.029735154
-0.011823783 -0.07593062 -0.0105274115 -0.01557124 -0.06669582 0.013130822 -0.018728323 -0.0014983324
-0.010829358 -0.021565894 0.00054224103 0.06768548 0.015974965 -0.004976399 -0.0052129077 -0.01572754
-0.08141961 -0.028720304 -0.019033061 -0.062155493 -0.08839526 0.0026532107 -0.05857125 0.00027421795
-0.006595796 -0.051636346 0.040196445 -0.03572686 -0.0676413 0.046962757 -0.054643087 -0.03017136
-0.021916095 0.048060223 0.07227229 -0.034179434 0.020529712 0.04617792 -0.0095911 -0.0018289183
-0.016190149 0.08055612 -0.031795375 0.050334666 0.07666821 -0.0011267435 0.011152427 0.03266222
0.005767801 0.0011044444 -0.08661583 -0.03447097 0.021115381 0.044852953 0.0014046506 0.052111726
0.056253947 0.016193435 -0.052739453 -0.020109955 -0.04820976 -0.056751627 -0.08024856 -0.050375875
-0.053627677 -0.084221475 -0.0014978392 0.019460795 -0.024861857 0.010579983 -0.06965086 0.045252796
0.01946204 -0.020492064 0.05281406 -0.024620147 -0.027201304 -0.038832113 -0.01492963 -0.026023727
-0.024051601 0.006017716 -0.021808136 -0.019575398 0.03184573 -0.008773532 -0.07729448 -0.06995401
0.007899997 -0.024945563 -0.05441339 0.041026168 -0.047782637 -0.048388675 0.009145635 -0.006504091
0.018317636 0.047058262 0.0013574065 0.03778718 0.018376611 -0.014016934 0.004150912 0.0112639535
0.01067825 -0.0022273518 -0.03224145 0.030755596 0.009623495 -0.0023487285 0.053999238 0.03495545
-0.010448732 0.031226724 -0.0560727 -0.0024358805 -0.031137083 -0.09033943 -0.031008396 -0.11508306
-0.059649114 -0.016559334 -0.050024964 0.010817507 -0.029854642 -0.054610837 -0.036343396 -0.0021095886
-0.022110563 0.02456807 0.09735148 0.039458934 0.029292652 -0.04121462 -0.0044498662 -0.044602074
-0.003047673 -0.01218349 0.025419906 0.0077367313 -0.042573556 -0.024007991 -0.04646916 -0.036848217

bias f4 [32]
00000000: 388d ddbc 1a4d 36bc 962e db3c cb6b 853c
00000010: bfbd 01bb cb9a b8bb 2b88 92bd 9ece 183d
00000020: 2369 0a3d 789c 333d 3cf3 b4bc 65c0 59bd
00000030: 8b50 953d aef4 8cbd 2f76 f2bc 3a4b 573d
00000040: ae51 443c febf 963d 833b 2dbd 1071 ed3b
00000050: 1545 0f3c b5c9 513a b2ff 2a3d 6865 85bc
00000060: a23b 53bc afb7 eabc 3986 e3ba a4df 1c3a
00000070: d4d8 263d 5bd7 293d e46a 96bc 9fca 01bd
-0.027044877 -0.011126781 0.026755612 0.016286751 -0.0019796935 -0.005633687 -0.07154878 0.03730642
0.033791672 0.043850392 -0.02208864 -0.053161997 0.07290753 -0.068826064 -0.02959737 0.052561976
0.011982365 0.07360838 -0.042293083 0.007246144 0.008744498 0.0008002774 0.041747756 -0.016283706
-0.012892636 -0.02865204 -0.0017358727 0.0005984253 0.040734127 0.041465145 -0.018361516 -0.031687375

weight f4 [32]
00000000: 328b 7b3f 1049 813f 70dd 7b3f 91be 6f3f
00000010: 3277 723f 00b2 7a3f 9b03 763f 642b 613f
00000020: 18ba 7d3f 2f72 623f 8127 593f 4432 613f
00000030: 5809 6b3f 193f 813f 1c43 7f3f da91 833f
00000040: 41c5 7b3f 237a 6b3f 86ea 683f bd70 853f
00000050: e497 6e3f cc0b 7c3f a7f9 6e3f 4656 743f
00000060: 1165 733f 9b83 633f e162 843f 3a63 7c3f
00000070: 623a 813f 00f8 8d3f 2a69 7a3f a094 7d3f
0.9825927 1.0100422 0.9838476 0.93650156 0.9471313 0.97927856 0.9609925 0.87956834
0.9911208 0.8845548 0.84825903 0.87967324 0.9181113 1.0097381 0.99711776 1.0278885
0.9834786 0.9198324 0.90982854 1.042503 0.93200517 0.984555 0.9334969 0.9544414
0.9507609 0.8887269 1.0342675 0.9858891 1.0095942 1.1091309 0.9781672 0.9905491

bias f4 [32]
00000000: e56c d03e 3eef bb3e ebf7 853e bf1d f83e
00000010: c202 813e f81d b03e 14fd 253f 3b41 bb3e
00000020: 0f20 173e 20a7 313f a2f7 b63e 0f8a e63e
00000030: 311f e93e 2255 6b3e bc69 063d 0ed4 893d
00000040: 59cb 083e f67b b63e 98eb 013f 13d4 503e
00000050: ccbe b53d 99cd 593d 0f2e 993e 8695 cd3e
00000060: 8c2f a03e 6d1e ee3e 32fd b43e 59ed 423e
00000070: 60e1 803e a069 8c3e c0b5 973e f893 ba3e
0.4070808 0.36705965 0.2616571 0.48460194 0.25197417 0.34397864 0.6483929 0.36573204
0.14758323 0.6939564 0.35735804 0.45027205 0.4553161 0.22981694 0.03281568 0.06729899
0.13358821 0.3564145 0.5075011 0.203934 0.08874282 0.05317459 0.29917952 0.4015314
0.31286275 0.46507588 0.35349423 0.19035853 0.25171947 0.27424335 0.29630852 0.36441016

running_mean f4 [32]
00000000: 8a0f d4bf 25dd 4d3f b32b c8be bfca 95bd
00000010: 3dc2 9abe ba12 3cbf adbf 923f 0d93 0abd
00000020: de08 4dbf 78d8 5d3f 5aa9 b63f 6ed9 59be
00000030: 9d7c a73f 736b 073e 8c0f d8bf 6ca3 5dbe
00000040: 6464 c13d 226a d4bf 3db7 553f 186c e8be
00000050: 1b9f f9be 5ef3 e2bf 9906 193f a76a 85bf
00000060: aa65 8cbf 22bc 553f cb44 7d3d f366 a6be
00000070: d5aa abbf f6ca 6a3f 05b7 063d 191c 85be
-1.6567242 0.80415565 -0.3909584 -0.073140614 -0.30226317 -0.73466074 1.1464745 -0.033831645
-0.80091655 0.8665843 1.4270432 -0.21274349 1.3084904 0.13224582 -1.6879745 -0.21644372
0.09442976 -1.6594889 0.83482724 -0.4539497 -0.487542 -1.773052 0.5977569 -1.0423173
-1.0968525 0.8349019 0.061833184 -0.3250042 -1.3411509 0.91715944 0.032889385 -0.25998

running_var f4 [32]
00000000: ec79 263e 1070 ad3d 4425 6f3e ce3b 8b3e
00000010: 97f1 443e 6272 8f3e f0d2 813e 660b 353e
00000020: dc8a 3b3e 7608 283e 53e2 0b3e 5f81 1f3e
00000030: e7a1 673e c4b7 833e 3496 7d3e 4daa 8f3e
00000040: a579 1e3e c78b 5b3e 5799 633e 6577 c23e
00000050: bad7 253e d379 4b3e a89c a23e 11ba 743e
00000060: cc25 7d3e d4b2 333e 7249 8e3e fb39 233e
00000070: ebb3 8b3e 59b1 373e fd2c 4d3e 4809 383e
0.16257447 0.0846864 0.2335406 0.27194065 0.19232784 0.28016955 0.25356245 0.1768013
0.1831469 0.16409478 0.13660555 0.15576695 0.22620355 0.2572614 0.24764329 0.28059617
0.15476091 0.2144004 0.22226463 0.37981716 0.16195574 0.19870691 0.31760144 0.23899104
0.2472145 0.17548686 0.2779041 0.15940087 0.27285704 0.17938747 0.20036693 0.1797229

weight f4 [32, 32, 3, 3]
00000000: 66f5 983c 8a16 c33c d686 1cbd 2add 0c3d
00000010: adc7 d43c d780 423d 533d e23c 9008 20bb
00000020: f5f1 653b 05c4 78bc e97b 1ebd e2a1 583d
00000030: 52fd 583d 1042 87bb 40d7 1c3c 4953 283d
00000040: 4557 cbbd fbe5 103b 3306 bfbc e8a3 baba
00000050: 14c0 c03c 2cf9 3b3d 2ecd e3bc 35c4 21ba
00000060: b2cf b6bc 093b 72b9 74ac b93d 04ca 103d
00000070: fcd5 a03c e47a 29bd 5c00 5fbd adb4 0d3d
00000080: 196f 1abc 992e 34bd 40dd 02bd 98ac bcbd
00000090: f81e 28bc 514e 233d c3f9 e4bc cb4a 973d
000000a0: ba9d 473d d173 063d c0d5 90b8 c7cd 55bc
000000b0: 325f 8abd a394 00bb 0da5 2d3d 5a0f bc3d
000000c0: fa60 abbc 8cb0 5e3c 6618 523d 9462 b5bd
000000d0: 4e04 7fba 1705 2a3d 478d 95bd 7b43 10bd
000000e0: e539 18bd 7685 8cbb 9892 a7bc 8f01 433d
000000f0: b396 10bd e42e 0fbc 6e18 c33d 104b b23d
00000100: 2317 e7ba 2f0a 1cbd 0d10 4a3b 633b 0a3d
00000110: b343 a23b 4bc4 44bd 5e95 7b3c 9e86 54bc
00000120: 9ed4 4bbc a783 8abd b991 733d e2ab 813d
00000130: fa1d 2a3b ce08 643b 0580 e1bc 2adf 37bb
00000140: 9490 75bd f57d 303d 1b98 aebb ed9a 91bd
00000150: fdd8 003c 4a0a 943c a647 253c 79a8 88ba
00000160: ce04 a1bc 7b7e 30bd a9ae 17bd 6d25 8c3c
00000170: 53b1 4f3d c1b5 e63c 0e94 d53c da84 2b3d
00000180: ae17 82bc eddf b3bb 17e4 74bb 02ce febc
00000190: 23db 51bd 10d5 80bc b652 91bc a56b 51bd
000001a0: d922 6d3d 6497 a13c a051 0d3d b609 d7bb
000001b0: 0739 0cbc 8aa7 c2bc 9290 bebc 6b63 253c
000001c0: de0f d0ba 40bb 203c a718 583c efb8 4c3d
000001d0: 320a 263d bd40 233c e3ce 0bbd 2051 f73b
000001e0: b2e8 0abd d00e fbbc f7bf 883c 6c28 a23c
000001f0: b74e 6c3c f610 bf3a 8d44 193d 3f63 f33c
00000200: 64b1 683d fc6d 263b a477 7abd 44c2 ecbc
00000210: 0533 a03c 86c8 9abd a385 9abd b635 24bc
00000220: 3975 9cbd 1089 11bd 1139 613c 5531 81bb
00000230: 8771 13bd ad62 c9bc ce89 163a 4a42 cebd
00000240: c8d0 b03d 36d1 3bbc 9fdc 92bd 4daa a83c
00000250: c74b 29bd 732a 45bc 7785 09bd d58f 51bd
00000260: b970 94bd da54 963c 56ab 40bd 18b1 0dbd
00000270: 7b02 823b aa93 f6bb 28da 343b 0f78 95bd
00000280: 533c 80bd 870e 3fbd 8bc2 0e3d 1eed 4bbc
00000290: e7e6 a1bc 9cce 4b3d 9c0e 76bc fd19 2d3d
000002a0: 921c 0a3c 476b 9bbd 9b03 6a3d 73b4 e1bc
000002b0: 3fdf 7a3d 11d6 d9bd 168a 25bd 4e1b 643a
000002c0: 5f0e 52bd 4371 893c 3587 953d a783 e6bd
000002d0: f2b5 30bc ab07 183c 4c0c cfb7 72e6 913d
000002e0: bbd7 a43c b414 d83c 02d0 773d d2fa f5b8
000002f0: cbd4 eebc cca0 58bd aef7 79bd c158 823d
00000300: eb27 e73c 1ce3 3dbd f372 453d 2f2a dc3c
00000310: 8a57 e1bd 5637 0cbd 84a1 ab3c d7b5 3f3d
00000320: 10f7 cabd 76f6 edbc d31d 913c 183d 2dbd
00000330: e5c5 76bc d5a3 ce3c b186 f3bc c0d2 b4bc
00000340: e7ed 523d 88aa 093e 717b 90bc 4c6e 6d3c
00000350: 9add 693d f249 903d 668a 0fbd 4414 90bc
00000360: a16b fe3d 6dd9 793d 5fd7 2b3c 7b67 8b3d
00000370: 8e73 033d d3ef f23c 9ec1 883c a668 fa3c
00000380: d9ba b83d d323 483d 3a8b 2f3b b8eb b5bd
00000390: 3dbf d13c b674 7b3c cc38 5cbd 2597 853c
000003a0: 9a3b 843d d285 c4bc 3b26 d83d 3d17 213d
000003b0: 65e0 f9bc 075a e2bb 6eae 993d bfd9 593d
000003c0: 78d2 f4bc 9b38 e23c 7057 4a3c 5cd9 06bd
000003d0: f8b2 22bc fb03 7ebb 2517 4fbc 8ad9 88bb
000003e0: 8690 203d c0b6 48bc 2062 00bd 6c23 92bd
000003f0: 9c23 d03c 6e77 cf3b 65ad 713c 6b08 35bd
0.018671703 0.023814458 -0.038214527 0.034390606 0.02597412 0.047486152 0.027617132 -0.0024419166
0.0035086845 -0.015183453 -0.03869239 0.05288876 0.05297596 -0.0041277483 0.009572804 0.041095052
-0.09928755 0.0022109735 -0.023318386 -0.0014239522 0.02352909 0.045891926 -0.027807798 -0.00061709
-0.022315834 -0.00023100911 0.09066096 0.035348907 0.019633286 -0.041376963 -0.054443702 0.034596134
-0.009425902 -0.04398975 -0.03194928 -0.09212607 -0.01026129 0.03986961 -0.027951127 0.073873125
0.048734404 0.032825295 -6.906269e-05 -0.013049549 -0.06756438 -0.0019619844 0.042393733 0.091826156
-0.020920265 0.013591897 0.0512928 -0.08856693 -0.00097281195 0.04150876 -0.07302337 -0.035220604
-0.037164588 -0.0042883707 -0.020455644 0.04760891 -0.035299968 -0.008739207 0.09526144 0.08705723
-0.0017630797 -0.03809565 0.003083232 0.03374804 0.004951918 -0.048038762 0.015355436 -0.012971548
-0.012440829 -0.06763392 0.059465144 0.06331612 0.0025957809 0.0034795287 -0.027526865 -0.00280566
-0.059952334 0.043088872 -0.005328191 -0.07109628 0.007864234 0.018071312 0.010087883 -0.0010426185
-0.019655611 -0.04308937 -0.037031803 0.01710769 0.05070622 0.028162839 0.026071575 0.041874744
-0.015880432 -0.0054893405 -0.0037367397 -0.031104092 -0.051234376 -0.015726596 -0.017739635 -0.05112805
0.05789456 0.019725509 0.03450167 -0.006562437 -0.008558518 -0.02376153 -0.023262296 0.010094504
-0.0015873869 0.009810269 0.013189471 0.049981054 0.040537067 0.009964165 -0.03413285 0.0075475127
-0.03391332 -0.030646712 0.016693098 0.019794665 0.014423064 0.0014577198 0.03741889 0.02971041
0.056809798 0.0025395146 -0.061149254 -0.028901227 0.019555578 -0.07557778 -0.075450204 -0.010022571
-0.07639546 -0.035531104 0.013746516 -0.0039426484 -0.03599694 -0.024583185 0.00057425804 -0.100712374
0.08633572 -0.011463454 -0.071709864 0.020589018 -0.041332033 -0.012034046 -0.033574548 -0.05116256
-0.07248063 0.018351007 -0.0470384 -0.034592718 0.003967581 -0.007524927 0.0027595852 -0.0729829
-0.06261506 -0.046644714 0.0348535 -0.01244667 -0.019763423 0.049757585 -0.015018132 0.042261112
0.008429663 -0.07588821 0.057132345 -0.027551865 0.06124806 -0.10636533 -0.040414892 0.00087015785
-0.051283237 0.01677764 0.07301179 -0.112555794 -0.010785567 0.009279172 -2.468205e-05 0.07124032
0.0201224 0.02637706 0.060501106 -0.00011729229 -0.029154202 -0.052887723 -0.06102722 0.06364585
0.028217277 -0.046359167 0.048205327 0.026875583 -0.11003025 -0.03423246 0.02095104 0.046804275
-0.09910405 -0.029048186 0.017714417 -0.04229459 -0.01506183 0.025224606 -0.029727312 -0.02207315
0.051496413 0.13443959 -0.017636986 0.014491629 0.0570961 0.07045354 -0.035044096 -0.017587788
0.12422872 0.06099837 0.01048836 0.06806847 0.032092623 0.029655373 0.016693886 0.030567478
0.09020013 0.04886229 0.0026785866 -0.088828504 0.025603885 0.01534765 -0.053765103 0.016307423
0.064566806 -0.023989592 0.10554167 0.039328802 -0.030502507 -0.0069077048 0.07503973 0.053186174
-0.029885516 0.027614882 0.012349948 -0.032922134 -0.009930365 -0.0038759697 -0.012639795 -0.0041763233
0.03920033 -0.012250602 -0.03134358 -0.071356624 0.025407605 0.006331376 0.014750813 -0.04419748

bias f4 [32]
00000000: 4c8d 873c 92bc e83d 99ec 7e3d db18 4dbb
00000010: 81f8 323d 0b2e 7f3d 09c6 973c b76a f63c
00000020: 7e69 3abc b4a6 56bd a9c6 3fbd 1d06 813d
00000030: 04b0 1a3d 8440 843d ea68 b33d 70bb 493d
00000040: 217e fa3b fd74 4b3d d4fd 7cbd d372 16bd
00000050: 1c3e 1abc 02d9 76bb 9827 383d 8cb0 bd3c
00000060: 5f0f 8d3c 526d 923d 8cdf e83c fda6 01bd
00000070: 6e93 6b3d b91b f23d 49fc 473d 42a0 8dbd
0.016546868 0.11364092 0.062237356 -0.0031295333 0.043694023 0.06229977 0.018527048 0.030080182
-0.01137769 -0.052405074 -0.046820316 0.06299994 0.037765518 0.06457618 0.08760245 0.04925102
0.0076444303 0.049672116 -0.061765507 -0.0367306 -0.009414222 -0.0037665968 0.044959635 0.023155473
0.017219244 0.071497574 0.028426908 -0.031653393 0.057513647 0.11821694 0.048824582 -0.069153324

weight f4 [32]
00000000: 8af3 b23f cf3a 883f 6e5b 7f3f 6195 8a3f
00000010: 13c9 743f c1a6 b23f 8f15 8b3f 743d 953f
00000020: 00ee 833f c7c6 873f 82de 8b3f cd1a 7c3f
00000030: 1d6b 933f c917 853f 0447 8b3f d8c9 8f3f
00000040: 7481 8e3f 6cc3 923f 0179 a33f a4f1 883f
00000050: 7b54 9f3f ecaa 963f d689 843f 0f7a 933f
00000060: 8235 913f 7599 bc3f 9f86 8f3f 57d9 883f
00000070: 1fa1 943f f437 913f 4e68 8a3f 2505 943f
1.3980572 1.0642947 0.99748886 1.0826837 0.95619315 1.3957139 1.0865954 1.1659379
1.0307007 1.0607537 1.0927279 0.98478395 1.1517063 1.0397884 1.0881047 1.1233473
1.1133256 1.1465888 1.2771302 1.0698743 1.2447656 1.1770911 1.0354564 1.1521624
1.1344454 1.4734331 1.1212958 1.0691327 1.161167 1.13452 1.0813081 1.156407

bias f4 [32]
00000000: 45cc 89bd 6392 b33d b4b7 47be 16fb d03e
00000010: 25a7 dd3e 17a3 b23e e516 2dbe 37b4 9ebd
00000020: d9c2 343d 759d 4abe e8cc dabc ebff 3abe
00000030: 462a 4dbd 5e2a bc3d 3aaa 1cbe 3a7b d1bc
00000040: d80f 423d e9f9 913e b3af 65bd e7a6 4e3e
00000050: 9137 b03e a778 ae3e 9495 b73d 5e54 58be
00000060: 1fab 283e 9cfc 6c3e f20a afbd a0c2 e63e
00000070: 658e 953e cf7e 6e3e a826 f83d 0c13 49bb
-0.067284144 0.087681554 -0.19503671 0.40816563 0.43291584 0.34890053 -0.16903265 -0.07749217
0.044131134 -0.19786628 -0.026709035 -0.18261687 -0.050089143 0.091877684 -0.15299311 -0.025571454
0.04737839 0.2851098 -0.056075763 0.20180856 0.34417394 0.34076425 0.08964077 -0.21125934
0.16471528 0.23143238 -0.085470095 0.45070362 0.292102 0.23290561 0.12116748 -0.003068152

running_mean f4 [32]
00000000: ccf3 e53d 3637 9b3d 03d0 c2bb e1e5 013d
00000010: 440d 893e d07a c43d 4bc0 ca3d d216 993e
00000020: 1c96 113e 5618 b63d 84ca 22be 92ea 75be
00000030: 9165 f9bd 474d c23e 3c99 9a3e 779f a23e
00000040: 4210 90bc 1f0f 0f3e 7dfe a63e eb53 44be
00000050: 6673 45bf 47b5 5f3e ebbe 02bf 0540 e9bd
00000060: 5de3 ec3d f928 8dbe 706e 14bf 8e9d 3abc
00000070: 7f18 dfbc 3b8f bf3c 5e32 08be e486 583e
0.11228141 0.0757889 -0.005945207 0.03171337 0.26767933 0.09593737 0.09899958 0.29900223
0.14217418 0.088913605 -0.15897566 -0.24015263 -0.121775754 0.37949583 0.30195034 0.31762287
-0.017585877 0.13970612 0.32616034 -0.19172637 -0.7712921 0.21846496 -0.5107257 -0.11389164
0.115668036 -0.27570322 -0.57981014 -0.011390103 -0.02723336 0.023383727 -0.13300464 0.21145207

running_var f4 [32]
00000000: 52c5 e83d df8a 4b3d 4f92 aa3d 9a0e 5d3e
00000010: 47ee c33d 7a85 553e 9e20 583e 43b8 443d
00000020: 71ba de3d 4729 ee3d bc7f 3c3e e29b 283d
00000030: 9b89 453e 7011 173e 9182 1a3e 9821 813e
00000040: 73d0 583e 8568 1c3e 7adb 813d 544a 3d3e
00000050: 8f0f 443e bc2f 2f3e f3aa f53d 1f0b 5b3e
00000060: 357f 423e e155 d53d 2340 943e 6cd0 473e
00000070: 7f16 653e 491f 1b3e b851 273e b554 3c3e
0.11365761 0.049692985 0.083286874 0.21587601 0.09566932 0.20851699 0.21106192 0.04802729
0.108754046 0.11628967 0.18408102 0.041164286 0.19290774 0.14752746 0.1508887 0.25220942
0.21173267 0.15274246 0.0634069 0.18485385 0.1914656 0.17108053 0.119954966 0.21390961
0.18993838 0.10416771 0.28955182 0.195131 0.22371863 0.15148653 0.16339767 0.18391688

weight f4 [1, 32, 3, 3]
00000000: c600 d0bd 8130 eebd 958b 3e3e b5bc 12be
00000010: de3f 26be ad1f 1b3e 262d 8cbd 5d59 d9bc
00000020: 0837 4a3e 7b73 113d 1494 a33d d52f b73d
00000030: d210 ac3a 6168 453c c1df e63d 8b9e ecbd
00000040: d56b 17bd 5cb3 34bc 6dda 84bd 88bc 69bd
00000050: b588 973b 9900 20bd c209 20bd 77c7 393b
00000060: 4da2 eabb 0ee2 01bd 4485 ef3c 90a7 f7bd
00000070: a6e3 9bbd c7ea e8bd ec53 29be 9379 f9bd
00000080: e1b1 f0bd d7e6 2bbe 0fa0 19be b244 d8bd
00000090: 95cd 8dbd 7238 0f3d 54f4 57bc 32c7 48bd
000000a0: 471b d6b8 fe9f 96bb f56a 9dbd 07fa 9f3a
000000b0: d58b 0fbd 76e0 9a3d 0c33 9d3d f24f 75be
000000c0: d834 043d 1b4c 983d 675c 71be 75f7 e33b
000000d0: 7fd2 6ebc 819c 7fbe 4953 dfbd d37c 06bd
000000e0: bcdf 78bd a6ba 6dbd 98ad b9bd 2c35 a6bc
000000f0: 660c abbd 0466 b5bd 67ae 2dbd 7b09 253e
00000100: 4fdd 973d 2bf7 2a39 0fae b53d 3e2e 833c
00000110: cb73 14bd 12ee 8cbc a457 30bd e7df 23be
00000120: 42be cebc 1500 61bd 06b2 b2bd c3d7 23bd
00000130: 9574 a7bc 95af 77bd eacc 733c a9e2 63bc
00000140: 83f4 dfbc 9318 ef3c cdda ac3b a877 213c
00000150: 58cb bebd cf48 bcbd c62d cabd 5c1c 683d
00000160: aa9f 093c 5ad2 89bc bf65 1e3d 2270 dc3d
00000170: 6d9b aa3d e323 a23d 2029 4f3d dbe9 963d
00000180: 7839 963d 4b03 b93d 1b3c a93d 1a8b a03b
00000190: e3af cdbc d5f3 e6bc ce23 423d fc9d ebbc
000001a0: 3d8f ddbc 220b af3d 8194 593d 60a7 893d
000001b0: 6da3 bd3d 20a7 ec3d 3bad fe3d 63c5 623d
000001c0: 5a0d c53d c084 d13d ddbb c33d 666b 6e3d
000001d0: a55c 9e3d b23e ba3d 5564 3c3d e2f4 043d
000001e0: f27a cf3d b994 ab3d c27d f23c a90e c73d
000001f0: a5e7 a43d 1e82 973c a659 80bd 5806 acbd
00000200: 2b36 12bd 1d02 58bd 55c4 16bd 02eb 58bd
00000210: b937 8cbd 1806 9cbd 668b 5ebc 7be7 f33d
00000220: ffc6 b03d 5f3b ec3d 706d 8b3d b8de 023e
00000230: 7042 aa3d 86fe ab3d 57ab b73d 7783 f03d
00000240: 6ed1 f63d c860 c83d 1d9e a33d 974e e73d
00000250: 11d1 2f3d 5d95 883d b3de c33d 0be8 953d
00000260: 361b dd3d c662 11be 7a09 9fbd 798b bc3d
00000270: 0e8c 09be 5ef4 a8bd 7270 063e 5f1f 2abe
00000280: b84f acbd 7154 8a3d 8f3d 353e e9b6 d73d
00000290: 9c85 9cbd b52b ea3d 4c85 7e3d 9447 b0bd
000002a0: 3149 523c 77ba 02bd 2837 46be 32a6 32bd
000002b0: cce2 b73c 1943 2d39 3c16 05be a64f 8fbd
000002c0: 0d18 afbd 95a4 c5bd 4d30 6dbd 4656 42bd
000002d0: bc6f f43d 1c3b a53d 90b1 d3bd 18ef ee3d
000002e0: d49d 8c3d 8832 f7bd 99b7 33bd 792b 31bd
000002f0: 0f1a 54be 9481 13bd 86f0 26bd f1e5 c9bd
00000300: b60d a6bd 6a14 70bd 519c 59bd 1b44 12be
00000310: a172 36be a022 22be 0e29 9cbb 11d4 19bd
00000320: 627a 00bd 1e14 8ebc 62f8 b1bc 8817 8ebc
00000330: 96d7 c3bd 992f 42bd 5918 8ebd 3fbe 8fbd
00000340: ba26 cabd 4127 5abd f6ec bebd d813 abbd
00000350: b900 52bd 9112 13be 81b2 1abe 5736 e0bd
00000360: bc2b 13be 476c 0fbd 6efd efbc 55a4 2cbe
00000370: 1cb4 cbbc cf3e f8bc b82d 36be cec3 ce3c
00000380: d787 28bc 3f19 3b3e 10b0 343e e0a9 24be
00000390: c651 e13d 2d27 e43d ea33 4dbe b20b ca39
000003a0: e100 d5bc 977d 8cbe ae20 c73d b52f 703d
000003b0: 9ccc 0a3e c8e8 a43d cd75 583d 7682 f43d
000003c0: f8d2 a33d 121e 553d ae2e 173e bdd6 b0bd
000003d0: 14c8 b0bd 7999 13be b6fc a5bd 95eb e3bd
000003e0: 4a7d 18be b63d 3cbd da17 aebd 48e4 28be
000003f0: b9ee 3dbd 0a9c b0bd ce90 edbd f988 ccbc
-0.101563975 -0.11630345 0.18607934 -0.14329799 -0.16235301 0.15148802 -0.06844549 -0.02653187
0.19747555 0.03551052 0.07987228 0.0894467 0.0013127571 0.012048812 0.112731464 -0.11553677
-0.03696807 -0.011029091 -0.06486974 -0.057064563 0.004624451 -0.03906307 -0.039071806 0.002834765
-0.007160461 -0.031709723 0.02923835 -0.12092507 -0.0761178 -0.11372905 -0.1653592 -0.121813916
-0.11752678 -0.16787277 -0.15002464 -0.105599776 -0.06923977 0.03496594 -0.013180811 -0.049018092
-0.00010209396 -0.0045967093 -0.07686416 0.0012205251 -0.035045464 0.07562344 0.07675752 -0.23956278
0.03227696 0.07436391 -0.23570405 0.0069569894 -0.014576553 -0.24962045 -0.10904557 -0.032833885
-0.060760245 -0.05803933 -0.090663135 -0.020289026 -0.08351974 -0.088573486 -0.04240265 0.16116898
0.07415258 0.0001630454 0.0887109 0.01601326 -0.03624324 -0.017203365 -0.04305233 -0.1600338
-0.025237206 -0.05493172 -0.087253615 -0.04000069 -0.020441333 -0.060470182 0.014880398 -0.01390902
-0.027338272 0.029186523 0.0052751065 0.009855188 -0.093161285 -0.09193575 -0.09872012 0.05666767
0.008399883 -0.016823936 0.03867125 0.10763575 0.08330426 0.07917001 0.05057633 0.07368823
0.0733518 0.09033831 0.08263417 0.0048993947 -0.025108283 -0.02819244 0.047397427 -0.028761856
-0.02704584 0.08547045 0.05312014 0.067213774 0.092596866 0.11555314 0.12435385 0.055364024
0.09621687 0.10230398 0.095573165 0.058207892 0.07732514 0.090939894 0.04599412 0.0324601
0.10130872 0.08377976 0.029600982 0.09719593 0.08051995 0.018494662 -0.06267099 -0.083996475
-0.03569619 -0.05273639 -0.03680833 -0.052958496 -0.06846566 -0.0761835 -0.01358304 0.11909386
0.086317055 0.11534762 0.06807983 0.12780273 0.08313453 0.08398156 0.08968227 0.11743825
0.12051664 0.097840846 0.07989142 0.11294287 0.04292399 0.06669114 0.09563961 0.07319649
0.10796206 -0.14197835 -0.077654794 0.0920629 -0.13432333 -0.08249734 0.13128832 -0.1661353
-0.08413643 0.06754387 0.17699264 0.10532934 -0.076426715 0.11434118 0.06213884 -0.086074024
0.012834833 -0.031916108 -0.19356978 -0.043615527 0.022447012 0.00016523561 -0.12996763 -0.069976136
-0.08549509 -0.09650532 -0.05790739 -0.047445558 0.11935374 0.08067915 -0.10336602 0.11666697
0.06866041 -0.12070185 -0.043876264 -0.04325435 -0.20713066 -0.036012247 -0.040756725 -0.09858311
-0.08108084 -0.05861322 -0.05312759 -0.14283793 -0.17817165 -0.15833521 -0.0047656363 -0.037555758
-0.031366713 -0.017343577 -0.021724883 -0.017345205 -0.09562604 -0.047408674 -0.06938238 -0.070187084
-0.09870668 -0.05326009 -0.093225405 -0.08353394 -0.05127022 -0.14362551 -0.15107156 -0.109478645
-0.14372152 -0.03501537 -0.02929565 -0.16859563 -0.024866156 -0.030303387 -0.17790878 0.025239851
-0.010286293 0.1827135 0.17645288 -0.16080427 0.11001925 0.11140285 -0.20039335 0.00038537156
-0.026001396 -0.27439567 0.0972303 0.058639247 0.13554615 0.08052212 0.05284672 0.11938946
0.079992235 0.05203063 0.147639 -0.08634708 -0.08631912 -0.14414014 -0.081048414 -0.11128918
-0.14891544 -0.04595729 -0.08500643 -0.16493332 -0.04637024 -0.08623512 -0.11599885 -0.024967657
