TuiGAN/models/apple2orange/b1.pth (torch, 131453 bytes, 25 tensors)

weight f4 [32, 3, 3, 3]
0	0x3cacb95d	0.021084482
1	0x3cc5bf03	0.024138933
2	0x3d7ce066	0.06173744
3	0xbcf2b20e	-0.029625919
4	0xbc815836	-0.015789133
5	0x3d307639	0.043081496
6	0xbdb14bdf	-0.086570494
7	0xbd133c7f	-0.035946365
8	0xbc47a3d0	-0.012185052
9	0xbc9d46ee	-0.019198861
10	0xbc5d21b6	-0.013496807
11	0x3d2a613e	0.041596644
12	0xbce7f5f1	-0.028315516
13	0xbb2e5955	-0.002660354
14	0x3c867964	0.016415305
15	0xbce33283	-0.027734047
16	0xbcc1dc8d	-0.023664737
17	0x3bedeadb	0.007260663
18	0x3ca466ac	0.020068489
19	0x3bbf773a	0.0058430703
20	0x3d224cb7	0.039623942
21	0x3cd2850d	0.02569821
22	0x3c7bad75	0.01536118
23	0x3c8fa406	0.017534267
24	0x3d2ad367	0.041705515
25	0x3cb638a8	0.022243813
26	0x3d465b6b	0.048427027
27	0xbbbb3799	-0.005713415
28	0x3c9bb025	0.01900489
29	0x3b8bd401	0.004267216
30	0x3b3afe5d	0.002853296
31	0xbc519aa8	-0.012793221
32	0xbcb6acbb	-0.022299161
33	0x3b8abc8e	0.0042339033
34	0xbbc2eda8	-0.005948741
35	0x3ca33d22	0.019926611
36	0xbcaf4bb9	-0.021398412
37	0xbc40f221	-0.011776478
38	0x3dc06ccb	0.093957506
39	0x3c1abe6d	0.009444815
40	0x3d274274	0.04083486
41	0x3d6f9d54	0.05849965
42	0x3cd8cdb5	0.026465276
43	0x3d227aa8	0.039667755
44	0x3e319fb9	0.17346086
45	0xbc6a5fe8	-0.014305092
46	0xbcc2d213	-0.023781812
47	0x3dba6d65	0.091028966
48	0xbc8fbb30	-0.017545313
49	0xbc8bfb98	-0.017087743
50	0x3d9e8dd8	0.07741898
51	0x3b2b8848	0.002617376
52	0xbb9d6318	-0.0048030727
53	0x3dfc6f36	0.12325899
54	0xbab53cfe	-0.0013827381
55	0x3ccc5779	0.024944054
56	0x3da9045e	0.08252786
57	0xbd26daf1	-0.040736143
58	0xbd1d91f0	-0.038469255
59	0xbad1bba3	-0.0016001355
60	0xbc5d774f	-0.013517215
61	0x3c93fbf7	0.018064482
62	0xbcd1b035	-0.025596717
63	0x3c720f26	0.0147741195
64	0x3d9542e1	0.07288147
65	0x3ddfb2c3	0.10922768
66	0x3c50ae40	0.012736857
67	0xbc4e5a1b	-0.012594725
68	0xb988a8bc	-0.00026065658
69	0xbc66a76f	-0.014078005
70	0x3c978a2e	0.018498506
71	0xbc9580aa	-0.018249828
72	0x3da43962	0.080187574
73	0x3d9d145f	0.07669901
74	0x3d8b778b	0.068099104
75	0xbc1f72f1	-0.009731994
76	0xbb52e53b	-0.003218009
77	0xbbf29b7a	-0.007403788
78	0xbc8888fc	-0.016666882
79	0xbb5f3be3	-0.0034062795
80	0xbc98c420	-0.018648207
81	0x3bfc2150	0.007694401
82	0x3d32518c	0.0435348
83	0xbd31bbc4	-0.043391958
84	0xbb72847a	-0.0037005232
85	0x3d65c12a	0.05609242
86	0xbd5062f8	-0.050875634
87	0xbdca87bd	-0.09889171
88	0xbcfe08ee	-0.031010117
89	0xbda72d6c	-0.081629604
90	0x3d03148e	0.032002024
91	0x3d393e59	0.045225475
92	0xbbb4a6dc	-0.0055130553
93	0x3cb26b41	0.021779658
94	0x3cfa7071	0.030571194
95	0xbc9ade54	-0.018904842
96	0x3c28189e	0.010259775
97	0x3c18b45b	0.009320344
98	0xbbe41f3d	-0.0069617317
99	0x3cb79ef9	0.022414671
100	0x3c919c9c	0.017774872
101	0x3c1c329b	0.00953355
102	0xbc1b891c	-0.009493139
103	0x3b120825	0.0022282687
104	0x3c5245ef	0.012834056
105	0x3cb20081	0.021728756
106	0x3d559bdd	0.052150596
107	0x3c955cf6	0.018232804
108	0x3db81ef0	0.08990276
109	0xbb834522	-0.004006044
110	0xbce5c7df	-0.028049408
111	0x3cf83bd1	0.03030196
112	0x39f137f7	0.000460088
113	0xbcb870a4	-0.022514649
114	0x3d8927b1	0.06697024
115	0xbd10a3ce	-0.035312466
116	0xbd865ca1	-0.06560636
117	0x3d1a7b7b	0.037715416
118	0x3bb41863	0.005496071
119	0x3b90b454	0.004416028
120	0x3c252510	0.010079637
121	0x3c93db0a	0.018048782
122	0x3d318c03	0.043346416
123	0xbb50f481	-0.0031884017
124	0xbc44eb4a	-0.012018988
125	0xbc511fc3	-0.01276392
126	0xbd1dd715	-0.038535196
127	0xbd07b948	-0.033135682
128	0xbd27f6f9	-0.041007016
129	0x3cdf694f	0.027271895
130	0x3ce8e52b	0.028429588
131	0x3ced2c4a	0.028951783
132	0xbd929a1a	-0.07158299
133	0xbd2fe38f	-0.042941626
134	0xbd67a039	-0.056549285
135	0x3d910e7a	0.07082839
136	0xbc87bb7b	-0.01656889
137	0xbdee4818	-0.116348445
138	0x3c111faa	0.008857647
139	0x3a96509e	0.0011468118
140	0xbd56e35b	-0.052462917
141	0x3bad1bf4	0.0052828733
142	0x3c9cf1bb	0.019158235
143	0xbc0d1aed	-0.008612377
144	0x3d354c4a	0.044262208
145	0xbb81b7fb	-0.0039586998
146	0xbbd9c4a2	-0.006645755
147	0x3cc3ff34	0.023925401
148	0x3c9c9df2	0.019118283
149	0x3d07a0c2	0.033112295
150	0x3cca37be	0.024684783
151	0x3cf206e2	0.029544298
152	0x3d7d458e	0.06183391
153	0xbd8ce140	-0.068789005
154	0xbd0ab554	-0.033864334
155	0x3d7c7e05	0.06164362
156	0x3981f8cf	0.00024790174
157	0x3c6cea39	0.01446014
158	0x3d8142b0	0.06311548
159	0x3b64a012	0.0034885448
160	0x3c2d62df	0.010582655
161	0x3db366d3	0.087598465
162	0xbe1674bc	-0.14692968
163	0xbd8d62bb	-0.06903597
164	0xbd855a9d	-0.06511424
165	0xbcb6a49d	-0.02229529
166	0xbbff5760	-0.0077923983
167	0x3c075c7b	0.008261795
168	0x3b5f4262	0.0034066667
169	0x3b9ac4c6	0.0047231643
170	0x3d4ff291	0.05076844
171	0xbd8a02e6	-0.06738834
172	0xbc96be66	-0.018401336
173	0x3c781b3b	0.015143211
174	0xbad74c16	-0.0016425874
175	0xbbde39c0	-0.0067817867
176	0x3cea7944	0.028622277
177	0x3c8e5b93	0.01737765
178	0x3c4aca30	0.012377307
179	0x3d41f523	0.04735292
180	0xbd54c0d9	-0.051941726
181	0xbd3acfdc	-0.045608386
182	0x3d1cd985	0.03829338
183	0x3adbb385	0.0016761875
184	0x3c30ed72	0.010798799
185	0x3cb43094	0.02199582
186	0xbced3337	-0.028955085
187	0xba51dbfc	-0.00080054975
188	0x3d1b2e37	0.03788587
189	0x3be55baa	0.0069994526
190	0x3a43f3d9	0.0007474996
191	0x3c22febf	0.0099484315
192	0x3c0d8a45	0.008638923
193	0x3c9f52c4	0.019448645
194	0x3a11bd98	0.00055595627
195	0xbd0f8a7c	-0.03504418
196	0x3b8f3dcd	0.004371381
197	0xbd27fb92	-0.0410114
198	0x3d8ae2ad	0.06781516
199	0x3d0ee87c	0.034889683
200	0x3da4e1bf	0.0805087
201	0xba1e1351	-0.00060301
202	0xbc7ec757	-0.015550456
203	0x3bc06254	0.0058710966
204	0xbd947f9a	-0.072509006
205	0xbd56ea93	-0.0524698
206	0xbd473ad7	-0.0486401
207	0x3d7b9ddf	0.061429854
208	0xbcee1a8c	-0.029065393
209	0x3c29d70b	0.010366212
210	0x3c7c0800	0.015382767
211	0xbd7b3059	-0.061325405
212	0xbc38ee91	-0.011287347
213	0x3bebafd8	0.007192593
214	0xbd6fa8d0	-0.0585106
215	0xbc743e55	-0.014907439
216	0x3ca4465b	0.02005308
217	0x3bded7c1	0.006800622
218	0x3c13f56a	0.009030679
219	0x3cd4a744	0.025958665
220	0xbd0a7838	-0.033806056
221	0xbcbe5e4f	-0.02323833
222	0x3db9aa1b	0.09065648
223	0x3d6d3911	0.05791575
224	0x3d82db0f	0.06389438
225	0xbcc27638	-0.023738012
226	0xbc984767	-0.018588735
227	0xbc80bccb	-0.015715024
228	0x3a99c968	0.0011732997
229	0xbb023752	-0.00198694
230	0x3b35f54f	0.0027764624
231	0xbd8164dc	-0.063180655
232	0xbc8ef7c5	-0.01745213
233	0xbc7fa508	-0.015603311
234	0xbd47f9ff	-0.0488224
235	0x3cdc0840	0.026859403
236	0x3d3508cf	0.044197854
237	0xbc6f3008	-0.014598854
238	0x3cf16013	0.029464757
239	0x3d31f702	0.043448456
240	0xbdac3a69	-0.08409578
241	0xbc3226dc	-0.010873523
242	0xbbcf5f01	-0.006328464
243	0xbce7d113	-0.028297937
244	0xbcf3c5de	-0.029757436
245	0x3c80d049	0.015724318
246	0x3cbdfcfb	0.02319192
247	0xbd6dee48	-0.05808857
248	0x3ccca835	0.024982551
249	0x3d3e71e5	0.046495337
250	0xbd351290	-0.044207156
251	0x3d3a8be2	0.04554356
252	0x3d0fea42	0.035135515
253	0x3c7f4ccc	0.015582275
254	0x3d17d525	0.037068505
255	0x3d1ce730	0.038306415

bias f4 [32]
0	0x3ca26dff	0.01982784
1	0x3e076633	0.1322258
2	0xbcd3c3f3	-0.025850272
3	0xbe04f49b	-0.12983935
4	0x3e3e6c01	0.18595888
5	0x3b52bf28	0.0032157395
6	0xbe443282	-0.19159892
7	0xbd61f5e6	-0.055166148
8	0xbd23f33a	-0.04002688
9	0x3dfc82e9	0.12329657
10	0xbd1dd88c	-0.038536593
11	0xbc6e1d3a	-0.014533335
12	0x39a1932f	0.00030817973
13	0x3d33b919	0.043877695
14	0x3dfc3625	0.12315015
15	0x3e2cffa6	0.16894397
16	0xbe092958	-0.13394678
17	0x3dcda31e	0.10040878
18	0xbdb62692	-0.088940755
19	0xbd4e32ea	-0.050341524
20	0xbd705a77	-0.058680024
21	0x3b51c9cb	0.0032011147
22	0x3d586b86	0.052836917
23	0x3ca95bbe	0.020673629
24	0x3e7efec7	0.24901877
25	0x3d2d3f6c	0.042296812
26	0x3b13eded	0.0022572235
27	0x3e10a9b6	0.1412724
28	0xbe438b4a	-0.19096103
29	0xbdcc2152	-0.09967293
30	0xbd317e3e	-0.043333285
31	0x3dd4e45b	0.10395118

weight f4 [32]
0	0x3f8122ac	1.0088706
1	0x3f93ed4e	1.1556795
2	0x3f6486ee	0.89268386
3	0x3f5183f7	0.8184199
4	0x3f658a03	0.89663714
5	0x3f7a6465	0.9780944
6	0x3f6aed10	0.9176798
7	0x3f63d44d	0.8899582
8	0x3f6878b6	0.9080919
9	0x3f4b0666	0.7930664
10	0x3f8c9322	1.0982401
11	0x3f844d67	1.0336121
12	0x3f8f5a24	1.1199384
13	0x3f47179e	0.7777041
14	0x3f4f1d37	0.80903953
15	0x3f7f7c9d	0.9979952
16	0x3f802773	1.0012039
17	0x3f68ff2b	0.91014355
18	0x3f6237d3	0.8836643
19	0x3f86404e	1.0488374
20	0x3f47aa5e	0.77994335
21	0x3f700c33	0.93768615
22	0x3f81c030	1.0136776
23	0x3f64dde4	0.8940108
24	0x3f8c5cde	1.0965841
25	0x3f67d690	0.9056177
26	0x3f80d0a4	1.0063672
27	0x3f71a721	0.94395643
28	0x3f76e3cb	0.96441334
29	0x3f4cb113	0.79957694
30	0x3f5d340d	0.8640755
31	0x3f60b2af	0.8777265

bias f4 [32]
0	0x3cb31215	0.021859208
1	0x3de308fe	0.110856995
2	0x3eeb6ef4	0.45983088
3	0x3f14134e	0.57841957
4	0x3ef0c185	0.47022644
5	0x3ec0a505	0.376259
6	0x3f29260d	0.66073686
7	0x3e5bdd90	0.21471238
8	0x3e07118c	0.13190287
9	0x3e2f2023	0.17102103
10	0x3dea5793	0.11442485
11	0x3e7b167b	0.24520294
12	0x3e19e797	0.15029751
13	0x3d5a2f80	0.053267956
14	0x3f0ff6c0	0.56235886
15	0x3e87fbed	0.26559392
16	0xbe1c4046	-0.15258893
17	0x3c573a56	0.013136467
18	0x3f8183c4	1.0118337
19	0x3ec16c23	0.37777814
20	0x3f350e61	0.70725065
21	0x3da0e51f	0.078562014
22	0x3f134b15	0.5753644
23	0x3f090bc5	0.53533584
24	0x3eaded3b	0.33970055
25	0x3eb1325c	0.34608734
26	0x3ebada91	0.36494878
27	0x3ea44f3b	0.32091698
28	0x3e1c1965	0.15244062
29	0x3e77df4a	0.24206272
30	0x3eae6959	0.3406475
31	0x3ea3d2fe	0.31996912

running_mean f4 [32]
0	0xbe3cc3e9	-0.18434109
1	0xbe9a94cb	-0.30191645
2	0xbe922681	-0.28545
3	0xbec2639c	-0.3796662
4	0x3ea96e3a	0.3309191
5	0xbe8c0ef5	-0.2735516
6	0xbe796945	-0.24356563
7	0x3c94abf1	0.018148394
8	0x3de0f054	0.10983339
9	0x3d821c3e	0.06353043
10	0xbe943fba	-0.2895487
11	0x3ded6cbc	0.11593005
12	0x3dfec514	0.124399334
13	0x3d9dbdc1	0.07702208
14	0xbdf2357b	-0.11826607
15	0xbc50ff62	-0.0127562005
16	0x3efa3de2	0.48875338
17	0x3ed4eb44	0.41585743
18	0xbf1705a7	-0.58993
19	0xbc7da37a	-0.01548087
20	0x3d176213	0.036958765
21	0x3d4657b7	0.048423495
22	0xbddced1d	-0.10787413
23	0x3d38316e	0.044969015
24	0x3ef95e2c	0.4870466
25	0xbdaecdd7	-0.085353546
26	0xbcec5606	-0.028849613
27	0xbede9276	-0.43471116
28	0xbd567bda	-0.052364208
29	0xbe04a6d1	-0.1295426
30	0xbe06e7e3	-0.13174395
31	0x3e96890a	0.29401428

running_var f4 [32]
0	0x3b6397f2	0.0034728018
1	0x3cab50f2	0.020912621
2	0x3bcbb27d	0.006216346
3	0x3b7fade3	0.0039013557
4	0x3b7b6086	0.0038357093
5	0x3b9abfa7	0.004722554
6	0x3c3a48e6	0.011369919
7	0x3ae1f5bd	0.0017239373
8	0x3b6239e1	0.0034519362
9	0x3a925f84	0.0011167382
10	0x3c8ffc43	0.017576342
11	0x3bff8543	0.0077978685
12	0x3c2c5653	0.010518628
13	0x3a4cc3ac	0.000781114
14	0x3b6d84c3	0.0036242462
15	0x3c03a52b	0.008034985
16	0x3bbe7d45	0.005813273
17	0x3b89ef99	0.0042094705
18	0x3bcf6b67	0.006329942
19	0x3ba4381b	0.005011571
20	0x3c36598e	0.01112975
21	0x3b412a1b	0.002947456
22	0x3c6645fa	0.01405477
23	0x3ba45e5c	0.0050161313
24	0x3cf6baa5	0.030118296
25	0x3b7e7d07	0.0038831846
26	0x3c80bede	0.015716013
27	0x3c04b805	0.008100514
28	0x3b5cec18	0.0033710059
29	0x3ac8f0c4	0.0015330543
30	0x3b3cf5d2	0.0028833044
31	0x3b2e6c81	0.0026614966

weight f4 [32, 32, 3, 3]
0	0x3c1fc833	0.009752321
1	0x3d1c4182	0.03814841
2	0xbd284376	-0.04107996
3	0xbc8ec975	-0.017430047
4	0x3d0518a3	0.0324942
5	0xbc023ee4	-0.007949565
6	0x3ac88254	0.001529763
7	0x3d4001f7	0.046876874
8	0xbb8d5c09	-0.00431395
9	0xbd5259b0	-0.051355064
10	0x3ceff08b	0.029289505
11	0xbdb441d9	-0.08801622
12	0xbcefc32d	-0.029267872
13	0x3d800110	0.06250203
14	0xbd5e8163	-0.05432261
15	0x3b8355dc	0.004008038
16	0x3dc74ac9	0.09731061
17	0xbda59401	-0.0808487
18	0x3da78265	0.08179168
19	0x3cacc8d1	0.02109185
20	0xbd83b8b4	-0.06431714
21	0x3cec7cb6	0.02886806
22	0x3cf108cd	0.029423142
23	0xbbc7707f	-0.0060864086
24	0xba8056f0	-0.0009791534
25	0x3ca3d5c8	0.0199994
26	0xbd292188	-0.041291744
27	0x3d291ea2	0.04128898
28	0x3cbe2ae1	0.023213806
29	0xbd370faa	-0.044692673
30	0x3abf323f	0.0014587118
31	0xbce621d6	-0.028092306
32	0xbcfd0512	-0.030886207
33	0xbd3db0da	-0.046311237
34	0xbd2aed8c	-0.04173045
35	0xbd29498f	-0.041329917
36	0xbc322d6e	-0.010875089
37	0x3cae238f	0.02125719
38	0x3d301b95	0.042995054
39	0x3c18797c	0.009306308
40	0x3d2e0bb2	0.042491622
41	0x3d0771fa	0.03306768
42	0x3c64bce3	0.01396105
43	0x3ca659c9	0.020306485
44	0x3d3b22a9	0.04568735
45	0xbb9f4a66	-0.004861164
46	0x3d9c9468	0.07645494
47	0x3b3b8b96	0.0028617135
48	0x3c9c32e1	0.01906723
49	0x3ce38f54	0.027778305
50	0xbb8d5ba1	-0.0043139015
51	0x3d503617	0.050832834
52	0x3d64a48a	0.05582098
53	0x3c6e6fb9	0.014553004
54	0x3dbf9d69	0.093561955
55	0x3e09bf9d	0.13452001
56	0x3d97061c	0.07374212
57	0xbb8679ec	-0.0041038897
58	0x3cf23bc7	0.02956952
59	0x3d58c3f9	0.05292127
60	0xbd185353	-0.03718884
61	0x3d87c127	0.06628638
62	0x3d2d26fc	0.042273507
63	0x3c1448b5	0.009050538
64	0x3c62bb51	0.013838605
65	0x3cf29eed	0.029616797
66	0x3c54e0dd	0.012993065
67	0x3cbb5221	0.02286631
68	0xbbb5c2b2	-0.005546891
69	0xb894ae9f	-7.089716e-05
70	0xbb8e4af1	-0.00434243
71	0x3d9129a3	0.0708802
72	0x3cfdbc3e	0.03097355
73	0x3bcc0d07	0.006227139
74	0x3d179150	0.037003815
75	0xbcec9c04	-0.028882988
76	0x3c3b58a9	0.011434712
77	0xbbb21a94	-0.0054352973
78	0xbd4c92d6	-0.04994472
79	0xbc1024c9	-0.008797833
80	0x3d07f8ff	0.033196446
81	0x398ec38e	0.0002723005
82	0x3cbff0cb	0.023430249
83	0x3b9f7ee2	0.0048674205
84	0x3c8eac8a	0.017416257
85	0x3cf3aea3	0.02974636
86	0x3cd6b918	0.026211306
87	0x3ce74417	0.02823071
88	0x3ccfa71a	0.025348235
89	0x3c2f59e6	0.010702586
90	0x3d421c2c	0.047390148
91	0x3d5841df	0.052797195
92	0xbc3133bf	-0.01081556
93	0xbb907808	-0.00440884
94	0x3d5a0a40	0.05323243
95	0xbd8d7dea	-0.06908782
96	0xbd4117cf	-0.047141846
97	0xbd13db08	-0.036097556
98	0xbe112aa0	-0.14176416
99	0x3d8dceae	0.06924187
100	0xbd4a6bef	-0.04941934
101	0x3cdcf24d	0.026971007
102	0x3b44c31d	0.0030023523
103	0xbd3823d7	-0.044956055
104	0x3d04b8a8	0.032402664
105	0xbc3b92c5	-0.011448567
106	0xbd3c25bc	-0.045934424
107	0xbc5d8ffc	-0.013523098
108	0xbbca22ce	-0.0061687
109	0x3c1cabfd	0.00956249
110	0xbd9890e7	-0.07449513
111	0xba8e9d37	-0.0010880594
112	0x3d36eaed	0.044657636
113	0xbcd0ca6f	-0.025487153
114	0xbc1b1528	-0.009465493
115	0x3d830b31	0.06398619
116	0xbbd9e3c2	-0.0066494653
117	0x3cd955af	0.026530115
118	0x3c168238	0.00918632
119	0x3cacc126	0.021088194
120	0xbc96f397	-0.0184267
121	0xbc03f55e	-0.008054106
122	0xbc773320	-0.015087873
123	0xbc9c7a7d	-0.019101376
124	0xbc980a67	-0.018559648
125	0xbd23d3c2	-0.03999687
126	0x3d0925bf	0.033483263
127	0x3cd158a8	0.02555497
128	0x3c06fb57	0.008238635
129	0x3be74e91	0.0070589264
130	0x3c2e478e	0.010637177
131	0x3d17d0f9	0.037064526
132	0xbc680ec4	-0.014163677
133	0x3cc171b9	0.023613798
134	0x3d10cd3e	0.035351984
135	0x3aeb38f3	0.0017946049
136	0xbcad25f6	-0.021136265
137	0xbce6b4fd	-0.028162474
138	0xbc05958d	-0.0081533315
139	0xbc906ceb	-0.017630061
140	0xbcb432bc	-0.021996848
141	0xbd2ad42a	-0.04170624
142	0xbd32a139	-0.043610785
143	0xbd411210	-0.047136366
144	0x3bae5edd	0.005321367
145	0x3d3b24ee	0.045689516
146	0xbd119fb5	-0.0355527
147	0xbc97c950	-0.01852861
148	0x3c8ffaef	0.01757571
149	0xbd8eb303	-0.069677375
150	0xbca47fde	-0.020080503
151	0xbbb251f7	-0.0054419
152	0xbd63ade0	-0.055585742
153	0x3cce3ac0	0.025174499
154	0x3d11e7f2	0.03562159
155	0x3cb588ed	0.022160018
156	0x3c504bb6	0.012713363
157	0xbb802b4f	-0.003911413
158	0x3c512889	0.012766012
159	0xbc5de9b9	-0.013544493
160	0x3bb5cba9	0.00554796
161	0x3d980887	0.074235015
162	0x3db5876a	0.08863719
163	0x39b415f4	0.00034348632
164	0x3d8f04ab	0.06983312
165	0x3c7f1780	0.015569568
166	0xbd2103b6	-0.03931018
167	0x3a962cc1	0.001145743
168	0x3d7dfc12	0.06200797
169	0xbd61ff78	-0.055175275
170	0xbd509ca9	-0.050930653
171	0xbccc2923	-0.02492196
172	0xbd83f16f	-0.06442534
173	0xbcb00e72	-0.021491263
174	0x3c6607c5	0.014039938
175	0xbd49cf70	-0.049270093
176	0xbb919486	-0.004442754
177	0x3d2bca7f	0.041941162
178	0xbd221613	-0.039571833
179	0xbd38cb41	-0.045115713
180	0x3a840bd0	0.0010074321
181	0x3d9195c1	0.071086414
182	0x3c6ea8eb	0.01456664
183	0x39fef8c1	0.0004863199
184	0x3c738eab	0.014865558
185	0xbb8456e9	-0.004038681
186	0xbc96f78f	-0.018428592
187	0x3cdc1e3d	0.026869887
188	0x3d1d10d2	0.03834612
189	0xbb833ea6	-0.004005271
190	0x3a81d2da	0.0009904758
191	0xbcd5a4df	-0.026079593
192	0xbc84c93d	-0.01620924
193	0x3d0cdb7a	0.034388997
194	0xbccce3cb	-0.025010964
195	0xbcc80405	-0.02441598
196	0x3bc744ec	0.006081214
197	0xbcec53ec	-0.02884861
198	0xba92fd35	-0.0011214378
199	0x3c1d090a	0.009584675
200	0x3c0193ac	0.007908743
201	0xbc710c12	-0.01471235
202	0x3cff01b1	0.031128736
203	0xbc837046	-0.016044747
204	0xbd018cf5	-0.031628568
205	0x3cbfd2ee	0.023416009
206	0x3d34a6eb	0.044104498
207	0xbccedc60	-0.025251567
208	0xbccdbfed	-0.025115931
209	0xbc9fe4fc	-0.019518368
210	0xbc3da3d0	-0.0115747005
211	0x3b5c49e0	0.003361337
212	0xbd16992b	-0.036767166
213	0xbd27ba79	-0.04094932
214	0xbcceb84f	-0.02523437
215	0xbc1adcc1	-0.009452046
216	0xbc042c98	-0.008067273
217	0xbc60dd1c	-0.013724592
218	0xbbb3e0a2	-0.005489425
219	0xbb8aa154	-0.0042306576
220	0xbcc6fa73	-0.024289345
221	0xbc8980be	-0.016785022
222	0x3ac44ec2	0.0014977085
223	0xbda5547e	-0.08072756
224	0xbd577d0d	-0.052609492
225	0x3d63891b	0.055550676
226	0x3d9a2ff4	0.075286776
227	0xbb6fbbc9	-0.0036580435
228	0x3a1bc96d	0.00059427955
229	0xbc312270	-0.010811433
230	0xbd00de01	-0.03146172
231	0x3d08fb5e	0.033442847
232	0x3d98341f	0.07431816
233	0x3d801fad	0.06256042
234	0xbc97a5b4	-0.01851163
235	0x3d3b268a	0.04569105
236	0xbc94890f	-0.01813176
237	0x3a73afa1	0.0009295885
238	0x3d389e6a	0.04507295
239	0x3c165ca1	0.009177358
240	0xbbbafb1a	-0.005706203
241	0x3d194e3c	0.037428126
242	0xbd03864e	-0.032110505
243	0xbd75eedf	-0.06004226
244	0x3c9c5b92	0.019086633
245	0xbd259bc5	-0.040431757
246	0x3be6bff4	0.0070419256
247	0x3c87d98d	0.016583228
248	0xbc19e107	-0.00939203
249	0x3d0b2b77	0.033977
250	0x3cd18a82	0.025578741
251	0xbc32a854	-0.01090439
252	0x3ba3727d	0.0049880133
253	0x3d190f2d	0.03736799
254	0x3cfffa09	0.031247156
255	0x3c249b7b	0.010046835

bias f4 [32]
0	0xbc727ae9	-0.014799812
1	0x3d34d03b	0.044143897
2	0xbd8269ea	-0.06367858
3	0xb9dc142e	-0.00041976705
4	0x3be8757a	0.0070940824
5	0x3c857906	0.01629306
6	0x3d4c8408	0.049930602
7	0x3d0de511	0.034642283
8	0x3cd3e9d0	0.025868326
9	0xbd3feb3f	-0.046855208
10	0xbb6e4ea6	-0.0036362796
11	0x3d0c995b	0.03432594
12	0xbc04216d	-0.00806461
13	0xbc9e9a38	-0.019360647
14	0xbc577f87	-0.0131529635
15	0x3d5d2be4	0.053996935
16	0x3d4fbfaa	0.050719894
17	0xbd86fa00	-0.065906525
18	0x3c2302d4	0.009949405
19	0xbd3ee685	-0.04660656
20	0xbc1813b6	-0.009282043
21	0xbb7a9319	-0.003823465
22	0x3d90873a	0.070570424
23	0x3d46d6a3	0.048544537
24	0xbb33c0c0	-0.002742812
25	0xbbc637d6	-0.0060491366
26	0xbc64b615	-0.013959427
27	0x3c7d6355	0.015465577
28	0xbc438978	-0.011934631
29	0x3c8401a4	0.016114064
30	0x3d0e4845	0.03473689
31	0xbd47b80b	-0.0487595

weight f4 [32]
0	0x3f84576a	1.0339177
1	0x3f76b38e	0.9636773
2	0x3f6a03e1	0.9141217
3	0x3f4f0a3b	0.80874985
4	0x3f75d17b	0.96022767
5	0x3f822948	1.0168848
6	0x3f802aaa	1.001302
7	0x3f5fe3f8	0.8745723
8	0x3f6a5e04	0.91549706
9	0x3f81a0ff	1.0127257
10	0x3f87a082	1.0595858
11	0x3f7c6be1	0.9860211
12	0x3f6ee4ab	0.9331767
13	0x3f3ee429	0.74566895
14	0x3f6f1aea	0.9340044
15	0x3f7dd628	0.991549
16	0x3f790beb	0.9728381
17	0x3f6bc9df	0.92104906
18	0x3f844d69	1.0336124
19	0x3f81c586	1.0138404
20	0x3f7431b3	0.95388335
21	0x3f57755b	0.84163445
22	0x3f72eac0	0.9488945
23	0x3f5ea71e	0.8697375
24	0x3f6d939b	0.92803353
25	0x3f8a40d3	1.0801033
26	0x3f6f4cb3	0.9347641
27	0x3f4d15ef	0.80111593
28	0x3f705bdb	0.9389016
29	0x3f5e38e6	0.8680557
30	0x3f8567b5	1.0422274
31	0x3f7b03ff	0.9805297

bias f4 [32]
0	0x3eeefcad	0.4667715
1	0x3e6e40d0	0.23266912
2	0x3ef70072	0.48242527
3	0x3f3ea388	0.7446828
4	0x3e98c04c	0.2983421
5	0x3e96708d	0.29382744
6	0x3e90166f	0.28142115
7	0x3f0c3388	0.5476613
8	0x3ef01a32	0.46894985
9	0x3d2ee1b9	0.042695735
10	0x3e1eb27d	0.15497775
11	0x3e8f8419	0.2803047
12	0x3f23e467	0.6402039
13	0x3f2a48d3	0.6651737
14	0x3e8329fe	0.25617975
15	0x3e401ba9	0.18760552
16	0x3dc5b381	0.09653378
17	0x3e8b0e8a	0.2715953
18	0x3e7cd1e4	0.24689442
19	0x3e34d31a	0.17658654
20	0x3e9c2078	0.30493522
21	0x3f170337	0.5898928
22	0x3ea1f5af	0.31632754
23	0x3f27abbb	0.65496415
24	0x3e8299c0	0.25507927
25	0x3ef51810	0.4786992
26	0x3eb143c3	0.3462201
27	0x3f0ce6da	0.5503975
28	0x3f3a1c5c	0.7269952
29	0x3ee87133	0.45398864
30	0x3e4981fc	0.19678491
31	0x3e739fee	0.23791477

running_mean f4 [32]
0	0x3f1ed09b	0.62037057
1	0xbf1de9fd	-0.6168516
2	0x3ddaa4ce	0.10675965
3	0xbdc54b2b	-0.09633478
4	0xbf000e80	-0.50022125
5	0xc00df810	-2.2182655
6	0xbf44e842	-0.769169
7	0x3ecfc5c6	0.40580577
8	0x3f8431c5	1.0327688
9	0xbd4fcecd	-0.05073433
10	0x3e89926a	0.26869518
11	0x3fc6415d	1.5488697
12	0xbf7af37a	-0.98027766
13	0x3cac50b7	0.021034582
14	0xbe3dcbb1	-0.18534733
15	0xc00abee7	-2.1679018
16	0x3e6ea05c	0.2330336
17	0xbe8b1e15	-0.27171388
18	0x3f033a7b	0.5126111
19	0xbf3c47cf	-0.7354707
20	0xbf0c1502	-0.54719555
21	0xbe678816	-0.22610506
22	0x3dc55a0a	0.09636314
23	0x3f4106c1	0.7540093
24	0x3ea87218	0.32899547
25	0x401ea18b	2.4786098
26	0xbf9e19b3	-1.2351593
27	0x3eb5e010	0.3552251
28	0x3f803f34	1.0019288
29	0xbffb4f31	-1.9633542
30	0xbc015ecf	-0.007896139
31	0xc0071140	-2.1104279

running_var f4 [32]
0	0x3e9619e3	0.29316625
1	0x3f3f4b5f	0.7472438
2	0x3eecdab5	0.4626061
3	0x3e855966	0.26044768
4	0x3eda98f3	0.42694816
5	0x3f96634b	1.1749052
6	0x3ec7e191	0.3903928
7	0x3e59be6b	0.21264045
8	0x3e88fc5b	0.26755032
9	0x3ea91e67	0.33031008
10	0x401212c2	2.282395
11	0x3ece5f1c	0.40306938
12	0x3ed508a1	0.41608146
13	0x3e1f32f1	0.15546776
14	0x3e2556b2	0.16146353
15	0x3f6aeac2	0.9176446
16	0x3ea142b1	0.31496194
17	0x3e826967	0.2547104
18	0x3f4a0e94	0.78928494
19	0x3ef5cce6	0.48007888
20	0x3f23b287	0.63944286
21	0x3e8acdeb	0.27110228
22	0x3fa2e935	1.2727419
23	0x3e51629a	0.2044777
24	0x3f20227e	0.6255263
25	0x3f62bcdd	0.8856943
26	0x3ebc84ad	0.36819974
27	0x3ebc6367	0.36794588
28	0x3ef8b0e2	0.4857245
29	0x3f5b6e18	0.85714865
30	0x3eabeb23	0.33577833
31	0x3ecdb819	0.40179518

weight f4 [32, 32, 3, 3]
0	0x3ca0f616	0.019648593
1	0x3d2a9195	0.041642744
2	0x3d6e20d3	0.058136772
3	0xbbd4ef90	-0.0064982846
4	0xbd6edde7	-0.05831709
5	0x3c847ac7	0.016171826
6	0xbc8879bc	-0.01665961
7	0xbd135540	-0.035969973
8	0xbceed23c	-0.029152982
9	0x3c00f2f8	0.007870428
10	0xbcc3eb86	-0.023916017
11	0xbba8c0af	-0.005149923
12	0x3c16d8dd	0.009206978
13	0xbc282289	-0.01026214
14	0xb9cc3cf0	-0.00038955314
15	0xbba8e5f9	-0.005154368
16	0xbcd5bd3c	-0.02609121
17	0x3a9a447f	0.0011769681
18	0x3cc3767a	0.023860205
19	0xbd59160b	-0.052999537
20	0x3ce5ffff	0.02807617
21	0x3d456887	0.04819539
22	0x3c1d0d07	0.0095856255
23	0x3d2784e7	0.04089823
24	0x3db80ce0	0.08986831
25	0x3caae25f	0.020859895
26	0x3c60616c	0.013695102
27	0x3d05bc21	0.032650117
28	0x3d28a1bd	0.04116987
29	0x3d71ca42	0.05903078
30	0xbd2e17d5	-0.042503197
31	0x3cf2f513	0.029657876
32	0x3d359bed	0.044338156
33	0xbc5e4df1	-0.013568387
34	0x3d62968c	0.055319354
35	0x3d0e1bb0	0.034694374
36	0x3be45f10	0.00696934
37	0xbd2acc92	-0.041699
38	0xbd3d8be6	-0.046275996
39	0x3a81ac81	0.0009893329
40	0xbc7d616b	-0.015465121
41	0xbcd93862	-0.026516143
42	0xbcb456a1	-0.022013964
43	0xbd08b485	-0.03337528
44	0xbc6c242e	-0.014412923
45	0x3d4dcc4d	0.050243665
46	0x3d83e094	0.06439319
47	0x3ba8c688	0.00515062
48	0x3c3ce116	0.011528274
49	0x3c1494e1	0.009068699
50	0x3cd17262	0.025567237
51	0x3cdd0027	0.026977612
52	0x3aabbf42	0.0013103264
53	0x3d0b37a1	0.0339886
54	0x3d86262d	0.0655025
55	0x3c75b52a	0.014996806
56	0x3d32d0f5	0.04365631
57	0xbca10339	-0.019654857
58	0xbd380be0	-0.0449332
59	0xbb700901	-0.003662646
60	0xbd81cf87	-0.06338411
61	0xbd58ab78	-0.0528979
62	0xbc352d4c	-0.011058163
63	0x3cedd292	0.029031072
64	0x3c5f6325	0.013634478
65	0x3ca929bd	0.020649785
66	0xbceb4aa6	-0.028722119
67	0x3cbd5296	0.02311067
68	0xbb08101c	-0.0020761555
69	0xbcc5c4ec	-0.024141751
70	0x3d1d62c0	0.038424253
71	0x3d014a13	0.031564783
72	0x3c9c057d	0.019045586
73	0x3d415a72	0.047205396
74	0xbcb4418f	-0.022003917
75	0xbca8ba35	-0.020596603
76	0x3d08584a	0.033287324
77	0xbc92a1c0	-0.017899394
78	0xbd7c8877	-0.06165358
79	0x3cc80c7f	0.024420021
80	0x3be88265	0.0070956224
81	0xbd61ad9d	-0.05509721
82	0xbd466c37	-0.048443045
83	0x3cdb7b48	0.026792184
84	0x3d4cb5cd	0.049978066
85	0x3d7bf7ed	0.061515737
86	0xbc8430c4	-0.016136535
87	0xbcff5e11	-0.031172784
88	0x3c7425ce	0.014901591
89	0xbda0d707	-0.07853513
90	0xbc084c42	-0.0083189625
91	0xbd5905a0	-0.05298388
92	0xbc047b42	-0.008086028
93	0x3be8d450	0.0071053877
94	0xbc30290f	-0.010751977
95	0x3cbcee1d	0.02306276
96	0xbcfb06cb	-0.030642888
97	0xbc642968	-0.013925888
98	0x3ab20906	0.0013583011
99	0x3c24e977	0.010065428
100	0x3d38d834	0.045128062
101	0xbb3d1df7	-0.0028856972
102	0xbc942dab	-0.018088182
103	0xbb8d5a15	-0.004313717
104	0xbc4b4537	-0.012406639
105	0xbba8582d	-0.0051374645
106	0x3c6c2109	0.014412173
107	0xbb077de4	-0.0020674402
108	0x3d8fa08b	0.07013043
109	0x3c86976e	0.01642963
110	0x3dcacb99	0.099021144
111	0x3d271e1c	0.0408002
112	0x3d194fce	0.037429623
113	0x3d96c568	0.07361871
114	0x3da4d364	0.08048132
115	0x3d55b313	0.05217273
116	0x3b415477	0.0029499808
117	0xbb6c93ab	-0.003609876
118	0x3d7817b8	0.060569495
119	0xbb99f348	-0.004698191
120	0x3d384c6f	0.044994768
121	0x3d239b9d	0.039943326
122	0x3ca4947a	0.02009033
123	0x3b0dc853	0.0021634295
124	0x3cbbfb2e	0.02294692
125	0xbd2b8920	-0.04187882
126	0xbc66370f	-0.014051213
127	0xbc62a6f1	-0.013833747
128	0x3bac77d3	0.0052633076
129	0x38ada02f	8.279119e-05
130	0xbccfe401	-0.025377275
131	0x3b2adeda	0.0026072771
132	0xbd26ae3e	-0.040693514
133	0x3b088231	0.0020829553
134	0x3ccfaf65	0.02535219
135	0xbd1d8c9f	-0.038464185
136	0x3c8e236b	0.017350873
137	0x3cefe998	0.02928619
138	0xbd4546fd	-0.048163403
139	0xbc73f611	-0.01489021
140	0xbcfd72dc	-0.030938558
141	0x3d7dc89a	0.061958887
142	0x3ba8e2f9	0.0051540104
143	0xbb1364c2	-0.0022490476
144	0xbc080a51	-0.008303241
145	0xbcb03214	-0.021508254
146	0xbc42fc63	-0.011900994
147	0x3c775057	0.015094838
148	0xbaa99fe8	-0.0012941333
149	0xbc94dfb3	-0.018173074
150	0xbcdf827c	-0.0272839
151	0x3bd3609a	0.006450725
152	0x3d24a9e6	0.04020109
153	0xbdc43739	-0.095808454
154	0xbc79444a	-0.015214035
155	0x3cf7eb81	0.030263664
156	0xbd240f87	-0.04005387
157	0x3cb0c554	0.021578468
158	0x3ce78953	0.028263723
159	0xbd5ccc93	-0.053906035
160	0xbced2212	-0.02894691
161	0xbc892452	-0.016740952
162	0x3d3fb9ba	0.046807982
163	0xbd3c722d	-0.046007324
164	0xbd7a8e29	-0.06117073
165	0x3ab5cdc2	0.0013870525
166	0xbd12b50a	-0.035817184
167	0xbda2448d	-0.07923231
168	0x3cbe2380	0.023210287
169	0xbd5aad3e	-0.053387873
170	0x3c390112	0.011291759
171	0x3d318107	0.04333594
172	0x3d1627b8	0.036658973
173	0x3d197e2d	0.037473846
174	0x3d0bdd9e	0.034146897
175	0x3d08ec9f	0.033428784
176	0x3bdb1dc3	0.0066868975
177	0x3ca56cd8	0.020193502
178	0x3baa3bd6	0.0051951213
179	0x3cfbfb23	0.0307594
180	0xbd930816	-0.07179277
181	0xbb4322b4	-0.0029775323
182	0xbda93345	-0.08261732
183	0x3aa36906	0.0012467213
184	0x3d7035b0	0.05864495
185	0x3bf1a0ca	0.007373904
186	0x3d6d796e	0.057977132
187	0x3d41edef	0.04734605
188	0xbcc1ad02	-0.023642067
189	0xbd2bc71d	-0.041937936
190	0xbc04a4ac	-0.008095901
191	0x3d6bff78	0.05761668
192	0xbc156e70	-0.009120569
193	0x3c3f875a	0.011689985
194	0xbbff89a4	-0.0077983905
195	0x3ca0fdbe	0.019652244
196	0xbb59b1b8	-0.00332175
197	0xbc28eec1	-0.01031083
198	0xbc178d06	-0.009249931
199	0x3c289952	0.010290461
200	0xbd7f993d	-0.062402
201	0xbcad0877	-0.0211222
202	0x3dbb43a6	0.09143762
203	0x3c4874da	0.012234891
204	0xbcea1373	-0.028573727
205	0x3d921371	0.071326144
206	0xbd9fb7bd	-0.07798717
207	0x3d8ba874	0.06819239
208	0x3cd27955	0.025692621
209	0x3e0ef2ad	0.13959761
210	0xbc0a8889	-0.008455404
211	0xbcb0fbee	-0.021604504
212	0x3b2a05b8	0.002594335
213	0x3c8522cf	0.01625195
214	0xbb6d5b22	-0.003621765
215	0x3d8dff31	0.069334395
216	0xbd8b4ee6	-0.06802158
217	0x3b8d5e37	0.00431421
218	0xbd3c1132	-0.045914836
219	0x3d4afa45	0.049555082
220	0x3c5553c1	0.013020457
221	0xbd4bcdee	-0.049756937
222	0x3cba5300	0.022744656
223	0xbc99451f	-0.018709717
224	0xbcdfa306	-0.027299415
225	0x3d9d858a	0.07691486
226	0x3d57b605	0.05266382
227	0xbc72fcb4	-0.014830757
228	0x3d976d6b	0.07393917
229	0x3d3475e0	0.044057727
230	0xbd1a8466	-0.03772392
231	0x3d83cb97	0.06435316
232	0x3d4a916f	0.049455103
233	0xbc8e3899	-0.017360972
234	0xbdea9df9	-0.11455912
235	0x3d2957e4	0.041343585
236	0xbd960914	-0.0732595
237	0xbb182e90	-0.0023221113
238	0x3cf66a85	0.03008009
239	0xbd9c6340	-0.07636118
240	0x3d776cfe	0.060406677
241	0x3d26ab4c	0.040690705
242	0xbd799baa	-0.06093947
243	0x3d143a20	0.036188245
244	0x3cadde66	0.021224212
245	0xba95bb3b	-0.0011423597
246	0xbc6dace3	-0.014506551
247	0x3bfe1314	0.007753739
248	0x3bd73164	0.006567167
249	0x3ca78a2f	0.020451633
250	0x3c1a4970	0.009416923
251	0x3c1a3687	0.009412414
252	0xbce1027a	-0.027467001
253	0xbd9d3953	-0.07676949
254	0xbcbf89c7	-0.023381127
255	0x3c58dae9	0.013235786

bias f4 [32]
0	0xbc9cbcf8	-0.019133076
1	0xbd62e130	-0.055390537
2	0xba9b2aa8	-0.0011838274
3	0x3d3a5ed9	0.04550061
4	0x3c2939d5	0.01032873
5	0xbd1ea951	-0.03873569
6	0x3cda8b39	0.026677715
7	0xbd1ca126	-0.03823962
8	0x3c330c14	0.010928173
9	0x3c2a7f34	0.010406304
10	0x3dbd2a8b	0.0923663
11	0x3cc6ed1e	0.024282988
12	0xbdb0b5d4	-0.08628431
13	0x3d5bf38f	0.053699072
14	0x3be1b754	0.0068883095
15	0x3d301d61	0.042996768
16	0xbbf4bfa8	-0.0074691363
17	0xbc8fdf19	-0.017562436
18	0xbd1c5c36	-0.038173877
19	0x3cb7c5bf	0.02243316
20	0xbd155103	-0.036454212
21	0xbbc22f0d	-0.005926019
22	0x3d544794	0.051826075
23	0x3c98ffdb	0.018676689
24	0xbbeb95a5	-0.00718947
25	0x3bc97423	0.006147878
26	0x3d225411	0.039630953
27	0x3cdc5f22	0.026900832
28	0xbd55f84c	-0.052238747
29	0xbbeee1f8	-0.007290121
30	0xbd6e4599	-0.058171842
31	0xbca454cb	-0.020059964

weight f4 [32]
0	0x3f421a08	0.7582097
1	0x3f758ba4	0.959162
2	0x3f679f93	0.90477866
3	0x3f758d75	0.9591897
4	0x3f70c815	0.940553
5	0x3f70d8ca	0.94080794
6	0x3f79de74	0.9760506
7	0x3f576785	0.84142333
8	0x3f6bf96c	0.9217746
9	0x3f6c811e	0.9238452
10	0x3f6e8fe7	0.9318833
11	0x3f6acaa5	0.9171546
12	0x3f82bfa6	1.0214736
13	0x3f7de3bb	0.99175614
14	0x3f6cabdd	0.9244974
15	0x3f7f4952	0.9972125
16	0x3f8916c6	1.0710075
17	0x3f56373e	0.8367804
18	0x3f73dab0	0.95255566
19	0x3f84bf69	1.0370914
20	0x3f6a522d	0.9153164
21	0x3f809663	1.0045894
22	0x3f8096e3	1.0046047
23	0x3f5a361a	0.852388
24	0x3f74bae6	0.95597684
25	0x3f72ec08	0.94891405
26	0x3f6790c1	0.9045525
27	0x3f7faf54	0.99876904
28	0x3f6ee666	0.9332031
29	0x3f7963a1	0.97417647
30	0x3f68cac4	0.90934396
31	0x3f839948	1.0281153

bias f4 [32]
0	0x3f2091ed	0.62722665
1	0x3ee49be4	0.44650185
2	0x3ed4812a	0.41504794
3	0x3ecae5c1	0.39628413
4	0x3e9559d5	0.291701
5	0x3eb6befa	0.3569258
6	0x3cd6d266	0.026223373
7	0x3f1d15c0	0.6136131
8	0x3f17ce53	0.592992
9	0x3f00dfeb	0.5034167
10	0x3ec5e063	0.38647756
11	0x3e48d806	0.19613656
12	0x3ed3fd7d	0.41404334
13	0x3ea8af46	0.32946223
14	0x3ed74bcd	0.4205002
15	0x3cf75f01	0.030196669
16	0x3ecb481d	0.39703456
17	0x3eec5744	0.46160328
18	0x3f07ccd6	0.5304693
19	0x3de361bd	0.111026265
20	0x3f0f209f	0.5590915
21	0x3ea8381a	0.32855302
22	0x3e88a2b1	0.26686624
23	0x3ef9f292	0.4881788
24	0x3e439c39	0.19102563
25	0x3e6fc026	0.23413143
26	0x3edf1a66	0.43574828
27	0x3ec30a96	0.38094014
28	0x3e51c4c6	0.2048522
29	0x3ef74b27	0.48299524
30	0x3f009496	0.50226724
31	0x3ed74225	0.42042652

running_mean f4 [32]
0	0x3f2e52d1	0.6809512
1	0x3f57a3e8	0.84234476
2	0x3f12c98c	0.57338786
3	0xbfc5a5d4	-1.5441232
4	0xbecb04b0	-0.39652014
5	0x3f29821c	0.66214156
6	0xbf599e04	-0.8500674
7	0xbfcf5e00	-1.6200562
8	0x3f967378	1.1753988
9	0x3f40f779	0.75377613
10	0xbdab0175	-0.08349887
11	0x3f582336	0.8442873
12	0xbfdc4cea	-1.7210972
13	0xbf910606	-1.1329963
14	0x3e9ef5c9	0.31046894
15	0xbffd962a	-1.9811451
16	0x3ec05c26	0.37570304
17	0x3dd7aaa8	0.10530597
18	0x3ece383e	0.40277284
19	0xbf40079c	-0.7501161
20	0x3f4b05d5	0.79305774
21	0xbf899b1d	-1.0750462
22	0xbf562d41	-0.836628
23	0x3ed68b33	0.41903076
24	0xbf8944da	-1.0724137
25	0x3c3af609	0.011411198
26	0x3f2a793f	0.66591257
27	0xbfbc9e71	-1.4735852
28	0xbee45d41	-0.44602397
29	0x3fa9d13c	1.3266978
30	0xbea3b487	-0.3197367
31	0xbc81cbd5	-0.015844265

running_var f4 [32]
0	0x3e717ac5	0.23581989
1	0x3eb395df	0.3507528
2	0x3ea487ff	0.32135007
3	0x3e8aee20	0.271348
4	0x3e373d6a	0.17894521
5	0x3e61a4fe	0.22035596
6	0x3ef0f866	0.47064513
7	0x3e848fca	0.25890952
8	0x3e3b24e6	0.18275794
9	0x3ed979b3	0.42475662
10	0x3e774ac0	0.24149609
11	0x3e81368d	0.2523693
12	0x3ea4d292	0.32191902
13	0x3e885120	0.26624393
14	0x3ea33620	0.31877232
15	0x3e59248d	0.2120535
16	0x3f1148bb	0.567516
17	0x3e15357b	0.14571182
18	0x3eb5bc95	0.3549544
19	0x3f2328a6	0.637339
20	0x3ea0fe56	0.31444043
21	0x3eb8ec15	0.36117616
22	0x3e46f6eb	0.19430129
23	0x3e12efb8	0.14349258
24	0x3eff961d	0.49919215
25	0x3e402a28	0.18766081
26	0x3e9387f7	0.2881467
27	0x3ef43e55	0.47703806
28	0x3e3bddf2	0.18346384
29	0x3e90d70a	0.28289062
30	0x3f136493	0.5757534
31	0x3f156f83	0.5837328

weight f4 [32, 32, 3, 3]
0	0x3cf0a3ee	0.029375043
1	0x3c260c2c	0.010134738
2	0xbdccc4cb	-0.09998473
3	0xbc90e61a	-0.017687846
4	0x3cc830d9	0.024437355
5	0xbd9b001a	-0.07568379
6	0xbd01d4a4	-0.03169693
7	0x3dbdbef5	0.09264938
8	0xbd78f5c3	-0.06078125
9	0x3d19bfa8	0.037536293
10	0x3d24581d	0.040123094
11	0xbd885b0f	-0.06657993
12	0xbc3c21c2	-0.011482658
13	0x3c86e79f	0.016467867
14	0xbc759516	-0.014989158
15	0xbd5b0c05	-0.05347826
16	0xbd20d5c6	-0.03926637
17	0xbac16de3	-0.001475748
18	0x3c58b845	0.013227527
19	0x3d23946d	0.03993647
20	0x3cad63f6	0.02116583
21	0x3d118134	0.03552361
22	0x3d474f43	0.048659574
23	0xbd0ff790	-0.035148203
24	0x3d24090a	0.040047683
25	0x3d215346	0.039386056
26	0xbdf71fc7	-0.12066608
27	0xbd80f68f	-0.06297027
28	0x3d08bbd8	0.033382267
29	0x3d9934ec	0.07480797
30	0xbc9c26b3	-0.019061422
31	0x3ca15025	0.019691536
32	0x3cfd89a0	0.030949414
33	0x3da9a7fa	0.08283992
34	0xbd041efb	-0.032256108
35	0x3d2a452b	0.04156987
36	0x3bcc80c8	0.006240938
37	0xbd38840a	-0.045047797
38	0xbd2ee526	-0.042699
39	0x3d127093	0.03575189
40	0xbd6e69d3	-0.05820639
41	0x3b31cfee	0.0027131992
42	0xbce4ebc7	-0.027944459
43	0xbd93f090	-0.07223618
44	0xbc2a261e	-0.010385064
45	0x3d5390d6	0.0516518
46	0x3bd37769	0.006453444
47	0x3cce1b51	0.02515951
48	0x3c97b6a7	0.018519713
49	0x3afac366	0.001913172
50	0x3adc01dd	0.0016785223
51	0x3c8aee8a	0.016959447
52	0x3cd797a5	0.026317427
53	0xbb6d7323	-0.0036231957
54	0xbd22e357	-0.03976759
55	0x3c9f2711	0.019427808
56	0xbce234c5	-0.027613053
57	0xbc2743b3	-0.010209012
58	0xbcaf7f37	-0.021422965
59	0xbd4f1c17	-0.050563898
60	0xbca35aec	-0.019940816
61	0xbc76fd46	-0.0150750335
62	0xbd99e8de	-0.07515119
63	0x3d857ce2	0.0651796
64	0x3d6d9ea6	0.058012627
65	0xbd556102	-0.052094467
66	0x3c3df0c8	0.011593051
67	0x3b202c44	0.0024440447
68	0x3b8de8e7	0.0043307426
69	0x3b97beaf	0.0046308856
70	0xbc767d22	-0.015044482
71	0xbd342e2e	-0.043989353
72	0xbaa37c51	-0.0012472962
73	0x3d85d675	0.06535045
74	0x3da0b815	0.07847611
75	0xbc2a4650	-0.01039274
76	0x3d1dc2da	0.038515903
77	0x3cadae26	0.021201205
78	0xba4e4956	-0.0007869204
79	0x3d110b89	0.03541139
80	0x3c6f1049	0.014591285
81	0xbca202b7	-0.019776685
82	0xbd479130	-0.048722446
83	0x3c086dc1	0.008326949
84	0x3d1e2b78	0.038615674
85	0xbc3bdb5a	-0.011465872
86	0xbd359f8c	-0.04434161
87	0x3be52fed	0.0069942386
88	0xbaa8d33b	-0.0012880334
89	0xbc6f1033	-0.014591265
90	0xbd45ced1	-0.04829294
91	0xbd669d5f	-0.056302425
92	0x3d889318	0.06668681
93	0x3b95370c	0.0045536812
94	0x3d0da1de	0.034578197
95	0x3c26296a	0.01014171
96	0x3cd6ce35	0.026221374
97	0x3cf63029	0.030052261
98	0x3b1e1889	0.002412351
99	0x3dcce486	0.10004525
100	0x3d04a5c0	0.032384634
101	0xbbd53d7c	-0.0065075736
102	0x3d866ea1	0.065640695
103	0xbd021778	-0.031760663
104	0xbd1a97e9	-0.03774253
105	0xbd171244	-0.036882654
106	0xbcb0b3b6	-0.021570068
107	0xbdbd6f0d	-0.09249697
108	0xbcf6d7a6	-0.030132126
109	0xbc1a1577	-0.009404532
110	0x3d87950b	0.066202246
111	0x3bbb2358	0.0057110004
112	0xbcaca6f1	-0.021075698
113	0xbd14672b	-0.0362312
114	0x3db02992	0.08601679
115	0x3be83afc	0.0070871096
116	0xbd81ca89	-0.06337459
117	0xbd5027f3	-0.05081935
118	0xbc1493fe	-0.009068487
119	0xbd952bfa	-0.072837785
120	0x3d2dcfd7	0.04243454
121	0x3ced5990	0.02897337
122	0xbd0295ae	-0.031881027
123	0x3da68878	0.08131498
124	0x3d0adf04	0.03390409
125	0x3b9ab267	0.0047209742
126	0xbdc05abb	-0.093923055
127	0x3c2d7617	0.010587237
128	0xbca8c976	-0.020603877
129	0xbd8a239c	-0.06745073
130	0xba918e73	-0.0011105075
131	0xbd228be6	-0.0396842
132	0xbd17c0d3	-0.037049126
133	0x3d3e5d38	0.04647562
134	0xbb8f6491	-0.004376002
135	0xb9381493	-0.00017555272
136	0xbc215722	-0.009847434
137	0xbcdd2c1f	-0.026998578
138	0x3da1d64b	0.07902201
139	0x3b6c8b07	0.003609361
140	0x3cd271e3	0.025689071
141	0x3cd91cc7	0.02650298
142	0xbd2c1746	-0.042014383
143	0xbd278526	-0.040898465
144	0xbd30f6e7	-0.043204214
145	0x3c785156	0.015156111
146	0xbca8a479	-0.02058624
147	0xbc64e264	-0.013969991
148	0xbcb8e096	-0.022568028
149	0x3c85238b	0.0162523
150	0x3ba4ad3f	0.0050255354
151	0x3b18dd9b	0.0023325447
152	0x3d37c386	0.0448642
153	0xbc8664e5	-0.016405532
154	0x3d8b6c4e	0.06807767
155	0x3c4f5a15	0.012655755
156	0x3cb47206	0.022027027
157	0xbd17c236	-0.03705045
158	0xbb235b3b	-0.0024926204
159	0x3d68f714	0.056876257
160	0xbc2365c5	-0.009972994
161	0x3d97dfb1	0.074157126
162	0x3cf22e61	0.02956313
163	0xbb38aa9d	-0.0028177865
164	0xbcd70754	-0.026248612
165	0x3c803e8b	0.015654823
166	0x3d7884d3	0.060673546
167	0xbc7f786a	-0.015592674
168	0xbc373366	-0.011181688
169	0x3ca06cdf	0.019583164
170	0xbd8d9c49	-0.06914575
171	0x3bd41d74	0.0064732376
172	0xbca26286	-0.01982237
173	0x3c92d8e7	0.017925693
174	0x3cf29ca2	0.029615704
175	0xbd965eb0	-0.07342279
176	0x39833796	0.00025027682
177	0x3ca3e7a2	0.020007912
178	0xbc52dd6e	-0.012870176
179	0xbcefcdfc	-0.029273026
180	0xbd211096	-0.03932246
181	0xbcd644d7	-0.026155872
182	0x3da1a454	0.07892671
183	0xbc5de18c	-0.013542544
184	0xbc7699d9	-0.015051329
185	0x3c9a47e8	0.018833116
186	0xbca09aa0	-0.019604981
187	0x3d2054cf	0.03914338
188	0x3da6ff1e	0.081541285
189	0xbc6c1149	-0.014408418
190	0x3d68fa54	0.056879357
191	0x3d5f3da8	0.05450216
192	0xbc4b213b	-0.0123980595
193	0x3c490831	0.012270019
194	0xbc13a144	-0.009010617
195	0xbd55d7e2	-0.052207835
196	0xbd314441	-0.043277983
197	0xbd0d7936	-0.034539424
198	0x3c01122c	0.007877868
199	0x3c83bd9e	0.016081627
200	0xbd7fcce6	-0.062451266
201	0x3d2b7b34	0.041865543
202	0x3c492763	0.012277457
203	0xbccceeea	-0.025016267
204	0xbca4718a	-0.02007367
205	0x3ae59923	0.0017516952
206	0x3cf58878	0.0299723
207	0xbc0c8862	-0.008577438
208	0x3c8cbaee	0.017178979
209	0x3cbdcb52	0.02316824
210	0x3d46ab5e	0.048503272
211	0xbb1c1e2b	-0.0023821692
212	0x3bd554f9	0.0065103737
213	0x3d305d75	0.043057878
214	0x3ce9e0ae	0.028549518
215	0xbd82cc6e	-0.06386648
216	0xbcee5d0f	-0.029097108
217	0x3cd08e8e	0.0254586
218	0x3dc881d5	0.097903885
219	0xbcd8990c	-0.026440166
220	0x3b0c08b7	0.00213675
221	0x3d33c255	0.0438865
222	0x3cb6fcf2	0.02233741
223	0x3c0b495c	0.008501377
224	0xbcdae0c3	-0.026718503
225	0xbcfc394e	-0.030789044
226	0xbc89c9de	-0.01681989
227	0x3d699df2	0.057035394
228	0x3b7c0893	0.003845726
229	0x3c2f398e	0.010694874
230	0x3c2e8b95	0.010653396
231	0x3cc5082f	0.024051754
232	0x3b9532e9	0.004553188
233	0xbd4c782f	-0.049919304
234	0x3d723be6	0.059139155
235	0x3d885beb	0.06658157
236	0xbd25a285	-0.040438194
237	0xbd9745b5	-0.073863424
238	0xbd21f828	-0.0395433
239	0xbd821f90	-0.06353676
240	0xbd60d2aa	-0.054888405
241	0x3d9832df	0.07431578
242	0x3d364f44	0.044509187
243	0x3cc01cd2	0.023451243
244	0x3ccae958	0.02476947
245	0xbd4be8ed	-0.049782682
246	0x3c900f5e	0.017585453
247	0x3d202901	0.039101604
248	0xbd04935a	-0.032367088
249	0x3cc71bdd	0.024305278
250	0x3d078cf6	0.033093415
251	0xbd42b499	-0.047535513
252	0xb865c28c	-5.477904e-05
253	0x3d41fad8	0.047358364
254	0xbc9bba66	-0.01900978
255	0x3a127920	0.0005587507

bias f4 [32]
0	0xbda0ca5a	-0.078510955
1	0xbc4c3ad6	-0.012465199
2	0xbd647516	-0.055775724
3	0xbbccbc97	-0.0062480676
4	0x3e096630	0.13417888
5	0xbd96f3d4	-0.07370725
6	0xbdc5eab7	-0.09663909
7	0x3d9a471c	0.07533094
8	0x3b8b3d9c	0.004249288
9	0x3cb02c25	0.021505425
10	0x3d3f5135	0.046708304
11	0x3c1ca7df	0.009561508
12	0x3d52ac2b	0.051433723
13	0xbd9cac7a	-0.07650085
14	0xbc8b2b63	-0.016988462
15	0x3cbb5754	0.02286879
16	0x3d4a634b	0.0494111
17	0xbc3c0572	-0.011475908
18	0x3cc5dde1	0.024153652
19	0xbd04eff3	-0.032455396
20	0x3ce3a1a1	0.027787032
21	0x3bd47567	0.006483722
22	0xbd1ebab3	-0.03875227
23	0xbcf9c752	-0.030490551
24	0x3c433b2d	0.011915964
25	0x3d5924f8	0.05301377
26	0x3d037117	0.032090273
27	0x3d18e47c	0.037327275
28	0xbbd97cd3	-0.0066371947
29	0x3d0ee046	0.034881853
30	0xbbfad58a	-0.0076548504
31	0xbd16d9cd	-0.036828805

weight f4 [32]
0	0x3fe7c49a	1.8106873
1	0x3f862109	1.0478832
2	0x3f86ca91	1.0530568
3	0x3f8bf58f	1.0934314
4	0x3f9a3753	1.2048134
5	0x3f8a8c98	1.0824156
6	0x3f6e8855	0.93176776
7	0x3f73b8c9	0.95203835
8	0x3f8b1539	1.0865852
9	0x3f89e0d5	1.0771738
10	0x3f8816fc	1.0632014
11	0x3f82cf36	1.0219486
12	0x3fd06572	1.6280959
13	0x3f8411ce	1.0317934
14	0x3f83d758	1.0300093
15	0x3f85d072	1.0454237
16	0x3fa69a87	1.3015908
17	0x3f8ed87f	1.1159819
18	0x3f755805	0.9583743
19	0x3f8f86cd	1.1213013
20	0x3f981d07	1.1883858
21	0x3fb24f34	1.3930421
22	0x3f9b8da4	1.21526
23	0x3f889998	1.0671873
24	0x3f875fa3	1.0576061
25	0x3f871d72	1.0555861
26	0x3f8bd466	1.0924194
27	0x3f6bf8e4	0.9217665
28	0x3f899e65	1.0751463
29	0x3fafd7f9	1.3737785
30	0x3f8de1c8	1.1084528
31	0x3f8bbbf1	1.091673

bias f4 [32]
0	0x3f45909c	0.7717378
1	0x3da6d5e8	0.08146268
2	0x3c278053	0.010223466
3	0xbe13c02e	-0.1442878
4	0x3dc6b82f	0.09703099
5	0x3dbbea43	0.09175541
6	0x3eb1317f	0.34608075
7	0xbebef9d7	-0.37299988
8	0x3d78d470	0.06074947
9	0x3df3e774	0.119093806
10	0xbe252555	-0.16127522
11	0x3d04f2b7	0.032458033
12	0x3eda34c1	0.42618373
13	0xbd8150f2	-0.06314267
14	0xbea0d019	-0.31408766
15	0x3f0ae367	0.5425324
16	0xbcb1773f	-0.021663306
17	0xbd03b392	-0.032153673
18	0xbe16c4b8	-0.1472348
19	0x3d9d58b4	0.076829344
20	0x3c04bdb9	0.008101874
21	0xbd0d749e	-0.034535043
22	0xbc97623d	-0.01847946
23	0xbcc4e4e4	-0.024034925
24	0x3e0ac6cd	0.13552399
25	0x3db19567	0.08671074
26	0x3e4fb1ff	0.20282744
27	0x3f10959d	0.5647829
28	0xbd6f10d7	-0.05836567
29	0x3e13289a	0.14370957
30	0x3d52707b	0.0513768
31	0x3e301c01	0.17198183

running_mean f4 [32]
0	0x3d98495c	0.07435867
1	0x3e8ccb43	0.27498826
2	0x3e4b4073	0.19848804
3	0xbe1ce764	-0.15322644
4	0xbc544706	-0.012956386
5	0xbdca68f1	-0.09883297
6	0xbe1f9cad	-0.15587111
7	0x3ebc1e1d	0.36741725
8	0x3eb59893	0.35467967
9	0x3dce41f8	0.10071176
10	0xbe1e9a70	-0.154886
11	0xbe150339	-0.1455201
12	0x3f60d013	0.87817496
13	0x3d58ad2b	0.05289952
14	0xbee3f090	-0.44519472
15	0x3eaa2f74	0.3323933
16	0xbe92d02e	-0.28674453
17	0x3eee5cb0	0.4655509
18	0x3e6a06c2	0.2285414
19	0x3ea308b1	0.3184257
20	0xbee21b72	-0.44161564
21	0xbe60c95e	-0.21951815
22	0xbebfcf14	-0.37462676
23	0x3dd3d048	0.10342461
24	0x3d2a1058	0.041519493
25	0x3d2ca42f	0.042148765
26	0x3f1b2d16	0.6061567
27	0x3d96f950	0.07371771
28	0xbe25e6a4	-0.16201264
29	0xbee14389	-0.43996838
30	0x3e0bd0c9	0.13653864
31	0xbeed3b29	-0.46334198

running_var f4 [32]
0	0x3cc35185	0.023842582
1	0x3ea326f8	0.31865668
2	0x3e98c1d7	0.29835388
3	0x3e007d31	0.12547757
4	0x3dfe2f11	0.12411321
5	0x3e82ef78	0.25573325
6	0x3deb40a4	0.114869386
7	0x3dfddac4	0.12395242
8	0x3e4cd39f	0.20002602
9	0x3dc6cd39	0.09707112
10	0x3e004d06	0.12529382
11	0x3e515a0d	0.20444508
12	0x3dcd57d7	0.1002652
13	0x3ddaccae	0.10683571
14	0x3dba9da7	0.09112101
15	0x3de1a3b3	0.11017551
16	0x3e7f91cd	0.24957962
17	0x3ea1f6c6	0.31633586
18	0x3def82db	0.116948806
19	0x3e842878	0.25812125
20	0x3d6a445e	0.057194106
21	0x3ee22dc1	0.44175532
22	0x3e016249	0.12635149
23	0x3e95ac56	0.29233044
24	0x3e9648ff	0.29352567
25	0x3e713306	0.2355462
26	0x3e2293f0	0.15876746
27	0x3d48d160	0.0490278
28	0x3eb8868d	0.36040154
29	0x3e02d9e9	0.12778439
30	0x3e72fddf	0.23729657
31	0x3e00577c	0.12533373
