TuiGAN/models/apple2orange/b3.pth (torch, 131453 bytes, 25 tensors)

weight f4 [32, 3, 3, 3]
0	0x3da9b8dd	0.08287213
1	0x3d2f1438	0.04274389
2	0x3dac215d	0.08404801
3	0x3ce431ef	0.027855841
4	0xbca09c37	-0.019605739
5	0xbcb71eeb	-0.02235361
6	0x3b5be8be	0.0033555473
7	0xbbcabda6	-0.0061871586
8	0x3d12363a	0.035696246
9	0x3cea5973	0.028607106
10	0xbd115412	-0.035480566
11	0xbccc42d8	-0.024934217
12	0x3cc9d683	0.02463842
13	0x3bb098a9	0.0053892923
14	0x3c94d82b	0.018169483
15	0xbc9d0a0f	-0.019169835
16	0xbc8137a3	-0.0157736
17	0xbcb28697	-0.021792693
18	0x3ceefa9e	0.029172238
19	0xbd6e5747	-0.058188703
20	0xbd961009	-0.07327277
21	0x3d6c3bc2	0.057674177
22	0x3cc45bf2	0.023969624
23	0x3d2cf567	0.04222622
24	0x3da48755	0.08033625
25	0xbd019ae4	-0.031641856
26	0xbd27f19c	-0.0410019
27	0x3b06817b	0.0020523954
28	0xbd34a00a	-0.044097938
29	0xbda76a77	-0.081746034
30	0x3cffb5eb	0.031214675
31	0xbc8f19be	-0.01746833
32	0xbc6c3585	-0.014417057
33	0x3d8bad91	0.068202145
34	0x3d262ae9	0.040568266
35	0x3cd5efc2	0.026115302
36	0x3d253cea	0.040341295
37	0x3bdf8432	0.006821179
38	0x3c9efe6b	0.019408425
39	0xbb9c098f	-0.0047618817
40	0xbd0f579b	-0.034995656
41	0x3b21115f	0.0024577004
42	0x3d16d484	0.036823764
43	0x3cbe9616	0.023264926
44	0x3d0f72ab	0.035021465
45	0x3d71ce07	0.059034374
46	0x3d4653a2	0.048419602
47	0x3d8905cb	0.06690558
48	0xbd3987d4	-0.04529555
49	0xbd081775	-0.033225495
50	0xbd15516a	-0.036454596
51	0xbd2d3f1d	-0.042296518
52	0xbd186cb0	-0.037213027
53	0xbcf025be	-0.029314872
54	0x396736eb	0.00022050335
55	0x3c4d4170	0.012527809
56	0x3d886fb8	0.06661934
57	0xbc903e2a	-0.017607767
58	0x39421e1a	0.00018512495
59	0x3bc127c1	0.0058946316
60	0xbc1ee586	-0.009698277
61	0x3ba03bf3	0.004889959
62	0x3bdb8a2b	0.0066998205
63	0x3d1f95ff	0.038961407
64	0x3d942924	0.072344095
65	0x3de1dc61	0.11028362
66	0x3cdd7b13	0.027036225
67	0x3c12d11e	0.00896099
68	0x3d403615	0.046926577
69	0x3c2f39c0	0.010694921
70	0xbaa1ff71	-0.0012359453
71	0x3d0b0762	0.033942588
72	0x3d828b61	0.06374241
73	0x3d439dcf	0.04775792
74	0x3dafcf67	0.08584481
75	0x3d24b062	0.040207274
76	0x3d1cb32b	0.038256805
77	0x3da713c9	0.081580706
78	0xbb68331b	-0.0035430852
79	0xbc8ae798	-0.016956136
80	0x3cebea35	0.028798202
81	0x3c44d6b5	0.012014081
82	0x3c6d2317	0.014473698
83	0x3d843a7c	0.064564675
84	0x3bb88da9	0.0056321216
85	0xbcf7e6a4	-0.030261345
86	0x3c536f92	0.012905018
87	0x3d0001ab	0.03125159
88	0xbc0ae379	-0.008477085
89	0x3cabc358	0.02096717
90	0xbc276ffa	-0.010219568
91	0x3d61dada	0.055140354
92	0x3db22dd7	0.087001495
93	0xbc3a2e8f	-0.0113636395
94	0x3bdf4a48	0.006814275
95	0x3b51304e	0.003191966
96	0x3d071bac	0.032985374
97	0xbb405d04	-0.0029352317
98	0x3bbf2f8a	0.0058345245
99	0xbd3de672	-0.046362348
100	0x3befb43a	0.007315186
101	0xbd0a6b91	-0.03379399
102	0xbd72c6f1	-0.059271757
103	0x3b17b326	0.0023147552
104	0xbc04136e	-0.008061273
105	0xbd88ecb2	-0.06685771
106	0x3c2817dc	0.010259595
107	0xbd06dce1	-0.03292549
108	0x3d93d97d	0.07219217
109	0x3d3a3910	0.045464575
110	0xbd003737	-0.031302657
111	0x3d327733	0.04357071
112	0x3d493fe7	0.049133208
113	0x3c5b427b	0.013382549
114	0xbcaa7747	-0.020808829
115	0x3d2abc57	0.04168352
116	0xbce57885	-0.02801157
117	0xbcd1ed76	-0.025625926
118	0xbc67d063	-0.014148804
119	0xbca921dc	-0.020646028
120	0xbcff94b4	-0.031198837
121	0xbc7a8e90	-0.015292779
122	0xbc608cfd	-0.013705489
123	0xbd58d0ce	-0.052933507
124	0xbcceb946	-0.02523483
125	0xbd0a0e8a	-0.03370527
126	0xbc406dca	-0.011744926
127	0x3b8b92d8	0.0042594485
128	0x3bc303c5	0.005951377
129	0xbca1c9fa	-0.01974963
130	0x3b7f615b	0.003896794
131	0xbb6baace	-0.0035959962
132	0xbbfbe62a	-0.00768735
133	0x3c3f59ca	0.011679122
134	0xbc6f43c0	-0.014603555
135	0xbc4f3b1a	-0.012648368
136	0x3d1e7c5a	0.03869281
137	0x3d08ffe7	0.033447172
138	0xbc77679e	-0.015100388
139	0x3cd35b79	0.025800453
140	0x3c7db0a4	0.015484009
141	0xbdfee077	-0.12445157
142	0x3c863592	0.016382966
143	0x3bd0e54d	0.006374991
144	0xbbfa1d5e	-0.0076328954
145	0x3c1f9e50	0.0097423345
146	0x3ca4beee	0.020110574
147	0xbd33c1ad	-0.043885875
148	0x3bd990b0	0.0066395625
149	0xbc7683b8	-0.015046053
150	0xbe10e89e	-0.14151236
151	0xbca9115f	-0.020638166
152	0xbd110d31	-0.03541297
153	0xbcf25b06	-0.029584419
154	0x3c80543a	0.015665162
155	0xbc97dd26	-0.018538069
156	0xbd7f99fc	-0.06240271
157	0xbc6ae7d9	-0.014337503
158	0xbd14d326	-0.03633418
159	0xbd7b60d4	-0.06137164
160	0x3c93449e	0.017977055
161	0xbbe9f11f	-0.0071393396
162	0xbd5dc48d	-0.054142524
163	0xbc789117	-0.015171311
164	0x3cabab43	0.020955687
165	0xbd1888a0	-0.03723967
166	0x3bdf172f	0.0068081836
167	0x3c2f86aa	0.010713259
168	0xbcdf9db4	-0.027296878
169	0x3d2df666	0.042471312
170	0x3cc59ee7	0.024123622
171	0x3cc6deff	0.024276255
172	0xbba7931a	-0.0051139714
173	0x3cdfaafa	0.027303208
174	0x3ab18f09	0.0013546656
175	0x3bed7545	0.0072466456
176	0x3c1ee8af	0.009699031
177	0x3d8a03bf	0.06738996
178	0x3d828d6e	0.06374632
179	0x3d6b9f99	0.05752525
180	0x3c34416c	0.011001926
181	0xbccb5c86	-0.024824392
182	0xbc8d5924	-0.01725442
183	0xbcfd3b6c	-0.030912124
184	0xbd59a930	-0.053139865
185	0xbd20225d	-0.03909527
186	0x3d88050f	0.0664159
187	0x3c3248b5	0.0108815925
188	0x3be941ed	0.0071184547
189	0x3d11c6a8	0.035589844
190	0xbd3307b5	-0.043708522
191	0xbd514337	-0.05108949
192	0x3d9e3236	0.07724421
193	0xbbf1072c	-0.0073555913
194	0xbcfaade1	-0.03060049
195	0x3da2375e	0.07920717
196	0x3cba13b0	0.022714466
197	0xbca00c2a	-0.01953705
198	0xbd035bb7	-0.032069888
199	0xbc99ad4c	-0.018759392
200	0xbd2a749b	-0.04161511
201	0x3cfa97d6	0.03058998
202	0x3d10ff08	0.035399467
203	0x3ce9c95a	0.028538395
204	0x3cf10e73	0.029425835
205	0x3caf5239	0.021401512
206	0xb87593d8	-5.8550242e-05
207	0xbd29e0c5	-0.041474123
208	0xbbb347ff	-0.005471229
209	0xbcb4fa62	-0.022092048
210	0x3d6733c1	0.05644584
211	0x3d8c4032	0.06848182
212	0x3d7c2931	0.06156272
213	0xbb91b0aa	-0.004446109
214	0x3c25d8df	0.010122507
215	0x3caeb3c2	0.02132595
216	0xbd438cea	-0.047741808
217	0xbcb9f87c	-0.022701494
218	0x3d14d4ab	0.03633563
219	0xbcee228e	-0.029069211
220	0x3c4706ea	0.012147645
221	0x3cf00e12	0.029303584
222	0xbce3cec8	-0.027808562
223	0x3d2073cb	0.03917293
224	0x3da65d04	0.0812321
225	0xbd666d1c	-0.0562564
226	0xbcbe185c	-0.023204975
227	0xb9b6d26d	-0.00034870525
228	0xbcf24d15	-0.029577771
229	0x3c3892af	0.011265441
230	0x3cecb755	0.028896013
231	0xbcb361ca	-0.021897215
232	0x3ce58279	0.028016316
233	0x3d46e806	0.04856112
234	0xbd0bfd27	-0.03417697
235	0xbd09aa99	-0.03360996
236	0xbd33ad2d	-0.043866325
237	0xbca7c4fe	-0.020479675
238	0xbc3460c8	-0.011009403
239	0xbae8d635	-0.0017764034
240	0xbcf2f8e5	-0.029659698
241	0xbc9d0068	-0.019165233
242	0xbca0790c	-0.01958897
243	0x3d29facb	0.04149894
244	0x3c74fab8	0.014952354
245	0x3b77f9d2	0.0037838113
246	0x3c955e80	0.018233538
247	0xbc8dffc5	-0.017333874
248	0xbbb9fb3e	-0.0056757024
249	0xbc0c6428	-0.008568801
250	0xbb34083c	-0.0027470728
251	0xbc55ab96	-0.013041398
252	0x3d0aca8d	0.033884574
253	0x3d61cd47	0.05512741
254	0xbce7bdfe	-0.028288838
255	0x3b80d5bf	0.0039317305

bias f4 [32]
0	0x3e387ea8	0.18017066
1	0xbdb0ce35	-0.08633081
2	0x3e323c1d	0.17405744
3	0x3e2b216e	0.16711971
4	0xbe6d48d6	-0.23172316
5	0x3dd4302a	0.10360749
6	0x3c1e8bb3	0.009676862
7	0xbe05fad8	-0.1308397
8	0xbc49797b	-0.01229703
9	0x3d825f1a	0.063657954
10	0x3d9413b1	0.07230318
11	0xbe196e1c	-0.1498341
12	0xbdfb8722	-0.12281634
13	0x3df8540a	0.12125404
14	0x3ca6c66c	0.020358287
15	0x3e04c2fe	0.12965009
16	0x3cb1ae21	0.021689476
17	0xbe16bae3	-0.14719729
18	0x3e27dcaa	0.1639277
19	0xbdf03f7a	-0.11730857
20	0x3d896947	0.06709533
21	0x3cde75fd	0.02715587
22	0xbda94fa1	-0.08267141
23	0xbdb48315	-0.088140644
24	0x3e225181	0.15851404
25	0x3e004d65	0.12529524
26	0xbdb4ffae	-0.088378295
27	0xbe890f0d	-0.26769295
28	0xbe6c231e	-0.23060271
29	0x3e2facb6	0.17155728
30	0xbe1d8288	-0.15381825
31	0x3d0b4a7e	0.03400659

weight f4 [32]
0	0x3f84c8ae	1.0373743
1	0x3f67c532	0.9053527
2	0x3f8716e7	1.0553864
3	0x3f84ec28	1.0384569
4	0x3f628519	0.8848434
5	0x3f81d776	1.0143878
6	0x3f77781b	0.9666764
7	0x3f673505	0.90315276
8	0x3f7b9fa0	0.98290443
9	0x3f5dcb12	0.86637986
10	0x3f767899	0.9627777
11	0x3f7ca1fb	0.9868466
12	0x3f425cff	0.7592315
13	0x3f871133	1.0552124
14	0x3f661cfb	0.8988797
15	0x3f6b5e74	0.91941
16	0x3f5ffaa6	0.87491834
17	0x3f4469f7	0.7672419
18	0x3f60036f	0.8750524
19	0x3f6b584a	0.91931593
20	0x3f303a87	0.68839306
21	0x3f4fade0	0.8112469
22	0x3f81caf4	1.0140061
23	0x3f805235	1.0025088
24	0x3f86cbf1	1.0530988
25	0x3f7fd2bf	0.9993095
26	0x3f833d5a	1.0253098
27	0x3f61654b	0.88045186
28	0x3f8169a4	1.0110364
29	0x3f513d99	0.81734616
30	0x3f45c2f4	0.772506
31	0x3f7223ef	0.9458608

bias f4 [32]
0	0x3e39b22b	0.18134372
1	0x3e8f47b8	0.27984405
2	0xbc849870	-0.01618597
3	0x3e95ac25	0.29232898
4	0xbedddf79	-0.4333456
5	0x3e643d0a	0.2228891
6	0x3e83cf6d	0.2574419
7	0x3edd9ba2	0.432828
8	0x3e9dcc5d	0.3081998
9	0x3f0c6272	0.54837716
10	0x3ea390f0	0.31946516
11	0x3ebabb91	0.36471227
12	0x3eacaea6	0.33726996
13	0x3f0b983a	0.54529154
14	0x3f08eaef	0.5348348
15	0x3f03bf16	0.5146345
16	0x3ea756ea	0.32683498
17	0x3ecd52c2	0.40102202
18	0x3f1bc72e	0.608508
19	0x3efdac0c	0.49545324
20	0x3dce1863	0.10063245
21	0x3f0e4590	0.55574894
22	0x3ef6f645	0.48234764
23	0xbddc1251	-0.10745681
24	0x3ea9dc5e	0.3317594
25	0x3df247a9	0.11830074
26	0x3e22f4e5	0.15913732
27	0x3ea53d8a	0.32273513
28	0x3f0dd973	0.55409926
29	0x3f32826c	0.6973026
30	0x3ef423b5	0.47683492
31	0x3f45adfa	0.7721859

running_mean f4 [32]
0	0x3e6492b0	0.22321582
1	0xbdd8d5cb	-0.10587653
2	0xbeb82d15	-0.35971895
3	0x3ea2619d	0.31715098
4	0xbcf5a65e	-0.029986557
5	0x3ed5a31e	0.4172601
6	0xbd95a311	-0.07306493
7	0xbe931485	-0.28726593
8	0x3e5c4153	0.21509294
9	0x3e626002	0.22106937
10	0x3e865d2d	0.26242962
11	0x3d90ff88	0.07079989
12	0xbd369b1f	-0.04458153
13	0x3d3fcf0f	0.046828326
14	0x3d0fecb9	0.035137866
15	0x3cbfe04e	0.023422386
16	0xbab35b7b	-0.001368388
17	0xbdebb324	-0.11508778
18	0x3e14ec4c	0.14543265
19	0xbec06c65	-0.37582698
20	0x3c4ced36	0.012507727
21	0x3cda7ca3	0.02667076
22	0xbf1765d6	-0.59139764
23	0x3ef84944	0.48493397
24	0xbe245bb3	-0.16050605
25	0x3e21fd4c	0.15819281
26	0xbddaaefd	-0.106779076
27	0xbe965869	-0.29364327
28	0xbed35676	-0.41276902
29	0x3e4f80fe	0.2026405
30	0xbe6776b9	-0.22603883
31	0xbf29542b	-0.66144055

running_var f4 [32]
0	0x3c00882b	0.007844965
1	0x3b3078b9	0.0026927425
2	0x3cc6945a	0.024240661
3	0x3c209fa5	0.009803687
4	0x3aedada6	0.0018133416
5	0x3c161cfe	0.009162186
6	0x3bac7224	0.00526263
7	0x3b73fe38	0.0037230384
8	0x3b3334f1	0.0027344788
9	0x3b2e8ba4	0.0026633525
10	0x3cb31d08	0.02186443
11	0x3c38efe5	0.011287664
12	0x3aa52075	0.0012598174
13	0x3c1d79bb	0.009611542
14	0x3b1ce366	0.002393925
15	0x3bd588e9	0.006516565
16	0x3acd004b	0.0015640346
17	0x3a2ea552	0.0006662208
18	0x3c3adc6f	0.0114050945
19	0x3b321833	0.0027175068
20	0x3a65e800	0.00087702274
21	0x3b0fa029	0.0021915531
22	0x3c51f315	0.012814303
23	0x3bbc967c	0.005755244
24	0x3c7c21aa	0.0153888855
25	0x3bb7fdf2	0.0056149894
26	0x3b69faa7	0.003570238
27	0x3ac600d5	0.0015106449
28	0x3c11040e	0.008851064
29	0x3b09a806	0.002100469
30	0x3a976b34	0.0011552335
31	0x3bc2d8f6	0.005946274

weight f4 [32, 32, 3, 3]
0	0xbd372fce	-0.044723324
1	0xbcad02c6	-0.021119487
2	0xbc9b78af	-0.018978445
3	0xbd67d6ca	-0.056601323
4	0xbd579764	-0.05263461
5	0xbc5d5eda	-0.013511384
6	0xbd85538a	-0.065100744
7	0xbd0957ae	-0.033530883
8	0xbd0da2af	-0.034578975
9	0xbc84a7c0	-0.01619327
10	0xbcfe2f3a	-0.031028379
11	0x3c2e4f6c	0.010639053
12	0xbcddd3f7	-0.027078612
13	0xbc255b5a	-0.010092581
14	0xbd182d4f	-0.037152585
15	0xbd0ae9c1	-0.03391433
16	0xbca138e7	-0.019680453
17	0xbcb417fe	-0.021984097
18	0x3daa7404	0.083229095
19	0x3d2d84ca	0.042362966
20	0x3ddc028c	0.10742673
21	0xbcdbe0f7	-0.02684067
22	0xbccc4c9f	-0.02493888
23	0xbbfa9423	-0.007647054
24	0xbd442a4f	-0.04789191
25	0xbd8662a4	-0.06561783
26	0xbc8f45db	-0.017489364
27	0x3d4d4f46	0.05012443
28	0x3d64523c	0.055742487
29	0x3dfa2a4b	0.12215098
30	0x3d49bda9	0.04925314
31	0xbcd9b4ac	-0.026575409
32	0x3d279290	0.040911257
33	0xbc9df3f2	-0.019281361
34	0xbcde0a8f	-0.027104644
35	0x3d114325	0.035464425
36	0x3c41270e	0.0117890965
37	0x3d319d57	0.04336294
38	0x3cf65e93	0.030074393
39	0xbba64a7a	-0.0050747963
40	0x3b37194f	0.002793867
41	0xbcb1786c	-0.021663867
42	0x3c17d819	0.00926783
43	0xbd0b0be7	-0.033946898
44	0xbc285307	-0.0102737015
45	0xbd8582b5	-0.06519071
46	0x3b9d7bea	0.0048060315
47	0x3c02d346	0.007984942
48	0xbcb9732d	-0.022637928
49	0x3ca30362	0.019899074
50	0x3d4da22e	0.050203495
51	0x3b606951	0.003424246
52	0x3cd8f5cf	0.026484398
53	0x3badb75b	0.0053013987
54	0xbbbcdc7b	-0.005763588
55	0xbd0055d2	-0.031331845
56	0x3dbe37e5	0.09288005
57	0xbd184c4f	-0.03718215
58	0xbbd0eb19	-0.006375682
59	0xbbcb1887	-0.0061979922
60	0xbd1e5142	-0.038651712
61	0xbcfde147	-0.03099121
62	0xbd208fae	-0.039199524
63	0xbb804ce5	-0.0039154165
64	0x3c8afcc6	0.016966235
65	0xbccc0e79	-0.024909245
66	0xbd738e47	-0.059461858
67	0xbc0cdb7c	-0.008597251
68	0xbd27d187	-0.040971305
69	0xbd64434c	-0.05572824
70	0xbd7be7c4	-0.061500326
71	0xbcb33bb7	-0.02187906
72	0xbcdbe237	-0.026841266
73	0x3ccd28be	0.025043841
74	0x3db8764e	0.0900694
75	0x3a971996	0.0011528011
76	0x3bbeb970	0.0058204457
77	0x3d286877	0.04111525
78	0x3ba24314	0.004951844
79	0xbc8db483	-0.017297989
80	0xbcf530fd	-0.029930586
81	0x3a641ae4	0.0008701517
82	0xba6c229f	-0.00090078445
83	0xbce425c7	-0.027850045
84	0x3cc3017e	0.023804422
85	0xbc456796	-0.012048623
86	0x3d0a280b	0.033729594
87	0xbd01aa74	-0.031656697
88	0x3c810c2a	0.01575287
89	0x3cec215a	0.028824497
90	0xbd158afd	-0.036509503
91	0xbd8183af	-0.06323945
92	0xbd3e8ff7	-0.046524014
93	0xbc6340f6	-0.013870468
94	0x3caa68f4	0.020801999
95	0xbd5b4968	-0.053536803
96	0x3ce00e1b	0.027350476
97	0xbcabb103	-0.02095843
98	0xbd3686ce	-0.044562154
99	0x3c3db22b	0.011578123
100	0xbccc8349	-0.024964945
101	0xbd939faf	-0.072081916
102	0xbc8f547c	-0.01749634
103	0xba827c0c	-0.0009955182
104	0xbd84db94	-0.06487194
105	0xbabc542f	-0.001436835
106	0xbb6f62d4	-0.0036527412
107	0xbd03133a	-0.032000758
108	0xbd2eb6d7	-0.04265484
109	0xbcb9ac35	-0.022665123
110	0x3cb22086	0.021744024
111	0xbd24e7eb	-0.040260237
112	0xbce93b6b	-0.028470716
113	0x3a69870b	0.00089083676
114	0xbd43368c	-0.04765944
115	0xbd1196f8	-0.035544366
116	0xbc7adcc5	-0.015311425
117	0xbd6daef0	-0.05802816
118	0xbd899d6f	-0.06719481
119	0x3cd3754d	0.02581277
120	0xbba20a5c	-0.0049450826
121	0xbc19fe5f	-0.009399026
122	0x3d82808f	0.06372177
123	0x3c300a89	0.010744699
124	0x3cbe2670	0.023211688
125	0x3d676330	0.056491077
126	0x3d441424	0.04787077
127	0x3d3b9959	0.04580054
128	0x3de9ccaf	0.114159934
129	0x3a61330c	0.00085906754
130	0xbcc80434	-0.024416067
131	0x3d05fca2	0.032711633
132	0xbc87502a	-0.016517717
133	0xbb37c352	-0.0028040004
134	0xbc913ee7	-0.01773019
135	0xbde1ba39	-0.11021847
136	0xbd2343f7	-0.03985974
137	0x3caebf6c	0.021331511
138	0xbbf5bff8	-0.007499691
139	0xbcbb4276	-0.02285884
140	0x3bb6bcbe	0.005576699
141	0x3cc8f829	0.024532394
142	0x3d0392dc	0.032122478
143	0x3d05c4bd	0.032658327
144	0x3cce78eb	0.025204143
145	0x3c833edf	0.01602119
146	0xbb4fcb23	-0.0031706772
147	0xbbeba230	-0.007190965
148	0x3c1134df	0.008862703
149	0x3bbe6c37	0.00581124
150	0xbda54071	-0.08068932
151	0xbc9840fa	-0.01858567
152	0xbbaa0a25	-0.0051891976
153	0xbc40de91	-0.011771814
154	0xbbcf30af	-0.006322942
155	0x3c2e0f6a	0.010623792
156	0xbcbe16be	-0.023204204
157	0xbccafca7	-0.024778677
158	0x3c1f05d6	0.009705981
159	0xbd5698b0	-0.052391708
160	0xbb3b7cfb	-0.002860843
161	0xbc981284	-0.018563516
162	0xbc9c0e78	-0.019049868
163	0xbbd10cea	-0.0063797133
164	0xbd4c2c58	-0.049846977
165	0x3ada017e	0.0016632525
166	0x3bb9484a	0.0056543695
167	0xbc8f6c78	-0.017507777
168	0x3cde2e31	0.027121635
169	0xbcd03ca7	-0.025419546
170	0xbd4851f4	-0.04890628
171	0x3cb54bad	0.022130812
172	0x3cfbcbf5	0.030736903
173	0x3d3f68ad	0.046730686
174	0xbb96c9ce	-0.0046016937
175	0x3d0fdbe9	0.035121832
176	0x3cf65552	0.03006998
177	0xbd69f8a8	-0.057121903
178	0xbca77401	-0.020441057
179	0x3ac36352	0.0014906919
180	0xbcec22ad	-0.028825128
181	0xbc976712	-0.018481765
182	0x3be47c2b	0.00697281
183	0xbd00cbf1	-0.031444494
184	0x3c24a502	0.010049107
185	0xba4e5e8a	-0.0007872364
186	0xbd84e99c	-0.0648987
187	0xbcaeeed8	-0.021354124
188	0xbc9044bb	-0.017610898
189	0xbd5a82ef	-0.053347524
190	0xbd0ffa1c	-0.035150632
191	0xbd6bcf71	-0.05757088
192	0xbc9a0155	-0.018799463
193	0x39c803d0	0.00038149813
194	0xbc1ebdee	-0.009688837
195	0xbc4f0ca4	-0.012637291
196	0x3cf4daf7	0.029889567
197	0x3c1ac79f	0.009447007
198	0x3c67ca40	0.014147341
199	0x3d0044d2	0.031315632
200	0x3cee4f46	0.029090535
201	0xbd20c751	-0.039252583
202	0xbc2a8f00	-0.01041007
203	0xbcfe4c6a	-0.031042296
204	0xbd542b2e	-0.05179899
205	0xbc36d27c	-0.011158582
206	0xbc358310	-0.011078611
207	0x3da72f65	0.08163337
208	0x3cf11271	0.029427739
209	0x3c57bbff	0.01316738
210	0xbb9df9ab	-0.0048210225
211	0x3cd3b4df	0.025843082
212	0xbcf9e356	-0.03050391
213	0x384be362	4.861074e-05
214	0xbcfe1d86	-0.031019937
215	0xbd8e5abe	-0.069509014
216	0x3d887395	0.066626705
217	0xbbfb0317	-0.0076602804
218	0x3c238f82	0.009982945
219	0x3c1a943f	0.009434759
220	0xbccfa608	-0.025347725
221	0xbd35c792	-0.04437978
222	0x3bc28433	0.0059361695
223	0xbc1e19ad	-0.009649676
224	0xbd67d078	-0.056595296
225	0xbc03016a	-0.007995943
226	0x3d3b60f5	0.045746762
227	0x3d2d6098	0.042328447
228	0x3c41aa52	0.011820393
229	0x3c903ab2	0.017606113
230	0x3b18ec57	0.002333423
231	0x3ce6430c	0.028108142
232	0xbbcafc5c	-0.0061946344
233	0x3b558762	0.0032581915
234	0xbd1da67b	-0.038488846
235	0xbd50d0d0	-0.05098039
236	0xbb8eb3d2	-0.0043549323
237	0xbcb57fb1	-0.022155615
238	0xbc4b11d4	-0.012394387
239	0xbcf2b61d	-0.029627854
240	0x3ca211e1	0.019783916
241	0x3ca5a1fb	0.02021884
242	0x3d589fe9	0.052886877
243	0xbcaa88a5	-0.02081711
244	0xbc35eee0	-0.0111043155
245	0xbc370095	-0.011169572
246	0xbcfb118f	-0.030648021
247	0x3c58a79b	0.013223554
248	0x3d5832c3	0.052782785
249	0xbd8c888b	-0.06861981
250	0xbb63e98d	-0.0034776658
251	0x3d4c021b	0.049806695
252	0x3d2d70f3	0.042344045
253	0x3d96f49c	0.07370874
254	0x3d3a71d9	0.04551873
255	0x3c78646d	0.015160662

bias f4 [32]
0	0x3d2efd4d	0.042722035
1	0xbbfe390b	-0.007758265
2	0xbc6bba8c	-0.014387738
3	0xbd59b4a3	-0.053150784
4	0x3d5f2543	0.054478895
5	0xbb81a1bb	-0.0039560474
6	0xbc9ecce8	-0.019384816
7	0xbc783e74	-0.015151609
8	0xbba6b210	-0.0050871447
9	0xbd27745f	-0.040882464
10	0xbd500e6f	-0.050795015
11	0x3d09f2e1	0.033678893
12	0xbc7ccdc7	-0.0154299205
13	0x3ca21222	0.019784037
14	0xbd4808df	-0.048836585
15	0x3ca1d7f6	0.019756299
16	0xbcc6a673	-0.024249291
17	0x3d301c45	0.04299571
18	0xbc2aa00b	-0.010414134
19	0x3d96b227	0.073581986
20	0xbd438cdc	-0.047741756
21	0xbc7d01f7	-0.015442363
22	0x3cdee14d	0.027207041
23	0xbc08d2e5	-0.008351062
24	0x3ce04ded	0.027380908
25	0x3c9dc5cc	0.019259356
26	0x3c455622	0.012044461
27	0xbd377947	-0.044793393
28	0x3d00cce8	0.031445414
29	0xbc091868	-0.008367635
30	0xbd320520	-0.04346192
31	0xbbad5621	-0.0052898084

weight f4 [32]
0	0x3f438943	0.7638132
1	0x3f8bc67a	1.0919945
2	0x3f6d093e	0.9259223
3	0x3f84ad6b	1.0365423
4	0x3f6fcd2a	0.9367243
5	0x3f8709c4	1.0549855
6	0x3f430865	0.76184684
7	0x3f6846ab	0.9073283
8	0x3f7aa477	0.97907203
9	0x3f7c5333	0.9856445
10	0x3f738851	0.9512988
11	0x3f6f4f0c	0.9347999
12	0x3f5d5702	0.8646089
13	0x3f5c2815	0.8599866
14	0x3f72a28a	0.94779265
15	0x3f8303db	1.0235552
16	0x3f779326	0.96708906
17	0x3f701134	0.9377625
18	0x3f7c9fff	0.98681635
19	0x3f7cd9a6	0.98769605
20	0x3f5ed841	0.8704873
21	0x3f7d2531	0.98884875
22	0x3f734ad5	0.9503606
23	0x3f7f3ed5	0.9970525
24	0x3f6766f2	0.9039146
25	0x3f7764db	0.9663827
26	0x3f823255	1.017161
27	0x3f86d27e	1.0532987
28	0x3f844fb3	1.0336822
29	0x3f7f6a6f	0.9977178
30	0x3f64afbd	0.89330655
31	0x3f54672f	0.82969946

bias f4 [32]
0	0x3f4f861e	0.8106402
1	0xbc8bcd17	-0.017065568
2	0x3ea58375	0.32326856
3	0x3e0c8f27	0.13726483
4	0x3e504ff9	0.20343007
5	0x3f01be35	0.5068086
6	0x3eda2cce	0.42612308
7	0x3f3cc5e4	0.7373946
8	0xbb1033d3	-0.0022003546
9	0x3e80f7e7	0.25189134
10	0x3ea78ab0	0.32722998
11	0x3e62e5a4	0.22157913
12	0x3eba430e	0.36379284
13	0x3f0bc93e	0.54603946
14	0x3ecd7d2c	0.4013456
15	0x3d80ad16	0.062830135
16	0x3e3d48f9	0.18484868
17	0x3e8c7b26	0.27437705
18	0x3ecb5ea2	0.39720637
19	0x3ec117ca	0.37713462
20	0x3eb88d27	0.3604519
21	0x3e81271d	0.25225154
22	0x3e8d570d	0.27605477
23	0x3eb16137	0.34644482
24	0x3e96dc24	0.2946483
25	0x3e425d48	0.18980896
26	0x3ec90d0e	0.39267772
27	0x3f0e0a36	0.5548433
28	0x3cefca1a	0.029271174
29	0x3eaa46b3	0.33257064
30	0x3eb7cf96	0.35900563
31	0x3f06bc6a	0.5263125

running_mean f4 [32]
0	0xbecbebc9	-0.39828327
1	0xbfc369af	-1.5266627
2	0x3d46dfc6	0.04855325
3	0x3f6a62c6	0.91556966
4	0xbfc7779c	-1.5583377
5	0xbfc776dc	-1.5583148
6	0x3d66b243	0.056322347
7	0x401774eb	2.366511
8	0xc003bbc3	-2.058335
9	0xbff0c173	-1.8809036
10	0x3e9c374a	0.30510932
11	0xbefcdcd3	-0.49387226
12	0x3f1cabed	0.6119984
13	0x3ed22ce8	0.41049886
14	0xbfbf59d7	-1.4949292
15	0x3f893bc4	1.0721364
16	0xbe21b0c7	-0.15790091
17	0x3e25c810	0.16189599
18	0x3f3923d2	0.7232028
19	0x3f0aae44	0.5417216
20	0xbe7268b6	-0.23672757
21	0xbef82091	-0.48462346
22	0x3fb8456d	1.4396187
23	0xbf59a2c4	-0.85013986
24	0xbfa696f3	-1.3014816
25	0x3f5da2f0	0.8657675
26	0x3ec93bc0	0.39303398
27	0x3fce2099	1.6103698
28	0x3f86d62d	1.0534111
29	0xbf15dff0	-0.58544827
30	0xbf9939e3	-1.1970791
31	0x3f518f53	0.8185932

running_var f4 [32]
0	0x3e98897f	0.297924
1	0x3eeeac09	0.46615627
2	0x3e8940d3	0.2680727
3	0x3ee834a0	0.4535265
4	0x3eccaf0a	0.39977294
5	0x3ed469b0	0.41486883
6	0x3e3234cf	0.17402957
7	0x3e92819b	0.28614506
8	0x3f2354e1	0.6380139
9	0x3ebff7fd	0.37493888
10	0x3e4e2e25	0.2013479
11	0x3e9405f2	0.28910786
12	0x3e25ed01	0.16203691
13	0x3e888d21	0.26670173
14	0x3e8ed208	0.27894616
15	0x3ea2e7ac	0.31817377
16	0x3e5d6a60	0.2162261
17	0x3e896049	0.26831272
18	0x3e45e142	0.1932421
19	0x3f3747f2	0.71594155
20	0x3e9243d9	0.2856739
21	0x3ea832a6	0.32851142
22	0x3eb4e454	0.3533045
23	0x3f432b22	0.7623769
24	0x3e34d824	0.17660576
25	0x3f176d0d	0.59150773
26	0x3ed076dc	0.40715683
27	0x3efbe84d	0.4920067
28	0x3e5fc4d1	0.21852423
29	0x3e2ee4b7	0.17079435
30	0x3e84b20d	0.25917092
31	0x3e8c2831	0.27374414

weight f4 [32, 32, 3, 3]
0	0xbcec208a	-0.02882411
1	0x3d62a93b	0.055337172
2	0x3d56ad39	0.05241129
3	0x3bac2c2d	0.0052542896
4	0x3cbce991	0.023060592
5	0xbba7e6da	-0.005123955
6	0xbd3d2721	-0.046179894
7	0x3c292a0b	0.010324965
8	0xbd556a59	-0.052103374
9	0x3cf9d8b9	0.03049885
10	0xbcddc8d1	-0.027073296
11	0xbc7d6f26	-0.015468394
12	0x3aa6684f	0.0012695881
13	0x3c0e66b1	0.008691476
14	0xb9fbc353	-0.0004801998
15	0xbd989701	-0.07450677
16	0xbd8ff8e6	-0.070298955
17	0xbd03849e	-0.032108895
18	0x3c6bf67a	0.014402026
19	0x3cec864a	0.028872628
20	0x3cb73170	0.02236244
21	0xbcf1ebe5	-0.029531429
22	0xbb8faab2	-0.004384362
23	0xba117b0f	-0.0005549648
24	0x3c35eb7c	0.011103507
25	0xbb4e9ea8	-0.0031527672
26	0x3d24809f	0.040161725
27	0xbd2ccfda	-0.04219041
28	0xbbaa720e	-0.0052015847
29	0xbc575045	-0.013141696
30	0x3d47d456	0.048786484
31	0x3d5bd971	0.053674165
32	0x3d083eb5	0.033262927
33	0x3d847cbf	0.06469106
34	0x3d05d013	0.03266914
35	0x3caffdc1	0.021483304
36	0xbc6f7410	-0.014615074
37	0xbcfd5543	-0.030924445
38	0x3b7489a1	0.0037313479
39	0xbcbec579	-0.023287522
40	0xbd147daf	-0.036252674
41	0x3c3327bd	0.010934767
42	0xbc11d14c	-0.008899998
43	0x3c587a19	0.013212704
44	0x3d1fdca3	0.039028775
45	0x3dca1582	0.098673835
46	0x3bc4808d	0.0059967698
47	0x3d8c7338	0.06857914
48	0xbcc7d7b3	-0.024394846
49	0xbca9351d	-0.02065521
50	0xbcb41308	-0.021981731
51	0x3d94df8e	0.07269202
52	0xbcd70c4d	-0.026250983
53	0x3d966ae1	0.07344604
54	0x3d421e29	0.047392044
55	0x3cf9bb86	0.030484926
56	0xbae0ca5b	-0.001715015
57	0x3c97a18e	0.018509652
58	0x3cdaf8a9	0.026729899
59	0x3c8e1ec2	0.01734865
60	0x3b57a186	0.0032902672
61	0xbc890529	-0.016726093
62	0x3b8de7a6	0.004330593
63	0xbb81475d	-0.0039452747
64	0x3c6312a8	0.013859428
65	0x3b935126	0.0044957576
66	0xbd277be9	-0.040889654
67	0x3bdbaf73	0.006704265
68	0xbc0e862b	-0.00869898
69	0xbdcbe06c	-0.099549145
70	0xbd0238ba	-0.03179238
71	0xbd19a888	-0.03751424
72	0xbcdf0985	-0.027226219
73	0x3d10004a	0.035156526
74	0x3bccc06f	0.006248526
75	0xbdaf0048	-0.085449755
76	0xbd5b25c3	-0.05350281
77	0xbd47b3ce	-0.04875546
78	0xbca53fc9	-0.020172017
79	0x3bea242e	0.0071454262
80	0xbd415a56	-0.04720529
81	0xbce8f77b	-0.02843832
82	0xbd870a52	-0.06593765
83	0xbb75cf72	-0.003750768
84	0x3d0b7951	0.034051243
85	0x3b91d64f	0.0044505964
86	0x3ce838ed	0.028347457
87	0x3c9748a8	0.018467262
88	0xbbefc82e	-0.0073175645
89	0x3d5e04e3	0.05420388
90	0x3d16b63c	0.036794886
91	0xbca842a2	-0.020539586
92	0xbcac257e	-0.021013971
93	0x3d50b28f	0.050951537
94	0xbbf2e92e	-0.007413051
95	0xbbd5133e	-0.006502538
96	0x3dbd89f8	0.09254831
97	0x3c9f0cef	0.019415347
98	0xbdac34bf	-0.08408498
99	0xbb8e7ae7	-0.004348147
100	0xbc07eeca	-0.008296678
101	0x3d04e2c4	0.032442823
102	0xbccc511e	-0.024941023
103	0xbc5a3f0b	-0.013320695
104	0x3c0e07fd	0.008668897
105	0xbd45a2b9	-0.048250888
106	0xb9a6d55f	-0.0003182096
107	0x3d943a04	0.07237628
108	0xbd59a20f	-0.053133067
109	0xbb4fee6f	-0.003172781
110	0x3c8e3230	0.017357916
111	0xbcd8e3d8	-0.026475832
112	0xbce77d20	-0.028257906
113	0x3cf2cce7	0.02963872
114	0x3d10ac18	0.03532037
115	0xbc93a75c	-0.01802414
116	0xbc012d9c	-0.007884409
117	0xbae1643e	-0.0017196012
118	0xbd09df09	-0.03365997
119	0x3d1bd6b5	0.038046557
120	0xbc082f6a	-0.008312086
121	0xbbefa6d6	-0.0073135896
122	0x3bdde58f	0.0067717503
123	0xbcd1598f	-0.0255554
124	0xbc803cde	-0.015654024
125	0x3bd2713c	0.00642219
126	0x3a89f58b	0.0010525448
127	0x3c728d9b	0.014804269
128	0x3d67cc0c	0.05659108
129	0xbd3a6c97	-0.045513716
130	0xbd29db66	-0.041469
131	0x3c685687	0.014180786
132	0x3cc2b7aa	0.023769218
133	0x3cc3d61f	0.023905812
134	0x3d9c8fb5	0.076445974
135	0x3c34b83b	0.011030252
136	0xbd10a851	-0.03531677
137	0xbd2cf8d6	-0.042229496
138	0x3cb6ed88	0.02233006
139	0xbbf572fd	-0.0074905143
140	0xbbc2be93	-0.0059431284
141	0xbd55e2dc	-0.052218303
142	0xbc83f5c4	-0.016108401
143	0xbcfff773	-0.031245923
144	0xbcab1022	-0.020881716
145	0xbb7fe156	-0.0039044223
146	0xbd041ca2	-0.03225387
147	0xbc9feb38	-0.01952134
148	0x3bdfd1f3	0.006830448
149	0xbd8728cd	-0.06599579
150	0xbdf434c8	-0.1192413
151	0xbd48649d	-0.048924077
152	0xbc6cbce2	-0.01444933
153	0xbcdd5af9	-0.027020918
154	0x3d9583c5	0.07300524
155	0x3d28ce30	0.04121226
156	0xbd1900bd	-0.03735422
157	0x3b778bb4	0.0037772479
158	0x38058fd7	3.1843632e-05
159	0xbc9e1fb0	-0.01930222
160	0x3cd6d29f	0.026223479
161	0xbd8e9e98	-0.06963843
162	0x3ae61f4e	0.0017556937
163	0x3d1f2054	0.03884919
164	0x3d4e337e	0.050342076
165	0xbc461fe3	-0.012092563
166	0xbc121bad	-0.008917731
167	0xbc3aa891	-0.011392728
168	0x3c3a7e5d	0.011382666
169	0xbc633ad4	-0.013869006
170	0xbda1f7cd	-0.079085924
171	0x3d6ae088	0.057343036
172	0xbb3f9c3b	-0.0029237408
173	0x3cfa8a64	0.030583568
174	0x3ced243e	0.028947946
175	0x3cd159e8	0.025555566
176	0x3a316b47	0.0006768
177	0x3d7060b1	0.058685962
178	0x3d8a5e8f	0.06756317
179	0x3d2c1e51	0.0420211
180	0x3b48ec6d	0.00306585
181	0x3cb8eef8	0.022574887
182	0xbd74b7d7	-0.059745636
183	0xbd806194	-0.062686116
184	0xbc3e99a7	-0.011633313
185	0xbd90e049	-0.07074029
186	0xbc91d7ed	-0.017803157
187	0xbd67916b	-0.056535166
188	0xbdee4e64	-0.116360456
189	0x3cabea63	0.020985788
190	0xbb311fdd	-0.0027027049
191	0xbc4ceb94	-0.012507338
192	0xbc129a8f	-0.008947982
193	0xbd3fce15	-0.046827395
194	0xbca2fdd0	-0.019896418
195	0xba6ea28c	-0.0009103201
196	0x3c073b58	0.008253895
197	0x3cf3c94e	0.029759075
198	0xbc684c60	-0.0141783655
199	0xbcdbdfec	-0.026840173
200	0x3d4909c7	0.04908159
201	0xbcfb241c	-0.030656867
202	0x3cb7769e	0.022395428
203	0x3c650114	0.013977308
204	0xbc3f707b	-0.011684532
205	0xbb7254ba	-0.003697677
206	0x3bcc779c	0.0062398445
207	0xb9aa831d	-0.00032522614
208	0x3d48cd63	0.049023997
209	0x3d3b27c0	0.045692205
210	0xb8ab1f4e	-8.159746e-05
211	0x3cf5832b	0.029969772
212	0xbcd97e71	-0.02654955
213	0xbcd7ddf0	-0.026350945
214	0xbc930dbc	-0.017950885
215	0xbd325871	-0.043541376
216	0xbc5c65c6	-0.013451999
217	0x3c539c0d	0.012915623
218	0x3d30164d	0.042990018
219	0x3baa3cfc	0.005195258
220	0x3cf29074	0.029609896
221	0x3d1cd839	0.038292143
222	0x3a864398	0.0010243533
223	0x3d3e9513	0.046528887
224	0x3d3f41f4	0.046693757
225	0xbc998568	-0.01874037
226	0x393a89ae	0.00017789632
227	0x3d2cbf7c	0.0421748
228	0x3d1cab79	0.038249467
229	0x3ce99823	0.028514927
230	0x3b570261	0.0032807814
231	0x3cb90b59	0.022588419
232	0xbc552332	-0.0130088795
233	0xbd03e1c1	-0.032197718
234	0xbc897002	-0.016777042
235	0x3bb89c46	0.0056338636
236	0xbbc5ea50	-0.006039895
237	0xbb8ce783	-0.0043000593
238	0xbbf82aa5	-0.007573443
239	0xbbe986bf	-0.0071266587
240	0xbcf112b7	-0.02942787
241	0x3bc41f47	0.005985174
242	0x3c4f38a5	0.012647782
243	0xbcbc6f0b	-0.023002168
244	0xbd80f16b	-0.06296047
245	0xbce937d9	-0.028469013
246	0xbca1b1aa	-0.019738037
247	0xbd70b178	-0.058762997
248	0xbc062a2b	-0.008188765
249	0x3c2fa9e1	0.010721655
250	0xbd1aee7e	-0.0378251
251	0xbd801ea1	-0.06255842
252	0xbc693cbc	-0.014235672
253	0x3d813535	0.063089766
254	0x3c800d91	0.015631469
255	0x3b937536	0.0045000566

bias f4 [32]
0	0xbd6a6e09	-0.057233844
1	0xbcf5f4e8	-0.030024007
2	0xbca0e3b4	-0.019639827
3	0xbceb3305	-0.028710851
4	0xbbebfc0b	-0.0072016767
5	0xbd4e6329	-0.050387535
6	0x3c0b74ed	0.008511764
7	0x3d7ef7d2	0.06224806
8	0xbd10f3b5	-0.035388667
9	0x3d236afe	0.039896958
10	0x3d1ef232	0.038805194
11	0xbd1c89ce	-0.03821736
12	0xbd6f8dc5	-0.05848481
13	0x3d2cfbee	0.042232446
14	0x3c3ee75d	0.011651841
15	0xbd0291e2	-0.031877406
16	0xba6534f4	-0.00087435474
17	0x3c104c46	0.0088072475
18	0x3cb5c11c	0.022186808
19	0xbd52fefd	-0.051512707
20	0xbd86be63	-0.06579282
21	0x3d6d8a2e	0.057993107
22	0xbd3dc6ab	-0.046332043
23	0x3d326c71	0.04356045
24	0xbc97da0b	-0.018536588
25	0x3a4a62fb	0.0007720438
26	0x3d609415	0.054828722
27	0xbda54bdb	-0.08071109
28	0xbc85d929	-0.016338902
29	0xbbba809c	-0.005691601
30	0xbcde0f3f	-0.02710688
31	0xbb601918	-0.0034194645

weight f4 [32]
0	0x3f6917c7	0.91051906
1	0x3f761526	0.9612602
2	0x3f7593be	0.9592856
3	0x3f7e1cf5	0.99262935
4	0x3f810b19	1.0081512
5	0x3f941e42	1.1571734
6	0x3f77acb4	0.967479
7	0x3f82092f	1.0159053
8	0x3f590629	0.84775025
9	0x3f7b3674	0.98129964
10	0x3f67e7ed	0.90588266
11	0x3f6cd550	0.9251299
12	0x3f799ed1	0.9750796
13	0x3f753beb	0.9579455
14	0x3f634a1c	0.88784957
15	0x3f8376d3	1.0270637
16	0x3f97993e	1.1843641
17	0x3f8d258b	1.1027082
18	0x3f780592	0.968835
19	0x3f8204f0	1.0157757
20	0x3f6c6e35	0.9235566
21	0x3f569745	0.8382457
22	0x3f6bbf45	0.9208873
23	0x3f80e576	1.0070026
24	0x3f7477e4	0.9549544
25	0x3f7c6a2a	0.98599494
26	0x3f6553bf	0.8958091
27	0x3f71d2c9	0.9446226
28	0x3f80077f	1.0002288
29	0x3f70bc82	0.9403764
30	0x3f7af344	0.98027444
31	0x3f6e9456	0.9319509

bias f4 [32]
0	0x3efd1b57	0.4943492
1	0xbdf80214	-0.12109771
2	0x3de20ae6	0.11037235
3	0x3ca853ed	0.020547831
4	0x3e2c22f1	0.16810204
5	0x3eb22dcd	0.34800568
6	0x3eb0808b	0.3447307
7	0x3f08c757	0.5342917
8	0x3efe4921	0.49665168
9	0x3e8eeefd	0.2791671
10	0x3ebd2a05	0.3694612
11	0x3f2dd391	0.6790095
12	0x3dfe100c	0.124054044
13	0x3e5a2605	0.21303566
14	0x3eb86229	0.3601239
15	0x3e7f8efe	0.24956891
16	0x3dcc9e4f	0.099911325
17	0x3d83bcfc	0.0643253
18	0x3ed8d21f	0.4234781
19	0x3ed5de64	0.41771233
20	0x3e3702a0	0.17872095
21	0x3f061b2f	0.5238523
22	0x3ee0de65	0.43919674
23	0x3e87f1d6	0.26551694
24	0x3ea9fcdd	0.33200732
25	0x3e42b190	0.19013047
26	0x3f1edc7b	0.62055176
27	0x3edc7896	0.4306075
28	0x3eb37485	0.35049835
29	0x3eb08c0f	0.34481856
30	0x3edf6d53	0.43638095
31	0x3d83e822	0.0644076

running_mean f4 [32]
0	0xbf1289e8	-0.5724168
1	0xbf3d644d	-0.7398117
2	0xbf95f843	-1.1716388
3	0xbf633b7d	-0.88762647
4	0x3b5edf5b	0.0034007642
5	0xbd32a942	-0.043618448
6	0xbf6a4cc3	-0.9152338
7	0x3d66ea73	0.056375932
8	0xbf7982d4	-0.9746525
9	0xbf9e32d5	-1.2359263
10	0x3ef3b3bc	0.47598064
11	0xbe8aa58e	-0.27079433
12	0xbec334da	-0.3812626
13	0xbd9cd9d7	-0.07658737
14	0xbe922a12	-0.28547722
15	0x3dfc950a	0.123331144
16	0xbf692605	-0.9107364
17	0x3ed31563	0.41227254
18	0x3eae1090	0.3399701
19	0x3f11aa55	0.5690053
20	0xbf896165	-1.0732847
21	0xbec23777	-0.3793294
22	0xbf5ee284	-0.87064385
23	0xbf02d18e	-0.51101005
24	0x3f74402f	0.95410436
25	0xbed8539e	-0.42251295
26	0x3e7c082c	0.24612492
27	0xbf0aab39	-0.54167515
28	0x3e0af063	0.13568263
29	0x3f2d7bb2	0.6776687
30	0x3d96d43a	0.07364698
31	0x3d369e10	0.044584334

running_var f4 [32]
0	0x3e69a262	0.2281585
1	0x3e822eb1	0.25426248
2	0x3e904215	0.28175417
3	0x3ece1549	0.40250614
4	0x3e649999	0.22324218
5	0x3ea2420b	0.31691012
6	0x3e5aafad	0.21356077
7	0x3d03bad0	0.03216058
8	0x3e2befc6	0.16790685
9	0x3e888159	0.26661184
10	0x3e35c898	0.17752302
11	0x3e71be79	0.23607816
12	0x3e9e3e65	0.30906978
13	0x3e9a1e0b	0.30101046
14	0x3e392a2c	0.18082494
15	0x3e7662ec	0.24061173
16	0x3ea48347	0.32131407
17	0x3e3e54bc	0.18587011
18	0x3e95c508	0.29251885
19	0x3e892d89	0.26792553
20	0x3e5d75d1	0.21626975
21	0x3dd724bf	0.10505056
22	0x3e60b461	0.21943809
23	0x3e627cf5	0.2211798
24	0x3e9769c4	0.2957288
25	0x3e3808a0	0.1797204
26	0x3e282ca2	0.16423276
27	0x3e8fd7d1	0.28094342
28	0x3e3acac8	0.18241417
29	0x3e378898	0.179232
30	0x3f052365	0.5200713
31	0x3e29ad99	0.16570129

weight f4 [32, 32, 3, 3]
0	0xbcae2e32	-0.021262262
1	0x3cf4fdba	0.029906143
2	0x3cd6dea7	0.026229216
3	0x3c56d2b4	0.013111759
4	0x3d5e26a2	0.054236062
5	0x3ce82eca	0.028342623
6	0xbd5458b1	-0.051842395
7	0xbcbb3d19	-0.022856282
8	0xbd6d2c6a	-0.057903685
9	0xbc18d923	-0.009329113
10	0x3d85cc6d	0.06533132
11	0xbd984587	-0.07435136
12	0x3d086690	0.033300936
13	0x3cb05c63	0.021528428
14	0xbd32b9fa	-0.043634392
15	0x3d32addd	0.04362284
16	0xbbf3a18e	-0.0074350303
17	0x3c316a8f	0.010828628
18	0x3ccc4001	0.024932863
19	0xbc6fbdcd	-0.014632654
20	0xbc983212	-0.018578563
21	0xbd82593b	-0.063646756
22	0xbc0e1008	-0.008670814
23	0xbd1c407c	-0.038147435
24	0xbd569e75	-0.05239721
25	0x3c84d982	0.016216997
26	0x3cc3a8ba	0.023884166
27	0x3db20ca7	0.086938195
28	0xbd0a6eff	-0.03379726
29	0x3c87c29d	0.016572291
30	0xbbe1a78e	-0.006886429
31	0xbd4d49f9	-0.050119374
32	0xbd60fd04	-0.054928795
33	0x3c195f22	0.00936106
34	0xbd62d2bf	-0.055376764
35	0xbc7990ce	-0.015232278
36	0xbccfffc5	-0.025390515
37	0x3cf0b901	0.029385092
38	0xbd393641	-0.045217756
39	0xbd4e2bc7	-0.050334718
40	0x3d4e8b24	0.050425664
41	0xbd3ab9b3	-0.045587253
42	0xbd82eb37	-0.0639252
43	0x3d17b40a	0.037036933
44	0xbd2bbf2f	-0.041930374
45	0xbcce0554	-0.025149025
46	0x3ca2eb85	0.019887695
47	0x3df6c09d	0.12048457
48	0xbddfc789	-0.1092673
49	0xbda9e0db	-0.08294841
50	0xbd507eb4	-0.050902084
51	0x3b45e908	0.0030198712
52	0x3d287d96	0.041135393
53	0x3d092ea4	0.033491746
54	0xbd2e9038	-0.042618006
55	0xbc283e59	-0.010268771
56	0x3d01011b	0.031495195
57	0xbd9d30d9	-0.076753326
58	0xbb0d45ac	-0.002155642
59	0x3c9f02b8	0.019410476
60	0xbcdcbabf	-0.026944516
61	0xbd370200	-0.04467964
62	0x3d3f561e	0.046712987
63	0xbd289904	-0.041161552
64	0xbd85e43c	-0.06537673
65	0xbd10805f	-0.035278674
66	0x3d39fe99	0.04540882
67	0x3dbd299a	0.092364505
68	0x3dc84fc2	0.097808376
69	0xbd5150de	-0.05110251
70	0xbd33e3ec	-0.043918535
71	0xbc59b14a	-0.013286898
72	0xbaf0bc3f	-0.0018366649
73	0x3d1b6c97	0.037945356
74	0xbbec8d6c	-0.0072190072
75	0x3b3f8b2a	0.0029227235
76	0xbb569de0	-0.003274791
77	0x3c35ddb4	0.011100221
78	0x3b0558a0	0.0020347014
79	0x3d3d6f7e	0.046248905
80	0x3d5217ea	0.051292337
81	0xbb0580f6	-0.0020371056
82	0xbcd6933a	-0.02619325
83	0xbaaefe8a	-0.0013351005
84	0x3aab8178	0.0013084849
85	0xbcf67688	-0.030085817
86	0xbc6f8c9e	-0.014620928
87	0x3d72889b	0.05921231
88	0x3d0c97d4	0.034324482
89	0x3d4b928f	0.049700316
90	0x3db0937e	0.08621882
91	0xbcba23bd	-0.02272212
92	0xbd7a0057	-0.06103548
93	0x3d72d3f8	0.05928418
94	0xbbcc071b	-0.006226433
95	0xbd083226	-0.03325095
96	0x3d2a28b2	0.041542716
97	0x3c91efd2	0.01781455
98	0x3c62947d	0.013829348
99	0xbcaa0c4f	-0.020757822
100	0xbc9ad14e	-0.018898632
101	0xbc666ca0	-0.014063984
102	0xbc282555	-0.010262807
103	0xbc1f3fa2	-0.009719761
104	0xbd08d4a5	-0.03340592
105	0x3c6e5b11	0.014548079
106	0x3c9c65a0	0.019091427
107	0x3cd00ad8	0.025395796
108	0xbc57c845	-0.013170307
109	0xbca80301	-0.020509245
110	0x3aff85d6	0.0019494842
111	0xbd1fda1e	-0.039026372
112	0xbdb244cc	-0.08704528
113	0xbd711d7b	-0.058866005
114	0x3aa9ec33	0.001296407
115	0xbc604a92	-0.013689654
116	0xbd88c3d1	-0.06677974
117	0x3c113c66	0.008864498
118	0x3d54d120	0.05195725
119	0x3d1eecbd	0.03879999
120	0x3d16abed	0.036785055
121	0x3d9946cb	0.07484206
122	0xbc0c9b54	-0.008581955
123	0xbbd3d789	-0.006464903
124	0xbc2f4a10	-0.01069881
125	0xbcbb16fb	-0.022838106
126	0x3d0be141	0.034150366
127	0x3ca7cb67	0.020482732
128	0x3bb989c9	0.005662177
129	0x3a111e46	0.0005535822
130	0xbc717f0e	-0.014739765
131	0x3c98122e	0.018563356
132	0xbce2dbbc	-0.027692668
133	0xbd024f24	-0.031813756
134	0x3cededc4	0.02904404
135	0x3cebd8f9	0.028789984
136	0xbc159b2e	-0.009131236
137	0xbd2872d8	-0.04112515
138	0xbb1019ae	-0.0021987963
139	0x3d2d083f	0.042244192
140	0x3c0a1880	0.008428693
141	0xbd362a41	-0.04447389
142	0xbc2b4ddc	-0.010455575
143	0x3b546b97	0.0032412761
144	0x3d05e07a	0.03268478
145	0xbc91c43b	-0.017793765
146	0xbcce9934	-0.025219537
147	0x3dc186d5	0.09449545
148	0x3c67d755	0.01415046
149	0x3cef94d2	0.029245768
150	0xbcbc0edf	-0.02295631
151	0xbd73d771	-0.059531633
152	0xbcfa07c5	-0.030521283
153	0x3c8664d0	0.016405493
154	0xbcb574ff	-0.022150515
155	0xbcef1cc1	-0.029188516
156	0x3d3a8f56	0.045546852
157	0x3c68eb47	0.014216251
158	0x3cb7b576	0.022425395
159	0x3cb0a68c	0.02156379
160	0xbd10ac19	-0.035320375
161	0xbd80c08c	-0.062867254
162	0x3ce7dd91	0.028303893
163	0xbd8dc94e	-0.069231614
164	0x3c48c958	0.012255035
165	0x3c88bde4	0.01669211
166	0xbca05542	-0.019571904
167	0x3cff32a7	0.031152083
168	0x3cca1708	0.024669185
169	0xbdcc20b1	-0.09967173
170	0x3d2cce14	0.04218872
171	0x3b23beee	0.002498563
172	0xbda3d0a6	-0.07998781
173	0xbe067c22	-0.1313329
174	0x3d2bd14d	0.04194765
175	0xbc4fdec6	-0.012687391
176	0x3caba242	0.020951394
177	0x3c7d076e	0.015443666
178	0xbd8a9575	-0.06766788
179	0xbd3a9029	-0.045547638
180	0x3be59d32	0.0070072645
181	0x3c6b8d9e	0.014377026
182	0x3cfef66b	0.03112336
183	0x3c92d96f	0.017925946
184	0xbcde0695	-0.027102748
185	0x3d11cd64	0.035596266
186	0xbce20bcb	-0.027593514
187	0xbd399858	-0.045311302
188	0x3d0fc128	0.035096318
189	0xbc4aa28a	-0.012367854
190	0xbcda96df	-0.026683269
191	0x3b96aeea	0.004598488
192	0x3c7f407f	0.015579342
193	0x3d2a4104	0.04156591
194	0x3c38e926	0.011286056
195	0xbd7dd877	-0.061974015
196	0xbcb6d439	-0.022317993
197	0xbbc4efa0	-0.006010011
198	0xbc26421a	-0.010147596
199	0xbd095d5b	-0.033536296
200	0x3bddea49	0.0067723137
201	0xbc274b70	-0.010210857
202	0xbcce5810	-0.025188476
203	0x3ca0682e	0.019580927
204	0xbcdf0e20	-0.027228415
205	0xbd33a2c2	-0.04385639
206	0xbcf8ff79	-0.030395256
207	0xbbd0d01e	-0.0063724658
208	0x3d5e3e90	0.054258883
209	0x3c27a0c9	0.010231205
210	0xbcf96a34	-0.03044615
211	0xbd37e4ef	-0.044896062
212	0xbd15f826	-0.036613606
213	0x3cceac79	0.025228726
214	0x3ce40cd2	0.027838144
215	0xbd97945c	-0.07401344
216	0xbd626afb	-0.055277806
217	0xbc5a64b2	-0.013329672
218	0xbc3a9433	-0.0113878725
219	0xbc0f5dea	-0.008750418
220	0x3c06d4f4	0.008229483
221	0xbc7a138d	-0.01526345
222	0xbccd719e	-0.025078591
223	0xbc9b782b	-0.018978199
224	0x3c818572	0.015810702
225	0x3cd3dd4d	0.02586236
226	0xbd4d1cbb	-0.050076228
227	0xbd920813	-0.07130446
228	0x3ca560a9	0.020187693
229	0xbd1c5cf4	-0.038174585
230	0xbb044ee6	-0.0020188629
231	0x3dc9dcd1	0.098565705
232	0xbd96742d	-0.073463775
233	0xb98b5fc9	-0.00026583511
234	0xbcbff580	-0.023432493
235	0xbce3f50d	-0.02782681
236	0xbd18d634	-0.037313655
237	0xbbb6fdc7	-0.005584452
238	0x3c179bd0	0.009253457
239	0x3c9745ce	0.018465903
240	0x3cd28943	0.025700217
241	0xbbbe5e24	-0.0058095623
242	0xbd444664	-0.047918692
243	0xbda66f84	-0.08126739
244	0x3dace9ca	0.08443029
245	0x3d78246a	0.060581602
246	0xbd318815	-0.04334267
247	0x3d0c38ca	0.034233846
248	0x3c327b57	0.010893664
249	0xbd24c509	-0.04022697
250	0x3c7ede92	0.015555995
251	0x3d37d945	0.04488494
252	0xbcc6ef88	-0.02428414
253	0x3bf55f0b	0.0074881366
254	0xbcde54d2	-0.027140055
255	0xbbd1a9b8	-0.006398406

bias f4 [32]
0	0x3d7df69d	0.062002767
1	0xbd1305fd	-0.035894383
2	0xbd9b2f6b	-0.07577404
3	0xbc954aa5	-0.01822407
4	0xbd27236e	-0.040805273
5	0x3d6edcec	0.058316156
6	0x3d7921e5	0.06082334
7	0xbbd5c333	-0.0065235137
8	0x3d35cd4e	0.044385247
9	0xbdaab0f5	-0.08334533
10	0xbd9059a2	-0.07048346
11	0xbd3ef2a3	-0.046618115
12	0x3bfd16d5	0.007723669
13	0xbc6e6f0c	-0.014552843
14	0xbd7b5d58	-0.061368316
15	0x3bfd67ee	0.0077333366
16	0xbb3c4e56	-0.0028733215
17	0xbbf5a5c2	-0.0074965665
18	0xbd117b84	-0.035518184
19	0x3c056f11	0.008144156
20	0x3c987533	0.018610572
21	0xbdc3bf82	-0.095580116
22	0xbcc0474a	-0.023471493
23	0x3cdb4977	0.02676843
24	0x3cf493aa	0.029855568
25	0xbaad81c1	-0.0013237522
26	0x3d59a07c	0.053131565
27	0x3bf34a83	0.007424654
28	0x3c1085de	0.008820979
29	0xbd32e18f	-0.04367214
30	0xbd1d0f5d	-0.03834473
31	0xb9b114b5	-0.000337755

weight f4 [32]
0	0x3f867ba4	1.0506482
1	0x3fb2be68	1.3964357
2	0x3f8087aa	1.0041401
3	0x3f82d85b	1.0222276
4	0x3f7fb1ef	0.9988088
5	0x3f985829	1.1901904
6	0x3fb8ed91	1.44475
7	0x3f82d798	1.0222044
8	0x3f85947d	1.043594
9	0x3f7a1e3d	0.9770239
10	0x3f808927	1.0041856
11	0x3f8ddb87	1.108262
12	0x3f7c3d10	0.98530674
13	0x3f76c292	0.9639064
14	0x3f7c6bdc	0.9860208
15	0x3f76f40c	0.96466136
16	0x3f7c0a77	0.9845347
17	0x4006a348	2.103716
18	0x3f7bea37	0.9840426
19	0x3f77adbe	0.96749485
20	0x3f890e3e	1.0707471
21	0x3f88332f	1.064062
22	0x3f936a2b	1.1516775
23	0x3fab98c1	1.3405992
24	0x3fde57ba	1.7370522
25	0x3f8bcc6f	1.0921763
26	0x3f83462e	1.0255792
27	0x3f7e1df6	0.99264467
28	0x3f8766ba	1.0578225
29	0x3f7044fc	0.9385526
30	0x3f7b782d	0.9823025
31	0x3f81ec4d	1.0150238

bias f4 [32]
0	0xbd261631	-0.040548507
1	0x3e95bb0a	0.29244262
2	0xbd293d71	-0.04131836
3	0x3d395996	0.04525145
4	0xbde029d0	-0.10945475
5	0xbe9efcbb	-0.31052193
6	0xbcc4ce27	-0.024024082
7	0xbe3484a1	-0.17628719
8	0x3d28bcb8	0.0411956
9	0x3cf40c1a	0.029790927
10	0xbbfd6453	-0.007732907
11	0x3d30aef5	0.043135602
12	0xbe64b7c4	-0.22335726
13	0x3e5524b9	0.2081479
14	0xbdc94d74	-0.09829226
15	0x3ea86d41	0.32895854
16	0x3e3ce191	0.18445422
17	0x3e5ffc81	0.21873666
18	0xbe5ee3d4	-0.21766597
19	0xbc863efe	-0.016387459
20	0x3d7cb521	0.061696175
21	0x3db70e03	0.089382194
22	0x3e35c98b	0.17752664
23	0x3d5bc621	0.053655747
24	0x3e94be23	0.29051313
25	0xbd1c1fa4	-0.038116112
26	0x3dbededd	0.093198515
27	0x3c147856	0.009061893
28	0xbb910fce	-0.004426933
29	0xbe155129	-0.14581741
30	0x3e8ccb30	0.2749877
31	0x3e0c1ace	0.136821

running_mean f4 [32]
0	0xbf078fa9	-0.52953583
1	0x3ddbfedb	0.10741969
2	0xbe812662	-0.25224596
3	0xbe0bb373	-0.13642673
4	0xbe537375	-0.20649512
5	0x3c776487	0.015099651
6	0xbeaf7bd7	-0.3427417
7	0xbf5152ce	-0.81766975
8	0xbe3547c3	-0.17703156
9	0x3d6506e1	0.055914763
10	0xbf0c9ab7	-0.54923576
11	0xbd3784ec	-0.0448045
12	0xbd7f32ab	-0.06230418
13	0x3f0bf69d	0.54673177
14	0x3eadf75c	0.33977783
15	0xbef5648d	-0.47928277
16	0x3e926296	0.2859084
17	0xbe65df57	-0.22448479
18	0x3e9f9498	0.31168056
19	0xbf021f21	-0.5082875
20	0x3e5e8324	0.21729714
21	0x3ebcded9	0.3688877
22	0xbc20708e	-0.00979246
23	0x3f38f6af	0.7225141
24	0x3e4ada8c	0.19809932
25	0xbc07296f	-0.008249625
26	0xbe894a54	-0.2681452
27	0xbda3b3e1	-0.079932936
28	0xbea48092	-0.3212934
29	0xbe3f3567	-0.18672715
30	0xbe93ada2	-0.2884341
31	0x3ddaf155	0.10690562

running_var f4 [32]
0	0x3e89243a	0.2678545
1	0x3e49aa02	0.19693759
2	0x3e8a47c8	0.2700789
3	0x3e4cce52	0.2000058
4	0x3e302444	0.17201334
5	0x3dddcca0	0.10830045
6	0x3e30a4a8	0.17250311
7	0x3e6c7e57	0.2309507
8	0x3ea243cb	0.31692347
9	0x3da71f30	0.081602454
10	0x3e72ee79	0.23723783
11	0x3e6ac295	0.2292579
12	0x3dcfbac6	0.10143046
13	0x3e475fb1	0.19470097
14	0x3db01dd4	0.08599439
15	0x3d8b7b7e	0.06810664
16	0x3e341d52	0.1758931
17	0x3d0900c7	0.033448007
18	0x3dce24a8	0.100655854
19	0x3d63bdf9	0.055601094
20	0x3d82c9fc	0.06386182
21	0x3e57c12e	0.21069786
22	0x3d7febe5	0.062480826
23	0x3d981066	0.07425003
24	0x3d81194d	0.06303654
25	0x3e124c1e	0.14286849
26	0x3e760a0f	0.24027275
27	0x3e25168e	0.16121885
28	0x3e803bbc	0.25045574
29	0x3d8764ee	0.06611048
30	0x3e12cb60	0.14335394
31	0x3e33ebc5	0.17570408
