TuiGAN/models/apple2orange/b4.pth (torch, 131453 bytes, 25 tensors)

weight f4 [32, 3, 3, 3]
000000 7b 1d 2d bc 50 01 08 3c 54 42 0a bc 86 41 14 3c
       -0.010566111 0.008301094 -0.008438665 0.009048825
000010 7b fb ea 3c fc 89 1d 3c 23 33 65 3c ef d3 fc 3c
       0.028684368 0.009615418 0.013989243 0.030862777
000020 b1 bd ce bc 14 92 2e ba c4 47 8d bc 5c f6 fa 3c
       -0.025236936 -0.00066593406 -0.017246135 0.030635051
000030 44 83 5c 3c 41 ae 91 3c 08 66 17 3d c2 b6 92 3d
       0.013459031 0.017783286 0.03696254 0.071637645
000040 e3 f0 06 3d 15 28 96 3d 6f d6 1e bd 71 d1 6f bd
       0.03294457 0.07331864 -0.03877872 -0.05854935
000050 c0 ca 9b 3d 01 9f 26 bb c9 86 e8 bc 08 11 9e 3d
       0.07607031 -0.0025424364 -0.028384583 0.07718092
000060 9e 37 85 3c a9 8d 3c bd eb da e8 3d 27 65 bf bc
       0.016261872 -0.046033535 0.1136988 -0.023363663
000070 91 5b 34 bd 6d 5a c9 bc c4 04 d4 bc 43 6d ae bc
       -0.044032637 -0.024579251 -0.025881179 -0.021292334
000080 26 c7 15 bd cf aa 28 bc 34 49 09 bc e0 56 8d bc
       -0.036566876 -0.01029463 -0.008379269 -0.01725334
000090 31 91 95 3d 06 12 33 3d 0d 2a 65 3d 98 f8 28 3d
       0.07303084 0.04371836 0.055948306 0.041252702
0000a0 e3 9c 2a 3c 2d 69 f9 3c 2c 18 0d 3d e4 0f 10 3d
       0.010413381 0.03044566 0.03444688 0.035171404
0000b0 b6 1d 27 3d 7c fd ec bc ac 93 ae 3b 7e 60 03 3d
       0.04079982 -0.028929465 0.0053276625 0.032074444
0000c0 2f 92 55 bc 20 d3 d9 3c 32 29 0d 3c de 84 cb bc
       -0.013035341 0.02658993 0.008615779 -0.02484363
0000d0 ce bc 80 3c 59 db a4 3c 03 8b aa bd 37 0d 5d bd
       0.01571503 0.020124124 -0.08327296 -0.05396768
0000e0 c2 53 77 bc bf 3c 16 bd 88 f2 8c 3b 24 ed 85 3c
       -0.015095653 -0.036679026 0.004301373 0.016348429
0000f0 be 1e c3 3c f6 98 4a 3d 58 01 c1 3d 12 2c 08 bc
       0.02381837 0.04946228 0.094240844 -0.008311288
000100 cf a6 ad 3a 10 eb 7e 3c 62 af b5 3b b7 40 96 b9
       0.0013248565 0.015558973 0.005544589 -0.00028658446
000110 97 f9 24 bc 5b 4c 36 bb 44 8d 0d 3c 6c fa 68 3c
       -0.0100692725 -0.0027816507 0.008639637 0.0142198615
000120 70 04 33 3d 06 fc 9d 3c ad a3 f1 3c d7 67 54 bb
       0.043705404 0.019285213 0.029496992 -0.0032410526
000130 64 34 91 bc 34 66 a4 bc 04 4c aa 38 ca 28 8a bc
       -0.017725177 -0.020068265 8.120391e-05 -0.016865153
000140 d4 62 0e bd 5c 55 6b 3d ba b9 a6 3d d5 77 37 3c
       -0.03476222 0.057454452 0.08140893 0.011198004
000150 f9 84 61 bb fa 79 0c bc 6c 40 33 3c 4d 61 e1 3b
       -0.0034411533 -0.008574003 0.010940652 0.0068780542
000160 57 5f e6 3c d3 ac 51 3c 45 50 ab 3c 78 0e 58 3d
       0.028121633 0.012797552 0.020912299 0.052748173
000170 33 4c 92 3d c3 91 fb ba 33 8a e9 bc f9 0c 28 bb
       0.0714344 -0.0019193221 -0.028508281 -0.0025642498
000180 30 42 95 bd 35 fa 66 bd 75 cb 8d 3b e3 16 d7 bc
       -0.07288015 -0.05639096 0.0043272325 -0.02625603
000190 92 17 26 bd 2d 12 3b bc d5 d6 97 3b 60 77 9f bd
       -0.040549822 -0.011417908 0.0046337643 -0.07786441
0001a0 40 21 46 3c b0 dc 0b 3d 6d d5 fe bc bb 35 11 3d
       0.012092888 0.03414601 -0.031107629 0.035451632
0001b0 55 dd 9d 3a 5f 2d c3 3c bb f6 c8 3c 7d a2 ee bc
       0.0012044111 0.023825346 0.024531713 -0.029130215
0001c0 65 f1 43 3c 0e 6c e0 3c 88 2e 23 3c 4a 62 12 bb
       0.011959408 0.027395274 0.009959824 -0.0022336417
0001d0 50 e6 31 bc ac 66 1e 3d 01 c3 5a bc 60 9a 4c 3d
       -0.010858133 0.038672134 -0.013352157 0.04995191
0001e0 48 ea 66 bc d3 d5 49 bd 37 99 71 bc b2 9f 3b 3d
       -0.014093943 -0.049276184 -0.014746002 0.045806594
0001f0 97 59 d8 bc 1b a7 39 3c 0b e5 e7 3d df 56 bc bc
       -0.026409907 0.011331345 0.11322983 -0.022990642
000200 f5 f4 af 3a 83 2c da bb be d9 aa bd 70 35 56 b9
       0.0013424443 -0.0066581382 -0.08342312 -0.00020428537
000210 b4 d4 f0 3d 4f 7e 49 3c e0 3f f6 3c f3 6b b2 bb
       0.1175932 0.012298181 0.030059755 -0.0054449975
000220 76 ee f5 3c 77 fd 9e 3d af 0f b7 bc d8 13 15 bc
       0.030020934 0.07763188 -0.022346346 -0.009098969
000230 13 23 0f 3d 47 53 e6 bd b7 ce 25 bd 1b a0 d7 bc
       0.03494556 -0.11246353 -0.04048034 -0.026321461
000240 d5 ea 64 bd b2 c9 be 3b f2 c1 05 3d eb 84 00 bd
       -0.055888016 0.005822384 0.032655664 -0.03137676
000250 f0 77 95 3b 95 38 98 3c ac a8 6d bd 14 d4 8f 3b
       0.004561417 0.018581668 -0.058022186 0.0043892954
000260 32 b6 de 3c 28 b8 b9 3a 06 07 cf 3c 75 82 6a 3c
       0.027186487 0.0014169263 0.025271904 0.01431333
000270 dc 3c 45 bc 51 c9 33 3c bc ee b6 3b 6d 50 27 bc
       -0.012038436 0.010973291 0.0055826586 -0.010212046
000280 f4 ab af 3c 94 31 00 3d 3d 57 19 3d 97 0a 45 bc
       0.021444298 0.03129728 0.037436713 -0.012026451
000290 d9 32 7b bb 8f 87 92 3c f9 af 73 bc 27 3c 1b bd
       -0.0038329868 0.017886905 -0.014873498 -0.037899163
0002a0 fb d1 b3 3c 4b a8 05 bc 3b e5 69 3c 22 79 0b bb
       0.021950712 -0.0081578 0.014275844 -0.0021281918
0002b0 9d 79 0b 3d 63 81 c4 3c 6e bf b9 3a b5 78 02 3d
       0.034051526 0.023987478 0.001417143 0.031853396
0002c0 18 0e da bc 30 28 33 bc 44 c9 0d 3c 25 2b 9b 3c
       -0.026618049 -0.010934874 0.0086539425 0.018941471
0002d0 70 dd df bc ec 75 3a 3d b9 21 7e bd 70 8c ce 3b
       -0.02732727 0.045522615 -0.06204388 0.0063033625
0002e0 85 3f a0 3d 33 01 74 bd 32 96 bc bd 15 83 50 bd
       0.078246154 -0.059571456 -0.09208335 -0.05090626
0002f0 1f 3f 19 be 90 d8 a9 bb e5 45 03 3c 4b 99 03 3d
       -0.14965485 -0.005183287 0.00801227 0.032128613
000300 1c 03 98 3b cc a6 ec 3b ee 48 d2 3c 1e e1 31 bc
       0.0046390425 0.007222032 0.025669541 -0.010856895
000310 82 90 4a 3c c9 12 15 3d 0c 8f be bd cf c6 dc bc
       0.012363555 0.036394868 -0.09304628 -0.026950268
000320 d9 9b 74 bc d3 4f 15 bd 3a 40 f9 bb 1a 8f e3 3c
       -0.014929735 -0.03645308 -0.0076065334 0.027778197
000330 a6 0d 26 bd eb c7 0e 3d 04 34 77 3d 57 d9 db bd
       -0.04054036 0.034858625 0.06035234 -0.10734814
000340 c4 ee da bc 3c 4b de 3b 47 61 46 bd a2 f9 07 bc
       -0.02672518 0.006783871 -0.048432615 -0.008299263
000350 c4 d3 00 3d a3 ee 1f bd c1 17 d0 ba 53 81 2c 3d
       0.031451955 -0.03904594 -0.001587622 0.04211552
000360 30 56 b5 3c 41 78 47 3c ff 29 f3 3b 63 aa 1a bd
       0.022135824 0.012174667 0.007420778 -0.03776015
000370 99 51 34 3c e8 07 d3 3c e1 af f6 bc 33 58 32 ba
       0.0110057825 0.025760606 -0.030113162 -0.0006803304
000380 a6 92 33 3d 20 d0 db 3c 9f b2 1c 3c 0b 4a ae bb
       0.043841027 0.02683264 0.009564071 -0.005318885
000390 e1 c8 93 bc 1e 56 d6 bb d4 53 f0 bc a5 03 1d bd
       -0.018040122 -0.0065410277 -0.029336847 -0.038333554
0003a0 f4 88 0c bc 47 53 3b bc 8a 02 50 3d 91 fc a1 3d
       -0.008577574 -0.011433429 0.05078367 0.07909501
0003b0 ed a8 94 3d a4 d7 2f 3d d3 1e 9e 3d 78 e4 59 3d
       0.072587825 0.04293026 0.07720723 0.0531964
0003c0 72 77 44 3d 1e a4 ae 3d d9 1f 4e 3d 7d ab ee bc
       0.047965474 0.085273966 0.05032334 -0.029134506
0003d0 4d 17 0b 3d b8 41 8e 3d a4 9c e3 bc f0 65 a1 3c
       0.03395777 0.069461286 -0.027784653 0.019701928
0003e0 09 95 a0 bc e1 59 80 bc a4 18 c4 bc 7c b9 c5 bc
       -0.019602316 -0.015667858 -0.02393753 -0.024136297
0003f0 d8 4b 40 3d ba ca 33 3d f4 b6 5c bc 2b 35 92 3b
       0.04694733 0.043894507 -0.013471354 0.0044619045

bias f4 [32]
000000 ca d6 fd 3d c6 21 aa 3d 9d b3 88 3d 8a 65 0f be
       0.123944834 0.08307223 0.066748835 -0.14003578
000010 5a 70 12 bd 5f 9d ec 3d df 4d 76 3d 65 1f 00 be
       -0.035751678 0.11553454 0.060132857 -0.12511976
000020 3b bf d8 3d 12 f9 80 3c 07 c9 45 3a 06 b1 0c be
       0.10583349 0.015743766 0.0007544909 -0.13739404
000030 96 46 a0 3d 7a e4 88 bd 83 04 ae 3d e4 b5 29 3e
       0.07825963 -0.066842034 0.08496954 0.16573292
000040 cd 0b f6 3d 51 ad bf bd eb 10 57 bd 4f a3 8c bd
       0.120139696 -0.09359229 -0.05250637 -0.06867086
000050 56 67 13 3d 27 fe 60 bd aa 1b 34 be 5c 5d fb bc
       0.03598722 -0.05492988 -0.17588678 -0.030684166
000060 74 9f 04 bc 21 79 c5 3d 59 07 14 be 16 2f 1e 3c
       -0.008094657 0.09642244 -0.14455928 0.009654781
000070 64 94 0a 3e 04 44 13 bd 96 a7 9d bd 72 a6 6e bd
       0.13533169 -0.035953537 -0.0769798 -0.058264203

weight f4 [32]
000000 6e 30 8f 3f ac 06 7e 3f b1 bd 5e 3f 25 99 66 3f
       1.1186655 0.9922893 0.87008196 0.9007743
000010 21 17 74 3f 5f c1 83 3f 2d 8d 7e 3f 34 0c 71 3f
       0.9534779 1.0293387 0.9943417 0.94159245
000020 5b 56 61 3f 21 c3 53 3f 02 3e 81 3f b0 1c 7b 3f
       0.88022393 0.8271962 1.0097048 0.9809065
000030 85 8c 89 3f ae 4a 41 3f 4c c6 63 3f 9c 04 58 3f
       1.0746008 0.7550458 0.8897445 0.84382033
000040 47 16 70 3f fd 79 78 3f 8d f1 79 3f c2 e5 70 3f
       0.9378399 0.9706114 0.976342 0.9410058
000050 5a d6 71 3f c7 04 6f 3f b7 51 85 3f 8a 08 6b 3f
       0.944677 0.93366665 1.0415562 0.91809905
000060 be c6 53 3f b7 a3 70 3f 53 06 76 3f c9 1d 83 3f
       0.8272513 0.9399981 0.961034 1.0243465
000070 5b bb 67 3f 1e 60 5c 3f 83 c6 81 3f 4f f6 74 3f
       0.90520257 0.86084163 1.0138706 0.9568834

bias f4 [32]
000000 3b 7a 8c 3e 75 2e 88 3e 08 87 74 3e a5 c2 5b 3e
       0.27437004 0.26597944 0.23879635 0.2146097
000010 bc f5 22 3e 66 f4 26 3e c0 f7 8f 3d 0a 85 fa 3e
       0.15914053 0.16304168 0.070296764 0.48929626
000020 08 c6 92 3e 29 62 23 3f 3a 59 58 3e a1 79 a1 3d
       0.2866671 0.63821656 0.21127787 0.07884527
000030 8b 8d 8c 3e cb 07 c4 3e 50 57 a0 3e 5f 3a 0d 3f
       0.2745174 0.38287196 0.31316614 0.5516719
000040 14 7e e0 3e a8 dd 1d 3e bc c3 ea 3e 5a a6 04 3f
       0.4384619 0.15416586 0.45852458 0.5181633
000050 0e 59 b8 3e 34 fb f6 3e 99 9d 8e 3e 64 f1 09 3f
       0.36005443 0.48238528 0.27854612 0.5388396
000060 96 78 d6 3e fb 04 01 3f a2 62 ab 3e e2 44 43 3e
       0.41888875 0.50398225 0.33473688 0.19069245
000070 15 4e b1 3d 22 7b 0a 3f b9 13 07 3f c9 67 3a 3f
       0.08657471 0.54094136 0.5276447 0.72814614

running_mean f4 [32]
000000 c1 ae ea bd 80 f6 53 be 12 c9 59 3d 68 e5 af 3b
       -0.11459113 -0.20699501 0.05317027 0.0053679235
000010 a6 ac 45 be 98 75 37 3d fc 14 a2 3e bb ea c5 3d
       -0.19304141 0.04478988 0.31656635 0.09663912
000020 25 c6 bf be d5 6b 1a 3d b7 4c c8 bd 6b 2e b7 bd
       -0.3745586 0.037700493 -0.09780257 -0.089444004
000030 f1 f1 fa be 38 96 40 bc a9 78 78 3d 55 3d ab 3e
       -0.49012712 -0.011754565 0.060661945 0.3344523
000040 dd 3b a3 3d 7a 7a 9c 3c f1 a5 fa 3d 04 fd 36 bf
       0.079704024 0.01910137 0.12238682 -0.7147982
000050 be 14 4d 3d c1 01 bc 3d f6 b9 28 be cf ab 00 3f
       0.05006861 0.09180022 -0.16477188 0.5026216
000060 a7 16 95 be 78 32 eb 3d 73 e9 9b be c0 e8 93 be
       -0.29118845 0.114842355 -0.30451545 -0.28888512
000070 ef 79 5c 3e 86 5d aa bd 2f 24 a4 be 91 d9 e1 be
       0.21530889 -0.083186194 -0.32058856 -0.44111302

running_var f4 [32]
000000 c4 4f 4c 3c 40 68 64 3b de 27 37 3a de 8a d9 3b
       0.0124701895 0.0034852177 0.00069868367 0.0066388687
000010 68 54 01 3b f2 93 66 3b 43 92 fe 3a 64 bb 14 3b
       0.0019734148 0.0035183397 0.0019422251 0.0022694701
000020 27 27 2c 3b c4 46 57 3a 60 94 2c 3c 14 49 7d 3b
       0.0026268454 0.0008212144 0.010533422 0.0038648294
000030 3e 0c 23 3c 81 04 cf 3a 38 18 f2 3a 9b 25 e5 3a
       0.009951649 0.0015794189 0.0018470353 0.0017482521
000040 ed 04 49 3b 39 d4 30 3b 4b 81 bb 3b 8a 2d 9f 3b
       0.0030673102 0.0026981963 0.0057222 0.0048577236
000050 2c ed 76 3b 4f f6 2e 3c a3 9a 87 3b 29 eb f6 3c
       0.0037677987 0.010678842 0.004138307 0.03014143
000060 38 7d 13 3b 49 63 b5 3a c1 c9 0a 3b a2 26 76 3c
       0.0022505056 0.0013838793 0.0021177384 0.015023859
000070 9b 74 30 3c ad e1 d4 3a be 63 47 3c 6c 7d 5f 3b
       0.010769988 0.0016241573 0.0121697765 0.0034101857

weight f4 [32, 32, 3, 3]
000000 d7 d2 56 3a 11 6e 66 ba 78 82 8f bb a6 7b ab bd
       0.000819487 -0.0008790205 -0.0043795668 -0.083731934
000010 d5 2d 7d bd fd 6e 4c bc 26 e4 c7 bd 7e 1d b1 bd
       -0.061811287 -0.012477634 -0.09760313 -0.08648203
000020 57 96 44 bd 42 42 c5 3a 9c 1b cf 3a 69 9e a2 bc
       -0.047994938 0.0015049654 0.0015801075 -0.019850926
000030 0b aa 23 3d 99 1a 70 3c a2 f1 65 bd 7e 67 0c bd
       0.039957087 0.014654779 -0.056138642 -0.034278385
000040 7b 8a 14 bd b6 7e 7c bd c2 33 1f bd ad 2e b5 3c
       -0.036264878 -0.06164428 -0.03886772 0.022116983
000050 61 47 77 bc 44 bd 13 bd ac d3 e9 3c 1c 8e 07 3b
       -0.015092702 -0.03606917 0.028543316 0.002068407
000060 d5 d6 f4 bb bf e7 a4 3c 08 90 4a bb bb a9 83 bd
       -0.007471899 0.020130036 -0.0030908603 -0.06428858
000070 a9 2b 90 bb 20 b0 35 bc e1 e8 b3 bd 2c cb 3c bc
       -0.004399736 -0.011089355 -0.087846525 -0.011523049
000080 c9 02 57 bb 91 7d b6 bd 3f 8f 01 bd d6 57 2c bc
       -0.0032808057 -0.08910669 -0.03163075 -0.010518989
000090 5d 52 c7 bb e5 96 37 bd 8b 86 7e bd c3 f7 5a 3d
       -0.0060828165 -0.04482164 -0.06214003 0.05345894
0000a0 82 db 4e bd a4 3e 47 bd 8e 33 c6 3b 52 b5 87 bd
       -0.050502308 -0.048643723 0.0060486263 -0.06626381
0000b0 0d de 05 bd f3 59 ac 3c 92 ae 6e 3b ad 3b 91 3c
       -0.032682467 0.021038985 0.003641997 0.017728651
0000c0 b5 f6 d4 bb ff d4 f1 bc e9 60 62 bd fe 09 01 3c
       -0.0064991363 -0.02952051 -0.055268202 0.0078759175
0000d0 12 d5 38 bd 3e 43 8c bd 59 c6 4e bc 2f f9 3c bd
       -0.045125075 -0.06848763 -0.012620532 -0.046136077
0000e0 3c 71 52 bc 15 45 44 3c 10 f4 53 bd 39 df ef bc
       -0.01284438 0.011979361 -0.051746428 -0.029281246
0000f0 c7 76 2b bd 5f 96 d0 bc 7d e3 0e bd d3 29 85 bd
       -0.04186132 -0.025462328 -0.03488492 -0.06502118
000100 88 93 02 bc 36 50 8a bc 7c 53 bf 3c e1 d5 22 3c
       -0.0079697445 -0.01688395 0.023355238 0.009938688
000110 a4 35 34 bd 3f c7 22 3d 7b 32 ee 39 eb c2 9c bd
       -0.04399647 0.039740797 0.00045432508 -0.07654365
000120 01 18 e9 3c 9a e1 55 bd 16 37 09 bd f1 a2 2f 3b
       0.028453829 -0.052217104 -0.0334998 0.0026800002
000130 65 5e 4a bd fa 96 a8 bd 1a de 21 3b 3f a7 c1 bc
       -0.049406428 -0.082319215 0.0024699033 -0.02363932
000140 ec 51 14 bd 6b 42 73 3d cd 0b b7 3b d7 47 ba 3d
       -0.03621094 0.059389513 0.0055861236 0.090957336
000150 4f 05 ce 3b 4a 0d a2 bc 07 30 c6 3c b5 d2 b0 3c
       0.006287254 -0.019781727 0.024192823 0.021584848
000160 08 a8 94 bb 6f e1 b1 bb b7 24 e5 ba b8 97 77 3d
       -0.0045366324 -0.005428485 -0.0017482255 0.060447425
000170 4f a1 8b 3d ef 3a 31 3c 1a 1e c5 3c fc 1a c1 3c
       0.068178765 0.0108172735 0.024062205 0.023572437
000180 f8 12 43 3c b0 a8 ed bc e8 84 6c bc c8 4d 1c 3c
       0.011906378 -0.0290111 -0.014435984 0.009540029
000190 46 83 87 3c a7 c9 9e bc 6a 34 39 3c 3c 0f 47 bc
       0.016542088 -0.019383265 0.011304 -0.012149628
0001a0 26 d5 50 bd c0 2f de bd cf cd c5 bd 12 7a 05 be
       -0.050984524 -0.10848951 -0.096583955 -0.13034847
0001b0 d2 b3 50 3d 46 da 8b bc ce 13 f3 bc cd f9 5f bd
       0.05095274 -0.017071854 -0.02967253 -0.054681588
0001c0 75 05 47 bd e0 74 d8 bc cb 7b 92 bd b3 9d 67 bd
       -0.04858919 -0.026422918 -0.07152518 -0.056546878
0001d0 6e f7 85 bb 73 34 28 3d cb cd 22 3d 93 32 b2 3b
       -0.004088334 0.041065644 0.03974704 0.005438158
0001e0 a4 c4 04 bd d7 86 36 3c 7f 45 88 bd a5 38 64 bd
       -0.032414094 0.011140547 -0.0665388 -0.055718083
0001f0 ed 2c 94 bb ec 64 53 bd cd 64 14 bd 9b f9 e2 bc
       -0.004521957 -0.05160992 -0.036228944 -0.027706912
000200 85 bd 80 bd 01 12 72 bd 33 b2 78 3b bc 36 8b 3c
       -0.06286148 -0.0590992 0.0037948012 0.016993873
000210 f8 01 40 bd 63 ae 6b 3d 27 5d 19 3d 19 33 81 3b
       -0.046876878 0.057539355 0.037442353 0.003942859
000220 76 c0 b4 bb 4f cb f6 bc b2 e6 3d bc 97 2e 45 bd
       -0.005516107 -0.030126242 -0.011590647 -0.048140135
000230 2e 67 22 bd 0a de 24 3c d7 12 d0 3c b7 7b e5 bc
       -0.03964918 0.010062704 0.025399609 -0.028013093
000240 7c 83 5b 3d ea db da 3c 20 95 56 bd e5 8d 82 3c
       0.05359219 0.026716191 -0.05238831 0.015936801
000250 47 ee fe 3c 58 0f a0 bc fb d6 58 bc bf 26 8c bc
       0.031119479 -0.019538566 -0.013234849 -0.01710832
000260 bd 51 09 bb 14 2a 5e bb 51 4c 54 3d 99 b8 a2 3d
       -0.002095326 -0.0033899592 0.051830593 0.079453655
000270 50 35 2a bd 1e 57 d7 bc 31 30 84 bb d3 54 ea 3c
       -0.04155475 -0.026286658 -0.004034065 0.0286049
000280 1f c7 f3 3c d3 a9 1c 3d e8 b0 84 bc a8 e7 8d 3c
       0.029758034 0.038247894 -0.016197637 0.017322376
000290 04 8f 70 bc 9c 45 28 bd 6e 5b c3 3c 89 a9 14 3c
       -0.014682535 -0.04108201 0.023847308 0.009073623
0002a0 1f 78 69 bc 35 0d 92 bc 1a 04 30 bc 19 74 d4 bc
       -0.0142498305 -0.017828563 -0.010743165 -0.025934266
0002b0 d4 92 96 bc 95 ba af 3c 1a c3 a8 3c 52 e8 bd bc
       -0.01838056 0.021451274 0.020600844 -0.023182068
0002c0 ca 2e e5 3d 7b bc 87 3d b3 65 e3 3c 49 c1 2a 3e
       0.11190565 0.06627747 0.027758455 0.16675295
0002d0 dc de 88 3c 47 40 ce 3c 6a 55 1d bd ef 01 b2 bc
       0.01670783 0.025177134 -0.038411535 -0.021729438
0002e0 78 e3 83 3c b9 61 51 bd 03 60 23 3b d4 a6 21 bd
       0.016099676 -0.051118586 0.0024929054 -0.03946574
0002f0 1b 47 0f bd 36 65 93 bd 9c 43 09 bd 8e 23 2c bd
       -0.03497992 -0.07197039 -0.033511743 -0.042026095
000300 f6 52 90 bc 98 f2 0b bd 8e 4b 3a bd 84 93 22 bd
       -0.017617684 -0.034166902 -0.04548221 -0.039691463
000310 5e 37 37 bd 85 e8 af bd 22 95 38 3d 35 e6 49 3b
       -0.044730537 -0.085892715 0.0450641 0.003080738
000320 a3 09 9c bd e3 a9 35 3d ac 64 1b 3d e8 60 32 bd
       -0.076190256 0.04435147 0.037937805 -0.04354945
000330 07 cf 87 bd 99 dd 20 bc a9 a0 9e bd 14 7f 10 bd
       -0.06631284 -0.009818458 -0.07745487 -0.03527744
000340 c5 3a 2c 3b 3a 18 b2 3a a6 93 6b bd 1c 1d 66 3b
       0.0026280147 0.0013587542 -0.057513855 0.0035112565
000350 6c ff 15 bd fa 2f 44 bd 20 1d 0f bc 0c 13 5c bd
       -0.036620542 -0.047897317 -0.008734971 -0.053729102
000360 b5 3a ea 3b 33 bf 8c 3d 71 de f9 3b 41 63 80 bc
       0.0071481117 0.06872406 0.007625394 -0.015672328
000370 9a f7 c0 3c 2d a9 ae 3a be 8f 07 be e3 43 83 bd
       0.023555566 0.0013325565 -0.13238427 -0.06409433
000380 93 83 80 bd 41 b6 19 bd ab 05 05 3b 0e fb c8 bc
       -0.06275096 -0.037527326 0.0020297568 -0.024533775
000390 c2 98 34 3b f1 06 0d 3d 58 cd 98 3c 14 01 ef 3b
       0.002755687 0.034430448 0.018652603 0.0072938297
0003a0 98 d8 47 bc 39 40 83 3c 22 ec 30 3d dc 57 f1 3c
       -0.012197636 0.016021835 0.043193944 0.02946084
0003b0 54 de f1 bc ff c4 68 bd 38 51 ce 3c 4e eb 6f bc
       -0.02952496 -0.056828495 0.025185212 -0.014643503
0003c0 b5 c9 27 bd 4c 79 29 3c b1 46 06 3d e9 cf 9b 3a
       -0.040963847 0.010343861 0.03278226 0.0011887524
0003d0 61 d2 11 3c 07 63 ac bc 08 c6 94 bc c7 d2 b6 3b
       0.008900256 -0.021043314 -0.018160835 0.005579326
0003e0 4f 5e 02 38 3e 7b 42 3b 40 8b 24 bd 29 2d 3f bd
       3.1082247e-05 0.002967551 -0.04017186 -0.046673927
0003f0 49 d5 32 bc 75 4b ce 3b ec 5f ac 3c d0 35 3b 3b
       -0.010915109 0.0062956163 0.021041833 0.002856601

bias f4 [32]
000000 f7 29 22 bd 12 e6 fb bc 30 05 ba 3c 01 7d b0 ba
       -0.039590802 -0.030749355 0.022707552 -0.0013464988
000010 20 26 af 3c 2f 91 05 3d 3b 22 f0 bc 34 fe 1f bc
       0.021380484 0.03260916 -0.029313197 -0.009765197
000020 85 27 ca 3b 12 00 3f bd 9f 87 0e bc 05 6e 02 3d
       0.006169262 -0.046630926 -0.008699327 0.031843204
000030 e8 44 27 3d 68 bb e5 bc 43 0e 47 3d fb 31 00 bd
       0.0408372 -0.028043464 0.048597585 -0.031297665
000040 e5 d4 0d bd cb a9 df 3c 2d 8f 52 bc 42 36 62 bd
       -0.03462686 0.027302643 -0.012851519 -0.055227526
000050 60 f8 3e bd 24 24 2e bc 68 c7 c4 3c 45 21 75 bd
       -0.046623588 -0.010628734 0.024020866 -0.05984618
000060 4e 3d 68 3c 1e eb 6e bc ce 77 d9 bc c4 9e 06 bc
       0.014174772 -0.0145824235 -0.026546385 -0.008216564
000070 1f ae 13 bd 70 ff 15 bd a9 3e e7 bc f1 d0 1f 3d
       -0.036054727 -0.036620557 -0.02822812 0.03901762

weight f4 [32]
000000 b0 0f 82 3f d1 c0 77 3f f3 54 73 3f a6 5d 60 3f
       1.0161037 0.9677859 0.950515 0.87642896
000010 2d 81 83 3f 42 c1 85 3f 8d ed 7b 3f 4e 35 79 3f
       1.0273796 1.0449603 0.9840935 0.9734696
000020 6b 40 74 3f 40 07 6a 3f a1 3e 86 3f d8 76 7c 3f
       0.95410794 0.9141731 1.0487863 0.9861884
000030 78 72 78 3f 17 f0 72 3f ae c2 67 3f f8 43 74 3f
       0.97049665 0.948976 0.9053143 0.9541621
000040 f1 20 74 3f 33 7f 6d 3f 69 0c 84 3f 17 5e 7c 3f
       0.95362765 0.92772216 1.0316287 0.9858107
000050 8f f2 7a 3f 3a 64 81 3f 9b 31 63 3f 7a c1 60 3f
       0.98026365 1.0108712 0.88747567 0.8779522
000060 f0 57 73 3f b3 5c 5f 3f 29 a2 7e 3f 92 a7 71 3f
       0.95056057 0.8725082 0.99466187 0.94396317
000070 fd 96 86 3f 2a 34 4b 3f 8b 37 8a 3f 34 70 6b 3f
       1.0514828 0.7937647 1.07982 0.91968083

bias f4 [32]
000000 8f f7 6f 3d 25 31 6e 3e 39 d0 20 3f ac 44 b5 3e
       0.0585857 0.23260935 0.6281772 0.35403955
000010 92 86 a1 3e 46 a2 68 3e 2b 0d eb 3e 99 41 1e 3f
       0.31547982 0.22718152 0.45908484 0.61818844
000020 77 3a 97 3e f9 74 b0 3e 10 50 76 3e 36 c2 5b 3d
       0.29536793 0.34464243 0.24053979 0.05365201
000030 d9 6c 8a 3e a1 15 d7 3e 79 23 e3 3e 4b 6b 1b 3e
       0.2703617 0.4200869 0.44363 0.15177648
000040 38 3b 48 3e eb ae 7f 3f 34 69 3c 3e 26 89 19 3c
       0.1955384 0.9987628 0.18399507 0.009371078
000050 a5 48 63 3e fa 73 ac 3d 0d 0a 13 3f 49 1b b4 3e
       0.2219568 0.08420558 0.5743721 0.35177067
000060 3b ee b7 3b 62 43 b8 3e 86 9d 01 3f a1 f6 e2 3e
       0.005613116 0.3598891 0.50630987 0.44328788
000070 48 5c b1 3e b4 31 ca 3e 73 7f 6a 3e 47 2b ba 3e
       0.34640718 0.39491045 0.2290018 0.36361143

running_mean f4 [32]
000000 bd 45 e4 bf df fb 7d bf a3 e3 03 c0 c4 cf 20 3f
       -1.7833782 -0.9921245 -2.0607688 0.62817025
000010 cc 4b 30 bf 33 58 35 3f b2 9f b6 3f 34 7a e1 3e
       -0.68865657 0.70837706 1.4267485 0.44038546
000020 5e ac 1d c0 80 b9 02 40 ea 43 f7 be 41 c7 ee be
       -2.4636455 2.042572 -0.48294002 -0.46636394
000030 d6 25 af 3e d0 7b cc 3e 35 83 0c 3e cf 26 9f 3e
       0.34208554 0.3993821 0.13721927 0.31084296
000040 5b c4 c0 3e 6f 22 50 3e 5f 92 d4 bf de 52 e5 bf
       0.37649807 0.20325635 -1.6607169 -1.7915914
000050 34 4a 4e be a5 41 14 c0 28 4a 27 bf b8 69 e9 3d
       -0.20145494 -2.3165066 -0.6534753 0.113971174
000060 35 ef 02 3f b0 aa b4 be d0 08 b5 bf 59 29 bc 3f
       0.5114625 -0.35286474 -1.4143314 1.4700118
000070 f2 67 f6 3f 58 04 63 3d d8 35 e8 3f 89 2e 87 3f
       1.9250472 0.055424064 1.8141432 1.0561076

running_var f4 [32]
000000 2d f0 81 3f ea 1c bc 3f 2c a8 0d 3f 06 52 44 3e
       1.0151421 1.4696324 0.55334735 0.19171914
000010 36 fb b2 3e 1f e4 d5 3e 4b 77 11 3f 4f 43 79 3e
       0.34957284 0.41775605 0.5682265 0.24342082
000020 22 ec 37 3f d5 62 06 3f d8 b7 72 3e b9 74 c6 3e
       0.71844685 0.52494556 0.23702943 0.38760927
000030 ab ed d6 3e f0 61 05 3f f1 8e 7a 3e c2 87 f8 3e
       0.419782 0.52102566 0.2446859 0.48541075
000040 aa 0a eb 3e 4e d0 d3 3d 0a 28 90 3f 71 cd 94 3f
       0.45906574 0.10342465 1.1262219 1.1625196
000050 bb 9d e7 3e bf 36 4a 3f 8e f2 dd 3e 76 76 24 3e
       0.45237526 0.78989786 0.43349117 0.16060814
000060 7d 5f 98 3e b3 06 24 3e 73 3b 93 3e 05 6f ad 3e
       0.29760352 0.1601818 0.28756294 0.33873764
000070 cb c8 73 3f 67 5f 3c 3e a4 d3 1a 3f 94 d9 c1 3e
       0.9522826 0.18395768 0.6047919 0.3786131

weight f4 [32, 32, 3, 3]
000000 26 41 32 bc 2d 07 9a 3c 29 cc 1d 3d 10 75 43 bc
       -0.01087979 0.01880225 0.03852478 -0.011929765
000010 6b 7f 4b 3d 24 84 b3 3b 1a 58 6e bc 00 61 62 bc
       0.049682062 0.005478399 -0.014547372 -0.013817072
000020 90 e3 b2 bb 5e 20 12 3c 29 ec 94 bc 67 e6 04 bc
       -0.0054592565 0.00891885 -0.018179016 -0.008111573
000030 e8 93 cc bb 29 7a 36 3c 69 a6 b4 3c 09 e7 f4 3b
       -0.0062432177 0.011137524 0.022052007 0.0074738306
000040 c2 b4 d2 3c 60 91 72 bc d6 34 58 3d 98 55 ff 3c
       0.025720958 -0.014805168 0.052784763 0.031168744
000050 d7 32 a0 3d 65 bd 1d 3c 29 8c 06 3c 92 27 20 3d
       0.07822197 0.009627675 0.008212128 0.039100237
000060 48 fc a5 3a d0 5f 1f bd 04 5a 34 bd 6b e2 28 3d
       0.0012663687 -0.038909733 -0.044031158 0.041231554
000070 fb 7e 6f bc a5 67 97 3b d5 61 8c bd 34 d7 e0 3c
       -0.014617677 0.0046205097 -0.068545975 0.027446367
000080 72 e6 39 bb ac 54 6b bc 04 2f ec 3c 4c 6c 24 bc
       -0.0028366116 -0.014363449 0.028831013 -0.010035586
000090 bc 4b 0d bd d4 5f 92 bd 61 9c c5 bc 23 b8 c0 3b
       -0.034496054 -0.07147184 -0.024122419 0.005881326
0000a0 9b fb 1d 3c 4a e0 17 3d 98 f6 40 3d f6 2a 94 3d
       0.009642507 0.037079133 0.04711017 0.07234757
0000b0 d7 da a2 3d 7c 2d 0d 3d d6 e5 37 3b 14 99 9c 3d
       0.07951897 0.034467205 0.0028060577 0.07646385
0000c0 2a ba a8 3c 0b 24 f2 3c 76 7d 9c 3d 92 68 e3 3c
       0.020596582 0.029558202 0.07641117 0.027759824
0000d0 99 aa 03 bc ce 39 43 bd d5 3a c0 3c a9 36 32 3d
       -0.008036279 -0.04766255 0.023465553 0.04350916
0000e0 1f c0 c1 bb 72 b2 dd 3c 36 88 94 3c c5 c5 1a bd
       -0.005912795 0.027062628 0.018131357 -0.037786264
0000f0 5a 05 f6 bc 9c a2 ba bb 13 5c 4e bd b0 8d f7 bc
       -0.030031849 -0.005695654 -0.050380778 -0.030218929
000100 5b 58 b1 b9 ca 1c 98 bd df ef c9 3b 61 4a 20 bc
       -0.000338259 -0.07427366 0.006162628 -0.009783358
000110 78 66 e8 bc 0b 6f 6e 3c b3 98 5f 3d 26 f0 4e bd
       -0.028369173 0.014552842 0.054588985 -0.050521992
000120 3b c9 72 bd cb 93 21 bd c8 71 5f bd 53 20 02 3b
       -0.05927394 -0.039447587 -0.05455187 0.0019855693
000130 dc 51 29 bd 26 1d 2e bd 09 06 8f bc 0c c8 8c bc
       -0.041337833 -0.042508267 -0.017458932 -0.017185234
000140 6d 84 b9 39 3d 6f 18 3d 83 54 21 3d 1e d4 47 bd
       0.00035384615 0.03721546 0.039387237 -0.048786275
000150 cc d2 18 3d a9 8b d5 bc fd c5 8a bc aa a7 66 3d
       0.037310407 -0.026067572 -0.016940111 0.05631224
000160 88 9d 41 3d d2 b2 21 3d 39 00 50 3d 5b aa 63 3d
       0.047269374 0.039477177 0.050781462 0.055582386
000170 a2 59 5a 3d be 7c a5 3d 03 9c c6 bc d5 e4 a5 ba
       0.053308137 0.08080433 -0.024244314 -0.0012656698
000180 88 40 69 bb e4 99 82 3c 06 a5 63 3c d8 09 58 3d
       -0.0035591442 0.015942521 0.013894325 0.052743763
000190 14 ca 2d 3b 60 93 a2 bc cf ff b4 bc a7 5e f2 bc
       0.0026518153 -0.019845665 -0.022094635 -0.02958615
0001a0 6a 02 01 bd 2a 9b d0 3b 47 68 29 bd 68 a5 db bc
       -0.031496443 0.0063661532 -0.041359212 -0.02681227
0001b0 f4 2c 32 3d 97 b6 90 bc 40 e4 c8 3c 46 6f 9e 3d
       0.043499902 -0.01766519 0.0245229 0.077360675
0001c0 ba b5 ab bc 83 6b 65 3c 73 73 b9 3c d7 df 56 3b
       -0.020960677 0.014002684 0.022638058 0.0032787228
0001d0 4f 9e 08 3d aa 28 9c bc 1c ba 81 bd 29 1c 57 bd
       0.0333541 -0.019062359 -0.06334326 -0.05251709
0001e0 f2 a3 f9 3b a2 5f 37 bd 19 df ff bc d4 d4 f0 bc
       0.0076184208 -0.044768937 -0.031234311 -0.02939836
0001f0 07 9f 46 bd f0 9c 8f bd 8e 03 34 3d f6 79 53 bc
       -0.048491504 -0.07012355 0.043948703 -0.012907496
000200 75 75 b1 bd 47 40 80 bc 2b b7 40 bd 6f 1a c9 bd
       -0.08664981 -0.01565565 -0.047049683 -0.09819495
000210 21 54 6c 3d f5 23 d6 bc 83 06 b4 bd 0a d5 22 bc
       0.05769742 -0.026140193 -0.087903045 -0.009938488
000220 f8 19 5c bd 76 df b6 bd 00 3e dd bc 8b 6b 3e 3c
       -0.053735703 -0.089293405 -0.027007103 0.01162232
000230 dc 86 e2 bd 02 c4 2f 3d 06 3d 21 3d f6 c1 68 39
       -0.11060879 0.042911537 0.039364837 0.000221975
000240 d9 1f 23 bc 5a 1a fd bc fd 04 c0 bd c8 06 ac 3c
       -0.009956324 -0.030896354 -0.093759514 0.020999327
000250 69 4f de 3b 4c 4a 8d bd 46 9c 9c 3b 8f c9 1e 3d
       0.006784369 -0.06898937 0.0047793714 0.03876644
000260 9a 97 a5 bd 73 b8 99 bd cd f6 8c 3b ff eb 88 bd
       -0.08085556 -0.07505884 0.004301882 -0.06685638
000270 0f 4f 55 3c a7 89 51 3d f9 52 9c 3a 50 e9 30 3b
       0.013019337 0.051156666 0.0011926583 0.0026994534
000280 ac 2d a0 3d b1 e0 8a 3d 13 8a a1 3d 9d 43 ec 3c
       0.07821211 0.06781138 0.07887664 0.028840834
000290 be 28 4e bc b6 ee 46 3d fc d3 dd bb 64 7f 45 bd
       -0.012582956 0.048567496 -0.0067696553 -0.048217192
0002a0 45 c0 26 3d 43 08 c1 3c 67 c5 96 bb e7 09 47 3c
       0.040710706 0.02356351 -0.004601169 0.012148357
0002b0 9f dd 00 bd 69 bc 22 bd fb 96 81 bd 2f a6 a3 bb
       -0.031461354 -0.039730463 -0.06327625 -0.004994176
0002c0 03 5f 9b bb e0 07 9c bd ed b7 31 bc 32 1f 90 3c
       -0.004741551 -0.076186895 -0.010847074 0.017593
0002d0 a5 ee e7 3c 28 ff be bc c4 1e 11 3d d6 c2 93 3b
       0.028312037 -0.023315027 0.03542973 0.0045093102
0002e0 9c 44 87 3c b4 91 68 ba 83 0a e1 3c cf da 21 bc
       0.016512208 -0.0008871809 0.027470833 -0.009878828
0002f0 5b ee 70 bd 01 d7 d7 3a 9f fe d8 3b d0 f3 f1 ba
       -0.058821063 0.0016467274 0.00662215 -0.0018459503
000300 30 83 05 3d 39 4f 06 3a b5 1e 53 3d 56 85 5c 3d
       0.032595813 0.00051234994 0.051542956 0.053838097
000310 4f 1b e8 3c 56 6d b5 bc c3 c2 81 3d 24 dd 10 3d
       0.028333334 -0.022146862 0.06335976 0.035367146
000320 39 25 c0 3d 4f 06 8a bc 06 1a 07 bd 49 0a af 3d
       0.093821 -0.016848711 -0.032983802 0.085468836
000330 d7 df 68 bb 58 d9 e0 3c 59 6c c8 3d fc e6 39 bc
       -0.003553381 0.027447388 0.09786291 -0.011346575
000340 97 07 93 3d 19 d7 e9 3c c3 27 b7 bc 20 24 8d 3b
       0.07179182 0.02854495 -0.022357827 0.004307285
000350 e1 3b c4 bb 5e c8 30 bd df 6c 39 bc 28 f1 bb ba
       -0.0059885834 -0.043159835 -0.011317461 -0.0014338838
000360 48 1f 2a 3d 5f 9d 2f 3d ac 87 20 bc e0 74 05 3d
       0.04153374 0.04287469 -0.009797972 0.032582164
000370 28 ae 2b 3d 53 1f d6 bc 1a fc 96 3c da 11 93 bc
       0.041914135 -0.026137983 0.018430758 -0.017952848
000380 05 3e 5e bd b2 2c fd b9 c6 95 fa 3c 4e d1 6e 3d
       -0.054258365 -0.0004828922 0.030588996 0.058305077
000390 63 bc 28 bd 41 20 84 bc 56 cc 1c 3d 62 fb 8a bd
       -0.041195285 -0.016128661 0.038280807 -0.06786229
0003a0 36 4a ac bd aa c6 55 3c a3 6a bb bc 60 1f 37 3d
       -0.08412592 0.0130478535 -0.022877997 0.044707656
0003b0 73 5d e3 3c a9 07 d4 3c c1 d6 5f 3c 3f f4 c9 3c
       0.027754521 0.025882559 0.013662041 0.024652598
0003c0 29 c3 67 bc 8e 2c 44 3d 11 54 c6 3c 02 f8 00 3c
       -0.014145651 0.047894053 0.024210008 0.00787163
0003d0 6c ac 31 3c cb 14 11 bd 74 d8 8a 3b cc 66 0d bb
       0.010844331 -0.03542022 0.004237229 -0.0021576164
0003e0 e6 a5 39 bc 83 b9 83 3d b8 d6 d1 3c e5 62 f7 3c
       -0.011331057 0.06431868 0.025615081 0.030198524
0003f0 52 34 10 3d 4e 7e 5f bc bf 63 a5 3c cb bc 1f 3d
       0.035206147 -0.013640953 0.020189164 0.038998406

bias f4 [32]
000000 9d 04 7e bb 23 03 dc 3d 5f 59 48 3d 01 4b 43 3c
       -0.0038760074 0.10742786 0.048913356 0.011919738
000010 ad bd 36 bd 54 e7 6c 3c 07 9c cb 3c 4b 73 fb bc
       -0.044614483 0.01445945 0.024854673 -0.030694624
000020 7e b9 9d 3b 4f bc 32 bd d0 b0 ce bc 6d a8 5a bd
       0.004813372 -0.043636616 -0.025230795 -0.05338328
000030 f6 4c 06 be 8e ee 9a 3c 9e 69 2a 3d a9 ed f0 bc
       -0.13115296 0.01891258 0.04160463 -0.0294102
000040 d0 21 05 bd b2 75 82 3d be d5 e6 3c ed 94 c4 bc
       -0.03250295 0.06370105 0.028178092 -0.023996795
000050 9b 30 4c 3d fb 9c 8f 3d bc c7 3d bd 79 99 fc bc
       0.04985104 0.070123635 -0.04633306 -0.0308349
000060 26 45 8c bd a4 0f 2d bc d0 bc 12 bd 9e 77 c4 3c
       -0.068491265 -0.010562811 -0.035824597 0.02398282
000070 58 46 89 3d 9e d5 dc 3c cd 38 38 3d ee ed d4 bc
       0.0670287 0.02695733 0.044976044 -0.02599236

weight f4 [32]
000000 b7 f2 6f 3f 1d 25 88 3f 1a bf 88 3f 12 a2 75 3f
       0.9372973 1.0636326 1.068332 0.95950425
000010 7c fa 66 3f 9b 1d 85 3f 08 4f 60 3f 4b a6 70 3f
       0.9022596 1.039966 0.8762059 0.9400374
000020 44 a7 69 3f 05 74 7e 3f 20 bb 84 3f 5f 30 8f 3f
       0.9127085 0.9939578 1.0369606 1.1186637
000030 08 ee 8d 3f 4f 17 7f 3f 6e 56 82 3f 3b 5b 73 3f
       1.1088266 0.9964494 1.0182626 0.9506108
000040 60 3c 67 3f ac 7b 69 3f 69 d6 6b 3f 29 04 83 3f
       0.903265 0.91204333 0.9212404 1.0235645
000050 02 87 64 3f af 0b 79 3f 79 86 68 3f b0 82 78 3f
       0.89268506 0.9728345 0.9083019 0.97074413
000060 e6 df 66 3f 53 c3 6a 3f c8 bb 86 3f 51 8e 77 3f
       0.9018539 0.9170429 1.0526056 0.9670153
000070 a9 3e 89 3f 1e 10 6c 3f 04 08 82 3f 45 d3 73 3f
       1.0722247 0.9221209 1.0158696 0.95244247

bias f4 [32]
000000 6f 0d 15 3e 99 e4 69 3e e5 5c 0c bc a2 48 32 3e
       0.14555906 0.2284111 -0.00856707 0.1741052
000010 d3 71 d2 3e ee 54 08 3e ad 93 0b 3f 4f ec a4 3d
       0.41102466 0.13313648 0.5452221 0.08052885
000020 92 97 a3 3e 68 66 ac 3d 1c a2 8f 3e d4 60 ac bc
       0.31951576 0.0841797 0.28053367 -0.021042265
000030 e2 2d a1 3e 6c 8b 7a 3e ee 02 f8 3e 11 09 12 3f
       0.31480318 0.24467248 0.48439735 0.57045084
000040 95 3b 51 3e 62 21 dd 3d 44 16 8e 3e b3 f5 15 3d
       0.20432885 0.10797383 0.27751362 0.03661127
000050 b9 4a f4 3c a1 78 23 bd e0 f3 cf 3e b3 38 fd 3e
       0.029820787 -0.039909963 0.4061575 0.4945732
000060 fd c1 7f 3e 3c 37 d4 3b dd 38 c1 3e 12 39 80 3d
       0.24976344 0.006476311 0.37738696 0.06260885
000070 35 35 d5 3d ea 1f db 3e 93 25 55 3d 49 56 68 3e
       0.10410539 0.42797786 0.052037787 0.22689165

running_mean f4 [32]
000000 87 70 6a 3e b4 f8 a1 3f 7f 11 8d 3e 16 b8 88 bf
       0.22894488 1.2654023 0.2755241 -1.0681179
000010 16 f7 cc 3e 43 52 17 be 2a 05 e3 be e0 bc ae be
       0.40032262 -0.14777474 -0.44339877 -0.34128475
000020 29 6d 50 bf 1a 52 d9 3e 5d f6 83 be 24 8e 5f 3f
       -0.81416565 0.4244545 -0.25773898 0.87326264
000030 36 1e 28 bf 97 b2 23 3f fc 34 9d bf 12 71 89 bf
       -0.656711 0.6394438 -1.2281795 -1.0737631
000040 96 8e f6 be 83 fe 86 3f bf b6 17 3f 58 71 8b 3c
       -0.4815566 1.0546421 0.59263223 0.01702182
000050 90 db dd be 4c da 49 bd 2c ce 4a be bf e3 76 3f
       -0.43331575 -0.04928045 -0.19805211 0.9644126
000060 18 29 8f be 76 fa 1d bf e2 f7 a3 3d e1 40 38 3f
       -0.2796104 -0.617103 0.08006264 0.71974
000070 f4 49 66 3f bf 7f 9f be 71 f5 23 bf e9 d0 08 bf
       0.89956594 -0.3115215 -0.6404639 -0.5344377

running_var f4 [32]
000000 e9 b9 fe 3e 38 57 a9 3e 68 1f 25 3e 96 b9 b1 3e
       0.49751213 0.33074355 0.16125262 0.34711903
000010 dd fa 36 3e 74 4e a7 3e 58 1e 85 3e 46 f6 89 3e
       0.17869134 0.32677042 0.25999713 0.26945704
000020 d3 a2 de 3e 8a f1 62 3e 5c 66 a3 3e 76 e9 c7 3e
       0.434836 0.22162452 0.31914032 0.39045304
000030 4e 65 4b 3e 21 52 f9 3e d2 d1 1c 3e 3f af 86 3e
       0.19862863 0.48695472 0.15314415 0.26305577
000040 26 75 ba 3e c2 07 ea 3d 03 3f 81 3e e7 88 6f 3e
       0.36417502 0.11427261 0.25243387 0.23392068
000050 6b 8b 8a 3e ed ec 4c 3e 8d a2 81 3e 83 d5 a5 3e
       0.27059492 0.20012255 0.2531933 0.3238946
000060 da e0 95 3e 59 d8 7b 3e b1 fb d9 3e 46 2f d6 3e
       0.2927311 0.24594249 0.42574838 0.41832942
000070 3c 3e 90 3e 81 24 ae 3e 87 63 07 3f ec 63 ea 3e
       0.2817248 0.34012225 0.5288624 0.4577936

weight f4 [32, 32, 3, 3]
000000 c0 2d 3d bd 8c 59 87 bd 4e 78 d1 bc 27 9a 1f 3c
       -0.04618621 -0.066088766 -0.025570061 0.009741343
000010 0f 5c aa bb 10 f2 ef bc 5d 26 ee bb 55 11 b4 3d
       -0.0051989625 -0.02929023 -0.007267757 0.08792368
000020 1a bd ef 3c 77 41 10 bc 99 46 71 3d 94 b0 8f bd
       0.029264975 -0.008804671 0.058905218 -0.070161015
000030 1c 12 e9 bc c3 ff 32 3d f8 39 da bc 85 db 32 bd
       -0.028451018 0.043700945 -0.02663897 -0.04366638
000040 7c 33 41 3d 8d 78 2d bb 0b 22 a6 3d eb 15 62 bd
       0.04716824 -0.002646956 0.08111962 -0.055196684
000050 7a 3d ad bc 36 26 65 3d be 9c 62 bd 57 87 cb bc
       -0.021147478 0.055944644 -0.055325262 -0.024844809
000060 c0 8c 92 3d bc 08 a7 bd 94 92 09 3d d3 6a 7b 3b
       0.07155752 -0.08155963 0.033587053 0.0038363233
000070 87 a9 e9 bc d8 d6 f0 bc 5a 6e a3 bc 99 21 3b 3c
       -0.02852322 -0.02939932 -0.01995008 0.0114215845
000080 e5 2f f7 bc df 73 eb bc 67 5a 74 bc df 28 11 bd
       -0.030174205 -0.028741775 -0.014914132 -0.03543937
000090 06 ff b6 3c ce 80 41 3d 59 2b 6a bd 1a 8d 22 3c
       0.022338402 0.04724198 -0.057170246 0.009921337
0000a0 02 9b 0d 3d 3c e8 07 3c 89 69 b3 bc d3 d7 48 3c
       0.034571655 0.008295115 -0.021900909 0.012258488
0000b0 74 37 90 bd 35 70 05 bc b8 3b a6 3c 22 db 84 bc
       -0.07041827 -0.008144428 0.020292148 -0.016217772
0000c0 1d ea 12 bd d2 ce 80 3d 77 b6 c5 ba 23 73 a0 bd
       -0.0358678 0.06289448 -0.0015084286 -0.078344606
0000d0 d0 35 24 3d ae 6a 04 bd 1b 60 18 bd 2d 68 ee bc
       0.040090382 -0.0323283 -0.03720103 -0.02910241
0000e0 27 dd a0 3b f7 eb e9 bb 1e f1 3a 3c 1e 87 ba bb
       0.004909176 -0.007138725 0.011410026 -0.0056923768
0000f0 10 d2 e4 bd 49 a7 50 bd f0 91 74 bc 45 da 52 3c
       -0.11172879 -0.050940786 -0.014927372 0.012869422
000100 4d 9d 0f 3d 30 45 85 3c 8b f4 a3 bc d9 bc 68 3c
       0.035062123 0.016268343 -0.020014068 0.014205181
000110 b7 db d0 3c 54 f4 cd bd 6e a4 01 bc f1 a4 34 ba
       0.025495393 -0.100563675 -0.007912738 -0.0006891033
000120 7b 86 e7 bc cd d7 51 3d 0a 3a 54 3c 4f 19 f5 3b
       -0.028262367 0.051231194 0.012953291 0.0074798237
000130 eb 8a 8b 3d 4f 56 17 3d 04 8d 88 bd 16 20 c1 3c
       0.06813606 0.036947545 -0.066675216 0.02357487
000140 59 a9 d0 bb 71 a2 0f 3d 02 ca 6a bb 96 a4 30 3d
       -0.006367844 0.035067026 -0.0035825972 0.04312571
000150 15 d8 a1 3d 8a 49 3a bd 86 5b d6 3c 91 3c 81 3d
       0.079025425 -0.04548029 0.026166689 0.0631038
000160 90 a6 1d bd b5 53 8c 3b b9 6a 30 bc 48 55 5d 3c
       -0.038488925 0.0042824396 -0.010767632 0.013509102
000170 50 59 57 3d 2b 80 4d 3c 41 8f b4 bc 18 1a 12 3d
       0.05257541 0.012542765 -0.022040965 0.035669416
000180 fb cd 69 bd ae 30 79 bd 38 bd c5 bc 94 55 7b bd
       -0.057081204 -0.06083744 -0.024138078 -0.06136091
000190 fa 6a 00 3d 03 95 cc bc 4b 67 62 3c 1b 52 34 3d
       0.03135202 -0.024973398 0.013818572 0.044023614
0001a0 54 ad a6 bc 83 cc 59 bd 26 3c 32 bc f4 a3 52 bd
       -0.020346321 -0.053173553 -0.010878598 -0.05142589
0001b0 71 00 80 3c ba 48 20 3b 39 ab 61 bc a9 ae 6d 3c
       0.01562521 0.002445741 -0.013773733 0.014506974
0001c0 d7 35 b1 3c 39 66 97 3c a5 8c d3 bc db d9 ae bc
       0.021632118 0.01848136 -0.0258239 -0.021344116
0001d0 72 0d 8a ba c1 b7 4d bc 44 f5 dd 3a 56 57 84 3d
       -0.0010532571 -0.012556017 0.0016934057 0.064619705
0001e0 ad f4 aa bc 7c 6b eb 3b 1a 32 54 3b b8 82 a5 3c
       -0.020868624 0.007184444 0.0032378496 0.020203933
0001f0 84 6f 1b 3c 65 25 01 3c b2 ea a6 3c e1 9b 53 3d
       0.009487037 0.007882451 0.020375583 0.05166233
000200 7f 47 f6 bc be 87 e7 bc d0 b7 48 3d 06 78 46 bc
       -0.030063389 -0.02826297 0.049003422 -0.012113577
000210 5f 96 c1 bb 88 45 83 3d b5 4a 79 bd 99 df 60 bc
       -0.005907818 0.064097464 -0.06086226 -0.013725185
000220 d9 45 de ba 41 78 24 bd 4a 71 0a 3d a0 2a 82 3a
       -0.0016958072 -0.040153746 0.033799447 0.0009930916
000230 d5 09 1d 3c b7 ff 4b 3d 2f 36 86 3c 24 3c 32 3d
       0.009584864 0.049804416 0.016383259 0.043514386
000240 e5 9d 01 bc 9f b3 06 3d f5 ab 28 bd 52 2b d0 3c
       -0.00791118 0.032886144 -0.041179616 0.025411282
000250 f2 b3 21 3d 30 cb ba bc 18 09 36 bc 0f d3 a7 3d
       0.03947825 -0.022801965 -0.011110567 0.08194553
000260 52 69 45 3c 75 d5 00 bd d5 14 16 bd 2c 73 42 3d
       0.012049036 -0.03145357 -0.03664096 0.047473118
000270 df 72 f9 bc de a7 e3 bc c1 52 a9 3c 66 57 bd 3c
       -0.030450283 -0.027790006 0.020669343 0.023112964
000280 b6 67 09 bd 65 b9 4d 3d dd b8 10 bd 0c b0 d1 3a
       -0.033546172 0.050225634 -0.03533255 0.0015997901
000290 b4 81 1f bd bd e9 86 3b 62 f2 17 3d ff 17 a4 3c
       -0.038942054 0.0041172192 0.03709639 0.020030973
0002a0 6a 8a 4b bc 9f ef 70 3d ea 93 74 3a 1b b6 d6 bc
       -0.012423137 0.05882227 0.0009329902 -0.026209882
0002b0 d8 e0 26 3c ca b3 6f bd 29 a6 25 bd 52 22 66 3d
       0.010185443 -0.05852107 -0.040441666 0.056185074
0002c0 1f 7b f2 bb d6 54 72 3c 7f a7 1e 3d a4 14 00 bd
       -0.007399931 0.014790734 0.038733955 -0.031269684
0002d0 40 da 9d 3c e0 59 bf 3c 39 6b c7 3b 37 52 ab bc
       0.019269109 0.023358285 0.00608578 -0.020913227
0002e0 24 3f bb b9 16 f6 e9 bb 1e fd e7 bc ab 6d 43 bd
       -0.00035714463 -0.0071399314 -0.028318938 -0.04771201
0002f0 e2 cf f8 bc 14 24 ca 3b c4 a5 06 3b 6b a8 c0 3c
       -0.030372564 0.0061688516 0.0020545581 0.023517808
000300 c1 3f 8d 3c 93 29 ed 39 37 0f b6 3b c5 a3 97 bc
       0.017242314 0.00045235138 0.005556013 -0.018510709
000310 78 3a c9 3b 9a a6 a4 bc ae c6 3e 3c 75 6d fb bc
       0.006141003 -0.020098973 0.011644049 -0.030691842
000320 72 82 e7 3d 39 0d c2 3b ed bf 28 bc e1 15 89 3d
       0.11304177 0.0059219864 -0.010299665 0.06693626
000330 41 7f 41 bb c4 32 6d bd 3b 76 7b 3d b0 78 aa bc
       -0.0029525312 -0.057909742 0.06139205 -0.020809501
000340 fb 95 86 3d 7e 6e 3c bd 47 53 05 bd 30 42 d4 3d
       0.06571575 -0.04600381 -0.032550123 0.10364187
000350 7c 52 80 3c aa 0e cb bd b4 8e 72 3d 6d b1 e5 3a
       0.015664332 -0.09914906 0.059218124 0.001752419
000360 a4 ea b0 3d 4e 0f b5 bc 3e 8e 17 3d f0 33 27 3d
       0.08638504 -0.022102024 0.037000887 0.040821016
000370 92 6d 76 bd aa c0 ec 3c 9a ac 64 3d dd 1a 88 bd
       -0.06016309 0.028900463 0.05582867 -0.06645749
000380 3a 16 c7 3a 42 63 c2 bb c0 8a 86 3c 02 d0 9a 3c
       0.0015189119 -0.0059322426 0.016423583 0.018898014
000390 23 7f cf bc 09 04 31 bc 44 f7 92 3d 70 2e 8d 3c
       -0.025329178 -0.010804185 0.071760684 0.017234057
0003a0 1a 47 b3 bc 9f 1e 69 3d e2 e9 38 3d 98 54 5d 3d
       -0.02188449 0.05691397 0.045144923 0.054035753
0003b0 57 a9 b3 3c 0a 0b e3 3b 33 84 4f 3d cb 9d 3d 3b
       0.021931333 0.006928806 0.050663184 0.0028933163
0003c0 bb 09 e4 bd f4 66 cc bb f1 44 75 bd 94 36 4e 3d
       -0.111346684 -0.006237859 -0.0598802 0.05034502
0003d0 dd 17 ed bc c0 9b 5f bd 5e 59 28 3d e8 79 d4 3a
       -0.028942043 -0.054591894 0.041100852 0.0016210647
0003e0 63 15 41 bd ba 73 c2 3c 92 ae 4f bd 6c 71 01 bd
       -0.047139537 0.023736823 -0.050703593 -0.03160231
0003f0 70 e9 eb 3c 48 9f 82 3d 68 ca 71 bd 34 e5 6e 3c
       0.028797835 0.06378037 -0.05903092 0.0145810135

bias f4 [32]
000000 b4 9e ae bc 30 5b 54 bd 84 05 3f bd 11 18 5c 3d
       -0.02131591 -0.051844776 -0.04663612 0.05373389
000010 8d 0d 1f 3d 0d c4 4c bc c2 89 ee bc 35 d8 3e 3d
       0.038831282 -0.012497914 -0.029118422 0.04659291
000020 17 da df 3c 54 54 8d 3d fd cf be 3d 64 eb 2c 3c
       0.027325673 0.0690085 0.09317014 0.010554168
000030 2e d8 39 bc 43 d5 f4 3d 5f 4c 50 bd 51 f2 b1 ba
       -0.011343045 0.11954739 -0.050854083 -0.0013576244
000040 8d 10 5e 3d d9 09 5a bd ee bb 12 3d bb 77 30 bd
       0.054215003 -0.053232048 0.035823755 -0.043082934
000050 22 cf 9e bd c5 61 57 bd a0 32 b5 3d ab 65 0e bd
       -0.07754351 -0.052583475 0.088475466 -0.034764927
000060 12 74 9b bc 9c 5c b2 bc 58 ef 14 3d 92 18 8a 3c
       -0.018976245 -0.021772675 0.03636107 0.01685742
000070 fa 03 08 bd db 60 f8 bc ae ff 40 3d e2 ce 06 3d
       -0.033206917 -0.030319622 0.047118835 0.032912143

weight f4 [32]
000000 2e 20 86 3f d9 8b 8d 3f a4 a3 77 3f 65 6b 87 3f
       1.047857 1.1058303 0.9673407 1.0579649
000010 2e bc 84 3f c1 73 e2 3f 37 c2 89 3f 5d e9 77 3f
       1.0369928 1.7691575 1.0762395 0.9684046
000020 d3 d3 85 3f d3 1b a9 3f b7 59 9a 3f ed de 84 3f
       1.0455269 1.3211616 1.2058629 1.0380532
000030 82 37 83 3f 1c 76 89 3f 77 92 8b 3f 88 b4 74 3f
       1.0251315 1.0739169 1.0904073 0.9558797
000040 60 b6 89 3f 31 2a 85 3f ca 0b 7a 3f 62 c1 83 3f
       1.0758781 1.0403501 0.9767424 1.0293391
000050 9d 14 88 3f df e4 76 3f 11 30 80 3f fb 48 8e 3f
       1.0631291 0.9644298 1.0014669 1.1116022
000060 b6 c9 71 3f fa 9d c1 3f f4 8c d8 3f ce 34 80 3f
       0.9444841 1.5126336 1.6918015 1.0016115
000070 b9 3a 97 3f fc be 7c 3f d4 0a 83 3f b4 d1 8b 3f
       1.1814796 0.9872892 1.023768 1.0923371

bias f4 [32]
000000 8f a9 1e bd 8e b1 44 3d 83 77 b2 3b 14 be 7d 3d
       -0.038735922 0.04802089 0.005446376 0.06194885
000010 97 19 a2 3d aa 18 7d 3e 41 cc 5a 3c 98 aa 4c 3d
       0.07915037 0.2471644 0.013354362 0.04996738
000020 16 f6 a4 3c 28 42 74 3d f2 59 61 3d 62 f8 95 bc
       0.020136874 0.059633404 0.05501742 -0.018306915
000030 cb 3f dc 3c 84 64 1a 3d 54 58 b9 bc a1 a0 99 3c
       0.026885888 0.037693515 -0.022625126 0.018753352
000040 e3 86 29 bd 98 20 34 bc 66 8e b9 3b a2 bd a3 bb
       -0.041388404 -0.010994099 0.005662727 -0.004996971
000050 cc ac 9b 3d f5 b7 fa bd 23 76 54 3d c1 6e 53 bd
       0.07601318 -0.12242118 0.051870476 -0.051619295
000060 0b 9b 14 3c 5a e4 51 be f2 50 26 3f a4 e7 43 3c
       0.009070168 -0.20497265 0.6496726 0.011957083
000070 2b dc b0 be 33 33 ed bd cf 60 1c 3e 02 80 60 bd
       -0.34542975 -0.11582031 0.15271305 -0.054809578

running_mean f4 [32]
000000 a1 b1 3d bc 82 e7 47 bd 79 1a 58 bc a8 f3 b5 3d
       -0.011577995 -0.048804767 -0.013189905 0.08884364
000010 ac 3f c8 bb 1c 2b a7 bd 2e af 82 bc 44 ce 0d 3f
       -0.006111106 -0.08162519 -0.015952673 0.5539286
000020 a8 60 88 3e 0e 10 81 3d c8 69 95 3e 0f e1 79 be
       0.26636243 0.0630189 0.29182267 -0.2440226
000030 65 04 44 bc 46 11 0d 3e 6e 9c 80 3d 63 9f b3 3c
       -0.011963938 0.1377612 0.062798366 0.021926587
000040 c8 d5 61 3e 85 4a c3 3e 03 69 3d 3e 3d c0 34 3e
       0.22054207 0.3814279 0.1849709 0.17651458
000050 26 3f ab bd e6 12 a8 3e 14 67 a5 3d be 07 27 be
       -0.08361654 0.32826918 0.08076301 -0.16311547
000060 09 0a 46 bc 23 ef ba 3d e7 a6 34 be 73 a6 b4 bd
       -0.0120873535 0.09127643 -0.17641793 -0.0882081
000070 b7 82 6b be 6a 80 7a be 0f d5 39 3e bd 41 1f be
       -0.22999083 -0.24463049 0.18147682 -0.15552421

running_var f4 [32]
000000 07 ac 34 3e 8e 73 19 3e d8 34 36 3e a9 db 33 3e
       0.17643748 0.14985487 0.17793596 0.17564262
000010 73 76 74 3e 2a d8 34 3d 4f 40 30 3e 5d 64 5f 3e
       0.2387331 0.044151463 0.17212032 0.2181563
000020 d6 4a 89 3e 6d ac 12 3e 41 fd 9a 3d 52 25 91 3e
       0.26814908 0.14323588 0.075678356 0.28348786
000030 0d 62 95 3d 30 e7 43 3e b6 02 7c 3e d6 e1 45 3e
       0.07294092 0.1913116 0.24610409 0.19324431
000040 38 5f e8 3d dc ec a4 3e 8d 16 2e 3e a3 e8 68 3e
       0.113462865 0.3221196 0.1700079 0.22744994
000050 35 60 d1 3d 1a e3 cc 3d 4c 43 3e 3e 4a 76 cb 3d
       0.10223428 0.10004254 0.18580359 0.09934671
000060 d7 ed 3b 3e 4c d1 b1 3d 7c 9a 81 3d 24 09 79 3e
       0.18352447 0.08682498 0.06328294 0.24319893
000070 45 e6 78 3d 85 80 78 3e 45 59 6c 3d 3f dc d7 3d
       0.060766477 0.24267776 0.05770232 0.105400555
