TuiGAN/models/apple2orange/ba2.pth (torch, 233612 bytes, 46 tensors)

weight f4 [32, 3, 3, 3]
000000 35 35 59 bd 14 22 f9 bc 2c 3e 0f bd 95 a7 0e bd
       -0.053029258 -0.030411758 -0.0349714 -0.034827787
000010 21 b4 7a 3c cd 5e f3 bb 1c 63 1c 3d 3d 21 7f 3d
       0.015301735 -0.0074270726 0.038180456 0.062287558
000020 3c 73 6c 3d ab 09 38 bd 1c 04 1c bd ed 60 4b bd
       0.057727084 -0.044931095 -0.038089857 -0.049652983
000030 5b 8a c2 bb a1 fc 5b bc f8 86 13 bc 9e f7 0c 3d
       -0.0059369034 -0.013426931 -0.009004347 0.034415834
000040 93 70 92 3b 96 81 2e 3c 0e d5 a9 bc 75 86 ab bc
       0.0044689863 0.010651013 -0.020731475 -0.020938138
000050 95 aa b4 bc 13 4a 9c bc 06 41 26 bc fc 19 9e bc
       -0.022053996 -0.01907829 -0.010147339 -0.0192995
000060 75 02 f2 bc b3 61 36 bc af 72 a4 bc 18 da 90 3b
       -0.029542187 -0.011131692 -0.020074217 0.00442053
000070 5c ea 1b bc b5 59 e0 3c 8e 71 a7 bc f6 7a 9b 39
       -0.009516325 0.027386526 -0.02043989 0.00029655517
000080 6d cd 08 3d cb 56 c7 bc e0 95 62 bc 54 70 e0 3c
       0.033399034 -0.024333378 -0.013829678 0.027397312
000090 17 07 0b 3d f7 a6 de 3c 68 1d 5f 3c b6 89 62 3d
       0.03394231 0.027179224 0.013617851 0.055307113
0000a0 d7 92 ea 3c 72 17 00 3d 7f be 8a 3c c8 37 c7 3c
       0.028634472 0.03127236 0.016936539 0.02431859
0000b0 f9 0f 2a 3d 82 48 93 3d 8d 63 81 3d 75 2e bb 3c
       0.04151914 0.07191564 0.06317816 0.0228493
0000c0 7c 3b d9 3d fc b2 82 3d 22 86 34 3d 73 68 90 3d
       0.10607049 0.06381795 0.04407323 0.07051172
0000d0 d0 ce ba 3d ad 2c 96 3d b5 45 9c 3c 0f 01 f9 bc
       0.091214776 0.0733274 0.019076208 -0.030396013
0000e0 5e 7d 1a bc 42 e2 6a 3d 25 d0 b3 ba 4d 34 09 bd
       -0.009429304 0.057344683 -0.0013718648 -0.033497144
0000f0 5b 32 18 3d 9b 08 2e bd 6c 13 7b bd b2 c7 2d bc
       0.037157398 -0.042488676 -0.06129782 -0.010606693
000100 7f c6 0c bc 43 c7 3c 3c 6a 7c 36 bc a2 9e 33 bd
       -0.008592247 0.011522117 -0.011138061 -0.043852456
000110 d7 5d 63 3b c9 c0 f9 3c b1 34 ae 3a cf 6c 9c 3c
       0.0034693384 0.030487435 0.001329085 0.019094853
000120 d5 83 85 3c 88 1f 9f 3b 41 d0 b3 3c 64 a9 b9 bb
       0.016298214 0.0048560537 0.02194989 -0.005665945
000130 7a 9c d5 bc 19 fa 9c 3c 3d dc 63 3d 55 72 27 3d
       -0.02607559 0.019162225 0.055629957 0.04088052
000140 6b d6 c9 3d 43 42 de bd bb 19 11 bc 1c 33 73 3b
       0.0985535 -0.10852482 -0.008856232 0.003710932
000150 72 66 4c bd 2e 99 de bc 06 e9 a9 bb c3 1f b7 bc
       -0.049902387 -0.027172651 -0.0051852493 -0.022354012
000160 ee e2 26 bd 51 31 9b bb 62 5b df 3c 8d 73 ca 3c
       -0.04074376 -0.0047361036 0.027265254 0.024713302
000170 c1 18 7f 3d d7 c8 4e 3c 56 5f 57 3d 1f 5f 60 3d
       0.062279467 0.012621126 0.052581154 0.054778215
000180 ec c6 14 bc 41 90 bc 3c 9b 3e 36 3c dd 12 84 3d
       -0.00908063 0.023018004 0.011123325 0.064489104
000190 e8 70 0b 3d 11 96 7a 3c 47 e5 b8 3c 93 b8 12 3d
       0.034043223 0.015294568 0.022570265 0.035820555
0001a0 40 3f ad 3c fb ce b8 bc bc b0 48 3c 15 d2 77 bb
       0.021148324 -0.022559633 0.012249168 -0.0037814428
0001b0 e1 92 b9 bc 0f 5b 35 bd 51 6c e4 3c 2d b7 ed bc
       -0.022653045 -0.044276293 0.02788368 -0.02901801
0001c0 29 55 e8 3b 4a a4 34 3d 47 fe 8f bc d0 79 3c 3c
       0.00709023 0.04410199 -0.017577304 0.011503652
0001d0 38 ad 32 3d 55 c4 85 bc ea 2b a1 bc ff 3b 68 bc
       0.043622226 -0.01632897 -0.01967426 -0.01417446
0001e0 ec 82 7d bc 3f aa 71 bb c3 4b 46 3c a5 c1 7f bd
       -0.015473109 -0.0036875156 0.012103024 -0.062440533
0001f0 de 6b 09 bd 0a e8 d2 bc 01 a5 f2 3c 4f 6e 9f 3c
       -0.033550136 -0.02574541 0.029619696 0.019461779
000200 c6 f9 32 3d 11 80 31 3c bc 8c 19 3d 2c 19 6c 3d
       0.043695234 0.010833756 0.03748773 0.057641193
000210 ae 01 9b b6 fc f4 76 bc 26 eb 40 3d 0b c6 20 bc
       -4.6195555e-06 -0.015073057 0.047099255 -0.009812842
000220 7b ae 30 bd 31 77 6b bd d2 a0 82 3d 57 00 56 3c
       -0.043135148 -0.057486717 0.0637833 0.013061604
000230 da 8f 1f bd 40 f7 75 3d 4d 1b e0 3c 31 e7 91 bc
       -0.038955547 0.06005025 0.027356768 -0.017810436
000240 a0 0b 9b 3c d0 c5 21 bc b6 4e 06 bd ad 59 d8 3c
       0.018926442 -0.009873822 -0.03278991 0.026409948
000250 df 09 37 3c a8 fb cc bc 5e 81 0e 3d 94 32 0e 3c
       0.011171787 -0.025022343 0.034791343 0.008679051
000260 ce 64 be bc 44 7f 5a 3d a2 cd 11 3c 52 17 9a 3c
       -0.023241427 0.053344026 0.008899124 0.018809948
000270 7b 0a ea 3c bc b3 e8 3b 42 6f ee 3b 6f 6c bb 3c
       0.02856945 0.007101504 0.0072764466 0.022878854
000280 42 1f d0 3b 73 db 11 bb 3f d8 7d bd 07 c7 64 3c
       0.0063513825 -0.0022256046 -0.061973806 0.013963467
000290 0e 44 a8 bb 3c 07 e2 bb c0 b0 50 bc bb e1 99 bc
       -0.005135066 -0.006897835 -0.012737453 -0.018784394
0002a0 df 78 90 3d e5 01 83 3d da 47 2f 3d e1 d5 db bc
       0.07054304 0.06396846 0.042793132 -0.026835384
0002b0 e8 dd 98 bc 99 a3 9e bc 7e ea a1 3c 17 a2 56 bc
       -0.0186605 -0.019365119 0.019765135 -0.013100169
0002c0 2b 8a 7c 3b 69 e0 63 3d 19 11 64 3c 51 32 80 3b
       0.0038534503 0.055633936 0.013920092 0.003912248
0002d0 04 d5 29 3d b0 9d 89 bc 6d 12 59 bd 1f 96 1b 3d
       0.041462913 -0.016798824 -0.052996088 0.037984964
0002e0 17 09 05 bd 82 7a 20 3c 22 8d 0c 3d b9 21 be 3b
       -0.032479372 0.009794833 0.034314282 0.00580236
0002f0 91 6f 11 bd e3 d3 83 3d d6 df 14 3d 46 01 01 3d
       -0.03550679 0.064368986 0.03634628 0.031495355
000300 c8 03 9d 3c 51 f7 41 3c 9d 3a f2 3b 8f f8 10 3c
       0.019166842 0.01183875 0.007392241 0.0088483235
000310 ca ab 47 3c f7 1e 86 bc 03 d5 35 bd e6 14 ae bc
       0.012186954 -0.016372187 -0.044392597 -0.0212502
000320 94 30 7f 3d e0 ef 51 3c 7c 70 3b bc a3 a5 2a bc
       0.062302187 0.012813538 -0.011440393 -0.010415467
000330 67 b8 90 3c 71 39 a3 3c 2a 5e 55 bb 49 7a a4 bc
       0.017666055 0.019924851 -0.0032557347 -0.020077841
000340 1f 19 8f 3c 6b dc d9 3b f1 7f e2 bc db c9 c6 3c
       0.017468033 0.0066485903 -0.027648898 0.024266174
000350 8a 58 91 bd 67 82 3c bd ae 2b 9a 3a 9e 7e 9c bc
       -0.070969656 -0.0460228 0.0011762285 -0.019103345
000360 61 d7 41 3b e0 0f 9a 3c b8 02 45 3d 6b 45 cc 3c
       0.0029577839 0.018806398 0.048098296 0.024935445
000370 b7 bc 25 3c 63 53 22 3d 00 b0 c8 3b ca 72 8a 3c
       0.010115794 0.039630305 0.0061244965 0.016900439
000380 59 99 97 3d d0 23 0d bd eb 64 37 3c 20 d4 87 ba
       0.074022956 -0.03445798 0.011193494 -0.0010362901
000390 00 88 3e bc 8f f0 12 bd 9d 59 94 bb ff e2 a3 bd
       -0.011629105 -0.035873946 -0.0045272843 -0.080022804
0003a0 8a f7 23 bc 0d c0 2b bc 88 c5 30 bb db 52 aa 3c
       -0.010007748 -0.0104828 -0.0026973207 0.020791462
0003b0 f8 6a 24 3d 60 ef 7e 3c 57 cb 7b 3d 98 4f 47 3b
       0.040141076 0.015560001 0.061473217 0.0030412432
0003c0 2b 6f bf bc 67 2f c7 bb d5 29 58 bc eb 51 96 bc
       -0.023368439 -0.006078649 -0.013193567 -0.018349608
0003d0 e1 b3 d0 3c 32 ef 54 3d e4 e3 ae 3b 5d 59 31 bd
       0.025476398 0.051985927 0.0053372253 -0.043298114
0003e0 85 17 1d bc 12 86 76 3c ca 85 ae bc b1 d1 9e bc
       -0.009588127 0.015046613 -0.02130403 -0.019387098
0003f0 f0 cb cc 3c 93 d9 af 3b f2 40 9d 3c 6d c1 77 3d
       0.024999589 0.005366513 0.019196007 0.0604872

bias f4 [32]
000000 13 a2 9a 3d 39 40 99 bd 76 cf 3a 3e 4f 80 db bd
       0.075504445 -0.074829526 0.18243203 -0.10717832
000010 51 9f c3 bd 75 b8 ef 3d bc 7f 3d 3e 5c 51 28 3e
       -0.095518716 0.11705104 0.18505758 0.16437286
000020 2e a6 74 3d 8e b1 41 be f2 bf 08 be 14 c6 b7 3c
       0.059728794 -0.18915388 -0.13354471 0.022433318
000030 d5 58 83 bd aa 44 1b 3e 1b 95 d7 bc d4 71 41 be
       -0.06413428 0.15162912 -0.026316216 -0.18891078
000040 b4 6b 09 3a c8 73 a6 bd a7 71 51 3e d1 ef 8d bd
       0.0005242184 -0.08127552 0.20453511 -0.06930507
000050 72 ff 3a be 2d 83 3f 3e c8 90 86 3c 97 bb a0 3d
       -0.18261507 0.18702383 0.016426459 0.0784828
000060 16 c1 ee bd 22 8f 4c bd 11 f1 22 3e 4f 98 29 be
       -0.11657922 -0.04994119 0.15912272 -0.16562007
000070 10 c7 a7 bd 18 ff 97 3d 48 ab 18 be c9 21 33 be
       -0.08192265 0.07421702 -0.14909089 -0.17493357

weight f4 [32]
000000 e7 3d 87 3f ee c1 80 3f 57 f2 8a 3f 38 c4 79 3f
       1.0565766 1.0059183 1.0855206 0.9756503
000010 5b 87 80 3f ea 0f 84 3f 73 7a 77 3f 01 f9 82 3f
       1.0041307 1.0317357 0.9667122 1.023224
000020 5a 5a 83 3f 91 7f 75 3f 37 41 77 3f 20 06 83 3f
       1.0261948 0.95897776 0.96583885 1.0236244
000030 15 0c 83 3f 95 fa 8f 3f c8 70 7f 3f 7a 90 71 3f
       1.0238062 1.1248347 0.99781466 0.9436108
000040 dd 67 81 3f f4 76 8b 3f e3 d1 77 3f fc 3e 75 3f
       1.0109822 1.0895677 0.96804637 0.9579923
000050 a7 95 73 3f d5 86 71 3f c8 29 71 3f 35 83 7c 3f
       0.95150226 0.9434636 0.9420438 0.98637706
000060 65 76 63 3f 4e c1 78 3f 80 eb 6b 3f a9 be 8c 3f
       0.8885253 0.9716996 0.9215622 1.0995685
000070 be 2e 81 3f 70 a7 6f 3f 36 81 7c 3f ff 1b 76 3f
       1.009239 0.93614864 0.9863466 0.9613647

bias f4 [32]
000000 6b c5 6d 3b 6a aa 8c 3c ad 8a f5 bd b9 29 00 be
       0.0036281 0.017171104 -0.11989341 -0.12515916
000010 ad 40 16 bd 57 33 89 bd e4 46 2f be 0c e1 87 3d
       -0.036682773 -0.066992454 -0.17116886 0.06634721
000020 8f 74 d8 3d e7 31 99 bc fc 0c b6 3b 5c 3c 64 bd
       0.10569107 -0.018700553 0.005555747 -0.055721626
000030 80 a8 ec bd f9 26 67 bd 8c c5 8c bd 32 ae 19 be
       -0.11555576 -0.05643365 -0.068736166 -0.15007856
000040 83 59 f1 3d ac ea 13 3e 28 3d b7 be cc 3a ac 3a
       0.11784651 0.14444989 -0.35788846 0.0013140081
000050 7f 31 4a be 9d 2d 9b 3d 8f 9b 99 bd 8a 29 bc 3b
       -0.19745444 0.075770594 -0.075003736 0.0057422565
000060 1d 6d c1 bd c2 3c 0f 3e eb 60 14 be 95 2c 3a bc
       -0.0944464 0.13988021 -0.14490096 -0.011363168
000070 5d 47 04 3e 62 ff 86 bd b4 b5 97 3d c7 ac 05 3e
       0.12917848 -0.06591679 0.07407704 0.1305419

running_mean f4 [32]
000000 28 9a 85 3e b1 0a 27 bf 2e 84 12 3a 26 f9 de be
       0.26094174 -0.6525069 0.00055891543 -0.4354946
000010 c0 76 37 be 16 f7 96 ba 70 43 52 3e 85 97 9a 3e
       -0.17916393 -0.0011517729 0.20533538 0.30193725
000020 ae 73 0a 3e 42 e6 30 be 6b aa a2 bc a7 f9 d0 3e
       0.13520691 -0.17275336 -0.019856652 0.4081547
000030 61 c1 6f be c7 ab be 3c e1 37 27 bd 0c ac a7 be
       -0.23413612 0.02327527 -0.040824775 -0.3274845
000040 a2 36 67 bd b5 6f 40 be 91 19 1f 3e 75 24 03 3e
       -0.056448586 -0.18792613 0.15537097 0.12806876
000050 93 dd a7 be 3c 74 bb 3e 1f 78 00 be 81 c5 f6 3c
       -0.32786235 0.36612117 -0.12545823 0.030123474
000060 76 3b 2b bd 74 52 0b 3e fc dc cb bd 45 24 93 be
       -0.041804753 0.13605672 -0.09954259 -0.2873861
000070 1e 02 3c 3d 7d 88 46 3d 45 34 91 bc b6 4d 36 bd
       0.045900457 0.04847001 -0.01772512 -0.044507705

running_var f4 [32]
000000 73 35 9f 3b 24 4e 22 3d 01 a6 3a 3b f2 76 e0 3b
       0.0048586666 0.039625302 0.0028480294 0.006850117
000010 14 af 61 3b 27 61 6a 3b 67 1c 3e 3b fa de ad 3b
       0.003443663 0.0035763474 0.0029008628 0.005306122
000020 23 0b b5 3b a0 e7 24 3a 59 78 e3 3a 79 cd 97 3c
       0.0055250092 0.00062906183 0.0017354592 0.018530594
000030 a5 26 b3 3b c2 dd 87 3b 79 89 fb 3b e1 91 8b 3b
       0.0054672533 0.0041463086 0.0076763 0.0042593335
000040 d9 57 a5 3b 29 31 98 3a 3e 1d 5d 3a 47 44 87 3b
       0.0050458726 0.001161133 0.00084348384 0.0041280123
000050 f0 1a 0b 3c 8a 38 90 3b 1c a9 b3 3b 13 05 98 3c
       0.008490309 0.004401271 0.005482806 0.018557107
000060 61 46 70 3b e3 31 5d 3b db 37 a9 3b 13 62 06 3b
       0.0036663043 0.0033751659 0.005164129 0.0020505234
000070 a1 28 62 3b 7e 7a b3 3a 8c 33 0b 3b c6 7b d6 3b
       0.003450908 0.0013693122 0.002124044 0.0065455167

weight f4 [32, 32, 3, 3]
000000 59 4f 5d 3d 00 98 16 bd 99 7c 09 bd 99 61 ff 3c
       0.05403075 -0.036766052 -0.03356609 0.031174468
000010 e6 8b 53 bc 8c 41 22 bd a3 95 8d 3d b7 bf 01 bc
       -0.012911772 -0.03961329 0.069133066 -0.007919244
000020 1c 8b 18 bc ec f3 8c 3d 95 bf 63 3d 82 83 a4 bc
       -0.00931051 0.06882462 0.05560263 -0.020082239
000030 b2 84 f1 3c 11 5b 4c b9 2f 73 fc bc 04 b0 9a 3b
       0.02948222 -0.00019488881 -0.030816643 0.0047206897
000040 37 21 51 3c b1 53 65 bc ad 91 04 3d 77 43 5a 3d
       0.012764267 -0.013997004 0.03236549 0.053286996
000050 99 42 e4 3c 04 6c 21 3d ee 68 7a bb 36 d8 6d 3c
       0.027863787 0.039409652 -0.0038209516 0.014516881
000060 bf c9 8c 3d 76 3c 17 3b 74 28 4f bc 15 fd a8 3c
       0.068744175 0.002307681 -0.012643922 0.020628491
000070 36 ae 21 3b 16 f8 c5 bc 8a 59 18 bc f6 9f 51 3c
       0.0024670488 -0.024166148 -0.0092986915 0.012794485
000080 85 72 16 3c 39 df 3e bd 3e 20 c8 3c b5 1c 95 3c
       0.009182577 -0.0465996 0.024429437 0.018202165
000090 ed b1 88 bd 5f 69 4e 3c 93 fb 1f 3a 50 9e a8 bd
       -0.06674562 0.012598365 0.0006102856 -0.08233321
0000a0 97 2f 36 bb 85 5b 19 3a f0 1a 74 bd 58 4d 42 bc
       -0.0027799362 0.0005850124 -0.059596002 -0.0118592605
0000b0 ea 1d 4b bc 8c 38 97 3d 3f fb 2b 3d cf e8 fb 3c
       -0.012397269 0.07383832 0.041987654 0.03075066
0000c0 25 cb 8d 3d be e4 0a 3d 88 8d 0b 3d 43 db 6b 3d
       0.06923512 0.03390955 0.03407052 0.05758215
0000d0 85 b5 e5 3a 38 f1 4f 3d 17 94 b0 bb bb 3a c9 bb
       0.001752541 0.050767154 -0.0053887474 -0.0061410344
0000e0 b4 58 8e 3b 6c db 63 bc 8d e4 f9 bb 1c f1 72 3c
       0.0043440703 -0.013907295 -0.0076261223 0.014827993
0000f0 56 da e2 bb be e9 98 bd 9b 6f 78 3c f9 3a c6 bc
       -0.0069230003 -0.07466458 0.015163328 -0.024198042
000100 60 51 e6 3c 62 2c 21 bd a4 9e 8a bb 4c ff 43 3b
       0.028114974 -0.039348967 -0.004230337 0.0029906807
000110 20 3e 2f bc bd fa 26 3d 81 18 0f bc 84 cd e1 3c
       -0.010695964 0.040766466 -0.0087338695 0.027563818
000120 0d 22 30 3c 39 27 5f 3c 99 4a e5 3c 5b 84 48 3d
       0.010750306 0.013620191 0.027989672 0.04895435
000130 ae fe f3 3c ed d2 1f 3c 54 5d 23 3c 6c 99 0f 3d
       0.029784527 0.0097548785 0.009970982 0.035058424
000140 7b 80 79 3c 04 f4 e8 3c d1 e2 0d 3d f6 06 52 3c
       0.015228386 0.028436668 0.034640137 0.012819042
000150 a2 a0 0e 3c d6 92 c7 3c 12 57 1d 3b 1a 8e 31 3c
       0.00870529 0.024362009 0.0024008197 0.010837102
000160 f6 54 c4 3c c2 56 52 3c 5a 45 df 3c 34 2c fe 3c
       0.023966294 0.0128380675 0.02725475 0.031026937
000170 a7 fb a9 3c c7 ac 7d 3c d4 98 ee bc e8 ef 0c 39
       0.02074988 0.015483088 -0.029125609 0.00013440812
000180 8e cd 8f bc 91 31 f4 3c 26 97 be 3b 80 21 35 bd
       -0.01755407 0.029808791 0.005816358 -0.0442214
000190 17 4d 73 bc f5 f4 83 3d b2 f8 aa bc 93 0a 87 bc
       -0.014849923 0.06443206 -0.02087054 -0.016484534
0001a0 0d fb 0d 3d 69 75 25 bd 46 ea 12 3c 43 d1 83 bc
       0.03466325 -0.040395174 0.008966988 -0.016090995
0001b0 ef 37 68 bb 6e 28 a4 3c 43 62 87 3d 0c b7 98 bc
       -0.003543373 0.02003881 0.06610539 -0.018641971
0001c0 b7 10 e0 3c ab 24 81 bc 03 48 c7 bc 4e 74 f1 bb
       0.02735172 -0.015764555 -0.02432633 -0.007368601
0001d0 e0 67 b9 3b f7 c0 84 bc e8 7b c7 bc 6a 55 e4 bc
       0.005658135 -0.016205294 -0.024351075 -0.02787276
0001e0 b2 71 ca bc de a0 15 bd 60 d2 53 bd a5 78 36 bd
       -0.024712417 -0.036530368 -0.0517143 -0.04454865
0001f0 c2 a3 46 3d 76 32 c0 3c eb 7f 8e bd 6f 50 39 bd
       0.048496015 0.023461562 -0.06957992 -0.045242723
000200 88 55 06 bd 47 6a 99 bd c8 11 34 bd ff 8b 87 bc
       -0.032796413 -0.07490974 -0.04396227 -0.016546248
000210 68 a9 cf bd a8 4d 44 bd d8 27 85 bc 36 4c 52 3d
       -0.101397336 -0.04792562 -0.01625435 0.05134221
000220 b1 0f 81 3c ba 5e 60 bc d6 d4 d5 bc 02 6e 19 3b
       0.015754553 -0.01369446 -0.026102465 0.0023411517
000230 73 00 19 3c 15 be 32 bd 4d 63 c9 bb 29 1f 53 3d
       0.009338486 -0.043638308 -0.006145871 0.05154339
000240 4f 9c 13 bd 3b 86 88 bc 23 4e fa bc 5e ba 77 bb
       -0.03603774 -0.016665569 -0.030554837 -0.0037800292
000250 25 e8 d4 3b 2d 2a 7d 3c f8 1b 80 3c 89 ef 89 3c
       0.0064974003 0.01545195 0.015638337 0.016837852
000260 e6 e2 40 3c 26 be 3f bd ad ff 63 bc 37 f5 dc bb
       0.011772847 -0.0468122 -0.013915938 -0.006743099
000270 77 69 dc bb e6 51 33 bc 10 41 5f bb 56 9a e7 ba
       -0.0067264396 -0.010944819 -0.003406588 -0.0017669897
000280 75 f3 16 3c 10 d3 53 3a c4 16 ad 3c 86 32 23 bd
       0.009213318 0.0008080462 0.02112902 -0.039843105
000290 12 77 7a 3c 91 71 85 3d d6 55 d8 3b 3d 1f 08 3d
       0.015287178 0.06515802 0.0066020293 0.033232916
0002a0 d5 a3 16 3c dd 0f cb bb 59 e0 17 3d c7 63 e2 3c
       0.009194334 -0.0061969594 0.03707919 0.027635468
0002b0 68 82 7f bb 32 b0 1a 3d 37 a1 41 3d 69 5b 30 bc
       -0.003898764 0.03776569 0.047272887 -0.010763981
0002c0 de e2 44 3d ad 0d 58 3d 41 65 08 3c 75 e6 79 3c
       0.04806792 0.052747417 0.008324922 0.015252699
0002d0 85 e3 10 be a8 59 f2 bc 58 18 a9 3c 04 8c 63 bd
       -0.14149292 -0.029583767 0.02064149 -0.05555345
0002e0 74 0f 44 bd 1b 32 b6 bb 42 e1 b1 bc 4b b8 36 bd
       -0.0478663 -0.0055601723 -0.021713857 -0.04460935
0002f0 7d ba 41 bd b4 b4 89 bc e0 3b 4b 3d bc e8 1a 3d
       -0.04729699 -0.016809799 0.049617648 0.03781961
000300 f2 c1 67 bc 70 ed 4e 3d b6 01 da 3c cd 2e 28 bd
       -0.014145361 0.050519407 0.026612144 -0.041060258
000310 89 b8 be bc 5c 98 99 3c 55 18 96 bd 3d 9e 99 bc
       -0.023281353 0.018749408 -0.0732886 -0.018752212
000320 8f 8a e7 bc 12 40 a2 bc 67 a5 e3 3c 9f 3d e3 3b
       -0.028264312 -0.019805942 0.02778883 0.006934836
000330 ee 94 64 ba 8e 08 12 3d 77 66 38 3c 44 05 8a ba
       -0.0008719702 0.03565269 0.011254898 -0.0010530134
000340 18 60 93 3c 43 e1 5a 3d 81 28 93 bc 89 7d 1a 3d
       0.017990157 0.053437483 -0.01796365 0.037717376
000350 04 40 1d 3d 1c 16 e4 38 42 21 67 3c 97 5c 60 bd
       0.03839113 0.000108760054 0.01410705 -0.0547758
000360 5f 20 5b bc de b4 5f bc 24 66 a4 3c 48 ac 80 bc
       -0.013374417 -0.013653962 0.020068236 -0.01570715
000370 df 4f 8b 3c ad 6c 70 3d 91 52 3a 3d 54 27 83 bc
       0.017005859 0.05869739 0.045488898 -0.016009964
000380 df bc b7 3c a6 45 5c 3c 00 ce e4 3c 09 81 93 3b
       0.022428928 0.01344434 0.02793026 0.004501466
000390 4f 08 b1 3c 5d a9 6d 3c cb 35 b9 bc 17 14 64 bc
       0.021610407 0.014505711 -0.022608658 -0.013920805
0003a0 1f 57 49 3d c8 b9 48 bc 0e 19 88 3c bd a7 82 3c
       0.04915535 -0.012251325 0.01661351 0.015949124
0003b0 60 b8 25 bd f4 bb 2a bc 44 85 5b 3c bc a4 95 bb
       -0.040459037 -0.010420788 0.013398472 -0.004566757
0003c0 54 03 b4 3b 8f 85 4f 3d 08 38 64 ba 21 d1 e3 3c
       0.005493561 0.05066448 -0.0008705859 0.027809681
0003d0 cd ac 93 3c 39 bb be 3c 3d 75 45 bd 36 e1 9a bc
       0.018026734 0.023282634 -0.04820751 -0.018906217
0003e0 d3 d5 5e 3c c0 57 a8 bd 8a 3e 39 bd d8 3d aa bc
       0.013600784 -0.08219862 -0.045225658 -0.020781443
0003f0 12 cc 28 bd b4 fa bb bb 1b 0a 2c bc f3 63 4b 3b
       -0.04121024 -0.0057366733 -0.010500456 0.0031034916

bias f4 [32]
000000 62 b1 d2 bb d7 76 9c 3c e7 de 84 3c bf 86 1b 3d
       -0.006429837 0.019099636 0.01621957 0.0379703
000010 5f be 1f bd c7 1a 52 bd 02 6f 26 3c 0a b5 b0 3c
       -0.03899991 -0.051295068 0.010158302 0.021570701
000020 2f ba 81 3d 53 7e 32 3d 35 87 5c 3d 03 d0 40 bd
       0.0633434 0.043577503 0.05383988 -0.047073375
000030 8c c6 89 3c b0 46 27 bd 10 b2 9a bc 32 a0 40 bd
       0.016818307 -0.040838897 -0.018883735 -0.047027774
000040 a6 a0 06 3d e3 55 65 bc 3d 72 2c bd 4f 75 02 bc
       0.03286805 -0.013997528 -0.042101134 -0.007962539
000050 a3 7e cc bc a7 b9 0b bc 87 59 1f bd bc 33 48 3d
       -0.024962729 -0.00852815 -0.03890374 0.048877463
000060 3e 60 40 bd b9 ba 0d 3d 91 20 3f 3b 39 e0 de bc
       -0.046966784 0.0346019 0.0029163698 -0.027206527
000070 81 4f 28 3c 95 b1 f0 3b b3 3a 2c 3c 2c cc ea bc
       0.010272861 0.007345388 0.010512042 -0.02866181

weight f4 [32]
000000 97 a1 84 3f a0 20 7a 3f ae 4a 84 3f 7a c6 76 3f
       1.0361813 0.9770603 1.033529 0.963966
000010 dd 82 70 3f b3 e9 81 3f 27 24 82 3f 95 af 79 3f
       0.9394968 1.0149444 1.0167283 0.9753354
000020 0a 1d 85 3f 6d 57 77 3f a2 91 86 3f 29 b3 78 3f
       1.0399487 0.96617776 1.0513194 0.97148377
000030 ac 1c 7d 3f 85 56 80 3f 62 1d 87 3f 0e a1 81 3f
       0.98871875 1.0026404 1.0555842 1.0127275
000040 71 b2 7b 3f a0 fa 7a 3f c8 60 7c 3f f3 d9 72 3f
       0.98319155 0.98038673 0.98585176 0.94863814
000050 2f a6 73 3f 64 1f 81 3f 13 53 81 3f 93 f6 69 3f
       0.9517545 1.0087705 1.0103477 0.9139187
000060 6a a3 75 3f c9 4b 7b 3f 07 c1 63 3f b6 67 76 3f
       0.95952475 0.98162514 0.8896641 0.96252
000070 14 6f 7d 3f 15 a8 84 3f 87 ba 73 3f 98 51 81 3f
       0.98997617 1.0363795 0.95206493 1.0103025

bias f4 [32]
000000 64 93 fe be e6 f8 cd bd 2e 59 c7 3c 1d ef 62 be
       -0.49721825 -0.10057239 0.024334516 -0.22161527
000010 f9 5b ee 3d 81 35 59 be 5d d1 87 bd 78 0b 0a bd
       0.11638636 -0.21211816 -0.0663173 -0.033702344
000020 49 84 07 bf ca 8b 07 be 3f 4c cd be 20 76 40 bc
       -0.52936226 -0.13236919 -0.40097234 -0.011746913
000030 ce 4e d9 bc 77 ea e7 bd 7e 5f a2 bd 19 85 6a bc
       -0.026526835 -0.113240175 -0.0792837 -0.0143139595
000040 ac 42 09 be 94 d6 2a bd 21 87 98 bd 8b 47 a8 bd
       -0.1340434 -0.041708544 -0.07447649 -0.08216771
000050 af 2c a6 3d 51 97 c1 bd 1f 7d 3a be 14 cf 60 be
       0.081139915 -0.094526894 -0.18211792 -0.21953994
000060 be 9a c0 bd 0f 0f 31 be a6 41 a6 3d a5 07 19 be
       -0.09404515 -0.172909 0.0811799 -0.14944322
000070 27 ef 5a be 8e ac 39 be a7 c9 9b bd f0 ae 10 be
       -0.21380292 -0.1813223 -0.076068215 -0.14129233

running_mean f4 [32]
000000 8b cc 3a 3e 9b bc d8 3d b8 35 c9 bd ba 03 ab 3f
       0.1824209 0.10582849 -0.09824699 1.3360512
000010 13 a5 82 bd c2 79 94 be f1 d1 03 3f 07 1b 09 bf
       -0.06379142 -0.28999144 0.5149222 -0.53556865
000020 cb df 99 3d 8a 75 07 bf d7 e8 2c 3d ff 6a 1d be
       0.07513388 -0.52913725 0.04221424 -0.15372847
000030 63 c3 19 bf 10 60 db be c8 7c 44 be 73 f9 07 3e
       -0.6006376 -0.42846727 -0.19188225 0.13278751
000040 b5 9b 27 3f 55 ec da be 9d b3 12 bf 3c 05 8e be
       0.65471965 -0.42758432 -0.5730532 -0.2773837
000050 49 d1 1b bf 4b e6 66 3c 66 7a 20 bf dd b7 b6 3e
       -0.6086622 0.014092992 -0.62686765 0.35687152
000060 58 ec 3d 3e 97 82 8a 3e 28 b4 2d bf 90 c2 a5 3d
       0.18547189 0.27052757 -0.6785302 0.080937505
000070 8f d7 03 3e 9e 0d ad be 6b be 84 be 7d a2 4c 3d
       0.12875198 -0.33799452 -0.25926527 0.04995965

running_var f4 [32]
000000 42 1f 80 3e 0b 7d 62 3e 70 aa 42 3f 45 ba ed 3e
       0.25023848 0.22118013 0.76041317 0.46431175
000010 94 da 03 3f e4 0a d2 3e 4f ab 92 3e 0a a3 2d 3f
       0.515054 0.41023934 0.28646323 0.678269
000020 29 0a dd 3d 65 a1 08 3f 39 d8 b4 3d dc 19 53 3e
       0.107929535 0.5337127 0.08830304 0.20615333
000030 cd 11 a8 3e bd a4 93 3e 21 fd cd 3e 58 53 99 3e
       0.3282608 0.28836623 0.40232185 0.299464
000040 b4 87 dc 3e a7 88 dd 3e 33 0e a0 3e 1d 4c dd 3e
       0.43072283 0.4326832 0.31260833 0.43222132
000050 86 1c 18 3f 3c ab 88 3e 6c b2 98 3e 13 02 47 3e
       0.59418523 0.2669314 0.29823625 0.19434385
000060 00 08 6a 3e 78 68 34 3e 30 2e 98 3e 53 db 1e 3e
       0.22854614 0.17617977 0.29722738 0.15513353
000070 72 1b 3d 3e 4f 5d f9 3d 39 81 99 3e 2c 93 c3 3e
       0.18467501 0.12176 0.29981402 0.3819822

weight f4 [32, 32, 3, 3]
000000 11 5f 88 bd 5c bf 72 bd d0 13 03 bd 0d 8a f7 bc
       -0.066587575 -0.059264526 -0.032001317 -0.030217195
000010 76 4b db bc e5 44 85 3b 3e 1f a3 3c 4f 92 e1 bc
       -0.026769381 0.0040670508 0.019912358 -0.027535586
000020 d6 52 88 bc 6b e5 8e 3d c0 37 9f ba ad 20 52 3d
       -0.016641062 0.06977352 -0.0012147352 0.051300693
000030 fb 96 c5 bc db 55 6e bc 0a 24 46 3d f0 d8 a5 bc
       -0.024119845 -0.014546837 0.048374213 -0.020245045
000040 e6 63 ba 3c de c6 98 3c 49 e4 c1 bb 12 fa ff 3a
       0.022752713 0.018649515 -0.0059171063 0.0019529483
000050 48 4c 0e bd 0c 38 5f 3d c6 6b 2e bd 21 ea 0d bd
       -0.034740716 0.05449681 -0.04258325 -0.03464711
000060 e0 5b a1 3c f9 c5 28 3d 16 dc 57 bc 86 df 26 3d
       0.01969713 0.041204426 -0.013175031 0.040740512
000070 b9 17 2e 3c 0b 36 45 3d 83 96 80 bb ce fe 8a 3c
       0.010625773 0.048147243 -0.0039241924 0.016967203
000080 00 13 3f 3d 39 29 4a bd 24 15 e5 3b 1d 1b 98 ba
       0.04664898 -0.04935572 0.0069910455 -0.001160476
000090 89 54 06 3d 0d 13 cb bc 1c 71 83 3c b8 8f 1a bd
       0.032795463 -0.024789358 0.016045146 -0.037734717
0000a0 40 c5 1f 3d 8f 8d 0e 3c b6 9a a8 3c 82 aa 5e bd
       0.03900647 0.008700742 0.020581584 -0.054361828
0000b0 b4 9a 72 bc d0 e5 01 bc f4 37 55 3d 89 52 de 3c
       -0.014807392 -0.007928327 0.052055314 0.027138965
0000c0 35 26 14 bb 1a 00 89 bc af d4 95 bc 48 b2 75 bc
       -0.002260578 -0.016723681 -0.018289892 -0.014996119
0000d0 33 1a 54 bc 0c 4c 00 bc 74 88 b6 bc 44 7b ff bc
       -0.0129456995 -0.007830631 -0.022281863 -0.031186707
0000e0 62 21 ad bd da 7f de bc 3a 59 d2 bc 63 33 77 bd
       -0.08453633 -0.027160574 -0.025677312 -0.06035174
0000f0 3f b8 51 bd 5c b9 4e bd 1f a0 1b bd 45 35 18 3d
       -0.0512011 -0.05046974 -0.0379945 0.037160177
000100 99 a4 11 bc df 57 97 bd b6 40 1b 3d e9 a1 a9 3c
       -0.008889341 -0.07389807 0.03790351 0.020707088
000110 ce 00 dd bc ed d7 44 3c c7 42 bd 3b 13 01 62 bd
       -0.026977923 0.012014371 0.0057757827 -0.055176806
000120 1e 24 2d 3d a0 72 9a 3c e4 d0 20 3d 6f 64 f2 3c
       0.042270772 0.018853486 0.039261714 0.029588906
000130 3b 1c 2f 3d a6 5f 60 3d a1 5d 61 3d 4b 97 03 3c
       0.042751532 0.054778717 0.055020932 0.0080316765
000140 24 62 8c 3d 85 91 22 3d e9 b6 c7 3c b5 11 05 3d
       0.06854656 0.03968956 0.02437921 0.03248759
000150 bc fd 0a 3c 5b e2 2f bd 95 ad 72 3c cf 79 fe 3c
       0.008483347 -0.04294048 0.014811893 0.031063942
000160 6c 44 14 bd c9 de 1d 3d 88 46 73 bd dc f6 6a bd
       -0.036198065 0.038542543 -0.059393436 -0.05736433
000170 19 1b 0d 3d 2f 12 5f bc 7b 8f 1b bb 9d a4 aa 3c
       0.03444967 -0.013615175 -0.0023736644 0.020830447
000180 be 72 c6 bb 97 8f 8d 3d 99 95 e7 3d ad 4e 4b bd
       -0.006056159 0.06912153 0.1130783 -0.049635578
000190 1f 8c b9 bc d6 59 1f bb be e9 22 bd 6b 4a 7c 3c
       -0.022649823 -0.002431502 -0.039773695 0.015398602
0001a0 93 f4 8c 3b 5d 57 c2 bc 5a a5 a1 bc 0a 81 2c bd
       0.0043016165 -0.023723299 -0.019732166 -0.04211525
0001b0 d6 de aa 3c 59 c0 11 3c 19 c2 a1 3d b1 ff 13 3d
       0.02085821 0.008895957 0.07898349 0.03613252
0001c0 71 97 bb 3b c9 70 a6 3d 48 d9 7f 3d 82 14 80 3d
       0.0057248403 0.08126981 0.062463075 0.062539116
0001d0 5b eb ef 3c 8b db 9a 3c 50 61 7d bc 76 05 a1 3c
       0.02928703 0.018903514 -0.015465096 0.019655924
0001e0 fe 92 08 3d 39 9b 17 bd 75 de 16 3c b0 87 42 3c
       0.033343308 -0.037013266 0.009208311 0.011873171
0001f0 87 ee 04 3c cc 2c 23 bd 3a 2e b1 3d 71 19 e4 3d
       0.00811351 -0.039837644 0.08651395 0.11137665
000200 d2 11 86 3d b1 a5 df 3c d4 04 4d 3d 7c c4 45 bc
       0.06546368 0.027300688 0.050053433 -0.012070771
000210 80 f4 54 3b e1 64 a9 3b 03 cd 60 3c e7 a1 04 3b
       0.0032494366 0.0051694964 0.013720754 0.0020238103
000220 9a 9e b5 bc e9 10 dd 3c 7f 78 a0 3c d3 aa dc 3b
       -0.022170354 0.026985602 0.019588707 0.006734231
000230 91 ff 36 3d 08 83 4f 3d 5e e7 6b 3d 8b 88 ad 3d
       0.04467732 0.05066207 0.057593696 0.08473309
000240 77 63 8c 3b 0d 6c 9c bc 19 b9 13 bd 1c d2 2a 3c
       0.004284318 -0.019094491 -0.036065195 0.010426071
000250 9b 7c e5 bb 37 cf 13 3b 48 bb 04 bd cb 3c eb 3c
       -0.0070033795 0.002255393 -0.032405168 0.028715512
000260 9f 51 d8 3b 4d 67 bb bc c0 40 5f bc 3c ac 80 3c
       0.006601527 -0.022876406 -0.013626277 0.015707128
000270 c0 c1 8c 3b 12 77 21 3c aa 00 a3 bb b5 b5 cd 3a
       0.0042955577 0.009855049 -0.0049744444 0.0015694412
000280 69 65 0c bd ff 5a 6c bc 05 53 0e 3d b8 f1 88 bc
       -0.0342764 -0.014425992 0.034747142 -0.016716823
000290 6e dc 20 3b 84 90 9e 3c 8b 61 24 3c 1a 92 88 3c
       0.0024545449 0.01935602 0.010033022 0.01667123
0002a0 c5 06 77 3d fe 1e 90 3c 44 a1 14 3d 0a 47 29 bd
       0.06030919 0.017592903 0.036286607 -0.041327514
0002b0 15 b3 08 bd a6 44 cf 3b 98 24 19 3c a0 a7 c7 3c
       -0.03337391 0.006325322 0.009347104 0.024371922
0002c0 78 2c 70 bc 54 f2 5a bd bc c1 31 bd c2 92 2b bd
       -0.01465904 -0.05345376 -0.04339765 -0.041888006
0002d0 54 1f 15 3d a8 90 6a 3d 2e 44 47 3d 63 c5 82 bc
       0.03640683 0.05726686 0.048649006 -0.015963262
0002e0 f9 fc 93 bc 49 8c 26 bc b4 df 8c 3a 06 05 3f 3d
       -0.018064963 -0.0101652825 0.0010747821 0.04663565
0002f0 79 fb 8f 3d fd e6 1c 3d d3 c0 01 3d b1 64 ec bb
       0.070303865 0.038306225 0.031678032 -0.007214152
000300 ec 09 96 3d 9a e0 b8 3c 79 67 c7 3c d5 53 fb 3c
       0.07326111 0.022568036 0.024341332 0.030679623
000310 3f 32 b8 3c ab 76 0c 3c 08 31 b0 bb 63 5c 02 bb
       0.022484897 0.0085732145 -0.0053769387 -0.0019891493
000320 26 e1 b4 3d 4f 0d d8 bc 59 2e c8 bc a3 c9 8b 3d
       0.08832006 -0.026373534 -0.024436163 0.068255685
000330 20 07 18 bd 37 fd fd ba 98 57 d8 3d 55 9d b8 3c
       -0.03711617 -0.0019377832 0.10563582 0.02253596
000340 7c 4f 03 3d bf 68 dc 3c f0 07 2f 3d 10 76 6c 3d
       0.032058224 0.026905416 0.04273218 0.05772978
000350 85 8d 52 3d 4a 48 03 bc 5b c9 c5 3c 1b c3 2f 3d
       0.051404495 -0.0080128405 0.024143865 0.042910676
000360 39 1e 2c 3d 25 94 52 37 93 f4 b1 3b 76 1a ff 3c
       0.04202101 1.2551468e-05 0.005430767 0.031140547
000370 76 fb 88 3c f1 2d 06 bd 4b 01 6a bc f9 45 23 3d
       0.016721468 -0.032758657 -0.014282535 0.039861653
000380 41 92 cf 3c 83 63 9f 3d 74 c2 bb 3c 8a b3 d2 3c
       0.025338294 0.07782652 0.02291987 0.025720377
000390 4b d0 ed 3c 93 a0 aa 3c 43 cf 10 3d 42 6d 37 3d
       0.029029986 0.02082852 0.03535391 0.04478193
0003a0 c0 d5 89 3c 1a 0f c2 3b d4 68 2b bd 2b 1a f2 bc
       0.016825557 0.0059222104 -0.04184802 -0.029553493
0003b0 19 3c 24 bd 24 ec 96 bd 52 02 4d 3c 40 f6 4c 3d
       -0.040096376 -0.07369259 0.01251276 0.05003953
0003c0 53 e6 3e bd 7c ca ee 3a 13 ab a6 3c 53 25 17 3b
       -0.046606373 0.0018218304 0.020345246 0.0023063018
0003d0 c6 0b ed bb 21 b4 c2 3c b8 f7 32 bd 48 b5 c2 b9
       -0.0072340695 0.023767533 -0.043693274 -0.00037137629
0003e0 f7 f5 93 bb 74 b5 a1 bd b1 88 05 bc 04 c3 07 3d
       -0.0045154053 -0.078959376 -0.008150266 0.033144966
0003f0 86 ad 1c 3d e2 f2 e3 bc 27 03 0f bd f0 cd bb 3c
       0.038251422 -0.027825776 -0.034915116 0.022925347

bias f4 [32]
000000 39 e5 0a bd 58 22 d4 3c ef 36 36 3d 96 3a 6d 3b
       -0.03391001 0.025895283 0.044485983 0.003619825
000010 9a 5a d3 3c d2 17 50 bd 67 64 b5 bc 3f 57 5e bd
       0.025800038 -0.050803967 -0.022142602 -0.054282423
000020 cd d5 32 bd ca bd 60 bd 3c e1 52 bd 84 74 94 3b
       -0.043660928 -0.054868497 -0.05148433 0.0045304913
000030 aa 43 4b 3c e7 cd f1 bc d5 56 29 3b 05 cc b2 bc
       0.012406269 -0.029517127 0.002583911 -0.0218258
000040 33 f2 d2 3b 3b 2f 93 3c 4b 1c 23 bc b0 02 35 bd
       0.006437564 0.017966857 -0.009955476 -0.044192016
000050 6f 19 e4 3c f0 88 3e bd 72 83 34 bc ab 67 19 bc
       0.027844159 -0.046517313 -0.011017667 -0.009363095
000060 55 d6 1c bc bf 77 6c 3c af 93 fc bc 88 f9 2f bd
       -0.009572585 0.014432847 -0.03083214 -0.04296258
000070 eb 72 47 3d 86 15 5c 39 46 fc 05 bd f5 6d cc 3a
       0.04869358 0.00020988853 -0.03271129 0.0015596735

weight f4 [32]
000000 e6 c9 89 3f 91 fb 80 3f 65 20 81 3f 20 c1 87 3f
       1.076474 1.0076772 1.0088011 1.0605812
000010 8b 7f 81 3f 2c 7d 6e 3f f3 0f 76 3f f0 09 74 3f
       1.0117048 0.9315975 0.96118087 0.95327663
000020 2e 4f 77 3f 8d 38 7d 3f 0a 3e 82 3f 69 69 72 3f
       0.96605194 0.98914415 1.0175183 0.94692093
000030 ec 98 84 3f 1d 41 7e 3f fb 3e 77 3f d1 9b 6c 3f
       1.0359168 0.99318105 0.96580476 0.92425257
000040 72 f5 83 3f 83 d4 83 3f 52 8f 82 3f 70 f7 81 3f
       1.0309279 1.0299228 1.0199988 1.0153637
000050 08 fa 83 3f dd a1 83 3f c2 2b 74 3f 80 bb 7f 3f
       1.0310678 1.0283772 0.9537927 0.9989548
000060 2c d8 83 3f ce 86 7e 3f 0e ee 7d 3f 67 c2 79 3f
       1.0300345 0.99424446 0.9919137 0.9756226
000070 e4 f7 76 3f db 68 7c 3f 04 02 88 3f 1e e2 81 3f
       0.96472 0.98597497 1.0625615 1.014713

bias f4 [32]
000000 db ad bf be de fa 98 bb 01 ea 5a be 0f fe 70 bc
       -0.3743733 -0.0046685776 -0.21378328 -0.01470901
000010 d4 5d 4f be c8 46 2b 3d b9 98 c9 bd 3a 17 64 be
       -0.20250636 0.04181555 -0.09843583 -0.22274485
000020 1c 88 1a be d9 3d 66 be ad f3 62 bd 8d 63 ac bd
       -0.15090984 -0.2248453 -0.05540817 -0.08417425
000030 4f a9 01 be 9b a7 e9 bd 16 76 dd 3d 3e 86 e3 be
       -0.12662242 -0.11408921 0.10813539 -0.44438356
000040 c4 04 53 be 70 71 10 be 48 9d b0 bd 63 ff b7 be
       -0.20607287 -0.14105773 -0.08623749 -0.35937032
000050 5f 24 b8 bc fe 8a 9c be 17 10 12 be e2 ec 10 be
       -0.02247828 -0.30574793 -0.1426395 -0.14152864
000060 bf d7 93 bd a6 93 53 be 93 11 78 be 1b 0b b7 bd
       -0.07218885 -0.20661792 -0.24225454 -0.08937665
000070 76 65 48 be b9 74 29 bc b2 1f 62 be d9 e6 81 be
       -0.19569954 -0.01034277 -0.22082403 -0.25371435

running_mean f4 [32]
000000 da 94 d0 3e 5a aa 1f be 53 8d 2a 3d ec 4e 9a bc
       0.40738565 -0.15592328 0.041638684 -0.018836461
000010 de 67 37 be 82 9d 5d 3e ea 80 c5 be e1 46 7c be
       -0.17910716 0.21642116 -0.38574916 -0.24636413
000020 b1 cc 5f be 6e 49 c9 be 0d 46 c4 3e 07 81 1f 3c
       -0.21855427 -0.39313835 0.38334695 0.009735352
000030 9d 12 29 3c cc b8 2e bf 3c 1e 12 3b f4 fe 68 3e
       0.010319379 -0.6825073 0.0022295853 0.22753507
000040 2e 6e 0c bf 44 d7 78 3e e2 6d 05 bf 0d 08 9c 3a
       -0.5485562 0.24300867 -0.5212079 0.0011904255
000050 33 99 b4 be 71 ba 20 bf d1 26 1e be f5 91 eb 3e
       -0.35273132 -0.62784487 -0.15444495 0.46009794
000060 c2 d7 55 be 47 5e 8e 3e aa e1 50 3e 3e 5b af 3e
       -0.20883086 0.27806303 0.20398584 0.342493
000070 b0 fe 9e 3d 68 39 fc bd 48 bd 9f bd b3 dc e7 3e
       0.077634215 -0.12315637 -0.077997744 0.45285568

running_var f4 [32]
000000 fc 0a 48 3e 1c 12 3d 3e df cc 1b 3e b6 c8 0f 3f
       0.1953544 0.1846394 0.15214871 0.56165636
000010 78 99 93 3e da e1 f3 3d 37 35 03 3f de 45 10 3e
       0.28828025 0.11908312 0.51253074 0.14089152
000020 7d 80 09 3e 5f 0e e9 3d 54 cd bc 3e 1a 88 82 3e
       0.1342792 0.11379694 0.36875403 0.25494462
000030 4c 04 f8 3d bc 99 59 3e da 8e 39 3e 83 99 9d 3d
       0.121101946 0.21250051 0.181209 0.07695296
000040 cb f8 7b 3e 07 6b dd 3e 4c 55 3a 3e cc 24 04 3e
       0.24606626 0.43245718 0.181966 0.12904662
000050 75 18 30 3f 83 7f 3d 3e 65 ab 47 3e fe 9c 65 3e
       0.6878732 0.18505673 0.19498976 0.22423169
000060 19 84 b4 3e 55 5b 80 3e c5 f2 53 3e a1 f1 65 3e
       0.35257033 0.2506968 0.20698078 0.22455455
000070 7c a0 09 3e 8a 70 5a 3f 07 c5 21 3e bf 78 34 3e
       0.13440126 0.8532797 0.15797816 0.17624186

weight f4 [32, 32, 3, 3]
000000 d5 47 40 bd 06 65 b9 3c 68 26 26 3d be 36 41 bd
       -0.046943504 0.02263118 0.04056397 -0.047171347
000010 68 05 e4 3b e7 d7 c0 3c 9b bc bd bc 55 52 7b 3c
       0.0069586523 0.02354045 -0.023161223 0.015339454
000020 bb e8 8a 3d 5b 3b 43 bb fe e2 53 3c af 09 f2 3b
       0.06782671 -0.0029790017 0.012932537 0.0073864083
000030 d3 7a 1c ba ba 19 5e bd ad db 45 bd d0 79 8a 3c
       -0.000596923 -0.054223754 -0.048305202 0.016903788
000040 fa c1 0a 39 38 a1 34 bd db 50 af bc 19 07 4e 3c
       0.00013232967 -0.044099063 -0.02140086 0.012574934
000050 87 8f 33 3c b4 bb 06 3c 97 c7 44 bc 8e 9c 04 3b
       0.010959513 0.008223463 -0.012010477 0.0020234915
000060 42 2b 0c bc 46 1b c0 bc f3 55 45 3a 67 1f 9b bc
       -0.008555235 -0.023450505 0.0007527761 -0.018935872
000070 b3 ee e7 3c 89 60 3f bd 8f 58 8a bd 2c a0 cd bc
       0.028312063 -0.046722922 -0.067551725 -0.02510079
000080 7f ea 40 bd e5 cb 48 bd 4b 89 8d bc 85 bb b5 bd
       -0.047098633 -0.049022574 -0.01727738 -0.08873657
000090 c4 f7 2e 3c 61 0e bd bc 97 8d 8e 3c cb 70 f0 3c
       0.010679189 -0.023078145 0.0174015 0.029350659
0000a0 1a e1 77 bc 24 6b 28 3c a8 c9 b8 3c 94 49 9a bc
       -0.015129352 0.010279451 0.022557095 -0.018833913
0000b0 48 22 9a b9 9a ba d8 3c 9a 60 2e bd 7c ad ce bc
       -0.0002939871 0.026456166 -0.042572595 -0.025229208
0000c0 8b c9 93 ba ef b8 56 bb 81 08 f7 3a 4b b8 06 3d
       -0.0011275274 -0.0032764038 0.0018847139 0.0328906
0000d0 e2 cf bd 3c bd a7 51 bd 32 1c 6e bc ad df 85 3c
       0.023170415 -0.05118536 -0.0145330895 0.016342008
0000e0 f3 e2 ea ba a1 f1 30 bc 71 e6 1d 3d 5f 2c 83 bc
       -0.0017920419 -0.010799796 0.038549844 -0.016012369
0000f0 80 55 d7 3c 0e 1a 81 bc 28 c2 8e 3c 9e 94 59 ba
       0.026285887 -0.015759494 0.017426565 -0.0008300039
000100 c8 a9 d4 3b 3d da 8d bc 36 1f 4f 3b a5 22 e8 3b
       0.006489966 -0.017315978 0.0031604297 0.007084208
000110 48 65 4c bd c7 fd 8e bc 51 09 95 bc 09 7d b5 bc
       -0.049901277 -0.017454995 -0.018192919 -0.022154348
000120 05 c9 87 3c 78 0b 83 3c 5d c2 d6 bb 64 e9 3d 3b
       0.016575346 0.01599668 -0.0065539316 0.0028978223
000130 e9 86 07 bc 14 08 19 bd 48 8c d9 3c c2 1b a6 bc
       -0.008271911 -0.03736122 0.02655615 -0.020276908
000140 7b 1d 3a bd 77 a9 07 3d 06 5c 4c 3d 6e 19 08 3c
       -0.04543827 0.0331206 0.049892448 0.008306844
000150 e2 ac e1 bb 78 8a 47 3d fa 09 84 3c 5e 56 76 bc
       -0.0068870643 0.04871604 0.016118038 -0.01503524
000160 8f ff 58 3d d7 91 ca 3c af 82 4a bd 85 76 35 bd
       0.052978095 0.024727745 -0.049441036 -0.044302482
000170 93 5c d8 bc 6f d6 bf 3b 23 f8 5f bc a7 bc f2 3c
       -0.02641133 0.00585442 -0.01367 0.029630972
000180 72 8d 16 3c ae cf 36 3d 32 ef a0 3b 37 75 40 3d
       0.009188997 0.044631653 0.004911327 0.046986785
000190 8d 4f 24 3d d6 9d d6 3c 8b 5a f5 3c a0 0b fd ba
       0.040114928 0.026198309 0.0299504 -0.0019305833
0001a0 46 cc 82 3c c4 74 67 3d 90 fc 49 3d 9a b5 af 3c
       0.015966546 0.05650784 0.049313128 0.021448899
0001b0 de 7e 06 bd 80 51 c1 ba ff a2 28 bd ed 2b 57 bd
       -0.032835834 -0.001474902 -0.04117107 -0.052532125
0001c0 f1 c6 11 3d 23 67 40 bc 8e 83 91 3c 19 11 4a 3d
       0.035590116 -0.01174334 0.017762925 0.04933271
0001d0 61 7a cb 3c 43 80 13 3d 75 e3 16 3d 47 b2 03 bb
       0.024838628 0.03601099 0.036838014 -0.0020095275
0001e0 d0 13 a0 3c 97 7d 66 3d e3 16 34 3d 22 7e 2d 3d
       0.019540697 0.056272116 0.04396714 0.042356618
0001f0 64 66 87 3d 2d b2 82 3d fc ac 9e bc 58 c2 e1 3c
       0.06611326 0.063816406 -0.019369595 0.02755849
000200 fc d4 c4 3c 5d 8d 92 bc a8 ad c7 3c b0 04 4b 3b
       0.02402734 -0.017889673 0.024374798 0.0030978136
000210 b0 46 36 bc 3d d9 04 bb f0 13 86 bc 27 3b 5f bd
       -0.011125252 -0.0020271086 -0.016366929 -0.05449977
000220 14 ed c5 bc 89 92 d9 bc ff 5e ec bb 7c 95 94 bd
       -0.0241609 -0.026559131 -0.007213473 -0.072550744
000230 0b 4b 2d bc 1a 5f 3f bd 63 ed 3a bd c7 38 5d 3c
       -0.010576974 -0.046721555 -0.045636546 0.013502306
000240 6b 1c 7f bd bd 94 74 3c e1 5e 6e bc 83 f1 61 bd
       -0.06228296 0.01492804 -0.014548988 -0.055161964
000250 89 9e 82 bc e4 b7 4f 3c 38 35 3e bd ab c5 57 bd
       -0.015944736 0.01267812 -0.046437472 -0.052678745
000260 48 f0 50 bd 40 4d b3 3d 84 1d 89 3c 36 68 8a 3d
       -0.0510104 0.08754969 0.016737707 0.06758158
000270 0b bd 36 3d d0 d4 12 3d d6 2f ea ba eb 70 cd 3b
       0.04461388 0.035847485 -0.001786704 0.0062695644
000280 f4 8e b9 bb 4e c2 2a 3b 47 f3 83 bc ee 33 be 3c
       -0.0056627933 0.0026055756 -0.016107215 0.023218121
000290 e3 53 37 3c 8c 4b cd 3a 4a b6 9a bc 47 80 8d 3c
       0.011189434 0.0015662774 -0.01888575 0.017273081
0002a0 c3 4b d2 bc 83 b3 52 bc d5 0b 9d bb 5d 9c 4f bb
       -0.025670892 -0.012860182 -0.0047926703 -0.0031678893
0002b0 a5 80 59 3c e1 8c 5f bb b7 90 4a 3c 9c e2 91 3c
       0.0132753 -0.003411107 0.012363604 0.017808251
0002c0 a3 5a 3a 3c 6e 35 a5 3d b2 11 03 3d 1b d5 2a ba
       0.011374149 0.080668315 0.031999297 -0.00065167405
0002d0 c6 14 97 3c ac ef ae bc fe cc 23 bd e4 ce 9f bc
       0.018442523 -0.021354519 -0.039990418 -0.019507833
0002e0 2c df 14 3c 15 c4 5f bd 8a 47 5d bd 55 c0 fb bc
       0.009086411 -0.054630358 -0.054023303 -0.03073136
0002f0 22 95 39 bd 23 38 d9 3d 1a f5 34 3d fc a7 f1 bc
       -0.04530824 0.1060641 0.04417906 -0.029499047
000300 24 39 e6 3c d4 1f bf 3c fd 56 e6 bc 8d f9 9e 3b
       0.028103419 0.023330607 -0.028117651 0.004851526
000310 a9 75 ff 3b 6c 66 7e bb b3 ad f4 bc de 7f 84 3c
       0.0077960086 -0.0038818372 -0.029867982 0.016174253
000320 1c e0 15 3d 88 09 23 bb 0d 3f fe 3c 59 33 4e 3d
       0.03659068 -0.0024877507 0.031035924 0.050341938
000330 6b 58 a6 3b 7a 9a e6 ba c0 8f 80 3b df 5b 32 bc
       0.005076458 -0.0017593645 0.0039233863 -0.010886162
000340 c4 30 86 ba 8b 46 75 3c 24 90 44 bc 4f 6d 72 3c
       -0.0010237922 0.014970432 -0.011997256 0.014796569
000350 92 65 98 3b d3 74 4a bd 29 b9 c2 bb 76 9a 82 3c
       0.00465078 -0.04942782 -0.005942483 0.015942793
000360 fb dd 3f 3c ca 8e 41 3d a3 3c 93 3d 21 8e 18 3d
       0.011710639 0.047255315 0.071893 0.03724492
000370 4c 06 dd 3c ad cd 79 3d 9c 01 6d 3d 28 bd 1f 3c
       0.026980542 0.060987163 0.057862863 0.009749688
000380 5a fb 32 3d 8b 42 0c bb 13 37 77 bb 42 d1 01 3d
       0.04369674 -0.0021401967 -0.0037722036 0.031693704
000390 19 9f 3a bb d7 20 32 bd 8f 40 54 bc 3d fe be 3c
       -0.0028476177 -0.04348835 -0.012954845 0.02331459
0003a0 57 05 49 bd 31 35 8d bc 5f f3 0c 3d 37 78 6a 3d
       -0.049077358 -0.017237278 0.034411784 0.057243552
0003b0 b7 04 31 3c 35 c8 c0 bb 37 41 8a 3d e7 ae 96 3c
       0.010804347 -0.0058832415 0.0675072 0.018393947
0003c0 1a 36 57 bc f1 6a 7e 3c 2e 03 73 bb 52 36 b1 bc
       -0.013135457 0.0155284265 -0.0037080753 -0.021632347
0003d0 95 4b c1 bc e3 bc 06 bc bd b2 c9 ba 8f e9 33 3c
       -0.02359561 -0.008223745 -0.0015388351 0.010980978
0003e0 2d ba 41 bc f9 e6 d5 3c 89 47 1e 3d 46 93 b5 bb
       -0.011824173 0.026111113 0.03864244 -0.005541238
0003f0 f1 1b 64 3d 5d 17 b8 3c 1d 59 38 3c 9c be 93 3c
       0.05569071 0.022472078 0.011251715 0.018035226

bias f4 [32]
000000 67 23 18 bc 78 b3 20 3d 56 25 56 3d f7 f8 4c 3d
       -0.009285784 0.039233655 0.0522817 0.05004212
000010 c2 67 0d bd 5c a0 5e bc 1f 60 95 bc 4c 05 50 3b
       -0.03452278 -0.013588037 -0.01823431 0.0031741438
000020 d5 24 bf 3c 3f c1 4d 3c f7 96 c3 bc 8a 93 f9 3c
       0.023332993 0.0125582805 -0.023875697 0.03046586
000030 56 36 2b bd 0d 09 88 3c df b7 63 bd a2 80 d1 3c
       -0.041799866 0.016605878 -0.055595275 0.025574032
000040 65 0f 27 3d 18 e2 fc bc 91 3a 19 3c 90 3c 06 3c
       0.040786166 -0.030869529 0.009352342 0.00819315
000050 a2 30 20 3d b0 70 0a 3a 81 9c 54 3d 0e 74 7c bc
       0.03910888 0.0005281074 0.051907066 -0.015408529
000060 99 38 d7 3c e3 bd 8f bc dd 8b 3e bd 33 41 28 bd
       0.026272105 -0.0175466 -0.046520103 -0.041077804
000070 35 49 0e 3d 89 dd 4f 3d 37 69 ef bc b8 c9 44 bd
       0.034737784 0.05074838 -0.029224975 -0.048043936

weight f4 [32]
000000 da 7a 80 3f eb 9d 87 3f 40 8f 89 3f cd 5e 85 3f
       1.0037491 1.0595068 1.0746841 1.0419556
000010 f6 1b 73 3f 9c 07 82 3f 18 37 8b 3f 7e 46 86 3f
       0.9496454 1.0158572 1.0876188 1.0490263
000020 72 43 84 3f 40 e1 7d 3f dd 7d 7e 3f 10 7f 80 3f
       1.0333083 0.9917183 0.994108 1.0038776
000030 88 31 7e 3f 91 81 87 3f 0b cc 80 3f af 73 80 3f
       0.9929433 1.0586416 1.0062269 1.0035304
000040 f3 1f 82 3f 07 b5 94 3f 86 5b 87 3f 46 5b 85 3f
       1.0166 1.1617745 1.0574806 1.041848
000050 95 b5 7f 3f 57 a9 7f 3f 20 2c 83 3f 3c b1 81 3f
       0.9988645 0.9986777 1.0247841 1.0132213
000060 40 96 7b 3f ab b6 78 3f cd 24 83 3f 0e d5 83 3f
       0.9827614 0.9715373 1.0245606 1.0299394
000070 cc e6 85 3f 99 b1 7d 3f 78 6f 81 3f 09 6f 86 3f
       1.0461059 0.9909912 1.0112143 1.0502635

bias f4 [32]
000000 80 99 81 be 08 57 9a ba 1b b2 fd bd 1b b3 d9 bc
       -0.25312424 -0.0011775205 -0.123874865 -0.026574662
000010 06 50 27 be da 72 8a be 86 91 6b be b0 7b 0c be
       -0.1633912 -0.2704075 -0.23004732 -0.13719058
000020 89 65 ff bc 70 14 ad bd 24 e6 9b bd 3a 10 e4 bd
       -0.031176345 -0.08451164 -0.07612255 -0.111359075
000030 58 59 6c bd e6 0b 6b bc 8c c6 09 be 72 00 37 3c
       -0.057702392 -0.0143460985 -0.13454646 0.01116954
000040 9f b5 51 bd 18 00 9b bd 46 f2 bc bd 3c 08 37 3c
       -0.051198598 -0.07568377 -0.092258975 0.011171397
000050 8f a2 b3 bd 5f bf 8c 3d da 7c 23 bd 4b 3e f6 bd
       -0.0877124 0.06872439 -0.03991399 -0.120236
000060 21 d0 7e bd 19 c6 0a be e0 68 9a bb 33 ed 0e be
       -0.062210206 -0.13552131 -0.004712209 -0.13957672
000070 2a 05 57 3d ad 57 6f bd b9 8a 06 be 6b e0 af 3a
       0.05249516 -0.058433224 -0.13138856 0.0013418322

running_mean f4 [32]
000000 e2 f3 0b 3d fa ca 24 bc 15 91 6f 3e 0b e8 3f 3e
       0.03416813 -0.010058159 0.23395188 0.18740861
000010 32 78 3e 3d 5a b8 b1 bd 90 ef 05 3d b7 3d 28 be
       0.046501346 -0.086777404 0.032699168 -0.16429792
000020 70 58 3c bd 1b 6e 05 3d d0 38 8d be b0 b2 2c be
       -0.045982778 0.032575708 -0.27582407 -0.16865039
000030 f3 ba ab be 03 36 86 3d ea 4e cd be bd 52 19 be
       -0.33541068 0.06553271 -0.4009927 -0.14972968
000040 09 3a 96 3d 48 6f f8 bd 35 00 ea bb 75 9c c7 3d
       0.07335288 -0.121306 -0.007141138 0.09746639
000050 62 61 90 bd f0 bd 2e be 33 db 06 bd f6 93 87 3d
       -0.07049824 -0.17064643 -0.03292389 0.06620018
000060 6a 8f bf be 81 50 44 be dc c6 87 be cb b4 2d be
       -0.37414104 -0.19171335 -0.26518905 -0.16963498
000070 e1 c2 90 3d 2b ad 4f 3d 9f 21 c5 3d ab 78 0a be
       0.0706842 0.050702255 0.09625553 -0.13522594

running_var f4 [32]
000000 2d 84 cb 3d 25 bc de 3e 7b 58 2a 3e 70 19 55 3e
       0.0993732 0.43502918 0.16635315 0.20810485
000010 21 0a 96 3e ec 0b 5d 3e 38 28 01 3e d5 de 7e 3e
       0.29304603 0.21586579 0.12612998 0.24889691
000020 df 71 dc 3e 58 e5 89 3e c1 e1 c5 3e ec ac c7 3e
       0.43055627 0.26932788 0.386488 0.38999116
000030 2d 59 95 3e 80 d6 58 3e dc 8c 36 3f 55 f6 7f 3e
       0.29169598 0.21175575 0.71308684 0.24996312
000040 21 ce 37 3f 84 e0 ce 3e ea f1 93 3e fe e7 00 3f
       0.717989 0.40405667 0.28895503 0.5035399
000050 5b d1 a2 3e 71 25 3a 3e ba ad a1 3e e7 d6 30 3e
       0.3180035 0.18178345 0.31577855 0.17269479
000060 7f 5e a5 3e 6b c1 af 3e 1b 24 68 3e ea 68 39 3e
       0.32298657 0.34327254 0.22670023 0.18106428
000070 3b c9 3b 3f b4 00 a9 3e 65 58 ad 3e c7 5d 14 3f
       0.7335393 0.3300835 0.33856502 0.5795559
