TuiGAN/models/apple2orange/ba4.pth (torch, 233612 bytes, 46 tensors)

weight f4 [32, 3, 3, 3]
-0.044873796 0.01943831 -0.016538294 -0.041206624 0.019679 -0.020096363 -0.032024868 -0.01355243
-0.081696145 0.013790779 0.058193807 0.052249763 0.0007596489 -0.0016779085 0.027387561 -0.010517621
0.038506594 -0.02354811 0.01617392 0.013564257 -0.0044459132 -0.054321356 -0.047153305 -0.03312674
-0.015978498 -0.008258376 -0.002116416 -0.04616133 -0.03610297 0.021998947 0.006686991 -0.036828674
-0.0074056196 0.028503455 0.053620353 0.007939732 0.013382046 -0.0057776314 -0.014590416 0.020465711
-0.042786747 -0.040714465 0.02562945 0.018954072 -0.045039024 0.083084196 0.034350164 0.032287054
0.015143113 -0.08100077 -0.015732268 -0.021327509 0.020596048 -0.03812075 -0.046769705 -0.010600556
-0.013819295 0.03191826 0.035938874 0.07383741 -0.011402727 0.031941354 0.043418203 -0.043962892
0.06881406 0.009409656 0.042679362 0.014033603 0.0077594332 0.010209136 -0.046282083 -0.009424886
0.0044461847 0.020695765 -0.04351497 0.00037844927 0.004890719 -0.020627378 -0.027114535 -0.056256123
0.00043711162 -0.03236187 -0.023873357 -0.004377124 -0.047028363 -0.01367726 0.0171784 -0.03888368
-0.02087247 0.00673596 0.012401434 0.05087376 0.07165926 -0.011156489 0.01747666 0.03216954
0.04393386 0.057774376 0.052966427 -0.013370599 -0.004838761 0.008262682 0.020556519 0.027726648
0.009650476 0.044602007 0.018792704 -0.0014190351 0.09008008 -0.0028213912 -0.05873769 0.06461109
-0.0018080538 -0.056511704 0.050878458 0.01672768 -0.04955852 -0.0019332863 0.013343308 0.021513425
0.01955915 -0.022775745 -0.00078921654 0.01292031 -0.02290047 -0.007785313 0.025443118 0.010527228
0.0060528917 0.044509348 0.025412265 0.007410843 0.00015049451 -0.0059658485 0.02645148 -0.022227667
0.00408814 -0.0040536784 -0.028880138 -0.002093872 -0.048835926 0.02969022 0.006804334 -0.01981901
0.010223872 -0.02782493 0.02679 0.0088448245 0.05085753 -0.013275958 0.020032234 0.014999334
0.101733856 -0.058770623 -0.017850513 -0.007016923 -0.021985944 -0.046146926 -0.03956959 -0.032454025
-0.098234 -0.0057543153 0.032975845 0.03399186 -0.013274183 0.023343349 -0.0017898799 -0.0032986086
-0.017858852 -0.012106771 -0.025417656 -0.004687742 0.01799296 -0.06276026 0.0007716902 -0.027445402
-0.056111846 0.00881364 -0.052023906 -0.00022926103 0.044196945 0.032472264 -0.01071099 0.019921273
-0.043155666 0.0054011988 0.07757059 0.0089407405 0.09226927 -0.020823093 -0.02490008 0.00203817
-0.034369364 -0.0074353176 0.056588873 -0.028335571 -0.09552576 -0.058359843 -0.010942978 -0.024511179
0.017246768 -0.0012627479 -0.035121106 -0.0011052743 -0.002757448 -0.013466981 -0.029802617 0.043407913
0.020692803 -0.007284167 -0.00869918 0.05362637 0.04488144 0.0434493 -0.00982041 0.029137328
-0.014413877 -0.007628745 0.02787714 0.012594641 0.04517115 -0.040998966 -0.0004569645 -0.025303308
0.013305597 0.03102297 -0.016448714 0.030094093 0.0011208835 -0.09514049 -0.02037687 0.03207268
-0.058501862 0.037349764 -0.0073337588 -0.03274427 0.06255576 0.06360056 -0.09703218 -0.003369792
-0.029027298 0.02405659 -0.007922698 -0.05466282 -0.0163219 -0.011898061 -0.03060085 -0.006976449
-0.023012564 -0.05279137 -0.00014768331 -0.036632016 0.025107456 0.009951925 0.0049150456 0.0018732041
00000000: 96cd 37bd 173d 9f3c 517b 87bc 47c8 28bd
00000010: db35 a13c 21a1 a4bc 822c 03bd 030b 5ebc
00000020: 4f50 a7bd b8f2 613c a15c 6e3d d903 563d
00000030: 2d23 473a 44ed dbba e15b e03c 1a52 2cbc
00000040: 17b9 1d3d f7e7 c0bc 2b7f 843c 9e3c 5e3c
00000050: 06af 91bb 1280 5ebd d323 41bd e8af 07bd
00000060: 57e5 82bc 244e 07bc 92b3 0abb aa13 3dbd
00000070: b5e0 13bd 2337 b43c 8c1e db3b aad9 16bd
00000080: d7aa f2bb 1480 e93c 04a1 5b3d a615 023c
00000090: 5e40 5b3c 4952 bdbb a40c 6fbc b5a7 a73c
000000a0: 2841 2fbd 36c4 26bd daf4 d13c 9245 9b3c
000000b0: d77a 38bd 0c28 aa3d c2b2 0c3d 6e3f 043d
000000c0: d21a 783c bbe3 a5bd f5e0 80bc 07b7 aebc
000000d0: 0bb9 a83c 8124 1cbd 9791 3fbd f4ad 2dbc
000000e0: 536a 62bc b9bc 023d a434 133d 1138 973d
000000f0: 81d2 3abc f0d4 023d 49d7 313d 6f12 34bd
00000100: 63ee 8c3d f52a 1a3c 8ed0 2e3d 32ed 653c
00000110: d842 fe3b 3844 273c 4892 3dbd d66a 1abc
00000120: 4db1 913b 2a8a a93c c13c 32bd 9a6a c639
00000130: 5342 a03b bffa a8bc 4d1f debc d26c 66bd
00000140: 212c e539 e18d 04bd 0f92 c3bc fa6d 8fbb
00000150: d0a0 40bd 9616 60bc b7b9 8c3c 7e44 1fbd
00000160: befc aabc 54b9 dc3b 622f 4b3c 0161 503d
00000170: 17c2 923d b5c9 36bc 362b 8f3c 35c4 033d
00000180: fef3 333d d3a4 6c3d 53f3 583d 5b10 5bbc
00000190: 788e 9ebb 3360 073c 2566 a83c ff22 e33c
000001a0: 081d 1e3c 98b0 363d 28f3 993c ebfe b9ba
000001b0: e87b b83d 17e7 38bb ef96 70bd d252 843d
000001c0: 38fc ecba d178 67bd ee65 503d 7d08 893c
000001d0: e0fd 4abd 5366 fdba e49d 5a3c ec3c b03c
000001e0: 833a a03c 3394 babc 6de3 4eba b5af 533c
000001f0: c499 bbbc f01b ffbb 166e d03c 657a 2c3c
00000200: 5657 c63b 6f4f 363d 622d d03c a8d6 f23b
00000210: 10ce 1d39 2a7d c3bb c6b0 d83c cc16 b6bc
00000220: cef5 853b b8d4 84bb 0a96 ecbc 5839 09bb
00000230: 2e08 48bd e738 f33c e4f6 de3b 7a5b a2bc
00000240: 0782 273c 1cf1 e3bc b476 db3c e2e9 103c
00000250: fc4f 503d 6783 59bc a41a a43c c4bf 753c
00000260: d759 d03d 77b9 70bd 3d3b 92bc 37ee e5bb
00000270: de1b b4bc 8f04 3dbd b913 22bd 83ee 04bd
00000280: e82e c9bd b28e bcbb ae11 073d 0c3b 0b3d
00000290: f57b 59bc 8d3a bf3c 679a eaba 782d 58bb
000002a0: ba4c 92bc 7a5b 46bc b038 d0bc a19b 99bb
000002b0: f965 933c 7488 80bd 414b 4a3a 2ed5 e0bc
000002c0: 89d5 65bd 1667 103c 0517 55bd ca65 70b9
000002d0: db07 353d a301 053d 267d 2fbc f031 a33c
000002e0: ffc3 30bd 8afc b03b 54dd 9e3d 2f7c 123c
000002f0: acf7 bc3d 3195 aabc 41fb cbbc d192 053b
00000300: e4c6 0cbd f7a3 f3bb bcc9 673d 0020 e8bc
00000310: 02a3 c3bd bb0a 6fbd 2d4a 33bc abcb c8bc
00000320: 1849 8d3c ca82 a5ba 26db 0fbd dade 90ba
00000330: 4db6 34bb 9da4 5cbc 9e24 f4bc 7fcc 313d
00000340: f483 a93c 06b0 eebb 0187 0ebc 53a7 5b3d
00000350: 9ad5 373d e5f7 313d c9e5 20bc 68b1 ee3c
00000360: 2f28 6cbc 8dfa f9bb 9a5e e43c c159 4e3c
00000370: 6205 393d 88ee 27bd bd94 efb9 e248 cfbc
00000380: b8ff 593c e223 fe3c 74bf 86bc e387 f63c
00000390: 9cea 923a 04d9 c2bd 65ed a6bc a45e 033d
000003a0: a69f 6fbd 11fc 183d 0750 f0bb db1e 06bd
000003b0: 3c1d 803d 0341 823d cfb8 c6bd bad7 5cbb
000003c0: a8ca edbc 5312 c53c 34ce 01bc 1fe6 5fbd
000003d0: 81b5 85bc 16f0 42bc a2ae fabc b29a e4bb
000003e0: d884 bcbc c33b 58bd 70db 1ab9 740b 16bd
000003f0: 27ae cd3c 660d 233c 640e a13b 4d86 f53a

bias f4 [32]
0.57696307 0.55962133 0.6185284 0.7526741 0.7317683 0.48780018 0.5064178 0.6824282
0.5584653 0.7912872 0.540525 0.7141269 0.5035088 0.8637708 0.6899883 0.7158472
0.49322474 0.6458799 0.5795162 0.6590001 0.6337623 0.6916082 0.7798663 0.5119911
0.56539696 0.7299064 0.7525516 0.6689419 0.6052146 0.7175754 0.5827937 0.6973525
00000000: dab3 133f 5843 0f3f e157 1e3f 40af 403f
00000010: 2b55 3b3f f2c0 f93e 99a4 013f 9db3 2e3f
00000020: 95f7 0e3f cc91 4a3f d95f 0a3f 05d1 363f
00000030: f4e5 003f 1520 5d3f 13a3 303f c341 373f
00000040: f487 fc3e 6358 253f 2c5b 143f 3bb4 283f
00000050: 3f3e 223f 3c0d 313f 51a5 473f d911 033f
00000060: dbbd 103f 25db 3a3f 39a7 403f c73f 2b3f
00000070: 58ef 1a3f 05b3 373f f831 153f b285 323f

weight f4 [32]
0.920981 0.97111 0.95857596 0.9390726 0.9442208 0.9960239 0.96913147 0.9844205
0.96166533 0.9686939 0.99478763 1.0526277 1.0450404 0.96708274 0.9844408 0.941622
1.0173858 0.98577875 0.9822906 0.9806526 1.0165452 0.959139 0.95916504 0.9612311
1.0039176 0.9798751 1.0115598 0.98846406 1.1456738 1.0300618 0.9724379 1.0161924
00000000: 69c5 6b3f aa9a 783f 3c65 753f 1067 703f
00000010: 74b8 713f 6cfb 7e3f 0019 783f fb02 7c3f
00000020: b32f 763f 53fc 773f 67aa 7e3f 81bc 863f
00000030: e2c3 853f bc92 773f 5004 7c3f 240e 713f
00000040: b339 823f ff5b 7c3f 6677 7b3f 0c0c 7b3f
00000050: 271e 823f 228a 753f d78b 753f 3e13 763f
00000060: 5f80 803f 18d9 7a3f cb7a 813f fb0b 7d3f
00000070: 70a5 923f 11d9 833f b1f1 783f 9812 823f

bias f4 [32]
-0.107461244 -0.33907476 -0.0180844 -0.0531444 -0.1923836 0.007453542 -0.14876175 0.014689052
-0.02348999 -0.026086563 -0.00960514 0.06267664 -0.0099956915 -0.008045555 -0.044518434 -0.092199646
0.09375644 -0.21030188 -0.014926025 -0.024533289 0.14653923 -0.011353209 -0.13073087 0.039433975
0.07466654 0.13550815 0.04808139 0.0106363455 0.37313154 0.043837678 0.09397889 -0.05370555
00000000: a414 dcbd 359b adbe bc25 94bc f1ad 59bd
00000010: 3500 45be d83c f43b 0055 18be 59aa 703c
00000020: 146e c0bc 7db3 d5bc e15e 1dbc 9c5c 803d
00000030: f8c4 23bc 81d1 03bc f658 36bd 2bd3 bcbd
00000040: 6003 c03d 6059 57be 498c 74bc 09fa c8bc
00000050: 610e 163e cf02 3abc 50de 05be 8585 213d
00000060: c5ea 983d a6c2 0a3e fef0 443d 1144 2e3c
00000070: 190b bf3e 238f 333d 0178 c03d 5afa 5bbd

running_mean f4 [32]
0.550556 0.5689262 0.7169201 0.47373968 0.6353218 0.62169725 0.42300135 0.5163588
0.6104153 0.9730777 0.8006011 0.39359114 0.6150854 0.98977286 0.52952623 0.69287425
0.79187226 0.53554267 0.699653 0.48920274 0.5444284 0.5884904 0.8982042 0.43243423
0.80876595 0.49347296 0.06604558 0.603655 0.6796607 0.53970414 0.835275 0.7861869
00000000: 3df1 0c3f 26a5 113f 1388 373f 028e f23e
00000010: 73a4 223f 8d27 1f3f a293 d83e 1730 043f
00000020: 2d44 1c3f 9f1b 793f 32f4 4c3f c784 c93e
00000030: 3d76 1d3f c161 7d3f 088f 073f 3560 313f
00000040: 24b8 4a3f 5319 093f 761c 333f c878 fa3e
00000050: a95f 0b3f 4fa7 163f b6f0 653f 0568 dd3e
00000060: 490b 4f3f 7da8 fc3e e842 873d 2289 1a3f
00000070: 3efe 2d3f 0d2a 0a3f 95d4 553f 8b43 493f

running_var f4 [32]
0.004392415 0.0012147746 0.0048856507 0.008481325 0.003499672 0.0033449407 0.0028618416 0.012249972
0.0008426643 0.025677353 0.0047760066 0.00745845 0.021581735 0.004423676 0.013962049 0.0019356295
0.0072878664 0.002697486 0.031497985 0.0024173472 0.0009828588 0.0079100495 0.026416603 0.0028224266
0.006151399 0.003511063 0.03635097 0.0014155173 0.0016167711 0.014648254 0.003475816 0.008787843
00000000: 3fee 8f3b 1239 9f3a cf17 a03b 41f5 0a3c
00000010: c15a 653b cb36 5b3b bc8d 3b3b 1bb4 483c
00000020: 3ee6 5c3a 5059 d23c 0c80 9c3b 0366 f43b
00000030: 2ecc b03c 7cf4 903b 14c1 643c f3b4 fd3a
00000040: 0ecf ee3b 4ec8 303b 0804 013d 5b6c 1e3b
00000050: 45d3 803a 2799 013c a267 d83c 76f8 383b
00000060: ad91 c93b dd19 663b c1e4 143d e188 b93a
00000070: d6e9 d33a 3bff 6f3c 84ca 633b e3fa 0f3c

weight f4 [32, 32, 3, 3]
0.021951111 -0.0017804058 0.015246044 0.039688416 0.0042501115 0.017722294 0.034323405 0.046279922
0.037477687 0.09065961 0.0583032 0.0081860395 0.030051067 0.03331387 -0.007027214 0.03212739
0.043940336 0.069940574 -0.02287707 0.015529788 0.019341884 0.0049089347 0.016768325 0.01490261
-0.00654533 0.0057792347 0.014664998 -0.006450081 -0.04517198 -0.04853912 0.0076764915 -5.7905352e-05
0.010096615 -0.013147311 -0.010596307 -0.020001812 0.014536074 -0.006858901 -0.01242896 -0.007256877
0.028552145 -0.015084225 0.015611605 0.010126266 0.026848745 -0.023879308 -0.0027435762 -0.0022767694
-0.0010474738 0.015691768 -0.025931805 0.015566699 0.0101239355 -0.037578247 0.01317986 -0.0016784715
0.017750025 0.006855404 0.011589021 0.011089141 0.03373546 0.014304343 0.11769721 -0.003972797
0.017726583 0.019975498 0.047283687 0.045842603 -0.008953618 0.05788992 0.01683675 0.04003927
0.026116977 0.047655728 0.051647913 0.025359029 0.017641095 0.027308933 0.026807753 -0.02222844
0.0039376197 0.017726677 0.02576587 0.013822103 0.06643662 0.02284648 0.03273669 0.031486288
0.05848354 0.058794614 0.04744353 0.036557052 -0.012261166 0.006769411 0.010389742 -0.0022636065
0.013525719 0.005293567 -0.054994974 -8.444707e-05 -0.0540898 0.029789466 0.03730345 -0.006844043
-0.035575856 0.029003914 -0.010737994 -0.037002623 -0.0035144128 0.0033572586 -0.0060626273 0.010512331
0.02341181 0.0028700493 0.03979602 0.036925267 -0.01034381 0.06828492 0.05378546 0.06586571
0.053848237 0.061336726 0.054032963 0.013760517 0.012359309 0.019236322 0.06019882 -0.019887224
0.03379489 0.004811563 0.025698338 0.053156838 0.005247857 0.011546661 0.042265333 -0.003031124
-0.0054892837 -0.00022965914 -0.011110828 -0.023267772 -0.00034181963 -0.0023575518 0.035289228 0.02708716
0.067081735 0.056114003 0.055147618 0.0774047 0.054565787 0.042258903 0.082228296 0.07022808
0.023791282 0.07112181 0.044127967 0.026153546 0.07205417 -0.004592546 0.0035391347 0.02548955
-0.001139905 0.02907456 0.05121596 0.00410312 0.05026196 0.052545052 0.06771999 0.07471818
0.041199133 0.05226423 0.04973743 0.029107222 0.014143389 -0.035261866 -0.039230093 0.020640712
-0.01713257 -0.094038196 -0.075705275 0.01699624 -0.015513462 -0.106607735 -0.0708892 0.017962415
-0.0692334 -0.022329176 -0.022376563 -0.016104518 0.02061068 0.031782348 -0.011621027 0.030593878
0.003126575 -0.0002769461 0.017024351 0.03911251 -0.005292059 0.03750723 0.070116095 0.00455291
0.020592865 0.067075625 0.08594002 0.047745258 0.10226729 0.020618703 0.05218766 0.01290493
-0.021070706 0.01790258 -0.015324602 0.0072232434 0.0140786115 0.0066442764 -0.028867962 0.005837011
-0.03695454 -0.017551927 -0.042216677 0.010057403 -0.03695587 -0.030350806 -0.022329122 -0.04451316
-4.7425725e-05 -0.0003042485 -0.012371438 -0.04323234 -0.006272704 -0.03844611 -0.016936352 0.008496472
0.02460045 -0.019707369 0.044736944 -0.0033100396 0.018170247 0.019671522 0.0055734105 -0.0012569916
0.018847272 0.066476665 0.044123173 0.01546296 -0.037958536 -0.051942714 0.041524343 0.02406973
-0.018337684 0.040728822 0.06893558 0.024663128 -0.039597496 -0.07567174 -0.088389754 -0.009773249
00000000: d1d2 b33c 815c e9ba 8bca 793c 5290 223d
00000010: 8544 8b3b 582e 913c b396 0c3d 0490 3d3d
00000020: 3482 193d bfab b93d 56cf 6e3d bd1e 063c
00000030: a82d f63c 2074 083d 8b44 e6bb 0398 033d
00000040: c8fa 333d 013d 8f3d b168 bbbc a770 7e3c
00000050: df72 9e3c 21db a03b ba5d 893c 142a 743c
00000060: 357a d6bb bc5f bd3b 7645 703c 335b d3bb
00000070: 4106 39bd f5d0 46bd 148b fb3b 66df 72b8
00000080: 466c 253c d267 57bc 229c 2dbc d7da a3bc
00000090: b728 6e3c a2c0 e0bb d6a2 4bbc 19cb edbb
000000a0: 30e6 e93c d323 77bc d1c7 7f3c a3e8 253c
000000b0: e6f1 db3c 8a9e c3bc 92cd 33bb da35 15bb
000000c0: 634b 89ba 068c 803c f06e d4bc 780b 7f3c
000000d0: ddde 253c a6eb 19bd 57f0 573c 2800 dcba
000000e0: 8068 913c 4ca3 e03b e1df 3d3c 3aaf 353c
000000f0: 322e 0a3d c35c 6a3c 3c0b f13d 3d2e 82bb
00000100: 5737 913c a8a3 a33c 8aac 413d 74c5 3b3d
00000110: 32b2 12bc fb1d 6d3d 39ed 893c 3800 243d
00000120: 45f3 d53c a732 433d c38c 533d bdbd cf3c
00000130: 0f84 903c fcb6 df3c ef9b db3c 6b18 b6bc
00000140: 2607 813b 8937 913c f212 d33c 1a76 623c
00000150: ec0f 883d 8b28 bb3c e816 063d c4f7 003d
00000160: 708c 6f3d 9fd2 703d 2654 423d d9bc 153d
00000170: 0fe3 48bc efd1 dd3b bd39 2a3c 0459 14bb
00000180: fa9a 5d3c a975 ad3b 6942 61bd 2d19 b1b8
00000190: 448d 5dbd 0a09 f43c 81cb 183d fe43 e0bb
000001a0: fdb7 11bd 9e99 ed3c 69ee 2fbc 1090 17bd
000001b0: 1052 66bb 7405 5c3b 01a9 c6bb e93b 2c3c
000001c0: 20ca bf3c 7017 3c3b 2701 233d f33e 173d
000001d0: 1579 29bc f7d8 8b3d 244e 5c3d 9ae4 863d
000001e0: f88f 5c3d 383c 7b3d ab51 5d3d cb73 613c
000001f0: b37e 4a3c 7e95 9d3c 0a93 763d 88ea a2bc
00000200: 836c 0a3d 51aa 9d3b 5285 d23c fcba 593d
00000210: 37f6 ab3b 352e 3d3c 6a1e 2d3d d2a5 46bb
00000220: 73df b3bb a8d0 70b9 310a 36bc 0e9c bebc
00000230: 4136 b3b9 2881 1abb 708b 103d e4e5 dd3c
00000240: 2662 893d ccd7 653d 78e2 613d 5b86 9e3d
00000250: 6080 5f3d ac17 2d3d 4f67 a83d bdd3 8f3d
00000260: efe5 c23c 50a8 913d 87bf 343d f63f d63c
00000270: 2391 933d 117d 96bb d4f0 673b 76cf d03c
00000280: dd68 95ba c62d ee3c d4c7 513d 7773 863b
00000290: 7cdf 4d3d 7b39 573d c7b0 8a3d d805 993d
000002a0: 6cc0 283d 0413 563d 7ab9 4b3d 4572 ee3c
000002b0: acb9 673c bf6e 10bd bcaf 20bd b616 a93c
000002c0: 9a59 8cbc 1997 c0bd 5e0b 9bbd b33b 8b3c
000002d0: 2d2c 7ebc 2855 dabd 5b2e 91bd ea25 933c
000002e0: 3eca 8dbd adeb b6bc 0e4f b7bc 9fed 83bc
000002f0: bbd7 a83c 352e 023d 1f66 3ebc 03a0 fa3c
00000300: 39e7 4c3b 1433 91b9 a776 8b3c 7034 203d
00000310: 0269 adbb 2ea1 193d 0799 8f3d 9430 953b
00000320: 5eb2 a83c f25e 893d 5201 b03d 8890 433d
00000330: 8371 d13d 8ee8 a83c bac2 553d 336f 533c
00000340: 799c acbc 6ea8 923c 0a14 7bbc f5b0 ec3b
00000350: faa9 663c 3bb8 d93b 817c ecbc 6644 bf3b
00000360: a55d 17bd 0fc9 8fbc 65eb 2cbd cec7 243c
00000370: 0a5f 17bd 41a2 f8bc 90eb b6bc 6e53 36bd
00000380: fcea 46b8 8b83 9fb9 92b1 4abc 6514 31bd
00000390: 418b cdbb ab79 1dbd 1bbe 8abc c934 0b3c
000003a0: e286 c93c 5971 a1bc 163e 373d 40ed 58bb
000003b0: c5d9 943c 2c26 a13c 28a1 b63b a4c1 a4ba
000003c0: 9865 9a3c eb24 883d 80ba 343d 5b58 7d3c
000003d0: 697a 1bbd e2c1 54bd 6e15 2a3d e22d c53c
000003e0: e938 96bc 44d3 263d 192e 8d3d 540a ca3c
000003f0: fc30 22bd c9f9 9abd b005 b5bd fa1f 20bc

bias f4 [32]
0.6414786 0.607505 0.49824548 0.74254507 0.5640812 0.7152839 0.651952 0.62652266
0.64779925 0.55212265 0.6594296 0.62214726 0.66946125 0.5169707 0.5242834 0.704647
0.6782515 0.5403221 0.65416956 0.74740523 0.6057345 0.58413696 0.6192611 0.6488641
0.6774213 0.6786866 0.5686629 0.52074635 0.63085604 0.693562 0.64610124 0.66780275
00000000: f137 243f 7385 1b3f 081a ff3e 6f17 3e3f
00000010: a067 103f d81c 373f 54e6 263f ca63 203f
00000020: 2cd6 253f e957 0d3f 61d0 283f 0b45 1f3f
00000030: d061 2b3f 3158 043f 7037 063f bf63 343f
00000040: e4a1 2d3f 8d52 0a3f a877 273f f355 3f3f
00000050: 6b11 1b3f 008a 153f e587 1e3f f51b 263f
00000060: 7b6b 2d3f 68be 2d3f e493 113f a24f 053f
00000070: c87f 213f 478d 313f e466 253f 1ff5 2a3f

weight f4 [32]
1.0246439 0.9438591 0.9771196 1.0271755 0.9702866 0.974831 0.9861864 1.0145731
0.993635 1.0184639 1.0383321 0.95210797 0.9963349 0.99959224 1.0571617 0.98840654
0.99683493 0.9705758 0.95560086 1.0174743 0.9703108 0.9734613 1.0611644 0.95438737
0.94178617 0.98137915 0.9880458 1.0072597 1.0688661 1.0304776 0.90724605 1.0762072
00000000: 8827 833f c0a0 713f 8324 7a3f 7d7a 833f
00000010: b464 783f 868e 793f b676 7c3f 88dd 813f
00000020: dd5e 7e3f 065d 823f 11e8 843f 59bd 733f
00000030: ce0f 7f3f 47e5 7f3f 1351 873f 3608 7d3f
00000040: 9330 7f3f a877 783f 42a2 743f 993c 823f
00000050: 4a66 783f c234 793f 3cd4 873f bb52 743f
00000060: e618 713f aa3b 7b3f 92f0 7c3f e3ed 803f
00000070: 9bd0 883f b1e6 833f 4741 683f 28c1 893f

bias f4 [32]
-0.14635134 -0.09987706 0.011318538 -0.20488094 -0.042277873 -0.056791116 -0.081787415 0.06708854
-0.22546655 -0.03361628 0.18344371 0.040176254 -0.07366061 0.16332513 -0.18473697 -0.11607587
-0.17464209 0.018535636 -0.06337253 0.058998138 0.019032769 -0.11783312 -0.093862124 -0.05659559
-0.21532016 0.07341069 -0.17442608 -0.02668583 0.018712323 -0.087815076 0.174992 -0.2537749
00000000: 20dd 15be 588c ccbd 6471 393c 4fcc 51be
00000010: 902b 2dbd cd9d 68bd 2980 a7bd b765 893d
00000020: b4e0 66be 39b1 09bd abd8 3b3e db8f 243d
00000030: 60db 96bd b43e 273e b02b 3dbe 30b9 edbd
00000040: 60d5 32be 0cd8 973c 75c9 81bd 08a8 713d
00000050: 9cea 9b3c 7e52 f1bd c93a c0bd c7d0 67bd
00000060: e37c 5cbe 5858 963d c09c 32be 3e9c dabc
00000070: 964a 993c 64d8 b3bd 1a31 333e c9ee 81be

running_mean f4 [32]
1.4210149 0.6628148 -0.25121576 0.33852446 0.26453882 0.5438891 0.37649113 0.22599487
1.1400485 0.18293963 0.16945669 0.49193442 0.48773476 0.64925915 1.218075 0.63556063
0.5941879 0.6719616 0.6463988 1.1127859 0.7081812 1.4633657 0.5736885 0.6590568
0.90752447 -0.23393698 1.5036681 0.3824911 0.65499 1.4238673 1.0539321 0.54523075
00000000: d1e3 b53f 3bae 293f 5a9f 80be 1453 ad3e
00000010: a271 873e 513c 0b3f 72c3 c03e 336b 673e
00000020: 1ced 913f 8754 3b3e 0e86 2d3e d4de fb3e
00000030: 5fb8 f93e d935 263f e2e9 9b3f 1ab4 223f
00000040: b31c 183f ad05 2c3f 647a 253f c56f 8e3f
00000050: 5d4b 353f 914f bb3f 40dd 123f f2b7 283f
00000060: 8653 683f 2d8d 6fbe 3278 c03f e0d5 c33e
00000070: 6dad 273f 4941 b63f 3fe7 863f 3e94 0b3f

running_var f4 [32]
0.6658003 0.2383252 0.32746494 0.19686323 0.26759368 0.38616085 0.48396754 0.5186175
0.39494374 0.19913675 0.22279653 0.72671795 0.21908934 0.16269045 0.2527427 0.3044316
0.116673425 0.14510053 0.19810078 0.23792252 0.36361945 0.30966341 0.13233568 0.32871646
0.29389426 0.71160656 0.20247148 0.42975366 0.206433 0.32395983 0.107121505 0.18881814
00000000: e371 2a3f 850b 743e 7ca9 a73e 8496 493e
00000010: 0a02 893e e0b6 c53e 98ca f73e 1ec4 043f
00000020: 1136 ca3e 81ea 4b3e c624 643e 300a 3a3f
00000030: f558 603e 5398 263e 7e67 813e 75de 9b3e
00000040: 7af2 ee3d 3c95 143e eeda 4a3e f6a1 733e
00000050: 542c ba3e 348c 9e3e 0183 073e 864d a83e
00000060: 4f79 963e d92b 363f af54 4f3e ac08 dc3e
00000070: 2c63 533e 10de a53e 8562 db3d 8b59 413e

weight f4 [32, 32, 3, 3]
-0.01868759 -0.03313149 -0.028883232 0.03107707 0.018517107 0.0008175327 -0.015972406 -0.018512633
-0.032592192 0.03532582 -0.0031763522 0.012094465 -0.0006697516 0.002023974 0.015770987 0.05757941
0.03452159 0.0072908206 0.021181101 0.056958664 0.048433308 -0.049337614 -0.04849258 0.031018002
-0.018584996 -0.00484638 -0.014620816 -0.007855568 0.034597374 -0.06433538 -0.009033036 -0.0052915355
-0.017755952 0.020176431 -0.056347024 -0.00020587513 0.010647 0.03293247 -0.019897137 -0.0077103483
-0.024891684 -0.022571813 0.02578336 -0.037692867 0.04672866 -0.06706022 -0.021725686 -0.008702226
0.008073949 0.04433419 0.045262124 -0.006847299 -0.0095219975 -0.014500479 0.0134184575 0.010982464
0.016088696 -0.013539227 -0.030382492 -0.005367341 -0.01740068 -0.023332296 0.012191662 -0.0024218806
-0.05855066 -0.023879819 -0.02393268 -0.029257 -0.039696284 0.008835581 0.0010795398 0.0067118714
-0.012769008 0.0075841094 0.007622744 -0.014320072 -0.013188875 0.018386584 0.032540713 0.025829127
0.030029094 0.018587565 0.038268544 0.03349251 0.0040172185 0.04188504 -0.02985042 0.03065848
0.017173264 -0.0033041765 -0.0022710594 0.012230122 0.015147074 -0.012270373 -0.0289309 -0.03645816
0.014476988 -0.029530667 -0.02529163 0.00905666 -0.02635492 0.0026142108 0.008651932 -0.023811426
-0.029661493 -0.025554689 -0.07840202 -0.067882076 -0.00011432315 0.028487455 0.014876847 0.030259687
0.031901516 -0.017714726 -0.010911131 -0.023903163 0.016591417 0.0073327427 0.014639123 0.014366882
0.0065916493 -0.004507893 -0.017997114 0.034592945 0.00794967 0.023953682 -0.014806715 -0.019385949
-0.034112297 -0.038856197 0.001769672 0.0061331294 -0.03460129 0.00022490202 0.013893708 -0.0504641
-0.012765299 -0.01910377 0.008714287 0.026502714 0.027610863 0.017027274 0.01416631 -0.058994163
0.06670606 0.010736837 0.014486734 -0.05692053 0.070344016 0.032511543 -0.01760448 -0.008972293
0.0070574377 0.008246205 -0.03393085 -0.009735561 -0.0230978 -0.0179308 -0.032340806 0.031221677
0.013420087 0.03350702 0.034860212 0.018710412 0.017772598 0.042353768 0.046685398 -0.06866193
0.05593369 0.02728762 -0.034466352 -0.0020026898 0.056147598 0.04464257 0.0068195667 -0.040258568
0.020326275 -0.0076397676 -0.027172785 -0.040774036 0.01571206 0.038945153 -0.005629164 -0.03564161
0.030422078 0.016316196 0.020282913 0.058122803 -0.014716173 0.006533335 -0.014213889 -0.040629663
-0.0081166765 0.028623503 -0.0017881212 0.01935877 0.0075735045 0.029666372 -0.0018758411 -0.018232571
0.03054489 0.043698415 0.014238303 0.002292378 -0.026874928 0.014514486 -0.0056293635 -0.038797766
-0.020164924 -0.06041967 -0.025183875 -0.021419669 -0.056540813 0.008841562 0.036310174 -0.0034156807
-0.0028310479 -0.011600853 -0.030498616 -0.059835166 -0.051814098 -0.07418273 -0.032315344 -0.0023630147
-0.052160576 -0.02972904 -0.012426715 0.01644967 0.009132858 -0.034853786 -0.034719802 0.011599821
0.0012812623 -0.010585469 0.01542499 0.00057527964 -0.026557093 -0.041997444 0.03892854 -0.04074946
0.072311796 0.037673827 0.040384594 -0.017590456 0.009946121 -0.057549637 -0.030226734 0.012125833
-0.05514905 -0.034306362 0.020397762 -0.05455561 -0.03541402 0.01970336 0.064561516 -0.03531661
00000000: b716 99bc e3b4 07bd 879c ecbc 5795 fe3c
00000010: 30b1 973c b14f 563a 90d8 82bc cea7 97bc
00000020: 647f 05bd cfb1 103d 592a 50bb dd27 463c
00000030: 4592 2fba a6a4 043b 2832 813c 63d8 6b3d
00000040: 8366 0d3d d6e7 ee3b fd83 ad3c 7d4d 693d
00000050: 0162 463d 3d16 4abd 28a0 46bd 7719 fe3c
00000060: 903f 98bc 62ce 9ebb 268c 6fbc a4b4 00bc
00000070: fab5 0d3d 45c2 83bd 4dff 13bc 9e64 adbb
00000080: ee74 91bc 0b49 a53c 23cc 66bd 2fe0 57b9
00000090: c170 2e3c 33e4 063d 52ff a2bc 17a7 fcbb
000000a0: a5e9 cbbc 86e8 b8bc a037 d33c d663 1abd
000000b0: 8d66 3f3d de56 89bd 11fa b1bc c893 0ebc
000000c0: 9948 043c c597 353d c764 393d 4f5f e0bb
000000d0: 2702 1cbc 6b93 6dbc 17d9 5b3c cbef 333c
000000e0: 71cc 833c a2d3 5dbc b4e4 f8bc 85e0 afbb
000000f0: df8b 8ebc 5f23 bfbc 89bf 473c 6ab8 1ebb
00000100: d1d2 6fbd 9c9f c3bc 780e c4bc 60ac efbc
00000110: 9298 22bd 1dc3 103c 587f 8d3a 42ef db3b
00000120: 1a35 51bc 1f84 f83b 36c8 f93b bc9e 6abc
00000130: 2716 58bc 769f 963c 6949 053d 9b97 d33c
00000140: 93ff f53c f344 983c 7abf 1c3d 712f 093d
00000150: dfa2 833b a68f 2b3d de88 f4bc 7e27 fb3c
00000160: f2ae 8c3c e28a 58bb 0ed6 14bb da60 483c
00000170: 6f2b 783c ad09 49bc 7f00 edbc 2755 15bd
00000180: e430 6d3c 4cea f1bc 6430 cfbc 6362 143c
00000190: 46e6 d7bc 2e53 2b3b d5c0 0d3c 2e10 c3bc
000001a0: a9fc f2bc 1158 d1bc 3d91 a0bd c205 8bbd
000001b0: c6c0 efb8 865e e93c 05be 733c 2ae3 f73c
000001c0: 2aab 023d 791e 91bc 9ac4 32bc 91d0 c3bc
000001d0: b9ea 873c 8147 f03b efd8 6f3c 1263 6b3c
000001e0: c3fe d73b f3b6 93bb af6e 93bc 55b1 0d3d
000001f0: 553f 023c 833a c43c dd97 72bc 48cf 9ebc
00000200: 56b9 0bbd ad27 1fbd 57f4 e73a 6bf8 c83b
00000210: 15ba 0dbd add3 6b39 6fa2 633c 72b3 4ebd
00000220: 8b25 51bc 827f 9cbc 5ec6 0e3c 381c d93c
00000230: 2d30 e23c c87c 8b3c d019 683c dda3 71bd
00000240: 309d 883d 8fe9 2f3c c459 6d3c 8025 69bd
00000250: 8610 903d d32a 053d 4537 90bc 8600 13bc
00000260: 1442 e73b 171b 073c 13fb 0abd e781 1fbc
00000270: 9937 bdbc 9de3 92bc cb77 04bd 9ac4 ff3c
00000280: eddf 5b3c a83e 093d 95c9 0e3d 9446 993c
00000290: d797 913c 257b 2d3d 3039 3f3d a09e 8cbd
000002a0: ba1a 653d 498a df3c 972c 0dbd 8f3f 03bb
000002b0: 06fb 653d 21db 363d ac76 df3b 2be6 24bd
000002c0: 4a83 a63c 0457 fabb 7699 debc ad02 27bd
000002d0: 94b6 803c f484 1f3d da74 b8bb f0fc 11bd
000002e0: b937 f93c 8ba9 853c 5a28 a63c 2d12 6e3d
000002f0: 1a1c 71bc 9615 d63b 5fe1 68bc 4a6b 26bd
00000300: cffb 04bc d67b ea3c 645f eaba 4996 9e3c
00000310: 292b f83b e406 f33c c8de f5ba 795c 95bc
00000320: 4739 fa3c 1cfd 323d c547 693c b93b 163b
00000330: cf28 dcbc 2bce 6d3c 8676 b8bb 68ea 1ebd
00000340: e930 a5bc 9e7a 77bd 6a4e cebc 4d78 afbc
00000350: 5797 67bd 33dc 103c fab9 143d 9dd9 5fbb
00000360: 1a89 39bb 8111 3ebc 3cd8 f9bc b815 75bd
00000370: 053b 54bd 1ded 97bd 185d 04bd cfdc 1abb
00000380: 54a6 55bd 518a f3bc 6c99 4bbc 75c1 863c
00000390: fca1 153c d8c2 0ebd 5a36 0ebd 2d0d 3e3c
000003a0: 07f0 a73a ad6e 2dbc 19b9 7c3c 5dce 163a
000003b0: 438e d9bc 8305 2cbd 8873 1f3d e8e8 26bd
000003c0: 3518 943d df4f 1a3d 516a 253d dc19 90bc
000003d0: 0ef5 223c 2bb9 6bbd 0e9e f7bc 6eab 463c
000003e0: f8e3 61bd d484 0cbd 3519 a73c b475 5fbd
000003f0: 4b0e 11bd f168 a13c d438 843d 26a8 10bd

bias f4 [32]
0.63948965 0.628073 0.58453435 0.6903568 0.654277 0.6748268 0.58014125 0.6218152
0.6267229 0.5834882 0.5752634 0.68079245 0.66427076 0.5549019 0.68401045 0.73784
0.5808252 0.6282634 0.49574965 0.6763817 0.6117206 0.6540089 0.7139542 0.6653441
0.6033337 0.62483954 0.6221347 0.6927982 0.51455176 0.62177986 0.6672563 0.6465262
00000000: 98b5 233f 64c9 203f 0ba4 153f 39bb 303f
00000010: b37e 273f 73c1 2c3f 2384 143f 482f 1f3f
00000020: e970 203f 7c5f 153f 7644 133f 6a48 2e3f
00000030: a60d 2a3f 0d0e 0e3f 4f1b 2f3f 15e3 3c3f
00000040: f6b0 143f dfd5 203f e6d2 fd3e 5a27 2d3f
00000050: b999 1c3f 216d 273f b4c5 363f fe53 2a3f
00000060: 1474 1a3f 7cf5 1f3f 3844 1f3f 395b 313f
00000070: aab9 033f f72c 1f3f 4fd1 2a3f be82 253f

weight f4 [32]
0.975248 1.0019532 0.95886284 1.0202606 1.0253874 0.94644964 0.99469966 1.0640804
0.99686456 0.9929446 1.0507531 1.0341216 1.0106338 1.0059491 1.0297811 0.9476811
1.004223 1.0036438 0.9864588 1.032886 1.0054827 0.9894849 0.96132135 1.0248998
1.0213608 1.0642629 0.9649853 0.93206894 1.003938 1.0024488 1.0192055 0.9709716
00000000: daa9 793f 0140 803f 0978 753f e697 823f
00000010: e53f 833f 864a 723f a3a4 7e3f c933 883f
00000020: 8432 7f3f 9e31 7e3f 147f 863f 195e 843f
00000030: 735c 813f f1c2 803f decf 833f 3b9b 723f
00000040: 618a 803f 6677 803f 9088 7c3f 9c35 843f
00000050: a8b3 803f e24e 7d3f 2819 763f eb2f 833f
00000060: f3bb 823f c439 883f 4709 773f 129c 6e3f
00000070: 0a81 803f 3e50 803f 5375 823f 9891 783f

bias f4 [32]
0.10536605 -0.16918065 -0.032150593 -0.30908224 -0.38263547 -0.11690184 -0.11676551 -0.08988991
-0.13556351 0.013182836 -0.2613722 -0.05077445 -0.08700986 -0.34477046 0.010851673 -0.02217323
0.10735883 0.008892327 -0.27434704 0.030919768 -0.19031392 -0.032592226 -0.21956538 -0.2716347
0.016840532 -0.09872475 0.0014802394 -0.10661628 -0.06213928 -0.1057 -0.057060506 0.05132265
00000000: 28ca d73d b13d 2dbe 57b0 03bd 0740 9ebe
00000010: cce8 c3be 3b6a efbd c122 efbd 3318 b8bd
00000020: 29d1 0abe d2fc 573c 94d2 85be dff8 4fbd
00000030: 3a32 b2bd c185 b0be 37cb 313c a2a4 b5bc
00000040: f2de db3d 1fb1 113c 3777 8cbe 744b fd3c
00000050: a7e1 42be 6d7f 05bd bfd5 60be b413 8bbe
00000060: 28f5 893c 3430 cabd 9804 c23a a359 dabd
00000070: c285 7ebd 3e79 d8bd 47b8 69bd b337 523d

running_mean f4 [32]
0.49231407 0.77472013 0.3808339 0.7348993 0.80020183 0.67057806 1.1040449 0.42738375
0.26478225 0.92661303 0.25198498 0.44098106 0.450036 0.5050513 0.5165238 0.69985104
0.7843265 -0.0065361997 0.5850361 0.49301764 0.7767252 0.50804424 0.4941766 0.50725245
0.006562324 0.91783273 0.5064193 0.75057024 0.44717398 0.24010505 0.30353543 -0.0010872531
00000000: 9710 fc3e 0f54 463f a9fc c23e 5c22 3c3f
00000010: 07da 4c3f 01ab 2b3f 5851 8d3f 0bd2 da3e
00000020: 8a91 873e 8336 6d3f 2d04 813e 45c8 e13e
00000030: 1e6b e63e 0b4b 013f e73a 043f 7029 333f
00000040: 9fc9 483f 9e2d d6bb edc4 153f cf6c fc3e
00000050: 76d7 463f 300f 023f b704 fd3e 4cdb 013f
00000060: c308 d73b 16f7 6a3f b2a4 013f 5f25 403f
00000070: fdf3 e43e 19de 753e ff68 9b3e 2982 8eba

running_var f4 [32]
0.14231543 0.1622048 0.4954633 0.32565403 0.4294607 0.81473714 0.75843596 0.38309395
0.22622623 0.55448353 0.3335207 0.31841218 0.58565253 0.19675787 0.345337 0.5649898
0.46660104 0.6794891 0.46691442 0.30342105 0.17845379 0.7826821 0.33996293 0.16480178
0.32013634 0.34571114 0.46998957 0.31183353 0.39802697 0.51801425 0.4171704 0.58311594
00000000: 23bb 113e 0419 263e 5ead fd3e 20bc a63e
00000010: 46e2 db3e 9d92 503f dc28 423f e424 c43e
00000020: d9a7 673e a2f2 0d3f 3ac3 aa3e ec06 a33e
00000030: 53ed 153f e57a 493e 03d0 b03e 2ca3 103f
00000040: 55e6 ee3e fff2 2d3f 680f ef3e 015a 9b3e
00000050: 97bc 363e db5d 483f 9f0f ae3e ccc1 283e
00000060: e9e8 a33e 0d01 b13e 79a2 f03e a5a8 9f3e
00000070: 31ca cb3e 959c 043f 5c97 d53e 1647 153f

weight f4 [32, 32, 3, 3]
0.029310003 -0.014061014 0.019951364 0.026741456 -0.0053445604 -0.0159739 0.020775722 0.00838854
-0.010886597 -0.114393584 -0.018044623 -0.030628618 -0.03795204 -0.011163388 0.007748832 -0.03812872
-0.033656325 1.7221391e-05 -0.009466693 0.039084114 0.027587801 0.051334355 0.025120614 0.022291569
0.009501956 -0.027735405 0.0019977004 -0.0014733318 -0.034124296 -0.0057294965 0.0077306605 0.0064735864
0.00130811 0.015824549 0.025327213 -0.0010409921 0.06476706 0.010639631 0.05154158 0.07702833
0.051274147 0.05442335 0.08191144 0.04959521 0.12679675 0.005644638 -0.040098496 -0.0263797
0.0028271973 -0.012953901 -0.020963676 0.006921817 -0.0034867234 -0.016163688 -0.026424756 -0.014012194
0.020951996 -0.017686877 -0.05685346 -0.009940238 0.007546049 0.008336682 -0.004202348 -0.058324452
-0.023161681 0.04461208 -0.04225366 0.037835024 0.017006522 0.007819166 0.053936858 -0.010428369
0.07175806 0.025560506 -0.0025385753 0.03374017 0.018100921 0.02033286 0.029360874 0.032254864
0.040216617 -0.0010641878 0.0046847067 0.018836312 -0.040060997 -0.056647774 -0.0028579864 -0.017760625
-0.024963187 -0.010624293 0.033983048 -0.031627063 -0.014148599 -0.010926906 -0.043693863 0.0032819293
0.014969881 -0.03141859 -0.0018115029 -0.034652974 -0.050667144 -0.11075563 -0.028358808 -0.054292273
-0.08180543 -0.03357035 -0.04782543 -0.07913173 -0.02085831 -0.033567335 0.0002520731 -0.006191582
-0.019523576 0.03245704 -0.01241491 -0.03147642 0.012094405 -0.049712755 -0.010386308 -0.021080395
-0.012048131 -0.009632462 0.0032464096 0.01848404 0.042936727 0.039369326 0.00467951 -0.025068529
-0.050823763 -0.015055641 0.028221443 0.0046028118 -0.012910603 -0.008445199 0.0072984216 0.017005514
0.011019429 0.01283386 0.0055851378 -0.023015508 0.027007328 -0.00532835 0.003063182 0.057764664
-0.03420411 -0.007004875 -0.0057674823 -0.046685677 0.017816642 0.0068372083 -0.012972653 0.018055053
0.0016786265 -0.006702793 -0.000107998814 -0.0013284436 -0.027454138 -0.010482241 0.012337815 0.042941794
-0.029960914 0.004294123 0.012111745 0.010463543 0.05211353 -0.028106267 -0.023606952 0.04426278
0.03529245 0.008113127 0.01845155 0.073529534 0.02478539 -0.02193635 0.061643954 -0.02350938
0.002764871 -0.020558458 -0.013388176 0.030254973 0.035160962 0.009873214 0.01647746 0.017073562
0.036204487 0.05841279 0.025806732 0.032774653 0.05185982 -0.02107001 0.009368066 0.005927383
-0.018978717 -0.034100205 -0.0131188575 -0.030758936 0.0032235805 -0.040416718 -0.01766771 -0.050542016
-0.048273582 -0.0046933964 0.00017224258 -0.025477443 -0.01921948 -0.002978646 -0.039606724 -0.050391465
-0.014159311 -0.047756374 -0.045829605 0.004623277 -0.030303316 -0.0016687 0.039828163 -0.04886391
-0.029192556 0.0016583701 -0.008689383 -0.0036977057 0.0432707 -0.016493918 -0.029368209 0.024330428
0.019666541 -0.03387315 -0.024560725 0.013810638 0.032970965 0.0035600953 0.021267094 0.03247466
0.026800387 0.06481041 0.050556354 0.03577259 -0.042677432 0.014361513 0.033103712 -0.03928801
0.00095402455 -0.01873793 -0.044662695 -0.031183913 -0.049823385 -0.06966434 -0.03641532 -0.034238182
-0.036678944 0.0071757957 0.033417113 -0.01752607 -0.014043187 -0.036371227 -0.026703801 -0.015817918
00000000: 881b f03c 2b60 66bc 0b71 a33c e610 db3c
00000010: 6c21 afbb b2db 82bc d931 aa3c 1670 093c
00000020: b35d 32bc 2f47 eabd 51d2 93bc dee8 fabc
00000030: 9973 1bbd a5e6 36bc eae9 fd3b dc2c 1cbd
00000040: 37db 09bd a876 9037 301a 1bbc aa16 203d
00000050: d0ff e13c f943 523d bfc9 cd3c cf9c b63c
00000060: 18ae 1b3c 5c35 e3bc daeb 023b d01c c1ba
00000070: ebc5 0bbd 80be bbbb 7b51 fd3b 6120 d43b
00000080: e374 ab3a 7ca2 813c 047b cf3c e671 88ba
00000090: 98a4 843d d951 2e3c 441d 533d 07c1 9d3d
000000a0: d704 523d 05eb 5e3d 2fc1 a73d 5924 4b3d
000000b0: 02d7 013e a8f6 b83b 523e 24bd 3e1a d8bc
000000c0: 8048 393b 993c 54bc 04bc abbc 69d0 e23b
000000d0: 8381 64bb b669 84bc bb78 d8bc 6793 65bc
000000e0: 85a3 ab3c 12e4 90bc 2cdf 68bd 61dc 22bc
000000f0: d944 f73b 9496 083c dab3 89bb 9fe5 6ebd
00000100: 91bd bdbc 28bb 363d 2c12 2dbd e6f8 1a3d
00000110: 4351 8b3c f61b 003c e5ec 5c3d c0db 2abc
00000120: e4f5 923d 4464 d13c 3a5e 26bb 2233 0a3d
00000130: 6248 943c 1991 a63c 3786 f03c ad1d 043d
00000140: 2eba 243d 387c 8bba 2b82 993b 9c4e 9a3c
00000150: 0017 24bd 7f07 68bd 0e4d 3bbb bb7e 91bc
00000160: 997f ccbc 8411 2ebc cf31 0b3d 618b 01bd
00000170: 86cf 67bc c406 33bc 56f8 32bd a315 573b
00000180: 3b44 753c c8b0 00bd f36f edba 47f0 0dbd
00000190: 5a88 4fbd d9d3 e2bd bb50 e8bc 9361 5ebd
000001a0: 9b89 a7bd 1081 09bd 99e4 43bd d10f a2bd
000001b0: 0cdf aabc e77d 09bd ae28 8439 c1e2 cabb
000001c0: e8ef 9fbc acf1 043d e867 4bbc 6bed 00bd
000001d0: 9c27 463c 9a9f 4bbd 552b 2abc cbb0 acbc
000001e0: 8665 45bc 79d1 1dbc b7c1 543b d76b 973c
000001f0: 6cde 2f3d bb41 213d 9356 993b 845c cdbc
00000200: 942c 50bd efab 76bc a830 e73c 2fd3 963b
00000210: fe86 53bc bb5d 0abc 9927 ef3b 264f 8b3c
00000220: d68a 343c 1c45 523c 8803 b73b 058b bcbc
00000230: 793e dd3c 7099 aebb abbf 483b a49a 6c3d
00000240: 9c19 0cbd 2789 e5bb 26fd bcbb 7b39 3fbd
00000250: 35f4 913c a90a e03b 408b 54bc 31e8 933c
00000260: 5c05 dc3a 1aa3 dbbb 6c7d e2b8 2c1f aeba
00000270: 80e7 e0bc b5bd 2bbc 8c24 4a3c bce3 2f3d
00000280: 9770 f5bc b7b5 8c3b 5770 463c 486f 2b3c
00000290: ff74 553d 1d3f e6bc 5e63 c1bc e44c 353d
000002a0: d18e 103d ecec 043c b427 973c a796 963d
000002b0: bb0a cb3c dcb3 b3bc 5f7e 7c3d be96 c0bc
000002c0: d732 353b 366a a8bc 155a 5bbc 47d9 f73c
000002d0: f104 103d 43c3 213c bdfb 863c dbdd 8b3c
000002e0: 284b 143d 4042 6f3d a468 d33c b73e 063d
000002f0: f66a 543d 039b acbc 847c 193c 7e3a c23b
00000300: 4179 9bbc a8ac 0bbd 7af0 56bc 2afa fbbc
00000310: b542 533b 008c 25bd e0bb 90bc 2505 4fbd
00000320: 85ba 45bd 10cb 99bb 049c 3439 12b6 d0bc
00000330: 2c72 9dbc 6335 43bb a93a 22bd 4867 4ebd
00000340: 74fc 67bc 309c 43bd d3b7 3bbd dc7e 973b
00000350: a93e f8bc 48b8 daba db22 233d 8625 48bd
00000360: 3a25 efbc ab5d d93a ea5d 0ebc 3555 72bb
00000370: 9e3c 313d 411e 87bc 9995 f0bc 9b50 c73c
00000380: ba1b a13c 92be 0abd 9333 c9bc 0446 623c
00000390: 900c 073d 7d50 693b 5438 ae3c 2604 053d
000003a0: 7c8c db3c 52bb 843d 2e14 4f3d 4886 123d
000003b0: 88ce 2ebd 8d4c 6b3c c297 073d 77ec 20bd
000003c0: 8117 7a3a 4a80 99bc 3bf0 36bd 6875 ffbc
000003d0: 9b13 4cbd 2dac 8ebd 3b28 15bd 563d 0cbd
000003e0: a93c 16bd f022 eb3b 62e0 083d d592 8fbc
000003f0: 6515 66bc fff9 14bd eec1 dabc 9494 81bc

bias f4 [32]
0.55682296 0.68615365 0.54859495 0.6310481 0.5187908 0.6169835 0.5824788 0.6483514
0.60077196 0.6466703 0.47069678 0.5420533 0.69565725 0.5477487 0.5691791 0.47163743
0.71660346 0.53634775 0.7217238 0.5618077 0.7397019 0.6644669 0.6159845 0.5950364
0.5417895 0.5788343 0.5848714 0.806886 0.71484125 0.7360167 0.5576774 0.6435869
00000000: f38b 0e3f c4a7 2f3f b870 0c3f 5e8c 213f
00000010: 79cf 043f a1f2 1d3f 551d 153f 5bfa 253f
00000020: 31cc 193f 2f8c 253f 2bff f03e 01c4 0a3f
00000030: 9816 323f 4239 0c3f b9b5 113f 767a f13e
00000040: 5373 373f 164e 093f e4c2 383f a1d2 0f3f
00000050: 1b5d 3d3f 811a 2a3f 29b1 1d3f 4e54 183f
00000060: b7b2 0a3f 7c2e 143f 22ba 153f 1590 4e3f
00000070: d6ff 363f 976b 3c3f f2c3 0e3f 1cc2 243f

weight f4 [32]
0.9531594 1.0033919 1.0054189 0.9750668 0.96737945 1.0000564 0.9293773 1.0064282
0.9270316 1.0205225 0.9999334 0.9635424 0.9646292 0.9835939 0.9457409 0.96004695
0.9695781 1.0251348 1.0268753 0.99534154 0.9961581 0.95981383 0.9845681 1.0059288
0.98077506 0.96508586 0.9863574 0.99338037 0.97171 1.0089236 0.97776616 0.95502394
00000000: 4102 743f 256f 803f 91b1 803f fa9d 793f
00000010: 2ea6 773f d901 803f aceb 6d3f a4d2 803f
00000020: f151 6d3f 7ba0 823f a3fb 7f3f b7aa 763f
00000030: f0f1 763f cfcc 7b3f 131c 723f a3c5 753f
00000040: 4536 783f 9e37 833f a670 833f b4ce 7e3f
00000050: 3804 7f3f 5cb6 753f a80c 7c3f 46c2 803f
00000060: 1314 7b3f de0f 773f eb81 7c3f 2d4e 7e3f
00000070: fdc1 783f 6924 813f e24e 7a3f 737c 743f

bias f4 [32]
-0.026720094 -0.048778918 -0.050988846 -0.038521502 -0.05592522 -0.027108405 -0.22132191 0.080689766
-0.17527893 -0.02485466 -0.029061437 -0.0010718445 -0.04239736 -0.036952402 -0.03133684 -0.044915657
-0.029462269 -0.07940315 -0.13924879 -0.031060537 -0.2811046 -0.060798038 -0.1907612 -0.26724496
-0.09409393 -0.07843331 -0.11071959 -0.183973 0.008978171 0.025039708 -0.07053267 -0.0045976005
00000000: 19e4 dabc 67cc 47bd aed9 50bd b9c8 1dbd
00000010: d811 65bd 7212 debc 36a2 62be ad40 a53d
00000020: 527c 33be 009c cbbc 4012 eebc 227d 8cba
00000030: dba8 2dbd 675b 17bd 0f5b 00bd 7bf9 37bd
00000040: db5a f1bc 1e9e a2bd 3c97 0ebe ab72 febc
00000050: f1ec 8fbe 5d07 79bd e756 43be 55d4 88be
00000060: 52b4 c0bd a5a1 a0bd f4c0 e2bd 6b63 3cbe
00000070: 2e19 133c 1320 cd3c 6f73 90bd 78a7 96bb

running_mean f4 [32]
0.3780311 0.36239177 0.4781053 0.48949152 0.22799079 0.25828543 1.054305 0.61891305
0.8048431 0.5868428 0.28987136 0.69121397 0.4925101 0.16543332 0.012117216 0.5934631
1.2391586 -0.01715153 0.83448535 -0.10703348 0.81746167 0.3987142 0.64143735 0.9657972
1.0086234 0.17363721 0.20768347 0.6972104 0.56206304 0.041646384 0.50660366 0.38736057
00000000: 4b8d c13e 6a8b b93e 38ca f43e a29e fa3e
00000010: 6b76 693e fd3d 843e 77f3 863f 1671 1e3f
00000020: 330a 4e3f 543b 163f 056a 943e 66f3 303f
00000030: 492a fc3e 5a67 293e 4a87 463c 33ed 173f
00000040: c09c 9e3f 5e81 8cbc d5a0 553f 5f34 dbbd
00000050: 2b45 513f 4524 cc3e 3d35 243f 7c3e 773f
00000060: 921a 813f f4cd 313e faaa 543e 617c 323f
00000070: 5de3 0f3f 6695 2a3d c7b0 013f 2054 c63e

running_var f4 [32]
0.4899552 0.671967 0.40875745 0.6443828 0.55131114 0.5211078 0.5042617 0.29023302
0.4604604 0.40068853 0.46923435 0.5425759 0.33168647 0.66614014 0.4223866 1.1029428
0.30403513 0.88085115 0.5320053 1.3584867 0.1936915 0.3645456 0.080847815 0.36490434
0.8481314 0.55253285 0.7653305 0.90747213 0.27272153 0.56584 0.34936705 0.5944766
00000000: 68db fa3e 0806 2c3f a848 d13e 45f6 243f
00000010: ba22 0d3f 5267 053f 4b17 013f 6c99 943e
00000020: 77c1 eb3e 0c27 cd3e 7c3f f03e 41e6 0a3f
00000030: cfd2 a93e 2988 2a3f 0e43 d83e 3b2d 8d3f
00000040: 7eaa 9b3e 767f 613f 8031 083f e4e2 ad3f
00000050: 1157 463e b9a5 ba3e 8a93 a53d bed4 ba3e
00000060: 241f 593f cb72 0d3f b3ec 433f 1850 683f
00000070: 28a2 8b3e e4da 103f 3de0 b23e 9e2f 183f

weight f4 [3, 32, 3, 3]
0.016099574 0.034998126 0.05274161 0.0010069545 0.038682003 -0.021809755 0.020240141 0.029272143
0.013278045 0.030415557 0.017465163 0.029759375 0.022847723 0.0020018376 0.014350868 0.023484385
0.03539873 -0.017893 0.005316319 -0.021936806 -0.0018684274 0.05241877 0.025458382 0.011407775
0.01668088 0.054859936 0.04396779 0.0056873104 -0.0075699305 0.05833313 0.050991476 0.01962196
0.011797092 0.021118391 0.059458595 0.021627076 0.026241673 0.0352091 -0.01229394 -0.035683956
0.025750494 0.03896338 0.05055159 0.0315123 -0.0017457773 0.056249358 0.033869404 0.035633
0.014265157 0.03282885 0.01698223 0.00089179876 0.015627185 0.008632766 0.075181045 0.0050060344
0.0025247745 0.012604865 -0.05382672 -0.015294676 0.053275418 0.006104897 -0.00060939445 0.03299952
0.018880054 -0.024209345 -0.0041343835 0.014156682 -0.044259816 0.0070920647 -0.02479921 -0.04733955
-0.001654741 -0.014813579 0.0036268244 -0.01906997 -0.025806502 -0.0037801538 -0.05062638 0.0025040342
-0.037452266 0.015820637 0.046489496 0.04711922 -0.02791166 -0.015171432 0.017293317 0.06129784
0.032117784 0.040112887 -0.028334243 0.015588202 0.047449023 0.004169197 0.028962677 0.016443009
-0.001353146 -0.024055041 0.0154714435 0.05037921 0.0002584426 0.025738524 0.03401882 0.016026136
0.019259652 0.04572372 0.06407125 0.038747348 0.02147356 -0.0035206338 0.0552128 -0.0022767722
0.009888951 0.013565428 0.018030709 0.022764597 0.05853378 -0.022958286 0.004013059 -0.03687188
0.040918205 0.007305525 -0.008911196 0.009480033 0.004461992 0.0058817524 0.0045495857 -0.010169906
-0.019098742 -0.0008558888 0.031795792 0.021488475 0.011498089 0.02730913 -0.0042501646 0.020441512
0.0071462574 -0.0041633327 0.04795798 0.06082234 0.016129654 -0.010028103 0.03736118 0.042360973
-0.0017658258 -0.022419458 -0.043862652 0.038818024 0.020766262 -0.03159718 -0.02899211 0.0069820285
0.0056781406 -0.019548276 -0.0042114635 0.018900538 -0.0077581964 -0.011846504 -0.009678588 -0.00926799
0.007647821 0.02894367 0.008261184 0.00038267515 -0.040974714 0.011526126 0.016107937 -0.036568012
0.023510803 -0.0043317624 -0.058659375 0.06908002 0.015206488 0.033577144 0.07603523 0.013736947
-0.00056116295 0.028092965 -0.0020294809 0.03375041 0.06044237 0.01928046 0.0025871617 0.035367124
0.008644075 -0.04297703 0.03987031 0.01675006 0.0031662227 -0.0035472293 0.0040682857 0.04223819
-0.042716917 -0.026242897 0.0056333737 -0.040316585 -0.009547803 0.040261537 -0.024792394 -0.06392986
-0.030374566 -0.031757712 -0.0035607205 0.0063336506 0.040253766 0.02500813 0.06494661 -0.09295262
-0.02409961 -0.005005783 -0.067384444 -0.060442347 0.010246031 -0.081259966 -0.0035470696 -0.046109155
-0.035325285 -0.0061410796 -0.043143697 -0.036977377 -0.01652794 -0.0558101 -0.02768325 -0.016207928
-0.012023126 0.023972267 0.0022950927 0.054926883 0.040921457 0.0030591113 0.017885778 0.00065423717
0.0011947007 -0.022721898 -0.0074608526 -0.0058531845 -0.010348242 0.013990605 -0.016564751 0.006576804
-0.0007126892 -0.0018939959 -0.012116072 -0.00432291 0.0047607566 0.013025924 0.015240924 -0.01129898
0.044919208 -0.03427874 0.02439815 0.024293244 0.013868548 -0.0043564825 0.02726432 -0.025179429
00000000: 41e3 833c 325a 0f3d 9607 583d c9fb 833a
00000010: 0571 1e3d 5faa b2bc a7ce a53c 22cc ef3c
00000020: 288c 593c 0c2a f93c 1a13 8f3c efc9 f33c
00000030: 262b bb3c 4331 033b e71f 6b3c 5362 c03c
00000040: 42fe 103d 5794 92bc 8434 ae3b d1b4 b3bc
00000050: 05e6 f4ba 10b5 563d 198e d03c ade7 3a3c
00000060: 57a6 883c d0b4 603d 9217 343d 9e5c ba3b
00000070: 2e0d f8bb b8ee 6e3d 70dc 503d 3cbe a03c
00000080: 9748 413c 7a00 ad3c db8a 733d 442b b13c
00000090: c7f8 d63c 6b37 103d 866c 49bc 5729 12bd
000000a0: b3f2 d23c 1198 1f3d 2f0f 4f3d 0b13 013d
000000b0: 91d2 e4ba ba65 663d a5ba 0a3d e9f3 113d
000000c0: 68b8 693c 8b77 063d 511e 8b3c 9ac7 693a
000000d0: 9504 803c 7270 0d3c 85f8 993d a909 a43b
000000e0: b076 253b a384 4e3c 6879 5cbd 8596 7abc
000000f0: 5337 5a3d 960b c83b c5bf 1fba 812a 073d
00000100: 58aa 9a3c ad52 c6bc b979 87bb 6ef1 673c
00000110: c849 35bd 8d64 e83b b627 cbbc 1ee7 41bd
00000120: e5e3 d8ba a7b4 72bc 04b0 6d3b a038 9cbc
00000130: 2868 d3bc 75bc 77bb 9b5d 4fbd b91a 243b
00000140: 8c67 19bd 489a 813c c56b 3e3d 1500 413d
00000150: fea6 e4bc 9991 78bc b7aa 8d3c 7213 7b3d
00000160: f08d 033d 694d 243d 371d e8bc a865 7f3c
00000170: e859 423d c29d 883b 2343 ed3c 7db3 863c
00000180: 0c5c b1ba 140f c5bc f07b 7d3c 6e5a 4e3d
00000190: 947f 8739 99d9 d23c 5157 0b3d 3e49 833c
000001a0: 6bc6 9d3c cc48 3b3d ca37 833d 8ab5 1e3d
000001b0: 52e9 af3c 6fba 66bb d126 623d e635 15bb
000001c0: 4405 223c 8741 5e3c 23b5 933c d27c ba3c
000001d0: 1ec1 6f3d 0413 bcbc fb7f 833b f806 17bd
000001e0: d999 273d 2f63 ef3b 4400 12bc 2452 1b3c
000001f0: e735 923b b7bb c03b b114 953b ad9f 26bc
00000200: f774 9cbc ba5d 60ba 4e3c 023d 9908 b03c
00000210: 7b62 3c3c 66b7 df3c f744 8bbb f574 a73c
00000220: 272b ea3b 916c 88bb 966f 443d d920 793d
00000230: 5622 843c ea4c 24bc 0908 193d b382 2d3d
00000240: 4873 e7ba 03a9 b7bc 53a9 33bd a6ff 1e3d
00000250: 021e aa3c 0b6c 01bd dd80 edbc 80c9 e43b
00000260: b20f ba3b b523 a0bc 5100 8abb 4dd5 9a3c
00000270: 7838 febb d717 42bc f192 1ebc c4d8 17bc
00000280: 939a fa3b 471b ed3c eb59 073c caa1 c839
00000290: 1ad5 27bd 14d8 3c3c cbf4 833c 57c8 15bd
000002a0: ba99 c03c 75f1 8dbb d044 70bd d379 8d3d
000002b0: a224 793c 3088 093d 5cb8 9b3d ef10 613c
000002c0: 021b 13ba 3823 e63c 0a01 05bb df3d 0a3d
000002d0: 6b92 773d 0ef2 9d3c 5f8d 293b 1edd 103d
000002e0: e19f 0d3c af08 30bd 0d4f 233d 6c37 893c
000002f0: 6780 4f3b a278 68bb 414f 853b f401 2d3d
00000300: eff7 2ebd 58fb d6bc 2a98 b83b 0123 25bd
00000310: 636e 1cbc 48e9 243d 6b19 cbbc a9ed 82bd
00000320: 15d4 f8bc 6014 02bd fa5a 69bb 838a cf3b
00000330: 22e1 243d dadd cc3c ba02 853d f15d bebd
00000340: 8c6c c5bc 8d07 a4bb db00 8abd 6592 77bd
00000350: f8de 273c a06b a6bd f475 68bb f4dc 3cbd
00000360: 3fb1 10bd 1c3b c9bb 72b7 30bd 9775 17bd
00000370: 9a65 87bc 2299 64bd fcc7 e2bc 7dc6 84bc
00000380: a5fc 44bc 7d61 c43c 4469 163b 03fb 603d
00000390: 429d 273d 5f7b 483b 3285 923c 1d81 2b3a
000003a0: 8197 9c3a 4623 babc 2b7a f4bb 12cc bfbb
000003b0: ac8b 29bc da38 653c cdb2 87bc 3b82 d73b
000003c0: c3d3 3aba f53f f8ba 7d82 46bc 33a7 8dbb
000003d0: 1f00 9c3b af6a 553c 12b5 793c 5b1f 39bc
000003e0: 34fd 373d dd67 0cbd a1de c73c a002 c73c
000003f0: e838 633c d3c0 8ebb 6c59 df3c 1745 cebc

bias f4 [3]
0.058054842 0.042741522 0.03114164
00000000: eaca 6d3d bc11 2f3d c11c ff3c
